lightning_logs/version_82/checkpoints/epoch=9-step=3960.ckpt (torch, 883061 bytes, 18 tensors)

station_embedding.weight f4 [70, 2]
000000 57 e4 a6 3f 96 54 a7 3f 6d d9 5c bf 35 f3 2e 3e
       1.3038434 1.3072689 -0.86269265 0.17084964
000010 c0 c2 5d 3f ef e0 87 3e df c2 4d bf f7 2a b2 3f
       0.8662529 0.26538798 -0.80375475 1.3919362
000020 d0 81 7e 40 b9 7d 02 40 bf 29 92 3f 9f 6a 0c c0
       3.9766731 2.0389235 1.141899 -2.1940076
000030 8e e7 70 bf 53 8b 06 c0 3d 13 ad be 04 c8 78 bf
       -0.94103324 -2.1022537 -0.3380374 -0.971802
000040 0d 10 37 3f c0 72 98 3f 2c e4 c0 3f c3 cd 83 bd
       0.71508867 1.1910019 1.5069633 -0.0643573
000050 3b d6 98 bf 65 44 dc be df 98 8e bf 14 cc 0c c0
       -1.1940378 -0.4302093 -1.1140403 -2.199956
000060 76 77 3d bf 56 4e e1 bf dd 25 62 bf 68 56 07 bf
       -0.7401041 -1.7602031 -0.88339025 -0.5286622
000070 da b6 be bf 30 36 9f 3e 6e fb ae bf fd 71 74 bf
       -1.4899552 0.3109603 -1.367048 -0.9548643
000080 31 20 7d 3d f9 e7 1f 3e 4f a0 c4 bf a6 01 1a c0
       0.06179828 0.15615834 -1.5361422 -2.4063506
000090 7e 85 a7 3e e5 82 9b 3f 65 eb 36 3f 31 7a 89 bf
       0.32719034 1.2149321 0.71452934 -1.0740415
0000a0 9c e0 db bf 1a 1d b0 3f 4f 70 85 3e f5 ba 7f 3f
       -1.717792 1.3758881 0.26062247 0.9989465
0000b0 c8 e1 77 3f a7 09 1f bf bd a1 b6 bf d7 1c a0 bd
       0.9682889 -0.62124103 -1.4268109 -0.07818001
0000c0 f6 75 8a bf ee 30 15 c0 26 3d bd 3f 5c 84 cf 3f
       -1.0817249 -2.3311114 1.4784286 1.6212268
0000d0 4d 04 5d 3f d2 d8 2a 3f f9 90 f7 bf a7 46 aa 3f
       0.8633469 0.6673709 -1.9341117 1.3302811
0000e0 fe 74 cf 3e dd f2 c9 3f 93 8c 10 3f e5 69 d4 3e
       0.40518945 1.5777241 0.564645 0.4148704
0000f0 f6 20 3d 40 75 49 11 40 e2 32 95 bd c5 c4 1b be
       2.9551368 2.2701085 -0.07285096 -0.1521178
000100 0b be a9 3f 35 14 a2 3f 0d b4 31 3f fa 3a 4a 3f
       1.3261122 1.2662417 0.6941536 0.7899624
000110 f9 3c a4 bf 5f 71 21 3f 47 1c ce be 71 01 8f be
       -1.2831107 0.63063616 -0.4025595 -0.27930787
000120 83 fb 65 bf 63 0c 1c c0 a2 9b 70 3f 6d 9b 22 40
       -0.898369 -2.438256 0.93987477 2.5407364
000130 eb 7d ea 3e 3b 71 a7 3f ae b3 de bf b4 9b 2b c0
       0.45799193 1.308143 -1.7398584 -2.6813784
000140 83 4c cb 3d 07 4a 98 be ec fd 7b 3f 08 bc 01 40
       0.09926703 -0.29743978 0.9843433 2.0271015
000150 58 33 f4 3e 36 da 21 3f ad cc 6a bf 6e 32 04 bf
       0.47695422 0.6322359 -0.9171856 -0.5163945
000160 7c bf 35 bf 0d 11 db bf 37 10 86 be c4 61 2a c0
       -0.70995307 -1.7114578 -0.26184246 -2.6622171
000170 e4 67 e3 bf 57 be 8c bf 82 15 66 3e f5 04 b7 be
       -1.776608 -1.0995587 0.22469142 -0.3574597
000180 19 7c a5 be 5a c6 56 3f 71 32 30 be 4d 6c 50 3f
       -0.32321241 0.8389641 -0.17206742 0.81415254
000190 2c a0 0b 40 5f f7 b3 3f cc 0b 8e bf c8 bf fb bf
       2.181651 1.4059867 -1.109735 -1.9667902
0001a0 d4 18 6a 3f 9c 0a 2e 40 39 d7 d0 be ca 6d e0 3f
       0.91444135 2.7193975 -0.40789202 1.7533505
0001b0 e2 02 cf 3f 70 9b 87 3c d7 b8 95 bf 5f 27 4d 3f
       1.6172755 0.01655361 -1.1697034 0.801382
0001c0 ba eb eb bf e3 22 62 3f f8 e5 06 3e 65 30 8b 3f
       -1.8431313 0.8833448 0.13173664 1.0874144
0001d0 b2 60 d2 be 54 56 f3 bf 40 dc a8 bf 2a 60 96 3f
       -0.41089398 -1.901072 -1.3192215 1.1748097
0001e0 a7 39 f8 bf ac f2 5c c0 db 3b fb 3f 21 29 99 3f
       -1.9392594 -3.4523115 1.9627641 1.1965677
0001f0 00 11 9f 3d 13 32 59 bf 2b 28 14 c0 58 37 ee bf
       0.07766914 -0.8484203 -2.3149517 -1.861064
000200 6c 68 02 bf d9 57 11 3e 58 10 bf 3d 75 a7 65 3f
       -0.50940585 0.14193667 0.09329289 0.89708644
000210 a8 7c bc 3e 2a c6 01 3f 83 08 8c 3f 2b a5 ec 3f
       0.36813855 0.50693 1.0940098 1.8487905
000220 ea d7 9f bf 54 5e 21 bf 57 36 18 3f 57 c5 72 3f
       -1.2487767 -0.6303456 0.59457916 0.94832367

lstm.weight_ih_l0 f4 [11200, 2]
000000 87 c3 0c 3d ff 26 42 3d ca be 27 bd 7d 90 4c bd
       0.034366157 0.04740047 -0.040953435 -0.049942482
000010 ca 47 47 3d 3e 9e 34 3d 8e af 52 3d 6e 4b 8c 3d
       0.048652448 0.044096224 0.051436953 0.068503246
000020 0c a7 11 bd 02 09 55 bd 9b b5 85 3d 79 30 86 3d
       -0.0355597 -0.052010544 0.06528779 0.06552214
000030 b8 e1 4a bd e5 6e 3e bd 88 24 5d 3d 02 66 80 3d
       -0.04953167 -0.046492476 0.053989917 0.062694564
000040 3b c6 2d bd 07 f0 8e bd be d5 82 3c ed f3 d0 3c
       -0.042425375 -0.06979375 0.01597106 0.025506938
000050 97 db 6b 3d 6b df 61 3d e1 4e f8 3c 77 8b 49 3d
       0.057582464 0.05514471 0.03031105 0.04920527
000060 f2 0b 12 3d cd cb a3 3c a3 33 3b 3d 18 17 43 3d
       0.035655923 0.01999464 0.04570354 0.047629446
000070 5e 17 71 3d 30 a9 54 3d fe c1 32 3d 2e ab 19 3d
       0.058860175 0.051919162 0.043642037 0.037516765
000080 61 99 ea be ed b3 48 be ca c1 44 3d 98 9f 7e 3d
       -0.45820144 -0.19599886 0.048036374 0.06216392
000090 07 07 69 3d c7 41 21 3d 66 89 7f 3d 93 ed 47 3d
       0.056891467 0.03936937 0.062386893 0.048810553
0000a0 7e db 2b bd 56 af 53 bd 7a 94 18 3d 9b d5 00 3d
       -0.04195737 -0.051680885 0.037250973 0.03145371
0000b0 7b 8e 51 3d 11 a2 62 3d 00 53 33 3d 92 ac f0 3c
       0.05116127 0.05533034 0.043780327 0.029379163
0000c0 89 cb 5b 3d a6 ff 06 3d df 18 ab bc cf a2 1a bd
       0.053660903 0.03295865 -0.020885883 -0.037752923
0000d0 fe 2a 56 bd de a3 3d bd 8e 8c 26 bd 7a 43 b8 bc
       -0.052287094 -0.046298854 -0.040661387 -0.022493113
0000e0 20 00 25 bd 29 83 49 bd 90 fe bb 3c 2c 64 c3 3c
       -0.040283322 -0.04919735 0.022948533 0.023851477
0000f0 df fc 10 3d 14 a0 81 3d 73 78 36 bd 13 16 98 bc
       0.035397407 0.063293606 -0.044548463 -0.018565213
000100 7b 82 8b 3d eb f7 6b 3d 2b 7f 05 3c 48 4f 6c bb
       0.068119965 0.05760948 0.008147995 -0.0036057997
000110 61 57 9e 3c 46 18 92 3c 78 90 91 3d f6 cf 46 3d
       0.019328775 0.01783384 0.07107633 0.04853817
000120 5d 26 60 3d 96 3f 61 3d 7f ea 1c 3d 5e bf b7 3c
       0.054724086 0.05499228 0.03830957 0.022430118
000130 12 0b 20 3d c1 3f 2a 3d d6 57 74 3d e1 97 00 3d
       0.039073057 0.041564707 0.05965408 0.031394843
000140 d8 9f eb 3c 70 ac 12 3d b9 74 4c 3d d8 f2 5d 3d
       0.028762743 0.03580898 0.049916003 0.054186672
000150 c0 03 2e 3d a0 ce 72 3d 79 73 29 3d 4f 2a 2a 3d
       0.042484045 0.059279084 0.04136989 0.041544255
000160 08 11 44 3d b2 4b 96 3d ae f8 3f bd 2a 43 2c bd
       0.047867805 0.073386565 -0.04686802 -0.04205624
000170 6e ac 18 3d 36 48 68 3d 86 b6 2d bd af f2 3d bd
       0.037273817 0.05670949 -0.042410396 -0.04637402
000180 95 1e 11 3d b1 08 40 3d 6f 4e 06 3d 47 91 20 3d
       0.035429556 0.04688329 0.032789644 0.039201047
000190 d7 99 87 be 74 7b e3 be 04 7d d5 3c 3a e6 b6 bb
       -0.26484558 -0.44430125 0.026060589 -0.0055816444
0001a0 cf d7 13 3d 26 ce 6f 3d f4 bb 6c 3d 1f d4 0c 3d
       0.036094483 0.058546208 0.057796434 0.034381982
0001b0 a4 67 1a 3d a6 6a 55 3d 6c 00 67 3d 62 07 7d 3d
       0.037696496 0.05210366 0.056396887 0.06177462
0001c0 b4 7b 35 3c 9e 39 a7 3c 27 fa 3e bd 51 04 6a bd
       0.011076856 0.020413216 -0.046625283 -0.057133023
0001d0 24 d6 c9 3c fb 20 6b 3d 21 46 19 bd 38 e4 6c bd
       0.024638243 0.0574045 -0.037420396 -0.057834834
0001e0 63 45 21 3e 66 6f cd 3d 0c 91 58 3d ac f6 aa 3c
       0.15749125 0.10031013 0.052872702 0.020869575
0001f0 6b 3a 57 3d 73 57 7c 3d a9 18 6c 3c 0c 55 1f 3c
       0.052545946 0.061606836 0.014410176 0.009724867
000200 fd 0d 84 3d a7 55 5c 3d 59 1a 31 3d 7f 51 4d 3d
       0.064479806 0.053792622 0.043238018 0.05012655
000210 ad 80 80 3d 1c ec 34 3d 18 73 5d 3d 65 60 40 3d
       0.06274543 0.044170484 0.05406484 0.04696693
000220 5f 2a 69 3d ee 5d 51 3d f3 d3 97 bb 1f da cb 3c
       0.056925174 0.05111497 -0.0046334206 0.024884282
000230 2c 79 63 3c c5 c4 19 3d df 33 51 3d 7a 3e 0b 3d
       0.01388387 0.03754117 0.05107486 0.03399513
000240 4e a3 6d bd a8 fd 8d bd b8 92 5f 3d 3b 72 7a 3d
       -0.058017068 -0.06933147 0.05458328 0.061144095
000250 0c fd 00 3d 61 cf 73 3d ee 7c 08 3d fa c6 d1 3c
       0.031491324 0.059523944 0.033322267 0.025607575
000260 ba 48 77 3d c2 1d 83 3d 3b c8 08 3d cb 1a 1d 3d
       0.06037209 0.0640216 0.03339408 0.03835563
000270 7b e5 e3 bc 8a e2 4b bd 28 63 72 3d 44 a4 2f 3d
       -0.027819386 -0.04977659 0.059176594 0.042881265
000280 b5 37 36 3d 16 d4 30 3d d0 ec a5 3c 9a fd 05 3d
       0.04448672 0.04317101 0.020254523 0.032712556
000290 3e 36 60 3b de 0d 42 3c 03 fe 51 3d f7 c7 5e 3d
       0.0034212018 0.0118441265 0.051267635 0.05438992
0002a0 59 30 48 3d 0b 56 30 3d dc 38 05 3d 64 e7 54 3d
       0.048874233 0.043050807 0.03252493 0.051978484
0002b0 42 4a 75 3d 75 d1 3f 3d 35 dd 1b 3d 8b 35 94 3b
       0.05988527 0.046830613 0.038052756 0.0045229844
0002c0 b6 b4 2f 3d f7 3d 73 3d 9b e7 29 3d 04 96 56 3d
       0.04289695 0.059385266 0.04148064 0.05238916
0002d0 7a 25 e7 bc 32 e2 d6 bc 12 ad 4f 3d b0 4b 80 3d
       -0.028216112 -0.026230905 0.050702162 0.06264436
0002e0 33 71 00 3d e2 14 17 3d 8b 90 80 3d 0d de 1d 3d
       0.031357955 0.03688515 0.062775694 0.038541842
0002f0 d2 c3 5a 3d 25 ac 10 3d 2b 9b 96 3d 23 80 66 3d
       0.053409405 0.03532042 0.07353815 0.056274544
000300 d7 dc 3b 3e 2f bb 38 3e d7 37 76 3d 64 18 44 3d
       0.18345962 0.18040155 0.060111847 0.047874823
000310 3a 79 35 bd 21 92 8b bd 46 42 1b 3d 5b b0 e8 3c
       -0.044305064 -0.06814981 0.037905 0.028404405
000320 ad d2 23 3d f9 44 45 3d 07 9c b2 3c 21 f0 e8 3c
       0.039995838 0.04816148 0.021802915 0.028434815
000330 5f ed 61 bd 91 4f 22 bd b0 31 3d 3d 88 f4 de 3c
       -0.055158015 -0.03962666 0.046189964 0.027216211
000340 15 5f 81 bd 0d cf 5c bd 67 ac 16 3d ae 5b 01 3d
       -0.063169636 -0.053908397 0.03678551 0.031581573
000350 85 50 40 3d a6 2c 31 3d 1f ea c5 3c 10 62 08 3d
       0.04695179 0.04325547 0.02415949 0.033296645
000360 66 0f 62 3d 8b 8e 5a 3d 6b 85 01 3d de bf 2c 3d
       0.055190466 0.053358596 0.031621378 0.042175166
000370 15 d2 17 3d fe 66 f1 3c a6 2b 89 3e ed a5 f0 3e
       0.037065584 0.029468056 0.26791114 0.4700159
000380 d3 1d 95 bd 60 0b 42 bd 9e 94 6b 3d a1 4b 92 3d
       -0.07281079 -0.04737413 0.05751478 0.07143331
000390 96 f1 3d bd 36 cd 35 bd 74 64 1c bd 82 62 9d bc
       -0.046372972 -0.044385158 -0.038181737 -0.019212011
0003a0 98 c2 0e 3d c1 48 4f 3d 90 4c d2 3c 7d 73 a2 3c
       0.034853548 0.050606493 0.025671273 0.01983046
0003b0 a6 a7 43 3d 4a 62 e9 3c 62 63 74 3d fd ac 2a 3d
       0.047767304 0.02848925 0.05966509 0.04166888
0003c0 c9 c3 1c bd 48 87 18 bd de dd 79 3d a6 c6 35 3d
       -0.038272653 -0.03723839 0.061002605 0.0443789
0003d0 b3 da 36 3d fb 2e 36 3d e7 5e 2a 3d dd d1 d6 3c
       0.04464216 0.044478398 0.041594412 0.026223117
0003e0 fb 61 71 3d e0 97 1b 3d 2d 68 8f 3c 87 e5 15 3d
       0.058931332 0.037986636 0.01750573 0.036595847
0003f0 77 ac 66 3d b1 4d 2d 3d 0d 25 d1 3c c1 7c dd 3c
       0.05631682 0.04231042 0.025530363 0.027037026

lstm.weight_hh_l0 f4 [11200, 2]
000000 a1 70 cd 3c c7 31 1f 3d f9 e0 7d bd 0d 51 4f bd
       0.02507812 0.03886583 -0.06198213 -0.050614405
000010 75 6b 04 3d 83 79 40 3d 64 b3 90 3c 82 23 af 3b
       0.03232904 0.046990883 0.017663665 0.005344809
000020 97 32 04 bd 83 f9 41 bd b9 df e0 3c 0d ae 0b 3d
       -0.03227481 -0.047357094 0.02745043 0.034101535
000030 4e 82 d0 3d bc d1 28 bb ad e4 38 3d 67 ef 31 3d
       0.10181104 -0.0025759777 0.045139957 0.043441202
000040 49 49 4c bd 99 46 0c bd 69 1b 82 3d a0 29 4c 3d
       -0.049874578 -0.034247015 0.06352884 0.049844384
000050 67 a3 61 3d ff ec 41 3d 16 12 37 3d cd b1 bf 3c
       0.055087473 0.047345158 0.044694982 0.023400212
000060 61 de 6f 3d 8f 93 61 3d 91 ad ca 3c ea fd 02 3d
       0.058561686 0.055072363 0.024740966 0.031980433
000070 40 e7 3c 3d 09 67 75 3d 10 b8 84 3d 16 ea 6f 3d
       0.046118975 0.059912715 0.0648042 0.05857285
000080 f9 b8 2a bd 44 4a 95 3e 72 0c d4 3c 7a 6c a0 3c
       -0.04168031 0.29158223 0.02588484 0.019582976
000090 a5 01 39 3d bd 81 c7 3c 79 7b 7c 3d 1c 06 65 3d
       0.045167584 0.024353856 0.06164119 0.05591403
0000a0 34 95 62 bd 1e 51 1b bd b9 ae c3 3c cc 1b 0b 3d
       -0.055318072 -0.037919156 0.023887025 0.033962056
0000b0 98 44 ca 3c 14 1c 27 3d 9e 12 75 3c 4c 30 00 3d
       0.024690911 0.04079826 0.014958052 0.03129606
0000c0 2f a6 39 3d 8f e2 e4 3c 3a 46 24 bd cb 6b 4b bd
       0.0453245 0.027940063 -0.040106036 -0.049663346
0000d0 a2 22 3f bd e9 20 13 bd 28 a7 6b bd 01 2f 3e bd
       -0.046663888 -0.035920057 -0.05753246 -0.046431545
0000e0 20 57 3f bd 4f 11 75 bd bd c3 7f 3d 7a 6f 83 3d
       -0.04671395 -0.05983096 0.06244253 0.06417747
0000f0 e4 56 16 3d ec 12 93 3c 76 d7 1e bc 3d 64 ec bc
       0.03670396 0.017953359 -0.009694925 -0.028856391
000100 e1 63 07 3d e9 5c 49 3d 98 b5 59 bd 1b 51 7e bd
       0.033054236 0.04916087 -0.053151697 -0.062089067
000110 15 94 8a 3d 93 0e 84 3d 92 0e 2f 3d 98 b3 7a 3d
       0.06766526 0.06448092 0.042738505 0.06120643
000120 80 1e 35 3d ae 3d 0b 3d 44 5b 1c 3d a1 3c 7f 3d
       0.04421854 0.03399437 0.038172975 0.06231368
000130 a3 0c 26 3c 85 9a 1e 3c 9e 57 2e 3d 79 70 1a 3d
       0.010134849 0.009680395 0.042564027 0.03770492
000140 8e cd 4a 3d 6f 89 17 3d 9e 9b 8b 3c 7f 7d f1 3c
       0.04951244 0.0369963 0.017041977 0.029478787
000150 8c fe 34 3d fb 1e 3e 3d 52 86 ed 3c 7a 96 7c 3c
       0.044188067 0.046416264 0.028994713 0.015416736
000160 b0 4c 70 3d c1 b9 01 3d d3 45 8e bd d1 59 2d bd
       0.058666885 0.03167129 -0.06946912 -0.042321984
000170 23 7f f5 3c 3f 3b e8 3c 85 ec 7e bd e8 93 7b bd
       0.02996785 0.028348563 -0.06223728 -0.06142035
000180 dc 7d 29 3d 1d e6 e5 3c 7a 26 52 3d ed 7b 0d 3d
       0.041379794 0.028063828 0.051306225 0.034542013
000190 41 c0 f4 3c 0e 31 aa be db be 64 3d fb 7e 05 3d
       0.02987683 -0.3324055 0.055846076 0.0325918
0001a0 ca 7a a2 3c 1e f0 48 3d 96 56 0f 3d 9b 11 41 3d
       0.019833941 0.04905712 0.034994684 0.04713593
0001b0 58 e1 46 3d 6c 44 52 3d fc 1f 28 3d 7c df 93 3d
       0.04855475 0.051334783 0.041046128 0.07220361
0001c0 09 a9 72 3d 5a 38 24 3d a2 17 6a bd 02 82 4f bd
       0.059243236 0.040092804 -0.057151444 -0.050661094
0001d0 a6 1f 2a 3c 95 9d 9d 3c 55 3c 18 bd 3f 0a 82 bd
       0.010383522 0.01924018 -0.037166912 -0.063496105
0001e0 f5 f0 51 3d ef 07 47 bd 86 98 14 3b f1 fe 91 3c
       0.051255185 -0.04859155 0.002267392 0.01782176
0001f0 41 a4 9c 3c ff b2 4f 3d e1 b3 87 3c de 0f a0 ba
       0.019121291 0.050707813 0.016565265 -0.001221176
000200 ca 72 39 3d 9d 66 73 3d 78 57 1b 3d b2 7a c2 3c
       0.045275487 0.05942403 0.037925214 0.023740146
000210 8d a2 19 3d 91 ec d8 3c d3 fd 0c 3d 50 04 9d 3c
       0.037508536 0.026479991 0.034421753 0.019167095
000220 26 67 29 3d e0 f4 2f 3d 99 9f 42 3d 1f 4e 0f 3d
       0.041358136 0.04295814 0.047515485 0.03498661
000230 8a 45 00 3d 3e 53 45 3d c9 b1 34 3d 02 a7 dd 3c
       0.031316318 0.04817509 0.04411486 0.027057175
000240 d9 93 5b bd fe a9 45 bd 3a 72 c8 3c 0d 64 fc 3c
       -0.053607795 -0.04825782 0.02446853 0.030809427
000250 1d 8f 11 3d 76 33 8a 3c ff dc 63 3d 8d 57 31 3d
       0.035536874 0.016870242 0.05563068 0.043296386
000260 e6 a4 7b bc 0b e1 8f 3c cf 5e 71 3d c2 27 59 3d
       -0.015359139 0.017563364 0.058928307 0.05301643
000270 ae 93 5e bd dd 01 2f bd e1 f0 05 3d bd 3b 16 3d
       -0.054340057 -0.042726386 0.032700423 0.036678065
000280 d8 41 e9 3c be a7 09 3c 88 83 38 3d 3c 77 29 3d
       0.02847378 0.008401809 0.045047313 0.041373476
000290 69 79 07 3d 11 64 7c 3d 8d 09 9b 3c 08 78 43 3d
       0.03307477 0.06161887 0.018925453 0.047721893
0002a0 45 cd 0d 3d 46 5a 04 3d dc 1a 06 3c 74 63 d6 3b
       0.03461959 0.032312654 0.008185115 0.0065426175
0002b0 6e 9a 1c 3d 0b 8f 21 3d f0 28 84 3d 7d c8 88 3d
       0.038233213 0.039443057 0.06453121 0.06678865
0002c0 86 5e 17 3c a2 9f b5 3c 11 4e a8 3c 5f e4 33 3d
       0.009238845 0.022170845 0.020545037 0.043918964
0002d0 10 c8 39 bd 35 ec 29 bd 6b b7 60 3d 6a ac 5f 3d
       -0.04535681 -0.04148503 0.05486242 0.054607786
0002e0 8c 41 78 3d 1b db 21 3d c0 36 0b 3d 93 f8 40 3d
       0.060609385 0.039515596 0.03398776 0.04711206
0002f0 18 65 f7 3c e8 d6 f3 3c 81 c3 83 3d 78 29 4a bd
       0.030199572 0.029765561 0.06433774 -0.049355954
000300 56 34 38 3d c8 80 58 be 1f 93 6b 3d e4 1e 36 3d
       0.044971786 -0.21142876 0.057513352 0.044463053
000310 4b be 48 bd f1 e5 37 bd d1 07 bb 3c 6b 4d 80 3c
       -0.049009603 -0.044897024 0.022830876 0.015661916
000320 59 f0 91 3c 97 d8 84 3c f3 25 5a 3d e1 e6 68 3d
       0.017814802 0.01621656 0.053258847 0.05686081
000330 8e 49 37 bd 39 b3 69 bd a5 80 b5 3c 60 c5 56 3c
       -0.04474788 -0.057055686 0.022156069 0.013108581
000340 01 5c 30 bd 7f f8 e4 bc b8 59 b4 3c a6 a5 b3 3c
       -0.04305649 -0.027950523 0.022015437 0.021929573
000350 b5 b7 e3 3b 88 59 5a 3c e4 0c 74 3d 43 0f 26 3d
       0.00694939 0.01332701 0.059582606 0.0405419
000360 47 52 01 3d e2 6d 32 3d f7 3b f5 3c 93 8c 2c 3c
       0.031572606 0.043561824 0.02993582 0.010531562
000370 f4 30 65 3d c9 33 4d 3d 5f bf 2b bd 81 a5 a4 3e
       0.05595489 0.050098214 -0.041930553 0.3215752
000380 10 79 0c bd 1b 68 69 bd 52 82 38 3d fe ce 2f 3d
       -0.03429514 -0.05698405 0.045046158 0.042922013
000390 e5 6c 0a bd f1 60 74 bd e1 40 ca bc e7 b6 f9 bb
       -0.033795256 -0.059662763 -0.02468914 -0.0076206806
0003a0 36 a7 21 3d 84 41 15 3d 90 73 4f 3d 86 fa 8e 3d
       0.039466105 0.036439434 0.05064732 0.06981377
0003b0 d8 3c a0 3c e9 bc 9f 3c 46 80 2d 3d 25 56 01 3d
       0.019560263 0.01949926 0.04235866 0.031576294
0003c0 19 7c 54 bd fb b7 82 bd 06 dc 38 3d 5e a4 46 3d
       -0.05187616 -0.06382748 0.045131706 0.048496597
0003d0 36 f8 d4 3c 7e ab a5 3c 9d e0 84 3d a6 9c 6a 3d
       0.025997262 0.020223375 0.06488154 0.057278298
0003e0 82 52 b1 3c fd 83 d6 3c 7c 0f 14 3d 30 27 10 3d
       0.021645788 0.026185984 0.03614758 0.035193622
0003f0 0a f3 c8 3c fd 6e 40 3d fc 69 93 3d 51 b4 92 3d
       0.024529953 0.046980847 0.07197949 0.07163299

lstm.bias_ih_l0 f4 [11200]
000000 ee 43 15 3d 35 11 8b bd db fb 5f 3d fc 80 62 3d
       0.036441736 -0.06790391 0.054683547 0.05529879
000010 aa f5 c7 bc bd ef 06 3d 34 ee 7e bd 85 e9 8a 3d
       -0.024409134 0.032943476 -0.062238887 0.067828216
000020 d1 63 05 bd 62 f1 8a 3c 91 45 87 3d 0b 6e 25 3d
       -0.032565895 0.016960803 0.066050656 0.04038815
000030 1c 2f 08 3d 17 db 3a 3d 13 b5 93 3d 6a e1 62 3d
       0.033248052 0.045619097 0.072122715 0.055390753
000040 11 cd 88 3e b6 5d ef 3c f3 06 86 3d 71 48 97 3d
       0.26718953 0.02921949 0.06544294 0.07386864
000050 36 08 44 bd d9 9a 33 3d f2 31 6c 3d 24 73 e5 3c
       -0.047859393 0.043848846 0.05766482 0.028009005
000060 23 1c 73 3d 80 66 ae bc 89 9e 31 bd b2 fb d7 bc
       0.059353005 -0.02128911 -0.04336408 -0.026365135
000070 a1 0c 4a bd 36 a5 67 3c e8 73 11 3d df a6 13 bd
       -0.04932845 0.01413851 0.035510927 -0.036047813
000080 5e 6e 5b 3d 06 b2 02 bd bb 48 2c b9 d9 36 4b 3d
       0.05357205 -0.031908058 -0.00016430292 0.049612854
000090 29 35 54 3d eb 61 1c 3d 17 b7 63 3d f7 12 06 3d
       0.05180851 0.03817932 0.05559453 0.03273293
0000a0 4e 35 ff 3b f0 cd 23 3d e8 3e 1d 3d a5 ef 24 3d
       0.007788337 0.03999132 0.03839007 0.040267605
0000b0 ad 62 25 3d 0a aa 99 bd ec 5d 3e 3d 7d 00 1c bd
       0.040377308 -0.075031355 0.04647629 -0.038086403
0000c0 a5 b6 84 3d 1b 1c 4e 3d f3 a9 f4 bd 1e bf b5 3c
       0.06480149 0.050319772 -0.11946478 0.022185858
0000d0 f2 07 4c 3d ad 25 8e 3d a3 5e 39 3d 73 28 54 3d
       0.049812265 0.0694078 0.04525627 0.051796388
0000e0 06 1f f9 3c 3a 47 c2 bd 94 49 67 3d d6 39 24 bd
       0.030410301 -0.09486242 0.056466654 -0.04009422
0000f0 3b f0 e9 3c e1 05 03 3d db f7 14 3d 97 46 dd bb
       0.028556934 0.03198803 0.036369186 -0.0067527997
000100 b7 d3 8d 3d ed 6d 11 3d 58 bd 69 3d 00 e6 83 3d
       0.06925147 0.035505224 0.057065338 0.064403534
000110 d3 23 70 3d 1a 9d 5c 3b 49 f6 d8 3c dc 33 5f 3d
       0.058627915 0.0033662976 0.026484625 0.054492816
000120 32 02 eb bc d8 43 6e 3d a4 a9 69 3d 85 8b f7 3c
       -0.02868757 0.05817017 0.057046548 0.030217895
000130 c0 23 70 bc 4f de 07 3c a5 7b 47 bd 1f da 38 3d
       -0.014656961 0.008292749 -0.0487019 0.04512989
000140 4a f8 39 bd f8 8f 0f 3d e4 2d 9f bc 0c 0a 68 3d
       -0.045402803 0.03504941 -0.019431062 0.056650206
000150 19 ac 85 3d 93 cf 62 3d a2 a8 33 3d 2c 6e f1 3c
       0.06526966 0.05537374 0.043861993 0.02947148
000160 24 f9 58 3d d9 c7 71 3d 86 5c 5b bd e8 af 88 3d
       0.052971974 0.05902848 -0.053555034 0.066741765
000170 33 d9 67 3d c0 ad 2b 3d d3 69 70 3d 36 27 18 3d
       0.05660362 0.041913748 0.05869467 0.03714677
000180 fe 1d b7 bd 7a e7 4d 3d 6b 89 77 bd 2d 8b 06 3d
       -0.089412674 0.05026958 -0.060433786 0.032847572
000190 0d 68 b1 3c df 4e ac 3c 7d 72 3e bd 10 98 f0 3c
       0.02165606 0.021033702 -0.046495903 0.029369384
0001a0 24 b5 16 bd d1 71 5a 3d c1 00 76 3d 2f db bb 3c
       -0.036793843 0.0533312 0.060059313 0.022931663
0001b0 b3 53 80 3d b1 db 4d 3d 67 86 9f 3c 08 1e 42 3e
       0.06265964 0.050258342 0.019473268 0.18956769
0001c0 21 83 23 bd 8f 7d 57 3d 54 08 89 bd cf 49 0f bd
       -0.039919976 0.052609976 -0.066910416 -0.0349825
0001d0 36 52 4e 3d cb dd 86 3d 0f 93 3d 3d 77 58 8c 3d
       0.05037137 0.065852724 0.046282824 0.06852811
0001e0 0f 10 28 bd ac 6e 64 3d ec e3 66 3d 25 0f 6b 3d
       -0.04103094 0.055769607 0.056369707 0.05738749
0001f0 7d 95 16 3d de 51 37 3d cc 6d 41 3d 8c b8 1c 3d
       0.036763657 0.04475581 0.04722385 0.038261935
000200 5c 24 3d bd c0 4a 30 3d db ba e9 3c 8b 08 77 3d
       -0.046177253 0.043040037 0.028531482 0.06031088
000210 96 2f 4e bd cc 7a cb 3c 9b aa 0c 3d 07 90 eb 3c
       -0.05033835 0.024838828 0.03434239 0.028755201
000220 eb 70 5f 3d d1 ab f5 bc 6d 7a 61 3d 08 8f 58 3d
       0.054551046 -0.029989155 0.055048395 0.05287078
000230 06 ac c4 3c 56 5b a6 bc 10 9c 17 3d 64 69 92 bc
       0.024007808 -0.020307224 0.037014067 -0.01787252
000240 f2 c8 92 3d f5 32 0a 3d 33 bf 4f 3d b6 ee eb 3d
       0.071672335 0.033740003 0.05071945 0.1152014
000250 35 ef d0 3b a3 53 6b 3d 67 35 25 3d d7 fe 49 3d
       0.006376172 0.05745281 0.04033413 0.0493153
000260 fb 6b 87 3d 3d 5e 59 3d 93 c8 94 3d 04 c8 71 3d
       0.066123925 0.05306839 0.07264819 0.05902864
000270 3a 9b 26 3d 31 25 9d 3c f5 8d 7e 3d c4 e3 81 3d
       0.04067538 0.019182773 0.0621471 0.06342271
000280 30 98 64 3d 6c fe 2c 3d 83 77 05 bc e2 9c 3d 3d
       0.0558092 0.042234823 -0.00814617 0.046292193
000290 02 0a 0b 3d 44 c4 26 3d 45 16 65 bd 48 bc 43 3d
       0.03394509 0.040714517 -0.05592944 0.04778698
0002a0 a8 ab 0b 3d 6e 4f 24 3d f0 42 05 3d 9e 16 c9 bc
       0.03409925 0.040114813 0.03253454 -0.024546918
0002b0 49 fe 48 3d 26 1d 45 3d 93 c4 1f 3d 06 c1 d0 bc
       0.04907063 0.0481235 0.039005827 -0.025482666
0002c0 85 0d 63 3d b8 56 89 bd f9 4d 85 3d 60 80 c1 3c
       0.055432815 -0.067059934 0.06509013 0.023620784
0002d0 39 43 cf 3c 49 95 0b 3d cc aa f9 3c ab 44 86 3d
       0.025300609 0.034077916 0.03047695 0.06556066
0002e0 49 ba 82 3d c2 16 60 3d 50 ea 61 bd 99 c0 1d bd
       0.06383187 0.054709204 -0.0551551 -0.038513754
0002f0 5f eb 05 3d 1d b0 d3 3c c1 4b 3d 3d 18 88 6f 3d
       0.03269517 0.025840813 0.046214823 0.0584794
000300 26 30 6a bd aa 2d 25 bd f2 01 7a 3d 9b a7 90 bd
       -0.057174824 -0.04032675 0.06103701 -0.07063218
000310 28 6b 40 3d 36 91 2f 3d a9 5d 15 3d df 4e 1e 3d
       0.046977192 0.042863093 0.036466274 0.038649436
000320 c4 5e 27 bd c7 f9 5f bc 48 d5 56 3d e1 01 29 3d
       -0.04086186 -0.013670391 0.052449495 0.041261557
000330 6a 21 52 3d 94 7e 22 3c bf de b3 3b 89 9e db bc
       0.051301397 0.009917874 0.0054892 -0.026808994
000340 80 38 41 3d f6 2e c4 3c 77 3c 87 bd 2c e7 25 3d
       0.047173023 0.023948174 -0.0660333 0.040503666
000350 39 70 27 3d 6d 7e c4 3c 21 71 06 3d 97 81 83 3d
       0.04087851 0.023986066 0.032822732 0.06421202
000360 ff a9 1c 3d 16 92 88 3d f0 4d 6a 3d d7 37 46 bd
       0.03824806 0.06668489 0.057203233 -0.048393097
000370 fb 3f 00 3d 02 a0 48 3d 6d f1 25 3d 9f ff 1b 3c
       0.031311017 0.04898072 0.040513445 0.009521394
000380 24 67 42 bd d1 d9 60 3c 6d 0b 4c 3d e4 39 1a 3d
       -0.047461644 0.0137238065 0.049815584 0.037652865
000390 45 e1 04 3d 79 0a 0b 3d 91 8d b2 3d bc 5b 2e 3d
       0.032441396 0.033945534 0.08718408 0.042567953
0003a0 8b af 9a 3d cc 98 19 3d 97 c5 21 bd 23 0e 1a 3d
       0.075530134 0.037499234 -0.039495077 0.037611138
0003b0 b0 aa b3 3c c8 e9 4c 3d 93 2d 52 3d a9 b4 77 3d
       0.021931976 0.05002764 0.051312994 0.060475025
0003c0 39 77 03 3d 72 0b ae 3c 9a 00 2c 3d a1 b1 0d 3d
       0.03209612 0.021245692 0.04199276 0.03459323
0003d0 27 24 86 3c 9d 7e 1e 3d 07 c2 6e 3d 2a da a2 3c
       0.01637466 0.038694967 0.058290508 0.01987942
0003e0 02 78 4b bd f0 e5 fd bb 39 a5 fa 3c 43 93 78 3d
       -0.049674995 -0.007748358 0.030596362 0.060687315
0003f0 60 ca d0 bc 95 63 87 3d 21 3c 21 3d 42 9c 05 3d
       -0.025487125 0.06610791 0.039363984 0.032619722

lstm.bias_hh_l0 f4 [11200]
000000 6f 70 0a 3d c9 7e ad bd 6f 90 51 3d c8 c1 18 3d
       0.03379863 -0.08471448 0.051163133 0.03729418
000010 07 91 6a bd 27 cb 84 3d a9 8a 15 bd 2b b6 23 3d
       -0.057267215 0.06484061 -0.03650919 0.03996865
000020 ac 0c 6a bd f8 4a f8 3b ae 3e 84 3d c7 eb 1f 3d
       -0.05714099 0.0075772963 0.06457268 0.039043214
000030 01 81 75 3c 3a cd 10 3d 6e f8 54 3d 6d 3b 30 3d
       0.01498437 0.03535197 0.051994734 0.043025423
000040 b3 06 8b 3e 6b 8b 11 3d e3 18 76 3d 95 fd 9c 3d
       0.2715355 0.03553335 0.060082328 0.076655544
000050 ef 13 67 bd d7 f5 3f 3d 07 da 0c 3d d9 0d 21 3d
       -0.056415495 0.04686531 0.034387615 0.039319847
000060 3f fa 62 3d ee 35 8e bc 29 8d 68 bd b4 00 3f bd
       0.055414435 -0.0173597 -0.056775246 -0.04663153
000070 4e 57 01 bd 29 36 5b 3c 74 a0 59 3d bb 6e b7 bc
       -0.0315774 0.013379612 0.053131536 -0.022391668
000080 7e e9 86 3d 09 a9 33 bd 26 96 c9 3c 91 36 7e 3d
       0.06587504 -0.043862376 0.02460773 0.062063757
000090 3e 2b 3f 3d 31 81 e8 3c e5 d3 43 3d 2f d6 19 3d
       0.0466721 0.028381916 0.0478095 0.037557777
0000a0 44 a5 7e 3c 4c d7 73 3d ac 22 d4 3c 78 7d 00 3d
       0.015542332 0.059531495 0.02589544 0.031369656
0000b0 07 f8 1c 3d 39 a5 52 bd b6 b0 62 3d 98 36 1f bd
       0.038322475 -0.0514271 0.055344306 -0.038870424
0000c0 19 4e f9 3c da 94 44 3d 86 37 b9 bd 03 5c 34 3d
       0.030432748 0.04799352 -0.090437934 0.04403306
0000d0 cc 66 34 3d 17 ea 64 3d 00 9e 76 3c ac 96 55 3d
       0.044043347 0.055887308 0.015052319 0.052145645
0000e0 ba 43 12 3d 01 6d be bd f2 1f 49 3d 77 aa 2a bd
       0.03570912 -0.092981346 0.04910273 -0.041666474
0000f0 7d 62 41 bb fd f7 f6 3c ff 50 7e 3d 27 53 8b bb
       -0.0029508166 0.030147547 0.062088963 -0.004251856
000100 e9 18 0c 3d 3d 11 66 3d d1 74 4f 3d 2e 8f 73 3d
       0.034203444 0.056168783 0.050648514 0.05946272
000110 22 6a 97 3d 12 8e 8c bc c3 4a a1 3b d6 fc 6d 3d
       0.0739329 -0.017157588 0.0049222424 0.05810245
000120 f8 4a 4c bd b9 b8 7e 3d c6 0c 02 3d 7c 38 52 3d
       -0.049876183 0.062187884 0.031750463 0.0513234
000130 b0 b3 94 3c 75 d9 16 3d 1e a3 7d bd e8 60 8b 3d
       0.018152088 0.036828477 -0.06192314 0.06805593
000140 74 74 2e bd a2 ca 9f 3c f2 6d 2f bc e7 52 03 3d
       -0.042591527 0.019505803 -0.010707365 0.032061484
000150 02 75 89 3d 14 1d 05 3d b8 da 97 3d f5 f3 98 3c
       0.067117706 0.032498434 0.07414764 0.018671015
000160 cd d5 56 3d 9a 52 34 3d 6d 80 00 bd d4 b4 69 3d
       0.05244999 0.044024087 -0.031372476 0.057057217
000170 95 f8 41 3d 47 56 22 3d ce e5 37 3d 13 db 86 3c
       0.047356207 0.03963306 0.044896893 0.016461885
000180 05 71 c1 bd 4e 18 8c 3d 73 7d 8b bd 28 ac 4d 3d
       -0.09445385 0.06840573 -0.06811037 0.05021301
000190 7e 2b a7 3c 72 c3 f8 3c b4 30 c7 bc 70 b7 41 3d
       0.02040648 0.030366633 -0.024315216 0.04729408
0001a0 d8 f0 9e bc 92 0e 10 3d 15 27 10 3d 2d 1d 14 3d
       -0.019401953 0.035170145 0.03519352 0.036160637
0001b0 42 69 78 3d ef f2 35 3d c5 c0 11 3d 38 0f 2c 3e
       0.060647257 0.044421133 0.03558423 0.1680268
0001c0 d0 77 96 bd dd bc 44 3d a0 42 93 bd 2c 30 00 bd
       -0.07347071 0.048031677 -0.07190442 -0.03129594
0001d0 96 cc 51 3d ea 72 22 3d c2 0b eb 3c 71 95 90 3d
       0.0512205 0.03966037 0.02869213 0.07059754
0001e0 0d 70 ab bc 21 23 6e 3d 6a 47 07 3d c3 b1 e4 3c
       -0.020927453 0.05813897 0.03302709 0.027916795
0001f0 20 2c f5 3c 2d 6d b9 3c 99 68 61 3d 97 6f 00 3d
       0.029928267 0.022635067 0.055031393 0.03135642
000200 24 0b 6f bd 76 27 d0 3c db b3 13 3d a3 fb 38 3d
       -0.058360234 0.025409441 0.036060195 0.045161854
000210 79 62 0e bd 5c f1 42 3d 89 35 08 3d 33 11 f3 3c
       -0.03476188 0.04759346 0.03325418 0.029671287
000220 00 9d eb 3c b2 11 5b bd ac 31 91 3d a1 03 14 3d
       0.028761387 -0.053483672 0.07089552 0.036136273
000230 a2 56 cf 3c 05 c1 1a bc f3 22 19 3d 9b f4 13 bd
       0.025309864 -0.0094454335 0.037386846 -0.036121946
000240 80 00 99 3d 79 51 cc 3c 6c 84 47 3d 3e e4 bb 3d
       0.074707985 0.024941193 0.04871027 0.09174393
000250 03 97 0a 3d d3 e3 8c 3d a5 05 92 3d 2d 36 8c 3d
       0.033835422 0.068793915 0.07129983 0.06846271
000260 ac 55 7c 3d fb af 57 3d 3f 5f 94 3d 36 98 7f 3d
       0.06160514 0.052658062 0.07244729 0.06240102
000270 c5 e0 6f 3d 89 c2 f6 3c e7 8f 51 3d f4 07 80 3d
       0.058563966 0.030122058 0.051162627 0.06251517
000280 33 d7 7e 3d 20 30 d7 3c b5 3f 32 3c 4a eb 31 3d
       0.06221695 0.026268065 0.010879447 0.04343728
000290 b3 65 1e 3d ec 1c 20 3d 40 fe 57 bd d1 8b 3e 3d
       0.038671207 0.039090082 -0.052732706 0.046520058
0002a0 4c b6 86 3d 5a 32 3b 3d 91 f5 18 3d a1 9a 50 bd
       0.06577739 0.045702316 0.037343565 -0.050928716
0002b0 03 ed 3d 3d 76 39 fd 3c ac 77 8a 3d 15 aa 6d bd
       0.04636861 0.030911189 0.06761107 -0.05802353
0002c0 28 2d 1c 3d 9d 7b 83 bd 5e f6 10 3d 9f b3 09 3d
       0.038129 -0.06420062 0.035391204 0.033618566
0002d0 67 a6 0f 3d 2a f7 78 3d fa ac 3c 3d 26 8f 02 3d
       0.035070803 0.06078259 0.0460634 0.0318748
0002e0 7b aa 40 3d 2e 28 e9 3c 6e 6c a6 bc cb 13 d4 bc
       0.047037583 0.028461542 -0.020315375 -0.025888344
0002f0 80 88 76 3c 7f 17 31 3d 31 c4 96 3d 6a 6f 85 3d
       0.015047193 0.0432353 0.07361639 0.06515391
000300 1e 99 8d bd 30 e8 8d bc f3 cc 6c 3d df d2 45 bd
       -0.069139704 -0.01732263 0.057812642 -0.048296805
000310 50 d9 22 3d bf a9 23 3d 62 90 43 3d 6f c2 4c 3d
       0.039758027 0.039956804 0.047745116 0.049990114
000320 33 2b 56 bd d7 02 c8 3a 44 2b 31 3d 5e 9b 43 3c
       -0.05228729 0.0015259635 0.043254152 0.011938898
000330 37 a0 b4 3c 63 de b7 3c 09 ea c7 3c dd cd 32 bd
       0.022049053 0.02244491 0.024403589 -0.043653358
000340 16 6f 2c 3d a1 6e d1 3b 53 bb fa bc da e2 34 3d
       0.042098127 0.006391362 -0.030606901 0.044161655
000350 19 ef 43 3d 04 84 b2 3c 23 33 2d 3d 05 32 3f 3d
       0.047835443 0.021791466 0.042285096 0.04667856
000360 42 4f 1f 3d 21 fb 43 3d 24 0a 0a 3d d2 34 80 bd
       0.038893946 0.047846917 0.033701077 -0.06260075
000370 ff 3c 00 3d 87 06 19 3d 02 90 55 3d 03 25 03 3d
       0.03130817 0.03735974 0.05213929 0.03201772
000380 8e 9a 84 bd 47 31 a1 3c bd 08 90 3c dc 66 1b 3d
       -0.064747915 0.019676818 0.017582292 0.03793989
000390 87 ba 30 3d 11 22 6d 3d f6 09 90 3d f4 90 4a 3d
       0.043146636 0.057893816 0.0703315 0.049454644
0003a0 94 07 92 3d d7 d4 28 3d 1c a6 1f bd f1 f2 0c 3d
       0.07130352 0.041218605 -0.038976774 0.034411374
0003b0 3c 59 de 3b d5 7a e7 3c f5 9e 2f 3d 10 8e 76 3d
       0.00678554 0.028256813 0.042876203 0.060194075
0003c0 83 a8 1d 3d 00 0c c1 3c 5b a1 8a 3d 10 90 e3 3c
       0.038490783 0.023565292 0.06769057 0.027778655
0003d0 06 13 23 3d 03 47 81 3d 5b 13 0c 3d ff 5d 68 3d
       0.039813064 0.063123725 0.034198146 0.056730267
0003e0 79 4f 7a bd 1b 64 cb bb dc 90 41 3d ee 4a 78 3d
       -0.061110947 -0.006207002 0.04725729 0.060618334
0003f0 ab c4 4c bd 80 2a 83 3d 19 84 59 3d b5 0c 3f 3d
       -0.049992245 0.064045906 0.053104494 0.046642978

lstm.weight_hr_l0 f4 [2, 2800]
000000 d7 91 4d 3d c9 9a 03 3c ad dd 3b 3d 41 c4 8c bd
       0.05018791 0.008032509 0.045865703 -0.0687337
000010 d7 f3 b5 bb 54 cd 45 3d 2e d2 5d bd a0 a4 a0 3d
       -0.0055527496 0.04829152 -0.05415552 0.078439
000020 ae 13 b1 3c 69 7a 7e bc 96 e4 28 3d 2c 1f 2b 3d
       0.02161583 -0.015532115 0.04123362 0.041777775
000030 36 4b c5 bc ff b4 00 bd 44 ef 60 bd 24 28 11 3d
       -0.024083715 -0.03142261 -0.05491568 0.03543867
000040 78 d5 bf 3d 6c 34 1f bd e0 de 6e bd f2 f4 d0 3d
       0.09366888 -0.038868353 -0.05831802 0.102029696
000050 c5 5f c0 bb de 73 21 3d e6 ae 39 3d ba d5 15 3d
       -0.0058707916 0.03941714 0.04533281 0.03658078
000060 45 29 d5 3c 0d 7b 1c bc 41 f8 10 bc 7d fc 2e 3c
       0.026020655 -0.009550822 -0.008848251 0.010680315
000070 b6 d4 36 3c 96 47 20 3d 36 8f 25 bd 44 b9 94 bc
       0.011159113 0.03913077 -0.04041978 -0.018154748
000080 49 9f 67 3d 3d 41 95 3c ee 8c 7c 3d de 8d dd 3d
       0.05654839 0.018219585 0.06165784 0.10818075
000090 b0 87 7c bd 61 a3 52 3d 00 77 45 3d 37 a0 65 3d
       -0.06165284 0.05142534 0.04820919 0.056060996
0000a0 e3 9c 37 bd c3 0e 6a 3d 7d 82 42 3d 74 db 4c 3d
       -0.044827353 0.057142984 0.047487725 0.050013974
0000b0 c6 7d 21 bd 37 f2 9e 3c 0b 44 02 bd 60 57 11 3d
       -0.039426588 0.019402606 -0.031803172 0.035483718
0000c0 f3 0e 7b bd 2a e2 65 bd 89 43 7c bd 79 cb 54 bd
       -0.061293554 -0.05612389 -0.061587844 -0.05195186
0000d0 6a 1f 5b bd 32 a3 d9 3d 56 10 52 bd 4b 42 2c 3b
       -0.053496756 0.1062683 -0.05128511 0.002628463
0000e0 ea c1 8e bd d4 12 40 3c 49 89 31 3d 65 a3 d7 3b
       -0.0697058 0.011723239 0.043343816 0.0065807574
0000f0 1d 17 2d bd 5c 50 3a bd a5 82 f3 3d 6b d0 f9 3c
       -0.04225837 -0.045486793 0.11890153 0.03049489
000100 a2 d8 99 bd c4 88 2f bd 3c ba 20 3d b9 e3 5b 3d
       -0.075120226 -0.04285504 0.039240107 0.05368397
000110 17 1a 57 bd e0 10 f0 3d eb 0b b8 3d 12 59 4f bd
       -0.052515116 0.11721969 0.08986648 -0.050622053
000120 76 a8 22 bb 10 6d a5 3a 9f ce 5f 3d a7 4c a2 bc
       -0.0024819649 0.0012621004 0.05464041 -0.019811941
000130 91 b0 62 bd 0b 9b a8 3d 1c a8 f1 3a 8c d6 0d bd
       -0.055344168 0.08232697 0.0018436941 -0.034628436
000140 19 86 e7 bf 90 14 81 3c c2 46 11 3e 92 77 e2 3d
       -1.8087798 0.015756875 0.14187148 0.110579625
000150 a9 3f 1b bd a8 9e 85 3d 7b 88 3a bd 42 b4 3c bd
       -0.037902508 0.06524402 -0.045540314 -0.046070345
000160 6e f2 61 3d f7 d8 be 3d 4d 1f fa 3a 11 5c 4d 3d
       0.05516284 0.093187265 0.0019082815 0.05013663
000170 be 12 50 3d c0 d5 58 3d ab cc 53 bd a6 69 c0 3d
       0.050799124 0.052938223 -0.05170886 0.09395151
000180 dc c2 2c bd 9b 06 23 3d 0a 83 9d 3c 78 fa a7 bd
       -0.04217802 0.03980122 0.019227523 -0.0820207
000190 bb 70 47 bd e2 11 b6 bb c3 e5 b6 3b 11 be 25 3d
       -0.048691493 -0.005556331 0.005581589 0.040464465
0001a0 53 b5 09 3d a2 84 81 bd 82 43 4f 3d 4f bc 91 3d
       0.03362019 -0.06324126 0.05060149 0.07115995
0001b0 4d d8 79 bd 39 f5 55 bd 8d 36 90 3d 94 ae 9c 3c
       -0.060997296 -0.052235816 0.07041655 0.019126214
0001c0 df 36 d5 3c 7d 92 4c 3d ce 3b 06 bb 6b 7f bf ba
       0.026027141 0.04994439 -0.0020482424 -0.0014610117
0001d0 94 41 89 3d f5 a7 e7 3a 54 5b 0b bd 09 22 4b 3d
       0.06701961 0.0017673956 -0.034022644 0.049593005
0001e0 a4 16 26 3b 10 e1 fa 3d 18 2e 52 3d e7 fd 69 3c
       0.0025343085 0.122499585 0.05131349 0.014281726
0001f0 84 36 42 bd 92 90 20 bd 25 88 53 bd 92 61 36 3c
       -0.04741527 -0.039200373 -0.05164351 0.011131661
000200 f7 5a bf bb eb b3 22 3d fc d4 9e bc a5 5f 5f 3d
       -0.0058397013 0.039722364 -0.019388668 0.054534573
000210 d1 6d 89 bc 42 5d 1a bd 85 c6 88 3d 2c 2d 18 3d
       -0.016775997 -0.037686594 0.066784896 0.037152454
000220 aa 39 9a 3d da 1c a9 bc 00 0c a6 bc 3e 17 2e 3d
       0.0753053 -0.02064364 -0.020269394 0.042502634
000230 fc 76 16 3e e0 47 3c bc 4b c8 35 3d d4 0f ba 3c
       0.14693826 -0.011491746 0.044380467 0.022712626
000240 f7 ff 8e 3d 54 92 5f bd b8 0b 0d bd 7a bb 5b bd
       0.06982415 -0.05458291 -0.034435004 -0.05364559
000250 7d 12 06 bd 6b 37 66 bd 10 87 63 3d 93 de 60 3d
       -0.032732476 -0.056205194 0.055548728 0.054899763
000260 a6 ea 9b bd 36 02 96 3d 90 5c 43 3d ba d8 26 be
       -0.07613115 0.073246405 0.047695696 -0.16293612
000270 9e 09 15 be 8a 84 7f 3d 30 58 83 3d 03 64 53 3d
       -0.1455445 0.06238226 0.06413305 0.05160905
000280 f6 50 7c 3d db d6 61 3d 2b b2 0c bd df 76 98 3d
       0.061600648 0.055136543 -0.0343496 0.07444548
000290 da 92 40 bd 0f ea 0e bd ba a4 be 3c 97 bf 09 be
       -0.04701505 -0.034891184 0.023271907 -0.13451992
0002a0 3f 91 1e bd f1 f0 d0 3d 99 8c f3 3c 55 8a e4 3c
       -0.038712736 0.10202206 0.029730128 0.027897993
0002b0 dd e8 90 bb 81 d0 53 3d 14 f7 21 3d 9b e7 07 bc
       -0.0044222907 0.051712517 0.039542273 -0.008294965
0002c0 2b 8a 04 bd 6c 7e 4a bc 11 5c 7d bd fb 90 70 bd
       -0.03235833 -0.012359243 -0.06185538 -0.058732014
0002d0 ab bb 8a bd dd 50 8c 3d 94 4a ad 3c 9c 45 57 bd
       -0.06774076 0.06851361 0.021153726 -0.05255662
0002e0 51 86 cf bd ed 91 1a bd 19 06 42 3c 23 bd 21 3d
       -0.10133041 -0.037736822 0.011842274 0.039487015
0002f0 2c 4d 01 bd 4b 0c 52 bb cb 62 78 bd 02 da ae 3d
       -0.031567737 -0.0032050784 -0.06064109 0.085376754
000300 27 0a be bc 7f 00 0a 3d 58 eb f9 3c d9 fc d3 ba
       -0.0231982 0.03369188 0.030507728 -0.0016173377
000310 6c f5 59 3d f1 a2 f7 3c 16 72 6a bd cb 9a 5b bd
       0.05321257 0.030229064 -0.057237707 -0.05361442
000320 30 14 3a 3c dd 8e 7b bd d7 1d 4f 3d f9 bc 2f 3d
       0.011357352 -0.061415542 0.050565567 0.042904828
000330 b4 6c 13 bd a3 f6 8f 3d 21 a2 db 3c c1 10 91 bc
       -0.03599234 0.07029464 0.026810708 -0.017708184
000340 7b b0 3f 3d 34 59 45 3c 33 38 10 bd 71 43 78 3d
       0.046799164 0.012045193 -0.035209846 0.060611192
000350 fa 09 38 3d ff 1e 1e bd 33 a3 1e 3c d1 e1 16 3d
       0.04493139 -0.03860378 0.009682464 0.03683645
000360 6b 6b 4f bd 5c 37 8d 3d c7 08 65 3d ec f6 7c 3e
       -0.05063955 0.068953246 0.055916574 0.24703568
000370 82 68 c7 bc b0 dc 3e bd d4 76 5a bd 71 fb e4 bc
       -0.024341825 -0.046597183 -0.05333598 -0.027951928
000380 ca fd 37 bc 27 c6 60 bd 3c 4e 4b 3d 5a f3 ca bd
       -0.011229942 -0.054876473 0.049635157 -0.09909697
000390 50 ca 55 be 0e 18 57 3d 4d 3a bc bc cd d5 2e bd
       -0.20877957 0.052513175 -0.022977019 -0.042684365
0003a0 67 fb 3d bd c6 29 26 3e fa 8b bd 3c 88 ed 41 bd
       -0.046382334 0.16226873 0.023138035 -0.047345668
0003b0 57 b1 06 bc ce 8a 2e 3d aa 63 11 bd 09 e4 26 3d
       -0.008220992 0.042612843 -0.035495438 0.040744815
0003c0 57 4e 14 3d 3a d5 1e 3d 60 d2 63 3d e5 ed 24 bd
       0.036207523 0.038777567 0.05562055 -0.040265936
0003d0 2e 5c db 3c ae 5c 99 bd c0 32 0e bd 80 10 71 bd
       0.026777353 -0.0748838 -0.034716368 -0.058853626
0003e0 1d a3 af 3c 3f 56 97 3c 9e 25 6c 3d 05 18 4c 3d
       0.021440083 0.018473743 0.057653062 0.049827594
0003f0 59 c6 c3 bb 53 39 e8 3c bb 7b 41 bd a6 5e 42 bc
       -0.0059745726 0.028347647 -0.04723714 -0.011863386

exp_avg f4 [70, 2]
000000 69 d3 c5 3b 24 3b 46 3c f1 9a 1e bb bd 0f 4b 3a
       0.006037165 0.012099061 -0.002420124 0.00077461806
000010 50 cc 10 bb 81 d7 16 bb f3 db 97 bb 1b de cb bb
       -0.0022094436 -0.0023016634 -0.0046343743 -0.0062215454
000020 2f 84 f9 ba 99 95 87 bb 04 3c b2 3b ee 2b 46 3b
       -0.0019036586 -0.0041377065 0.0054392833 0.0030238586
000030 d7 c6 38 3a cf ae 6d 3a 80 84 b7 38 a4 ae 00 bc
       0.00070486724 0.0009066881 8.7508e-05 -0.007854138
000040 14 8e 8d 3a 33 0f b5 ba 37 79 01 bb 4c c0 61 bb
       0.0010799789 -0.0013813734 -0.0019756088 -0.0034446893
000050 7d 11 01 3b 0b 0f 86 bb d8 4e 95 bb 91 ee f5 ba
       0.0019694262 -0.0040911487 -0.004556518 -0.0018763115
000060 5a 49 87 bb 31 9f 27 ba e4 54 46 bb ea da 88 3b
       -0.0041286172 -0.0006394266 -0.0030263 0.004176487
000070 f9 ae 8e 3b b0 eb 6c 3c d4 fc 99 bb 9c 00 ec 3a
       0.0043543545 0.014460489 -0.004699329 0.0018005553
000080 b6 d9 24 3a 7d 79 02 3b 85 00 1e b9 02 1d 66 ba
       0.0006288545 0.0019908838 -0.00015068248 -0.0008778126
000090 e5 47 9e bb e3 6c 9b bb c1 07 24 3c d8 fb c3 3b
       -0.004830348 -0.004743205 0.010011614 0.00598095
0000a0 03 41 12 3b cc a6 6c ba 17 cb a8 ba 54 f2 80 bb
       0.0022316582 -0.000902754 -0.0012877908 -0.0039351378
0000b0 60 a6 40 3c e5 5b 5b 3c b8 ad 25 3b d2 02 98 3b
       0.011758417 0.013388609 0.0025280546 0.004639008
0000c0 e7 0a c2 ba 42 e8 86 ba b5 fa 18 bc 6e fc 28 bc
       -0.0014804275 -0.0010292607 -0.009337117 -0.01031409
0000d0 2d a0 61 3a d5 f9 40 39 35 db e3 ba d3 d9 f7 ba
       0.0008606937 0.00018403617 -0.0017384054 -0.0018909521
0000e0 bc 5f 9a bb fa 4f a7 bb 3d 33 20 bb 07 d4 5c bb
       -0.0047111195 -0.0051059695 -0.0024444603 -0.0033695714
0000f0 ee 8c 9e 3a 5d 03 5d ba c8 9c b6 3a 3a e1 d6 ba
       0.0012096444 -0.0008430982 0.0013932223 -0.0016394027
000100 c1 b9 18 bb 51 81 ad bb 87 21 b0 3b f3 51 fe 3b
       -0.0023304077 -0.0052949567 0.0053750905 0.007761234
000110 82 15 8a 3a 84 1c 80 3b d1 d1 41 3a 7e 6d 99 bb
       0.0010534974 0.0039096493 0.0007393631 -0.004682242
000120 bc 3c d1 3b 6b 00 b7 3b ac 81 52 ba 5a 59 42 bb
       0.006385414 0.0055847666 -0.0008030187 -0.0029655308
000130 bc d6 06 3c c1 73 b8 3b 0c cd 90 ba c6 97 95 b9
       0.008229908 0.0056290333 -0.0011047437 -0.00028532575
000140 e2 66 a6 3c 04 26 11 3d f4 58 bd bb 7c 4a 32 bc
       0.02031273 0.035436645 -0.0057784263 -0.010882016
000150 7e 80 8c ba 16 42 ce ba bc ce 06 bc d0 a9 bb bb
       -0.0010719446 -0.0015736248 -0.008228 -0.0057270303
000160 7e f7 2b 3c 79 ba 42 3c 5d bc 0a 3c c7 48 cb 3b
       0.010496018 0.011885279 0.008467761 0.006203744
000170 49 7b 92 bb e2 81 44 bb 8c 3f 3f 3c ff 01 bb 3b
       -0.004470263 -0.0029984643 0.011672866 0.005707025
000180 cf 06 7c b9 0a a3 20 3c 7d 2e 30 3b 86 e0 83 3a
       -0.00024035129 0.009804497 0.0026883178 0.001006142
000190 a0 15 12 ba 68 0b 29 bb 70 ae 01 3c 64 9e 0a 3c
       -0.00055726804 -0.0025794152 0.007915124 0.008460615
0001a0 1f e6 85 bb 2f 75 d0 bb f7 bb 17 bb 03 38 94 bb
       -0.0040862705 -0.0063616256 -0.0023152807 -0.0045232787
0001b0 40 b1 95 3b 7f a4 ff bb 6d 20 02 ba 45 42 4a ba
       0.004568249 -0.007801592 -0.0004963938 -0.00077155634
0001c0 e1 d6 00 3c 08 ce 47 3c 2d c8 7b bc 3c a4 8a bc
       0.007863731 0.012195118 -0.01536755 -0.016924016
0001d0 2e fe 5e 3b 16 3e 94 3b cb 61 82 3b 9d 8f a9 3b
       0.0034026015 0.004524003 0.003978943 0.0051745907
0001e0 12 60 57 3c 99 9f 61 3c e2 ab b1 3b 14 7e 0d 3c
       0.013145464 0.013770961 0.0054221014 0.008636016
0001f0 31 e3 fb b6 5d 3d 37 b9 e2 b4 93 bb ab 8c 94 3a
       -7.5068315e-06 -0.000174751 -0.004507647 0.0011333426
000200 62 4d 62 ba 78 ef 4f 3b bf 59 cc 39 b5 f4 94 3a
       -0.0008632747 0.0031728428 0.00038976778 0.0011364432
000210 a6 6a 00 3c 41 e8 df 3b d8 d1 8d ba 65 d0 3a ba
       0.007837927 0.0068331067 -0.0010819985 -0.000712639
000220 a3 6a 80 bb a1 ad e7 bb 75 b3 27 3b 30 99 01 3b
       -0.003918962 -0.0070702587 0.0025589142 0.0019775145

exp_avg_sq f4 [70, 2]
000000 79 99 96 39 10 67 ca 39 44 ba 90 39 0a 9f 40 3a
       0.00028724576 0.0003860523 0.000276046 0.00073479174
000010 1b d4 88 39 dd 68 00 3a ef f8 41 39 ef d1 89 39
       0.00026097972 0.00048984383 0.0001849865 0.0002628709
000020 53 1c 1c 39 90 78 0c 39 3f 93 57 39 f8 50 17 39
       0.00014887871 0.00013396353 0.00020558851 0.00014430645
000030 d0 e7 2b 3a 83 a0 22 3a 04 35 80 3a be 05 ca 3a
       0.0006557675 0.00062037277 0.0009781425 0.0015413088
000040 d3 74 77 38 91 a7 9d 38 f2 d2 88 39 08 bb 0c 3a
       5.899819e-05 7.517555e-05 0.00026097108 0.0005368446
000050 de 3b b8 3a e8 4a 0c 3b 45 be e5 39 7f 21 d6 39
       0.0014055928 0.0021406952 0.00043820046 0.00040842217
000060 24 27 ad 39 1d 5a aa 39 62 e0 95 3a 7a a4 cd 3a
       0.00033026293 0.00032492066 0.0011434669 0.0015689277
000070 65 be 63 3a ab 78 a8 3a 60 dc 46 3a f5 1f 7a 3a
       0.0008687734 0.0012853345 0.0007585939 0.0009541505
000080 c1 c9 91 39 51 6a f5 39 24 73 6b 3a 7d a3 73 3a
       0.00027806874 0.00046809253 0.0008981696 0.0009294076
000090 fc 1e cd 39 36 a5 ed 39 b7 11 ac 39 86 37 02 3a
       0.00039123732 0.00045327254 0.00032819595 0.000496738
0000a0 ac 86 a8 39 d5 58 df 39 9f ea 58 39 12 97 a3 39
       0.00032143795 0.0004260006 0.00020686768 0.0003120234
0000b0 ca 63 8a 39 30 60 f5 39 f3 7b 1d 3a bc 36 4f 3a
       0.0002639576 0.00046801707 0.00060075446 0.00079045794
0000c0 3b fd 99 39 8c 9e a2 39 b0 3c 3d 39 1f 96 4f 39
       0.00029371105 0.00031017174 0.00018047052 0.00019796983
0000d0 25 00 2f 3a 12 9d 7b 3a 64 d6 50 3a c0 4a 9d 3a
       0.0006675742 0.00095982954 0.0007966517 0.0012000427
0000e0 e7 78 ab 39 6f b8 c0 39 99 28 0d 39 6c cf 8f 39
       0.0003270574 0.00036758507 0.00013461932 0.00027429627
0000f0 34 b6 69 3a 82 e6 54 3a 97 8b ff 39 e9 db 85 3a
       0.0008915395 0.00081215065 0.00048741393 0.0010212633
000100 ba 99 ec 39 14 5a 11 3a 09 a4 bf 39 a6 97 ed 39
       0.00045127963 0.0005544734 0.00036552575 0.0004531715
000110 93 31 f8 39 7f 47 64 3a ca 18 c8 39 6b b4 30 3a
       0.00047339182 0.00087081635 0.00038165442 0.00067407516
000120 ed cf c2 39 47 d0 d0 39 99 ed 40 39 c2 ef 31 39
       0.0003715748 0.0003982803 0.00018399059 0.00016969352
000130 cf 54 14 3a fd 7b 2d 3a 73 ff 9d 3a 24 67 a3 3a
       0.00056583894 0.0006617902 0.0012054279 0.0012466651
000140 65 43 19 3a a6 63 a5 3a 86 2d ba 39 a3 70 bc 39
       0.00058465294 0.0012618199 0.00035510602 0.00035942075
000150 45 f0 65 39 68 02 a6 39 33 ae 9f 3a 7d fa af 3a
       0.00021928649 0.0003166378 0.0012182653 0.0013426092
000160 aa 70 03 3b 6d 9c 19 3b 8e 7d d6 3a b7 80 d3 3a
       0.0020056167 0.0023439184 0.0016364323 0.0016136382
000170 2b 03 aa 3a b5 67 c9 3a e8 4d 54 3a ff 06 8f 3a
       0.0012970915 0.001536599 0.0008098767 0.0010912119
000180 5b fc 33 3a 95 9b 7f 3a 62 f3 0b 39 d2 33 66 39
       0.0006865912 0.00097506616 0.0001334674 0.00021953814
000190 bd 6d c4 38 f5 04 d8 38 18 39 ab 3a de 6f c8 3a
       9.366449e-05 0.00010300606 0.001306328 0.0015292128
0001a0 2d f1 ae 39 a6 a3 bd 39 41 52 53 39 07 2b 8f 39
       0.00033367556 0.00036170817 0.0002015317 0.00027307143
0001b0 37 ec a8 39 8f 58 12 3a d3 33 6a 39 0e ab d1 39
       0.0003221945 0.0005582654 0.00022335285 0.00039991032
0001c0 55 ca a4 3a 5d 6c de 3a 0f d6 a4 3a df 4a bf 3a
       0.0012572507 0.0016969551 0.0012576001 0.0014594457
0001d0 64 53 89 3a d6 74 9d 3a 8d 27 e7 39 32 33 5d 3a
       0.0010477123 0.0012012969 0.0004408922 0.00084381097
0001e0 bd 03 0c 3b b1 a9 1b 3b bd 29 34 39 5b d3 66 39
       0.0021364533 0.0023752267 0.00017181686 0.00022013245
0001f0 f0 15 b6 39 a8 52 e7 39 da 75 51 3a bd a9 69 3a
       0.0003473009 0.00044121337 0.00079902785 0.00089135376
000200 bb fa af 39 b2 bd 47 3a 75 0a d0 39 9b 6c 16 3a
       0.0003356541 0.00076195144 0.00039680643 0.00057382294
000210 00 e6 31 39 c7 21 96 39 48 d8 53 39 78 c7 4e 39
       0.00016965717 0.00028635396 0.00020203099 0.00019719999
000220 88 7e 35 3a a5 e3 5c 3a 4e 33 2c 3a 28 5b 2e 3a
       0.00069234567 0.00084262557 0.00065689243 0.00066511566
