lightning_logs/version_14/checkpoints/epoch=6-step=2415.ckpt (torch, 9473 bytes, 15 tensors)

lstm.weight_ih_l0 f4 [40, 2]
0.21471234 -0.11389152 0.29762545 0.1063318 0.296047 0.23812273 0.040010158 0.053733148
-0.13709417 0.28247157 0.103640474 -0.00137844 0.12830706 0.21298666 0.04181674 0.20441206
-0.29410312 -0.15377523 -0.21468183 0.022105485 -0.25196466 -0.043822758 -0.13342611 -0.3127973
-0.26022267 0.1272657 0.108444236 -0.1429774 0.1786022 -0.06207322 0.118597664 -0.28261137
0.24379948 -0.17404385 -0.00087917614 0.043692436 0.14260063 -0.31187564 -0.02118203 0.13116485
0.076536834 -0.2414728 0.2764845 0.21225639 -0.08387055 -0.06937985 -0.06836823 0.32859364
0.26369748 0.13228084 0.0938854 0.10535536 0.08548546 -0.01399025 -0.053454082 0.1604504
-0.09210739 -0.070673615 0.044528402 0.3064071 0.15660582 0.026145937 0.13499999 -0.025563858
-0.3250007 0.07497086 -0.06563015 0.36093843 0.35975012 -0.07538308 0.1105163 0.22992711
0.17469503 0.1811451 -0.16533753 0.30813208 -0.3024406 -0.12077978 0.06392866 -0.19892007
00000000: 8ddd 5b3e f53f e9bd 5d62 983e 7dc4 d93d
00000010: 7993 973e 72d6 733e b1e1 233d 4a17 5c3d
00000020: 6a62 0cbe 1da0 903e 7541 d43d c5ac b4ba
00000030: ed62 033e 2d19 5a3e 0848 2b3d 6551 513e
00000040: af94 96be 4177 1dbe 8ed5 5bbe 9016 b53c
00000050: 8301 81be 7e7f 33bd dba0 08be f826 a0be
00000060: e83b 85be f151 023e 0318 de3d ab68 12be
00000070: 7fe3 363e 7d40 7ebd 55e3 f23d 70b2 90be
00000080: 92a6 793e 8d38 32be 8378 66ba d7f6 323d
00000090: e605 123e 2aae 9fbe f085 adbc 1450 063e
000000a0: 58bf 9c3d a544 77be 608f 8d3e bd59 593e
000000b0: 53c4 abbd 0617 8ebd a404 8cbd 6d3d a83e
000000c0: 5b03 873e a174 073e fd46 c03d 8dc4 d73d
000000d0: 0013 af3d 5d37 65bc abf2 5abd 1c4d 243e
000000e0: cda2 bcbd 54bd 90bd 6a63 363d 64e1 9c3e
000000f0: 475d 203e 0130 d63c 703d 0a3e 4c6b d1bc
00000100: 7e66 a6be 528a 993d 1a69 86bd eccc b83e
00000110: 2b31 b83e 7262 9abd 5f56 e23d 0372 6b3e
00000120: 41e3 323e 1a7e 393e 3e4e 29be 7dc3 9d3e
00000130: 7fd9 9abe 645b f7bd 07ed 823d b4b1 4bbe

lstm.weight_hh_l0 f4 [40, 2]
-0.26774755 -0.031098679 -0.030779721 -0.21048234 0.22243582 0.22529335 0.28125015 0.20497067
0.08995971 -0.14713565 0.23477015 0.3015045 -0.21799135 -0.31277385 -0.31228656 0.03752079
-0.30656087 -0.0375402 -0.21112928 0.14030652 0.11660789 0.16742885 -0.2577946 0.042789664
0.18113343 0.17744264 0.051508516 0.2748837 -0.044092935 0.24719426 0.28668183 -0.15330148
-0.014220661 -0.044045396 0.03819406 -0.03847487 -0.16653018 0.14600182 -0.23492508 0.08179116
0.16293447 -0.14947931 -0.10298066 -0.040700328 -0.22522184 0.08535763 0.29889035 0.17086695
0.14576301 0.21844801 -0.1664748 -0.20212516 -0.2203685 -0.17819463 0.20821856 -0.14628512
-0.15661994 -0.15344255 -0.06515305 -0.047923658 -0.18068378 -0.18507065 0.11205093 0.2922876
0.3116557 0.14430808 0.14663868 0.26012644 0.30706015 0.079982296 -0.24980257 0.26885387
0.25363898 -0.20865154 -0.21278045 -0.25135857 -0.30718547 -0.18945213 0.064625666 -0.05881791
00000000: 3516 89be a8c2 febc c125 fcbc af88 57be
00000010: 37c6 633e 4db3 663e 0500 903e d5e3 513e
00000020: cc3c b83d baaa 16be 9667 703e cc5e 9a3e
00000030: 2039 5fbe e523 a0be 06e4 9fbe 66af 193d
00000040: 8cf5 9cbe c1c3 19bd 4632 58be 83ac 0f3e
00000050: 1ed0 ee3d 7872 2b3e a7fd 83be 3744 2f3d
00000060: 0b7b 393e 86b3 353e 98fa 523d 8ebd 8c3e
00000070: cb9a 34bd 7e20 7d3e f6c7 923e 10fb 1cbe
00000080: c6fd 68bc f268 34bd 6071 1c3d d397 1dbd
00000090: e386 2abe 8081 153e 3390 70be 2082 a73d
000000a0: 4bd8 263e 1b11 19be 86e7 d2bd 63b5 26bd
000000b0: 8ea0 66be fbcf ae3d 2808 993e bff7 2e3e
000000c0: e642 153e d6b0 5f3e 5f78 2abe e6f9 4ebe
000000d0: 48a8 61be a778 36be 3f37 553e c4cb 15be
000000e0: fa60 20be 0b20 1dbe f66e 85bd 994b 44bd
000000f0: 2b05 39be 2983 3dbe f57a e53d b8a6 953e
00000100: 5691 9f3e 7fc5 133e 7328 163e 4b2f 853e
00000110: fd36 9d3e c2cd a33d 3fcc 7fbe 37a7 893e
00000120: f8dc 813e c0a8 55be 1ee3 59be 12b2 80be
00000130: 6a47 9dbe bdff 41be 765a 843d 0ceb 70bd

lstm.bias_ih_l0 f4 [40]
0.28500864 -0.037651956 -0.18996052 -0.01011338 0.38101268 0.015671836 0.051957846 0.037488822
0.13113964 0.17171803 0.0749113 -0.13392244 -0.18998513 0.2972506 -0.313565 0.2489559
-0.24012075 -0.017315004 0.11755175 -0.18504049 -0.028354544 -0.11833569 0.01940493 0.0020323365
0.2881239 0.13942073 0.15604158 -0.1813046 -0.005203687 -0.09407792 -0.05203988 -0.11278215
0.19610794 0.19343832 -0.09638135 0.34810352 -0.21265793 0.166391 0.22978243 0.014186266
00000000: a7ec 913e f038 1abd 0385 42be 97b2 25bc
00000010: 1814 c33e 3962 803c c0d1 543d e18d 193d
00000020: 7849 063e dad6 2f3e 186b 993d f722 09be
00000030: 768b 42be 3b31 983e 978b a0be 4cee 7e3e
00000040: 37e2 75be 32d8 8dbc f9be f03d 417b 3dbe
00000050: ca47 e8bc fb59 f2bd 16f7 9e3c f330 053b
00000060: fa84 933e 4fc4 0e3e 5dc9 1f3e eaa7 39be
00000070: b183 aabb edab c0bd c527 55bd 54fa e6bd
00000080: 85d0 483e b214 463e 9663 c5bd a03a b23e
00000090: 00c3 59be 6762 2a3e 164c 6b3e 836d 683c

lstm.bias_hh_l0 f4 [40]
0.19077703 0.041923124 -0.019962601 0.39953652 0.0079409145 -0.027302826 -0.13567759 0.27572876
-0.07296497 0.2007921 0.25137934 0.23237641 0.2899469 -0.3072807 0.029480861 -0.04473997
0.21131146 -0.25010297 0.10657347 0.06965689 -0.066520415 0.11954566 -0.011926972 0.30850628
-0.059999198 0.032157484 -0.10435943 0.15864666 -0.2818149 0.1084621 0.25542885 -0.15217394
0.12832202 0.15167686 0.28624105 -0.25302777 0.13840872 -0.16120774 0.07958208 0.012882148
00000000: 0e5b 433e 95b7 2b3d 9c88 a3bc 0d90 cc3e
00000010: 9c1a 023c 2daa dfbc 11ef 0abe 522c 8d3e
00000020: a86e 95bd 729c 4d3e cbb4 803e 15f4 6d3e
00000030: ec73 943e e553 9dbe d981 f13c 4241 37bd
00000040: 0862 583e 7f0d 80be 3143 da3d 46a8 8e3d
00000050: db3b 88bd 5bd4 f43d 5969 43bc 89f4 9d3e
00000060: b8c1 75bd 91b7 033d 66ba d5bd 4574 223e
00000070: 0b4a 90be 6121 de3d 92c7 823e 7cd3 1bbe
00000080: d966 033e 2e51 1b3e 308e 923e db8c 81be
00000090: 04bb 0d3e a413 25be eefb a23d a50f 533c

lstm.weight_hr_l0 f4 [2, 10]
-0.25638816 0.4576965 0.16198532 0.5978185 0.49838108 0.4089639 0.5425308 0.2836724
0.22244789 0.12608045 -0.44558653 0.46973708 0.014149602 0.422801 0.059456494 0.3100259
-0.043374572 0.42680153 0.0008051797 -0.24422522
00000000: 4f45 83be 3257 ea3e 7bdf 253e a20a 193f
00000010: ce2b ff3e b763 d13e 4ce3 0a3f 823d 913e
00000020: 61c9 633e 3c1b 013e eb23 e4be 6181 f03e
00000030: bbd3 673c 5f79 d83e a788 733d b7bb 9e3e
00000040: 89a9 31bd bb85 da3e b212 533a 2d16 7abe

exp_avg f4 [40, 2]
-1.3519648 -1.4952271 -1.397831e-05 -1.3970491e-05 9.843102e-10 1.0168997e-09 -3.6799886 -3.4832952
-0.6401181 -0.44843748 -2.0038173 -1.9452764 -3.8548053e-05 -3.6638186e-05 -0.0012841693 -0.0011883804
3.766893e-10 3.7420758e-10 7.373306e-05 7.178828e-05 0.0 0.0 0.0 0.0
0.0 0.0 0.0 0.0 0.0 0.0 0.0 0.0
0.0 0.0 0.0 0.0 0.0 0.0 0.0 0.0
0.006692341 0.0036192874 -3.0576245e-12 -3.0576245e-12 -4.506527e-07 -5.401395e-07 -9.512816e-06 -6.648e-06
-3.4974743e-09 -3.4321737e-09 -4.209014e-05 -4.0920524e-05 -0.47285208 -0.47515813 -0.101228625 -0.07582164
-1.0806987e-12 -1.0648571e-12 9.557403e-11 9.343611e-11 -0.033790413 -0.033161912 -3.7779896 -3.7284095
0.0008136821 0.00097495486 -0.0013685551 -0.0009906663 -0.00043758756 -0.00061183644 -0.00010159157 -9.68086e-05
-4.115214e-05 -3.9637995e-05 -2.3084328 -1.7527158 3.766682e-10 3.741864e-10 7.148972e-05 6.962302e-05
00000000: 2f0d adbf 9a63 bfbf 6284 6ab7 cd62 6ab7
00000010: 5648 8730 fac2 8b30 ef84 6bc0 4fee 5ec0
00000020: c8de 23bf 9999 e5be 8b3e 00c0 d1fe f8bf
00000030: a8ae 21b8 f4ab 19b8 9251 a8ba 6ec3 9bba
00000040: 4e16 cf2f 09b9 cd2f 23a1 9a38 0a8d 9638
00000050: 0000 0000 0000 0000 0000 0000 0000 0000
00000060: 0000 0000 0000 0000 0000 0000 0000 0000
00000070: 0000 0000 0000 0000 0000 0000 0000 0000
00000080: 0000 0000 0000 0000 0000 0000 0000 0000
00000090: 0000 0000 0000 0000 0000 0000 0000 0000
000000a0: 6d4b db3b 9131 6d3b 4429 57ac 4429 57ac
000000b0: 3cf1 f1b4 1bfe 10b5 3c99 1fb7 e311 dfb6
000000c0: 3858 70b1 70db 6bb1 f289 30b8 14a2 2bb8
000000d0: ab19 f2be ed47 f3be f450 cfbd 6048 9bbd
000000e0: 4618 98ab 85dd 95ab 652b d22e db77 cd2e
000000f0: d167 0abd c9d4 07bd 95ca 71c0 439e 6ec0
00000100: 484d 553a 1d94 7f3a 1761 b3ba 3fd9 81ba
00000110: 026c e5b9 a663 20ba 8f0d d5b8 b905 cbb8
00000120: c69a 2cb8 f940 26b8 5dbd 13c0 fe58 e0bf
00000130: 5613 cf2f 0eb6 cd2f c0ec 9538 9302 9238

exp_avg_sq f4 [40, 2]
235.48991 225.10716 1.8651384e-07 2.2191932e-07 6.700751e-12 6.8769096e-12 1652.0193 1501.2311
16.337574 13.068534 377.5058 347.3781 1.6626677e-06 1.673738e-06 0.00014180056 0.00013222918
8.002505e-12 8.043884e-12 1.4338599e-06 1.4512e-06 0.0 0.0 0.0 0.0
0.0 0.0 0.0 0.0 0.0 0.0 0.0 0.0
0.0 0.0 0.0 0.0 0.0 0.0 0.0 0.0
0.23641065 0.04174536 1.5263198e-12 1.5278763e-12 1.0753899e-08 1.30409505e-08 0.012074677 0.0007423307
1.173105e-10 1.1769984e-10 2.9549296e-06 3.0738659e-06 89.69066 79.95698 2.265355 2.0917788
7.7525334e-15 7.755365e-15 5.75551e-13 5.754562e-13 0.11093031 0.10008181 1911.1975 1764.8503
0.0005579809 0.0017817757 0.003322227 0.00035772973 0.00017216074 0.0024755332 2.392024e-06 2.3663567e-06
2.0180057e-06 2.042707e-06 272.7322 236.13924 7.945205e-12 7.986433e-12 1.3082366e-06 1.3497184e-06
00000000: 6b7d 6b43 6f1b 6143 8944 4834 b848 6e34
00000010: 00c3 eb2c b2f5 f12c 9e80 ce44 65a7 bb44
00000020: 5ab3 8241 b718 5141 bec0 bc43 66b0 ad43
00000030: d428 df35 33a5 e035 4cb0 1439 00a7 0a39
00000040: 14c8 0c2d 6f82 0d2d 0d73 c035 dac6 c235
00000050: 0000 0000 0000 0000 0000 0000 0000 0000
00000060: 0000 0000 0000 0000 0000 0000 0000 0000
00000070: 0000 0000 0000 0000 0000 0000 0000 0000
00000080: 0000 0000 0000 0000 0000 0000 0000 0000
00000090: 0000 0000 0000 0000 0000 0000 0000 0000
000000a0: a215 723e 2ffd 2a3d 77cf d62b 8c07 d72b
000000b0: 26c0 3832 b50a 6032 ded4 453c f898 423a
000000c0: f8fb 002f 8f69 012f 4e4d 4636 9d48 4e36
000000d0: 9e61 b342 f9e9 9f42 94fb 1040 b4df 0540
000000e0: 40a8 0b28 4fb5 0b28 d200 222b fdf9 212b
000000f0: 6e2f e33d b1f7 cc3d 52e6 ee44 369b dc44
00000100: 7745 123a 798a e93a b8b9 593b ac8d bb39
00000110: 0c86 3439 8e3c 223b a986 2036 b3cd 1e36
00000120: 136d 0736 7015 0936 b95d 8843 a523 6c43
00000130: 06c6 0b2d b27f 0c2d ab96 af35 f927 b535

exp_avg f4 [40, 2]
0.0 0.0 0.0 0.0 0.0 0.0 0.0 0.0
0.0 0.0 0.0 0.0 0.0 0.0 0.0 0.0
0.0 0.0 0.0 0.0 0.0 0.0 0.0 0.0
0.0 0.0 0.0 0.0 0.0 0.0 0.0 0.0
0.0 0.0 0.0 0.0 0.0 0.0 0.0 0.0
0.0 0.0 0.0 0.0 0.0 0.0 0.0 0.0
0.0 0.0 0.0 0.0 0.0 0.0 0.0 0.0
0.0 0.0 0.0 0.0 0.0 0.0 0.0 0.0
0.0 0.0 0.0 0.0 0.0 0.0 0.0 0.0
0.0 0.0 0.0 0.0 0.0 0.0 0.0 0.0
00000000: 0000 0000 0000 0000 0000 0000 0000 0000
00000010: 0000 0000 0000 0000 0000 0000 0000 0000
00000020: 0000 0000 0000 0000 0000 0000 0000 0000
00000030: 0000 0000 0000 0000 0000 0000 0000 0000
00000040: 0000 0000 0000 0000 0000 0000 0000 0000
00000050: 0000 0000 0000 0000 0000 0000 0000 0000
00000060: 0000 0000 0000 0000 0000 0000 0000 0000
00000070: 0000 0000 0000 0000 0000 0000 0000 0000
00000080: 0000 0000 0000 0000 0000 0000 0000 0000
00000090: 0000 0000 0000 0000 0000 0000 0000 0000
000000a0: 0000 0000 0000 0000 0000 0000 0000 0000
000000b0: 0000 0000 0000 0000 0000 0000 0000 0000
000000c0: 0000 0000 0000 0000 0000 0000 0000 0000
000000d0: 0000 0000 0000 0000 0000 0000 0000 0000
000000e0: 0000 0000 0000 0000 0000 0000 0000 0000
000000f0: 0000 0000 0000 0000 0000 0000 0000 0000
00000100: 0000 0000 0000 0000 0000 0000 0000 0000
00000110: 0000 0000 0000 0000 0000 0000 0000 0000
00000120: 0000 0000 0000 0000 0000 0000 0000 0000
00000130: 0000 0000 0000 0000 0000 0000 0000 0000

exp_avg_sq f4 [40, 2]
0.0 0.0 0.0 0.0 0.0 0.0 0.0 0.0
0.0 0.0 0.0 0.0 0.0 0.0 0.0 0.0
0.0 0.0 0.0 0.0 0.0 0.0 0.0 0.0
0.0 0.0 0.0 0.0 0.0 0.0 0.0 0.0
0.0 0.0 0.0 0.0 0.0 0.0 0.0 0.0
0.0 0.0 0.0 0.0 0.0 0.0 0.0 0.0
0.0 0.0 0.0 0.0 0.0 0.0 0.0 0.0
0.0 0.0 0.0 0.0 0.0 0.0 0.0 0.0
0.0 0.0 0.0 0.0 0.0 0.0 0.0 0.0
0.0 0.0 0.0 0.0 0.0 0.0 0.0 0.0
00000000: 0000 0000 0000 0000 0000 0000 0000 0000
00000010: 0000 0000 0000 0000 0000 0000 0000 0000
00000020: 0000 0000 0000 0000 0000 0000 0000 0000
00000030: 0000 0000 0000 0000 0000 0000 0000 0000
00000040: 0000 0000 0000 0000 0000 0000 0000 0000
00000050: 0000 0000 0000 0000 0000 0000 0000 0000
00000060: 0000 0000 0000 0000 0000 0000 0000 0000
00000070: 0000 0000 0000 0000 0000 0000 0000 0000
00000080: 0000 0000 0000 0000 0000 0000 0000 0000
00000090: 0000 0000 0000 0000 0000 0000 0000 0000
000000a0: 0000 0000 0000 0000 0000 0000 0000 0000
000000b0: 0000 0000 0000 0000 0000 0000 0000 0000
000000c0: 0000 0000 0000 0000 0000 0000 0000 0000
000000d0: 0000 0000 0000 0000 0000 0000 0000 0000
000000e0: 0000 0000 0000 0000 0000 0000 0000 0000
000000f0: 0000 0000 0000 0000 0000 0000 0000 0000
00000100: 0000 0000 0000 0000 0000 0000 0000 0000
00000110: 0000 0000 0000 0000 0000 0000 0000 0000
00000120: 0000 0000 0000 0000 0000 0000 0000 0000
00000130: 0000 0000 0000 0000 0000 0000 0000 0000

exp_avg f4 [40]
-0.025220172 -6.2714423e-07 4.670063e-11 -0.062273245 -0.010066838 -0.034813564 -1.4610167e-06 -3.3508513e-05
1.7863948e-11 3.0776243e-06 0.0 0.0 0.0 0.0 0.0 0.0
0.0 0.0 0.0 0.0 0.00010887073 -2.4860973e-13 -2.1960874e-08 -2.6161422e-07
-1.6526094e-10 -1.8416401e-06 -0.008980359 -0.0018284807 -5.9036956e-14 4.440694e-12 -0.00071188336 -0.0668546
2.348157e-05 -3.1335054e-05 -1.592209e-05 -4.002667e-06 -1.6225135e-06 -0.036699224 1.7860689e-11 2.9754067e-06
00000000: 899a cebc 0659 28b5 3c64 4d2e 3b12 7fbd
00000010: 61ef 24bc ab98 0ebd 2718 c4b5 7e8b 0cb8
00000020: 0922 9d2d 2f89 4e36 0000 0000 0000 0000
00000030: 0000 0000 0000 0000 0000 0000 0000 0000
00000040: 0000 0000 0000 0000 0000 0000 0000 0000
00000050: 8751 e438 70f4 8baa 79a4 bcb2 fc73 8cb4
00000060: d2b4 35af 462e f7b5 5b22 13bc a2a9 efba
00000070: 7df0 84a9 373e 9c2c af9d 3aba 11eb 88bd
00000080: 4afa c437 c26d 03b8 6e90 85b7 a64e 86b6
00000090: 24c5 d9b5 ed51 16bd b21a 9d2d 19ad 4736

exp_avg_sq f4 [40]
0.06057163 1.0543649e-09 4.4205294e-14 0.41673413 0.0041418555 0.09610322 1.0296258e-08 7.55602e-08
5.2891133e-14 5.98893e-09 0.0 0.0 0.0 0.0 0.0 0.0
0.0 0.0 0.0 0.0 5.6282286e-05 1.0079178e-14 7.053939e-11 3.2860182e-06
7.7476697e-13 1.710832e-08 0.023758646 0.0006448689 5.126362e-17 3.804119e-15 3.3459986e-05 0.48664272
8.4339786e-07 7.59246e-07 9.939947e-07 1.1835287e-08 1.2461967e-08 0.06841217 5.2499133e-14 5.4805023e-09
00000000: f519 783d 2be9 9030 3c15 4729 2d5e d53e
00000010: 67b8 873b c4d1 c43d 6ce3 3032 a943 a233
00000020: 5333 6e29 2fc7 cd31 0000 0000 0000 0000
00000030: 0000 0000 0000 0000 0000 0000 0000 0000
00000040: 0000 0000 0000 0000 0000 0000 0000 0000
00000050: a510 6c38 0192 3528 251e 9b2e 5d85 5c36
00000060: d813 5a2b 98f5 9232 7ea1 c23c 6b0c 293a
00000070: 6669 6c24 ce0e 8927 6357 0c38 3c29 f93e
00000080: dc65 6235 fdce 4b35 6669 8535 2554 4b32
00000090: 4f18 5632 ae1b 8c3d 616f 6c29 024f bc31

exp_avg f4 [40]
-0.025220172 -6.2714423e-07 4.670063e-11 -0.062273245 -0.010066838 -0.034813564 -1.4610167e-06 -3.3508513e-05
1.7863948e-11 3.0776243e-06 0.0 0.0 0.0 0.0 0.0 0.0
0.0 0.0 0.0 0.0 0.00010887073 -2.4860973e-13 -2.1960874e-08 -2.6161422e-07
-1.6526094e-10 -1.8416401e-06 -0.008980359 -0.0018284807 -5.9036956e-14 4.440694e-12 -0.00071188336 -0.0668546
2.348157e-05 -3.1335054e-05 -1.592209e-05 -4.002667e-06 -1.6225135e-06 -0.036699224 1.7860689e-11 2.9754067e-06
00000000: 899a cebc 0659 28b5 3c64 4d2e 3b12 7fbd
00000010: 61ef 24bc ab98 0ebd 2718 c4b5 7e8b 0cb8
00000020: 0922 9d2d 2f89 4e36 0000 0000 0000 0000
00000030: 0000 0000 0000 0000 0000 0000 0000 0000
00000040: 0000 0000 0000 0000 0000 0000 0000 0000
00000050: 8751 e438 70f4 8baa 79a4 bcb2 fc73 8cb4
00000060: d2b4 35af 462e f7b5 5b22 13bc a2a9 efba
00000070: 7df0 84a9 373e 9c2c af9d 3aba 11eb 88bd
00000080: 4afa c437 c26d 03b8 6e90 85b7 a64e 86b6
00000090: 24c5 d9b5 ed51 16bd b21a 9d2d 19ad 4736

exp_avg_sq f4 [40]
0.06057163 1.0543649e-09 4.4205294e-14 0.41673413 0.0041418555 0.09610322 1.0296258e-08 7.55602e-08
5.2891133e-14 5.98893e-09 0.0 0.0 0.0 0.0 0.0 0.0
0.0 0.0 0.0 0.0 5.6282286e-05 1.0079178e-14 7.053939e-11 3.2860182e-06
7.7476697e-13 1.710832e-08 0.023758646 0.0006448689 5.126362e-17 3.804119e-15 3.3459986e-05 0.48664272
8.4339786e-07 7.59246e-07 9.939947e-07 1.1835287e-08 1.2461967e-08 0.06841217 5.2499133e-14 5.4805023e-09
00000000: f519 783d 2be9 9030 3c15 4729 2d5e d53e
00000010: 67b8 873b c4d1 c43d 6ce3 3032 a943 a233
00000020: 5333 6e29 2fc7 cd31 0000 0000 0000 0000
00000030: 0000 0000 0000 0000 0000 0000 0000 0000
00000040: 0000 0000 0000 0000 0000 0000 0000 0000
00000050: a510 6c38 0192 3528 251e 9b2e 5d85 5c36
00000060: d813 5a2b 98f5 9232 7ea1 c23c 6b0c 293a
00000070: 6669 6c24 ce0e 8927 6357 0c38 3c29 f93e
00000080: dc65 6235 fdce 4b35 6669 8535 2554 4b32
00000090: 4f18 5632 ae1b 8c3d 616f 6c29 024f bc31

exp_avg f4 [2, 10]
44.825157 -44.791916 0.00016023302 -44.80309 -44.85059 -44.815712 -44.8616 -44.792213
7.975852e-11 -1.3218085e-05 43.7717 -43.740692 0.00018470167 -43.752876 -43.801125 -43.764416
-43.809177 -43.750404 1.5513422e-10 -1.9687644e-05
00000000: f64c 3342 ec2a 33c2 3904 2839 5d36 33c2
00000010: 0167 33c2 4a43 33c2 4772 33c2 3a2b 33c2
00000020: 0e64 af2e 3ec3 5db7 3916 2f42 78f6 2ec2
00000030: 7aac 4139 f202 2fc2 5a34 2fc2 c30e 2fc2
00000040: 993c 2fc2 6a00 2fc2 6792 2a2f e526 a5b7

exp_avg_sq f4 [2, 10]
1651.9478 1749.5576 0.0004194148 1667.2559 1801.7358 1572.9153 1788.076 1720.2119
1.0203689e-12 4.9233785e-07 1606.3821 1702.256 0.00030458425 1622.775 1753.5298 1530.8079
1739.5381 1675.3301 1.1087295e-13 1.2899575e-07
00000000: 547e ce44 d8b1 da44 e7e4 db39 3068 d044
00000010: 8c37 e144 4a9d c444 6f82 df44 c806 d744
00000020: aa9a 8f2b 3329 0435 3acc c844 31c8 d444
00000030: 9bb0 9f39 cdd8 ca44 f430 db44 da59 bf44
00000040: 3871 d944 906a d144 e7a9 f929 1582 0a34
