lightning_logs/version_42/checkpoints/epoch=43-step=2156.ckpt (torch, 275939 bytes, 24 tensors)

proj.weight f4 [64, 2]
-0.6183012 0.20472527 0.63901126 -0.36369067 0.5367582 -0.14474392 0.52025366 -0.48679098
-0.23737402 -0.28801328 0.61625713 -0.57523155 0.43219358 0.24314156 -0.19748558 0.15682822
0.5817066 -0.72043693 0.508705 -0.5890973 0.38416362 -0.12511058 -0.3682302 -0.11653003
0.46770263 0.11029369 -0.16889665 0.5288661 -0.3337695 0.40228987 0.084873 -0.5992498
-0.45106402 0.23455751 -0.18855669 0.6369195 0.53348166 0.35124636 0.38838294 -0.37213206
0.28185058 -0.19413093 -0.04621979 0.12497008 0.3410011 -0.5177584 0.77671695 0.1212411
0.758559 -0.28870907 -0.14173864 0.6256085 0.55988973 0.6003053 -0.37328622 -0.18531299
-0.33318457 -0.683131 0.24446307 0.015406976 -0.064356305 0.09096302 0.09760887 -0.55152154
-0.16211094 -0.24075298 0.40002784 0.66518146 -0.03577277 0.3883987 -0.13054447 0.16363244
-0.30446514 0.47533086 -0.53329027 -0.5190027 -0.3694605 0.03987695 -0.3298466 0.47565255
0.35919374 -0.19523622 0.058944616 -0.5385882 0.2477676 -0.5116829 -0.368156 -0.19587202
0.45499235 -0.011460334 0.749482 0.7002352 0.1424237 -0.057978965 0.38333687 -0.053791028
-0.21524912 -0.26846278 0.36012805 0.1034458 -0.5742921 -0.5879194 0.5415625 -0.44029525
0.3484482 0.06752735 0.31790707 -0.023789914 0.20360717 -0.59621423 -0.60031205 0.501339
-0.5249066 -0.47047526 0.26642582 0.5545882 -0.23428391 -0.51136684 0.12368651 -0.55467206
-0.36574408 0.09339013 -0.6853587 -0.0097141685 0.41659382 0.27932954 -0.48018283 0.47826293
00000000: fd48 1ebf 80a3 513e 3e96 233f aa35 babe
00000010: fc68 093f c037 14be 582f 053f ab3c f9be
00000020: 2d12 73be 7a76 93be 07c3 1d3f 6042 13bf
00000030: 7a48 dd3e 1afa 783e a939 4abe 9497 203e
00000040: b9ea 143f 8e6e 38bf 7e3a 023f 15cf 16bf
00000050: 18b1 c43e fd1c 00be ab88 bcbe 4ca7 eebd
00000060: b876 ef3e a8e1 e13d 3ef3 2cbe c563 073f
00000070: d6e3 aabe f0f8 cd3e e5d1 ad3d 6f68 19bf
00000080: ddf1 e6be d82f 703e 0115 41be 280d 233f
00000090: 4192 083f 90d6 b33e 21da c63e 1888 bebe
000000a0: b84e 903e 42ca 46be f650 3dbd 50f0 ff3d
000000b0: b297 ae3e d18b 04bf ecd6 463f 414d f83d
000000c0: ec30 423f add1 93be ef23 11be e127 203f
000000d0: ef54 0f3f 9cad 193f 5f1f bfbe b0c2 3dbe
000000e0: 2b97 aabe ace1 2ebf 8754 7a3e 8b6d 7c3c
000000f0: 3dcd 83bd d24a ba3d 29e7 c73d 8430 0dbf
00000100: 6900 26be f387 76be 73d0 cc3e 5549 2a3f
00000110: 7886 12bd 32dc c63e 73ad 05be 438f 273e
00000120: dbe2 9bbe 915e f33e b685 08bf 5cdd 04bf
00000130: ed29 bdbe 0356 233d a7e1 a8be bb88 f33e
00000140: 3ee8 b73e 01ec 47be e96f 713d ebe0 09bf
00000150: cab6 7d3e a7fd 02bf f17e bcbe ad92 48be
00000160: c2f4 e83e 20c4 3bbc 0dde 3f3f 9d42 333f
00000170: 85d7 113e 5a7b 6dbd bb44 c43e fb53 5cbd
00000180: 446a 5cbe f473 89be b462 b83e 64db d33d
00000190: cf04 13bf e381 16bf d7a3 0a3f 616e e1be
000001a0: cd67 b23e c74b 8a3d b7c4 a23e 11e3 c2bc
000001b0: 667e 503e 7fa1 18bf 0dae 19bf c157 003f
000001c0: 4760 06bf 22e2 f0be f768 883e 7ef9 0d3f
000001d0: 1fe8 6fbe f0e8 02bf 5a4f fd3d fdfe 0dbf
000001e0: cf42 bbbe 5343 bf3d ab73 2fbf 2d28 1fbc
000001f0: c94b d53e 4804 8f3e 86da f5be e1de f43e

proj.bias f4 [64]
-0.11283898 0.16862464 0.030185811 0.464583 0.68428785 0.7901386 -0.47609112 -0.6677446
-0.57741743 0.17643146 -0.24307868 -0.04058154 -0.17087162 0.08017013 0.13137601 -0.6387137
0.10207712 0.7229143 -0.67077273 0.09680552 0.048007127 0.58245957 -0.3676322 0.69304216
0.81044066 0.75377554 -0.61335033 0.37520945 -0.016759835 0.6052543 -0.18669689 -0.23218337
-0.75100136 -0.1442468 -0.7220945 0.7029082 -0.5637844 -0.117516644 0.5045881 0.6141567
-0.31392908 -0.19833586 -0.25197372 -0.47295383 -0.096391924 0.20759416 0.25005943 0.20404987
0.3119496 0.24122703 0.41753894 0.1873001 -0.32141396 -0.3669174 0.514517 0.44457328
-0.535394 -0.45657817 -0.2530357 -0.35513833 -0.30549732 0.5837876 -0.5034743 -0.27428105
00000000: 2018 e7bd f0ab 2c3e 3c48 f73c d3dd ed3e
00000010: 7d2d 2f3f 8646 4a3f 37c2 f3be 4ff1 2abf
00000020: a1d1 13bf 73aa 343e 9ee9 78be d438 26bd
00000030: f8f8 2ebe 3d30 a43d 6f87 063e be82 23bf
00000040: cf0d d13d e910 393f c3b7 2bbf f941 c63d
00000050: 1fa3 443d 121c 153f 4a3a bcbe 366b 313f
00000060: 0a79 4f3f 6ff7 403f 8704 1dbf 741b c03e
00000070: ec4b 89bc f2f1 1a3f 782d 3fbe 7ac1 6dbe
00000080: a041 40bf 6fb5 13be 2fdb 38bf cbf1 333f
00000090: 2d54 10bf 91ac f0bd b02c 013f 6039 1d3f
000000a0: 50bb a0be 8e18 4bbe b302 81be 0127 f2be
000000b0: 2169 c5bd 9093 543e ca07 803e 73f2 503e
000000c0: dcb7 9f3e 3804 773e aac7 d53e 99cb 3f3e
000000d0: 5f90 a4be 99dc bbbe 63b7 033f 1c9f e33e
000000e0: 950f 09bf 9dc4 e9be e58d 81be b1d4 b5be
000000f0: 256a 9cbe 1b73 153f b1e3 00bf 916e 8cbe

station_embedding.weight f4 [70, 64]
-0.42636445 0.8150053 -0.031279024 -0.20836172 1.1778129 -0.6286396 0.0011999478 -0.6630774
0.6239279 -0.010418129 0.24556312 -0.08910782 1.003819 -0.92070717 -0.7391837 -2.1542065
1.521093 -1.1987239 -1.7235403 -0.54785585 -0.97544396 0.11839799 -0.46443295 -0.64264894
0.16223833 1.0883629 -0.104432896 -0.4668289 1.3903642 -1.153714 1.050309 -0.105490535
-0.31581452 -0.6857568 -0.041941866 -1.7677116 -0.9320617 2.1854157 -0.5831893 1.5980147
0.94120044 -0.84053624 0.16579863 -0.3622377 0.31631452 0.2611872 0.9021068 0.474913
1.2598318 -0.7556378 0.29028174 -1.245865 -0.73189646 -1.4016002 0.019871444 -1.1189048
-0.21859267 1.0678993 0.16038555 -0.5031213 -1.0306983 0.21110533 -0.5650684 -0.12693962
-0.18328471 1.4280001 0.80680114 -1.8337319 -0.7670335 -0.65437376 -0.35383904 1.0585676
0.21187651 -1.0401117 -0.5482825 1.1094519 -0.90342987 0.49788815 -0.16696826 -1.5263485
2.3376777 0.69882154 -0.11785675 0.94007427 0.06805394 0.61258113 -1.4139589 0.17382906
1.7545666 1.3563048 -0.48227826 0.4584088 0.54408664 -1.2100518 -0.6503381 -1.5458938
0.07689863 -0.7630302 -0.17353171 -0.17741236 -0.45224065 -1.5526727 -1.1332529 1.2208399
1.365211 0.09626561 -0.6544825 0.6622931 0.07719238 -0.38024214 -0.3136845 -0.39229807
0.57370025 -1.5501498 1.8610907 0.28083563 -0.62781715 0.8598548 0.52161115 1.27631
-1.4887596 0.47863996 -0.08643323 0.8489676 0.12191675 -1.5912473 0.07158304 -0.6382111
0.53154916 -0.3718532 0.85391366 0.8083293 0.9363541 1.563512 0.11296214 0.026069466
-1.1175324 0.62353987 2.2112117 1.2586406 0.06946842 -0.04671581 0.27910703 -0.5326241
0.34770194 1.4896778 1.7152891 0.22213376 0.87422043 0.18816084 -0.5567357 0.4829019
1.7982373 -0.42338404 -1.0490999 -0.08735227 -0.20405048 2.3817687 2.443156 -0.049764264
1.4980599 0.6547845 -0.66108006 -0.7927562 0.2103978 -0.30788392 -0.71110165 -1.1767759
0.57307917 -0.59034723 -0.2776685 0.32498184 1.5094395 -0.87927186 -2.2487688 -0.48774832
0.33172056 1.5381606 0.16941306 -0.48413652 1.484585 0.40863842 -1.1971505 -1.5944742
0.9946289 0.52762204 1.5940205 0.9032608 -2.3678446 -1.198721 -0.6089826 3.0975614
0.8084602 -0.4793542 0.0074838903 -0.56156963 -1.1100118 -0.6569355 0.6216561 0.7800236
-0.8379113 0.09650767 1.4575512 -1.93958 -1.0215052 0.57087725 1.9385495 1.2357122
0.3846617 0.1589777 0.1216839 -0.56538326 -2.0268543 -0.027795095 -2.058001 0.3927705
-0.39494509 -0.25238135 -0.6383822 -0.29904234 -0.35612085 0.3904139 1.9705435 -0.2849706
-0.102472685 1.7946391 2.0605125 -0.022027861 -0.18068378 0.96785235 -0.8696637 1.9242291
-0.46094355 1.2384135 0.82306975 -1.9323728 1.1810032 -2.9040635 0.8532299 0.13828582
-0.7605281 -0.84494734 0.020726228 -0.1106968 -1.2057098 0.665089 -0.42381388 -0.86409825
-1.1577481 -0.87107795 0.9715475 1.4290109 -0.29900065 -0.6712161 -0.59768784 -0.969612
00000000: 714c dabe 30a4 503f 6f1e 00bd c65c 55be
00000010: 93c2 963f 86ee 20bf 9147 9d3a 71bf 29bf
00000020: bdb9 1f3f cdb0 2abc e674 7b3e 297e b6bd
00000030: 247d 803f 77b3 6bbf 253b 3dbf 85de 09c0
00000040: 2db3 c23f c96f 99bf f89c dcbf 4840 0cbf
00000050: b2b6 79bf a57a f23d 28ca edbe a484 24bf
00000060: ce21 263e 7a4f 8b3f eae0 d5bd 3304 efbe
00000070: 74f7 b13f e6ac 93bf 8670 863f 6c0b d8bd
00000080: 71b2 a1be c28d 2fbf 3ccb 2bbd 6044 e2bf
00000090: 989b 6ebf dadd 0b40 e54b 15bf bf8b cc3f
000000a0: 83f2 703f 622d 57bf 1ec7 293e 3877 b9be
000000b0: faf3 a13e 54ba 853e 79f0 663f cc27 f33e
000000c0: 2b42 a13f 7b71 41bf cf9f 943e 8178 9fbf
000000d0: 915d 3bbf a367 b3bf 70c9 a23c 4638 8fbf
000000e0: c2d6 5fbe edb0 883f 1c3c 243e 8fcc 00bf
000000f0: eced 83bf ff2b 583e 53a8 10bf 76fc 01be
00000100: fdae 3bbe b5c8 b63f 858a 4e3f bab7 eabf
00000110: 4f5c 44bf 0a85 27bf 642a b5be 257f 873f
00000120: 28f6 583e 6122 85bf 3e5c 0cbf 8502 8e3f
00000130: 2e47 67bf 32eb fe3e baf9 2abe 635f c3bf
00000140: 839c 1540 f8e5 323f e15e f1bd b5a8 703f
00000150: dd5f 8b3d 1ed2 1c3f 9bfc b4bf 3f00 323e
00000160: a395 e03f 659b ad3f 2ded f6be 8fb4 ea3e
00000170: 4349 0b3f fae2 9abf 8f7c 26bf d9df c5bf
00000180: 077d 9d3d f255 43bf 4cb2 31be 96ab 35be
00000190: 168c e7be fbbd c6bf 6e0e 91bf 7b44 9c3f
000001a0: 3cbf ae3f e726 c53d 2a8c 27bf 0a8c 293f
000001b0: 0a17 9e3d 19af c2be 419b a0be 4bdb c8be
000001c0: 05de 123f 4f6b c6bf 3838 ee3f b0c9 8f3e
000001d0: a0b8 20bf 721f 5c3f 4f88 053f 205e a33f
000001e0: ad8f bebf 4c10 f53e e803 b1bd f155 593f
000001f0: 7daf f93d fead cbbf 219a 923d cd61 23bf
00000200: 9b13 083f 8b63 bebe 169a 5a3f abee 4e3f
00000210: e7b4 6f3f 2921 c83f b258 e73d a28f d53c
00000220: 4d0b 8fbf 4fa0 1f3f 7e84 0d40 231b a13f
00000230: 7645 8e3d 1459 3fbd 1ee7 8e3e 0e5a 08bf
00000240: fd05 b23e c3ad be3f 988e db3f 0877 633e
00000250: e9cc 5f3f 3cad 403e 3b86 0ebf eb3e f73e
00000260: a42c e63f cbc5 d8be e848 86bf bfe5 b2bd
00000270: 9cf2 50be e66e 1840 ab5c 1c40 9dd5 4bbd
00000280: 6dc0 bf3f f59f 273f 8b3c 29bf 12f2 4abf
00000290: 8572 573e f6a2 9dbe c20a 36bf 98a0 96bf
000002a0: 51b5 123f ff20 17bf 912a 8ebe 0564 a63e
000002b0: 5035 c13f f617 61bf d4eb 0fc0 26ba f9be
000002c0: 47d7 a93e 72e2 c43f 9e7a 2d3e bee0 f7be
000002d0: e206 be3f 0e39 d13e 3a3c 99bf bb17 ccbf
000002e0: 00a0 7e3f 3d12 073f dd08 cc3f 1a3c 673f
000002f0: c48a 17c0 b16f 99bf 49e6 1bbf 723e 4640
00000300: 3ff7 4e3f ea6d f5be 6c3b f53b 07c3 0fbf
00000310: de14 8ebf ed2c 28bf db24 1f3f a0af 473f
00000320: 5b81 56bf d0a5 c53d 0a91 ba3f 2844 f8bf
00000330: afc0 82bf 0325 123f 6422 f83f d12b 9e3f
00000340: 61f2 c43e 0dcb 223e 6935 f93d f5bc 10bf
00000350: fbb7 01c0 8ab2 e3bc 4ab6 03c0 3719 c93e
00000360: 3e36 cabe 2138 81be 046d 23bf 141c 99be
00000370: 7955 b6be 55e4 c73e c53a fc3f abe7 91be
00000380: 33dd d1bd bcb6 e53f 70df 0340 c673 b4bc
00000390: 2b05 39be 2cc5 773f 48a2 5ebf 244d f63f
000003a0: cb00 ecbe 5584 9e3f b3b4 523f fe57 f7bf
000003b0: 1d2b 973f 2ddc 39c0 466d 5a3f cc9a 0d3e
000003c0: f8b1 42bf 784e 58bf 0dca a93c 01b5 e2bd
000003d0: b354 9abf 4643 2a3f 22fe d8be 8b35 5dbf
000003e0: 1731 94bf f7fe 5ebf 56b7 783f d4e9 b63f
000003f0: 9d16 99be d1d4 2bbf 1202 19bf 7e38 78bf

lstm.weight_ih_l0 f4 [256, 64]
-0.084805235 0.16316019 0.15267175 0.04696063 -0.004033621 0.16592482 -0.016419824 0.03374798
-0.01032419 0.018176006 -0.013349677 -0.019477818 -0.07157242 0.02645788 -0.103513256 -0.081404135
-0.007595643 0.01586737 -0.008125652 0.15040024 0.035496593 0.022331985 -0.19253767 0.0968595
0.017693251 0.08472116 -0.016544426 0.04073573 0.005068702 -0.011983901 0.15069225 -0.011052643
-0.015902145 0.057617124 0.05611718 0.13476484 -0.060556922 0.011902591 0.17858496 0.041877776
0.17685567 0.074261524 0.06791565 0.067926176 0.024525503 0.19232762 -0.09588802 -0.16195478
-0.18365164 -0.014165365 -0.022456251 0.07875477 0.07360476 -0.012235614 -0.0028005093 -0.13707238
0.021646826 0.13606411 0.19880426 -0.034276593 -0.08138619 -0.0006675822 -0.08643797 0.114758536
0.0047287033 -0.071357824 -0.09083577 -0.003857069 -0.12916195 0.060520682 -0.061002035 -0.079718105
-0.08388624 0.0920753 -0.0024428994 -0.03567471 -0.06992368 -0.006023292 0.044551097 -0.10675412
-0.095329046 -0.023793021 0.0105462475 -0.082856916 0.0678661 -0.075400844 -0.13232669 -0.0686061
0.032265875 0.049409542 -0.075987436 0.0380068 0.00044305567 0.030325184 -0.07946529 -0.0071210694
-0.074572384 0.06894576 -0.04890293 0.0587525 -0.066950165 0.052894782 0.040267933 0.1383702
0.13239527 0.08084227 0.026042316 -0.050695956 -0.11829873 0.08313619 0.06452694 -0.02236636
0.101191364 0.03002777 -0.13043602 -0.12333697 -0.08132958 -0.12143485 0.061052963 0.027504126
-0.12937818 0.05653585 -0.099900775 -0.10492147 0.0051197154 -0.010135492 0.11086683 -0.068375714
-0.116779275 -0.016472246 0.13177085 0.034918096 0.19537476 0.22588593 0.010520265 0.17509553
-0.080193885 -0.044977468 -0.11599489 -0.008529966 0.15204233 0.07031103 -0.057371467 0.11815279
-0.10895473 0.19940515 -0.16690151 0.13176921 0.021595772 0.07846092 -0.18792096 0.04717796
-0.09813484 0.06545336 -0.20327443 0.07489276 -0.10989476 -0.0043868707 0.016629068 0.009495798
-0.13007174 0.17540519 -0.075730704 0.09112688 0.1119941 0.05041943 0.15592273 0.08379402
0.116747655 0.016725505 -0.13138698 -0.022437118 -0.023425039 0.086408414 -0.0470809 0.15166743
-0.13308321 -0.15066314 -0.15195563 -0.06676292 0.09711557 -0.10671424 -0.14269993 -0.102322154
-0.15286744 0.19337393 0.026053905 0.0039323797 -0.17315626 0.00939974 -0.014960367 0.14981404
0.05365401 0.08179222 0.13654976 0.037300896 0.10442644 0.022860894 -0.09820694 0.11509936
0.014188547 0.0019608568 0.05451665 -0.005533676 0.11411402 -0.08215578 0.0040353937 -0.15860917
-0.12040104 0.054429468 0.037318084 -0.036521293 -0.07856267 0.031807963 0.028929288 0.084932365
0.011219631 0.078014806 -0.13603358 -0.004966063 -0.028360926 0.042657252 -0.14895067 0.037370335
-0.019334119 0.08338111 0.046831198 0.08885023 0.023191927 -0.059395403 -0.011863768 -0.020994676
0.15416081 -0.057326883 0.09385583 -0.08501598 0.048143856 -0.0134913875 -0.023102295 -0.03694662
0.06599689 -0.020677108 -0.1599199 0.028104799 -0.020070834 -0.04829751 0.11706681 -0.015943646
-0.118515894 -0.0974963 0.13306376 0.10670594 -0.12892947 0.022971513 0.14941375 -0.046018817
00000000: 5eae adbd 7713 273e fc55 1c3e ca59 403d
00000010: 772c 84bb 32e8 293e de82 86bc 523b 0a3d
00000020: cb26 29bc d9e5 943c 9bb8 5abc f28f 9fbc
00000030: 9094 92bd 32be d83c c2fe d3bd 36b7 a6bd
00000040: dfe4 f8bb 49fc 813c 7421 05bc 8502 1a3e
00000050: e064 113d 91f1 b63c 9828 45be 465e c63d
00000060: 70f1 903c 4a82 ad3d 2d88 87bc 82da 263d
00000070: 5b17 a63b 2058 44bc 124f 1a3e 2516 35bc
00000080: 3745 82bc efff 6b3d 21db 653d cbff 093e
00000090: 890a 78bd 1603 433c fade 363e 0888 2b3d
000000a0: a719 353e 6d16 983d 5c17 8b3d e11c 8b3d
000000b0: b5e9 c83c 88f1 443e f060 c4bd 79d7 25be
000000c0: 2d0f 3cbe d915 68bc 2cf6 b7bc 2e4a a13d
000000d0: 18be 963d e277 48bc c088 37bb b45c 0cbe
000000e0: af54 b13c 6454 0b3e 5893 4b3e 9d65 0cbd
000000f0: cead a6bd af00 2fba 6406 b1bd 8606 eb3d
00000100: 3df3 9a3b 0d24 92bd 1b08 babd e1c6 7cbb
00000110: 0843 04be 89e4 773d 45dd 79bd 3f43 a3bd
00000120: 8dcc abbd fa91 bc3d 0d19 20bb a51f 12bd
00000130: 2534 8fbd 095f c5bb 367b 363d e7a1 dabd
00000140: e03b c3bd 95e9 c2bc 2bca 2c3c e3b0 a9bd
00000150: 62fd 8a3d c26b 9abd a680 07be 5b81 8cbd
00000160: 3929 043d a961 4a3d 4d9f 9bbd 05ad 1b3d
00000170: ed49 e839 856c f83c b3be a2bd dc57 e9bb
00000180: 68b9 98bd 6f33 8d3d 704e 48bd 76a6 703d
00000190: 2b1d 89bd 33a8 583d fdef 243d ebb0 0d3e
000001a0: a092 073e a290 a53d b256 d53c 90a6 4fbd
000001b0: 9b46 f2bd 4f43 aa3d b326 843d a839 b7bc
000001c0: 6b3d cf3d ccfc f53c 0591 05be 1898 fcbd
000001d0: 1f90 a6bd d6b2 f8bd ac12 7a3d 5550 e13c
000001e0: b77b 04be 2392 673d c798 ccbd 11e1 d6bd
000001f0: 49c3 a73b 560f 26bc 260e e33d 9108 8cbd
00000200: f929 efbd cef0 86bc f0ee 063e 4706 0f3d
00000210: 5210 483e a44e 673e 315d 2c3c 3e4c 333e
00000220: b13c a4bd 4b3a 38bd bb8e edbd 45c1 0bbc
00000230: fcb0 1b3e 3bff 8f3d 58fe 6abd 17fa f13d
00000240: a823 dfbd dd30 4c3e 3be8 2abe 82ee 063e
00000250: 9ee9 b03c 1eb0 a03d 5a6e 40be ad3d 413d
00000260: ebfa c8bd 690c 863d 2c27 50be 6061 993d
00000270: 8110 e1bd bdbf 8fbb af39 883c 4394 1b3c
00000280: 8731 05be 6b9d 333e b318 9bbd bba0 ba3d
00000290: 2a5d e53d 9b84 4e3d 35aa 1f3e 339c ab3d
000002a0: 6519 ef3d ed03 893c 4f8a 06be 0cce b7bc
000002b0: dee5 bfbc e5f6 b03d e7d7 40bd b54e 1b3e
000002c0: f746 08be 7047 1abe 429a 1bbe ffba 88bd
000002d0: 87e4 c63d ff8c dabd ee1f 12be 478e d1bd
000002e0: 4889 1cbe d103 463e 006f d53c 31db 803b
000002f0: e04f 31be 5e01 1a3c 541c 75bc da68 193e
00000300: 4fc4 5b3d ae82 a73d b3d3 0b3e d3c8 183d
00000310: 88dd d53d c546 bb3c b820 c9bd 37b9 eb3d
00000320: 1477 683c b881 003b da4c 5f3d d753 b5bb
00000330: 9cb4 e93d 4a41 a8bd 563b 843b 716a 22be
00000340: d294 f6bd 6ff1 5e3d d9da 183d 5a97 15bd
00000350: 77e5 a0bd 1149 023d 1dfd ec3c 05f1 ad3d
00000360: 8bd2 373c 3ac6 9f3d 634c 0bbe 5bba a2bb
00000370: 2c55 e8bc 5fb9 2e3d 8686 18be a311 193d
00000380: 9662 9ebc b7c3 aa3d 12d2 3f3d 1cf7 b53d
00000390: fffc bd3c 9848 73bd 4060 42bc 07fd abbc
000003a0: 55dc 1d3e 98cf 6abd 7c37 c03d dc1c aebd
000003b0: 7e32 453d fb0a 5dbc 0641 bdbc 5755 17bd
000003c0: 6129 873d 0a63 a9bc 0bc2 23be 093c e63c
000003d0: 976b a4bc 9cd3 45bd b9c0 ef3d 409c 82bc
000003e0: 76b8 f2bd 24ac c7bd de41 083e a588 da3d
000003f0: 1606 04be c12e bc3c ebff 183e 3a7e 3cbd

lstm.weight_hh_l0 f4 [256, 2]
0.20618623 0.107307024 0.0549558 0.09846494 0.21906263 0.23161902 0.12007986 0.027292034
-0.17258216 -0.04653773 0.16435222 0.09301187 0.208528 0.077327736 0.081929296 0.0021502257
0.10458168 0.21418737 -0.06035005 0.126785 0.19722757 0.07518458 0.17230125 0.13284801
0.0922025 0.16581777 0.23915464 0.10648601 0.28967103 0.0658638 0.13696118 0.10546235
0.15703441 0.05568755 0.21423733 0.09245223 0.12607493 0.17862295 0.1164636 0.055228323
0.20561339 0.23110585 0.05198136 0.08825166 0.12783013 0.10507494 0.10049969 0.14198993
0.096085615 0.13667168 0.1113633 0.013953304 0.1330463 0.07391604 0.17082432 0.023612196
0.0734248 0.16130887 0.18221936 0.11443901 0.06199491 0.026303815 0.13568977 -0.041534487
0.12967944 0.024217244 0.10903557 0.043573484 0.17369756 0.101300836 0.13509904 -0.0017649971
0.26732165 0.119784 0.1919048 0.22836244 0.08234488 0.07696104 0.095384546 0.052445926
0.2914337 0.100221984 0.28631002 0.14740546 0.010472963 0.037474968 0.21777405 0.16665637
0.12856215 0.261645 0.16736297 0.032979082 0.07284373 0.18406034 0.11604601 0.24372888
0.10809269 0.09123961 0.2420745 0.0759573 0.08399452 -0.019323127 0.055216365 0.042550813
0.2751052 0.14108606 0.06816004 0.026399286 0.081671394 0.28405502 0.07032271 0.061739385
0.12381832 -0.012395123 -0.15506573 -0.06695376 0.0033958512 0.04950433 0.053607244 0.15215918
0.14535224 -0.026344085 0.26095262 0.14303026 -0.0072197625 0.18043178 0.19878952 0.0872119
-0.021436037 0.07765708 0.024994593 0.20203228 0.20192604 0.06420055 0.11632084 0.021099593
0.15487383 0.19173865 0.19405636 0.009971947 -0.004082225 0.0992832 0.047148105 0.04227865
0.0491672 0.04650618 0.051373295 0.2514733 0.016287288 0.13400702 0.022588328 0.020006372
0.14304087 -0.01952849 0.1161567 0.06896076 0.14568914 0.26711604 0.18720862 0.025881099
0.060054 0.0990996 0.07392518 -0.046333283 -0.18814549 -0.09741471 0.026445812 0.05728901
0.0458741 0.09283716 0.12339329 0.20265186 0.07343666 0.0022073386 0.07906749 0.19585824
0.16159752 -0.029972011 0.06316052 0.06769765 0.075419664 0.20016299 0.11363921 0.08617989
0.15393652 0.10990043 0.16984758 0.08371023 0.12008526 0.13969739 0.0138981845 0.18831412
0.07429629 0.20124225 0.025151987 0.07560461 0.089183174 0.056210145 0.087195314 0.13629396
-0.0033225222 0.036236238 0.16349293 -0.0028346428 0.12822111 0.1484453 0.18893999 0.044532977
0.08102969 0.12420689 0.147319 0.1695823 0.18693522 0.23588799 0.019183263 0.04892798
-0.014097453 0.112573236 0.14938647 0.039519154 0.07390986 0.1482663 -0.009548315 0.03572754
0.13289948 0.023716815 0.031066071 -0.013669492 0.09485768 -0.016095487 0.08242959 0.09177332
0.10323051 -0.025088256 0.15828724 0.11866876 -0.038738657 -0.0012049982 0.08237923 0.0385443
0.17635562 0.01998358 0.0059538055 0.18430239 0.13184386 0.044542864 0.21080364 0.18010774
0.21501972 0.1449517 0.06766117 -0.025191793 0.06444089 0.097669326 -0.01265518 0.019305091
00000000: 7c22 533e c9c3 db3d 5519 613d fda7 c93d
00000010: f451 603e 892d 6d3e 6eec f53d 8b93 df3c
00000020: 61b9 30be 599e 3ebd f34b 283e 027d be3d
00000030: 5d88 553e 015e 9e3d 8cca a73d cdea 0c3b
00000040: eb2e d63d ef53 5b3e 9d31 77bd edd3 013e
00000050: 06f6 493e 60fa 993d bd6f 303e 4f09 083e
00000060: aad4 bc3d 22cc 293e f4e4 743e 5615 da3d
00000070: c34f 943e 9ae3 863d 8d3f 0c3e a5fc d73d
00000080: a1cd 203e a118 643d 0861 5b3e 9857 bd3d
00000090: c919 013e efe8 363e 7884 ee3d 1837 623d
000000a0: 518c 523e 03a7 6c3e 68ea 543d 49bd b43d
000000b0: e7e5 023e 8831 d73d c8d2 cd3d cf65 113e
000000c0: 89c8 c43d a9f3 0b3e 7112 e43d 669c 643c
000000d0: 4a3d 083e 4b61 973d 92ec 2e3e 5d6e c13c
000000e0: be5f 963d 272e 253e b697 3a3e 005f ea3d
000000f0: 60ee 7d3d 197b d73c 42f2 0a3e 1120 2abd
00000100: b0ca 043e 3e63 c63c 0a4e df3d 1c7a 323d
00000110: c6dd 313e d076 cf3d 6757 0a3e 7a57 e7ba
00000120: 62de 883e 5051 f53d b182 443e d8d7 693e
00000130: 6fa4 a83d c09d 9d3d f958 c33d 8ad1 563d
00000140: cc36 953e 2f41 cd3d 3a97 923e 75f1 163e
00000150: ca96 2b3c 5a7f 193d 2900 5f3e f8a7 2a3e
00000160: cca5 033e 55f6 853e 3361 2b3e 1315 073d
00000170: 182f 953d 507a 3c3e 88a9 ed3d 1094 793e
00000180: b35f dd3d d5db ba3d 61e2 773e 808f 9b3d
00000190: 5205 ac3d 894b 9ebc 8e2a 623d c349 2e3d
000001a0: 97da 8c3e dd78 103e 7e97 8b3d 5143 d83c
000001b0: 5543 a73d a96f 913e 5a05 903d 70e2 7c3d
000001c0: 7694 fd3d ea14 4bbc 8dc9 1ebe 0e1f 89bd
000001d0: ee8c 5e3b 0dc5 4a3d 4593 5b3d 9ecf 1b3e
000001e0: 38d7 143e 8dcf d7bc 959b 853e 8676 123e
000001f0: c293 ecbb 1cc3 383e 7b8f 4b3e 279c b23d
00000200: a19a afbc ad0a 9f3d 76c1 cc3c 8de1 4e3e
00000210: b3c5 4e3e 947b 833d 9f39 ee3d 0ed9 ac3c
00000220: 3f97 1e3e 2357 443e b6b6 463e 6161 233c
00000230: 2fc4 85bb fe54 cb3d 5f1e 413d 612c 2d3d
00000240: 8c63 493d 447d 3e3d ce6c 523d 1cc1 803e
00000250: eb6c 853c 2339 093e 280b b93c 67e4 a33c
00000260: 4e79 123e 36fa 9fbc 90e3 ed3d 4d3b 8d3d
00000270: 892f 153e 6fc3 883e 9eb3 3f3e 9904 d43c
00000280: 2ffb 753d bbf4 ca3d 1666 973d f8c7 3dbd
00000290: 36a9 40be 5d81 c7bd e3a4 d83c e2a7 6a3d
000002a0: 7be6 3b3d 6921 be3d 9fb5 fc3d f883 4f3e
000002b0: f665 963d ffa8 103b 23ee a13d 108f 483e
000002c0: d279 253e dd87 f5bc 4d5a 813d 11a5 8a3d
000002d0: a075 9a3d 87f7 4c3e adbb e83d 157f b03d
000002e0: 89a1 1d3e 7a13 e13d 86ec 2d3e 4570 ab3d
000002f0: 43ef f53d d50c 0f3e 36b5 633c 6bd5 403e
00000300: a728 983d 7312 4e3e 8a0b ce3c 97d6 9a3d
00000310: aba5 b63d 9c3c 663d 7593 b23d a590 0b3e
00000320: acbe 59bb 736c 143d b16a 273e 6ac5 39bb
00000330: 654c 033e 0b02 183e 7c79 413e 3668 363d
00000340: e5f2 a53d 2f60 fe3d cbda 163e fca6 2d3e
00000350: f26b 3f3e 9f8c 713e 3826 9d3c b568 483d
00000360: 01f9 66bc cc8c e63d c4f8 183e d6de 213d
00000370: 0d5e 973d 1fd3 173e 8970 1cbc 0a57 123d
00000380: cd16 083e c449 c23c 467e fe3c 01f6 5fbc
00000390: be44 c23d afda 83bc d8d0 a83d a7f3 bb3d
000003a0: 856a d33d e385 cdbc 0d16 223e 9b08 f33d
000003b0: 6dac 1ebd 08f1 9dba 71b6 a83d a1e0 1d3d
000003c0: 9196 343e 9bb4 a33c 2418 c33b c4b9 3c3e
000003d0: 1402 073e 9472 363d e9dc 573e 2a6e 383e
000003e0: 212e 5c3e 386e 143e f191 8a3d 055f cebc
000003f0: 96f9 833d db06 c83d ac57 4fbc b625 9e3c

lstm.bias_ih_l0 f4 [256]
0.018711459 -0.072921365 0.19905518 0.06261001 0.09864071 0.21739708 0.16476212 -0.073401965
0.026155392 0.012814238 0.06889558 0.057370786 0.10466002 0.012987384 0.053191867 0.07612215
0.21274243 0.10054335 0.068928145 0.02631461 0.03550654 0.04824532 0.294811 0.15728913
0.09743959 -0.10627523 -0.023981074 -0.009794887 0.12760335 0.082200274 -0.02796453 -0.010988088
-0.11645101 0.091085926 0.18041375 0.034462824 0.11971304 0.01341919 0.26283866 0.09478904
0.0733166 0.22502495 0.055384934 0.13546228 0.21446104 0.17681323 0.019865943 0.16691788
0.065371506 0.040508475 0.10437181 -0.055282973 0.029921403 0.079838976 0.035648443 0.115988635
-0.0147820795 -0.012813768 -0.0342466 0.25027242 -0.007362243 0.11991776 -0.09618043 0.1177414
0.02196203 0.09042046 0.23413964 -0.054763295 0.13147657 0.09722602 -0.059663016 0.11665837
-0.04145497 0.21816275 -0.0065581864 0.14476873 0.07351447 0.111982875 -0.017780794 -0.06384119
0.07831533 0.07767882 -0.00878887 0.03621488 0.12509999 -0.0017968256 0.12877594 0.122751065
0.08591245 0.09913042 0.12192446 -0.065268144 -0.0023488016 0.059042264 0.018904824 0.032120533
0.03174405 0.012186768 0.0019885844 0.04555978 -0.027594443 0.12063358 0.07033651 0.025805667
-0.014190722 0.10398185 0.029884176 -0.07327747 0.03199305 0.04755318 0.039924372 0.027364817
-0.02137453 0.09127292 -0.05109663 0.116800226 0.14310378 0.023160689 0.17624737 0.12435869
-0.06973131 -0.068739094 0.017334167 -0.019094601 0.030425778 0.0703291 -0.019885324 -0.039882895
0.15300587 0.096027814 -0.18221234 0.018289607 -0.0067099663 0.13781346 0.20548983 -0.11439672
0.0055906726 0.04806248 -0.069406964 -0.23208916 0.21245043 -0.011982732 0.14626275 0.043933906
-0.0014103071 -0.104268126 -0.099039964 -0.037963603 0.010115634 0.06592817 -0.223978 -0.06226402
0.07764965 0.16220257 0.1102731 -0.053795714 -0.006876648 0.008836928 0.010731556 0.024440179
-0.060248766 0.05005295 -0.18336874 -0.07524805 -0.21363299 -0.030586144 -0.004864291 -0.11253571
-0.0072792545 0.12691453 0.00016293586 -0.09580183 -0.15660954 0.047992576 -0.0986342 -0.20177977
-0.09260116 0.022713533 -0.09545746 -0.043856733 0.13360003 -0.0639293 -0.18031047 0.15948257
0.10686867 0.079768844 0.01565531 -0.035224453 -0.063061304 -0.13413651 -0.12895216 0.054218765
0.06578118 0.25472796 0.15626444 0.21090297 0.17745161 0.23306327 0.1286499 0.0096657155
0.23236254 0.040175498 0.07799898 0.1881686 0.12077679 0.10215692 0.06487909 0.23166305
0.118487656 0.1750742 0.274432 0.13378115 0.07349898 0.03180408 0.09653744 0.24030268
0.29924163 0.120634444 0.15976854 0.13570818 0.202704 0.011352462 0.17517455 0.1148323
0.14007193 0.13146266 0.15051903 0.25303933 0.08217722 0.09691577 0.1538377 0.16815625
0.08421994 0.19781803 0.20376603 0.07085187 0.064099245 0.2584124 0.11245089 0.1041832
0.2282241 0.02432665 0.2592782 0.06799518 0.08022717 0.17250678 0.2809235 0.090536535
0.0018908535 0.04564021 0.17203215 0.2612455 0.19690877 0.03352482 0.12020901 0.067267746
00000000: c648 993c cc57 95bd 1fd5 4b3e ad39 803d
00000010: 2404 ca3d 579d 5e3e 67b7 283e c553 96bd
00000020: d543 d63c cff2 513c 2019 8d3d a1fd 6a3d
00000030: fe57 d63d 09c9 543c b7df 593d eee5 9b3d
00000040: 27d9 593e ace9 cd3d 332a 8d3d bd91 d73c
00000050: 4e6f 113d e29c 453d 78f1 963e 6710 213e
00000060: 688e c73d d4a6 d9bd f573 c4bc bc7a 20bc
00000070: 74aa 023e 9e58 a83d df15 e5bc 6207 34bc
00000080: de7d eebd 428b ba3d 62be 383e e428 0d3d
00000090: 1c2c f53d 2adc 5b3c ca92 863e c220 c23d
000000a0: 0327 963d f16c 663e 50db 623d a0b6 0a3e
000000b0: ad9b 5b3e 870e 353e e7bd a23c 85ec 2a3e
000000c0: 7fe1 853d 37ec 253d e3c0 d53d 6670 62bd
000000d0: bb1d f53c 9e82 a33d 1a04 123d 738b ed3d
000000e0: 8930 72bc d7f0 51bc 2a46 0cbd b523 803e
000000f0: f83e f1bb 7197 f53d 3ffa c4bd 6722 f13d
00000100: b7e9 b33c 5d2e b93d 4dc2 6f3e 7a4f 60bd
00000110: cba1 063e 701e c73d 3561 74bd 95ea ee3d
00000120: b0cc 29bd 0e66 5f3e 0ee6 d6bb 413e 143e
00000130: c18e 963d 4757 e53d 07a9 91bc 2bbf 82bd
00000140: ca63 a03d 1316 9f3d 31ff 0fbc 0e56 143d
00000150: 361a 003e 7683 ebba d7dd 033e e964 fb3d
00000160: def2 af3d e404 cb3d 88b3 f93d 4eab 85bd
00000170: 5aee 19bb 4dd6 713d 4ade 9a3c d290 033d
00000180: 0d06 023d 03ab 473c e952 023b e49c 3a3d
00000190: be0d e2bc bd0e f73d 970c 903d 6866 d33c
000001a0: 3480 68bc 70f4 d43d a9cf f43c 8012 96bd
000001b0: 250b 033d 20c7 423d bd87 233d 2e2c e03c
000001c0: a319 afbc 4ced ba3d b34a 51bd f534 ef3d
000001d0: cc89 123e 7cbb bd3c 317a 343e c5af fe3d
000001e0: 4acf 8ebd 15c7 8cbd 6200 8e3c 486c 9cbc
000001f0: 7b3f f93c b408 903d 8ce6 a2bc 3f5c 23bd
00000200: 92ad 1c3e 3baa c43d df95 3abe 16d4 953c
00000210: 47df dbbb f91e 0d3e ed6b 523e d448 eabd
00000220: f631 b73b 2add 443d 3d25 8ebd c8a8 6dbe
00000230: 9b8c 593e 3953 44bc e7c5 153e 0af4 333d
00000240: 0eda b8ba 878a d5bd 77d5 cabd b97f 1bbd
00000250: 0bbc 253c 5905 873d 7d5a 65be 8f08 7fbd
00000260: c806 9f3d 6e18 263e ddd6 e13d e558 5cbd
00000270: 8155 e1bb c3c8 103c 69d3 2f3c c536 c83c
00000280: 69c7 76bd 5204 4d3d 04c5 3bbe a61b 9abd
00000290: 9bc2 5abe cb8f fabc a164 9fbb 1f79 e6bd
000002a0: d086 eebb e2f5 013e c3d9 2a39 c033 c4bd
000002b0: 405e 20be dd93 443d ba00 cabd 5b9f 4ebe
000002c0: ada5 bdbd bb11 ba3c 337f c3bd 1ea3 33bd
000002d0: 72ce 083e 5ded 82bd 4fa3 38be 664f 233e
000002e0: f6dd da3d d95d a33d 913f 803c 8447 10bd
000002f0: 4926 81bd 155b 09be 090c 04be 7f14 5e3d
00000300: 49b8 863d b46b 823e c903 203e f3f6 573e
00000310: e0b5 353e 23a8 6e3e cdbc 033e f35c 1e3c
00000320: 72f0 6d3e 108f 243d eebd 9f3d 45af 403e
00000330: d259 f73d a637 d13d 54df 843d 1439 6d3e
00000340: a8a9 f23d a746 333e 5a82 8c3e edfd 083e
00000350: a286 963d ff44 023d 6cb5 c53d e811 763e
00000360: 3336 993e 310f f73d 5d9a 233e 16f7 0a3e
00000370: a391 4f3e adff 393c f560 333e 322d eb3d
00000380: 046f 0f3e 269e 063e a921 1a3e 5f8e 813e
00000390: 884c a83d c67b c63d a187 1d3e 2731 2c3e
000003a0: 817b ac3d cf90 4a3e 0ba8 503e c91a 913d
000003b0: 7746 833d a14e 843e a74c e63d 005e d53d
000003c0: 94b3 693e af48 c73c 1dc0 843e 0f41 8b3d
000003d0: 244e a43d 9ea5 303e 34d5 8f3e 386b b93d
000003e0: 84d6 f73a 3bf1 3a3d 3229 303e f8c1 853e
000003f0: 74a2 493e 5251 093d 2430 f63d acc3 893d

lstm.bias_hh_l0 f4 [256]
0.056266677 -0.06711941 0.0313701 0.13150679 -0.06817181 0.090103336 0.0729093 0.116250195
-0.020042721 0.028449705 -0.076850034 0.06417986 0.20185855 0.1459144 0.1729313 -0.0032571782
0.19835217 0.055451196 0.16349056 0.035165753 0.10702981 -0.07911069 0.19830233 0.05179565
0.08560267 0.10339142 0.06632835 -0.1166938 0.1733487 0.018309468 0.037017882 -0.01432143
0.05059219 0.12889905 0.25042823 -0.07102113 0.10890391 -0.018425226 0.27511153 0.14050278
0.19975425 0.026030166 0.20767142 0.15671441 0.010562282 0.026188506 0.018226914 0.04743856
0.15841138 0.25135332 0.0523619 -0.07165779 0.24551284 0.07584704 0.19848123 -0.09673778
0.056900524 -0.16038817 -0.042406164 0.07517483 0.036485832 0.18078291 -0.09406736 0.18192454
0.08611648 0.0105728125 0.124081954 0.1386619 0.1657039 0.19720343 0.09136178 -0.017754393
0.064613 0.13392773 -0.017705575 -0.01091191 0.09337948 0.009309117 0.0895818 0.06422135
-0.06690763 -0.023382068 -0.11721448 -0.031196354 0.022288058 0.1016958 0.09701849 0.08017128
0.11223671 0.085555345 0.021513855 0.025559425 0.065024994 0.05732362 0.12638904 -0.009545941
-0.011870665 -0.069407806 0.22285606 -0.01079396 0.010400452 0.09856328 0.018867213 -0.06268359
-0.00524528 -0.020459076 0.12797639 0.10835219 0.00638127 0.1519121 -0.05868471 -0.047247015
0.04937858 0.10790163 -0.027438965 0.14019008 0.00856947 -0.012689864 -0.019884149 0.040675044
0.11460003 -0.016195124 0.13865228 0.09439796 -0.03428477 0.043609858 0.12472274 0.19299053
0.14980163 -0.033373576 -0.123916075 0.16532645 -0.007243907 0.050012868 0.21788304 -0.11593516
-0.013067908 0.12528694 -0.07106071 -0.11897199 0.16677238 -0.11492192 0.15210672 0.055057712
0.033808503 -0.05992795 -0.07377883 -0.04378798 0.03743136 0.007424009 -0.12230721 -0.09644162
0.15659112 -0.0026999011 0.07489361 0.012762668 -0.052946463 -0.05754901 0.039996594 0.02709448
-0.034723643 0.009794448 -0.20567511 0.032779906 -0.11883065 0.054976534 0.17894208 -0.20635048
-0.20009637 0.122648865 0.16447508 0.03767551 0.018209323 0.023092262 -0.1174344 -0.056872234
-0.0149344215 0.20160785 -0.06451226 -0.001349513 0.03534646 -0.107044145 -0.12833385 0.15911171
-0.018180778 0.106987245 0.05642278 -0.16421816 0.076373905 0.005443426 -0.116260484 0.22193843
0.08962993 0.036148816 0.06235382 0.07732781 0.014766404 0.08556042 0.12213386 0.11701161
0.20869838 0.16487105 0.065871656 0.112533055 0.0922045 0.2508376 0.040647402 0.06261975
0.18079808 0.078495055 0.09462855 0.2735327 0.08501071 0.12942292 0.100281976 0.06705229
0.28995296 0.20588449 0.031012205 0.21564087 0.146473 0.1168274 0.14653426 0.14987798
0.05944369 0.25120774 0.2138018 0.15247083 0.035316035 0.09023571 0.22220185 0.17174846
0.046357535 0.23228955 0.050030235 0.2352678 0.26169267 0.25620303 0.22758959 0.22492385
0.08799343 0.11821891 0.103650175 0.08327278 0.052980307 0.21604632 0.24318567 0.006250543
0.16988446 0.19422191 0.17562501 0.107646964 0.26567733 0.15231612 0.0091999015 0.17279802
00000000: e377 663d e775 89bd ef7d 003d b7a9 063e
00000010: a99d 8bbd 1988 b83d 7951 953d 9514 ee3d
00000020: a230 a4bc 5b0f e93c 8d63 9dbd bb70 833d
00000030: 02b4 4e3e 966a 153e e714 313e 6276 55bb
00000040: d51c 4b3e cb20 633d 126a 273e f709 103d
00000050: 7232 db3d c904 a2bd c40f 4b3e ad27 543d
00000060: 7450 af3d e1be d33d 28d7 873d 29fd eebd
00000070: 5282 313e bdfd 953c 10a0 173d 6ea4 6abc
00000080: c239 4f3d 1dfe 033e 2138 803e 8773 91bd
00000090: 0309 df3d 80f0 96bc 6bdb 8c3e f6df 0f3e
000000a0: 618c 4c3e 373d d53c d1a7 543e be79 203e
000000b0: 6c0d 2d3c 4789 d63c 9c50 953c ef4e 423d
000000c0: 9836 223e 62b1 803e 6f79 563d 52c1 92bd
000000d0: b867 7b3e b155 9b3d aa3e 4b3e 751e c6bd
000000e0: 8610 693d cc3c 24be 16b2 2dbd 43f5 993d
000000f0: 2b72 153d 281f 393e 63a6 c0bd 6d4a 3a3e
00000100: d65d b03d 9739 2d3c ae1e fe3d 63fd 0d3e
00000110: 48ae 293e b2ef 493e e31b bb3d a971 91bc
00000120: d253 843d 5a24 093e 480b 91bc dec7 32bc
00000130: be3d bf3d 4485 183c aa76 b73d 7c86 833d
00000140: de06 89bd c08b bfbc 250e f0bd 7f8f ffbc
00000150: 7295 b63c e345 d03d a1b1 c63d d730 a43d
00000160: 5cdc e53d a437 af3d d33d b03c 0062 d13c
00000170: d32b 853d 2ccc 6a3d 216c 013e 9466 1cbc
00000180: 2d7d 42bc ae25 8ebd 6134 643e 26d9 30bc
00000190: a866 2a3c 8cdb c93d 6a8f 9a3c 4160 80bd
000001a0: 99e0 abbb cb99 a7bc 3e0c 033e c1e7 dd3d
000001b0: f919 d13b d88e 1b3e 615f 70bd 1686 41bd
000001c0: 3241 4a3d 88fb dc3d aec7 e0bc fd8d 0f3e
000001d0: f666 0c3c 26e9 4fbc 15e4 a2bc e09a 263d
000001e0: 6cb3 ea3d a3ab 84bc ddfa 0d3e b853 c13d
000001f0: 306e 0cbd 40a0 323d a36e ff3d 4f9f 453e
00000200: 9965 193e bbb2 08bd b6c7 fdbd 564b 293e
00000210: 4c5e edbb 4bda 4c3d bb1c 5f3e 6a6f edbd
00000220: c71a 56bc 384b 003e 4788 91bd 96a7 f3bd
00000230: 61c6 2a3e 2f5c ebbd ddc1 1b3e 3284 613d
00000240: c97a 0a3d 0377 75bd 5b19 97bd 065b 33bd
00000250: a051 193d 1a45 f33b 347c fabd 2f83 c5bd
00000260: 6c59 203e d3f0 30bb d261 993d 821a 513c
00000270: 64de 58bd 83b8 6bbd 78d3 233d 3ef5 dd3c
00000280: 613a 0ebd e478 203c 7f9c 52be 3944 063d
00000290: 7c5d f3bd 132f 613d 983c 373e 8a4d 53be
000002a0: 10e6 4cbe 542f fb3d 286c 283e a351 1a3d
000002b0: b82b 953c fc2b bd3c 7281 f0bd dcf2 68bd
000002c0: 81af 74bc 4a72 4e3e 011f 84bd 24e2 b0ba
000002d0: 73c7 103d f639 dbbd f369 03be 2eee 223e
000002e0: dbef 94bc 211c db3d 931b 673d ce28 28be
000002f0: ec69 9c3d c45e b23b fa19 eebd d443 633e
00000300: e68f b73d c810 143d b866 7f3d 0b5e 9e3d
00000310: caee 713c 4d3a af3d 5121 fa3d c8a3 ef3d
00000320: 07b5 553e f5d3 283e b8e7 863d bb77 e63d
00000330: b7d5 bc3d c96d 803e e47d 263d c93e 803d
00000340: 2223 393e 04c2 a03d 9dcc c13d 7a0c 8c3e
00000350: 181a ae3d 7187 043e a360 cd3d b652 893d
00000360: b774 943e 62d3 523e 4f0d fe3c f6d0 5c3e
00000370: 05fd 153e 3443 ef3d 140d 163e 9d79 193e
00000380: 3a7b 733d 4d9e 803e dcee 5a3e 5021 1c3e
00000390: 8ca7 103d 80cd b83d e288 633e d4de 2f3e
000003a0: 66e1 3d3d 50dd 6d3e 81ec 4c3d 0bea 703e
000003b0: 95fc 853e 0b2d 833e 3f0d 693e 7052 663e
000003c0: e635 b43d c21c f23d 8b46 d43d eb8a aa3d
000003d0: e101 593d 3f3b 5d3e aa05 793e 5bd1 cc3b
000003e0: 31f6 2d3e 1ce2 463e 0bd7 333e 0376 dc3d
000003f0: dc06 883e c2f8 1b3e 2fbb 163c f7f1 303e

lstm.weight_hr_l0 f4 [2, 64]
0.9290923 0.84445596 -0.92373765 0.9844672 -0.87240076 1.0429739 1.0315481 -0.9467213
1.0332994 1.0000155 -0.9240804 -1.0311697 1.0351019 -0.9196359 1.043329 0.98924273
-1.1063107 -1.0612918 -0.9430885 -1.0532383 -1.1485081 0.921913 -1.0040917 -0.94713247
1.0483036 0.8397259 0.90064204 0.94055563 -1.1204127 0.9783673 -0.8675611 1.001646
-0.8965108 -0.9847148 -0.94613224 -0.87633127 -1.1324337 0.96420074 1.1143556 -0.93945956
-0.9656804 0.9415535 1.0466871 -0.90633416 -0.96355736 1.0344887 -0.9981837 -1.1183077
-1.1197209 1.129172 -0.93323976 -0.9726415 1.0641139 -0.9338926 -1.0567541 0.85728735
0.9284062 0.9494492 -0.9663083 -1.0068249 0.89562935 -1.0497528 -0.9360645 1.1599879
1.0357586 0.94631565 -0.8821075 0.8926104 -0.94703317 0.98718476 0.8764579 -0.8920662
0.86721414 0.84859335 -0.8992887 -0.93171054 1.0659904 -1.0423069 0.9964279 0.86108416
-0.9479175 -1.0918095 -1.0996842 -0.9723741 -1.1039332 0.81967694 -1.1255628 -0.8615136
0.8134532 0.89512277 0.8607553 0.8771939 -0.89589477 0.9142474 -0.933061 0.9505255
-0.86574256 -0.88456357 -0.91858643 -0.8922735 -1.0892566 0.95361996 1.1066394 -1.0898945
-1.0297034 1.0379087 0.99905413 -1.0156001 -1.0810794 0.9136826 -0.80513173 -0.93026257
-1.0473521 1.0779943 -1.0002322 -0.90798706 1.1263152 -0.95625573 -1.0161122 0.905542
0.9392539 0.8956461 -0.8854389 -0.8629268 0.8497046 -1.0232525 -0.81695396 0.8832702
00000000: fed8 6d3f 442e 583f 127a 6cbf 0b06 7c3f
00000010: a855 5fbf 2b80 853f c509 843f 545c 72bf
00000020: 2843 843f 8200 803f 8890 6cbf 5efd 83bf
00000030: 387e 843f 426d 6bbf ce8b 853f 033f 7d3f
00000040: 979b 8dbf 69d8 87bf 3f6e 71bf 83d0 86bf
00000050: 5002 93bf 7e02 6c3f 1486 80bf 4677 72bf
00000060: d02e 863f 47f8 563f 7a90 663f 41c8 703f
00000070: af69 8fbf 4876 7a3f 7c18 5ebf f035 803f
00000080: bb81 65bf 4516 7cbf b935 72bf 3f57 60bf
00000090: 96f3 90bf dcd5 763f 34a3 8e3f 6c80 70bf
000000a0: d536 77bf a609 713f d8f9 853f 8405 68bf
000000b0: b2ab 76bf 206a 843f f888 7fbf b524 8fbf
000000c0: 0453 8fbf b588 903f cde8 6ebf 09ff 78bf
000000d0: e234 883f 9613 6fbf b843 87bf 2f77 5b3f
000000e0: 07ac 6d3f 1a0f 733f fb5f 77bf a3df 80bf
000000f0: f747 653f 4d5e 86bf eca1 6fbf 7c7a 943f
00000100: bd93 843f be41 723f ccd1 61bf 1d82 643f
00000110: c470 72bf 24b8 7c3f 8c5f 603f 735e 64bf
00000120: bf01 5e3f 6a3d 593f c937 66bf 9584 6ebf
00000130: 6072 883f 506a 85bf e615 7f3f 0370 5c3f
00000140: b9aa 72bf 6ac0 8bbf 74c2 8cbf 82ed 78bf
00000150: af4d 8dbf 59d6 513f 7112 90bf 288c 5cbf
00000160: 783e 503f c426 653f 765a 5c3f c88f 603f
00000170: 5c59 65bf 1e0c 6a3f 16dd 6ebf a455 733f
00000180: 4ea1 5dbf c272 62bf 7b28 6bbf 096c 64bf
00000190: c36c 8bbf 7020 743f 5ca6 8d3f aa81 8bbf
000001a0: 52cd 83bf 31da 843f 03c2 7f3f 2fff 81bf
000001b0: cf60 8abf 1ae7 693f 1d1d 4ebf b025 6ebf
000001c0: a20f 86bf b8fb 893f 9c07 80bf d771 68bf
000001d0: 192b 903f 2dcd 74bf f70f 82bf 9ad1 673f
000001e0: f272 703f 1049 653f 20ac 62bf c5e8 5cbf
000001f0: 3e86 593f f0f9 82bf e523 51bf ff1d 623f

exp_avg f4 [64, 2]
0.301407 0.29259163 0.15071571 0.14647588 -0.101846054 -0.098757744 0.04132838 0.040147647
0.022557111 0.021789651 -0.11584947 -0.112477034 -0.40514475 -0.39335126 0.112367705 0.10917166
-0.23470482 -0.22806406 -0.2639728 -0.2564945 -0.074976206 -0.07274982 -0.024462843 -0.023776734
0.09854207 0.095828675 -0.04542336 -0.043977723 -0.1303686 -0.12648265 -0.10379472 -0.1009286
0.008549772 0.008253196 0.1582509 0.1538699 -0.33901918 -0.32922766 0.099831015 0.09694652
0.08580597 0.08331531 -0.24565816 -0.23843871 -0.35216048 -0.3421219 -0.076441444 -0.07414337
-0.27401876 -0.266055 -0.30250266 -0.2936957 0.051840287 0.05039343 0.10485967 0.10173923
0.11416253 0.1107441 0.049126673 0.047818266 0.26365596 0.2562272 -0.2501112 -0.2431016
-0.39536762 -0.3840765 0.17632698 0.17133002 0.36099905 0.3506677 -0.3377821 -0.32791835
-0.079627365 -0.07723152 0.06738225 0.0653391 0.047097508 0.04572385 -0.39616013 -0.38459027
-0.10688177 -0.103683986 -0.41509262 -0.40323067 -0.1984794 -0.19286957 0.19779925 0.19200872
-0.05393851 -0.05230554 -0.20421569 -0.19826144 -0.02896256 -0.02805378 0.04773847 0.046433367
0.26721078 0.2593926 0.18813546 0.18282118 0.2956782 0.28706485 0.052965716 0.051404886
-0.2801774 -0.27206564 0.33010542 0.32065186 -0.42110956 -0.4091124 -0.070189446 -0.068155915
-0.36477435 -0.35444978 0.0029008992 0.002899458 0.3861962 0.37500682 -0.24445152 -0.23748463
-0.40151846 -0.39009705 0.30227786 0.2934398 0.2330803 0.22642155 0.21325365 0.20724402
00000000: 0552 9a3e 92ce 953e 3855 1a3e c6fd 153e
00000010: aa94 d0bd 8041 cabd f347 293d dc71 243d
00000020: b1c9 b83c 3680 b23c 7d42 edbd 5c5a e6bd
00000030: 226f cfbe 5665 c9be 0a21 e63d 6495 df3d
00000040: 7656 70be a089 69be 7127 87be 3f53 83be
00000050: 208d 99bd dcfd 94bd 4d66 c8bc 6dc7 c2bc
00000060: 6dd0 c93d d341 c43d d80d 3abd fc21 34bd
00000070: 597f 05be ab84 01be 5392 d4bd a7b3 cebd
00000080: 5814 0c3c 6a38 073c 860c 223e 1290 1d3e
00000090: ec93 adbe 8790 a8be 3474 cc3d e68b c63d
000000a0: 0abb af3d 38a1 aa3d d08d 7bbe 4729 74be
000000b0: 614e b4be 9a2a afbe 558d 9cbd 7bd8 97bd
000000c0: 304c 8cbe 5c38 88be a1e1 9abe 485f 96be
000000d0: 7b56 543d 5769 4e3d abc0 d63d a85c d03d
000000e0: 0bce e93d cdcd e23d 0d39 493d 16dd 433d
000000f0: eafd 863e 3630 833e 930e 80be a0ef 78be
00000100: a06d cabe ada5 c4be 0f8f 343e 2371 2f3e
00000110: ded4 b83e b78a b33e c7f1 acbe eae4 a7be
00000120: ac13 a3bd 8f2b 9ebd b5ff 893d 82d0 853d
00000130: 51e9 403d ef48 3b3d 80d5 cabe 04e9 c4be
00000140: d4e4 dabd 4558 d4bd 0587 d4be 4074 cebe
00000150: 2f3e 4bbe 9a7f 45be e38b 4a3e ef9d 443e
00000160: a1ee 5cbd 553e 56bd eb1d 51be 0c05 4bbe
00000170: e442 edbc 0ad1 e5bc 6a89 433d ea30 3e3d
00000180: dacf 883e 1bcf 843e 95a6 403e 7a35 3b3e
00000190: 2263 973e 2afa 923e 94f2 583d ee8d 523d
000001a0: 6a73 8fbe 304c 8bbe 9403 a93e 7b2c a43e
000001b0: ac9b d7be 2e77 d1be 7cbf 8fbd 5495 8bbd
000001c0: b4c3 babe 717a b5be 031d 3e3b d504 3e3b
000001d0: 82bb c53e e500 c03e 8051 7abe 2c2f 73be
000001e0: d493 cdbe cdba c7be 2ac4 9a3e be3d 963e
000001f0: 9aac 6e3e 0ddb 673e 2a5f 5a3e c737 543e

exp_avg_sq f4 [64, 2]
0.75801194 0.7149429 0.70341104 0.65195763 0.4550483 0.41776693 0.4271332 0.387143
0.4154608 0.38180593 0.6406378 0.5877486 1.4454061 1.3661554 0.41699937 0.3821853
0.8154238 0.75942993 1.0795768 1.0062423 0.25329974 0.23466055 0.22968744 0.2117896
0.23038821 0.21025486 0.35947523 0.33015305 0.39058864 0.36121422 0.2816006 0.26133567
0.43901613 0.4000671 0.5529853 0.5108139 1.1611208 1.0935211 0.44745696 0.4113948
0.3503051 0.32358554 0.7078891 0.66166013 1.4050127 1.3198551 0.24599028 0.22771315
0.76890093 0.72170067 0.8935538 0.84180343 0.46954408 0.43232384 0.43936622 0.40653846
0.44728103 0.4118064 0.55898696 0.5131936 1.0188354 0.9495528 0.9434571 0.87797546
1.1590942 1.0962642 0.4711649 0.44126928 1.0783248 1.018863 1.1422392 1.0733105
0.2819811 0.26164636 0.23235618 0.21442632 0.40217036 0.36357942 1.4127859 1.3313549
0.70715904 0.6449891 1.3368812 1.2670985 0.4511791 0.4241931 0.70814294 0.65910375
0.26029038 0.23955917 0.46800455 0.43876755 0.47822842 0.44049394 0.6047298 0.5558124
0.71419394 0.6677882 0.6330499 0.5876774 0.84571457 0.7937625 0.24806572 0.22815979
0.93051165 0.8727035 0.98520005 0.9286856 1.3428388 1.2721632 0.3443271 0.3175327
1.073016 1.016232 0.29000714 0.2629985 1.6159589 1.5148494 0.8791996 0.8189797
1.2677435 1.1987889 0.93187445 0.8725507 0.7562747 0.70611364 0.6343411 0.59006476
00000000: 120d 423f 7f06 373f bf12 343f b2e6 263f
00000010: 17fc e83e 8ce5 d53e 34b1 da3e 9b37 c63e
00000020: 47b7 d43e 117c c33e d700 243f b176 163f
00000030: 1103 b93f 2ede ae3f f180 d53e cbad c33e
00000040: 9dbf 503f 006a 423f 932f 8a3f 8ccc 803f
00000050: 81b0 813e db4a 703e 2f33 6b3e 5fdf 583e
00000060: e3ea 6b3e 0d4d 573e 230d b83e d209 a93e
00000070: 3cfb c73e 12f1 b83e f42d 903e cacd 853e
00000080: b9c6 e03e 98d5 cc3e 7290 0d3f b3c4 023f
00000090: 9b9f 943f 80f8 8b3f 1419 e53e 57a2 d23e
000000a0: 315b b33e 01ad a53e 3838 353f 8f62 293f
000000b0: 75d7 b33f 03f1 a83f e0e4 7b3e a32d 693e
000000c0: b1d6 443f 60c1 383f f1bf 643f 6e80 573f
000000d0: 1568 f03e 8d59 dd3e 9cf4 e03e cf25 d03e
000000e0: 0502 e53e 4ad8 d23e c519 0f3f a860 033f
000000f0: 3369 823f e415 733f 6886 713f 00c3 603f
00000100: 335d 943f 6352 8c3f 873c f13e 0cee e13e
00000110: 8c06 8a3f 1a6a 823f e534 923f 3d62 893f
00000120: d45f 903e 83f6 853e c7ee 6d3e 9392 5b3e
00000130: 46e9 cd3e 1527 ba3e 2bd6 b43f d669 aa3f
00000140: 6008 353f 011e 253f ec1e ab3f 4930 a23f
00000150: f200 e73e d72f d93e db48 353f 06bb 283f
00000160: c844 853e 004f 753e 4b9e ef3e 24a6 e03e
00000170: 5bda f43e 6c88 e13e 92cf 1a3f b949 0e3f
00000180: 6ad5 363f 2bf4 2a3f 8f0f 223f 0772 163f
00000190: c080 583f 0534 4b3f f104 7e3e b8a2 693e
000001a0: 0336 6e3f 7f69 5f3f 1236 7c3f 57be 6d3f
000001b0: 24e2 ab3f 3ed6 a23f a44b b03e a593 a23e
000001c0: 9758 893f e413 823f d17b 943e bda7 863e
000001d0: bed7 ce3f 96e6 c13f 3a13 613f a7a8 513f
000001e0: 6b45 a23f ea71 993f 538f 6e3f 7c5f 5f3f
000001f0: 389b 413f ddc3 343f 2e64 223f 7c0e 173f

exp_avg f4 [64]
0.0043441365 0.0018433407 -0.00063359074 -0.0013148042 -0.0003714084 -0.0028853614 -0.004751949 0.003280081
-0.0032575298 -0.003863814 -0.001092749 -0.00020077323 0.0016498526 -0.0006733628 -0.0020194408 -0.0019483414
0.0007791812 0.0021435851 -0.004200739 -1.4130504e-05 0.00086450606 -0.0007715782 -0.0046482934 -0.0010815283
-0.003768594 -0.0034579677 0.0006043671 0.0018082407 0.0009774681 7.128859e-06 0.0050685545 -0.0036723923
-0.005014332 0.00269225 0.0040745134 -0.004306551 -0.00022405137 0.00096465833 0.0013474497 -0.0045450614
-0.0022666806 -0.0053795306 -0.0024520634 0.0031942334 -0.0007691299 -0.00237394 0.0003617636 0.0005181966
0.0035888911 0.002146301 0.0034450053 -0.00036038115 -0.0038162626 0.00397919 -0.005864423 -0.0007409389
-0.0047507123 -2.8413962e-05 0.0047529875 -0.0025382482 -0.0052236714 0.003683069 0.0024944602 0.0030876168
00000000: 4259 8e3b 409c f13a 8e17 26ba 8255 acba
00000010: 97b9 c2b9 5518 3dbb 3db6 9bbb a1f6 563b
00000020: 487c 55bb 0b38 7dbb 923a 8fba a786 52b9
00000030: de3f d83a 9d84 30ba 9858 04bb 7d5f ffba
00000040: f741 4c3a 647b 0c3b 5aa6 89bb 0d12 6db7
00000050: 05a0 623a bd43 4aba b650 98bb 11c2 8dba
00000060: 84fa 76bb 129f 62bb 646e 1e3a 7d02 ed3a
00000070: 631e 803a 6f34 ef36 1e16 a63b 85ac 70bb
00000080: 444f a4bb 7670 303b 7f83 853b f81d 8dbb
00000090: 55ef 6ab9 20e1 7c3a e99c b03a bdee 94bb
000000a0: 978c 14bb c646 b0bb ccb2 20bb 5856 513b
000000b0: 6f9f 49ba 1b94 1bbb 17ab bd39 96d7 073a
000000c0: 9a33 6b3b f5a8 0c3b 99c5 613b 8af1 bcb9
000000d0: 431a 7abb dd63 823b 582a c0bb 913b 42ba
000000e0: ddab 9bbb 855a eeb7 f3be 9b3b bd58 26bb
000000f0: 552b abbb a55f 713b 197a 233b 9d59 4a3b

exp_avg_sq f4 [64]
0.00015824554 0.00016752031 0.000109029206 0.000106443644 0.000103143764 0.0001566503 0.00030276735 0.00010084992
0.00018518898 0.00024763585 6.114168e-05 5.705945e-05 5.441936e-05 8.8788096e-05 9.1345464e-05 6.69143e-05
0.000109972905 0.00013011666 0.000250051 0.00010838889 8.473934e-05 0.00015243726 0.00030861606 5.951505e-05
0.00016602708 0.00019070615 0.0001173396 0.00010657964 0.000106982174 0.0001389777 0.00023462926 0.00021555847
0.00023467 0.000107917476 0.00022283758 0.0002459086 6.688392e-05 5.6340934e-05 0.00010033393 0.00029645316
0.00017350967 0.000274062 9.8851095e-05 0.00016451896 6.3459935e-05 0.000101739475 0.000119294426 0.00015045884
0.00015335457 0.00014589254 0.00017980607 6.030169e-05 0.00020519442 0.00020784473 0.0002744738 8.435218e-05
0.00022130142 7.2562536e-05 0.00035141024 0.0001988232 0.0002605155 0.00020072439 0.0001695546 0.00014387842
00000000: b7ee 2539 64a8 2f39 9ca6 e438 7f3a df38
00000010: e34e d838 7f42 2439 bfbc 9e39 637f d338
00000020: 4a2f 4239 1fd5 8139 3139 8038 1e53 6f38
00000030: 5840 6438 bf33 ba38 b990 bf38 5754 8c38
00000040: 41a1 e638 ed6f 0839 4719 8339 d84e e338
00000050: 16b6 b138 91d7 1f39 bfcd a139 cc9f 7938
00000060: 8e17 2e39 4bf8 4739 3814 f638 8283 df38
00000070: 9e5b e038 8bba 1139 d006 7639 8907 6239
00000080: c011 7639 c151 e238 82a9 6939 4bed 8039
00000090: 0844 8c38 9e4f 6c38 5e6a d238 456d 9b39
000000a0: 26f0 3539 fbaf 8f39 474e cf38 b982 2c39
000000b0: cb15 8538 f75c d538 b52d fa38 7dc4 1d39
000000c0: cecd 2039 bbfa 1839 538a 3c39 72ec 7c38
000000d0: 7529 5739 e5f0 5939 40e7 8f39 3be6 b038
000000e0: 260d 6839 b72c 9838 7c3d b839 327b 5039
000000f0: cc95 8839 8b79 5239 77ca 3139 12de 1639
