lightning_logs/version_31/checkpoints/epoch=47-step=2352.ckpt (torch, 318718 bytes, 15 tensors)

lstm.weight_ih_l0 f4 [4000, 2]
000000 39 c0 3e bd 9b 43 fd bc 26 62 4d 3d 01 aa 99 3c
       -0.046570037 -0.030916026 0.05014243 0.018757822
000010 45 ad 87 3d 50 59 85 bd aa a4 a9 3c 99 a9 0f bc
       0.066248454 -0.06511176 0.0207084 -0.008768463
000020 42 f4 4a 3d 29 65 3a 3d 0d 53 09 bd c3 8d ac bc
       0.04954935 0.04550663 -0.03352647 -0.021063691
000030 08 fe 82 3a 1b 8f e2 bc b5 5c 8a 3c 79 fa ae 3c
       0.000999392 -0.027656129 0.01688991 0.021359669
000040 5d ec 6c 3c 67 e4 94 3c 08 cd 19 be 7e 5d 05 be
       0.01446065 0.018175317 -0.1501962 -0.13023946
000050 03 34 fc bb ec 03 16 bc e8 07 8c 3b 01 03 8d 3c
       -0.00769663 -0.0091562085 0.0042734034 0.017213346
000060 68 f9 8c 3c 6d da 4d 3a a9 d7 a2 3b 0c 31 06 bd
       0.01720877 0.00078526774 0.0049695564 -0.03276162
000070 be 40 d1 3c 28 64 34 3d 24 db e5 3c 96 98 0b 3d
       0.025543567 0.04404083 0.028058596 0.034081064
000080 43 f8 6a 3c dd 9f 1a 3d 5c fd 6c 3c 2f 06 b5 3c
       0.014341417 0.037750114 0.014464702 0.022097675
000090 08 8d 03 3e 48 01 09 3e 2c cd 1a 3b bd a2 25 bc
       0.12846768 0.13379395 0.0023620827 -0.010109601
0000a0 9b 54 28 3c fe 07 c7 bc 34 cd 1e 3d d0 58 d1 3c
       0.010274078 -0.024295803 0.038769916 0.025555044
0000b0 dd 8d 4d 3b 83 69 31 3c b1 ef a4 bd 33 6e 00 be
       0.0031365075 0.010828379 -0.0805353 -0.12542038
0000c0 c4 f3 96 3b 58 26 81 3c 6e e1 ae 3d 04 8d 70 3d
       0.004606696 0.015765354 0.08539091 0.058728233
0000d0 05 49 43 3d a4 d2 e2 3b 6e e0 6b 3d ba 29 1a 3c
       0.04767706 0.006922083 0.05758708 0.009409362
0000e0 10 8e 87 3c 50 8d 87 3c d3 5d 1b 3d 81 49 1f 3d
       0.016547233 0.016546875 0.037931275 0.03888846
0000f0 f0 04 90 3c da 21 ba 3c a4 6f 8d 3c c9 d0 4d 3d
       0.01758048 0.02272122 0.017265148 0.05024794
000100 67 9a 4c 3d eb e7 f3 3b 69 69 31 bd b3 47 cc bb
       0.049951937 0.0074434183 -0.043313418 -0.006234133
000110 dd f3 46 3c 18 fa 46 3d d0 ca 28 3b 64 08 e0 3c
       0.0121431025 0.04857835 0.0025755651 0.027347751
000120 aa cc 3e 3c 3d 6c ab 3c 5d 1a 0d 3d e5 5e 82 3d
       0.011645475 0.020925635 0.03444897 0.06365756
000130 5f d4 79 3d 69 8f f1 3c 2b 39 9a ba cb 0e 37 3c
       0.06099355 0.029487329 -0.0011766305 0.0111729605
000140 87 c1 96 3b 60 e0 b1 3c 45 0e 99 bd be a2 f4 bd
       0.004600707 0.021713436 -0.07473425 -0.11945103
000150 5c 62 bb 3c 03 f4 67 3d 8b 21 90 3c 71 d9 38 3b
       0.02287405 0.056629192 0.01759412 0.0028205777
000160 3a 48 2d 3d 9b cf 41 3d 19 63 f6 3c 77 73 10 3d
       0.04230521 0.04731713 0.03007655 0.035266366
000170 c9 3a 76 3d e1 60 5c 3d ae 04 53 3b 39 82 ca bc
       0.060114656 0.05380333 0.0032198834 -0.024720298
000180 0e 82 86 3c ae bf f6 3c e0 c8 2e 3c 71 56 8b 3c
       0.016419437 0.030120697 0.0106680095 0.017008992
000190 1b 9f 27 3d 75 9b 00 3d 93 78 2d 3c 86 11 33 3d
       0.04092322 0.031398255 0.010587829 0.043717884
0001a0 bc 13 26 3d 30 58 b3 3c 09 39 89 3c d9 3b 79 3c
       0.040546164 0.021892637 0.01675083 0.015212023
0001b0 87 26 08 3d 04 30 b5 3c 10 b8 12 bc a4 34 16 bd
       0.033239868 0.022117622 -0.008955017 -0.036671296
0001c0 32 cc 5f 3d 89 f3 cc 3c 15 00 d0 bc 9c 1f 62 3c
       0.054638095 0.02501847 -0.025390664 0.013801482
0001d0 97 a0 2a 3c 3f 49 91 3b 00 96 9a 3c b4 1e 21 3d
       0.010414264 0.0044337804 0.018870354 0.03933592
0001e0 5a cd d0 b8 43 7a 80 3c a0 2e f0 3c 1f f6 88 3c
       -9.9564626e-05 0.015683299 0.029319108 0.016718922
0001f0 7a 53 4c 3d 59 b9 25 3d c5 9c 20 3d 98 1f a6 3c
       0.049884297 0.040459964 0.039212007 0.020278737
000200 e0 f5 2b 3d c9 13 18 3d 85 bd 35 3d ae 5b 92 3d
       0.04198253 0.037128244 0.044370193 0.07146393
000210 7b 82 8c bc 27 f4 d3 3b da 75 18 3c 69 e6 72 3a
       -0.017152062 0.006468314 0.009305442 0.0009265901
000220 6a 23 d5 3d ef 31 06 3e 82 55 61 3d d8 b8 5a 3d
       0.10407145 0.13104986 0.055013187 0.053398937
000230 3a c4 45 3c fa 83 10 bc 03 e4 c4 bd ea 01 14 be
       0.01207071 -0.008820528 -0.09613802 -0.14453855
000240 b8 da 2c 3d 2e 48 36 3a 12 b5 e6 bc 3d b7 13 bd
       0.042200774 0.00069535046 -0.028162513 -0.03606342
000250 ae c9 a1 bb 82 fb e2 bb 27 47 a1 3b 70 36 fb 3c
       -0.004937372 -0.0069269547 0.004921812 0.030665606
000260 de 16 ae 3d cb f7 d0 3d e3 e8 e7 3c 5c 47 3c 3d
       0.08500455 0.10203513 0.028309291 0.04596649
000270 ba cd 04 3d 43 44 30 3c 00 30 59 3b fd 99 29 3d
       0.03242276 0.010758462 0.0033140182 0.04140662
000280 30 78 00 3d c1 c9 e2 3b a9 bc 6f ba 33 d8 7d 3c
       0.03136462 0.0069210236 -0.0009145239 0.01549344
000290 54 5e be 3c 79 e2 c2 bb 4d 3b be 3c 8b c4 bb 3c
       0.023238339 -0.005947408 0.023221636 0.022920867
0002a0 22 63 2a 3d 91 dc 9c bb 18 5a e0 3d 6f c3 eb 3d
       0.041598447 -0.0047870358 0.10954684 0.115118854
0002b0 ae 4c c8 3b 92 89 a8 3c c7 c0 f6 3c b6 ad fa 3c
       0.0061126566 0.020573411 0.03012122 0.03060041
0002c0 d0 66 3f 3d a6 99 7a 3c 21 75 e4 3c 62 07 20 3d
       0.04672891 0.015295422 0.027887883 0.03906954
0002d0 b1 52 e5 b9 3a 8c 2f 3d f0 29 2c bc 06 39 90 3c
       -0.00043739894 0.04285834 -0.010508046 0.017605316
0002e0 60 8f 71 bc 6a 9c 31 3c c4 13 26 bb b7 42 4d 3d
       -0.014743656 0.010840515 -0.002534137 0.050112452
0002f0 07 b5 22 3d a4 6a 15 bc 2b 08 a6 3c a9 ca 83 3c
       0.039723422 -0.009119663 0.020267567 0.016087847
000300 a3 e3 84 3d bb 98 46 3d 38 aa 64 3d b9 b4 04 3d
       0.06488731 0.0484855 0.055826396 0.032398913
000310 af 96 07 3c a5 75 55 3c fe bd a4 bc 7a d9 d1 3c
       0.008275672 0.013028537 -0.020110127 0.025616396
000320 42 cb 34 3b 76 df aa 3b 57 65 2a 3d 73 db c7 3c
       0.0027586971 0.005214627 0.04160055 0.024396634
000330 b5 d1 37 bd 54 87 a2 bc c5 af 68 bb a2 fc 27 3d
       -0.044877727 -0.01983992 -0.0035505157 0.041012414
000340 08 5b 03 3d 22 4a 24 bb df 66 22 bc a6 9d 13 3d
       0.032069236 -0.00250686 -0.009912222 0.036039017
000350 85 f1 06 3c 09 b7 f2 3b 84 7c 27 3c e4 bf 2f 3d
       0.008236294 0.0074070734 0.010222558 0.04290761
000360 30 47 a8 3b 43 b9 7b 3b 61 ec b1 3c 9a 68 02 b9
       0.0051354393 0.0038409985 0.02171916 -0.00012436733
000370 64 cd cf 3c df 83 05 3c cb 83 41 3d d6 80 c7 3c
       0.025366493 0.008149116 0.04724483 0.024353426
000380 07 dc e6 3c b8 7b 1a 3d 01 c4 f9 3c 90 6a 9f 3c
       0.02818109 0.037715644 0.03048897 0.019459993
000390 0f bd 39 bd 2f c1 44 bc cd d6 ea 3c 95 19 24 3d
       -0.045346316 -0.012008949 0.028666878 0.04006346
0003a0 e3 15 03 3c 17 4d 23 bd d0 a4 36 bb 6f f9 80 3b
       0.008000824 -0.03986844 -0.0027869232 0.003935985
0003b0 b7 ce 1b 3d cc 45 c3 bb c6 c5 f1 3c 2d e7 0a 38
       0.038038936 -0.005959248 0.029513251 3.3117063e-05
0003c0 1d 4b 32 3d 1c 8a 36 3d ee 97 db bc 63 e7 82 bc
       0.043528665 0.044565305 -0.026805844 -0.015979474
0003d0 5e 3c 84 3c bf 0a 51 3d 46 0a ab 3d b4 54 9e 3d
       0.016142067 0.05103564 0.08351569 0.077309996
0003e0 ae bb 22 3d 61 fb 78 3c 15 72 4a 3d 70 1a 3f 3d
       0.039729767 0.015196652 0.049425203 0.046656072
0003f0 3c 60 a0 3c b8 1c f5 3b 04 1d 36 3d f3 43 07 3d
       0.019577138 0.00748023 0.044461265 0.033023786

lstm.weight_hh_l0 f4 [4000, 2]
000000 02 1b ed 3a eb 12 60 bd 75 65 54 3d b4 48 55 ba
       0.0018089714 -0.05470554 0.05185457 -0.0008136139
000010 2c a8 c8 3d 88 df c2 3d 6d 9e 41 3d 51 38 55 3d
       0.09797701 0.095152915 0.047270227 0.05205566
000020 34 6b 9d 3d 8b 42 9f 3c 34 8d 51 bd 41 e8 76 3b
       0.07686463 0.01944091 -0.051160052 0.0037675055
000030 01 4e dd bc da bd 4e bd 2b 61 6d 3d fd 1c 61 3d
       -0.027014734 -0.050474025 0.057953995 0.054959286
000040 c1 57 a9 3b 47 0c df 3b af a2 e1 3d f2 8e d5 3d
       0.005167932 0.0068068835 0.110173576 0.10427655
000050 d1 ad 02 3d ea da 62 3d fd 11 bd 3c 02 12 38 3d
       0.031904045 0.055384554 0.023079867 0.04493905
000060 98 e4 cc 3c 46 21 1d 3c 44 bc 50 3c 04 25 ea bb
       0.025011346 0.009590453 0.0127401985 -0.007145526
000070 72 ea 29 3d fd ae 3b 3c 42 5b ee 3c 64 34 f6 3c
       0.04148335 0.011455295 0.02909625 0.030054279
000080 81 3c 4a 3c bf b1 70 3c 81 bb 0a 3d cb 5a 8a 3c
       0.012343527 0.0146908155 0.033870224 0.016888997
000090 50 cd 2e be 3a 15 24 be 8e 10 9f 3c f8 43 31 3d
       -0.17070508 -0.16023722 0.019417074 0.04327771
0000a0 97 32 0a bc 34 99 d4 bc dc f6 fe 3c cb d7 97 3c
       -0.008434913 -0.02595196 0.031123571 0.018535515
0000b0 13 72 27 3d dd 62 4e 3d c4 47 db 3d b4 e3 ff 3d
       0.040880274 0.050387252 0.107070476 0.12494603
0000c0 56 78 42 3d d3 5b 46 3a 3e 6a e9 3c fe a6 83 3d
       0.047478043 0.00075667835 0.028493043 0.064283356
0000d0 a9 d1 df 3c f4 eb e8 3c 4d d1 c4 3c 12 5c 3e 3d
       0.027321653 0.028432824 0.024025584 0.046474524
0000e0 af 23 48 3c 8a fa 56 3d a4 cc ef 3c c4 cc bd 3c
       0.012215539 0.052485026 0.029272385 0.023168929
0000f0 4d 04 84 3c b3 60 51 3d b4 f4 5b 3d 8e 96 c4 3b
       0.016115332 0.05111761 0.053700164 0.005999393
000100 cd 5c 27 3d d7 11 0f 3d 78 f8 93 3a 8c c3 86 bc
       0.040859986 0.034929123 0.001128926 -0.016450666
000110 2b 27 1d 3d d5 89 25 3d 46 14 2f 3d e9 c5 04 3c
       0.03836743 0.04041465 0.042743944 0.008103826
000120 db 8c a9 3c 83 35 e4 3b a2 72 20 3d 78 17 3b 3d
       0.020697048 0.006964387 0.039171822 0.04567668
000130 18 64 e6 3c db 14 a4 3c ac 71 84 3c ce f1 08 3d
       0.0281239 0.020029476 0.016167484 0.033433728
000140 64 db 3a 3d f7 ac 73 3d 45 4f a0 3d 6d e7 61 3d
       0.045619383 0.059491124 0.078276195 0.055152345
000150 27 5f c5 3c 6a 5b 01 3d ac 70 23 3d c5 a0 29 3d
       0.024093224 0.03158132 0.039902374 0.041413087
000160 ae 64 49 3d d9 0a 42 3d 84 ce 17 3d 27 eb 69 3d
       0.04916828 0.047373626 0.037062183 0.057109024
000170 ba 24 42 3d 29 00 2a 3d 0c 95 6e 3d 97 03 1d 3d
       0.047398306 0.04150406 0.05824761 0.0383335
000180 0b 4c 12 3d 74 23 04 3d 81 ca 31 3d 11 74 15 3c
       0.03571705 0.032260373 0.043406013 0.009121911
000190 c4 e5 5e 3d f3 05 8c 3c a2 53 e9 3c 1a 25 57 3d
       0.05441834 0.01709268 0.028482262 0.052525617
0001a0 4f 72 28 3c f0 90 38 3d 2d db 87 3c 5f 9f 24 3c
       0.01028116 0.0450601 0.016584003 0.010047763
0001b0 65 95 53 3d 47 be 06 3d b2 86 1c bd f7 4c 0e bd
       0.051656146 0.032896306 -0.038214393 -0.03474137
0001c0 0a 8f df b9 4e 5c 41 3d 36 88 3b bd b8 1d 12 bd
       -0.00042640447 0.04720717 -0.045784198 -0.035672873
0001d0 53 69 5f 3d 9a 9b a8 3c 3b 4d 5f 3c 61 75 83 3d
       0.054543804 0.02058201 0.013629253 0.064188726
0001e0 ba 59 30 3d b6 2c 82 3d 96 70 5d 3d dc b1 d2 3c
       0.04305432 0.06356184 0.05406245 0.025719576
0001f0 36 c7 a1 3c 87 3d 6d 3d 3f f6 b2 3a 82 d3 4a 3d
       0.019748311 0.057920005 0.0013653709 0.049518116
000200 36 8f f8 3c 0c 5c 49 3d 00 e4 54 3b be 5d 69 3d
       0.030341726 0.04916005 0.0032484531 0.056974165
000210 a0 e7 47 3d 61 7f 14 3d e5 22 65 3d 64 85 fb 3b
       0.04880488 0.03625429 0.05594148 0.0076758135
000220 a5 17 4b 3d d7 1b c9 3c 4f 9e 29 3d 56 60 c2 3c
       0.049583096 0.024549408 0.04141074 0.023727577
000230 fd 50 13 3d d4 b6 3a 3d 25 84 f7 3d e5 77 17 3e
       0.03596591 0.045584515 0.120857514 0.1479183
000240 c9 46 59 3d cb fd 03 3d 99 eb c2 bc 41 c7 c2 bc
       0.05304602 0.032224458 -0.023793982 -0.023776652
000250 6c 87 33 bd 23 ab 2d bd d9 e4 51 3d 7d b5 61 3d
       -0.04383032 -0.042399537 0.051243637 0.05510472
000260 f5 61 7f 3d 20 e2 24 3b ce d1 4d 3c 50 10 33 3d
       0.06234928 0.0025159195 0.012562228 0.04371673
000270 4e 3d 20 3d cc 8f 1a 3d 93 4a 46 3c bc 9a 5c 3d
       0.039120965 0.03773479 0.012102741 0.053858504
000280 61 8d 95 3c d6 c5 39 3d 38 af cc 3c 28 97 10 3d
       0.018255891 0.045354687 0.024985895 0.035300404
000290 c0 f1 06 3d aa ce fb 3c 3d 81 8e 3d 56 20 1c 3d
       0.032945395 0.030738194 0.06958244 0.038116775
0002a0 3d 77 80 3d f1 62 7f 3d a8 a7 2c be c0 d2 02 be
       0.06272743 0.062350217 -0.16860831 -0.12775707
0002b0 0b c4 f4 3c 72 67 94 3b 29 82 55 3c a2 ef 12 3d
       0.029878637 0.004528933 0.013031521 0.035873063
0002c0 7a 0f 2f 3c 6b f2 1f 3d e1 34 27 3d ee 61 65 3d
       0.010684842 0.039049547 0.040821914 0.056001596
0002d0 60 47 8a bb 79 b9 53 3d b0 72 69 3d 1c 3d 04 3d
       -0.0042199343 0.051690552 0.05699414 0.03228484
0002e0 d9 fb 17 3d 1c 52 28 3d f8 96 3d 3c 53 0b 5c 3d
       0.037105415 0.04109393 0.011571638 0.053721737
0002f0 5e 8f 32 3d 13 68 f4 3c 46 3a f7 3c 66 31 2e 3c
       0.043593757 0.029834783 0.030179154 0.010631895
000300 85 9c e1 bd 7a d8 85 bd 82 eb 87 3c 0a 48 b5 3c
       -0.11016182 -0.0653543 0.016591791 0.022129077
000310 a9 c2 f1 3c 31 a4 8c 3c 44 55 df 3c d1 37 1c 3d
       0.029511767 0.017168136 0.027262338 0.03813917
000320 88 8a 39 3d e0 bd 0b 3d ce 98 21 3d 26 48 a0 3c
       0.04529813 0.034116626 0.039452367 0.019565653
000330 ef 22 ac bc eb fc 2f bd d0 78 63 3c 82 bd fd 3c
       -0.021012751 -0.04296581 0.013883784 0.030974153
000340 40 d6 50 3d f5 b1 7f 3c 28 e6 1d 3d 0e 9b 31 3d
       0.050985575 0.015606393 0.038549572 0.043360762
000350 1d 61 3e 3d b4 11 35 3d f5 26 1d 3c c9 70 55 3d
       0.046479333 0.044206336 0.009591808 0.052109513
000360 e4 a6 09 3d 90 bb 24 3d 4a e6 0a 3c 54 7a 34 3d
       0.033606425 0.040217936 0.008477757 0.044061974
000370 00 29 13 3d 6e 66 2d 3d 3a 97 5d 3b fb d9 17 3d
       0.035927773 0.042334013 0.0033812062 0.037073117
000380 b4 22 32 3d fc 26 3d 3d 8c a5 0e 3c 6a 24 b5 3b
       0.043490127 0.046179757 0.008706462 0.0055280225
000390 e3 ef eb bc b1 20 5b bd 18 a5 9c 3c d0 bc 1e 3d
       -0.02880091 -0.053497974 0.019121692 0.038754284
0003a0 98 23 1e bc 4e e1 2a bd 75 b0 b3 ba 42 9d 52 3d
       -0.009652041 -0.041718774 -0.0013709205 0.051419504
0003b0 eb 1f de 3c cf 80 16 3d 5a 08 08 3d 7b bc d6 3c
       0.027114829 0.036743935 0.03321109 0.026212921
0003c0 78 72 78 bb 50 06 e9 3c 9a d8 43 bd 39 57 47 bd
       -0.0037910026 0.028445393 -0.04781399 -0.048667166
0003d0 59 9b 81 3d 5d 3b d5 3c 59 1d 09 3d a9 56 15 3d
       0.06328458 0.026029283 0.033475254 0.0364596
0003e0 d1 40 19 3d 9b cf 5e 3d f8 60 2f 3d 34 2f 56 3d
       0.03741533 0.054397207 0.042817086 0.05229111
0003f0 c0 9a ed 3c 86 fa 2c 3c 19 02 04 3d 49 91 2c 3d
       0.029004455 0.010557776 0.032228563 0.042130742

lstm.bias_ih_l0 f4 [4000]
000000 27 f8 26 3b 9d 31 c7 3c d2 71 b9 bd 31 57 df bb
       0.00254775 0.02431565 -0.090549126 -0.006815814
000010 95 1f 83 3d a5 cc fa bc 8c 0b 48 bd 97 c8 f1 3c
       0.06402508 -0.03061516 -0.048839137 0.029514594
000020 76 16 2c 3d f9 8f aa 3e d1 82 de 3b 35 74 6b 3d
       0.042013608 0.33312967 0.006790497 0.05748387
000030 32 65 c2 3c ed 95 33 bc 2d 19 36 3d 73 47 1a 3b
       0.023729894 -0.010961038 0.044457603 0.0023541122
000040 47 4a 8f 3d b6 17 5a 3d 4e d2 89 be 25 4a f5 bc
       0.06996589 0.05324527 -0.26918262 -0.029942581
000050 00 3d 21 bd a5 1f 2b 3c 8f 32 0a 3c 39 1b e2 bd
       -0.039364815 0.010444556 0.008434906 -0.110403486
000060 ba 48 86 3c 0c e4 ca 3d 07 d4 20 3c 68 ec 1f 3c
       0.0163921 0.09906778 0.009816176 0.0097609535
000070 45 5f 92 3c 24 20 3b 3c bd d6 e6 3c 8f 66 c2 3c
       0.017867694 0.011421237 0.028178567 0.023730544
000080 ef e2 86 3d 75 97 0c 3c 39 95 16 3c 10 38 cd 3c
       0.06586253 0.008581032 0.009190851 0.025051147
000090 69 8b 62 3b e9 9f 83 3d 52 26 09 3d 3a 94 25 3d
       0.0034567958 0.06426985 0.03348381 0.040424563
0000a0 3c d8 3e 3d 03 5e 50 3e 34 9b 50 3d fe 8b 5a bb
       0.046592936 0.20348363 0.050929263 -0.0033347602
0000b0 66 f7 0b 3d ab bd aa 3c be 0d a4 3c 9e 2d c7 3c
       0.034171484 0.020842394 0.020026084 0.024313744
0000c0 f3 12 12 3d cc 8f 47 3d 48 ad e3 3c 49 08 8e 3d
       0.035662603 0.04872112 0.027792588 0.06935174
0000d0 ce 7e fa 3c 08 13 39 3d 2a 4c a5 3c 9a 16 00 bd
       0.030578043 0.045184165 0.02017792 -0.031271555
0000e0 c7 f0 d6 3c ca 15 20 bd 14 1c d8 3b fb ee e1 3c
       0.026237858 -0.03908328 0.006595144 0.027579775
0000f0 29 58 01 3d ea a1 1c 3d a0 04 b9 3c 8f 0a 6e 3d
       0.031578217 0.03824035 0.022585213 0.05811554
000100 51 ee 81 3c c4 f8 72 3d b3 ca 73 bc da 6e 63 3c
       0.015860708 0.059319273 -0.01487987 0.01388141
000110 fc f5 22 3e 69 9e 66 3d b4 78 54 3b 3b d9 1e be
       0.15914148 0.056303415 0.0032420577 -0.15512554
000120 05 7b 2d 3d 78 eb d9 bb 99 01 4d bc ac 61 f7 3c
       0.04235365 -0.0066503845 -0.012512588 0.03019794
000130 cf de c2 3d 4e 3a 94 3c 76 c3 a9 3d 68 96 40 3d
       0.095151536 0.018094208 0.08289234 0.04701844
000140 fb b6 6f 3c d6 48 54 3c 2c 50 08 3b c2 8c 07 bd
       0.014631028 0.012956819 0.002079974 -0.03309322
000150 fd e1 de bc 2a 70 d7 bd b4 15 ff 3c e8 24 93 3c
       -0.027207369 -0.105194405 0.031138279 0.017961934
000160 94 44 a2 3c c7 bf 1e 3d 7f 71 68 3d 00 c7 37 bc
       0.019808091 0.038757112 0.056748863 -0.011216879
000170 81 db 06 3c a2 74 93 3c cc 4c c0 bb 43 a6 b5 3c
       0.008231045 0.01799995 -0.00586853 0.022174006
000180 a9 a0 bc bb e3 d5 27 3d fb 93 28 3d 94 42 4f bc
       -0.005756457 0.040975463 0.04115675 -0.012650151
000190 1b da 59 3c 0d 41 80 3d 1d 7f 37 bd be 74 07 3d
       0.013296629 0.062624075 -0.04479896 0.03307032
0001a0 5b d6 26 3c bf 93 10 3d 2a 8d 6b 3c a1 9d d6 3c
       0.010182942 0.03529715 0.014376918 0.02619821
0001b0 84 0a e3 3c ae c2 1e 3d 28 30 9d 3c 7b 2d e9 3a
       0.027714975 0.03875988 0.019188002 0.0017790043
0001c0 77 a4 2e 3c e7 9e 0d 3b 8f 8a 7c bc 61 f3 63 bc
       0.010659329 0.0021609606 -0.015413894 -0.0139130065
0001d0 f8 8a 25 3c 9b c2 d1 3c da db 35 3d 57 05 49 bc
       0.0101039335 0.02560549 0.04439912 -0.0122693395
0001e0 34 30 91 3c 85 7f 9b bc 9c ff 83 3c 0b f3 a9 3d
       0.01772318 -0.018981704 0.016113095 0.0829831
0001f0 3d 8b 17 3d e4 27 33 3d 1c 01 01 3c d9 1a 53 3c
       0.036998022 0.043739215 0.0078738 0.012884819
000200 21 b5 ea 3c 63 31 39 3d ba 7f 4c 3d d0 f4 3d 3c
       0.028650822 0.045213114 0.049926497 0.011594012
000210 9e 10 df 3c 84 26 e3 3c b0 21 cc 3b 92 4e fc 3b
       0.027229603 0.027728327 0.006229602 0.007699796
000220 c6 d9 30 3b 51 c5 14 3c 13 87 8e 3d 3b 5a c2 bc
       0.0026985272 0.009080247 0.06959357 -0.023724666
000230 3a 02 99 3d 5e 74 9a 3b be 26 cc 3c 68 c1 a9 3c
       0.07471128 0.004713579 0.024920817 0.020722106
000240 60 bf 70 3d bf 39 cd bb 7a c3 77 3c 7f 8c 0f 3c
       0.05877626 -0.0062629874 0.015122289 0.008761524
000250 db 33 c2 bc 63 23 33 3d bd ce 82 3c 28 8b f3 3b
       -0.023706367 0.04373492 0.015967721 0.00743236
000260 ae b8 0d bb 8c 55 15 3d 47 6f 6d 3e 1b 84 bf 3c
       -0.002162497 0.036458537 0.2318698 0.023378422
000270 3a 67 7c 3d 91 4e d0 3c 02 a3 ad 3c c6 bf fb 3c
       0.061621882 0.025428088 0.021195892 0.030731093
000280 fc b7 eb 3c 12 ab 6c 3c 56 28 5a 3d d2 79 22 3d
       0.028774254 0.014445083 0.053261124 0.03966696
000290 66 7f 7b 3d b6 19 9b 3b 38 7b 5b 3d 57 61 d1 ba
       0.061400793 0.0047332896 0.053584307 -0.0015974444
0002a0 67 e1 47 3d b6 4c 9c bc bb 7a 50 3d 3d bf 17 3d
       0.048798945 -0.019079547 0.050898295 0.037047613
0002b0 7a 51 c3 3c 5a dd 36 3d cd 4b fa 3c c8 a6 3f bd
       0.023842562 0.04464469 0.030553723 -0.046789914
0002c0 ff ee 24 3c 7a 08 58 3d f5 28 7e bd 4a 22 6b 3d
       0.010066747 0.05274246 -0.06205078 0.057405747
0002d0 38 89 9e 3b 14 60 13 3d 15 5c 0d 3d a6 6b 60 3d
       0.004838135 0.0359803 0.034511644 0.05479016
0002e0 fe 83 88 3c 69 0a 16 3d 90 02 26 3d 7e 2b 10 3d
       0.016664501 0.03663102 0.040529788 0.035197727
0002f0 9a a8 65 be c7 4d 41 be fc c6 14 3d 81 03 16 3d
       -0.22427598 -0.18877326 0.03632258 0.036624435
000300 21 11 12 3d 8e c7 42 3d 6a 5b da bd 83 0c 62 3b
       0.035660867 0.04755359 -0.10661967 0.003449232
000310 29 00 2a 3d 41 50 a9 3c 6d 42 9d bb 39 96 b6 3c
       0.04150406 0.02066815 -0.0047991783 0.022288429
000320 6e 20 58 3d 4e fd 57 3d d5 b7 25 3d fc c2 d3 3c
       0.052765302 0.052731805 0.04045852 0.025849812
000330 cb 73 2f be 00 69 fa 3c aa 32 11 3d 66 04 b5 3c
       -0.17134015 0.030567646 0.035448708 0.022096824
000340 e6 1c 5f 3d 07 81 29 3c 74 08 01 3d 87 fd d0 3c
       0.05447092 0.010345704 0.031502202 0.025511516
000350 93 2f 42 bd 32 53 24 bd 52 14 32 3c 9c 32 05 3d
       -0.04740865 -0.040118404 0.010869103 0.032518968
000360 6c 39 cb bb 91 ac d8 3c 46 ea 07 3d 39 23 10 3d
       -0.0062019136 0.026449474 0.033182405 0.03518984
000370 b8 d0 95 ba 2e 07 3b 3d 75 b2 2b 3b ac 8b 56 3d
       -0.0011430001 0.045661144 0.0026198898 0.052379295
000380 35 36 24 3d 89 2a 6a bd e5 65 71 3d c7 d6 42 3d
       0.04009076 -0.05716947 0.058935065 0.04756811
000390 64 98 bf 3c 84 5f 1a 3c 47 40 ac bb d2 62 37 3c
       0.023388095 0.009422187 -0.005256686 0.011192994
0003a0 a2 bf 1b 3d 10 a8 83 3c 91 66 54 3d d6 cc 69 bc
       0.038024552 0.01607135 0.051855627 -0.014270028
0003b0 ed ed cf 3c 70 10 81 3b 88 c1 a4 38 1b 9c 51 3d
       0.025382007 0.003938727 7.8561774e-05 0.051174264
0003c0 ec a7 43 3c e9 ea e8 bc 4e 73 02 3d fb 21 90 3c
       0.011941891 -0.028432326 0.031848244 0.017594328
0003d0 d4 06 67 3d 93 d0 96 3c 2f dc fe 3c 27 2c 50 3b
       0.056402996 0.018410003 0.031110851 0.0031764598
0003e0 b0 56 f8 3a c2 c6 9b 3c e1 78 0f 3d 3d 94 25 3d
       0.0018946733 0.019015674 0.03502739 0.040424574
0003f0 26 44 be 3b 84 7c ce 3c 38 91 61 3d dc 54 44 3b
       0.005806464 0.025205858 0.055070132 0.0029957807

lstm.bias_hh_l0 f4 [4000]
000000 28 4d 26 bd be ad 7d 3a c1 66 ce bd f2 d6 b6 bb
       -0.040600926 0.00096770737 -0.100781925 -0.0055798227
000010 18 69 7b 3d 3c 3f ea 3b 11 e3 2a 3c 9b 67 82 3d
       0.061379522 0.0071486514 0.010430113 0.063674174
000020 38 a1 e6 3b bf ee b9 3e 54 b7 3d 3c 3c be 60 3c
       0.0070382617 0.3631496 0.011579353 0.01371723
000030 57 29 f3 3c 2b 16 c0 3a 59 6f 0d 3d cb 28 f0 3c
       0.029682798 0.0014655044 0.034530018 0.029316327
000040 7e 2a 90 3c a1 5f 01 3d 43 0b 8e be 91 37 61 3c
       0.017598387 0.03158534 -0.27742967 0.013746158
000050 4a 3d a4 b9 d2 9a 8f 3c cb 16 3e 3d 50 99 d7 bd
       -0.00031326181 0.017529879 0.046408456 -0.10527289
000060 8c f4 13 3c ea db bc 3d c6 f0 3d 3d 39 34 13 3d
       0.0090304725 0.09221633 0.046372198 0.035938475
000070 a4 24 8d 3b 80 14 eb 3c 68 1c bb 3c 01 ed 36 3d
       0.0043073464 0.028696299 0.022840694 0.04465962
000080 95 cb 30 3d be db cb bb 39 72 59 3c 39 1b d5 3c
       0.0431629 -0.0062212637 0.013271862 0.026013957
000090 7e 99 d6 3c 7f 42 96 3d ea 54 98 3d 68 4a 9e 3b
       0.026196238 0.07336902 0.07438071 0.0048306473
0000a0 fc 97 8a 3d 66 38 77 3e 37 fb 6a 3d 44 30 a4 bb
       0.0676727 0.24142608 0.057368483 -0.0050106365
0000b0 18 db 00 3c 78 e5 13 3d 15 58 78 3d 92 d5 b7 ba
       0.007864736 0.03610751 0.060630877 -0.0014025441
0000c0 a5 f8 49 3d 0f 3a 20 3d 78 ef 23 3c cf fc f3 3c
       0.04930939 0.03911787 0.010005824 0.029783634
0000d0 b4 4b fa 3b 13 7b 33 3d 7d 93 51 3d 50 21 4b 3c
       0.007638419 0.043818545 0.051166046 0.012398079
0000e0 84 33 72 3d 9b ae b9 bc 0f bb 86 3d 7b 5a 41 3d
       0.05913116 -0.022666266 0.06578647 0.04720543
0000f0 f0 f5 b5 ba 64 89 3a 3d 7b ba f7 3b 79 80 84 3c
       -0.0013882499 0.045541182 0.007560072 0.016174542
000100 cf 14 64 3d 47 f2 95 3d 8a 09 99 3b f5 7e 6a 3d
       0.055683907 0.07321601 0.0046703266 0.057249982
000110 73 b0 13 3e 19 4c 24 3d 85 01 33 3d e0 57 0b be
       0.14422779 0.040111635 0.04370262 -0.1360774
000120 25 d6 ff 3c 2c ea 37 bd 15 cd 09 bd 6d 20 5a 3d
       0.031230042 -0.044901058 -0.033642847 0.05325358
000130 9a 2f 00 3e c7 17 34 3c c0 6f f5 3c 5d 77 7e 3d
       0.12518159 0.010991997 0.029960513 0.062125552
000140 37 37 c2 3c 69 85 48 3d ed 2c 40 3d 1b 8f a9 3b
       0.02370797 0.048955355 0.046917845 0.00517453
000150 2e 56 44 bd 0b 5b be bd dc 42 71 3d a4 61 3b 3d
       -0.04793375 -0.09294709 0.058901653 0.045747414
000160 fc c5 05 3d ba 01 d3 3c 8e 24 5f 3c a1 29 97 bc
       0.032659516 0.02575766 0.013619555 -0.018452467
000170 27 ad 8b 3c 02 56 db 3c 63 e5 f8 3c db e6 6c 3a
       0.017050339 0.02677441 0.030382818 0.00090370857
000180 e1 b1 00 bc 42 d9 fd 3c b1 d5 60 3c e0 07 2b bb
       -0.00785491 0.030987386 0.013722823 -0.0026097223
000190 55 0f 48 bb 2d 42 4d 3d 7d 9a 64 3b d2 9d 2d 3c
       -0.0030526717 0.05011194 0.0034882121 0.010596709
0001a0 a3 7a 57 3d 7f a0 b6 3c 66 53 8b 3c 0c 7a 2a 3d
       0.05260719 0.022293327 0.01700754 0.0416203
0001b0 4f fe 2a 3c 3f d5 33 3d fd d5 ac 3c 4d 15 1d 3d
       0.010436608 0.04390454 0.021098131 0.038350392
0001c0 b8 36 33 3d 41 79 6c b8 54 86 e6 3a e5 6f c9 3c
       0.043753356 -5.637971e-05 0.001758764 0.024589488
0001d0 76 e9 1a 39 14 7a 23 bc e3 17 01 3d 6e ed 2c 3d
       0.00014773555 -0.009977836 0.03151692 0.042218618
0001e0 01 fe 9d 3c a6 72 2d bd 54 3b e6 3c f9 98 c3 3d
       0.019286158 -0.042345665 0.028104462 0.095506616
0001f0 21 a3 70 3d 67 17 af bb 2e ab 0f 3c 96 e2 85 3c
       0.05874932 -0.005343366 0.00876884 0.016343396
000200 23 f7 b2 3d 22 bb ef 3c 47 9a 31 3d f4 c4 c1 3c
       0.08738544 0.029264037 0.04336002 0.023653485
000210 40 de bb 3b bc 9f 7b 3d 9d a4 8c 3c cf 8b 63 3d
       0.0057332814 0.06143163 0.017168337 0.055553254
000220 4a e7 0a 3d 21 8d 43 3c 1a 14 55 3d 8e 8d 06 bd
       0.03391198 0.011935503 0.052021123 -0.03284984
000230 4e 8d a2 3d df 48 61 3d 97 1f 30 3d 63 73 cf b8
       0.07937108 0.055001136 0.042998876 -9.8920216e-05
000240 d7 f1 37 3d b0 ad 28 bc b1 33 89 3c 7c b1 42 3d
       0.04490837 -0.010295317 0.016748281 0.047532544
000250 11 b1 78 bc 71 f2 2f 3d ea 90 33 3d 2d 65 1d 3c
       -0.015178935 0.04295582 0.043839373 0.009606642
000260 f0 6f fe 39 db 4f 85 3b b8 26 89 3e 08 0e 62 3d
       0.00048530055 0.0040683574 0.26787353 0.055189162
000270 d7 5a 60 3d 92 25 7c 3c 84 f4 39 3d 8b 57 38 3d
       0.05477413 0.015389817 0.045399204 0.045005362
000280 34 fc 94 bb 74 9f 90 3d 67 aa 52 3b 21 a3 09 3c
       -0.0045466665 0.07061663 0.0032145025 0.008400709
000290 aa 39 83 3c 13 d0 11 3d 44 bc 85 3d c2 45 0c 3d
       0.016018707 0.035598826 0.065300494 0.034246214
0002a0 cb 89 c3 3b e7 96 f2 3a 74 9a 76 3d 51 4b b5 3d
       0.005967354 0.0018508107 0.06020589 0.08852256
0002b0 5e 05 be 3b fa d8 1c 3c c6 04 6d 3d f9 fb 39 bc
       0.0057989797 0.009573216 0.05786588 -0.011351579
0002c0 ac 30 dc 3c 64 c2 1a 3d 02 09 72 bd 47 e2 5e 3c
       0.026878677 0.03778304 -0.05909062 0.013603753
0002d0 f4 6a 0f 3c f8 52 74 3d 05 bb be 3c 39 8d 3a 3d
       0.008753527 0.059649438 0.023282537 0.045544837
0002e0 44 f8 16 3d d7 77 df 3c 17 07 76 3d 3c a0 58 3c
       0.03685786 0.027278824 0.060065355 0.013221797
0002f0 3d bc 54 be ff f2 4f be f9 5a 22 3d eb 34 87 3c
       -0.20774932 -0.2030754 0.03963754 0.016504725
000300 b7 00 47 3d b1 17 e2 3c 8f f6 f5 bd 33 80 dc 3b
       0.048584666 0.027599188 -0.12009918 0.0067291497
000310 a1 83 6d 3d 87 ea a3 3c 36 57 87 bb 41 83 45 bb
       0.05798686 0.020009292 -0.0041302694 -0.0030138048
000320 17 40 75 3c 88 22 0c 3d ab a5 0c 3d 63 fb 62 3d
       0.0149688935 0.03421262 0.03433768 0.055415522
000330 f2 3c 28 be 81 f4 35 3d 79 61 51 3c fa d8 03 3d
       -0.16429499 0.04442263 0.012779587 0.032189347
000340 0e 77 db 3c 11 b2 d5 3a cf 1a 08 3b f8 07 0e 3d
       0.026790168 0.0016303678 0.0020767932 0.03467557
000350 f6 7b a0 3b ce c7 44 3b db 85 13 3d 87 fe 96 3c
       0.00489759 0.003002632 0.036016326 0.018431915
000360 32 d4 82 bb d4 a6 27 3c d0 2d f7 3c 70 8d 7c 3c
       -0.003992581 0.010232646 0.030173212 0.015414581
000370 39 ef ba bb f8 f9 a8 3c 14 5a 8a 3c ee 11 15 3d
       -0.005704787 0.020627007 0.016888656 0.036394052
000380 4e 2c aa 3c 18 4e 93 bd 26 d3 cd 3b 04 c3 ab 3d
       0.02077308 -0.071926296 0.0062812744 0.08386806
000390 3f 21 14 3d 5e d9 21 3c 3c 66 c5 ba 3c 19 2b 3d
       0.03616452 0.0098784845 -0.0015060375 0.041772112
0003a0 cf a1 d9 3c 5c 40 00 3d 87 ec 66 3d a2 a1 3c bb
       0.026566414 0.031311378 0.056377914 -0.0028782864
0003b0 25 16 2b 3b 1a b3 38 bd 77 44 3b bd f6 d6 c8 3c
       0.0026105728 -0.04509268 -0.04571959 0.024516564
0003c0 25 4f 22 3c 47 43 e8 bc 82 47 16 3d 8c b4 2e 3d
       0.009906565 -0.028352393 0.03668929 0.04265265
0003d0 cb 86 38 3d ae cd be 3c 64 17 18 bb 71 82 2f 3d
       0.045050424 0.023291435 -0.0023207301 0.042849008
0003e0 0c 6b 1c 3d 6e 14 01 3d c0 d1 bc 3c 09 62 5c 3d
       0.038188025 0.031513624 0.023049235 0.05380443
0003f0 8a e8 50 3d 7b d6 fa ba 01 9b 08 3d 50 46 91 bc
       0.051003017 -0.0019137406 0.03335095 -0.017733723

lstm.weight_hr_l0 f4 [2, 1000]
000000 03 ff b4 ba 81 bb a4 3d f9 a6 5e 3f 56 11 c9 3d
       -0.001380891 0.08043576 0.8697353 0.0981776
000010 b3 55 d0 bd cd 36 3e bb 0c c6 4e bc 60 23 96 3d
       -0.10172596 -0.0029024363 -0.01262046 0.07330966
000020 5f da 9b 3d fb 55 9c bf 6f eb 0d be f0 e1 81 3d
       0.0761001 -1.2213739 -0.13859342 0.06341922
000030 41 f5 9c 3d 6a 47 0e 3b 39 ac b1 bd 67 71 6a bd
       0.07663966 0.0021710047 -0.08675427 -0.057237055
000040 43 f4 ab 3d c1 e4 d5 bd f7 0c ed 3d 4f ea 8e 3d
       0.083961986 -0.10444022 0.115747385 0.069782846
000050 9f 8c 90 bb 4e bb 3a bd 96 b2 67 3d 67 23 c9 3e
       -0.0044112946 -0.045588784 0.056566797 0.39284822
000060 ca 3b af 3d 5a 19 88 3d f7 e8 1b 3d b3 e1 95 bd
       0.08556326 0.066454604 0.03806397 -0.07318439
000070 16 80 bb 3d f7 77 b8 bd 40 a2 7a 3d f0 03 c2 3d
       0.0915529 -0.090072565 0.06118989 0.09473407
000080 85 f5 ac bd 6e 96 78 bc ec 5b b4 bd 60 a7 b9 bd
       -0.08445267 -0.015172584 -0.08806595 -0.090651274
000090 88 0a bc bd 8c 16 b6 3d 1c 1d b5 bd 48 8d 77 3d
       -0.09181696 0.08891019 -0.08843443 0.06043747
0000a0 20 65 c7 3d 0e fd 10 3f 40 b8 b9 3d a2 76 aa bd
       0.09736085 0.5663613 0.09068346 -0.08323409
0000b0 80 7b 6b 3d f7 a9 ae bd 7d 93 57 3d 06 9c 54 bd
       0.057490826 -0.08528512 0.05263089 -0.051906608
0000c0 92 e4 94 3d 27 ef 68 bd f7 98 8f 3d 24 ce c3 bd
       0.07270159 -0.0568687 0.070115976 -0.095608026
0000d0 cf df ae bd 9f 64 c6 3d b8 3a cd 3d 50 86 8b bc
       -0.08538782 0.09687161 0.10020965 -0.017031819
0000e0 22 9e aa 3d 08 0d 32 3c 26 55 fd bd 0a 16 bc bd
       0.08330943 0.010867365 -0.123697564 -0.09183891
0000f0 e5 ff 01 3e 0d 99 b0 3d ee 3c b9 3d 83 ce 63 3d
       0.12695272 0.08622942 0.090448245 0.055616867
000100 63 b6 cb bd c9 c0 a1 bd 2f d7 9e bd 41 0d 75 bd
       -0.09946897 -0.07898099 -0.07755887 -0.059827093
000110 67 a3 dd bd 94 78 9e bd d1 e6 b3 3d e0 ac 41 bf
       -0.10822182 -0.07737842 0.08784259 -0.7565441
000120 60 de d1 bd b4 db 19 3c f1 65 8f bc 2b 68 c3 bd
       -0.10247493 0.00939076 -0.017504664 -0.09541353
000130 15 d4 5d bd c6 75 cb 3d 75 3b d8 bd 67 69 cc 3d
       -0.054157335 0.09934573 -0.105582155 0.099810414
000140 2f 82 c9 bd 9f d7 d3 bd 89 db 50 bd b4 41 f5 3d
       -0.09839284 -0.10343861 -0.050990615 0.119754225
000150 92 ca 59 be 65 a9 ef bd 10 01 b5 3d 81 7a 90 bd
       -0.2126868 -0.11702231 0.08838093 -0.07054616
000160 d2 08 91 bd 79 11 96 3d d8 a8 5e bd 81 90 b5 3d
       -0.070817605 0.073275514 -0.05436024 0.088654526
000170 b1 3c 98 3d 40 6b 95 3d 17 d4 93 bd 11 21 90 3d
       0.07433451 0.07295847 -0.07218187 0.07037557
000180 39 47 c8 3d 4b 89 90 3d f8 9b c5 bd 62 62 ab bc
       0.0977921 0.070574366 -0.09648889 -0.020920936
000190 e8 92 aa bd 0f 9b c2 3d 91 ce 3b bc e2 2c 3f bd
       -0.083288014 0.09502231 -0.0114628235 -0.046673663
0001a0 cf 10 96 3d 3d fd b2 3d 52 3d 67 bd 12 17 93 3d
       0.07327425 0.087397076 -0.056454964 0.07182135
0001b0 e2 00 ad 3d 38 c6 6f bd 22 33 ba bd 55 e6 61 bd
       0.08447434 -0.058538646 -0.09091784 -0.055151302
0001c0 fe ae a3 3d d6 d7 c6 bd fa dd 81 3b c5 83 7d bd
       0.079923615 -0.09709136 0.0039632292 -0.061893243
0001d0 26 41 0a bb ad 8d a4 bd 1f a4 a3 3d 8e a7 c1 bd
       -0.002109596 -0.08034835 0.07990288 -0.09455787
0001e0 45 1d 49 bd 07 ad 26 bc f3 e1 b2 bd 52 01 b3 bd
       -0.04910018 -0.010173089 -0.08734503 -0.08740486
0001f0 58 62 b2 bd bc 77 9e 3d ea 93 ba 3d 9b 68 b9 bd
       -0.08710164 0.07737681 0.091102436 -0.09053155
000200 ef e7 8b bd 0b f9 c1 bd 0d dc 94 3d 42 92 6a bd
       -0.06831347 -0.09471329 0.07268534 -0.05726839
000210 6c ac 37 be 13 5f 80 bd e2 69 3a bd 3d 02 ad 3d
       -0.17936867 -0.06268134 -0.045511134 0.084476925
000220 e3 11 99 bd a3 60 c0 bd e5 a7 c6 bd a7 0a 0e bd
       -0.07474115 -0.09393432 -0.09699992 -0.034678128
000230 37 e4 94 3d ab 4d b8 bd 3a a2 cc 3d 2b 89 96 3d
       0.07270091 -0.08999189 0.0999188 0.073503815
000240 7e c3 97 bd 76 dd a5 3d 41 25 71 3d c6 e9 b7 bd
       -0.07410334 0.08098881 0.05887342 -0.089801356
000250 c4 e8 0b 3b a5 0b 9c 3d 00 51 9b 3d 1f 6b 12 bd
       0.0021348456 0.076194085 0.07583809 -0.03574669
000260 54 af af bd 82 56 79 3d b2 2b 5a bf de 70 d0 bd
       -0.08578363 0.060873516 -0.85222924 -0.10177778
000270 91 04 c1 3d 08 df 8f bd d2 07 70 bd f1 e9 49 3f
       0.09424699 -0.07024962 -0.058601208 0.7887259
000280 56 22 88 3d 20 b4 c5 bd c3 34 ac 3d c3 f3 72 3d
       0.06647174 -0.09653497 0.08408501 0.0593145
000290 6d 08 d5 bd 80 d8 b0 3d 1c 92 86 bd 53 eb 8e bd
       -0.10401998 0.08635044 -0.06570837 -0.06978478
0002a0 b1 db 6b bd 29 6d 3b ba 1f 67 c7 3d 43 60 ad bd
       -0.05758256 -0.000714975 0.09736466 -0.08465626
0002b0 f4 8a 99 3d c4 2f b4 bd 30 e8 99 bd 01 f0 ba 3c
       0.07497206 -0.08798173 -0.075149894 0.02281952
0002c0 8b 57 9b bd 41 d4 9e bd bf 50 21 3e 1b a8 b8 bd
       -0.07585057 -0.07755328 0.15753458 -0.090164386
0002d0 1c 50 49 3d 4f 33 bb bd 26 c5 87 bd 97 bb 70 bd
       0.049148664 -0.09140646 -0.066294 -0.05877265
0002e0 38 ed 8a bd 11 19 9a bd 1a 76 b8 bd 9e 94 cf 3d
       -0.06783527 -0.07524312 -0.09006901 0.10135768
0002f0 46 ad 20 3e 28 61 cf 3d d4 44 bd bd 58 6d 96 3d
       0.15691099 0.10125953 -0.092416435 0.073450744
000300 2f 16 c9 bd ca f8 7b 3d 47 99 36 3e c3 fc 45 3d
       -0.09818684 0.06151656 0.17831908 0.048336755
000310 9c 82 da 3d 74 a5 8b bd c9 fd a3 3d 8a 47 9a bd
       0.10669443 -0.06818667 0.0800739 -0.07533176
000320 7b 21 8c bd 50 9b ad 3d e6 f7 77 bd c9 a6 9e bd
       -0.068423234 0.08476889 -0.06053915 -0.077466555
000330 b4 f1 0c 3e 0d bd b1 bd ca b3 28 3e d8 41 26 bd
       0.13764077 -0.08678637 0.16474834 -0.040590137
000340 1e 0b a6 3d 86 8c a3 3d 77 e5 cc 3d 73 aa a4 bd
       0.08107589 0.07985787 0.100047044 -0.08040323
000350 2e 4e 52 bc ba e6 23 3c d0 55 90 bd e3 93 db bd
       -0.012836022 0.01000374 -0.070476174 -0.107215665
000360 13 4a 98 3c 12 2d 8f 3d 47 d7 b4 3d 81 42 95 3d
       0.018590009 0.06991018 0.088301234 0.07288075
000370 25 9c b0 bd 19 b5 7a 3d 59 b1 c7 3d d6 46 89 3d
       -0.08623532 0.061207864 0.09750623 0.06702964
000380 1a 71 d4 3d 0e 72 33 be 85 1b a5 3d 0f 24 cd bd
       0.10373135 -0.17523977 0.080618896 -0.10016643
000390 39 95 9c bd 0a 59 db bd 7c f9 06 3e 91 c7 b9 bd
       -0.076456495 -0.10710342 0.13181108 -0.090712674
0003a0 d6 bb 98 bc b6 19 14 bd b1 c3 be 3d 90 17 81 bd
       -0.018644255 -0.036157332 0.09314669 -0.06303322
0003b0 7f 95 38 3d 52 05 20 bb f5 40 14 bc a0 da 9a 3d
       0.045064446 -0.0024417234 -0.00904869 0.07561231
0003c0 e6 25 a3 3d 41 ef 17 3b 7d 4b cc bd ca 9c 3d 3d
       0.07966213 0.0023183378 -0.09975336 0.046292104
0003d0 23 9f 88 bd f7 bb 97 bd 36 3b 7f 3d 2c 47 b2 bd
       -0.06670978 -0.07408898 0.062312327 -0.08704981
0003e0 ea 2b b0 bd bd 70 ce bd d8 23 e3 3d ef 1c a0 3d
       -0.08602126 -0.10080097 0.11090821 0.07818019
0003f0 3c 86 dc bd a6 b2 ac bd a0 7f 50 3d 67 ed a8 3d
       -0.10767791 -0.08432512 0.050902963 0.08248406

exp_avg f4 [4000, 2]
000000 42 56 65 b4 53 22 62 b3 ae 31 01 b9 be 65 08 b9
       -2.1358667e-07 -5.2650943e-08 -0.00012320906 -0.00013007873
000010 2d 41 0e 3d f0 33 9e 3d 50 3b 07 3b 88 26 00 3b
       0.034730125 0.0772475 0.0020634718 0.0019554216
000020 8e 60 0a b8 c5 4d 11 b8 bc 1e c2 36 99 48 67 36
       -3.2991687e-05 -3.4643122e-05 5.7852285e-06 3.446394e-06
000030 3f 55 87 b6 f1 d4 2c b6 cc 31 01 37 3e f1 89 b7
       -4.0332375e-06 -2.5753945e-06 7.700593e-06 -1.644401e-05
000040 5b 0f 05 39 5d 27 01 39 60 c8 89 3e 1c 2e 99 3e
       0.00012689589 0.00012317063 0.26910686 0.2991799
000050 dc cb 29 3b 00 90 2a 3b 3d 31 42 3a 46 1c 33 3a
       0.0025908863 0.0026025772 0.000740785 0.0006832521
000060 83 92 69 3a 1a 24 60 3a b5 23 e6 b6 b5 c5 b2 b6
       0.00089100766 0.00085503014 -6.858691e-06 -5.3278295e-06
000070 fa f5 03 b9 fc ac 0b b9 2c f3 03 b9 98 e7 0d b9
       -0.00012584767 -0.00013320515 -0.00012583722 -0.00013533083
000080 fc 05 18 b9 53 72 20 b9 58 e4 5e 36 8f 05 1f b7
       -0.00014498079 -0.00015301378 3.3213491e-06 -9.478433e-06
000090 7c d5 fa 39 6b 99 9c bb 40 f0 d7 3a bc ae d6 3a
       0.00047842774 -0.004779031 0.0016474798 0.0016378979
0000a0 05 90 09 38 5b 1a d6 37 8a 49 f7 b8 33 43 04 b9
       3.2797474e-05 2.552306e-05 -0.000117915755 -0.00012613535
0000b0 1a 45 9f 3a 69 2e 95 3a 22 6e 42 3e 05 d7 40 3e
       0.0012151331 0.0011381629 0.18987325 0.18832023
0000c0 f4 a1 7e 3a c6 59 70 3a d4 05 f1 b6 53 29 00 b7
       0.0009713464 0.0009168651 -7.183038e-06 -7.639016e-06
0000d0 a9 08 06 b9 ad a7 14 b9 bf 63 0e b9 20 33 19 b9
       -0.00012782462 -0.00014176844 -0.00013579334 -0.00014610263
0000e0 ab bb ce 38 f9 26 a4 38 de bd cd b8 5c 39 cd b8
       9.857801e-05 7.8273886e-05 -9.810527e-05 -9.785846e-05
0000f0 4d 50 65 b8 51 19 84 b8 6c 71 1c b9 f0 e2 25 b9
       -5.467264e-05 -6.298966e-05 -0.00014919572 -0.00015820167
000100 3e 9f 13 b9 b6 04 21 b9 3b 93 9a b6 f2 42 b1 b6
       -0.00014078335 -0.00015355911 -4.6066975e-06 -5.2828045e-06
000110 2c 7d e8 b8 0e ae f1 b8 8a 41 97 39 6c 0e 88 39
       -0.00011085937 -0.00011524196 0.00028849795 0.00025950687
000120 89 64 49 38 4f cd 5c 38 14 9d 2c b8 7b 92 38 b8
       4.8015765e-05 5.2643296e-05 -4.1154286e-05 -4.400544e-05
000130 69 d7 7f b8 8e 1f 86 b8 d7 b5 fd 3a 3f 27 f3 3a
       -6.0997354e-05 -6.3954954e-05 0.0019356561 0.0018551125
000140 ad 9c c6 39 b1 cc b6 39 56 6d 05 3e 1e 51 30 3e
       0.00037882235 0.00034866252 0.1302999 0.17218444
000150 13 c8 b3 b8 f8 b3 ba b8 9e cf 55 3a 34 2d 43 3a
       -8.572652e-05 -8.902693e-05 0.00081562425 0.00074453955
000160 ef f4 7b b8 a2 67 86 b8 fc 67 f7 b8 16 06 03 b9
       -6.0071176e-05 -6.408921e-05 -0.000117972464 -0.00012495401
000170 ef 71 d7 b7 1a 81 e4 b7 1e a1 0a 3b 03 ab 05 3b
       -2.5683052e-05 -2.7239836e-05 0.0021153162 0.002039612
000180 5b 1c d0 b8 59 9f f4 b8 b2 57 9d 39 5f 78 88 39
       -9.9234945e-05 -0.000116645075 0.00030010712 0.00026029625
000190 bf e3 c3 b8 10 a6 ce b8 d1 95 0e b9 e2 1f 1d b9
       -9.3407456e-05 -9.853777e-05 -0.00013597986 -0.00014984564
0001a0 3c 62 d5 b8 7c d1 df b8 97 97 0f 39 ec e0 ee 38
       -0.00010174929 -0.00010672488 0.00013694014 0.00011390619
0001b0 13 61 08 b9 13 92 13 b9 12 77 be b6 f2 de 88 b6
       -0.00013006134 -0.0001407343 -5.676303e-06 -4.07907e-06
0001c0 e3 1c a4 b8 2f ef ab b8 29 a6 17 36 b9 d4 a5 35
       -7.82551e-05 -8.198467e-05 2.2597471e-06 1.2355368e-06
0001d0 c1 04 fb 3a 93 12 ec 3a d3 08 20 b9 fc 1c 2c b9
       0.0019151197 0.0018010907 -0.00015262076 -0.00016413996
0001e0 7d 06 cb 3a b6 f3 c1 3a 22 aa d6 b8 37 25 fd b8
       0.0015489605 0.0014797363 -0.00010236005 -0.00012070912
0001f0 03 1e 98 b8 df a6 9f b8 b1 28 08 b9 76 93 13 b9
       -7.253515e-05 -7.612793e-05 -0.0001298513 -0.00014073946
000200 b3 b8 b3 b8 c7 4d bc b8 4e f7 d2 b7 3b 05 e6 b7
       -8.569788e-05 -8.979026e-05 -2.5149111e-05 -2.7420572e-05
000210 9b e6 1a 3b d9 db 16 3b 20 46 05 3b 0e 29 f8 3a
       0.0023635987 0.0023019223 0.0020335987 0.0018933134
000220 fc da ab b4 7a 60 ca b4 c0 7c 11 b8 e2 10 1a b8
       -3.2010564e-07 -3.7695628e-07 -3.4686876e-05 -3.6732185e-05
000230 9c e4 14 3b 0f d2 0f 3b f6 c3 c0 3d 8b 4e a8 3d
       0.002271927 0.0021945273 0.094123766 0.08218106
000240 66 17 a6 b8 5c ab b2 b8 9f e5 06 b6 a3 a3 d2 b5
       -7.919855e-05 -8.5196196e-05 -2.0101213e-06 -1.5693844e-06
000250 d7 c6 06 37 3c 65 8a 36 6f fd 26 38 30 9f 10 38
       8.033318e-06 4.1245057e-06 3.9813513e-05 3.448053e-05
000260 29 42 be b5 0f e4 db b5 1f ed cb b8 5a f7 d5 b8
       -1.4175358e-06 -1.6383145e-06 -9.7239616e-05 -0.00010202704
000270 ff ed ab b8 7b 19 ba b8 16 8f be b8 dd 4f d6 b8
       -8.1982456e-05 -8.873917e-05 -9.086558e-05 -0.00010219191
000280 aa fc a0 b8 89 7a db b8 a9 1b c9 3a 0c e4 c2 3a
       -7.676457e-05 -0.00010465558 0.0015343326 0.0014868989
000290 ea 47 6c 3a 90 f5 57 3a b1 a6 01 bc 56 be e8 bb
       0.00090134016 0.0008238191 -0.0079132775 -0.007102768
0002a0 0b 76 7f bb fe 39 fb b9 a3 87 66 3c 63 da f3 3b
       -0.0038980271 -0.00047917658 0.014070424 0.007441805
0002b0 95 b2 99 39 8c 52 92 39 21 b2 f1 b8 5e 12 fe b8
       0.00029315488 0.00027908792 -0.000115249546 -0.00012115085
0002c0 10 52 f5 b8 22 d8 02 b9 9f b0 04 b9 07 86 0b b9
       -0.00011697796 -0.00012478282 -0.00012654297 -0.00013306002
0002d0 5e 40 8a b8 8d a3 ad b8 dc 7d 19 3b 89 8d 15 3b
       -6.592342e-05 -8.2797465e-05 0.0023420965 0.0022819957
0002e0 58 a6 a7 3a b7 c4 a5 3a 7b 3d ec b8 22 ef fb b8
       0.0012790663 0.0012647127 -0.000112648086 -0.000120131546
0002f0 4a 1c fb 38 9d 3d b0 38 a1 91 c8 36 5a 1d 9d b7
       0.00011973882 8.40381e-05 5.977418e-06 -1.8729526e-05
000300 b3 41 9a bb 6f 7d 2f bc ed 2d 88 b8 fe c1 8e b8
       -0.004707539 -0.010711058 -6.49354e-05 -6.8072215e-05
000310 9b 4a 5e 3a d8 4c 51 3a c4 7b 14 3b b3 39 0c 3b
       0.0008479745 0.0007984168 0.0022656778 0.0021396696
000320 54 33 06 3b 80 04 01 3b 59 1c 02 b9 c2 71 09 b9
       0.0020477371 0.001968652 -0.00012408326 -0.00013107716
000330 7c 99 25 b7 1a 5c c5 b6 51 ca fa 37 58 c7 74 37
       -9.870502e-06 -5.8817795e-06 2.9896533e-05 1.4589947e-05
000340 cb ef 35 39 07 99 11 39 ca 60 9e 39 63 0b 9b 39
       0.00017350835 0.00013885285 0.00030208222 0.00029572388
000350 96 9b 87 3a 77 33 80 3a 77 c5 2b b9 ba 60 3b b9
       0.0010346051 0.0009780963 -0.00016381392 -0.00017869743
000360 db 8b f9 3a 3d df ee 3a 57 26 fb 39 8c e1 e7 39
       0.0019038873 0.0018224489 0.00047903016 0.000442278
000370 7e 80 e8 38 1d a9 9f 38 3d ad cc b8 19 5f d8 b8
       0.000110865556 7.6132106e-05 -9.759746e-05 -0.00010317396
000380 a3 f9 02 b9 ff e5 09 b9 c3 56 53 b9 1e e6 5e b9
       -0.00012490763 -0.00013151018 -0.0002015485 -0.00021257295
000390 8e 8c 6b b4 13 1d 6e b4 5e 91 6e b8 95 14 7a b8
       -2.1937214e-07 -2.2176054e-07 -5.6879006e-05 -5.9623813e-05
0003a0 27 7a 72 37 d0 90 19 37 1f 28 59 3b 44 19 56 3b
       1.4452765e-05 9.153227e-06 0.0033135486 0.0032668868
0003b0 91 68 c0 38 b5 a1 78 38 48 6a 31 39 33 70 0b 39
       9.1747504e-05 5.927841e-05 0.00016919628 0.0001329787
0003c0 6a de 76 b8 44 a7 81 b8 bd f6 a3 35 84 dc d8 35
       -5.885811e-05 -6.182355e-05 1.2216257e-06 1.6157433e-06
0003d0 b6 d5 0d b9 da bf 18 b9 0b 4b 98 b6 ec 1e a5 b6
       -0.00013526421 -0.0001456732 -4.538689e-06 -4.920983e-06
0003e0 1b 4c 06 b9 8e 7e 11 b9 5d fd 4b b8 e5 f9 55 b8
       -0.00012807587 -0.00013875423 -4.8634935e-05 -5.101589e-05
0003f0 d4 ff 99 39 eb b0 8d 39 db b0 ea b8 70 6b f7 b8
       0.0002937304 0.0002702543 -0.000111909314 -0.000117978896

exp_avg_sq f4 [4000, 2]
000000 63 58 d3 3c cc 7d c1 3c 0c 10 27 3b 0e 4d 1a 3b
       0.025798982 0.023619555 0.0025491742 0.0023544463
000010 ac bb 6b 3f 2e 2d 57 3f 81 37 34 3e 27 a1 23 3e
       0.9208324 0.84053314 0.17599298 0.15979443
000020 c4 58 73 38 48 02 5d 38 93 2e 0f 3e 55 9f 02 3e
       5.8018384e-05 5.269263e-05 0.1398261 0.12756093
000030 68 e3 7c 3c 41 7a 67 3c f7 fa 63 3c f4 23 50 3c
       0.015435077 0.014128269 0.013914815 0.012703884
000040 43 69 20 3f a4 5e 13 3f 28 99 64 40 34 e5 51 40
       0.62660617 0.57566285 3.571848 3.2796144
000050 91 4f a9 3d ea 38 9b 3d 83 58 f1 3e 65 f8 dd 3e
       0.08267129 0.07579215 0.47137842 0.43353572
000060 4c a1 38 3e 71 ae 29 3e b3 69 d6 3a cf a4 c2 3a
       0.1803028 0.1657045 0.0016358405 0.0014850142
000070 a1 16 ba 3a 00 57 a8 3a 2b eb 16 3c 4f e3 0b 3c
       0.0014197418 0.0012843311 0.009211342 0.008538081
000080 6f b0 51 3c 48 d1 3e 3c 97 14 27 3d 05 4c 18 3d
       0.012798413 0.011646576 0.04079112 0.037181873
000090 c3 83 7f 3c 66 e1 73 3c fc e0 35 3d c9 80 26 3d
       0.015595379 0.014885282 0.044404015 0.040650163
0000a0 57 e2 82 3d 41 90 71 3d 25 c6 f1 3b 91 22 e2 3b
       0.06390827 0.058975462 0.007378357 0.0069010933
0000b0 4d 7e f8 3c 08 9f e5 3c 46 0e af 3e 79 5e b4 3e
       0.030333662 0.028029934 0.34190577 0.35228327
0000c0 31 ea 94 3f 93 39 89 3f 1f 48 05 35 dd 1b 01 35
       1.163397 1.0720695 4.965131e-07 4.809679e-07
0000d0 76 e3 26 3b 3d e7 1d 3b ae ee 93 3c 08 1d 8a 3c
       0.0025465167 0.0024094128 0.018058147 0.016859546
0000e0 9b 5e 02 3d 69 15 ee 3c 43 ae c7 39 cc b0 b1 39
       0.031828504 0.029062944 0.00038086073 0.00033891795
0000f0 7e ce d5 3c e5 f0 cc 3c f0 12 04 3d dc 92 ed 3c
       0.02609944 0.025017211 0.032244623 0.029000692
000100 e3 5d b1 3a 34 90 a2 3a 63 5f 51 3d 15 25 3f 3d
       0.0013532009 0.0012402595 0.05111636 0.046666224
000110 9b 56 ae 3a ba 36 9a 3a f8 f5 e3 3d c2 d5 cf 3d
       0.0013300957 0.0011765577 0.11130899 0.10148193
000120 95 f0 25 3e bc 37 19 3e 86 50 04 38 96 98 e5 37
       0.16205056 0.14962667 3.1546246e-05 2.736998e-05
000130 ac 48 95 38 cc b4 88 38 79 8a 0d 3f 6c b6 02 3f
       7.11841e-05 6.5186614e-05 0.5528942 0.51059604
000140 8c 4c 0f 3e 33 dd 02 3e 5e cd 4d 3f cb c2 39 3f
       0.13994044 0.12779693 0.8039149 0.72562855
000150 db 6e 6b 39 a7 8a 4f 39 57 e8 0d 3f ab 7e 02 3f
       0.00022452643 0.0001979271 0.5543265 0.5097453
000160 fb 22 a1 39 be 3c 92 39 d8 37 23 3a c4 6a 12 3a
       0.00030734375 0.00027892546 0.0006226278 0.00055853673
000170 e5 7a ae 37 2e 2a a1 37 8f ce 93 3b ce 47 85 3b
       2.0799644e-05 1.9212337e-05 0.0045107077 0.0040673977
000180 b8 90 80 3b 91 a9 6a 3b 7d 68 72 3d 42 0f 60 3d
       0.003923502 0.0035806636 0.05918168 0.05470205
000190 1b f6 8d 3b ee a0 82 3b 1c 48 ed 3a fc 43 d6 3a
       0.0043323166 0.0039864695 0.0018103155 0.0016347165
0001a0 4f 21 28 3c 0a 55 1a 3c e8 e3 ae 3f d0 82 9f 3f
       0.010261848 0.009419689 1.3663301 1.2461796
0001b0 fa a6 7b 3a 52 23 65 3a c6 6e 29 3c cd 59 19 3c
       0.00095997716 0.000874092 0.010341352 0.009359789
0001c0 32 87 7a 3b 69 91 65 3b fd 68 64 3a 06 0c 4e 3a
       0.0038227555 0.0035029298 0.0008713154 0.0007860068
0001d0 ad ce 8d 3b 64 34 83 3b 43 1c 86 3b 75 dc 71 3b
       0.004327616 0.004004048 0.0040927245 0.0036905084
0001e0 40 8b 7b 3d b6 e5 66 3d 6c ae 88 3c b8 6f 7a 3c
       0.061412096 0.056371413 0.016684733 0.015285425
0001f0 25 77 68 3a c3 af 54 3a d4 f6 ab 3b 13 8f a0 3b
       0.00088678516 0.0008113349 0.00524793 0.0048998683
000200 06 e2 01 3a 71 d6 e9 39 1a 04 5a 37 36 41 44 37
       0.00049546396 0.00044600994 1.29947675e-05 1.16976935e-05
000210 ab 8d e5 3e eb a1 d2 3e 56 75 d8 3f 55 de c6 3f
       0.44834647 0.4113916 1.6910808 1.55366
000220 24 a4 0e 31 5c 3f ff 30 47 56 ec 37 33 b0 d6 37
       2.0757023e-09 1.85717e-09 2.8173568e-05 2.5592837e-05
000230 b8 49 23 3c 9d 7a 15 3c 67 94 8d 3f 6d 83 96 3f
       0.009966306 0.009123472 1.1060914 1.1758858
000240 2f 21 c7 39 76 fb b7 39 c5 90 b8 3c 59 0b a8 3c
       0.00037980961 0.00035091833 0.022529969 0.020513223
000250 f8 63 05 3b 8e e4 f1 3a f1 76 2b 3b 23 26 18 3b
       0.0020353775 0.0018454955 0.0026163424 0.002321609
000260 1c ff fa 32 ed c3 ef 32 0a f6 b8 3a ee f0 a5 3a
       2.921984e-08 2.7912359e-08 0.0014111411 0.0012660304
000270 0b 3b c5 3a 7d 16 b5 3a b1 80 a3 3b a7 dd 92 3b
       0.0015047503 0.0013815906 0.0049897064 0.0044819894
000280 6d 6b 9a 3f c2 98 8d 3f b3 68 85 3f f5 09 75 3f
       1.2064034 1.1062243 1.0422577 0.9571832
000290 8a 95 27 3d 95 b9 1c 3d 25 9a 37 3d 37 b1 29 3d
       0.040914096 0.038262922 0.044824738 0.04142877
0002a0 c4 3a fb 3c df ca e8 3c 8e 3d b3 3c 1a ed a8 3c
       0.03066767 0.028417049 0.021879937 0.020620871
0002b0 26 c6 a1 3f 76 7e 94 3f ed c0 c8 3c 15 92 b7 3c
       1.2638595 1.1601093 0.024506057 0.022408525
0002c0 91 9e e0 3a 46 8f ce 3a 20 3f b8 3b 5b a1 a7 3b
       0.00171371 0.0015759252 0.0056227595 0.0051156706
0002d0 83 cb 46 3e 84 ff 35 3e 2b f3 d4 3d b6 4d c1 3d
       0.19413571 0.17773253 0.10397943 0.0943865
0002e0 6d 90 ff 3d d0 1c eb 3d 83 9f 58 3c f6 a2 43 3c
       0.12478719 0.11480105 0.013221624 0.011940708
0002f0 dc 45 1c 3d 58 f2 10 3d a9 c2 b1 3e ff d9 a3 3e
       0.03815256 0.035387367 0.34718826 0.32002255
000300 6d 70 11 3f 11 5a 04 3f 8f ec 6f 39 d7 31 5d 39
       0.56812173 0.5169993 0.00022880941 0.00021094769
000310 97 13 fa 3e e0 4a e5 3e d1 bc 20 3e c2 7e 13 3e
       0.4884307 0.44783688 0.15697028 0.14403823
000320 f3 1f 15 3f e0 9e 08 3f 76 2d 85 3a d5 a6 70 3a
       0.58251876 0.53367424 0.0010160643 0.00091801333
000330 1e 70 76 3d 1f 25 61 3d 9e 00 39 3c 9d e6 29 3c
       0.060165517 0.054967042 0.011291651 0.010369924
000340 e2 3e 63 3d bd 9f 50 3d 5b 77 c7 3c 18 4c b3 3c
       0.05547989 0.05093359 0.024348905 0.02188687
000350 26 71 7b 3d 4a f9 65 3d ba 54 74 3d 2a d9 5c 3d
       0.061387204 0.056145944 0.059651114 0.05391804
000360 11 93 78 3f 86 0e 64 3f d5 33 41 3d 04 e1 32 3d
       0.97099406 0.8908466 0.04716857 0.043671623
000370 8f f5 8d 3d ba 12 82 3d 34 76 7b 3b 72 04 6a 3b
       0.06931602 0.06351228 0.0038370015 0.0035708216
000380 b7 bc 94 3b 78 bb 86 3b 6f e4 98 3f eb 90 8c 3f
       0.004539098 0.0041117035 1.1944712 1.0981725
000390 6e 4c 30 3d 9e 64 22 3d 00 34 c9 3a 1a fd b5 3a
       0.04304164 0.039646737 0.001535058 0.0013884634
0003a0 94 28 ea 3c 07 79 d7 3c c0 f2 c6 3f d1 ea b6 3f
       0.028583802 0.026302828 1.5542831 1.429041
0003b0 87 26 92 3d 28 b8 86 3d 2b 71 8e 3e ef 80 82 3e
       0.07136255 0.06578094 0.27820715 0.25488994
0003c0 29 2e 0b 3b 18 5e ff 3a 54 91 80 3c 20 32 6c 3c
       0.002123723 0.0019482998 0.015694298 0.014416248
0003d0 3e 7f 62 3a 50 c7 4a 3a 7c 2f 62 34 fe fa 52 34
       0.00086401764 0.00077353884 2.1065165e-07 1.9649084e-07
0003e0 35 dd 3f 3b 62 30 30 3b 02 14 96 39 6c 0c 88 39
       0.0029276137 0.0026884307 0.00028625136 0.00025949196
0003f0 06 47 a1 3d db 6d 93 3d 55 a6 94 3a 62 86 87 3a
       0.07874875 0.07198688 0.0011341075 0.0010339732
