lightning_logs/version_72/checkpoints/epoch=25-step=10140.ckpt (torch, 352629 bytes, 18 tensors)

station_embedding.weight f4 [70, 2]
0	0xbf9f1eb9	-1.2431251
1	0xbff337f8	-1.9001455
2	0xbf027589	-0.50960594
3	0x4004dc4e	2.0759463
4	0x3fb640d1	1.423853
5	0xc010895c	-2.2583838
6	0xbd59daa3	-0.053187024
7	0xbee9a5c1	-0.45634273
8	0xbfb7c2d3	-1.4356331
9	0xc0676192	-3.6153302
10	0xc08620e4	-4.191515
11	0x3da4a6cd	0.08039627
12	0x4080ffcf	4.0312266
13	0xbe940ac5	-0.28914467
14	0x3f962f58	1.1733198
15	0x3f2f1686	0.68393743
16	0xbdb0615d	-0.086123206
17	0xbed17cd3	-0.40915546
18	0xbf6d6911	-0.92738444
19	0xbf876a07	-1.0579232
20	0x401ca592	2.4476056
21	0x3fd442ff	1.6582946
22	0x402511bd	2.5792077
23	0x3f110cdf	0.56660265
24	0x3fea567e	1.8307645
25	0x4000f68f	2.0150487
26	0x3febeceb	1.8431677
27	0x3dda4c07	0.10659032
28	0x3ecae6d6	0.3962924
29	0x3f940fef	1.1567363
30	0x3faa7409	1.3316661
31	0x3f14aafd	0.5807341
32	0x402b221c	2.6739569
33	0xc011e70b	-2.2797267
34	0x4011a9d5	2.2759907
35	0x3fb55021	1.4165078
36	0x3ea49172	0.32142216
37	0xbf71609b	-0.94288033
38	0xc072fde8	-3.7967472
39	0x3f817cb6	1.0116184
40	0x3f0ad88a	0.5423666
41	0x3da70f26	0.08157186
42	0x3f6e66bd	0.93125516
43	0xbfa1be49	-1.2636195
44	0xc006749c	-2.1008673
45	0xbdcd2b57	-0.10018032
46	0x3e956b37	0.2918336
47	0x3f2de045	0.67920333
48	0x40482e0d	3.1278107
49	0xbea09b46	-0.31368464
50	0xc08dcc84	-4.4312153
51	0xc0b1630c	-5.5433407
52	0xc00ca5f3	-2.1976287
53	0x4093fd50	4.624672
54	0xbf24bc06	-0.643494
55	0x4074c5e8	3.8245792
56	0xc01c3113	-2.4404953
57	0x4050ec8d	3.264438
58	0xbf5664a9	-0.83747345
59	0xbf91648f	-1.1358813
60	0xbf8ffac3	-1.1248401
61	0xc05fd700	-3.4974976
62	0xbe591042	-0.21197608
63	0x3ffeae93	1.9897026
64	0xbfd02a68	-1.6262941
65	0xbff36825	-1.9016157
66	0x3de48a77	0.111592226
67	0x3d187de5	0.037229437
68	0xc039416d	-2.8946183
69	0x3e9af31b	0.302636
70	0x404e9e5b	3.2284153
71	0xbf9b4b1e	-1.2132299
72	0x3fe78f9f	1.8090705
73	0x3fb0acb5	1.3802706
74	0x3e23786f	0.1596391
75	0xbfe15e6c	-1.760694
76	0x3f13a39a	0.5767151
77	0xbf1d18fa	-0.61366236
78	0x402d55e3	2.708367
79	0x3f977e9d	1.1835514
80	0x3efe78d1	0.4970155
81	0x3fc9f494	1.5777764
82	0xbd8906ef	-0.066907756
83	0xbfe12783	-1.7590183
84	0x3e573595	0.21016534
85	0xbfa0063d	-1.2501904
86	0x3f3d3690	0.7391138
87	0x402bb3c4	2.682847
88	0x4049ba2e	3.1519885
89	0x3f74fa23	0.9569418
90	0x40203505	2.503236
91	0x3f9f66db	1.2453264
92	0x3fa8bb0e	1.3182085
93	0x4018285e	2.3774638
94	0x3f03baa5	0.5145667
95	0x403e8859	2.977072
96	0x3ecb4573	0.39701423
97	0xbd98c27f	-0.07458972
98	0xbf1884de	-0.5957774
99	0xbe006e95	-0.12542184
100	0xc0ddf6c1	-6.9363713
101	0xc00eccda	-2.2312531
102	0x400db3ae	2.2140918
103	0xbea45133	-0.320932
104	0xbd580a2b	-0.052744072
105	0xc01b0daf	-2.4227102
106	0xbe69e003	-0.2283936
107	0xbf78e3b8	-0.9722247
108	0xc0498375	-3.1486485
109	0xbfbe8470	-1.4884167
110	0xbfe345a9	-1.7755634
111	0x3916a24c	0.00014365575
112	0xbc3d667b	-0.011560078
113	0x408af0ae	4.34188
114	0xc01424ea	-2.314753
115	0x3fc29297	1.5200986
116	0x3fcf5288	1.6197062
117	0x3ecf2f09	0.40465572
118	0x3ee3ccdc	0.44492233
119	0xbf2d5ed4	-0.6772282
120	0x40299a02	2.650025
121	0x3feeac45	1.8646322
122	0xc06c03ac	-3.687724
123	0xc0879a3a	-4.2375765
124	0xc067a80b	-3.6196315
125	0xbf2c5232	-0.6731292
126	0x4002cab8	2.043623
127	0x3fe320fa	1.7744439
128	0xbf451ecb	-0.7700011
129	0x401ca79d	2.4477303
130	0xbfa1121f	-1.2583655
131	0x40824c74	4.0718327
132	0x3f88e297	1.069415
133	0xbe6b71aa	-0.22992578
134	0x3f42d423	0.76104945
135	0xbfb366f7	-1.4015797
136	0x3fe723ed	1.8057839
137	0x3ff197af	1.8874415
138	0x3f8235bd	1.017265
139	0xbe83036f	-0.25588557

lstm.weight_ih_l0 f4 [4400, 2]
0	0x3d32e25b	0.0436729
1	0x3d57cc5a	0.05268512
2	0x3d1d741b	0.038440805
3	0x3d7cf731	0.061759178
4	0x3d6e1780	0.05812788
5	0x3ce72a18	0.028218314
6	0xbd5df628	-0.05418983
7	0xbd554f73	-0.05207772
8	0x3da31ba4	0.079642564
9	0x3d1057f2	0.03524012
10	0x3d19ae57	0.03751978
11	0x3cb0a38f	0.021562366
12	0x3dd18013	0.10229506
13	0x3d565a6b	0.052332323
14	0x3d4ee1e7	0.050508406
15	0x3d05d273	0.032671403
16	0x3db98b18	0.09059733
17	0x3d764b57	0.060130443
18	0xbef749b6	-0.48298424
19	0xbece4fe5	-0.4029533
20	0xbe6a9820	-0.22909594
21	0xbe5e562d	-0.21712561
22	0xbe65d674	-0.22445089
23	0xbe4445fb	-0.1916732
24	0x3d1aa3ed	0.037753988
25	0x3da08334	0.07837525
26	0xbd73e3fa	-0.059543587
27	0xbd363bc0	-0.044490576
28	0x3d8875ec	0.06663117
29	0x3dcef7e3	0.101058744
30	0xbd70338b	-0.058642905
31	0xbd6327f6	-0.05545803
32	0x3d5c945d	0.053852428
33	0x3d2bfc33	0.041988563
34	0xbd5495a6	-0.05190053
35	0xbd6e109b	-0.058121305
36	0x3d791c19	0.06081781
37	0x3d8be80e	0.0683137
38	0x3da5cb89	0.08095462
39	0x3d948e69	0.07253725
40	0x3c9cdf84	0.01914955
41	0x3d8741db	0.06604358
42	0xbd7afb26	-0.06127467
43	0xbd1aa90b	-0.03775887
44	0x3d36a76e	0.044593267
45	0x3c954a33	0.018223858
46	0xbe62eb53	-0.22160082
47	0xbe6c95e7	-0.23104058
48	0xbe711a9d	-0.23545308
49	0xbe841240	-0.25795174
50	0x3d46ce72	0.048536725
51	0x3c024ca5	0.007952844
52	0x3cdfd5bd	0.027323598
53	0x3caa049e	0.020754155
54	0xbeac403b	-0.33642754
55	0xbeb1c7fd	-0.3472289
56	0x3c9a4371	0.018830987
57	0x3d804eec	0.06265053
58	0x3da165d6	0.07880752
59	0x3d83e087	0.064393096
60	0x3d75372b	0.059867065
61	0x3d36f787	0.044669654
62	0x3d2d2994	0.04227598
63	0x3c1cadd7	0.009562931
64	0xbcc0b2bf	-0.023522733
65	0xbd5a2e92	-0.05326707
66	0x3d855330	0.065100074
67	0x3da243c6	0.07923083
68	0x3d893e79	0.06701369
69	0x3d5c328a	0.053759135
70	0xbce00bf5	-0.027349452
71	0xbd9c6a6e	-0.07637487
72	0xbd51f774	-0.05126138
73	0xbdd02529	-0.10163338
74	0x3d67079f	0.056403752
75	0x3d568594	0.052373484
76	0x3de5864a	0.11207254
77	0x3dba0a1b	0.09083959
78	0xbe92c87e	-0.28668588
79	0xbeaa584b	-0.33270487
80	0x3d1a5d85	0.037686843
81	0x3d6ecb23	0.058299195
82	0x3da46e69	0.080288716
83	0x3da204d3	0.079110764
84	0x3bbeb322	0.005819694
85	0x3d56e985	0.052468795
86	0xc0083b51	-2.1286204
87	0xbdec5995	-0.11540524
88	0xbe469965	-0.19394453
89	0xbe69d88f	-0.22836517
90	0x3cd7d1d6	0.026345175
91	0x3d882feb	0.066497646
92	0x3c771007	0.015079505
93	0x3d31642b	0.04330842
94	0x3e22c69c	0.15896076
95	0x3d5065b8	0.050878257
96	0x3c8440ad	0.016144121
97	0x3cd97267	0.02654381
98	0xbd29e70a	-0.0414801
99	0xbd6c597a	-0.05770252
100	0xbf1df515	-0.6170209
101	0xbf110a30	-0.5665617
102	0x3d36e5b0	0.04465264
103	0x3d53439b	0.051578145
104	0x3d9c8362	0.07642247
105	0x3d5586a7	0.052130368
106	0x3d7bf37e	0.06151151
107	0x3d94cfb7	0.07266181
108	0x3eea95d4	0.45817435
109	0xbe93b1ed	-0.28846684
110	0x3e1880bc	0.14892858
111	0x3e14d5bf	0.14534663
112	0xbd4edadb	-0.050501686
113	0xbd8ffee0	-0.070310354
114	0xbd6d142b	-0.05788056
115	0xbd3515bf	-0.04421019
116	0xbd17abab	-0.03702895
117	0xbd066ac6	-0.03281667
118	0x3d8159a9	0.063159294
119	0x3d737aa9	0.05944315
120	0x3cb6dc29	0.022321777
121	0x3d34a08d	0.044098426
122	0xbd34f627	-0.04418006
123	0xbd3a44be	-0.045475714
124	0x3e0f4654	0.13991672
125	0x3e043906	0.12912378
126	0x3dabe7c0	0.08393812
127	0x3db6d4b0	0.08927286
128	0x3dc5327a	0.09628768
129	0x3d84c0bc	0.06482074
130	0x3cbd85f2	0.02313516
131	0x3ce88ea3	0.028388327
132	0xbd729055	-0.059219677
133	0xbc8ced14	-0.017202891
134	0x3e0f1190	0.13971543
135	0x3e087e58	0.13329446
136	0xbcad2d26	-0.021139693
137	0xbd56bd28	-0.052426487
138	0x3dcfa3c2	0.10138656
139	0x3dc38d7a	0.09548469
140	0x3d7a1620	0.061056256
141	0x3cfe8722	0.031070296
142	0x3d930ba8	0.07179958
143	0x3d0a4862	0.033760436
144	0x3d83e41a	0.06439991
145	0x3d214d0e	0.039380126
146	0xbeabceef	-0.33556315
147	0xbea856da	-0.32878762
148	0x3d9ca980	0.07649517
149	0x3cdc9f37	0.026931388
150	0x3d5ded82	0.054181583
151	0x3c8e8e6b	0.017401895
152	0x3d863224	0.06552532
153	0x3c95320a	0.018212337
154	0x3d4008ce	0.046883397
155	0x3d9786d3	0.073987626
156	0xbf0b37bb	-0.5438191
157	0xbe906b68	-0.28206944
158	0xbe9dac73	-0.3079563
159	0xbea4fc77	-0.32223865
160	0xbc4b8600	-0.012422085
161	0xbd8adf71	-0.06780899
162	0x3dd84906	0.10560803
163	0x3d787f68	0.06066838
164	0x3dcc674b	0.09980639
165	0x3d2dbf09	0.042418513
166	0x3d8b78ec	0.068101734
167	0x3d84de5c	0.06487724
168	0x3d234490	0.03986031
169	0x3d53cf24	0.051711217
170	0x3d5bac02	0.053630836
171	0x3d762684	0.060095325
172	0x3c94fc7e	0.018186804
173	0x3d0ff734	0.03514786
174	0x3dc0a240	0.09405947
175	0x3d8659d3	0.06560101
176	0x3cbc9cdc	0.023024015
177	0x3d38afc1	0.045089487
178	0x3d3fadfe	0.04679679
179	0x3d0c5e4c	0.034269616
180	0x3d11e7db	0.035621505
181	0x3d4c9471	0.049946252
182	0xbd07b60c	-0.033132598
183	0xbd3f1184	-0.046647564
184	0x3d941981	0.07231427
185	0x3d397177	0.045274224
186	0x3d5c453a	0.053776957
187	0x3cd9cd8c	0.02658727
188	0x3d680b65	0.05665149
189	0x3d9c6b4f	0.07637655
190	0x3cb4c471	0.022066327
191	0x3c968535	0.018374065
192	0x3d54381e	0.05181133
193	0x3d6ff6fb	0.05858515
194	0x3d803481	0.06260014
195	0x3d0cfed6	0.034422718
196	0x3bf52d3c	0.007482199
197	0x3d5545f5	0.05206867
198	0x3c60b950	0.013716057
199	0x3d6c0bc3	0.057628404
200	0x3d7cdc75	0.06173368
201	0x3d9ed656	0.07755725
202	0xbeb529b7	-0.35383388
203	0xbebb9265	-0.36635128
204	0x3d97586b	0.07389911
205	0x3d79d3b0	0.060992897
206	0xbd0e1d03	-0.034695636
207	0xbd97a0a4	-0.07403687
208	0x3d38ba34	0.045099452
209	0x3cf21440	0.029550672
210	0x3d030716	0.03198918
211	0x3da08194	0.07837215
212	0xbda4e332	-0.080511466
213	0xbdd825ff	-0.10554122
214	0x3d977a49	0.07396371
215	0x3da0da7f	0.07854175
216	0x3cbeb053	0.023277437
217	0x3cad95aa	0.02118953
218	0xbe8e9793	-0.27850017
219	0xbe881ec3	-0.2658597
220	0x3d5c7d64	0.05383052
221	0x3c60ba12	0.013716238
222	0xbd297761	-0.041373614
223	0xbd7306d2	-0.059332676
224	0xbf13e53b	-0.5777165
225	0xbf117575	-0.5681985
226	0xbd0feff1	-0.035140935
227	0xbd7c9140	-0.06166196
228	0x3f15bfbd	0.58495694
229	0x3f2467cb	0.64220876
230	0x3d04e893	0.032448363
231	0xbc48adfc	-0.012248512
232	0x3d9770fb	0.07394596
233	0x3c848aab	0.016179403
234	0x3d7176da	0.058951236
235	0x3c8906e8	0.016726926
236	0x3d6b96b7	0.05751678
237	0x3d05915a	0.03260932
238	0x3d366fe9	0.04454032
239	0x3ca337e4	0.019924112
240	0x3ce90f78	0.028449759
241	0x3d92603d	0.07147262
242	0x3cb2ab45	0.021810183
243	0xbc44a5b2	-0.0120023955
244	0xbd407d58	-0.046994537
245	0xbd566c71	-0.05234951
246	0x3bc334c4	0.005957218
247	0x3c8bb1c9	0.017052548
248	0x3d3f7581	0.04674292
249	0x3c277ba3	0.010222348
250	0x3d8d9be8	0.069145024
251	0x3d16b531	0.03679389
252	0xbd2e024c	-0.04248266
253	0xbd57e393	-0.052707266
254	0xbd0c0e04	-0.034193054
255	0xbd891081	-0.06692601

lstm.weight_hh_l0 f4 [4400, 2]
0	0x3caa8dde	0.0208196
1	0x3d2317f5	0.03981777
2	0x3c606200	0.01369524
3	0x3ce68b0a	0.02814247
4	0x3da8c1b7	0.08240073
5	0x3d84036c	0.06445965
6	0xbdbb7f76	-0.091551706
7	0xbd8feb40	-0.07027292
8	0x3dc3dbf3	0.09563436
9	0x3e014240	0.12622929
10	0x3d9dc4fe	0.07703589
11	0x3e054c02	0.13017276
12	0x3e4f7209	0.20258345
13	0x3e5607c8	0.20901406
14	0x3de5aabb	0.11214205
15	0x3e151228	0.14557707
16	0x3d3c54f3	0.04597945
17	0x3d59c5a5	0.053167004
18	0x3f186c42	0.5954019
19	0x3e721c1a	0.23643532
20	0xbe65134c	-0.22370642
21	0xbe570473	-0.20997791
22	0x3d1f848d	0.03894477
23	0x3d5444dc	0.051823482
24	0x3d46cc18	0.048534483
25	0x3d70f5f4	0.05882831
26	0x3e2ece3f	0.17070864
27	0x3e517c9e	0.20457694
28	0x3e7099e8	0.2349621
29	0x3e6e6e71	0.23284318
30	0xbd0c1e85	-0.034208793
31	0xbd74cb90	-0.059764445
32	0x3d4c7257	0.04991373
33	0x3d60e197	0.05490264
34	0x3e4aee13	0.1981738
35	0x3e71ecd6	0.23625502
36	0x3dbcb961	0.09215046
37	0x3def8428	0.11695129
38	0x3e60ec0b	0.21965043
39	0x3e474b25	0.19462259
40	0x3cf2e3e3	0.02964968
41	0x3c25487f	0.010088085
42	0xbd8a4445	-0.06751303
43	0xbd475ac2	-0.048670538
44	0x3d89ca19	0.06728
45	0x3d71fdff	0.05908012
46	0x3d33598c	0.04378657
47	0x3d8f5a94	0.06999698
48	0xbe675670	-0.22591567
49	0xbe5d2a78	-0.21598232
50	0x3d9ea6d1	0.077466615
51	0x3d32856b	0.04358427
52	0x3dc5a178	0.09649938
53	0x3da53219	0.08066196
54	0x3b183598	0.0023225304
55	0x3df1c49f	0.118050806
56	0x3d960df2	0.073268786
57	0x3d033d7b	0.032041054
58	0x3d320f73	0.043471765
59	0x3c358adf	0.011080473
60	0x3dc28d13	0.09499564
61	0x3d950909	0.07277114
62	0x3d17d6ec	0.0370702
63	0x3d5093e7	0.0509223
64	0x3e683c65	0.22679289
65	0x3e8b0659	0.2715328
66	0x3d8be50d	0.06830797
67	0x3d44e17f	0.048066612
68	0x3d92886f	0.07154929
69	0x3d7d613e	0.061860316
70	0x3e55b706	0.20870599
71	0x3e84d2fb	0.25942215
72	0x3e839666	0.25700682
73	0x3eb1445a	0.3462246
74	0x3d4f4475	0.050602395
75	0x3d45bb70	0.048274457
76	0x3dc4d756	0.096113846
77	0x3d9c984e	0.07646237
78	0x3d8a991d	0.06767485
79	0x3dfcaa95	0.123372234
80	0x3c20ac54	0.009806711
81	0x3d2a911b	0.04164229
82	0x3e6e31f2	0.2326124
83	0x3e4f9047	0.20269881
84	0x3d9824ce	0.07428895
85	0x3df35d9c	0.11883089
86	0xbea0b132	-0.3138519
87	0x3eb7a227	0.358659
88	0xbe792c8c	-0.243334
89	0xbeb164d1	-0.3464723
90	0x3d64ae8f	0.055830535
91	0x3d0d3465	0.034473795
92	0x3e214b98	0.15751493
93	0x3e6bcc31	0.23027112
94	0xbd83db5e	-0.06438325
95	0x3e4ad212	0.19806698
96	0x3e4deb45	0.2010928
97	0x3e777281	0.24164774
98	0x3e76d23c	0.24103636
99	0x3e96afa8	0.2943089
100	0x3e41c6eb	0.18923537
101	0x3b375ad2	0.0027977717
102	0x3d8b25e0	0.067943335
103	0x3da226b1	0.07917536
104	0x3e212c34	0.15739518
105	0x3e187d3f	0.14891528
106	0x3d6a1005	0.057144184
107	0x3dafab45	0.08577589
108	0x3c8bca84	0.01706434
109	0xbe2c065d	-0.16799302
110	0x3e341478	0.17585933
111	0x3e268151	0.16260268
112	0x3e94c083	0.29053125
113	0x3ea8c1fe	0.32960504
114	0x3e961dd0	0.2931962
115	0x3ea6a2de	0.32546133
116	0xbd0a09bf	-0.0337007
117	0xbd8822bd	-0.06647251
118	0x3d425c91	0.04745156
119	0x3d6b8fb5	0.057510097
120	0x3da53587	0.0806685
121	0x3d940a40	0.072285175
122	0x3e622a15	0.22086366
123	0x3e6d96d3	0.23202066
124	0x3de03b2f	0.109487884
125	0x3e12ec8c	0.14348048
126	0x3e6c9ed5	0.23107465
127	0x3e63e1a2	0.22254041
128	0x3d3268f4	0.043557122
129	0x3c3d9d30	0.011573121
130	0x3d3b2fe0	0.045699954
131	0x3dc3f6cd	0.09568558
132	0xbe6ebb29	-0.23313583
133	0xbe682c08	-0.22673047
134	0x3e0fe0a6	0.1405054
135	0x3e04a238	0.12952507
136	0x3e5d1e32	0.2159355
137	0x3ea3d52b	0.31998572
138	0x3e515e47	0.2044612
139	0x3e6d95b4	0.23201638
140	0x3e883e75	0.2661015
141	0x3e7d95d3	0.24764185
142	0x3e0def03	0.13860707
143	0x3e475bc5	0.19468601
144	0x3e346872	0.17617968
145	0x3e7f91b1	0.2495792
146	0x3cd04119	0.025421666
147	0x3dc29a79	0.095021196
148	0x3c9b8376	0.018983584
149	0x3cdaf24e	0.026726868
150	0x3d1b4d05	0.03791525
151	0x3c446a3e	0.011988221
152	0x3d805a3f	0.06267213
153	0x3df763cf	0.12079584
154	0x3d59ae27	0.0531446
155	0x3d4e811f	0.05041611
156	0x3f1ab685	0.6043475
157	0x3e80ca78	0.2515447
158	0xbd817685	-0.06321434
159	0x3db5bc35	0.08873788
160	0x3e6886e3	0.22707705
161	0x3e95ac67	0.29233095
162	0x3e455145	0.19269283
163	0x3e44e4f3	0.19227962
164	0x3e3ed193	0.18634634
165	0x3e31859d	0.17336126
166	0x3c2f6fbf	0.010707795
167	0x3cbaa79f	0.022785006
168	0x3d307ff5	0.04309078
169	0x3d73c234	0.05951138
170	0x3dbcce21	0.092190035
171	0x3d19c9ac	0.037545845
172	0x3db02623	0.08601024
173	0x3d600e55	0.054701168
174	0x3df9147d	0.12162111
175	0x3e485988	0.19565403
176	0x3d61f8fe	0.055169098
177	0x3d17965b	0.037008625
178	0x3db6c053	0.08923402
179	0x3d8166ad	0.06318412
180	0x3d801329	0.062536545
181	0x3dad324b	0.08456858
182	0x3df03c80	0.117302895
183	0x3e576a33	0.21036606
184	0x3d9554c7	0.072915606
185	0x3dc5b764	0.096541196
186	0x3d3647e9	0.044502173
187	0x3d728c5a	0.05921588
188	0x3e74888d	0.23880215
189	0x3e6270b0	0.221133
190	0x3cde9e00	0.02717495
191	0x3dab71ea	0.08371337
192	0x3cdbd994	0.026837148
193	0x3d211b6b	0.03933279
194	0x3d676297	0.056490507
195	0x3db7b6ef	0.08970439
196	0x3d03caf1	0.032175962
197	0x3d6ebfd2	0.058288403
198	0x3d64e1fd	0.05587958
199	0x3d684137	0.05670282
200	0x3d66bffa	0.056335427
201	0x3d80ec8e	0.06295119
202	0x3d20d73e	0.03926777
203	0x3dd11081	0.10208226
204	0x3d34d0ae	0.044144325
205	0x3d4162c6	0.04721334
206	0x3e69660c	0.22792834
207	0x3e980d54	0.2969767
208	0x3d31461e	0.04327976
209	0x3d80c43d	0.062874295
210	0x3d307c38	0.043087214
211	0x3dbb57f3	0.09147634
212	0x3ee578b3	0.4481865
213	0x3ef1eabd	0.47249404
214	0x3e398efc	0.1812095
215	0x3e4b557d	0.1985683
216	0x3dfb719c	0.12277529
217	0x3e49c444	0.19703776
218	0xbe4d4b38	-0.20048225
219	0xbe7339c6	-0.23752508
220	0x3d7e600a	0.06210331
221	0x3d644a0a	0.05573467
222	0xbdb65ba8	-0.08904201
223	0xbd01a70c	-0.03165345
224	0x3d0d0b26	0.03443446
225	0x3e28ed53	0.16496782
226	0xbdb6b2a9	-0.089207955
227	0xbd78b17b	-0.060716134
228	0xbe39cbb3	-0.18144111
229	0xbce46cae	-0.027883854
230	0x3e6c9c40	0.2310648
231	0x3e3604df	0.17775296
232	0x3d3380a0	0.04382384
233	0x3d84917a	0.0647306
234	0x3dac68bd	0.08418415
235	0x3da98a2d	0.08278308
236	0x3dbd4f02	0.09243585
237	0x3d4c4b3d	0.04987644
238	0x3d545b27	0.051844742
239	0x3d31edf2	0.043439813
240	0x3d2e3a6d	0.042536188
241	0x3c8b9d8a	0.017042894
242	0x3d1a1cce	0.037625127
243	0x3d9f4476	0.0777673
244	0xbd3452a3	-0.04402412
245	0xbd4d4b56	-0.050120674
246	0x3dc59ccb	0.096490465
247	0x3dd0d5c1	0.1019702
248	0x3d74dd21	0.059781197
249	0x3d97771e	0.07395767
250	0x3d9b870c	0.075941175
251	0x3d19d388	0.037555248
252	0x3e68e2ab	0.22742717
253	0x3e5d9a2a	0.2164084
254	0x3e4bcee2	0.19903138
255	0x3e93d6e5	0.2887489

lstm.bias_ih_l0 f4 [4400]
0	0x3d776322	0.060397275
1	0x3d7a876e	0.061164312
2	0x3cd0173e	0.025401708
3	0xbda458cc	-0.08024749
4	0x3d84d4a3	0.0648587
5	0x3d3c634a	0.045993127
6	0x3da293b8	0.07938331
7	0x3d72029d	0.059084523
8	0x3d9b0c9f	0.07570767
9	0x3f49454b	0.7862136
10	0xbe798ffa	-0.24371329
11	0xbcc415fe	-0.023936268
12	0x3d3b510d	0.045731593
13	0xbbc9c3af	-0.0061573605
14	0x3dde9585	0.10868362
15	0xbd7078c4	-0.05870892
16	0x3d6baee8	0.05753985
17	0x3c6384e0	0.01388666
18	0x3d8f644a	0.070015505
19	0x3e36cf97	0.17852627
20	0x3d5ec3f5	0.054386098
21	0xbd4a2670	-0.049353063
22	0x3d62892d	0.055306602
23	0x3c14ac57	0.009074292
24	0xbe79ba19	-0.24387397
25	0x3c819705	0.015819082
26	0x3d252d9e	0.040326707
27	0xbd8d1edd	-0.06890652
28	0x3d0a1d5e	0.033719413
29	0x3dc663b7	0.09686988
30	0x3d973f33	0.07385101
31	0x3d037cd9	0.032101486
32	0xbcb2f09c	-0.021843247
33	0x3dc829be	0.09773587
34	0x3d80e8d0	0.062944055
35	0xbd86e4c9	-0.06586606
36	0xbd8f5d7a	-0.07000251
37	0x3cb22a0b	0.021748563
38	0x3ddd0daf	0.107936256
39	0xbe2d3b25	-0.16917093
40	0x3c30ed2c	0.010798734
41	0x3d903f5d	0.070433356
42	0x3ce322e6	0.027726602
43	0xbf836081	-1.0263826
44	0xbe7206f4	-0.23635465
45	0x3d0cbcde	0.034359805
46	0x3d24e8ed	0.040261198
47	0xbe67e2c0	-0.22645092
48	0x3d2fee41	0.042951826
49	0xbc4a4a05	-0.012346749
50	0x3e3b1d81	0.18272974
51	0x3cc5d92a	0.024151403
52	0x3d656e14	0.05601318
53	0x3dc1a84f	0.094559304
54	0x3cfecb51	0.031102808
55	0x3daac216	0.083378
56	0xbdc9adf0	-0.09847629
57	0xbd9695ca	-0.07352789
58	0xbd0b695a	-0.034036018
59	0x3d1fb751	0.038993184
60	0x3d7482fb	0.059695225
61	0xbc163085	-0.009166841
62	0x3e16c320	0.14722872
63	0x3d804e1b	0.062648974
64	0x3d92ea46	0.0717359
65	0x3b85e25e	0.004085823
66	0xbbcbbeba	-0.0062178047
67	0x3e2dacc3	0.16960435
68	0x3c179434	0.009251643
69	0x3da0fe8b	0.0786105
70	0x3d9ba75f	0.07600283
71	0x3d4a5822	0.049400456
72	0x3da5ece6	0.081018254
73	0xbbb5c30f	-0.0055469344
74	0x3d59cd30	0.053174198
75	0x3d0d6ff5	0.0345306
76	0x3cd252d9	0.02567427
77	0x3d139b17	0.036036577
78	0x3f543158	0.8288779
79	0xbe45561b	-0.19271128
80	0x3c75876e	0.014985902
81	0x3d4540db	0.048157554
82	0x3da9ec88	0.08297068
83	0xbc6c4ad0	-0.014422134
84	0x3daaaa97	0.08333319
85	0x3d660eef	0.056166586
86	0x3d0acbd9	0.03388581
87	0x3dbc3264	0.09189299
88	0x3c840811	0.016117128
89	0x3d59c2bb	0.053164225
90	0x3d9eef64	0.07760504
91	0xbc0654b6	-0.008198908
92	0x3d8a10d0	0.06741488
93	0x3d2f09c5	0.042733926
94	0x3e03b840	0.12863255
95	0x3d98b8cd	0.07457123
96	0x3ce88c9f	0.028387366
97	0x3d8d2951	0.06892646
98	0x3cb8c38c	0.022554182
99	0x3d87ca94	0.066304356
100	0x3d40e5c5	0.047094125
101	0xbd848ee2	-0.06472565
102	0x3d3ac91f	0.04560196
103	0xbda58c82	-0.0808344
104	0x3d12c93e	0.03583645
105	0x3cf67093	0.030082976
106	0xbe5d3bd2	-0.21604851
107	0x3d80eac8	0.06294781
108	0x3db8c1e2	0.09021355
109	0xbe9f88e5	-0.3115913
110	0x3d37269f	0.044714566
111	0xbd69be03	-0.057065975
112	0xbe0f6c50	-0.14006162
113	0xbd9b36dd	-0.07578824
114	0xbe80d15e	-0.25159734
115	0x3e548e72	0.20757464
116	0x3d952cb3	0.07283916
117	0x3d307766	0.043082617
118	0x3d430c79	0.047619317
119	0x3cc213f8	0.023691162
120	0x3d06878e	0.03284412
121	0x3d4dceb3	0.05024595
122	0xbd8f08b0	-0.06984079
123	0x3d781b48	0.060572892
124	0x3d80f3ee	0.06296526
125	0x3d980cb2	0.074242964
126	0xba3f5170	-0.0007298207
127	0xbd2c7a3d	-0.042108763
128	0x3d17f2ca	0.037096776
129	0x3d5fc69f	0.05463278
130	0xbe2229c5	-0.15836246
131	0x3d96f0ec	0.07370171
132	0xbf9ebb1a	-1.2400849
133	0x3d2ab545	0.04167678
134	0xbe37c65d	-0.17946763
135	0xbd145a0d	-0.03621869
136	0x3d91a6ef	0.07111918
137	0x3d0d62ff	0.03451824
138	0x3d63c560	0.055608153
139	0x3d3669ab	0.044534367
140	0x3cdb1234	0.026742078
141	0x3d5e2f5c	0.054244384
142	0x3d667511	0.056263987
143	0x3d87ba98	0.06627387
144	0x3d15f41a	0.036609747
145	0x3d7450cf	0.059647378
146	0x3cf2fdc3	0.029662019
147	0x3d809338	0.0627808
148	0x3e3d7825	0.18502863
149	0xbd8f07c5	-0.06983904
150	0x3e33e36c	0.17567223
151	0xbe36291c	-0.1778912
152	0x3d85354b	0.065043055
153	0x3d10dd08	0.03536704
154	0x3d11c0f5	0.03558441
155	0xbda9ae99	-0.08285255
156	0xbd427fd3	-0.047485184
157	0x3d711a36	0.058862887
158	0x3d71cdfa	0.059034325
159	0x3d3eef3e	0.046614878
160	0x3e122447	0.14271651
161	0xbd9b6573	-0.07587709
162	0x3d4e865e	0.05042111
163	0x3b860217	0.0040896046
164	0x3d8c68f9	0.068559594
165	0x3d9eb7db	0.077499114
166	0x3d3412d1	0.043963257
167	0x3d78177b	0.060569268
168	0x3c8cbd04	0.017179973
169	0x3d92273d	0.0713639
170	0x3ee7e8e1	0.4529486
171	0x3d0425e9	0.032262716
172	0xbbb28434	-0.0054478887
173	0x3d08afe4	0.033370867
174	0xbcc4e55e	-0.024035152
175	0x3dcd0927	0.10011511
176	0x3d1278e9	0.03575984
177	0x3de2ecf6	0.11080353
178	0x3e153d31	0.14574124
179	0x3c7399d6	0.01486822
180	0x3d875e2a	0.06609757
181	0x3c1a91e6	0.009434199
182	0x3d80d74a	0.06291063
183	0x3e926a6d	0.2859682
184	0x3d55ff23	0.05224527
185	0x3b87e2a7	0.004146892
186	0x3d045b9a	0.03231392
187	0x3d8dd473	0.06925287
188	0x3cc111b4	0.023568012
189	0x3d550ccc	0.052014157
190	0xbd69e40a	-0.05710224
191	0x3d9260d9	0.071473785
192	0xbe0871ac	-0.13324612
193	0x3d759eef	0.059966024
194	0x3d5f624a	0.054537095
195	0xbd6dae5a	-0.058027603
196	0x3dce623e	0.10077332
197	0x3cde070a	0.027102966
198	0x3cc36fe3	0.023857063
199	0x3d1a1b2e	0.037623577
200	0x3ceefe8f	0.029174117
201	0xbcbdd1ed	-0.02317139
202	0x3d4cba5e	0.04998242
203	0xbd1379c7	-0.036004808
204	0x3d880b2e	0.06642757
205	0xbea6e7e2	-0.32598788
206	0x3cba3b03	0.022733217
207	0x3ccac3fb	0.024751654
208	0x3d8b993a	0.06816335
209	0x3d8e363a	0.06943937
210	0xbdb3e5d8	-0.087840736
211	0x3cc6e300	0.024278164
212	0xbcee9295	-0.02912263
213	0x3d638136	0.055543147
214	0x3e2106cd	0.1572525
215	0x3cb46404	0.022020347
216	0x3c8f01d4	0.017456926
217	0xbdb6c8c8	-0.08925015
218	0x3e184566	0.14870223
219	0xbe6d82f8	-0.23194492
220	0x3dcde12d	0.100527145
221	0x3db57516	0.08860223
222	0xbd035f3b	-0.03207324
223	0x3d72dd99	0.059293363
224	0x3e39fec8	0.18163598
225	0x3d172bfd	0.036907185
226	0x3cf5bca9	0.029997187
227	0x3d5a4b7b	0.05329464
228	0xbd1033fa	-0.03520582
229	0xbd502279	-0.050814126
230	0xbcf7420b	-0.030182859
231	0xbe687669	-0.2270142
232	0xbb8e5e77	-0.004344757
233	0x3d19d5e0	0.037557483
234	0x3ebbc0f6	0.36670655
235	0x3de8fabf	0.11375951
236	0x3d52eae5	0.051493544
237	0x3d9453f4	0.07242575
238	0x3d4a99e6	0.049463175
239	0x3c87e383	0.016587978
240	0x3d56482d	0.052314926
241	0x3ca89585	0.020579109
242	0x3d1c9158	0.038224548
243	0x3d952f8c	0.072844595
244	0x3dd750d8	0.105134666
245	0x3d78c854	0.060737923
246	0xbd986344	-0.074408084
247	0x3d1f5651	0.038900677
248	0x3da21792	0.07914652
249	0xbbc38908	-0.005967263
250	0x3ce5cda8	0.028052166
251	0x3d3e4cfe	0.046460144
252	0xbd70df3b	-0.05880664
253	0x3d8611e4	0.06546381
254	0xbe0b0eeb	-0.1357991
255	0x3d71f571	0.05907196

lstm.bias_hh_l0 f4 [4400]
0	0x3d81521a	0.06314488
1	0x3d860507	0.06543928
2	0x3d82b891	0.063828595
3	0xbdb4f406	-0.08835606
4	0x3cddfe9a	0.027098943
5	0x3d8d8ca4	0.06911591
6	0x3dfc5256	0.12320392
7	0x3d75bbb9	0.05999348
8	0x3d9749b0	0.07387102
9	0x3f44673d	0.7672003
10	0xbe7ddf5b	-0.24792235
11	0x3c4871c5	0.012234156
12	0x3d54d16b	0.05195753
13	0xbb9627d6	-0.0045823855
14	0x3e103e88	0.14086354
15	0xbdc87450	-0.0978781
16	0x3d3d2f4a	0.046187676
17	0x3d016c91	0.031597678
18	0x3d36b106	0.044602416
19	0x3e4543b6	0.19264111
20	0x3ca442d9	0.020051407
21	0xbdbbf98c	-0.09178457
22	0x3db9deb9	0.09075684
23	0x3d046f5d	0.032332767
24	0xbe53e5ab	-0.2069308
25	0x3cfb07d9	0.03064339
26	0x3cdfb7c6	0.02730931
27	0xbd22a300	-0.03970623
28	0x3d5e0b03	0.05420972
29	0x3d6a2648	0.057165414
30	0x3cc43631	0.023951622
31	0x3d32db5b	0.043666225
32	0xbbd30a50	-0.0064404383
33	0x3ddc89f1	0.10768498
34	0x3dc40dd4	0.0957295
35	0xbd8553d4	-0.065101296
36	0xbd8854b7	-0.06656783
37	0x3c7aa298	0.015297554
38	0x3dcb2f5c	0.099211425
39	0xbe4ad1ef	-0.19806646
40	0x3d800aca	0.06252058
41	0x3d7f9866	0.062401198
42	0x3ce6dcdc	0.028181486
43	0xbf87b1e4	-1.0601163
44	0xbe688aca	-0.22709194
45	0x3d8ba1b4	0.06817952
46	0x3d00eadc	0.03147398
47	0xbe7fa0d8	-0.24963701
48	0x3d2deece	0.04246407
49	0xbcde984d	-0.027172232
50	0x3e378207	0.17920695
51	0x3d55d677	0.052206483
52	0x3d8e0138	0.06933826
53	0x3db73356	0.089453384
54	0x3cc61ee2	0.024184648
55	0x3e028ab3	0.12748222
56	0xbdadf185	-0.08493332
57	0xbdaa1bc9	-0.08306081
58	0xbd32e4e8	-0.043675333
59	0x3cecc967	0.02890463
60	0x3cfe6496	0.031053822
61	0xbcf9ce64	-0.030493923
62	0x3e02249a	0.12709275
63	0x3d9ff73f	0.0781083
64	0x3dc77651	0.09739364
65	0x3c792e3f	0.01520878
66	0xbccd7deb	-0.025084456
67	0x3e19d918	0.15024221
68	0x3c2f7951	0.010710076
69	0x3d9de56f	0.077097766
70	0x3d56a4bf	0.052403208
71	0x3d9e1b82	0.077200904
72	0x3dfac6c2	0.12244941
73	0x3b92a201	0.004474879
74	0x3d97c4d9	0.074105926
75	0x3d44e1d1	0.048066918
76	0x3d70342e	0.058643512
77	0x3ccdeada	0.0251364
78	0x3f548b62	0.8302518
79	0xbe5a5b50	-0.21323895
80	0x3b4f47b3	0.003162843
81	0x3d8f5c65	0.07000045
82	0x3dcc6b56	0.0998141
83	0xbd563ae8	-0.05230227
84	0x3d70b7c6	0.05876901
85	0x3d92f642	0.07175876
86	0x3cd1a343	0.025590545
87	0x3e1278f6	0.14303955
88	0x3d554d69	0.052075777
89	0x3d76569c	0.06014119
90	0x3d895cb2	0.06707133
91	0xbd1bde7b	-0.03805397
92	0x3d622c54	0.055218056
93	0x3d8c44e6	0.06849079
94	0x3dcd7a3e	0.100330815
95	0x3d5df9fa	0.054193474
96	0x3d19bf4c	0.03753595
97	0x3d98785b	0.07444831
98	0x3d4304fb	0.04761217
99	0x3d922ae2	0.071370855
100	0x3d707b93	0.0587116
101	0xbda01e93	-0.078183316
102	0x3d988687	0.07447534
103	0xbd1964a2	-0.037449487
104	0x3d30108a	0.042984523
105	0x3d0b61a5	0.034028668
106	0xbe435657	-0.19075905
107	0x3d8d55d0	0.06901133
108	0x3db58673	0.08863535
109	0xbea3576d	-0.31902638
110	0x3d8483a4	0.06470421
111	0xbcf34691	-0.029696735
112	0xbe095d33	-0.13414459
113	0xbd2bbf19	-0.04193029
114	0xbe805877	-0.25067493
115	0x3e22d4bf	0.15901469
116	0x3d921f3c	0.07134864
117	0x3d3d972a	0.04628674
118	0x3d03a617	0.032140817
119	0xbb66aa0e	-0.0035196575
120	0x3d90dd1c	0.07073423
121	0x3d6631ad	0.05619972
122	0xbd9722bd	-0.07379673
123	0x3d055ad1	0.032557312
124	0x3da0c029	0.07849152
125	0x3d843db6	0.06457083
126	0x3d12061b	0.035650354
127	0xbd3f6f46	-0.046736978
128	0x3cde0913	0.027103936
129	0x3db465a7	0.08808451
130	0xbe2be6e6	-0.167873
131	0x3d8165bd	0.06318233
132	0xbf99c2a3	-1.2012523
133	0x3d4c878d	0.04993396
134	0xbe44bcdd	-0.1921267
135	0xbd98c21f	-0.07458901
136	0x3d7dda4c	0.061975762
137	0x3d4a477c	0.04938458
138	0x3d4451c8	0.047929555
139	0x3d0efecd	0.034910966
140	0x3d2bf8a8	0.041985184
141	0x3d92f182	0.0717497
142	0x3d919337	0.07108157
143	0x3da957f7	0.08268731
144	0x3da9b903	0.08287241
145	0x3d6d4a6b	0.0579323
146	0x3cddfe21	0.027098717
147	0x3d75482c	0.05988328
148	0x3e33a41d	0.17543073
149	0xbd3358f6	-0.04378601
150	0x3e4c8bb0	0.19975162
151	0xbe2945d9	-0.16530551
152	0x3d8400df	0.06445479
153	0x3d7e46bb	0.062079173
154	0x3d54ff77	0.052001443
155	0xbd8f326f	-0.06992041
156	0xbd25f8ce	-0.04052048
157	0x3d6a82f8	0.057253808
158	0x3d78ecfb	0.060772877
159	0x3d938811	0.07203687
160	0x3e06ada5	0.13152178
161	0xbdd00516	-0.1015722
162	0x3d96ed31	0.073694594
163	0x3b1482fc	0.002266108
164	0x3d2b87bb	0.04187749
165	0x3d10159b	0.035176855
166	0x3cd347e4	0.025791116
167	0x3d46adac	0.04850547
168	0x3d4e0062	0.050293334
169	0x3db7bfb7	0.089721136
170	0x3edb483c	0.42828548
171	0x3d68f916	0.05687817
172	0xbcf3bcf3	-0.029753184
173	0x3ccf2cf6	0.025289994
174	0xbd2fe607	-0.04294398
175	0x3dd63737	0.1045975
176	0x3d9436f4	0.07237044
177	0x3e00b314	0.12568313
178	0x3e0c978a	0.13729683
179	0x3d7eed19	0.062237833
180	0x3d60e9dd	0.05491053
181	0xbc0ff40b	-0.008786212
182	0x3db77b83	0.08959105
183	0x3e8f82f6	0.28029603
184	0x3d24f6dc	0.040274486
185	0x3c5a40d5	0.013321121
186	0x3ca91221	0.020638527
187	0x3d27883f	0.04090142
188	0x3c903093	0.017601287
189	0x3cff065c	0.031130962
190	0xbd897ed0	-0.06713641
191	0x3d4f9666	0.05068054
192	0xbe3ac77d	-0.18240161
193	0x3d3f4a0e	0.046701483
194	0x3d086c67	0.033306506
195	0xbd14410f	-0.036194857
196	0x3d45b777	0.04827067
197	0x3c9c032d	0.019044483
198	0x3d90f02d	0.0707706
199	0x3d535afa	0.051600434
200	0x3d0f8600	0.0350399
201	0xbc32ea78	-0.0109201595
202	0x3ca4f6f4	0.020137288
203	0xbd9a92e5	-0.07547549
204	0x3d882469	0.0664757
205	0xbeb39149	-0.3507178
206	0x3d70a299	0.058748815
207	0x3ca75178	0.02042459
208	0x3cbe68cb	0.023243329
209	0x3d99f886	0.07518105
210	0xbd901763	-0.07035711
211	0x3d0d5410	0.034503996
212	0xbd6ffd53	-0.0585912
213	0x3d8425af	0.064525
214	0x3e0b89ce	0.13626787
215	0x3d80e980	0.062945366
216	0x3d453981	0.048150543
217	0xbd5fdc0f	-0.054653224
218	0x3e1ac825	0.15115412
219	0xbe3d913c	-0.18512434
220	0x3dc05acb	0.093923174
221	0x3da5a58d	0.08088217
222	0xbc4bd853	-0.012441712
223	0x3da56fc9	0.08077962
224	0x3e372119	0.1788372
225	0x3d97d466	0.07413559
226	0x3d86b9fb	0.06578442
227	0x3d988b32	0.074484244
228	0xbba8e07c	-0.0051537137
229	0xbd603007	-0.054733302
230	0xbd19651f	-0.037449952
231	0xbe6eaa4c	-0.2330715
232	0x3c07288d	0.008249414
233	0x3d0a8c39	0.033825133
234	0x3ed00190	0.40626192
235	0x3df00932	0.11720504
236	0x3daf1cba	0.08550401
237	0x3d7cb458	0.061695427
238	0x3cfd8aae	0.030949917
239	0x3c8e2f6d	0.017356599
240	0x3da43fee	0.08020006
241	0x3d3ed072	0.046585508
242	0x3d757d2a	0.05993382
243	0x3cbb1270	0.02283594
244	0x3dc3c15b	0.09558364
245	0x3d991905	0.07475475
246	0xbd52a120	-0.051423192
247	0x3d1c1265	0.03810348
248	0x3d0f3378	0.034961194
249	0x3d184521	0.0371753
250	0x3d72a90f	0.059243258
251	0x3d886db0	0.06661546
252	0xbd4615cc	-0.04836063
253	0x3d37754a	0.04478959
254	0xbe24f21f	-0.16107987
255	0x3d6d2cb0	0.057903945

lstm.weight_hr_l0 f4 [2, 1100]
0	0x3da536c9	0.0806709
1	0xbdac7431	-0.08420599
2	0xbd99fb92	-0.07518686
3	0xbc63886b	-0.013887505
4	0xbda830ab	-0.08212408
5	0xbdaa6bda	-0.08321352
6	0xbd27e898	-0.040993303
7	0xbd8d9c17	-0.069145374
8	0xbd8ad001	-0.06777955
9	0x3fa6d184	1.3032689
10	0x3d1b65ce	0.037938885
11	0x3d06d3d5	0.032916863
12	0x3d867afa	0.06566425
13	0xbd27d7ab	-0.04097716
14	0xbddef248	-0.10886055
15	0x39959f78	0.00028538308
16	0xbbf7db3c	-0.0075639766
17	0xbd0fb571	-0.035085145
18	0x3f026b9d	0.50945455
19	0x3da866db	0.08222743
20	0x3db0e416	0.08637254
21	0x3a930f75	0.0011219817
22	0xbcd3ab43	-0.0258385
23	0xbd7caa1e	-0.061685674
24	0x3d1a4514	0.037663534
25	0xbcf6688b	-0.030079147
26	0x3ca401ba	0.020020355
27	0xbcdcc8ef	-0.026951281
28	0xbd1676a8	-0.036734253
29	0x3d1e28dd	0.03861319
30	0x3dc3769c	0.09544107
31	0xbd00674a	-0.031348504
32	0x3c6d4f49	0.014484235
33	0x3d32c82a	0.043647923
34	0x3dafdd19	0.08587093
35	0xbdba365f	-0.09092402
36	0xbdb08524	-0.086191446
37	0x3c5c777c	0.013456222
38	0x3fb30746	1.3986595
39	0x3d6bdf78	0.057586163
40	0xbdaf6e54	-0.08565965
41	0xbdbe2bc0	-0.092856884
42	0xbd619f4b	-0.055083554
43	0xbfc10d06	-1.50821
44	0xbdcf7d95	-0.10131375
45	0x3da84d8f	0.08217918
46	0xbd936893	-0.0719768
47	0xbef9cc1b	-0.48788533
48	0x3db39e6d	0.08770452
49	0xbd8be483	-0.068306945
50	0x400e8ae5	2.2272274
51	0xbd8bbb91	-0.06822885
52	0x3db8a4d0	0.090158105
53	0xbef7643a	-0.48318654
54	0xbd3a19a6	-0.045434617
55	0xbe25329a	-0.16132584
56	0xbda3819b	-0.07983705
57	0xbd386b2e	-0.04502409
58	0xbc49c224	-0.012314353
59	0xbd7144d0	-0.058903515
60	0xbd71bddb	-0.05901895
61	0x3db3d9da	0.08781786
62	0xbdc642c4	-0.09680703
63	0x3d55e9f1	0.052225057
64	0x3d538273	0.051638078
65	0x3cbe6b87	0.023244632
66	0x3cb0eb50	0.02159658
67	0x3db5fb05	0.08885769
68	0x3d713ddf	0.058896895
69	0x3d7ed838	0.06221792
70	0xbd5facf9	-0.05460832
71	0xbd97a968	-0.074053586
72	0xbd84aed9	-0.06478662
73	0x3d3b939c	0.04579507
74	0x3d42e5c9	0.04758242
75	0x3d773012	0.060348578
76	0xbda80e03	-0.082057975
77	0xbd7b9771	-0.061423723
78	0xbfaed67e	-1.3659208
79	0xbdd9be92	-0.106320515
80	0xbd5124bf	-0.051060434
81	0x3d518810	0.05115515
82	0xbdb6c8d2	-0.08925022
83	0x3e79d9dc	0.24399513
84	0xbd99e7e7	-0.07514935
85	0xbda842d5	-0.08215872
86	0x3c19da5b	0.009390439
87	0x3e5cc254	0.21558505
88	0xbd0be65e	-0.034155242
89	0x3d4a2cd6	0.049359165
90	0xbc819c4f	-0.015821604
91	0x3dc406b5	0.09571592
92	0xbd6941b1	-0.056947414
93	0xbcf8b820	-0.030361235
94	0xbca22e5c	-0.019797496
95	0x3d413f5d	0.04717957
96	0x3da7c5ef	0.0819205
97	0x3d81c6b1	0.063367255
98	0x3962728c	0.00021595712
99	0xbda60364	-0.081061155
100	0x3d1f8f95	0.03895529
101	0x3cdd7e93	0.027037894
102	0x3d4a0e3d	0.049329985
103	0xbda29361	-0.079382665
104	0x3f1b49bc	0.60659385
105	0xbdabd8c2	-0.08390953
106	0xbd7d52e7	-0.06184664
107	0xbd26af67	-0.04069462
108	0x3d215e11	0.03939635
109	0xbd7ed033	-0.062210273
110	0x3cecc7ae	0.028903808
111	0x3d039e98	0.03213367
112	0xbb6c0317	-0.0036012584
113	0x3c3f02c2	0.011658372
114	0xbf063bc4	-0.52434945
115	0x3d90ccee	0.07070337
116	0x3d8f3f59	0.069945045
117	0xbceb63b5	-0.028734067
118	0xbce93297	-0.028466506
119	0x3e0ab652	0.13546112
120	0x3d8e79d7	0.06956833
121	0x3ca38685	0.019961605
122	0x3aadcb7f	0.0013259499
123	0x3b0c02f8	0.0021364074
124	0xbce6da1c	-0.028180175
125	0x3da45738	0.08024448
126	0xbd803239	-0.06259579
127	0x3d9174eb	0.071023785
128	0xbe000580	-0.12502098
129	0x3d238031	0.039917175
130	0x3d27adc6	0.040937208
131	0x3d34a772	0.044105
132	0x3fc0988a	1.5046551
133	0xbd2dd01c	-0.042434797
134	0xbdab288f	-0.08357345
135	0x3cfc8cc1	0.030828835
136	0xbd8f6964	-0.070025235
137	0x3d9a3e48	0.075314105
138	0x3dbd6866	0.09248428
139	0x3d1dd0bc	0.038529143
140	0x3e18b344	0.14912134
141	0x3d88de89	0.0668307
142	0xbdac5a68	-0.08415681
143	0xbdbef5d5	-0.093242325
144	0xbd830039	-0.06396527
145	0xbd775678	-0.060385197
146	0x3d881f62	0.06646611
147	0x3da20d1e	0.07912658
148	0xc007a03b	-2.1191547
149	0x3d1bfcbc	0.038082823
150	0xbdacd070	-0.08438194
151	0x3d4f08d2	0.05054552
152	0xbda317ab	-0.07963499
153	0x3dadb731	0.084822066
154	0xbd4bd9aa	-0.049768128
155	0xbdc2f1c4	-0.095187694
156	0xbbca735e	-0.0061783036
157	0xbdeaae78	-0.114590585
158	0x3d4023b0	0.046909034
159	0x3d5b2942	0.053506143
160	0x3d8fef79	0.07028098
161	0x3c07b841	0.008283676
162	0xbecbfec9	-0.39842823
163	0xbd80a645	-0.062817134
164	0x3d0d82cc	0.034548566
165	0xbdaf197e	-0.08549784
166	0x3d92ec39	0.07173962
167	0xbd2e95f2	-0.042623468
168	0xbda50ef8	-0.08059496
169	0x3d8a3008	0.067474425
170	0xbe0402c7	-0.12891684
171	0xbda6b16d	-0.0813931
172	0xbd5ffc1e	-0.054683797
173	0xbd49a69b	-0.049231153
174	0xbd646248	-0.05575779
175	0x3d95231a	0.07282086
176	0xbdab4f36	-0.08364718
177	0x3d3daa15	0.04630478
178	0xbd88cede	-0.06680082
179	0x3d6c303f	0.0576632
180	0xbec6f7ab	-0.3886083
181	0x3d06516e	0.0327925
182	0xbd80a7f6	-0.06282036
183	0xbf8ff3a1	-1.1246225
184	0xbdc1ef8e	-0.094695196
185	0xbc8e0787	-0.017337574
186	0x3dab592f	0.0836662
187	0xbd97f388	-0.07419497
188	0x3dcb83f9	0.09937281
189	0xbda2b9ed	-0.07945619
190	0x3d6ac0d8	0.057312816
191	0xbda7995a	-0.08183546
192	0xbf1ebe3a	-0.6200901
193	0xbd90180b	-0.07035836
194	0x3d694972	0.05695481
195	0xbd13ec10	-0.0361138
196	0x3cea8e9c	0.028632455
197	0x3cd15af3	0.025556063
198	0xbd9363fa	-0.071968034
199	0x3dc1c69b	0.09461709
200	0x3da471b4	0.080295
201	0xbbca4c29	-0.00617363
202	0xbd6f4886	-0.058418773
203	0xbdba80a0	-0.091065645
204	0xbd3f92e6	-0.046770953
205	0x3eb0ec9e	0.34555525
206	0xbd501b36	-0.0508072
207	0x3d8b015f	0.06787371
208	0x3da29dc2	0.07940246
209	0x3d2d7014	0.042343214
210	0x3d29b864	0.041435614
211	0xb92d95e1	-0.000165544
212	0x3c8d358d	0.017237449
213	0xbd881128	-0.06643897
214	0xbe28b8f2	-0.16476801
215	0xbd55c609	-0.052190814
216	0xbd879160	-0.06619525
217	0x3da37be9	0.07982618
218	0xbdb60e86	-0.08889489
219	0xbddf3070	-0.108979106
220	0x3db00875	0.08595363
221	0x3d412167	0.047150996
222	0x3d8a4e69	0.06753237
223	0x3e039376	0.1284922
224	0xbd88f3f9	-0.06687159
225	0x3d80450b	0.06263169
226	0x3d221bc6	0.039577268
227	0xbd8aa12f	-0.067690246
228	0x3d17446a	0.03693048
229	0x3d2d82b1	0.042360965
230	0x3d9ac1a5	0.07556466
231	0xbd86f1f0	-0.06589115
232	0x3dc29c08	0.09502417
233	0x3d9e24a5	0.07721833
234	0x3ed2ce69	0.41173103
235	0x3dc82af7	0.0977382
236	0x3d357779	0.04430339
237	0x3be78f0f	0.0070666145
238	0xbd80b91a	-0.06285305
239	0x3d48694a	0.048928536
240	0xbdb34973	-0.08754244
241	0x3da54695	0.08070103
242	0x3d98dda4	0.074641496
243	0xbd5608ef	-0.052254613
244	0xbf8e9b62	-1.1141169
245	0xbd5f398a	-0.054498233
246	0x3c85e8d6	0.016346376
247	0xbd94c067	-0.0726326
248	0xbd98bcd1	-0.07457889
249	0x3d4eca82	0.050486095
250	0x3da2e8da	0.07954569
251	0x3dc789c7	0.09743076
252	0xbdac9fbc	-0.084289044
253	0x3da2bd01	0.07946206
254	0xbdb1ada9	-0.08675701
255	0x3e95d7fd	0.29266348

exp_avg f4 [70, 2]
0	0x3c163e99	0.009170198
1	0x3a80cc59	0.0009826525
2	0xba037f2c	-0.00050162035
3	0xbb09d608	-0.0021032114
4	0x3bc6f3b7	0.0060715335
5	0x3c70d846	0.014700001
6	0xbac1f17f	-0.0014796703
7	0xba8b3992	-0.0010622016
8	0xbaf9dcd1	-0.0019063001
9	0xba8283df	-0.0009957514
10	0x39aa2a61	0.00032456502
11	0xba86c7c4	-0.0010282923
12	0x3bc6bcab	0.0060649714
13	0x3bdb1d1c	0.0066868197
14	0xbbabe70e	-0.0052460497
15	0xbac9e1e6	-0.0015402406
16	0xba0a1a80	-0.0005268231
17	0xbaa6a3f5	-0.0012713658
18	0x3ad07e4d	0.0015906781
19	0xbb9c662e	-0.004772923
20	0xbb208b5c	-0.0024497127
21	0xbaa06ff1	-0.0012240392
22	0x3a61063c	0.0008583998
23	0x3b9cea9a	0.004788709
24	0xbab9ee47	-0.0014185392
25	0xbaec2633	-0.0018016755
26	0x3b5aeeca	0.003340649
27	0x3b8c64b2	0.0042844648
28	0x3c7ef99f	0.015562444
29	0x3c4b02ef	0.012390836
30	0xbc2bb1ef	-0.010479434
31	0xbaa7cdc2	-0.001280241
32	0x3be4be1a	0.0069806697
33	0xba10328a	-0.0005500695
34	0xba32a330	-0.0006814478
35	0xbc012577	-0.0078824675
36	0x3b405311	0.0029346386
37	0x3bd26a69	0.0064213765
38	0x3b2031cd	0.0024443746
39	0x3ab5ae71	0.0013861192
40	0x3c051c9e	0.008124499
41	0x3b5e8fa4	0.0033960128
42	0x3a0bee4b	0.00053379376
43	0xba01ec40	-0.00049561635
44	0x3b530f18	0.0032205041
45	0xba4ed36e	-0.0007889782
46	0x3ab783dd	0.001400109
47	0x3b16d770	0.0023016594
48	0xb9ba79cf	-0.0003556744
49	0x3b115f17	0.0022181922
50	0xba7e5f2c	-0.0009703513
51	0xb978e474	-0.00023736228
52	0xbbac98f2	-0.005267256
53	0xbb95abfa	-0.0045676203
54	0xbc380726	-0.011232173
55	0x3a928ece	0.0011181475
56	0x3ad86c6b	0.0016511803
57	0x3bd3451a	0.0064474465
58	0x392691b5	0.00015885274
59	0x3c44fbd5	0.012022932
60	0xbb47d913	-0.0030494377
61	0xbb7757f5	-0.0037741635
62	0x3bf078ac	0.007338604
63	0xbbe69202	-0.0070364485
64	0x3c4927e6	0.012277579
65	0x3c12dec3	0.008964243
66	0x3aea0fce	0.0017857493
67	0x3baa7a83	0.005202593
68	0x3b31c613	0.0027126118
69	0x3a204d71	0.00061150553
70	0x39c7610e	0.0003802855
71	0xba245dca	-0.0006270079
72	0x3b8423b1	0.004032575
73	0xbafc4c76	-0.0019248861
74	0x3b14d70f	0.0022711193
75	0x3b3b16c6	0.002854751
76	0x3a8c6068	0.0010709884
77	0x398285e6	0.00024895294
78	0xbd44d174	-0.048051313
79	0xbd0f5f1c	-0.035002813
80	0x3c005c30	0.007834479
81	0x3bcceba6	0.0062536774
82	0x3b246fa2	0.0025090952
83	0xbb90fade	-0.004424437
84	0x3b166279	0.0022946878
85	0x396152d6	0.00021488531
86	0x3b931ecf	0.0044897567
87	0x3d6fbaeb	0.05852787
88	0x3bfeb2a5	0.007772761
89	0x3c8e61a8	0.01738055
90	0xbd9f1c49	-0.07769067
91	0xbd9d2e48	-0.07674843
92	0xbc38b6b4	-0.011274029
93	0x3cc76e74	0.02434466
94	0xbc22c719	-0.009935164
95	0xbb7dfc24	-0.0038755024
96	0x3c63959c	0.01389065
97	0x3c2793aa	0.010228077
98	0x3aba6de3	0.0014223423
99	0xba7bb4b6	-0.0009601818
100	0x39bd98ed	0.00036162828
101	0x391b6eb1	0.00014823188
102	0x3c75abb4	0.0149945505
103	0x3c777843	0.015104356
104	0xbc3043d5	-0.01075836
105	0xbc6684a1	-0.014069707
106	0x3b36521a	0.0027819932
107	0x3a7c3411	0.00096207956
108	0xb91dc29a	-0.00015045181
109	0x3baaac19	0.005208504
110	0x3ba36608	0.0049865283
111	0xbb8524e0	-0.0040632337
112	0xbc3c016a	-0.0114749465
113	0xbbba3844	-0.005682977
114	0x3b1c3ecd	0.0023841143
115	0xba9c0adf	-0.0011905095
116	0xbbe0e9ab	-0.006863793
117	0x3b3367aa	0.002737502
118	0xbb334af0	-0.0027357899
119	0xbaca9b3e	-0.0015457643
120	0x3bd13e03	0.006385566
121	0x3bc84dc0	0.006112784
122	0xba7cee9d	-0.0009648593
123	0xba9284c3	-0.0011178482
124	0x39714576	0.00023009427
125	0x3bac43b5	0.0052570947
126	0x3b3f8ef3	0.0029229491
127	0x3bcf1c48	0.00632051
128	0x3be744cb	0.0070577613
129	0xbbcade30	-0.0061910376
130	0xbad96c65	-0.001658809
131	0xbb1632ab	-0.0022918384
132	0x3bd63324	0.006536858
133	0x3b64db5e	0.0034920792
134	0x3aa5966b	0.0012633329
135	0x3a1f9c4f	0.00060886604
136	0xbc3b5712	-0.011434333
137	0xbba809ac	-0.005128106
138	0xbc70cfe2	-0.014698001
139	0xbc0c06fc	-0.008546587

exp_avg_sq f4 [70, 2]
0	0x3a2d3f6f	0.00066088786
1	0x3b07c345	0.0020715755
2	0x39a02724	0.0003054674
3	0x398216ee	0.00024812616
4	0x39b16d5a	0.00033841544
5	0x3a021cd8	0.00049634045
6	0x38c39f9f	9.328056e-05
7	0x3954178c	0.00020226667
8	0x390467d1	0.00012627176
9	0x37cd439a	2.4469384e-05
10	0x3822e0ad	3.8833055e-05
11	0x386fc3e9	5.7164496e-05
12	0x3b15e52a	0.0022872188
13	0x3b2ec9ef	0.0026670655
14	0x3aba553d	0.0014216077
15	0x3a74e3e0	0.00093418173
16	0x37836919	1.5665357e-05
17	0x3876967c	5.879112e-05
18	0x38e63fc4	0.00010979132
19	0x39d1cbb4	0.00040015357
20	0x3c251e47	0.010078019
21	0x3c102fd7	0.008800468
22	0x3aa173ac	0.0012317798
23	0x3a8ce45e	0.0010749211
24	0x3aebef90	0.0018000472
25	0x3b28f1a7	0.0025778802
26	0x3b398fe7	0.0028314532
27	0x3b231bd0	0.0024888404
28	0x3b27b1d5	0.0025588174
29	0x3ac7cacc	0.0015242933
30	0x3ab2e0d9	0.0013647332
31	0x3a4a8670	0.0007725721
32	0x39c1d430	0.0003696992
33	0x39b8f003	0.00035274038
34	0x3be0fdd6	0.006866197
35	0x3be52ef3	0.006994122
36	0x3a4bcb95	0.00077741715
37	0x3a1badad	0.00059386605
38	0x39f4bdae	0.0004668063
39	0x39a16699	0.00030784754
40	0x3a2d43b2	0.00066095137
41	0x397072ca	0.00022930946
42	0x398f4ea2	0.00027333671
43	0x396100a9	0.00021457918
44	0x39dfa99b	0.0004266024
45	0x38d66ad1	0.00010224211
46	0x3b00a9a2	0.001963236
47	0x3ab672b2	0.001391968
48	0x392b4209	0.00016332431
49	0x3a1a9999	0.00058975216
50	0x388c8207	6.69994e-05
51	0x38368891	4.351937e-05
52	0x3a1be032	0.00059461885
53	0x3a9fe683	0.0012199435
54	0x3b170a33	0.002304685
55	0x3b198b12	0.002342884
56	0x390cca78	0.00013426866
57	0x39c62c4f	0.00037798515
58	0x38542246	5.057666e-05
59	0x39e8e215	0.00044418933
60	0x3b3248de	0.0027204077
61	0x39f6a87c	0.00047046307
62	0x39a6bb7b	0.0003180167
63	0x3940f12d	0.00018400392
64	0x3af8aaf8	0.0018971851
65	0x3b207133	0.0024481534
66	0x3a69a0b9	0.0008912194
67	0x39ba48f5	0.00035531042
68	0x3ad94695	0.0016576821
69	0x3a608608	0.0008564894
70	0x38aa7675	8.128296e-05
71	0x38fdaaed	0.000120958175
72	0x3af53319	0.0018707245
73	0x3b082b04	0.0020777592
74	0x390cadba	0.00013416159
75	0x3993e66e	0.00028209708
76	0x3afb5197	0.0019174096
77	0x3a7cdaf6	0.0009645665
78	0x3c2385e3	0.009980652
79	0x3c14af6f	0.00907503
80	0x3acd3bf7	0.001565813
81	0x3a645e49	0.00087115593
82	0x39a73370	0.00031891046
83	0x3acd7742	0.00156758
84	0x391f3e3a	0.00015186603
85	0x39c780db	0.00038052243
86	0x3c33f9d4	0.010984857
87	0x3c1507c2	0.009096088
88	0x3c8aff24	0.016967364
89	0x3c72e268	0.014824487
90	0x3caa32b4	0.02077613
91	0x3c84bc42	0.01620305
92	0x3c3b42b7	0.01142948
93	0x3c2b9ca0	0.010474354
94	0x3b8cbfed	0.0042953403
95	0x3b7a659e	0.0038207541
96	0x3b138962	0.0022512306
97	0x3a7ad971	0.00095691445
98	0x383b436d	4.464707e-05
99	0x38949d1a	7.0864524e-05
100	0x388380ed	6.270581e-05
101	0x388b7894	6.650496e-05
102	0x3b6843f2	0.003544089
103	0x3b88b85e	0.004172369
104	0x3a1aed92	0.00059100345
105	0x3aaf8f9a	0.0013394237
106	0x3903c897	0.00012567859
107	0x39a0b0c9	0.00030649293
108	0x3987abc6	0.00025877188
109	0x3ac4ab23	0.0015004616
110	0x3a188808	0.000581861
111	0x38ba5808	8.885568e-05
112	0x3c0c7e46	0.008575028
113	0x3c1960fa	0.0093615
114	0x3ad1bea5	0.0016002251
115	0x3a6ea785	0.0009103942
116	0x3b83fef0	0.0040281937
117	0x3b5c6040	0.0033626705
118	0x3a62ee63	0.0008656738
119	0x3a46cc82	0.00075835746
120	0x3c9d7856	0.01922242
121	0x3c944728	0.018100336
122	0x390c1dcf	0.00013362545
123	0x38b50f66	8.633621e-05
124	0x3915b087	0.00014275509
125	0x3a178fda	0.00057816284
126	0x3bc3298a	0.0059558796
127	0x3be9f89a	0.0071402313
128	0x398b0da3	0.00026522306
129	0x39908601	0.0002756566
130	0x3960b12c	0.00021428306
131	0x39d790c5	0.00041115857
132	0x3996a2d5	0.0002873155
133	0x393f96b4	0.00018271321
134	0x38325fa1	4.252757e-05
135	0x39096b50	0.00013105315
136	0x3bf59fac	0.007495841
137	0x3bc6f343	0.0060714795
138	0x3a820ff4	0.0009922967
139	0x3a675481	0.0008824543
