lightning_logs/version_26/checkpoints/epoch=31-step=12576.ckpt (torch, 37950 bytes, 15 tensors)

lstm.weight_ih_l0 f4 [400, 2]
0.039223794 0.14642504 0.005810948 0.13422447 -0.003220824 0.116910435 0.0074685863 0.083847195
0.09953647 0.12514818 -0.10660485 0.09567543 0.15394643 0.18923171 -0.053093184 -0.06941539
-0.05138469 -0.013739877 0.119247094 0.14110094 0.020004317 0.052301865 -0.009590233 -0.13026471
-0.008745342 0.07778874 0.14565244 -0.021720601 -0.116201766 0.022406353 -0.073284335 0.00091464265
0.18168035 0.105332725 0.00079605554 -0.12389428 0.0869425 -0.046665784 0.1308666 0.055998206
-0.0008953874 0.1047573 0.12103581 0.11640262 0.1626376 0.10075254 0.22275965 0.20348266
0.11930285 -0.020235166 -0.05941299 0.0155921485 0.117321506 0.08907536 -0.03447197 -0.009006532
-0.09602783 0.044043347 -0.084477924 0.033230305 -0.057205036 -0.03906826 0.14196579 0.13105707
-0.0082523 -0.07742628 0.017930783 0.1837684 -0.045418225 -0.041025914 -0.08658118 -0.018140193
-0.07922167 0.0005826817 0.09716147 -0.07360671 -0.05116178 0.13534023 0.090461165 0.14963989
0.04915702 0.056049276 -0.02454964 -0.115602225 -0.07589976 -0.007017581 0.020012151 0.07628506
-0.033043366 -0.13586368 0.0425899 0.1827947 0.1396476 0.058076154 -0.14452189 0.041748613
0.17899024 0.1386139 0.1914127 0.13899288 -0.09936481 -0.010872351 -0.13017549 0.031464316
-0.088281274 0.0066431877 0.080220684 0.17481214 0.13963394 0.054310396 0.12531266 0.05132767
-0.15196757 -0.004233499 -0.013707123 -0.07036661 0.0036569773 -0.08751313 -0.023001848 0.13748676
0.08524116 0.094478875 -0.08183789 -0.02339761 0.14390305 0.11941314 0.13450909 0.10289828
0.007788142 0.08523734 0.14629172 0.08482769 0.117473595 0.15460622 0.0679387 0.12710732
-0.084949814 0.048909023 -0.11674266 0.01689182 -0.026030641 -0.009258367 -0.103442185 -0.0020620923
0.08044932 0.08491054 0.21633106 0.074387625 -0.051790293 -0.0006822422 -0.06479934 0.010286506
0.10830577 0.09285924 0.23364247 0.17056358 -0.01610644 -0.10040209 0.18115 0.21961498
0.15474157 0.09699725 -0.015606165 -0.03352944 0.12360813 0.1392213 -0.077943474 -0.022241442
-0.057077497 -0.034193378 0.14219953 0.05963664 0.055225875 0.12831604 0.0052797613 -0.061096
0.03611158 0.18161911 -0.039882664 -0.026352443 0.08825899 0.04509719 -0.044457242 -0.034731958
0.2024488 0.07212427 0.10883712 0.14464083 -0.06336692 -0.016678505 -0.051645726 -0.02448296
0.12114587 0.037229408 0.035864495 0.105323344 -0.036470342 0.1103571 -0.011708577 -0.06766981
0.013760361 -0.003931685 -0.04141769 0.044541627 -0.0054404316 -0.010579275 0.041793264 -0.030465322
0.14266321 0.105714895 -0.012105166 0.09467711 0.045895983 0.12696491 0.007725638 0.035191633
0.07228889 0.054398503 0.09890445 0.14462623 0.004993989 0.009568169 0.069008335 0.022846997
0.08230919 -0.01949886 0.03177016 -0.0014129562 0.052860197 0.07510834 0.00060257065 0.044350352
0.08768745 0.07677354 0.052496314 0.028467564 0.10460717 -0.0027599297 0.041869905 0.10095329
0.0031207402 0.0030047977 -0.010773364 0.022559665 0.035294853 0.004800396 0.035651956 -0.01754754
-0.021075172 0.03576379 0.08800388 -0.063220054 0.14167342 0.19113162 0.099464744 0.1038025
00000000: 21a9 203d 72f0 153e c469 be3b 2472 093e
00000010: 7614 53bb bd6e ef3d 0bbb f43b 14b8 ab3d
00000020: c7d9 cb3d d826 003e a553 dabd 7bf1 c33d
00000030: 22a4 1d3e f5c5 413e 3d78 59bd a829 8ebd
00000040: c178 52bd 391d 61bc d237 f43d c47c 103e
00000050: 18e0 a33c 7b3a 563d 5a20 1dbc 1d64 05be
00000060: 9f48 0fbc b44f 9f3d ea25 153e 67ef b1bc
00000070: 31fb edbd 878d b73c 1916 96bd a1c4 6f3a
00000080: 6a0a 3a3e afb8 d73d 62ae 503a 49bc fdbd
00000090: e90e b23d 9f24 3fbd e501 063e 605e 653d
000000a0: 6eb8 6aba ff8a d63d 9fe1 f73d 7f64 ee3d
000000b0: 798a 263e 5957 ce3d 1b1b 643e c25d 503e
000000c0: 0d55 f43d 38c4 a5bc 095b 73bd 3676 7f3c
000000d0: 4246 f03d 246d b63d 7b32 0dbd 2290 13bc
000000e0: 3daa c4bd cc66 343d c302 adbd 801c 083d
000000f0: d44f 6abd 0a06 20bd 7b5f 113e d333 063e
00000100: a834 07bc ab91 9ebd 94e3 923c c92d 3c3e
00000110: 7608 3abd ca0a 28bd 7951 b1bd be9a 94bc
00000120: f93e a2bd 1bbf 183a 98fc c63d 1dbf 96bd
00000130: 048f 51bd a196 0a3e b443 b93d 333b 193e
00000140: df58 493d ed93 653d 541c c9bc dcc0 ecbd
00000150: 5571 9bbd bcf3 e5bb 86f0 a33c 573b 9c3d
00000160: 7b58 07bd d91f 0bbe bf72 2e3d 892e 3b3e
00000170: c8ff 0e3e 43e1 6d3d 8cfd 13be 9800 2b3d
00000180: 3849 373e cdf0 0d3e b101 443e 2654 0e3e
00000190: c77f cbbd f221 32bc b94c 05be bae0 003d
000001a0: d0cc b4bd 19af d93b be4a a43d f401 333e
000001b0: 33fc 0e3e 9474 5e3d f651 003e f73c 523d
000001c0: 639d 1bbe 2ab9 8abb d793 60bc 5f1c 90bd
000001d0: e6a9 6f3b 153a b3bd 5f6e bcbc 54c9 0c3e
000001e0: eb92 ae3d 247e c13d a09a a7bd 58ac bfbc
000001f0: 525b 133e e08e f43d c0bc 093e 55bc d23d
00000200: ac33 ff3b ea90 ae3d 7fcd 153e 24ba ad3d
00000210: ff95 f03d 1851 1e3e 7223 8b3d 6c28 023e
00000220: 2bfa adbd d454 483d c716 efbd b760 8a3c
00000230: 363e d5bc 68b0 17bc 7fd9 d3bd 2b24 07bb
00000240: 9dc2 a43d 94e5 ad3d e485 5d3e 8a58 983d
00000250: 0f22 54bd 80d8 32ba 84b5 84bd bc88 283c
00000260: 6acf dd3d fc2c be3d f93f 6f3e 38a8 2e3e
00000270: a7f1 83bc 9c9f cdbd 637f 393e c0e2 603e
00000280: 9374 1e3e 7fa6 c63d 00b1 7fbc 2b56 09bd
00000290: 4226 fd3d 0790 0e3e d4a0 9fbd af33 b6bc
000002a0: 18ca 69bd 5b0e 0cbd c19c 113e 8d45 743d
000002b0: 8734 623d 4865 033e d901 ad3b cd3f 7abd
000002c0: bce9 133d 5cfa 393e 015c 23bd 14e1 d7bc
000002d0: 21c1 b43d d5b7 383d cc18 36bd 1943 0ebd
000002e0: bd4e 4f3e e4b5 933d ffe5 de3d ba1c 143e
000002f0: 84c6 81bd 5ca1 88bc 788a 53bd 7d90 c8bc
00000300: 531b f83d dd7d 183d a6e6 123d c4b3 d73d
00000310: ed61 15bd e702 e23d 55d5 3fbc 7896 8abd
00000320: 2373 613c 5dd5 80bb 99a5 29bd 4871 363d
00000330: a645 b2bb b254 2dbc 6a2f 2b3d 6992 f9bc
00000340: 4e16 123e 0d81 d83d bf54 46bc 13e6 c13d
00000350: 6dfd 3b3d 1703 023e 5927 fd3b 1a25 103d
00000360: 330c 943d f7d0 5e3d 6b8e ca3d e618 143e
00000370: 9ea4 a33b cfc3 1c3c 3e54 8d3d a029 bb3c
00000380: b891 a83d 13bc 9fbc 6d21 023d f132 b9ba
00000390: ef83 583d 67d2 993d d5f5 1d3a b7a8 353d
000003a0: 7a95 b33d 723b 9d3d 6006 573d cf34 e93c
000003b0: 493c d63d f0df 34bb c77f 2b3d 99c0 ce3d
000003c0: 5585 4c3b 24ec 443b c482 30bc 0ccf b83c
000003d0: 5691 103d a44c 9d3b c907 123d dcbf 8fbc
000003e0: d7a5 acbc 0d7d 123d 613b b43d 8479 81bd
000003f0: d612 113e 02b8 433e 2cb4 cb3d 6896 d43d

lstm.weight_hh_l0 f4 [400, 2]
0.0030735042 0.0648216 0.09200762 -0.027874714 0.025512181 0.04848145 0.14274058 -0.021690056
-0.19196658 -0.13783643 -0.018610442 0.055598233 0.007368887 0.07484211 0.13659647 0.014618709
0.09158117 -0.024868067 0.092497244 -0.005771081 0.15678057 0.0060253395 0.06767228 0.1079667
-0.061838873 0.045145813 0.09853262 0.11621644 0.06923345 0.04492452 0.018861344 0.05617752
-0.07824512 -0.035878293 0.15033132 0.006360396 0.21909247 0.16008592 -0.1354956 -0.14067534
0.019514747 0.046181936 0.11756783 0.09417197 0.004964656 -0.09579146 0.027465804 0.011052279
0.028358549 -0.0041647274 -0.01652949 0.054565657 -0.19231586 -0.10592838 0.1468739 0.12692517
0.04061859 0.009085361 -0.030600185 0.099207215 0.07518662 0.03612195 -0.18131746 -0.10618373
0.09736257 0.095268495 -0.09990424 -0.16261944 0.094146825 0.0005118926 0.058232985 0.06219802
0.050932422 0.033243872 0.11384723 0.08881175 0.071172476 0.10683534 -0.031832896 -0.1058057
0.02016143 0.055268288 -0.14636973 -0.009071987 0.09410984 0.007962809 0.16729146 0.09587679
0.10801715 -0.00024721885 -0.14237675 -0.16215385 -0.17237698 -0.11930261 -0.012842398 0.13078858
0.06366732 0.12341434 0.060725812 0.011530495 0.113899715 0.12297669 0.06728326 0.04970914
0.07872577 0.011823387 -0.15621796 -0.15798801 -0.024252102 -0.0053698444 0.028640041 0.08546589
0.08667414 0.098488584 0.03792604 0.06164088 0.07562382 0.02752507 -0.098559804 -0.008908686
0.08445044 0.026461633 0.029119484 0.09249028 0.021422373 -0.0946388 -0.14985275 -0.18071091
-0.0011589176 0.11337582 0.012612232 0.018807305 -0.05416661 -0.025718668 -0.1387013 -0.15392548
0.006556353 0.025365792 0.108623795 0.00840316 -0.039251056 -0.109253675 0.06562657 0.0691134
0.012959873 0.04947392 -0.0368722 0.009068766 -0.079466425 -0.093078285 0.0772918 -0.02801431
-0.16859245 -0.12684909 0.10353937 -0.044923004 0.10005789 0.021460759 0.061211318 0.057570882
-0.1341228 -0.20921035 -0.16601938 -0.15724295 -0.19727674 -0.16216837 0.0144336615 0.10081118
-0.008717272 0.109165 0.15887637 0.15188073 -0.018068746 0.023312494 0.093828075 0.15963963
0.06548117 -0.013307116 0.029704489 0.041442767 -0.08989973 0.07729931 0.012833494 0.07179493
0.12836012 0.15291384 -0.12348252 -0.23425971 0.014966891 0.071340404 0.042075075 0.039657537
0.056606818 0.14890577 0.059797112 -0.082861446 0.07770529 0.12725826 0.092756465 -0.00043752772
0.12590498 0.13342328 0.10317006 0.13148113 0.17164324 0.17744844 0.13132404 0.019130409
-0.10538209 -0.08512752 0.046678107 -0.11249784 -0.008221284 -0.03891171 0.12416093 0.08821712
0.050810806 0.081150465 -0.08969779 -0.056821786 -0.0065453555 0.13542129 0.042644948 0.11093215
0.15986905 0.098063596 -0.070231296 0.058750745 0.028499754 0.12691797 0.033765633 0.06504423
0.01929861 0.061329197 0.13445604 -0.021977527 0.15037994 0.12892477 -0.05177622 -0.033780742
0.058515072 0.15285417 0.06706201 0.104384765 -0.05533149 0.10108182 -0.03656477 0.035809774
0.1504559 0.038463652 -0.006280437 0.12784345 -0.1567752 -0.120961405 -0.010590223 0.016314358
00000000: d86c 493b 30c1 843d 7e6e bc3d 8359 e4bc
00000010: ecfe d03c 7c94 463d 962a 123e 58af b1bc
00000020: e392 44be fe24 0dbe ed74 98bc f9ba 633d
00000030: b476 f13b d246 993d f2df 0b3e 4f83 6f3c
00000040: e98e bb3d 1eb8 cbbc 326f bd3d 561b bdbb
00000050: 168b 203e 3670 c53b c497 8a3d a51d dd3d
00000060: c24a 7dbd d1ea 383d 78cb c93d e302 ee3d
00000070: 44ca 8d3d c602 383d 1b83 9a3c 661a 663d
00000080: fa3e a0bd 1ef5 12bd 74f0 193e de6a d03b
00000090: c759 603e 90ed 233e 5cbf 0abe 320d 10be
000000a0: 64dd 9f3c 4529 3d3d 67c7 f03d 3cdd c03d
000000b0: 8eae a23b 502e c4bd f7ff e03c 9e14 353c
000000c0: 3050 e83c 4478 88bb da68 87bc 3d80 5f3d
000000d0: 73ee 44be faf0 d8bd 1d66 163e acf8 013e
000000e0: ae5f 263d c4da 143c 3dad fabc 272d cb3d
000000f0: 71fb 993d 9cf4 133d 49ab 39be db76 d9bd
00000100: 0766 c73d 211c c33d 989a ccbd b685 26be
00000110: 0dd0 c03d 8830 063a b685 6e3d 5ac3 7e3d
00000120: 849e 503d ba2a 083d bd28 e93d efe2 b53d
00000130: e0c2 913d 7dcc da3d 3663 02bd a9b0 d8bd
00000140: 9529 a53c 0061 623d f2e1 15be aca2 14bc
00000150: a9bc c03d 7176 023c 744e 2b3e 0d5b c43d
00000160: 1838 dd3d 279d 81b9 36cb 11be a90b 26be
00000170: 9783 30be ed54 f4bd ec68 52bc 71ed 053e
00000180: 0364 823d a8c0 fc3d a1bb 783d 67ea 3c3c
00000190: 4144 e93d 34db fb3d cecb 893d d09b 4b3d
000001a0: fa3a a13d e1b6 413c 9af7 1fbe 9cc7 21be
000001b0: 58ac c6bc 85f5 afbb 859e ea3c be08 af3d
000001c0: 3682 b13d 62b4 c93d 5658 1b3d 267b 7c3d
000001d0: a9e0 9a3d 417c e13c b9d9 c9bd bdf5 11bc
000001e0: 5af4 ac3d 11c6 d83c fc8b ee3c 8b6b bd3d
000001f0: f97d af3c fdd1 c1bd 0073 19be 480c 39be
00000200: d2e6 97ba 9531 e83d 89a3 4e3c c711 9a3c
00000210: cfdd 5dbd f5af d2bc b707 0ebe a49e 1dbe
00000220: add6 d63b eccb cf3c 2776 de3d 68ad 093c
00000230: b7c5 20bd 64c0 dfbd 3967 863d 548b 8d3d
00000240: a655 543c 2aa5 4a3d 4e07 17bd 2995 143c
00000250: 4bbf a2bd d49f bebd 2a4b 9e3d 447e e5bc
00000260: 80a3 2cbe bae4 01be 730c d43d 2f01 38bd
00000270: 27eb cc3d 79ce af3c b8b8 7a3d 72cf 6b3d
00000280: 7d57 09be 3d3b 56be fc00 2abe 4c04 21be
00000290: ea02 4abe 770f 26be 2a7b 6c3c 1876 ce3d
000002a0: e4d2 0ebc e691 df3d 7db0 223e 9f86 1b3e
000002b0: e804 94bc d8f9 be3c ef28 c03d 9278 233e
000002c0: fe1a 863d 1706 5abc d456 f33c e4bf 293d
000002d0: 5a1d b8bd 1a4f 9e3d 9343 523c 3809 933d
000002e0: d670 033e 7295 1c3e 67e4 fcbd c7e1 6fbe
000002f0: b137 753c eb1a 923d ea56 2c3d f16f 223d
00000300: 8ddc 673d c17a 183e d1ed 743d 43b3 a9bd
00000310: f323 9f3d fd4f 023e 1af7 bd3d fa63 e5b9
00000320: 3ced 003e 1da0 083e d34a d33d fda2 063e
00000330: 3fc3 2f3e 0bb5 353e cf79 063e 60b7 9c3c
00000340: 91d2 d7bd 5657 aebd 8b31 3f3d 4465 e6bd
00000350: 90b2 06bc e361 1fbd 1648 fe3d 2dab b43d
00000360: fe1e 503d 3732 a63d 7ab3 b7bd f6bd 68bd
00000370: 6c7a d6bb e1ab 0a3e 78ac 2e3d 6530 e33d
00000380: b6b4 233e 91d5 c83d 6dd5 8fbd 9fa4 703d
00000390: 5178 e93c c9f6 013e d54d 0a3d e935 853d
000003a0: 1e18 9e3c 5334 7b3d d8ae 093e 370a b4bc
000003b0: 33fd 193e db04 043e 4d13 54bd ad5d 0abd
000003c0: 80ad 6f3d ce85 1c3e cf57 893d aec7 d53d
000003d0: 46a3 62bd fc03 cf3d f1c4 15bd 45ad 123d
000003e0: 1d11 1a3e 108c 1d3d 20cc cdbb 65e9 023e
000003f0: ae89 20be 9dba f7bd 9d82 2dbc b0a5 853c

lstm.bias_ih_l0 f4 [400]
0.0705167 0.075940676 0.01806848 0.043965805 -0.1914794 -0.106297605 0.15691316 0.023269909
0.017462935 0.16556919 0.18646836 -0.100726604 -0.105115436 0.13199708 -0.17334855 0.050990097
0.16877864 -0.00874444 -0.19093485 -0.2207429 0.09905176 0.13079056 0.165005 0.16747476
0.023157816 0.08978083 -0.07747243 0.03651615 0.018761784 0.070110254 0.012210801 -0.38125426
-0.10889 -0.27743766 0.034449756 -0.049083482 -0.059171833 0.095900096 -0.28404906 -0.0067354427
0.015504931 -0.11524555 -0.25827843 0.07360279 -0.099532284 -0.48201337 -0.1826046 -0.10386939
0.12116672 0.16618313 -0.022051143 0.03369246 0.047483638 -0.3310175 0.1406362 0.0007004341
0.0076704933 -0.008219977 0.0051130676 0.014929684 0.13359025 -0.05760839 0.11807144 -0.31142205
0.040158782 0.115676485 0.01821681 -0.20561752 0.009861173 -0.055331804 0.048582017 -0.10506236
0.16345152 0.040715594 0.16018835 0.112225845 -0.13099019 0.16750124 0.054140944 0.254889
-0.33713338 0.09386494 0.069734 0.02021068 0.09768879 0.040015884 0.15678827 0.15543689
0.1959118 -0.06222746 0.09285247 0.045230538 0.27726033 -0.22834979 0.024371272 0.08736828
0.14310117 0.15161847 -0.14981632 0.11243842 0.004946273 -0.013136341 0.03160528 0.08183418
-0.16918325 -0.20671184 -0.054818574 -0.009246362 0.16581066 0.0069343015 0.12452766 0.106317416
0.071168736 -0.05862114 0.093191884 -0.0036585669 -0.07766169 -0.068385 0.0592793 -0.14225394
0.078490645 0.089571424 -0.03677308 -0.16065942 0.058959723 -0.017214403 -0.09029509 0.118630774
0.082691096 0.044834826 0.08932617 -0.23403785 0.12184418 -0.25636417 0.044651948 0.07458126
0.106898695 -0.009272905 0.091117285 0.07948225 -0.03090609 0.014484016 -0.141032 0.082341455
0.021770198 -0.046796072 -0.28945154 0.016172085 -0.024694322 0.14463589 0.090798244 0.11441531
0.026225671 -0.18606015 0.1357714 -0.0012384225 -0.005111417 0.009356863 0.034486752 -0.017414745
0.08564146 0.04387108 -0.0056638108 -0.14515965 0.09016795 -0.08990897 0.021260386 -0.135852
0.0070347507 -0.023617033 -0.07134078 0.06750257 -0.08309572 0.10672697 -0.046413016 -0.048103653
-0.23900521 0.050548155 0.097223096 -0.008105619 -0.24851972 -0.03324853 -0.010819266 0.098226085
0.13430142 0.0006415833 -0.076017365 -0.0017564094 0.112970546 0.054822132 0.06361037 0.07484239
0.0897805 -0.23424037 0.016539766 -0.03629179 -0.14145239 -0.03683439 0.013449357 0.012397461
0.16592364 0.012395937 0.17347825 -0.10353676 -0.18929496 -0.16752343 -0.15553062 -0.11792296
-0.025933912 0.14128639 -0.08158588 0.15417519 -0.10892614 -0.02690742 0.15084155 -0.03060328
0.05123874 -0.17086178 0.083157435 0.16528423 -0.034434 -0.1066222 0.03297982 -0.06905351
0.03311841 -0.17735778 0.17100823 0.0058705746 -0.08206555 -0.019386997 0.011663988 0.087379746
0.11395398 -0.027646467 -0.049039543 -0.14785329 0.009096603 0.0350775 0.04191814 0.14013802
0.012874183 -0.011472616 -0.12194056 0.09980377 0.046378125 0.20780165 -0.18360299 -0.16100515
-0.031934686 -0.034137744 0.13057336 0.012004841 0.06869096 0.10291586 -0.017489122 -0.21615866
00000000: 0f6b 903d c986 9b3d 5904 943c 7d15 343d
00000010: 2d13 44be 8fb2 d9bd d8ad 203e 89a0 be3c
00000020: 6e0e 8f3c f88a 293e 90f1 3e3e c049 cebd
00000030: c346 d7bd 3e2a 073e 4882 31be feda 503d
00000040: 4fd4 2c3e d744 0fbc 6d84 43be 6d0a 62be
00000050: a6db ca3d f6ed 053e 12f7 283e 817e 2b3e
00000060: 76b5 bd3c 03df b73d dea9 9ebd f591 153d
00000070: 50b2 993c f795 8f3d d00f 483c c233 c3be
00000080: b801 dfbd 4f0c 8ebe 301b 0d3d c30b 49bd
00000090: 2a5e 72bd 4567 c43d e16e 91be fdb4 dcbb
000000a0: 6508 7e3c dc05 ecbd 123d 84be 0fbd 963d
000000b0: 95d7 cbbd 75ca f6be b3fc 3abe 7ab9 d4bd
000000c0: 4226 f83d e92b 2a3e 99a4 b4bc 1b01 0a3d
000000d0: 347e 423d 207b a9be f002 103e 569d 373a
000000e0: c358 fb3b 15ad 06bc 858b a73b a29b 743c
000000f0: e2cb 083e c6f6 6bbd 70cf f13d b672 9fbe
00000100: 897d 243d cbe7 ec3d 6b3b 953c 668d 52be
00000110: c290 213c 9aa3 62bd f0fd 463d ef2a d7bd
00000120: d65f 273e 65c5 263d 6a08 243e aad6 e53d
00000130: 4b22 06be 7285 2b3e e5c2 5d3d d080 823e
00000140: bf9c acbe 433c c03d b3d0 8e3d de90 a53c
00000150: 0f11 c83d b2e7 233d 1b8d 203e d92a 1f3e
00000160: 1a9d 483e 39e2 7ebd 7029 be3d a843 393d
00000170: 11f5 8d3e 87d4 69be 43a6 c73c 24ee b23d
00000180: 1d89 123e df41 1b3e 7369 19be 1d46 e63d
00000190: 5814 a23b cf39 57bc 8a74 013d ae98 a73d
000001a0: 603e 2dbe 45ac 53be 7189 60bd 0e7e 17bc
000001b0: 45ca 293e 2339 e33b 5c08 ff3d f2bc d93d
000001c0: eac0 913d b81c 70bd 63db be3d 91c4 6fbb
000001d0: 180d 9fbd 6f0d 8cbd dace 723d 04ab 11be
000001e0: b4bf a03d 3971 b73d 5e9f 16bd e783 24be
000001f0: c07f 713d 3805 8dbc a2ec b8bd b1f4 f23d
00000200: f359 a93d b9a4 373d a4f0 b63d 9ea7 6fbe
00000210: 7189 f93d 2a42 83be f6e4 363d 0fbe 983d
00000220: b4ed da3d 62ed 17bc b39b ba3d 97c7 a23d
00000230: c52e fdbc 5e4e 6d3c b16a 10be a3a2 a83d
00000240: 6a57 b23c 3dad 3fbd fe32 94be 527b 843c
00000250: bf4b cabc 6e1b 143e 6ef4 b93d 9352 ea3d
00000260: 38d7 d63c 8d86 3ebe a807 0b3e 9052 a2ba
00000270: ac7d a7bb 874d 193c fb41 0d3d 5ea9 8ebc
00000280: ca64 af3d 29b2 333d 7d97 b9bb bba4 14be
00000290: f9a9 b83d 3222 b8bd 432a ae3c c91c 0bbe
000002a0: c483 e63b 8278 c1bc 1d1b 92bd ca3e 8a3d
000002b0: 172e aabd ab93 da3d 931b 3ebd 5608 45bd
000002c0: c8bd 74be 950b 4f3d e71c c73d 6ecd 04bc
000002d0: f47b 7ebe 9c2f 08bd 4a43 31bc c22a c93d
000002e0: 5086 093e ed2f 283a feae 9bbd 5237 e6ba
000002f0: 1a5d e73d 2c8d 603d 2746 823d f846 993d
00000300: d7de b73d b5dc 6fbe 677e 873c b3a6 14bd
00000310: e5d8 10be a8df 16bd b15a 5c3c b81e 4b3c
00000320: e3e7 293e 5418 4b3c 48a4 313e 150b d4bd
00000330: 8ad6 41be 438b 2bbe 6b43 1fbe 9881 f1bd
00000340: 5b73 d4bc 61ad 103e 7f16 a7bd 1ae0 1d3e
00000350: ab14 dfbd f36c dcbc 3576 1a3e bbb3 fabc
00000360: b7df 513d 64f6 2ebe 724e aa3d 4540 293e
00000370: aa0a 0dbd bd5c dabd d915 073d ed6b 8dbd
00000380: 2ba7 073d 479d 35be c81c 2f3e f35d c03b
00000390: fc11 a8bd 7bd1 9ebc 501a 3f3c 27f4 b23d
000003a0: b460 e93d d87a e2bc b0dd 48bd da66 17be
000003b0: eb09 153c 6dad 0f3d 5bb2 2b3d 5780 0f3e
000003c0: 3dee 523c a4f7 3bbc f9bb f9bd eb65 cc3d
000003d0: fdf6 3d3d f5c9 543e 6c02 3cbe 89de 24be
000003e0: f2cd 02bd 05d4 0bbd 06b5 053e f4af 443c
000003f0: d9ad 8c3d 8dc5 d23d 5945 8fbc b258 5dbe

lstm.bias_hh_l0 f4 [400]
0.029136077 0.12680079 0.111297786 0.095032305 -0.14748716 -0.054132313 0.07896675 -0.09438473
0.06354225 0.05877475 0.06134272 -0.014998289 0.011845604 -0.008834948 -0.1327935 0.06941963
0.12875134 -0.044685036 -0.12395995 -0.21371931 0.09133325 0.13038789 0.13007735 0.21679299
0.059259664 0.046776596 -0.13409829 0.16447525 -0.013991274 -0.09741852 -0.084089644 -0.39055645
-0.15248556 -0.28237158 0.15431166 -0.057491094 -0.03434098 0.10415918 -0.28458822 0.046101797
0.13305698 0.037720393 -0.16274644 0.12138155 -0.039524008 -0.4388509 -0.20336345 -0.040715046
0.2250268 0.15687792 0.080902874 -0.12566955 -0.048542123 -0.32619742 0.21175145 0.088206075
-0.13512084 0.03199492 -0.052518785 0.11051419 0.20144865 0.05682609 0.15186626 -0.3874219
-0.02429075 0.050039735 -0.039919417 -0.33089614 -0.05846594 -0.12634693 0.00783618 -0.08284706
0.09523664 0.1289396 0.08173025 0.073804334 -0.08156754 0.15551989 0.03021463 0.18651836
-0.3159697 0.13165227 -0.06256417 -0.09361868 0.016138155 0.009972787 0.02195999 0.17168638
0.23640023 -0.00500002 0.1300178 0.10006855 0.26912305 -0.17288452 0.10438011 -0.0142235635
0.033276085 0.048241552 0.035959475 0.020680694 -0.009838233 0.10772057 0.1003861 0.0058737784
-0.08460387 -0.21340404 0.09956045 0.005782304 0.08810499 0.19680703 0.08036392 -0.06473045
-0.022215802 -0.15354863 -0.012593344 0.0682742 -0.008596755 0.058691416 0.12282655 -0.2715864
0.069771454 0.1579645 0.045045458 -0.089914605 0.04907318 0.00363 -0.097056165 0.05613796
0.124614775 -0.0016189236 -0.02894696 -0.07923503 0.17654154 -0.18930621 0.011602448 -0.059505243
-0.028542843 -0.052102767 0.03306115 -0.05384476 0.09351293 -0.0146461995 -0.10464121 0.09168041
-0.0015438156 0.12897499 -0.21853094 0.042806946 0.031398315 0.16857944 0.10301064 0.026321441
0.017430518 -0.13955462 0.15355302 -0.056067396 0.15729296 0.028792541 -0.007295348 -0.010638238
0.13144657 0.14010854 0.130079 -0.12207959 0.020156872 -0.12202674 0.12300951 -0.20419604
-0.07768711 0.07489513 0.005024154 0.024516003 -0.04705378 0.037000038 0.066449665 0.002479797
-0.20824416 -0.04259081 0.0062911133 -0.016371395 -0.254001 0.07535615 -0.02700774 0.046554092
0.04439897 0.026183644 0.02906375 -0.056977324 0.14671265 0.025901284 0.09179805 0.12707734
0.022494752 -0.12545775 0.117413335 0.04592531 -0.027312594 0.084544204 0.08758621 0.059568793
0.051312648 0.04943401 0.20734142 -0.08684415 -0.08471753 0.016748145 -0.139085 -0.033558413
-0.008209394 0.09456303 0.08650902 0.024555292 -0.13376147 -0.05764976 -0.0059849024 0.032151826
0.058491826 -0.20516247 0.11560072 0.12939113 0.0026571127 -0.17537275 -0.06474544 -0.13655294
-0.124015525 -0.1255244 -0.00489082 0.083007045 -0.07571528 -0.07666093 -0.09155627 0.049769856
0.08694743 -0.0052113994 -0.040717673 -0.09751041 0.016165216 0.09099179 0.09740382 0.008837092
0.027097423 0.052471504 0.03271387 0.03731368 0.053863473 0.34998092 -0.09546817 -0.14593245
0.035263494 -0.029793775 0.024349239 -0.14112124 0.13542482 0.15437733 0.148505 -0.10129471
00000000: c8ae ee3c 11d8 013e 18f0 e33d 4ca0 c23d
00000010: e006 17be d8b9 5dbd 52b9 a13d c84c c1bd
00000020: 7022 823d cbbd 703d 8142 7b3d 62bb 75bc
00000030: 1014 423c 75c0 10bc 05fb 07be e12b 8e3d
00000040: 64d7 033e a807 37bd b7de fdbd 3cd9 5abe
00000050: ed0c bb3d 6784 053e ff32 053e fbfe 5d3e
00000060: 43ba 723d d198 3f3d 1051 09be 336c 283e
00000070: a83b 65bc 5c83 c7bd 3137 acbd 04f7 c7be
00000080: 2d25 1cbe 0293 90be e003 1e3e c87b 6bbd
00000090: 21a9 0cbd 6851 d53d 8cb5 91be 3dd5 3c3d
000000a0: 1740 083e b380 1a3d 01a7 26be e496 f83d
000000b0: ede3 21bd 11b1 e0be 823e 50be d2c4 26bd
000000c0: 6d6d 663e 9ba4 203e 68b0 a53d 85af 00be
000000d0: 1bd4 46bd 5903 a7be 5fd5 583e 63a5 b43d
000000e0: 1e5d 0abe 1b0d 033d f01d 57bd 4355 e23d
000000f0: 8e48 4e3e 79c2 683d d482 1b3e 2a5c c6be
00000100: 65fd c6bc 77f6 4c3d 8b82 23bd 386b a9be
00000110: fb79 6fbd 1761 01be 5263 003c b8ab a9bd
00000120: 6d0b c33d be08 043e 3062 a73d ba26 973d
00000130: e20c a7bd 9b40 1f3e ac84 f73c abfe 3e3e
00000140: c8c6 a1be dacf 063e a521 80bd 27bb bfbd
00000150: 2a34 843c e764 233c 70e5 b33c 8ece 2f3e
00000160: e712 723e 35d7 a3bb 6323 053e bdf0 cc3d
00000170: 7fca 893e a408 31be 3dc5 d53d f309 69bc
00000180: 814c 083d ef98 453d 3e4a 133d 8f6a a93c
00000190: 8a30 21bc 9a9c dc3d 3a97 cd3d d378 c03b
000001a0: cb44 adbd 9786 5abe 59e6 cb3d 7b79 bd3b
000001b0: 6470 b43d c887 493e d795 a43d 6691 84bd
000001c0: eafd b5bc da3b 1dbe 5054 4ebc 58d3 8b3d
000001d0: 67d9 0cbc 6966 703d 7c8c fb3d 5f0d 8bbe
000001e0: 56e4 8e3d 72c1 213e 9681 383d 2625 b8bd
000001f0: f500 493d 4be5 6d3b 62c5 c6bd ebf0 653d
00000200: 0836 ff3d 1032 d4ba 2d22 edbc fa45 a2bd
00000210: 4ec7 343e 7dd9 41be 3218 3e3c c5bb 73bd
00000220: aed2 e9bc b669 55bd 216b 073d 538c 5cbd
00000230: b583 bf3d 9df6 6fbc 214e d6bd f0c2 bb3d
00000240: db59 caba 0512 043e 93c6 5fbe 5656 2f3d
00000250: 859b 003d 17a0 2c3e 3ef7 d23d 10a0 d73c
00000260: 72ca 8e3c 68e7 0ebe 013d 1d3e eda6 65bd
00000270: 6811 213e 56de eb3c d10d efbb 014c 2ebc
00000280: ee99 063e 9d78 0f3e 6e33 053e dd04 fabd
00000290: 0620 a53c 28e9 f9bd 69ec fb3d c418 51be
000002a0: 6b1a 9fbd 9e62 993d a9a1 a43b c9d5 c83c
000002b0: 77bb 40bd 5a8d 173d c316 883d 1784 223b
000002c0: f53d 55be b473 2ebd af25 ce3b 4e1d 86bc
000002d0: 6b0c 82be 5354 9a3d 563f ddbc 81af 3e3d
000002e0: b2db 353d 157f d63c 1a17 ee3c 0e61 69bd
000002f0: d73b 163e ee2e d43c 9e00 bc3d 9020 023e
00000300: ea46 b83c ff77 00be 6776 f03d 2e1c 3c3d
00000310: a9be dfbc 8325 ad3d 6660 b33d 68fe 733d
00000320: 362d 523d 517b 4a3d 4f51 543e 59db b1bd
00000330: 6280 adbd 6833 893c 4c6c 0ebe 8c74 09bd
00000340: b280 06bc 43aa c13d a42b b13d 2e28 c93c
00000350: c4f8 08be 2822 6cbd 001d c4bb a2b1 033d
00000360: 2095 6f3d 1c16 52be 12c0 ec3d 1c7f 043e
00000370: f422 2e3b ea94 33be 4299 84bd 89d4 0bbe
00000380: dafb fdbd 7889 00be 2c43 a0bb 99ff a93d
00000390: 9d10 9bbd 6800 9dbd db81 bbbd 7adb 4b3d
000003a0: 7f11 b23d 63c4 aabb 93c7 26bd 8ab3 c7bd
000003b0: ea6c 843c e759 ba3d a77b c73d 73c9 103c
000003c0: 6afb dd3c 5cec 563d fbfe 053d 3bd6 183d
000003d0: f29f 5c3d b330 b33e d184 c3bd 516f 15be
000003e0: 7470 103d 1312 f4bc 0e78 c73c 1682 10be
000003f0: ceac 0a3e 1715 1e3e b211 183e 9a73 cfbd

lstm.weight_hr_l0 f4 [2, 100]
0.7888103 0.7939867 0.8595116 -0.81676334 -1.0578406 -0.7864728 -0.8619774 -0.93564475
0.87643784 -0.6849915 0.8216348 0.87291956 0.7895941 -0.80088365 0.6457342 0.7400373
0.8613218 -0.8817143 -0.9690434 0.8645708 -0.8574344 -0.8080337 -0.7566241 -0.74064064
-0.81822485 -0.75365406 0.94919574 0.70311123 -0.77902883 -0.7197126 -0.75158274 1.1525272
-0.2967335 0.5595482 -0.8967994 -0.7794196 0.80770093 -1.1815163 -0.9360263 0.7570671
0.8568455 0.011730112 -0.76467395 0.8532136 -0.7208577 -0.7422773 -1.1499062 -0.82377815
-0.7588332 1.4280468 -0.09384123 -0.7462346 0.7386337 0.93658906 0.74885076 1.2205703
0.6094605 1.159048 -0.8019973 0.8700556 -0.8270553 0.7543069 0.745485 1.0414551
-0.8504487 -0.77615947 -0.7217773 1.1239183 0.8368885 -0.82193196 -0.056832623 -0.45516345
-0.7513214 0.83404875 0.16496877 -0.8444333 -0.88244504 0.83628523 1.5658665 -1.0905896
-1.0795677 0.22396325 0.19910586 0.72842515 -0.86945325 -0.36760813 -0.7109079 1.0514656
0.7454471 0.77485067 0.7513716 -0.8146344 -0.88664716 -0.9780586 -0.77918327 -0.8873473
-0.86102116 0.7994407 -0.9518203 0.8331797 0.79797024 0.74412805 0.85998577 -0.875778
-0.7996973 -0.9068802 -0.83756566 -0.7291657 0.8616228 -1.3543414 0.8914051 0.7722525
0.86357677 -0.7758504 0.8010337 0.7457064 0.75293183 -0.8534825 -1.0106809 0.7535222
-0.86449 -0.8229826 -0.8187131 -0.7571142 -0.7711192 -0.7591032 1.0060562 1.1588562
-0.7422177 -0.8000494 -0.78609 0.6240077 -1.54382 1.1868279 -0.85609883 -0.80361044
0.6255735 -0.5212472 -0.9386597 0.77458644 0.7288642 0.019709848 -0.8366861 0.86734533
-0.8158878 -1.0441678 -0.5235116 -0.81644887 -0.78669435 0.48971537 -1.673139 -0.820378
0.7734443 0.77174926 0.85872406 0.4218543 1.3889984 0.4531847 -0.7484505 0.902663
-0.9939057 0.892821 0.79636735 0.9951198 -0.8587737 -0.7488114 -0.82839346 0.85498816
0.7836355 -0.8046924 0.029120803 -0.9760304 -0.6989152 0.88399005 0.08702631 -0.8089368
-0.93360114 0.8781111 0.22609915 -0.66988623 -0.79673433 0.08685256 0.039936446 0.798965
-0.8210568 -1.1610862 -0.8361853 0.68979794 0.906943 0.75583965 0.7067593 -0.7670187
-0.7713293 -0.82579035 -0.8888241 -0.6581186 -0.7206733 0.83000755 -1.2774925 0.84183717
00000000: 79ef 493f b642 4b3f f408 5c3f 6717 51bf
00000010: 5267 87bf 4856 49bf 8daa 5cbf 6a86 6fbf
00000020: 3b5e 603f 9a5b 2fbf a956 523f a877 5f3f
00000030: d722 4a3f b606 4dbf d64e 253f 1673 3d3f
00000040: 967f 5c3f 07b8 61bf 3a13 78bf 8354 5d3f
00000050: d280 5bbf 4cdb 4ebf 1eb2 41bf a09a 3dbf
00000060: 2f77 51bf 79ef 40bf 7efe 723f 19ff 333f
00000070: 6f6e 47bf 163f 38bf ba67 40bf 0386 933f
00000080: 74ed 97be 8d3e 0f3f a594 65bf 0b88 47bf
00000090: 7dc5 4e3f ed3b 97bf 6b9f 6fbf 26cf 413f
000000a0: 3a5a 5b3f a82f 403c acc1 43bf 356c 5a3f
000000b0: 218a 38bf e305 3ebf 2030 93bf 20e3 52bf
000000c0: e542 42bf 3dca b63f d52f c0bd 3b09 3fbf
000000d0: 1917 3d3f 4dc4 6f3f afb4 3f3f a63b 9c3f
000000e0: 9a05 1c3f af5b 943f b24f 4dbf f7bb 5e3f
000000f0: e5b9 53bf 421a 413f 1bd8 3e3f 674e 853f
00000100: 02b7 59bf 63b2 46bf 66c6 38bf 8edc 8f3f
00000110: 533e 563f 226a 52bf 53c9 68bd 2f0b e9be
00000120: 9956 40bf 3884 553f 93ed 283e c82c 58bf
00000130: ebe7 61bf ca16 563f 506e c83f 7198 8bbf
00000140: 462f 8abf 9f56 653e 68e2 4b3e 127a 3a3f
00000150: 7d94 5ebf 2237 bcbe 0ffe 35bf 6d96 863f
00000160: 9fd5 3e3f 9d5c 463f e459 403f e18b 50bf
00000170: 4ffb 62bf 0c62 7abf 8e78 47bf 3129 63bf
00000180: e26b 5cbf 25a8 4c3f 7faa 73bf 444b 553f
00000190: c747 4c3f 2d7f 3e3f 0728 5c3f fd32 60bf
000001a0: f6b8 4cbf 4d29 68bf b46a 56bf 9aaa 3abf
000001b0: 5093 5c3f 0f5b adbf 2033 643f 57b2 453f
000001c0: 5e13 5d3f 229e 46bf 8b10 4d3f 9de6 3e3f
000001d0: 24c0 403f d47d 5abf fe5d 81bf d5e6 403f
000001e0: 374f 5dbf fdae 52bf 2f97 51bf 3cd2 41bf
000001f0: 1168 45bf 9654 42bf 73c6 803f 6655 943f
00000200: fb01 3ebf 0ad0 4cbf 323d 49bf f8be 1f3f
00000210: e59b c5bf fae9 973f 4b29 5bbf 6ab9 4dbf
00000220: 9625 203f 7570 05bf 014c 70bf 4c4b 463f
00000230: d896 3a3f 8c76 a13c 0f31 56bf 580a 5e3f
00000240: 06de 50bf 4aa7 85bf db04 06bf cb02 51bf
00000250: cd64 49bf f9bb fa3e 6b29 d6bf 4b04 52bf
00000260: 7200 463f 5c91 453f 57d5 5b3f 49fd d73e
00000270: b3ca b13f d307 e83e 749a 3fbf ec14 673f
00000280: 9b70 7ebf eb8f 643f bbde 4b3f 2cc0 7e3f
00000290: 98d8 5bbf 1bb2 3fbf 9811 54bf 81e0 5a3f
000002a0: 569c 483f 5200 4ebf c08e ee3c 21dd 79bf
000002b0: 1bec 32bf 2c4d 623f da3a b23d 7b16 4fbf
000002c0: 7c00 6fbf e4cb 603f 8986 673e aa7d 2bbf
000002d0: c8f6 4bbf c1df b13d 6694 233d f888 4c3f
000002e0: c730 52bf 799e 94bf 3d10 56bf 9996 303f
000002f0: 6b2d 683f b57e 413f 2dee 343f 565b 44bf
00000300: d675 45bf ff66 53bf fa89 63bf 767a 28bf
00000310: 0c7e 38bf 607b 543f e084 a3bf a482 573f

exp_avg f4 [400, 2]
-2.2016586e-05 -2.2496164e-05 -0.000105101266 -0.00010361513 -0.0003574385 -0.00034081988 -0.0009321526 -0.00087323296
0.15579832 0.16321202 0.12785274 0.12507722 -1.4754455e-07 -1.5189855e-07 -0.06370089 -0.07660277
-0.119104914 -0.15115468 -4.106499e-06 -4.07858e-06 -0.0018175882 -0.0016782561 -0.07347429 -0.08584024
-0.001846485 0.0031020392 -0.00020783709 -0.00023893973 -0.06903982 -0.08958629 -0.08922904 -0.11415279
2.0238006e-07 -2.098393e-08 -0.09307514 -0.10831273 0.0224397 0.020284396 0.08138607 0.12399363
-0.0005368883 -0.00050879054 -3.7195307e-06 -3.8819785e-06 -2.6985635e-06 -3.0367305e-06 3.0306967e-07 3.4479817e-07
-0.0005212848 -0.0005461735 -0.09837186 -0.12731276 0.3022011 0.26763266 -0.019732846 -0.017773623
-0.09013906 -0.120228805 -0.29837137 -0.27471048 -0.07569044 -0.09589892 0.32955563 0.31478584
0.38046512 0.32173467 0.5917816 0.48889473 -0.105492204 -0.13073672 -0.07131125 -0.091439165
-0.09093938 -0.113604374 -0.06350352 -0.0465497 0.011780079 0.00939276 -5.952878e-06 -1.0002269e-05
-0.00042444724 -0.0004186764 9.19563e-08 9.498804e-08 -0.036904667 -0.035978664 -0.00068559014 -0.0006525419
-0.6674011 -0.6685939 0.31093764 0.28059235 -0.0090239 0.04266533 -0.08032223 -0.10276341
-2.7602692e-07 -2.8111614e-07 1.7172027e-06 2.548447e-06 0.029786523 0.010544799 -0.07365162 -0.094673105
-0.088502936 -0.11268691 0.10676801 0.045989085 -1.4792469e-05 -1.6387652e-05 -3.9361767e-05 -4.7874022e-05
-2.2073576 -2.417447 -0.11799931 -0.13378093 -0.09641019 -0.11510911 -0.41363412 -0.45473015
-2.1159887e-05 -2.1643182e-05 -0.06931977 -0.09011134 -2.235951e-06 -2.3997352e-06 0.3474048 0.335286
-0.0009536271 -0.00089515984 -4.998055e-06 -5.349651e-06 -1.2573532e-06 -1.3938964e-06 0.07496299 0.075874865
-0.0841382 -0.11655759 -0.08150112 -0.10327608 -0.00012758281 -0.000106246946 -0.04846273 -0.066513956
-3.2811524e-05 -3.34918e-05 -3.0894716e-07 -5.1909717e-07 -0.0014417416 -0.0012886806 -0.112546444 -0.14488053
0.21412976 0.21565825 -2.3016103e-08 -2.4400347e-08 0.6460923 0.16200753 -1.7072486e-07 -1.8895528e-07
0.20304497 0.24182127 -0.002584635 -0.0022631646 -5.9600925e-08 -6.1466544e-08 -0.06778058 -0.08741522
-0.08781424 -0.11040616 -4.253744e-05 -4.670349e-05 -2.0879983e-05 -2.1771762e-05 -0.01967314 -0.018463962
-5.5781065e-06 -5.708738e-06 -0.09758837 -0.12211372 -0.00012770735 -0.00013407473 -0.09400681 -0.11703461
-9.1850154e-07 -1.0686919e-06 0.09455882 0.11030224 -0.09002899 -0.11611795 -0.10061737 -0.12229685
-5.3164513e-05 -5.8555765e-05 -0.00010326243 -0.00010745685 0.011277655 0.009317509 -0.10837291 -0.13109581
-2.3487476e-06 -3.6235463e-06 3.8008882e-06 5.7533447e-07 -7.902978e-07 -1.220547e-06 -9.37433e-05 -0.000121257166
0.65336996 0.6253648 0.3263142 0.3772998 -3.38359e-06 -7.827776e-06 -6.1111514e-08 -1.0110975e-07
7.5282946e-07 7.0074236e-07 -0.57869613 -0.56707656 -6.157746e-05 -0.00010595915 2.9139683e-08 -4.415464e-08
3.5997891e-06 4.505291e-06 -0.015301324 -0.0014900238 8.376036e-08 2.1583649e-08 5.5365705e-05 -8.595597e-06
-1.4399335e-07 -1.6345206e-07 -1.0949868e-06 -1.2701023e-06 2.1448194e-07 2.6392252e-07 0.1450015 0.2033174
-9.723743e-06 -1.6456515e-05 -5.0871527e-06 -1.6602458e-05 -0.00031865295 -0.00044721537 0.013098901 0.013870626
1.8550234e-06 -3.4700295e-06 -0.00044074556 -0.0004944111 1.1153066 1.0696851 -2.0511901e-07 -2.64906e-07
00000000: 42b0 b8b7 25b6 bcb7 d069 dcb8 f34b d9b8
00000010: 9566 bbb9 12b0 b2b9 b45b 74ba ace9 64ba
00000020: 9889 1f3e 0d21 273e d4eb 023e 3e14 003e
00000030: bd6c 1eb4 8e19 23b4 9d75 82bd eae1 9cbd
00000040: 47ed f3bd 4bc8 1abe 8fca 89b6 bcda 88b6
00000050: 243c eeba eef8 dbba b079 96bd 02cd afbd
00000060: c105 f2ba 954b 4b3b d8ee 59b9 e58b 7ab9
00000070: c064 8dbd 0479 b7bd b7bd b6bd f0c8 e9bd
00000080: cf4d 5934 2640 b4b2 2e9e bebd 11d3 ddbd
00000090: 76d3 b73c 762b a63c bdad a63d 5ff0 fd3d
000000a0: f7bd 0cba 5b60 05ba 0d9d 79b6 f141 82b6
000000b0: f818 35b6 a2ca 4bb6 94b5 a234 b31c b934
000000c0: d5a6 08ba 152d 0fba 3077 c9bd 475e 02be
000000d0: 1aba 9a3e 2607 893e c7a6 a1bc fd99 91bc
000000e0: d49a b8bd 853a f6bd 22c4 98be daa6 8cbe
000000f0: 9703 9bbd a766 c4bd 84bb a83e 9c2b a13e
00000100: 53cc c23e 68ba a43e 007f 173f 6950 fa3e
00000110: 4c0c d8bd d9df 05be a20b 92bd 7544 bbbd
00000120: 6d3e babd 69a9 e8bd 220e 82bd e6aa 3ebd
00000130: 3c01 413c 17e4 193c d5be c7b6 6bcf 27b7
00000140: 5888 deb9 cc81 dbb9 8379 c533 3afc cb33
00000150: 5929 17bd 5d5e 13bd 2db9 33ba 580f 2bba
00000160: ccda 2abf f828 2bbf 3833 9f3e cda9 8f3e
00000170: fbd8 13bc d7c1 2e3d fb7f a4bd 9f75 d2bd
00000180: da30 94b4 4fec 96b4 a37a e635 fc05 2b36
00000190: de02 f43c 18c4 2c3c a9d6 96bd f9e3 c1bd
000001a0: 0741 b5bd 65c8 e6bd 30a9 da3d 0d5f 3c3d
000001b0: 2c2d 78b7 3778 89b7 6018 25b8 57cc 48b8
000001c0: 5945 0dc0 74b7 1ac0 9fa9 f1bd defd 08be
000001d0: b572 c5bd 53be ebbd dac7 d3be 64d2 e8be
000001e0: 8380 b1b7 618e b5b7 86f7 8dbd 4b8c b8bd
000001f0: 580d 16b6 230b 21b6 0bdf b13e 9baa ab3e
00000200: d5fc 79ba 29a9 6aba f7b4 a7b6 2781 b3b6
00000210: 54c2 a8b5 ea15 bbb5 3286 993d 4864 9b3d
00000220: a650 acbd bfb5 eebd 0fea a6bd 6982 d3bd
00000230: c0c7 05b9 e5d0 deb8 db80 46bd 7838 88bd
00000240: 1b9f 09b8 8c79 0cb8 60dd a5b4 1658 0bb5
00000250: d2f8 bcba f2e8 a8ba c07e e6bd 905b 14be
00000260: d544 5b3e 84d5 5c3e f2b4 c5b2 ee98 d1b2
00000270: 4e66 253f 4de5 253e 7e50 37b4 a2e3 4ab4
00000280: 05eb 4f3e ff9f 773e fb62 29bb 9a51 14bb
00000290: e9fb 7fb3 97ff 83b3 8bd0 8abd c006 b3bd
000002a0: f4d7 b3bd a01c e2bd 3a6a 32b8 7ee3 43b8
000002b0: 6c27 afb7 81a2 b6b7 9129 a1bc bc41 97bc
000002c0: 922b bbb6 b08d bfb6 69dc c7bd c216 fabd
000002d0: 2ee9 05b9 6996 0cb9 a486 c0bd d7af efbd
000002e0: f28e 76b5 f96f 8fb5 0ea8 c13d 24e6 e13d
000002f0: 1e61 b8bd 3fcf edbd 7b10 cebd c576 fabd
00000300: f6fc 5eb8 c699 75b8 988e d8b8 755a e1b8
00000310: eac5 383c 77a8 183c 9ef2 ddbd fb3d 06be
00000320: 2d9f 1db6 0d2c 73b6 c312 7f36 af70 1a35
00000330: da24 54b5 add1 a3b5 0d98 c4b8 724b feb8
00000340: 4143 273f e817 203f a812 a73e 702d c13e
00000350: a211 63b6 0b54 03b7 693c 83b3 ac21 d9b3
00000360: 0c16 4a35 a61a 3c35 6e25 14bf ee2b 11bf
00000370: 2623 81b8 6336 deb8 d74e fa32 8aa4 3db3
00000380: e893 7136 282c 9736 68b2 7abc e74c c3ba
00000390: bfdf b333 f266 b932 7938 6838 cf35 10b7
000003a0: 979c 1ab4 5c81 2fb4 76f7 92b5 6278 aab5
000003b0: 594c 6634 3cb1 8d34 467b 143e 7032 503e
000003c0: 2823 23b7 190c 8ab7 4fb2 aab6 8245 8bb7
000003d0: e010 a7b9 3b78 eab9 c69c 563c 9f41 633c
000003e0: 1efa f835 a7de 68b6 de13 e7b9 5e9b 01ba
000003f0: 5ec2 8e3f 71eb 883f af3e 5cb4 6738 8eb4

exp_avg_sq f4 [400, 2]
3.832804e-07 3.281477e-07 1.4985979e-05 1.3087971e-05 0.00016648245 0.00014783212 0.0005374046 0.00048510663
1.0402981 1.0886332 1.2123958 0.79001576 8.294068e-12 1.052312e-11 0.11267424 0.10684454
0.5446698 0.51623046 7.6141214e-07 6.4411313e-07 0.0011375574 0.0010204662 0.110110775 0.10407372
0.005352852 0.003787129 7.7272016e-05 7.8861194e-05 0.2073509 0.19634093 0.3753862 0.3535095
4.1248366e-10 4.725861e-10 0.1650533 0.1563043 0.056268603 0.060091645 0.98060316 0.7993791
0.0003163933 0.00028500936 3.90163e-09 3.6271088e-09 7.087486e-10 8.109265e-10 2.729609e-10 2.9514885e-10
0.00047623581 0.0004519277 0.878704 0.81881654 2.2416825 2.102493 0.032474503 0.030326623
0.78010976 0.7250218 0.7492558 0.57721865 0.21540731 0.20431173 7.977531 7.5589185
0.830538 0.86986107 3.1519945 3.6261933 0.34025544 0.3226226 0.21152356 0.20041043
0.30399352 0.28709918 0.13594836 0.16118154 0.005715201 0.0037230644 1.453685e-08 1.4620474e-08
0.00014651929 0.00013313525 2.3471273e-08 2.0415667e-08 0.9482745 0.6372822 0.00027261034 0.00024434662
7.681441 6.6868944 6.6881285 7.15765 2.1355157 1.7469585 0.4130584 0.36793244
2.1125095e-11 2.7666662e-11 4.103451e-06 3.9273154e-06 0.280594 0.25674698 0.21707873 0.20289451
0.2907424 0.2773473 3.544578 3.65909 9.990651e-08 1.0040028e-07 1.9009629e-05 1.9265679e-05
13.92508 14.5310755 0.24072124 0.2263733 0.23423305 0.22205788 38.897694 36.259083
4.2725614e-07 5.214675e-07 0.22086658 0.2088893 2.2279537e-10 2.6007627e-10 1.8307353 1.6687889
0.0006505971 0.000592487 1.0396746e-07 1.2823945e-07 6.684309e-09 4.9504623e-09 1.390086 1.5117912
1.2000998 1.0993953 0.24217078 0.22976369 7.9696816e-05 7.2496325e-05 0.12561813 0.12251762
6.3838056e-06 5.7790894e-06 1.3019112e-09 3.449966e-09 7.728837e-05 7.519454e-05 0.7405596 0.6996194
1.0858632 1.0083922 2.2902054e-12 3.2341545e-12 11.914784 9.388293 4.7297505e-10 4.855223e-10
1.3802463 1.1715386 0.0003852341 0.00033985564 8.627879e-13 1.9218676e-12 0.20407099 0.19273049
0.27263126 0.25733632 3.200033e-07 3.5311538e-07 1.713404e-07 1.2851247e-07 0.017907772 0.01514654
2.3213973e-08 1.9278767e-08 0.37989408 0.35936776 1.1942279e-05 1.1146329e-05 0.31288502 0.2958276
7.8788726e-10 1.0476978e-09 0.76101035 0.77349454 0.36511344 0.34479177 0.30481818 0.28829756
2.1378191e-06 2.0345674e-06 7.6051365e-06 7.195083e-06 0.0071515725 0.0052010957 0.31954208 0.30291393
4.2348987e-05 3.8933034e-05 1.1808872e-05 1.0636014e-05 8.5313004e-05 7.8207006e-05 0.00010570559 9.6728836e-05
16.191088 14.819309 2.9250948 1.9403223 1.0681866e-06 1.0141351e-06 1.363907e-09 1.2138864e-09
1.5147114e-06 1.3948277e-06 6.135297 5.51978 0.00026248067 0.00023921156 2.5171877e-08 1.8746556e-08
5.1127365e-08 4.609488e-08 0.14488904 0.1460515 3.4974853e-12 2.4658e-12 0.00017726465 0.00016098871
1.706432e-11 2.251399e-11 2.1193614e-07 2.0098432e-07 3.3575646e-11 3.947862e-11 11.994508 10.092008
0.0002288913 0.00021009905 0.00011372669 0.00010421324 0.00014330498 0.0001341519 0.080819845 0.10408474
0.00013097303 0.00012062944 0.00017600672 0.00016231298 16.122261 14.975526 1.4267417e-09 1.3933101e-09
00000000: a8c5 cd34 472c b034 4a6c 7b37 6894 5b37
00000010: cb91 2e39 6203 1b39 9de0 0c3a e955 fe39
00000020: 7d28 853f 5558 8b3f c92f 9b3f 793e 4a3f
00000030: 29e9 112d eb1f 392d c0c1 e63d 4fd1 da3d
00000040: 7b6f 0b3f ae27 043f d863 4c35 1ee7 2c35
00000050: 181a 953a 2ac1 853a c281 e13d 9a24 d53d
00000060: fa66 af3b 7b31 783b 190d a238 4862 a538
00000070: cb53 543e 990d 493e 9f32 c03e 32ff b43e
00000080: eac3 e22f 4ae7 0130 bb03 293e 3c0e 203e
00000090: e879 663d a822 763d cf08 7b3f 1ca4 4c3f
000000a0: 97e1 a539 4f6d 9539 1a0f 8631 c640 7931
000000b0: c0d1 4230 e1e7 5e30 d50f 962f 8242 a22f
000000c0: 4aaf f939 b6f0 ec39 bff2 603f f69d 513f
000000d0: ba77 0f40 3f8f 0640 fc03 053d 8a6f f83c
000000e0: 46b5 473f 079b 393f 3acf 3f3f 9ac4 133f
000000f0: bc93 5c3e 1837 513e ef47 ff40 a9e2 f140
00000100: 239e 543f 37af 5e3f 47ba 4940 8d13 6840
00000110: f635 ae3e ca2e a53e a299 583e 6438 4d3e
00000120: 0aa5 9b3e aafe 923e 0c36 0b3e c60c 253e
00000130: 9546 bb3b a8fe 733b bebd 7932 862d 7b32
00000140: f9a2 1939 399a 0b39 e09d c932 875e af32
00000150: 1ec2 723f ed24 233f 24ed 8e39 a61b 8039
00000160: 5dce f540 0afb d540 2605 d640 780b e540
00000170: 4aac 0840 569c df3f 647c d33e a461 bc3e
00000180: 7cd1 b92d c95b f32d 60b0 8936 62c7 8336
00000190: 04aa 8f3e 5774 833e e349 5e3e 94c3 4f3e
000001a0: 30dc 943e 7700 8e3e 5eda 6240 882e 6a40
000001b0: 2f8c d633 a39b d733 de76 9f37 bb9c a137
000001c0: 21cd 5e41 497f 6841 a17f 763e 67ce 673e
000001d0: cada 6f3e 2463 633e 3d97 1b42 4d09 1142
000001e0: a361 e534 f9fa 0b35 d92a 623e 14e7 553e
000001f0: 52f7 742f 7bfa 8e2f 8955 ea3f e09a d53f
00000200: d58c 2a3a 2151 1b3a b744 df33 31b2 0934
00000210: ceab e531 ba18 aa31 57ee b13f 6082 c13f
00000220: df9c 993f fcb8 8c3f 9efb 773e 2c47 6b3e
00000230: e722 a738 2b09 9838 0aa2 003e 85ea fa3d
00000240: 7934 d636 00ea c136 eeee b230 7214 6d31
00000250: e115 a238 c3b1 9d38 5095 3d3f 421a 333f
00000260: 91fd 8a3f ff12 813f ac28 212c 5995 632c
00000270: f5a2 3e41 7336 1641 a902 0230 9875 0530
00000280: e9ab b03f faf4 953f 3ff9 c939 a72e b239
00000290: 6cda 722b 4a3d 072c fcf7 503e 245b 453e
000002a0: 5396 8b3e 96c1 833e ebcc ab34 cf93 bd34
000002b0: b1f9 3734 3dfd 0934 52b3 923c 3129 783c
000002c0: 1168 c732 759a a532 7a81 c23e 0dff b73e
000002d0: b35b 4837 1e01 3b37 7732 a03e b776 973e
000002e0: a392 5830 97fe 8f30 93d1 423f bd03 463f
000002f0: 26f0 ba3e 8c88 b03e 2111 9c3e bd9b 933e
00000300: 7477 0f36 9a89 0836 a02f ff36 4b6d f136
00000310: bd57 ea3b f46d aa3b 059b a33e 8917 9b3e
00000320: e19f 3138 074c 2338 b81e 4637 5571 3237
00000330: 12ea b238 1103 a438 42ae dd38 e6da ca38
00000340: 5987 8141 e41b 6d41 c134 3b40 7b5c f83f
00000350: 9d5e 8f35 6b1d 8835 3674 bb30 d5d5 a630
00000360: 164d cb35 ea35 bb35 5a54 c440 0aa2 b040
00000370: 8f9d 8939 ddd4 7a39 8b39 d832 1d08 a132
00000380: 2297 5b33 dbf9 4533 cb5d 143e 868e 153e
00000390: 181d 762c e783 2d2c 1ee0 3939 14cf 2839
000003a0: 6f19 962d 0009 c62d 9090 6334 26ce 5734
000003b0: d1aa 132e f9a0 2d2e 81e9 3f41 dd78 2141
000003c0: 8a02 7039 094e 5c39 8d80 ee38 0f8d da38
000003d0: 2344 1639 20ab 0c39 e084 a53d 612a d53d
000003e0: ce55 0939 70fa fc38 728e 3839 8f32 2a39
000003f0: 64fa 8041 c19b 6f41 0317 c430 be7e bf30

exp_avg f4 [400, 2]
1.3918517e-09 1.5924276e-09 -1.5961083e-08 -1.366265e-08 3.1896616e-07 3.00949e-07 -5.9345545e-08 -5.3317383e-08
0.11894906 0.12559631 0.10647359 0.13147478 3.4167036e-10 3.4162886e-10 -0.045904662 -0.045181643
-0.06977099 -0.06736248 -2.6449513e-06 -2.5540887e-06 -1.934055e-07 -1.7818891e-07 -0.05579031 -0.055392146
-0.0009918856 -0.0011313594 1.0845006e-06 1.0852642e-06 -0.041843027 -0.03998613 -0.05238498 -0.05036535
3.7896139e-06 3.8280928e-06 -0.07053238 -0.070028976 2.2815446e-07 2.0963935e-07 0.089934506 0.10093488
3.62195e-07 3.4213033e-07 -2.8184925e-11 -2.6117655e-11 -2.77395e-06 -2.7749797e-06 8.7581606e-07 8.5531093e-07
-1.8348303e-05 -1.7185224e-05 -0.038812354 -0.036359176 0.22738971 0.2219745 -9.955189e-05 -9.212359e-05
-0.037512906 -0.03450221 -0.2533597 -0.22633265 -0.052505497 -0.051315136 0.3219276 0.31850627
0.18617421 0.17330611 0.4680331 0.46340808 -0.070297904 -0.06852431 -0.048707824 -0.047494423
-0.056228824 -0.054219265 -0.00010626929 -0.00010429968 1.9313296e-05 1.7969938e-05 -2.9206092e-06 -3.1048864e-06
-1.3147991e-06 -1.2176532e-06 -2.9358405e-11 -2.7985815e-11 -0.01408049 0.006958599 -1.980755e-09 -1.8164574e-09
-0.75584996 -0.7642521 0.20900105 0.21434864 0.017386056 0.02394229 -0.0496865 -0.0476031
3.9870505e-13 3.2610305e-13 5.272788e-06 5.133206e-06 0.015656894 0.014576763 -0.04372491 -0.04170955
-0.053923126 -0.051741756 0.07487051 0.05297191 -8.3016664e-07 -7.9378486e-07 5.1356305e-06 4.4577896e-06
-1.8840158 -1.8702807 -0.078028336 -0.076430194 -0.06794823 -0.06702769 -0.62083405 -0.6147533
2.0263124e-06 2.0216141e-06 -0.047468286 -0.04632722 -1.5424403e-06 -1.5510916e-06 0.26143673 0.26254582
-3.819801e-07 -3.5416048e-07 1.0899147e-07 1.1041859e-07 6.046909e-07 6.068873e-07 0.055382602 0.06168685
-0.022815434 -0.019950619 -0.05095731 -0.049006276 -1.644895e-09 -1.4797454e-09 -0.029900549 -0.028820721
1.6409595e-05 1.6570044e-05 1.116206e-06 9.329728e-07 -4.4577612e-07 -4.1078104e-07 -0.054510187 -0.051708188
0.17764227 0.18502367 1.2452792e-09 1.2224162e-09 0.24266644 0.23241927 -4.77102e-07 -4.7890285e-07
0.17004138 0.17704065 4.8034208e-09 4.3037156e-09 -1.8704351e-09 -1.6736166e-09 -0.046346862 -0.045226824
-0.059708446 -0.058304735 -2.9937738e-08 -2.9690224e-08 1.1391967e-06 1.112109e-06 -0.0013700548 -0.0012627064
1.5870315e-08 1.4888824e-08 -0.059772104 -0.05791628 -8.554775e-06 -8.090143e-06 -0.06112074 -0.059509702
-2.2379598e-11 -2.1641898e-11 0.075359 0.0892012 -0.05688195 -0.05514888 -0.06312138 -0.06121032
9.031209e-07 9.0411476e-07 -3.9608453e-06 -3.7688665e-06 -4.236002e-06 -3.9353827e-06 -0.07276919 -0.07134621
-1.3861214e-06 -1.2781585e-06 1.170575e-06 1.0637411e-06 -4.360711e-07 -4.0249958e-07 -5.0968585e-05 -4.700049e-05
0.6997823 0.70430356 0.34804222 0.37807587 -1.3207895e-05 -1.3488917e-05 -5.5631777e-08 -5.6840257e-08
1.7426701e-06 1.6909764e-06 -0.76526195 -0.76512843 -4.038579e-05 -3.7432506e-05 2.2980844e-08 5.9585457e-09
2.0874133e-06 1.9167167e-06 -0.00953347 -0.0029505338 4.813765e-08 4.03821e-08 3.4063014e-05 2.8225266e-05
-1.302529e-07 -1.2094465e-07 -9.789709e-07 -9.2471817e-07 1.5630374e-07 1.4485583e-07 0.12160424 0.16027674
-5.995854e-06 -5.538811e-06 -4.9809087e-06 -4.633766e-06 -0.00021120519 -0.0001971718 0.02767097 0.027460309
-3.183323e-07 -3.124594e-07 -0.0002321749 -0.00022312772 1.2724652 1.256126 -2.2878677e-07 -2.188417e-07
00000000: 6e4b bf30 91dc da30 cb1a 89b2 f8b8 6ab2
00000010: 603e ab34 1e92 a134 1ee3 7eb3 15ff 64b3
00000020: 919b f33d 529c 003e d30e da3d 53a1 063e
00000030: d4d5 bb2f fdcf bb2f 8706 3cbd 6310 39bd
00000040: 18e4 8ebd 57f5 89bd eb7f 31b6 e966 2bb6
00000050: e6aa 4fb4 3254 3fb4 6184 64bd e0e2 62bd
00000060: 2802 82ba 1f4a 94ba 288f 9135 65a9 9135
00000070: 9863 2bbd 7fc8 23bd a291 56bd e64b 4ebd
00000080: 1251 7e36 1173 8036 4873 90bd 5a6b 8fbd
00000090: 9ffa 7434 3a19 6134 952f b83d f2b6 ce3d
000000a0: b473 c234 09ae b734 cfea f7ad bbbb e5ad
000000b0: 1928 3ab6 ca39 3ab6 9f19 6b35 8598 6535
000000c0: aeea 99b7 fd28 90b7 b4f9 1ebd 5ced 14bd
000000d0: d9d8 683e 494d 633e 84c6 d0b8 7a32 c1b8
000000e0: 22a7 19bd 3052 0dbd 5db8 81be bfc3 67be
000000f0: 0110 57bd d22f 52bd b2d3 a43e 4113 a33e
00000100: 74a4 3e3e 2877 313e 09a2 ef3e d343 ed3e
00000110: 59f8 8fbd 7956 8cbd db81 47bd 8389 42bd
00000120: 3250 66bd 0515 5ebd e4dc deb8 77bb dab8
00000130: fd02 a237 26be 9637 afff 43b6 8b5d 50b6
00000140: 2778 b0b5 3f6e a3b5 a01e 01ae 742a f6ad
00000150: dbb1 66bc f604 e43b cf1d 08b1 eaa6 f9b0
00000160: 627f 41bf 07a6 43bf 5f04 563e 367e 5b3e
00000170: 346d 8e3c 9f22 c43c 1284 4bbd 78fb 42bd
00000180: 7473 e02a 6794 b72a e7ec b036 e73d ac36
00000190: e342 803c 60d3 6e3c e418 33bd a2d7 2abd
000001a0: 7fde 5cbd 2aef 53bd b655 993d 13f9 583d
000001b0: 9ed8 5eb5 7b14 55b5 bb52 ac36 1f94 9536
000001c0: 6e27 f1bf 5c65 efbf 52cd 9fbd 6f87 9cbd
000001d0: 7128 8bbd d045 89bd fbee 1ebf 7960 1dbf
000001e0: c8fb 0736 11ab 0736 1b6e 42bd 9cc1 3dbd
000001f0: d805 cfb5 1a2f d0b5 09db 853e 686c 863e
00000200: f212 cdb4 7223 beb4 b20e ea33 431f ed33
00000210: 0b52 2235 fae8 2235 ded8 623d 5aab 7c3d
00000220: 6fe7 babc 7b6f a3bc 9db8 50bd ceba 48bd
00000230: 9912 e2b0 ea5f cbb0 fff1 f4bc 6f19 ecbc
00000240: 56a7 8937 e6ff 8a37 8cd0 9535 6771 7a35
00000250: 0153 efb4 5189 dcb4 1346 5fbd f7cb 53bd
00000260: dbe7 353e d876 3d3e 5e26 ab30 f201 a830
00000270: 8d7d 783e 51ff 6d3e 3312 00b5 f48d 00b5
00000280: 541f 2e3e 254a 353e 560b a531 e2df 9331
00000290: 0b89 00b1 2605 e6b0 35d6 3dbd c33f 39bd
000002a0: d890 74bd f2d0 6ebd e494 00b3 7e09 ffb2
000002b0: 80e6 9835 c643 9535 6993 b3ba 6581 a5ba
000002c0: 3153 8832 bec9 7f32 98d3 74bd 9f39 6dbd
000002d0: 7b86 0fb7 e6ba 07b7 be59 7abd 72c0 73bd
000002e0: 60da c4ad 395d bead d255 9a3d 1eaf b63d
000002f0: 0cfd 68bd cbe3 61bd c845 81bd acb7 7abd
00000300: ff6d 7235 4bb2 7235 67e7 84b6 a2ec 7cb6
00000310: fb22 8eb6 ae0c 84b6 0308 95bd f61d 92bd
00000320: c50a bab5 318d abb5 a71c 9d35 dec5 8e35
00000330: 281d eab4 1f17 d8b4 1ac7 55b8 6422 45b8
00000340: ef24 333f 3d4d 343f 9732 b23e 2993 c13e
00000350: 7a97 5db7 754e 62b7 c9ef 6eb3 8620 74b3
00000360: b0e5 e935 82f5 e235 35e8 43bf 75df 43bf
00000370: e963 29b8 d900 1db8 6967 c532 ecbb cc31
00000380: 7d15 0c36 f1a0 0036 4532 1cbc be5d 41bb
00000390: e8bf 4e33 9770 2d33 e2de 0e38 4cc5 ec37
000003a0: a5db 0bb4 03dd 01b4 2f65 83b5 263a 78b5
000003b0: 72d4 2734 ab89 1b34 a50b f93d 961f 243e
000003c0: fe2f c9b6 06da b9b6 ae21 a7b6 bf7b 9bb6
000003d0: f676 5db9 e7bf 4eb9 3bae e23c 71f4 e03c
000003e0: 42e7 aab4 18c0 a7b4 fa73 73b9 64f7 69b9
000003f0: 24e0 a23f bdc8 a03f 6ea8 75b4 c0fa 6ab4
