lightning_logs/version_35/checkpoints/epoch=56-step=2793.ckpt (torch, 321333 bytes, 18 tensors)

lstm.weight_ih_l0 f4 [4000, 2]
00000000: a763 843d 8172 933d 07ef adbe 5477 fbbe
00000010: d046 893d f850 353d d389 8e3d 31bc 323d
00000020: 969b 913d 66a2 dc3c 9c9d 3d3d 6f89 543d
00000030: 6eb6 8c3d fb81 073d 0b64 9a3d 4ec2 0b3d
00000040: e92b 5c3d 84ea 943d 6059 783d aec5 623d
00000050: 3182 6c3d 5c65 4f3d b0bd 6a3d fe2e 1a3d
00000060: bbc8 08be 7a6e e8be 32da 853d 2498 0d3d
00000070: 88a0 873d 4c50 f43c 2e24 2f3d 25a0 1b3d
00000080: 69d2 973d 0745 653d fa9f 653d e1e0 a63c
00000090: eaed 103d 6d46 8e3d 7394 843d 3fcd 093d
000000a0: f7fa 063d a9e8 5e3d 03ef c73c db3b b03d
000000b0: 7abe 803d da71 493d b098 813d 27a6 6e3d
000000c0: ff3e 1e3d 4433 993d ffcb 5c3d eea1 953d
000000d0: 5e68 803d 1e9f 3b3d 602d 4b3d c548 b23d
000000e0: 9d94 e73c b88f 2c3d 81d0 ab3c 43da 4a3d
000000f0: d87d e03c d7cf 8c3d f992 90be c8d1 d0bd
00000100: 5e32 433d bee6 293d 29df 2c3d 3ba6 2d3d
00000110: 3a76 82bd 4117 5fbc 4355 ea3c 031e 6a3d
00000120: bcb8 5a3d ac89 8e3d 3dc7 af3c 5b15 e03c
00000130: 7b9c 5f3d cbd3 773d 8c04 91be baeb bbbd
00000140: b4b2 523d 7dab 003d 8a24 843d 23f1 a43d
00000150: ebea 5e3d 3f32 723d 9624 8d3d e329 d63c
00000160: 9fed 9f3d 5f34 783d e0a6 943d 1b8d 843d
00000170: 396e 253d 65da 5b3d 7060 e73e 52fa 8f3e
00000180: 3082 433d 893d 2e3d 84bf 96bd 0c14 a4bc
00000190: 847b 04bd 6a06 71bc 7720 883d a42a e43c
000001a0: 9b0c 443d a29e 213d 4788 0f3d 24c5 533d
000001b0: aed6 893d 9b33 7c3d 415d 8c3d ccf8 4d3d
000001c0: 6f6a 7d3c 30ea 003d ab15 9d3d 82ba a53d
000001d0: 28e2 903d a47d 2d3d bdd2 113d 3d6d 1b3d
000001e0: 921c 30bd ee00 12bd 83b5 aa3d 63c5 933d
000001f0: 3d0b 1b3c 7fa3 5d3d 873a b53c 5f34 963d
00000200: 585c f63c e31f 7c3d 622e 393d 25e6 6a3d
00000210: 93d6 a23d 4b38 8a3d a187 673d aa72 1c3d
00000220: a2df 42bf a19d b7be 9613 c23b d22e 993c
00000230: 3653 613d ec80 133d d729 913d eb82 913c
00000240: b5da 5b3d 2ba0 6c3d 6c05 163d d38a 293d
00000250: 9011 643d 8818 2d3d 0e7e a23d 60e5 063d
00000260: 292e 4b3d c6d1 0c3d 1d07 aa3d 3947 0f3d
00000270: 3e75 ab3d d561 a63d 1ac5 a13d 0832 863d
00000280: d5fa a83d 4b4e b83d e782 2d3d 0694 783d
00000290: 4caa b43d 79a0 1dbe 3d3a 3cbd 8dc2 1fbd
000002a0: 38ee 6b3c 3250 263d c2c2 4d3d cff8 363d
000002b0: dc9c ab3d 73ac 333d 247d 623d 8171 a33d
000002c0: d9dc 1cbd ed93 16bd c3eb 4a3d 15e1 9e3d
000002d0: 15f5 2cbd dbeb e5bc 3446 ad3c 6fc8 cf3c
000002e0: a7a5 073d 84ba 333c a0f8 733d aedf 393d
000002f0: 0d03 3f3d 24ee 6b3d 8b5c 713d 499f f03c
00000300: 5067 6c3d 1f57 163d 7fca 0f3d 4279 873d
00000310: ab57 bf3d 9d21 983d a805 253e e3d5 2d3f
00000320: 047b 4a3d a701 a53d 1971 523d 3631 8d3d
00000330: 419e 873d 995b a03c c80e 473d 3011 7b3c
00000340: 6833 793d 901f 963d 17c1 203d 6e54 153d
00000350: 3130 983d 253d f53c 16c7 ae3d edef c83d
00000360: 340e 453d 99ef 893d 701d a43d cfb0 883d
00000370: 41b0 b43c 44b3 a63d 3e50 f2bd 4c49 c8bd
00000380: b711 233d 9ad5 2e3d 8b30 7a3d 7fb7 943d
00000390: 6cee c23c c660 9e3d 563b f43c 47ff c43c
000003a0: 7f53 5b3d a762 2b3d 28f5 693d 7966 7c3d
000003b0: 6b17 443d 456c d83c 25b3 463d af61 8a3d
000003c0: be8f 5a3d 25fb 153d e789 3f3d d405 9c3d
000003d0: 64ce 4e3d b8c5 193d 04c3 973d e243 3d3d
000003e0: e411 963d 6b3c 8e3d e0e7 823d d2bf 8d3d
000003f0: 8f54 933d 2b14 1f3d 513e 3a3d e306 333d
0.0646432 0.07199574 -0.33971426 -0.49114478 0.067029595 0.04426667 0.06959882 0.043636505
0.07109754 0.026932906 0.046292886 0.05188888 0.06870733 0.033082943 0.07538613 0.03412085
0.053752813 0.07271293 0.06063211 0.055364303 0.057741348 0.050633773 0.057309806 0.03764247
-0.13357823 -0.45396787 0.06535758 0.03456892 0.06622416 0.029823445 0.042759113 0.037994523
0.074131794 0.055974033 0.05606077 0.020370902 0.035383143 0.069470264 0.06473627 0.033643004
0.032954182 0.0544211 0.024405962 0.086051665 0.062863305 0.049180843 0.06327951 0.058263924
0.038634297 0.07480481 0.053905483 0.07306276 0.062699065 0.045806043 0.04960382 0.08705286
0.028269107 0.04212925 0.020973446 0.049524557 0.027403757 0.0687558 -0.2823713 -0.101962626
0.047655456 0.04147982 0.04220501 0.042394858 -0.06370206 -0.013616384 0.02860511 0.057157528
0.053398833 0.069598526 0.021457309 0.027353933 0.05459259 0.060504716 -0.28323781 -0.09175821
0.051439956 0.031413544 0.06452282 0.08053806 0.054423254 0.05912995 0.06891744 0.02614302
0.078089945 0.06059682 0.072583914 0.06472226 0.04038832 0.053675074 0.45190763 0.28120667
0.04773158 0.042539153 -0.073607475 -0.02002909 -0.032344356 -0.014711002 0.06646817 0.027852364
0.047863584 0.039457925 0.035042074 0.05170168 0.067304 0.061572652 0.06853724 0.0502861
0.01546727 0.03147334 0.076701485 0.08092214 0.07074386 0.04235615 0.035601366 0.037945975
-0.042995997 -0.035645418 0.08335402 0.07215383 0.009463129 0.054111 0.022122635 0.07334208
0.03007333 0.061553847 0.04521025 0.05734839 0.07951083 0.06749018 0.05652583 0.03819529
-0.76122487 -0.3586245 0.005922745 0.018699083 0.055010997 0.03601162 0.070880584 0.017762622
0.053675372 0.057769936 0.036626264 0.04139216 0.05568081 0.042259723 0.07934199 0.032933593
0.04960457 0.034379743 0.08302138 0.034980033 0.083719715 0.08124129 0.07898922 0.065525115
0.082509674 0.08999308 0.042361166 0.06068804 0.08821544 -0.15393247 -0.045953978 -0.039003897
0.0144000575 0.040603824 0.050234564 0.044670876 0.08379528 0.043865632 0.055295125 0.079806335
-0.038296554 -0.036762167 0.049541246 0.07757775 -0.042225916 -0.028066566 0.02115164 0.025364129
0.033116963 0.010969762 0.05956328 0.045379333 0.04663377 0.057600155 0.058926146 0.029372828
0.057715714 0.03670418 0.035105225 0.06614925 0.09342893 0.07428286 0.16115439 0.6790449
0.049433723 0.08056956 0.05137739 0.06894152 0.066219814 0.019574927 0.04859808 0.015323922
0.06084004 0.07330239 0.039246645 0.03645747 0.07431067 0.029936383 0.085340664 0.09811387
0.04810925 0.06735153 0.08013427 0.066743486 0.0220567 0.08139661 -0.11831711 -0.09779605
0.039811816 0.042684175 0.06108145 0.072615616 0.023795329 0.07733302 0.02981345 0.024047507
0.053546425 0.04184213 0.057118565 0.061621163 0.047873896 0.026418814 0.04851069 0.06756913
0.05335974 0.036616463 0.046762373 0.07618299 0.0504898 0.037542075 0.07410243 0.046207316
0.07327631 0.069451176 0.06391883 0.069213524 0.07193863 0.038837593 0.045469586 0.04370774

lstm.weight_hh_l0 f4 [4000, 2]
00000000: 97ce 8f3d 4bf3 753d fecb c63e ce5a a83e
00000010: 9268 db3c f4dd a13d e70c 0d3d ebc6 903d
00000020: 65da 343d b67d 1b3d 8e87 2c3d f4fe 983d
00000030: 17c8 de3c 955a 123d 987f a13d 256a b63d
00000040: eab7 9c3d b937 a33d 5d63 bc3c 3f35 803d
00000050: 8de7 673d 57a8 413d 4607 af3c 2851 833d
00000060: cd21 7e3e 1e43 333e d2b0 423d 1c72 833d
00000070: 770a 723d 494a 733c 9930 973d 74e4 703d
00000080: bbb6 143d 225b dd3c db59 853d 1b9c 793d
00000090: 7d2c 7f3d e312 ae3d 6068 e03c 2264 3a3d
000000a0: 72e2 983d 1207 1a3d 3cc5 573d 779d 273d
000000b0: 62b3 453c a658 593d 969b 633d 76f5 a03d
000000c0: 558b a23d 2dd9 763d 0ddb 673d 20cd 9a3d
000000d0: 927f 703d 6417 563d a048 593d f887 9d3d
000000e0: cc32 743d 49fd 933d 9ef8 813d 86bd 8f3d
000000f0: 0aa2 093d 5c70 ac3d 3008 423e 0256 9a3d
00000100: 0fff 493d cf02 a73d 7647 393d 7a67 a53d
00000110: 981c 57bd 608e c9bd 4dec a43d f88d 663d
00000120: 7285 ab3d 8693 5b3d 22d8 003e 329a 943d
00000130: 2b59 8a3d 124c 7e3d fae4 263e f90b d83d
00000140: a26f 8d3d 8125 5f3d 0356 1e3d 804f af3d
00000150: aa27 aa3d 5ef7 493d b018 1e3d e3a4 2d3d
00000160: 64ab 303d bace c53d 4ac3 fd3c 214b 263d
00000170: 4c9d 723d d0d6 763d 4c1f 793e cc39 7cbe
00000180: df4a 283d e553 a23d 6185 72bd a264 afbd
00000190: 782e ce3d a442 813d 1047 673d fdc2 673d
000001a0: 6f3c f13c d8e1 353d 1f5a b73c 2d83 403d
000001b0: 426d 7b3d 2767 823d 8e56 ac3d 4bd7 813d
000001c0: 9e11 433d a536 ab3d b0db 963d b593 933d
000001d0: deb2 923d 3639 393d 9aea bf3d bf6a e43c
000001e0: 424a c63d cf64 b43d b3c3 623d 0e75 b13d
000001f0: d948 8f3d 308d 023d fc59 f83c e2de 8e3d
00000200: 8118 463d b2ae 8e3d e7ca d53c 524b 543d
00000210: c011 7b3d 5fc4 ae3d 6690 873d 54d9 063d
00000220: 788f 1ebe dcef 223e f1f7 703d f8c2 963d
00000230: 8727 7b3d f4de 333d 5485 253d 4a69 be3c
00000240: 5e18 463d 44f8 ab3d f9cb 973d f5c1 2b3d
00000250: 0d62 0e3d 3d99 193d ca84 dd3c 4be1 913d
00000260: 5c38 833d 6e11 eb3c 44df ce3c 6915 643d
00000270: 537a 983d ab29 623d 7d38 b43d bd37 b93c
00000280: 0093 de3c 4212 403d d02a cb3d 1da1 8a3d
00000290: bb1c c23e b6ac d8be 3981 95bd 352f 34bd
000002a0: 5099 e93d a179 b53d 3f4e a63c a9bb 463d
000002b0: c646 b13c 7484 913d d013 473d 9e38 b53d
000002c0: 134d d6bd e8f9 91bd 377c 523d 4f1a 7f3d
000002d0: f396 68bd 0e33 b1bd 84f9 c93d 3ff7 d23d
000002e0: 2f17 dd3d b031 793d fdc9 713d e44d db3c
000002f0: 44b6 9c3d 298b 153d 40c7 383d 2b15 6b3d
00000300: 983b 5f3d 8789 393d 2f49 933d 8e29 6f3d
00000310: 91bc a03d dd2a 893d 4b22 bebe adea b7be
00000320: 59f0 933d 796a 8a3d 6188 b53c 83c9 6c3d
00000330: 676f 5c3d a0ac 973d 8531 813d c56c 923d
00000340: 443c 893d 0537 283d c89a 793d 8b72 983d
00000350: b2d9 ab3d b24e d73c 8fc9 af3d 754f 863d
00000360: a5c6 763d d639 203d fed6 953d 9c35 4b3d
00000370: 6694 cf3c d9cf 8f3d 7ab6 43bd a862 76bd
00000380: 4784 123d bc08 2e3d 7e01 db3c 666a 843d
00000390: c027 d03c 98fc 453d 5bc8 c33d 351c fe3c
000003a0: 2a72 b23c b3f5 963d f7ac 4c3d 3639 863d
000003b0: 7808 033d 4463 9f3d 4217 1d3d 178a a83d
000003c0: fa40 163d f71c 9c3d cf41 ff3c 97a8 593d
000003d0: 0217 0a3d 297f 253d 2163 693d 6644 6d3d
000003e0: 537f dd3c c3d5 8d3d 2328 733d 61a0 ff3c
000003f0: 3c01 383d 8d08 363d 258d 603d 9c6c 5a3d
0.07021826 0.060046475 0.3882751 0.32881778 0.026783261 0.07903662 0.034436133 0.070691906
0.04415359 0.037961684 0.042121463 0.074705034 0.02719502 0.035730917 0.07885665 0.08906964
0.07652266 0.07969613 0.022996599 0.06260156 0.05661731 0.047279682 0.021365773 0.06411964
0.24817581 0.17506072 0.04753191 0.06418249 0.05909201 0.014849254 0.07382316 0.05881162
0.036307078 0.027020995 0.06511279 0.06093989 0.062298287 0.08499696 0.02739352 0.04550565
0.07465066 0.0376044 0.05267833 0.040921655 0.012066694 0.053063057 0.0555683 0.07859318
0.07936732 0.06026571 0.056605387 0.07558656 0.05871541 0.0522684 0.053047776 0.076919496
0.059618756 0.07226045 0.06346248 0.070185706 0.033601798 0.08419868 0.18948436 0.07535936
0.04931551 0.081548326 0.045234166 0.08076377 -0.052517503 -0.09841609 0.08052883 0.056287736
0.08375062 0.053607486 0.12582448 0.07255973 0.06755289 0.062084265 0.16298285 0.105491586
0.06906058 0.054479126 0.038656246 0.08560085 0.083083466 0.049308173 0.038597763 0.042393576
0.0431322 0.096585706 0.03097691 0.040598992 0.05923204 0.060263455 0.24328345 -0.24631423
0.041087028 0.07926158 -0.05920923 -0.08564116 0.10067457 0.06311539 0.056464255 0.05658244
0.029447762 0.044404835 0.02238184 0.0470001 0.061383493 0.06367331 0.084149465 0.06339892
0.047624223 0.08360032 0.07366121 0.07205907 0.071630225 0.045220576 0.093709186 0.027882932
0.09682132 0.0880829 0.055362415 0.086649045 0.069963165 0.03187293 0.030316345 0.06976105
0.048363212 0.06966914 0.026097728 0.051829644 0.061296225 0.085335486 0.06619339 0.032922104
-0.15484416 0.15911812 0.058830205 0.07361406 0.061316993 0.043913797 0.040410355 0.023243565
0.048363082 0.08396962 0.074119516 0.04193302 0.034761477 0.037499655 0.027040858 0.07123049
0.06407234 0.028694835 0.025252946 0.05568448 0.074452065 0.05521552 0.08799837 0.022609586
0.027169704 0.046892412 0.09920275 0.06769011 0.37912545 -0.42319268 -0.07300038 -0.043990333
0.11406195 0.088610895 0.020300983 0.04851881 0.021640193 0.071053416 0.04860288 0.088486895
-0.104639195 -0.07127744 0.05138799 0.06228095 -0.05678458 -0.08652316 0.098620445 0.10301065
0.107954375 0.0608384 0.05903052 0.02677054 0.07651952 0.036509667 0.045111895 0.057393234
0.054500192 0.045297172 0.07191693 0.05838924 0.07848466 0.06697629 -0.37135538 -0.3592123
0.07223577 0.06758589 0.022159757 0.057809364 0.05381718 0.074059725 0.06308273 0.071496524
0.06700948 0.041068096 0.060938627 0.07443722 0.083911315 0.026282642 0.08583366 0.06558124
0.060248036 0.039117657 0.07316397 0.049611673 0.025339317 0.07022066 -0.047781445 -0.06015268
0.03577068 0.0424888 0.02673411 0.064656064 0.02540958 0.048336595 0.09559699 0.03101931
0.021782953 0.07371082 0.04996964 0.06553881 0.0319905 0.07782605 0.03835226 0.082294635
0.03668306 0.07622712 0.03115931 0.053139295 0.03371335 0.040404473 0.056979302 0.057926558
0.027038252 0.069255374 0.05936445 0.031204404 0.044923052 0.04444175 0.054822106 0.053326234

lstm.bias_ih_l0 f4 [4000]
00000000: f403 c13d cb29 9a3e 318e 593d ee7e 8a3d
00000010: ba6e 3d3d c58a 963d 4724 0b3d 4641 6a3d
00000020: 7f39 383d 9f22 d63c f5cf 843d 6bcd f23c
00000030: dba0 043e 4c3d c43d fa25 0b3d 321c 133d
00000040: 8e17 b33d cb7e b23d d5a7 4b3d a83c 9a3d
00000050: 09dd 8a3d 8ca6 553d 5b02 ce3c 89eb 1f3d
00000060: 9b92 9b3d 51a0 be3d fc27 bb3d eef4 af3d
00000070: fd74 5d3d 96f0 1e3d 6c1b 9a3d 5c1f 2d3e
00000080: e02b 6d3d fab5 a23d d6b7 e3bc 29e4 8c3d
00000090: 1681 983d f213 c03d f66b 533d be4f 1f3e
000000a0: 3ee3 e83c c22d cc3d 328b 933d b396 6d3d
000000b0: 6085 ac3d a6a1 2e3d f125 f33c 3db8 fc3e
000000c0: 20a0 ae3d 873c a4bd 6035 6f3d 2720 193d
000000d0: 852b 913d 556b 9b3d aa05 863d 12c4 483d
000000e0: 13a9 563d 24e3 9d3d 6ba8 933d a8e0 d53c
000000f0: bd23 b7bc ea95 263d 60bf 533c 7e1a d03c
00000100: ad06 1a3d bb37 4b3d c7a3 133d 07c0 b53d
00000110: 84f6 62be da50 023d 59e5 893d 3bfa 8bbc
00000120: fec8 3b3d 2196 8c3d dd95 8a3d 8685 8f3d
00000130: 88d7 343d 2887 bf3d f3e3 a13d 9fca 083d
00000140: dc91 8e3d be6c 0b3d f577 823f 5a84 95bd
00000150: 75b8 163d 9ad9 993d 2f22 bc3d 7071 9f3d
00000160: 4a3e 7dbd 0462 aa3d 382f 36bd bd58 d93d
00000170: 0ae2 b33d b5de 6e3d 8c0b 083d 4a00 8e3d
00000180: 3c34 ac3d 698c 813d 8d9d 543d 2be3 5fbf
00000190: d235 ad3d 5a64 943d c971 a03c 1592 903d
000001a0: b45e 8f3d 89c9 b93d 7ccb 503d 4094 8d3d
000001b0: f8aa 723d 1f40 393d 456c 823d 3166 94bc
000001c0: 5456 c23d 84fa 523d c423 ec3c d061 df3c
000001d0: 742c 863d 22df 343d 5d70 593d 903c 493d
000001e0: 6e36 f83c 6af8 9a3d c463 603d 6915 fa3c
000001f0: 998e b53d 590e 943d f367 e83c 4dd5 923d
00000200: 015d f33c c00c 953d 2cfd 7b3d 1ccc 2f3d
00000210: a863 b8bc 4215 983d 5262 7c3d 8096 273d
00000220: 1872 ae3d 2aec 8b3c 6af6 393d 1720 d53d
00000230: 612f 573c 96ae 4a3d 1b7d 293d 0590 8b3d
00000240: fbd4 853d 32ec 843d ac9b 183d 4e26 313e
00000250: 88a0 383d 4e72 433d 0cbb d43c fadb 663c
00000260: 7628 a53d 179d c03d 470e 923c dadc 983d
00000270: 3794 983d 823a 1cbd 3979 793d 5891 e53c
00000280: 2913 623e 6a19 093d 5573 bd3c d3e6 623d
00000290: c0ad b53d c89b 1f3d 2715 713e 36b8 893d
000002a0: 4b22 b43d 7f3e 0bbd 625c 973d 9579 483d
000002b0: fa1d 723d 4bd4 a23d 6160 c8bd bb74 1a3d
000002c0: eca8 bf3d 42bd 763d baf8 063d de1d a43d
000002d0: 2b55 453d 7a1b e13d 53b6 0abd b947 823d
000002e0: 564b 8f3d b89c fb3c 341c 5d3d 2deb 8b3d
000002f0: 2eb6 7f3d 107d 053d 103e 803d f0c5 b83d
00000300: bff1 da3c 4cc5 a73c 01e7 b13d 45ba dc3d
00000310: ce3f 8b3d e219 c43c e861 b83d 9811 353d
00000320: 50d0 093d df16 c03d 73bf 183d a40d de3d
00000330: a637 7e3d abee fa3c 61f5 b83d a922 363d
00000340: 3718 3e3d c25f ba3d 6e45 11bd 5963 123d
00000350: 8da5 e1bc 1b74 7cbc c6d3 823d 2057 7a3d
00000360: e816 fcbc 3022 8b3d f5ec 2e3d 7771 553d
00000370: b02a 9a3d 0d0f ba3c 437b 893d e61c 4f3e
00000380: 0369 193c 4ec8 273d 30e5 6d3d eb57 8b3d
00000390: de0f 573d 0bdd 073d a2aa 583d fb96 9d3d
000003a0: 49a3 ce3c 4531 2a3d e33d a03d 1ccb fd3c
000003b0: 22f6 943c 9ee1 1a3d 56df 753e 8109 b23c
000003c0: 0850 98bd ef00 673d e091 513d 016e 40bd
000003d0: 16a2 053d 0759 92be c05a c63c 87b1 383d
000003e0: 5193 a93c 6bae 4e3d 49d7 7b3d be06 563d
000003f0: 11b8 9e3d cb1e 463e 0f67 683d 2873 a53d
0.09424582 0.3011001 0.05311412 0.06762491 0.046248175 0.07350687 0.033970144 0.057191156
0.044976708 0.026139555 0.06484977 0.029638967 0.12951986 0.09582004 0.033971764 0.03591556
0.08744727 0.0871559 0.049720604 0.075311005 0.0678044 0.052160785 0.025147608 0.039042983
0.07596322 0.09307922 0.09138486 0.085916385 0.054066647 0.03880366 0.075247616 0.16906494
0.05790317 0.079448655 -0.02779762 0.068794556 0.07446496 0.09378804 0.05161663 0.15557763
0.02842867 0.09969665 0.07204284 0.058005046 0.08423877 0.04263463 0.029681178 0.49359313
0.08526635 -0.08019357 0.05840051 0.03738418 0.07088379 0.07588831 0.06544049 0.049015112
0.052407335 0.07709339 0.072098576 0.026108101 -0.022355909 0.040670313 0.012924045 0.025403257
0.037604023 0.049613696 0.036044862 0.08874517 -0.22164351 0.031815387 0.06733198 -0.017087093
0.045845978 0.06864572 0.067668654 0.070078894 0.04415086 0.09351951 0.07904806 0.03339636
0.06961414 0.03403925 1.0192858 -0.07300635 0.036797006 0.07512207 0.091862075 0.07785308
-0.06182698 0.08319476 -0.044478625 0.106126286 0.08783348 0.05831786 0.033214137 0.06933649
0.084084004 0.06325609 0.051908065 -0.87456006 0.08457531 0.07245703 0.019585507 0.07059113
0.07000485 0.09071643 0.050975308 0.06913042 0.05924508 0.045227166 0.06368307 -0.018115135
0.09489122 0.05150844 0.028825648 0.02726832 0.065514475 0.04415811 0.053085674 0.049130023
0.030299392 0.075669125 0.054782644 0.030527787 0.08865089 0.07229299 0.02836988 0.0716959
0.029707434 0.072778225 0.06152074 0.042919263 -0.022508457 0.074259296 0.061617203 0.040915012
0.085178554 0.017080385 0.045401014 0.10406511 0.013133855 0.049482904 0.041379075 0.06814579
0.065347634 0.06490363 0.037257835 0.17299768 0.04507497 0.04771643 0.025968097 0.014090532
0.08064358 0.094049625 0.017829074 0.07463999 0.07450145 -0.038141735 0.060906623 0.028023407
0.22077622 0.033471502 0.023126284 0.055395912 0.08871031 0.038966924 0.23543225 0.067245886
0.08795603 -0.033995148 0.073906675 0.048944075 0.05911062 0.07950648 -0.09784008 0.03770898
0.09358391 0.060239084 0.032952048 0.08013509 0.048176926 0.10991569 -0.033865284 0.06361336
0.06996791 0.030714378 0.053981975 0.068319656 0.0624296 0.032589972 0.062618375 0.090221286
0.026726602 0.02047982 0.086866386 0.107777156 0.06799279 0.023938123 0.09003049 0.04420623
0.033645928 0.09379362 0.037291955 0.108424455 0.06206479 0.030631384 0.09031177 0.04446665
0.04640981 0.091002956 -0.035466604 0.035739277 -0.027544761 -0.015408541 0.06388049 0.061118245
-0.030772641 0.0679363 0.04270645 0.05211016 0.07527673 0.022712255 0.067129634 0.20225868
0.009363416 0.04096251 0.0580799 0.068038784 0.052505367 0.033169787 0.052897103 0.07694813
0.025224345 0.041550893 0.07824304 0.03098064 0.018183772 0.03781282 0.24010977 0.021733047
-0.0743714 0.056397375 0.051164508 -0.046979908 0.03262528 -0.28583547 0.024213195 0.04509118
0.020700129 0.050459307 0.06148461 0.052252524 0.07749952 0.19347684 0.05673891 0.08078605

lstm.bias_hh_l0 f4 [4000]
00000000: e845 a63d 8911 8e3e cce1 8e3d dbd9 9c3d
00000010: 22af 913c 2da9 953d 34f2 8e3d ac39 943d
00000020: 93d7 9e3d c955 323d a63e 383d 18ea 573d
00000030: 1fe7 f53d 9280 703d 46ad 343c 40a1 073d
00000040: db0d 7f3d c251 383d 1569 633d c006 973d
00000050: 4c11 933d fda4 a73d 28b5 3c3d 8f51 a13d
00000060: f361 9b3d d910 243d dcd6 7c3d 0de5 6e3d
00000070: 9dbb 8b3d bfdd 663d fb50 9d3d 5147 113e
00000080: 6aac 1a3d 8e2c 493d 9dd8 23bd 44f8 843d
00000090: aed8 973d 961a a13d 0cc9 8a3d 1885 f73d
000000a0: 3d91 273d cdb0 593d 10a9 b83d 9117 fc3c
000000b0: bb9f 723d f513 a53d 6b49 383b 5e3b fa3e
000000c0: 90da 2d3d 1ef6 12bd fe9a 963d 1958 5b3d
000000d0: 18f6 4f3d bf03 a03d 9fa4 4f3d 06a2 f23c
000000e0: a3e8 763d de04 bc3d 967b 8f3d cd8d 023d
000000f0: c5a0 4dbd ae77 8c3d 240b 4d3d 7092 453d
00000100: 6cf7 233d 2541 673d 8e48 a23d eb34 853d
00000110: 342d 5bbe 822e 1f3c 1b28 883d b2d1 1abc
00000120: 7521 733d 43f8 9b3d e50b 0b3d bd12 863d
00000130: 1ba7 b23c 9237 5c3d 20b3 873d a54f 743d
00000140: d76a cc3d 02b6 953d d314 773f 72d1 b1bc
00000150: 2285 453d 81ec 9d3d 003e ff3c 6067 913d
00000160: 55e0 a1bd b537 373d d35f b3bd 37f8 8d3d
00000170: 38a0 403d 5142 853d 8e23 363d 47c1 933d
00000180: 6450 0b3d d01f f13c 7e7d 9e3d 9476 65bf
00000190: 3245 ae3d cdde 203d e9a3 873d 36fa 163d
000001a0: 40fc 9e3d eb6d 403d b627 933d 39e8 ed3d
000001b0: da6f 133d c296 773d 4373 a23d d513 91bd
000001c0: 9b98 b03d 5160 9e3d 1341 7b3d bc63 993d
000001d0: c35f 4c3d 08fd 253d f81d be3c 610c 8a3d
000001e0: 36e3 9f3d 1b27 bb3c 0e5d 8e3d 1ffb 7f3d
000001f0: bbf8 9a3d 23ae 9d3d 7ff8 e43c a6bb f13c
00000200: cd87 183d 959d 4a3d 01cb e13c 9741 9c3d
00000210: c05b 96bd a5ba 3e3d e2a3 683d 641a ba3d
00000220: 3930 4b3d 5939 943d d7e3 953d b6e9 403d
00000230: 9011 5e3d a208 b33d 6887 b93d 798f 703d
00000240: 1d76 0b3d adb7 a13d 9fd4 ee3c 5371 273e
00000250: ceef 2c3d 7f20 613d 8338 233d 1c5d 6a3c
00000260: a242 223d 91f6 aa3d 41b2 953d da11 993d
00000270: 4469 3d3d 4f6b 02bd 3287 533d 3667 e83c
00000280: 0062 5f3e f489 563d ed75 123d bb7b 8a3d
00000290: b5d0 ab3d 76ad a43d 4250 8f3e 9625 d03c
000002a0: 8253 b23d 9179 b7bc 2399 ac3d d80c 803d
000002b0: 302c fe3c 627d a03d 8cec 44bd 7e3b 243d
000002c0: b2ec 013d e75a 273d 55d7 d83c bd9b 603d
000002d0: cced 163d 8ead d03d 1bb6 8abd b14c 913d
000002e0: 7010 9d3d 5d15 053d c9c5 063d 32f7 443d
000002f0: daf0 8a3d 6711 663d d378 df3c 1248 aa3d
00000300: ef61 0d3d c923 d03c 5d65 b83d c024 8f3d
00000310: 80e6 a03d 3e5d f03b ccd5 9f3d f54f 583d
00000320: 5551 9e3d 8aa8 753d 809f 0b3d 3343 033e
00000330: 2712 593d 3454 603d f29c 8f3d cf4d 813d
00000340: bdcd 443d 81b3 a03d a309 f0bc d4e2 ff3c
00000350: 8150 b5bd 0411 5fbd 1c2d 9f3d 21ec b63d
00000360: 8818 0cbd 39e3 9a3d 36ee 0e3d b24b ba3d
00000370: 84f6 b03d 6447 ac3c 9b89 c63c eba5 2b3e
00000380: 3889 6e3d ef34 823d 763e a73d 6e86 363d
00000390: 9261 003d 61cb fb3c 1c6d 9b3d 949a ae3d
000003a0: 2526 903d 4e6f d73c 6c54 8f3d ad89 ad3d
000003b0: 9fcc ab3c 3863 513d 46f2 7a3e e1a2 5c3c
000003c0: ccdf 90bd 85c1 923d 8591 943d dd76 6dbd
000003d0: 012b 7f3d 12bf 9ebe 0beb ef3c 080a a53d
000003e0: 0d0b 8a3d 7d0f 9e3d da67 ac3c 73f3 5c3d
000003f0: 4854 c03c 4b4e 383e e835 563d b291 363d
0.08118802 0.27747753 0.06976661 0.0765874 0.017783705 0.07307658 0.0697979 0.072375625
0.07755961 0.043538842 0.04498162 0.052713484 0.120069735 0.058716364 0.01102764 0.033112764
0.062269073 0.044999845 0.055520136 0.07374334 0.071810335 0.08185766 0.0460712 0.07876884
0.07587042 0.04005513 0.061728343 0.05832391 0.06822894 0.056363817 0.076814614 0.14187361
0.037762083 0.049114756 -0.0400015 0.064926654 0.07414375 0.07866399 0.06776628 0.120859325
0.040909994 0.053147126 0.09016621 0.030772956 0.059234362 0.08060447 0.0028119932 0.4887342
0.042444766 -0.035879247 0.07353781 0.053550813 0.050771803 0.078132145 0.050694104 0.029618274
0.060280453 0.09180616 0.07005994 0.031873513 -0.05020215 0.068587646 0.050059453 0.048235357
0.04003088 0.05645861 0.07923995 0.06504234 -0.21403962 0.009715678 0.066482745 -0.009449409
0.05935808 0.076157115 0.03394689 0.06546543 0.021808198 0.053763933 0.06625962 0.059646267
0.099813156 0.07310106 0.9651615 -0.021706317 0.04822267 0.07711125 0.031157494 0.07099795
-0.07904116 0.04473086 -0.087585114 0.06932109 0.047027797 0.065067895 0.0444675 0.07214599
0.034012213 0.029434115 0.077387795 -0.8963406 0.08509292 0.03927498 0.0662306 0.036859713
0.077629566 0.046979826 0.07185309 0.116165586 0.03599534 0.06044651 0.07932141 -0.07083861
0.08622857 0.07733215 0.061341356 0.07489726 0.049896013 0.040524513 0.02320765 0.06740642
0.07807009 0.022845795 0.069513425 0.062495347 0.07566973 0.076992296 0.027950523 0.029508423
0.037238885 0.04946669 0.02756262 0.07629698 -0.07341719 0.046564717 0.056796916 0.09087065
0.049606536 0.07237501 0.073188476 0.047097884 0.054215968 0.08741881 0.0905903 0.058730576
0.03404819 0.078963615 0.02915412 0.16351824 0.042220883 0.05496263 0.039848816 0.014304426
0.039614327 0.0834781 0.0730939 0.07474108 0.046242967 -0.03184062 0.051642604 0.028369527
0.21814728 0.052377656 0.035756994 0.06761881 0.08389417 0.080408975 0.2799092 0.025408547
0.08707334 -0.022396835 0.08427646 0.0625245 0.03102693 0.07836415 -0.04807715 0.0400958
0.03171987 0.040858176 0.026469866 0.054836024 0.036847875 0.10189353 -0.06773015 0.07094706
0.07669151 0.032491077 0.032903466 0.048087306 0.0678422 0.05616894 0.027279293 0.083145276
0.034517225 0.025407689 0.090037085 0.069894314 0.078564644 0.007335334 0.078044504 0.052810628
0.077303566 0.059975185 0.034087658 0.12818603 0.052995827 0.054767802 0.07012357 0.06313669
0.04804777 0.07846738 -0.02930147 0.03123609 -0.088532455 -0.054459587 0.07772276 0.08931757
-0.034203082 0.075628705 0.034895144 0.09096469 0.08640769 0.021030135 0.024235537 0.16762511
0.05823633 0.063577525 0.0816621 0.044561796 0.03134305 0.030736627 0.0758917 0.08525577
0.070385255 0.026298191 0.06998524 0.08473525 0.020971594 0.051120013 0.24506482 0.013466568
-0.07073936 0.07165817 0.07254318 -0.057974685 0.06229687 -0.3100515 0.029286882 0.08058554
0.06740389 0.07717798 0.021045614 0.05394311 0.023477688 0.17998616 0.052297503 0.04457254

lstm.weight_hr_l0 f4 [2, 1000]
00000000: 45ee b1bd 66ab 88bf d4d6 c6bd cfed dc3d
00000010: b726 4c3d e839 d93d ec51 a33d ac58 ca3d
00000020: 9001 99bd 5ff5 d23d 611e 81bd a2bf b3bd
00000030: bc9b 763e 38cc aabd 707e 8e3d f621 a6bd
00000040: c2b5 e23d 301e af3a d040 333d 0788 c8bd
00000050: eae9 653d 4729 df3d e849 af3d 5b8d b5bd
00000060: 6656 a2bd 5794 763d 60ba 843d 8087 d4bd
00000070: a8fb 9b3d 23f7 bfbd 4c9c 9d3d 2df7 853e
00000080: 1e9f b2bd d92c c93d 4961 ca3a 3af9 55bd
00000090: badd ac3d 61d1 44bd e427 c1bd e876 743e
000000a0: 4ca0 96bd 7aca cfbd f084 323d d5b2 debd
000000b0: 8f8f 8dbd dc6c d3bd 3926 6fbe f694 a43e
000000c0: 42c7 c23d 6062 4bbc aa80 933e cc6c 913d
000000d0: a3c9 583d b28b b13d 81c4 793d 351c b93d
000000e0: 4003 513d 83af e3bd beb7 92bd 8d5d 6d3d
000000f0: cf0a d43c 7a54 d7bd b3aa 47bd 6cb6 c93d
00000100: 1bab 98bd 332d bfbd 3a76 873d 4b83 b1bd
00000110: df33 9e3c c7d4 27bc e870 cc3d 3d61 c13d
00000120: b10c f0bd fd79 96bd 88c9 c5bd 4d5d b43d
00000130: 0060 e3bc cb6e cb3d 8161 bbbd dac1 c6bd
00000140: 3897 99bd e405 483d e575 603f b3bc 023d
00000150: 58e7 813d efe3 cabd 42c7 d2bd a435 8ebd
00000160: 03c8 7cbb 39c8 70bd ad39 363c f500 863d
00000170: 1b3c 82bd afec 5f3d f45c 72bd d7e3 843d
00000180: 9d1a e2bd 65e9 8bbd 031f 8f3d 2b8a 42bf
00000190: 4363 e43d 1c56 803d a8e0 86bd 24dc fc3c
000001a0: 6717 583d 03df 5b3d 26ed aabd 0d06 ca3d
000001b0: 456c b9bd e906 ec3d 7bde b83d d19a 2e3d
000001c0: 750e d3bd 9347 c3bd 34b6 8ebd 5224 8dbc
000001d0: cebc d3bd 7222 c4bd 1b69 843d 3583 e33d
000001e0: 4bb6 e03d 0477 a7bd 4e7d ba3d f507 a83d
000001f0: b119 b83d 8118 9cbd d707 c8bd f40a b63d
00000200: 7a13 e3bd 929d b23d cd53 e0bd 5f0b e8bd
00000210: 3aa5 623c 4e3a aa3f a499 753d 30e7 c2bd
00000220: d47b a6bd 1d34 97bd 1177 983d 8208 9abd
00000230: fb05 b83c 2af2 8abd 7460 01bd bfdf e53d
00000240: 25d8 8fbd 909d cdbd 67c8 c0bd 5691 21be
00000250: 4146 793d cbd5 c93d 2455 673d 8eab 7f3e
00000260: f259 853d d4c8 54bd 2862 cc3d 6e94 ae3d
00000270: 048a d33d 7304 11bc 21b6 53bd 8142 55bd
00000280: f9bb 8cbe 09c4 a43d 287e db3d 4773 c93d
00000290: b9d5 e33d 252b bbbd 475f ebbf 954c 92bd
000002a0: e6e8 2ebc 1746 7f3c 8d32 dc3d 5753 26bd
000002b0: 2809 843d f842 c23d 1fbc 9abb 51b6 9cbd
000002c0: 1e7b b4bd f02b 72bd 5221 e03d 00a1 cdbd
000002d0: 3a81 5c3d 1884 bd3d 3480 b3bc 58d4 ec3d
000002e0: e80c e03d 25e5 adbd fa11 ec3d f13b d53d
000002f0: a0fe bd3d 4c45 693d 9337 a3bd eef3 2f3d
00000300: ee16 d0bd a4cb 193f 55cb 7b3d d7f9 5ec0
00000310: d01a 653d 471a a0bc 694a 7cbd 67df b43d
00000320: 66a5 e33d 8e2c c8bd 16f1 4fbd 1605 6b3e
00000330: 8235 cb3d c24d b5bd 3264 bdbd 8261 9a3d
00000340: d467 d9bd e23b cd3d 2f47 aa3c 734b 9a3d
00000350: 712c fabc 76a5 173c 3f25 c0bd 8e27 e93d
00000360: 36ea 96bb 0a76 af3d 7d25 e1bd 1a64 ab3d
00000370: ec75 92bd af80 753d 857f a73d 654f 7dbe
00000380: 43a1 a1bd bd19 afbd 6790 b6bd 36ed d5bd
00000390: 8aa1 b1bd 052c 2cbd 4297 723d 17de 553d
000003a0: a4b7 b1bd 07e0 9e3d 0466 8dbd cf6f 6c3d
000003b0: 7f90 7cbd aae4 ae3d 9a5a 91be 0fc5 7cbb
000003c0: 1ffb 41bc 3034 933c 3033 cebd 20dc de3a
000003d0: dc68 a93d e1f9 67bd cfed 783d 9ad7 d9bd
000003e0: d687 23bd de0c 49bd a60e 833d 0048 6ebd
000003f0: 821b dbbd eae4 8e3e 7ebc 96bd 4313 6e3d
-0.086880244 -1.0677307 -0.09708944 0.10787546 0.04984161 0.10606748 0.0797461 0.09880194
-0.07471001 0.10300707 -0.063046224 -0.087767854 0.24082845 -0.08339733 0.0695771 -0.08111946
0.11069824 0.0013360437 0.043762982 -0.0979157 0.05613128 0.10896545 0.085590184 -0.08864852
-0.079266354 0.06020006 0.06480861 -0.10377407 0.07616359 -0.093733095 0.07695827 0.26165143
-0.087217554 0.09823007 0.001544037 -0.052239634 0.084407285 -0.04805124 -0.09431437 0.23873484
-0.07354793 -0.10146041 0.04358381 -0.10873953 -0.06912147 -0.10323498 -0.23354425 0.32144898
0.09510662 -0.012413591 0.288091 0.071008295 0.05292667 0.08669223 0.060978416 0.09038583
0.05102849 -0.111174606 -0.07163952 0.057950545 0.02588406 -0.105141595 -0.048746776 0.09849247
-0.07454511 -0.09334793 0.06614347 -0.0866762 0.019311843 -0.010243601 0.09982473 0.09442375
-0.11721171 -0.07347486 -0.0965758 0.08806858 -0.027755737 0.099332415 -0.09149457 -0.09704943
-0.07499546 0.048833743 0.8767989 0.03191824 0.063429534 -0.09906756 -0.10291912 -0.06943825
-0.0038571365 -0.058784697 0.011122149 0.06543151 -0.063591205 0.05466908 -0.05917068 0.064887695
-0.11040232 -0.06831626 0.06988337 -0.7599208 0.11151745 0.06266424 -0.065858185 0.03086669
0.052756693 0.053679477 -0.08346014 0.09864435 -0.09053854 0.115247555 0.0902681 0.042628113
-0.10305492 -0.09535136 -0.06968346 -0.017229233 -0.10338746 -0.095768824 0.0646536 0.1110901
0.109722696 -0.08176997 0.09105931 0.08204643 0.08989275 -0.07621861 -0.0976712 0.08888808
-0.11087699 0.087214604 -0.10953484 -0.11330294 0.013833338 1.3299043 0.059960976 -0.09516752
-0.08129087 -0.07382987 0.07444585 -0.07521154 0.02246379 -0.067844704 -0.031586125 0.11224317
-0.07023648 -0.10039818 -0.09413224 -0.15778098 0.060858015 0.09855231 0.05647768 0.24967787
0.06511296 -0.051949337 0.09979659 0.085244045 0.10329059 -0.008851158 -0.051687364 -0.052065376
-0.27487162 0.08045203 0.10717422 0.098364405 0.11124749 -0.091390885 -1.8388451 -0.07143513
-0.0106756445 0.015580676 0.10751829 -0.040606823 0.06447059 0.094854295 -0.004722133 -0.076519616
-0.08812545 -0.059123933 0.10943855 -0.10040474 0.053834178 0.092537105 -0.021911718 0.11563939
0.10939962 -0.084909715 0.11526866 0.104118235 0.092770815 0.056950852 -0.07969584 0.04295724
-0.101606235 0.60076356 0.06147321 -3.483999 0.055933774 -0.01954378 -0.0615944 0.08831673
0.111155316 -0.09774123 -0.050767027 0.22951159 0.09922315 -0.08852722 -0.09247626 0.075381294
-0.10615507 0.10021187 0.020785896 0.07533922 -0.03053877 0.009255758 -0.09382104 0.113844976
-0.004605557 0.08567436 -0.109934784 0.08368702 -0.07151398 0.059937175 0.08178619 -0.24737318
-0.07892086 -0.08549831 -0.08914261 -0.10445635 -0.08673389 -0.042034168 0.059226282 0.052213755
-0.08677605 0.077575736 -0.069042236 0.057723816 -0.06166124 0.08539708 -0.28389436 -0.0038569605
-0.011839657 0.01796922 -0.10068357 0.0017002858 0.082719535 -0.056634787 0.060773667 -0.10636826
-0.039924465 -0.049084537 0.06399278 -0.058174133 -0.10698606 0.27909023 -0.07360171 0.05812384

station_embedding.weight f4 [70, 2]
00000000: 9b04 c73f 67ce c23f da67 313f 45dd 3cbf
00000010: cde4 c63f f6c6 5fbe 5f96 783e 08bf 543f
00000020: bd36 783f f4d3 5640 477b cebf b842 d33e
00000030: 68aa b2bf 4c8f b9bf 51e1 94bf 2fa3 1c3f
00000040: a397 0f3f fc45 393f 29c6 ba3f 1851 07be
00000050: 58c3 91bf a583 8bbf cf58 3ebf 87c7 09c0
00000060: eb66 a3bf 0308 edbf 36f1 dd3e cfc4 59bf
00000070: 0334 6fbe a776 0bbf 5835 043f 61d0 d4bf
00000080: 8cbc 0abf 78cc 713f a0be 15bf c8c4 06c0
00000090: e4b7 243f 1402 323f 46f6 b5be 2b54 ca3e
000000a0: d732 9f3e 9494 ed3d c5bf 0640 86c9 f4be
000000b0: d2f1 153d 70b9 3ebe c37e 533f 8dc8 dfbf
000000c0: a28c 7ebf 9cbd d5bf a33f 0240 a770 af3f
000000d0: a585 763f 3cd8 d93e 9710 1740 3460 08c0
000000e0: a0d9 f23f aa2c 883d 3a8e 9c3f 14a5 6f3e
000000f0: 3ec5 5940 be35 b33f a4b7 d63e 702e 24be
00000100: 9a23 ef3f cef2 bb3f 4ab8 cb3e 9047 6f3f
00000110: 241d 57bf 715f a43f 79f6 c2be 1e53 593e
00000120: 24a4 99bf 2598 a6bf 5d9c 1d40 c048 d23d
00000130: 0a4f 8f3d d6a0 883f 0847 a7bf aa94 dbbf
00000140: 7398 3c3e 4cc2 213d 00cb fc3f 224a 613f
00000150: ea84 b63f c4de 8a3d 4f73 b7bf ebc1 92bf
00000160: dfac d0bf de85 a3bf 6055 0dbd a5f3 fabf
00000170: 0359 95bf 817f bebf 2237 e4bf fdf6 c0be
00000180: a2b0 863f 15d2 98be bcb7 023f 461e 4c3d
00000190: 47b4 933e 35cc 1240 cf51 4abe 2310 efbf
000001a0: 0da0 fe3f f4bc ff3f f1d6 663e 135e af3f
000001b0: 9186 903f 84e3 c23f afd0 e5be 764e 813f
000001c0: 3cfc 293f b8ef 21c0 01fc 3b3f e021 c73e
000001d0: def7 c2bf 5a55 17bf da54 143f 52f6 113f
000001e0: 29f3 b8bf 83b2 eabf f218 2640 e30c 6f3f
000001f0: 6dbd 7abf cf4e 063f 7fb7 22c0 b3f8 79bf
00000200: 7b3d c9bf 8039 f03f d257 a33f 19ec c53c
00000210: 2574 d63e f793 2a3e aaa1 543f a301 813f
00000220: 3902 00c0 7ea2 0fbf 88a8 e8bf 58aa 3d3f
1.554828 1.5219239 0.6929909 -0.7377513 1.5538574 -0.21853241 0.24276112 0.8310399
0.96958524 3.3566866 -1.6131371 0.4126184 -1.3958254 -1.4496856 -1.1631261 0.611865
0.56090754 0.7237241 1.4591724 -0.13214529 -1.1387739 -1.089955 -0.7435426 -2.1528032
-1.2765783 -1.851807 0.43348092 -0.8506593 -0.23359685 -0.54477924 0.51643896 -1.6626092
-0.5419395 0.9445262 -0.58493996 -2.1057606 0.64343095 0.6953442 -0.35539454 0.3951734
0.31093475 0.11600605 2.1054547 -0.4781 0.03660757 -0.18625426 0.826153 -1.7483078
-0.9943334 -1.6698489 2.035134 1.3706254 0.96297675 0.42547786 2.3603876 -2.1308718
1.8972664 0.06649144 1.2230904 0.23402816 3.4026637 1.4000776 0.41936982 -0.1603334
1.868274 1.4683473 0.3978904 0.9346857 -0.8402884 1.2841626 -0.3807867 0.21223113
-1.2003217 -1.3015181 2.4626687 0.10267782 0.069974974 1.0674083 -1.3068552 -1.7154744
0.1841753 0.039491937 1.9749451 0.8800374 1.4259312 0.067807704 -1.4332064 -1.1465429
-1.6302756 -1.2775228 -0.034505248 -1.9605604 -1.1667789 -1.4882661 -1.7829325 -0.37688437
1.0522654 -0.2984778 0.51061606 0.04983356 0.28848478 2.2937138 -0.1975777 -1.86768
1.9892594 1.9979539 0.22542931 1.3700584 1.1291066 1.5225682 -0.44885775 1.0102069
0.66400504 -2.5302563 0.734314 0.38893032 -1.5231893 -0.5911461 0.57941973 0.5701648
-1.4449207 -1.8335727 2.5952725 0.9337904 -0.9794529 0.52464 -2.5424497 -0.9764511
-1.5721887 1.8767548 1.2761176 0.024160432 0.41885486 0.16658007 0.8305918 1.0078624
-2.0001357 -0.5610732 -1.8176432 0.7408805

exp_avg f4 [4000, 2]
00000000: ccce 7636 a15e 9a36 1d61 31bf 5e56 26bf
00000010: f226 8737 cdca 8c37 34d7 8937 c53e 9137
00000020: a8f9 e037 68e0 f337 9bb8 1738 6033 1e38
00000030: 2a30 e437 4ca0 f037 9229 a637 72a5 ab37
00000040: 3576 ae36 e4b2 ec36 c35e 6737 edb5 7f37
00000050: b19f 7d37 7ac2 9637 cbc5 3c38 347e 4938
00000060: ef3b 0abe 4b7a e7bd a4bb ed37 f430 f637
00000070: b430 0a38 5eb4 0d38 81dc d438 45e3 e538
00000080: c922 af36 52b8 b636 9a5b 5537 5a71 9a37
00000090: ca25 1937 08ab 6237 fc92 1538 04e9 1838
000000a0: 383c 2438 e02b 4138 5d3b 4437 9b07 9c37
000000b0: 240b 8737 bcc8 9637 a82f 1037 8a12 2437
000000c0: e8b7 1737 2367 5737 665a 8e36 7777 c936
000000d0: be78 5437 b1eb 6237 d401 3f36 703c 9136
000000e0: 1ad5 1d39 4360 1e39 e3a4 4939 5b4c 4d39
000000f0: ca21 dd37 a527 1338 d74e e9bc 6997 0fbd
00000100: 9649 7938 4221 8438 c36f b538 4dee c138
00000110: 5f52 3235 aa88 5235 9d06 2338 f39c 3a38
00000120: 038a ce36 11ea f736 a4c3 d939 5624 d039
00000130: 9fec 4637 2f7e 5f37 cc27 14bd 9f83 29bd
00000140: cdc1 9a38 3726 9d38 099a ea35 4b56 1436
00000150: 9b07 e736 0d21 1137 9ec7 5638 607e 5738
00000160: 02b6 6f36 0814 8936 9cb0 8c36 14f7 a036
00000170: d267 f5b8 98c9 c4b8 fde2 ce3b 5ad0 b43b
00000180: a5da 6f38 12e5 7b38 11fb e5b7 12e8 f2b7
00000190: f72c d9b8 5cf1 e6b8 705b 2b38 18a6 3438
000001a0: 7f4a 4138 a4f1 5c38 bb70 8438 bd00 9638
000001b0: 7c38 8b36 e6fb a236 965d 2037 b54e 2737
000001c0: c59c 003a 2224 043a 3153 8d35 97ee ac35
000001d0: c5b4 3f37 ab48 4c37 971a f638 59a2 0739
000001e0: 8c43 f237 00c7 e837 89b4 af35 66cd c635
000001f0: a734 2b39 e84b 4a39 fb40 1b38 f46a 4238
00000200: e553 2838 45cd 4c38 320c d737 9be3 ee37
00000210: e45c 3236 c4be 4d36 e268 2738 21e7 2e38
00000220: 972d 0ebb 5076 4dbb bccb 1c3a 7f2a 313a
00000230: dce6 6738 b819 6a38 7f6f 14b5 9b35 26b5
00000240: d0b1 a337 7a66 b837 8b34 be38 e39c c338
00000250: 68ba 2238 26f2 2d38 b6f7 7f37 f89b 8337
00000260: 46b3 f937 4a42 0a38 9aa8 3f37 7f7c 4237
00000270: a803 8335 989c 9835 b6fb 1036 b3a8 1f36
00000280: dc79 9a35 821b b335 c9cb 6337 b07e 9637
00000290: f1c9 243e d4e1 0c3e 3995 91b5 1d24 93b5
000002a0: 48af e339 27d8 dc39 cece 3538 0c51 4038
000002b0: 1a21 f836 f307 0237 912c 3f36 5be7 8736
000002c0: 7201 ffb5 89cf 14b6 7737 6036 2665 9c36
000002d0: e46d 5eb7 c17e e7b6 c747 1b3a 5ec1 1c3a
000002e0: a6b2 2e3a e12b 2b3a 9c87 8b37 25b3 a237
000002f0: bb40 8537 21a5 9f37 bf62 5c38 9314 6d38
00000300: 75fd 5138 99d1 5338 9677 a137 3e34 d137
00000310: 2bcf d835 cf0c eb35 b222 0b3f 2782 e63e
00000320: 3cde 9336 3c33 be36 c625 de36 cbc6 1737
00000330: ddae 7438 c9cb 7738 b503 fb38 099f 0339
00000340: e3c5 3336 d2a0 6e36 5403 c238 f718 d838
00000350: a199 c237 7172 c737 c41c 7434 3679 a534
00000360: b693 3737 7a39 5a37 ec30 4a36 2530 6436
00000370: 0f94 9337 fb55 c337 314b e436 f12c 1337
00000380: 9757 bd38 ffe2 be38 7b42 9236 fbbb b636
00000390: 5802 8037 5c11 c637 0c1a 1539 3478 2739
000003a0: 0dc1 4838 833c 5638 443b 3737 73df 5737
000003b0: 7c6f 0439 0a73 0b39 1887 5037 7fc8 7137
000003c0: a8cf 9138 7ad0 9638 be78 cd36 d9c5 1337
000003d0: ef65 8a38 2d09 9238 3b18 2137 30eb 2d37
000003e0: 246e 4c36 edfa 7036 e6ab 8736 5581 a936
000003f0: d810 8c37 faa7 8b37 cb10 8038 164f 8a38
3.6777228e-06 4.600574e-06 -0.6928881 -0.64975536 1.611139e-05 1.6783737e-05 1.6431884e-05 1.7314576e-05
2.6819136e-05 2.9072355e-05 3.6173133e-05 3.7717982e-05 2.7202146e-05 2.8684874e-05 1.98081e-05 2.046183e-05
5.199365e-06 7.0541737e-06 1.3790736e-05 1.5241542e-05 1.5117156e-05 1.7971954e-05 4.5006902e-05 4.803967e-05
-0.13499425 -0.113026224 2.8339979e-05 2.934828e-05 3.2947122e-05 3.3785e-05 0.0001015002 0.00010961903
5.219456e-06 5.4454804e-06 1.2717117e-05 1.8411014e-05 9.128309e-06 1.3510471e-05 3.5661258e-05 3.6456637e-05
3.915673e-05 4.6055648e-05 1.1696332e-05 1.860019e-05 1.6098442e-05 1.7974868e-05 8.594165e-06 9.779478e-06
9.04312e-06 1.2839012e-05 4.2424535e-06 6.0041743e-06 1.2664297e-05 1.3525526e-05 2.8462282e-06 4.3283726e-06
0.00015052073 0.00015103914 0.00019230279 0.00019578768 2.6360987e-05 3.5084453e-05 -0.028479977 -0.035056505
5.943476e-05 6.300445e-05 8.65157e-05 9.247344e-05 6.6430033e-07 7.842997e-07 3.8868387e-05 4.4492026e-05
6.155345e-06 7.3884225e-06 0.0004153523 0.00039699924 1.1856812e-05 1.3321215e-05 -0.036170766 -0.04138529
7.3793904e-05 7.4934615e-05 1.7479189e-06 2.2103948e-06 6.885222e-06 8.650369e-06 5.1207484e-05 5.137769e-05
3.5719718e-06 4.08525e-06 4.192885e-06 4.7971353e-06 -0.000117018484 -9.383558e-05 0.00631368 0.0055180015
5.718567e-05 6.00564e-05 -2.741584e-05 -2.8956714e-05 -0.00010355742 -0.00011012211 4.0854735e-05 4.307003e-05
4.6084166e-05 5.2677133e-05 6.315248e-05 7.152695e-05 4.1490985e-06 4.857301e-06 9.558533e-06 9.972301e-06
0.0004906173 0.00050407846 1.052953e-06 1.2884437e-06 1.1426576e-05 1.2176267e-05 0.00011735147 0.00012935082
2.8880102e-05 2.7749222e-05 1.3091059e-06 1.4811928e-06 0.00016327445 0.00019292498 3.7015398e-05 4.6352812e-05
4.0132454e-05 4.8828562e-05 2.5635676e-05 2.8477798e-05 2.6578136e-06 3.065842e-06 3.9913582e-05 4.170009e-05
-0.0021694654 -0.0031351037 0.00059812865 0.00067583466 5.5289696e-05 5.58139e-05 -5.5296545e-07 -6.1917825e-07
1.9513915e-05 2.1982229e-05 9.069693e-05 9.327547e-05 3.8797414e-05 4.1471932e-05 1.5256859e-05 1.5689046e-05
2.9766594e-05 3.29635e-05 1.1423743e-05 1.1592288e-05 9.761325e-07 1.1370457e-06 2.1604187e-06 2.3791042e-06
1.150936e-06 1.3344545e-06 1.3577702e-05 1.7940387e-05 0.1609266 0.13758022 -1.0846771e-06 -1.0962864e-06
0.0004342741 0.00042122716 4.3346365e-05 4.5851848e-05 7.3948295e-06 7.750455e-06 2.848716e-06 4.050247e-06
-1.8999401e-06 -2.217452e-06 3.3410886e-06 4.6609375e-06 -1.3257817e-05 -6.8990926e-06 0.00059234764 0.00059797417
0.0006664194 0.0006529671 1.663324e-05 1.9395326e-05 1.5884978e-05 1.9031171e-05 5.2544052e-05 5.6524364e-05
5.0065533e-05 5.0501523e-05 1.9248382e-05 2.4939069e-05 1.6153548e-06 1.7512592e-06 0.54349816 0.45021173
4.406813e-06 5.6684057e-06 6.620513e-06 9.0465865e-06 5.8336987e-05 5.907918e-05 0.00011969303 0.00012552379
2.6788264e-06 3.5558373e-06 9.251261e-05 0.00010304333 2.3198141e-05 2.377594e-05 2.2734736e-07 3.0821838e-07
1.0942042e-05 1.3007195e-05 3.0128822e-06 3.4002671e-06 1.759271e-05 2.328585e-05 6.803683e-06 8.7723465e-06
9.028537e-05 9.102187e-05 4.3588784e-06 5.4459065e-06 1.525988e-05 2.3611523e-05 0.0001421945 0.0001597114
4.786351e-05 5.1077932e-05 1.0921449e-05 1.2867024e-05 0.00012630032 0.00013298928 1.242922e-05 1.4411401e-05
6.952818e-05 7.191389e-05 6.1235323e-06 8.807948e-06 6.5993394e-05 6.9635316e-05 9.601989e-06 1.0366362e-05
3.046248e-06 3.5908845e-06 4.043325e-06 5.0516487e-06 1.6697144e-05 1.6648311e-05 6.1066436e-05 6.595084e-05

exp_avg_sq f4 [4000, 2]
00000000: ca51 053b 167c f43a 80dd a640 6dee 9640
00000010: 23a2 873b 00c8 793b b338 833c 159d 713c
00000020: 839f c03b ded0 b33b 1db8 d53b 6f58 c23b
00000030: 0506 dd3b d37f cd3b f604 833c fc82 703c
00000040: 940f 7739 d685 5d39 b3a3 693a 048f 553a
00000050: e09d fc39 6854 ed39 dde8 bb3c cea0 ae3c
00000060: 469d 743e 82e3 5c3e 412c 503c e7bf 3e3c
00000070: cf7c 663c 8d60 533c 2992 9d3d 2a14 913d
00000080: 2013 ac3a 28fa 9c3a e351 873b 1f08 753b
00000090: dd9e 983b 0b8b 8a3b 3f22 c23b d2f1 b13b
000000a0: a5a0 b43c eb12 a53c c90d 033d 50c8 f03c
000000b0: a939 1b3c 546f 103c 93f2 b33a 4a1d a53a
000000c0: 93aa d43c 9259 c23c a026 863b 7e23 763b
000000d0: a051 3f3d ff7b 2d3d d6e7 313b 9f29 243b
000000e0: 8253 4f3c 1dbb 3c3c 2de3 1e3d 199a 103d
000000f0: 4427 eb3c a237 d83c cb23 533d a25b 533d
00000100: 7cbc 243e 1e71 163e ea37 0b3e db6f 003e
00000110: 76eb e63a 15be d63a 8be2 1b3c 7582 0d3c
00000120: bdf9 cb3a afd3 b83a b2dc 973a 4d1e 8a3a
00000130: 5714 6739 c1fe 5139 7ccb 803d 98bc 7c3d
00000140: a4af 163b b4a0 0a3b 6d17 d23a 65c1 bc3a
00000150: 04f5 ac3c caef 9d3c 89bf c43c 5862 b73c
00000160: 19b3 093a 25ce ff39 260c 6d3b 19a7 593b
00000170: 1d58 ae3b e8bf 9f3b 69d5 1a3a be1f f839
00000180: e26d 0a3d 4008 ff3c dccc 273b baf7 193b
00000190: e4a6 013b 4825 f03a b4be ba3b d472 ad3b
000001a0: 9946 143d 3630 093d d847 f33d e9fe df3d
000001b0: 83af 2d3b 9998 1d3b fbbc e93a ccfe d13a
000001c0: 1ddf 873c f79a 7b3c 6f2c 4839 88cd 3239
000001d0: e4f4 803b 32bc 6c3b 71ea 3c3d 63df 2c3d
000001e0: b7f6 d73c 97f3 c73c e0da fb38 1e24 e338
000001f0: e93b 803b ebdc 6b3b 5461 323c d126 223c
00000200: 0b98 223c 7abb 153c 3518 3d3d b78f 2d3d
00000210: bcfb 7738 1381 6438 76d1 eb3c 0616 d93c
00000220: ec16 3239 2151 1639 52fe 873c c95c 7b3c
00000230: e30d 273d 9e45 193d 6ea9 503a 3dfe 3f3a
00000240: 8f94 f43a 58fe dd3a 1da1 b13c 06fc a13c
00000250: 366f f73b dbf5 e53b a9ad 3c3b 3eec 2e3b
00000260: 0a20 053c 8e86 f63b b922 683c 6fce 553c
00000270: 2f57 de36 8122 db36 926f 0037 b6bb ea36
00000280: 2de5 f838 316d e738 fff4 0c3c 2853 003c
00000290: 19ad 853f 6ae6 5c3f 8e5f 9a3c 1c21 8e3c
000002a0: d2c8 863b a5f3 753b 88b5 3d3c f441 2e3c
000002b0: c8a5 d33b 641c c53b c46d a738 6f2e 9638
000002c0: 5371 573a 1ac4 423a 443f 143b b743 053b
000002d0: b198 283a 89e2 193a f1f0 e33b 9adf cf3b
000002e0: d24c f33c b177 dd3c cf22 ce39 a720 c139
000002f0: c7f6 f33b 701d e13b d826 203c a5a0 143c
00000300: a183 b33b 718d a63b 92c5 fb3a 01e2 e53a
00000310: 8297 7235 083c 6335 23ca c240 b85f af40
00000320: f508 ae39 bd51 9c39 e688 063a 8be6 f739
00000330: e63a 433b 9b18 343b 2b9f 313c 6858 233c
00000340: 0156 7d3b 0d22 643b ecc2 773d 2152 633d
00000350: fcba 453d c9eb 343d 89c3 b334 a960 a234
00000360: 6f76 383a f7b3 283a 3ee1 9039 1ec9 8539
00000370: 6abd 753c 073f 5e3c 76a9 983b dfb7 893b
00000380: c833 793d 1a40 633d a874 d63b 2470 c43b
00000390: 3edb ad3a 762d 9f3a e12d 663c 66d5 523c
000003a0: 2127 b33c 53f2 a23c 76f3 a43b 5a9d 973b
000003b0: 90c8 e73c 907a d53c 5831 af3b 1501 a13b
000003c0: 3902 133d 38b4 083d 042b 7f3a 3754 6a3a
000003d0: 8bc3 3e3e 50f9 2d3e 68a0 253b 8ff0 183b
000003e0: 8053 003b 15df ec3a 7ec9 2839 9aac 1b39
000003f0: 82fa 0a3c 4ecd fd3b e16b ee3c 13ca db3c
0.002034294 0.0018652703 5.2145386 4.7166047 0.0041392012 0.0038113594 0.016018247 0.014746924
0.0058783903 0.0054875454 0.006522192 0.0059309523 0.0067451023 0.0062713413 0.015993576 0.014679667
0.00023561559 0.0002112606 0.0008912638 0.0008146616 0.00048182812 0.0004526705 0.022938186 0.021316912
0.2388812 0.21571162 0.012705863 0.011642433 0.014067843 0.0129014375 0.076938935 0.07083924
0.0013128258 0.0011976408 0.0041296347 0.0037388874 0.00465761 0.004228001 0.0059244926 0.0054304386
0.022049258 0.020150622 0.03199557 0.029392391 0.0094741965 0.008815605 0.0013728909 0.001259723
0.025960242 0.023724351 0.00409396 0.0037557776 0.046708703 0.04235458 0.0027146242 0.0025049222
0.012654187 0.011519221 0.03879087 0.03530321 0.028705247 0.026393715 0.051547807 0.05160106
0.16087526 0.14691588 0.13595548 0.1254267 0.001761778 0.0016383553 0.009514461 0.00863706
0.0015562099 0.0014101173 0.0011586158 0.0010537595 0.00022037454 0.00020026696 0.062888116 0.061703295
0.0022992874 0.0021152915 0.001602871 0.0014400898 0.021112926 0.01927938 0.024017112 0.022385761
0.0005252823 0.0004879098 0.003617057 0.003321117 0.0053205625 0.004875172 0.00059064344 0.00047325896
0.0337962 0.031131864 0.0025604283 0.0023493604 0.0019783312 0.0018321658 0.005699003 0.0052932296
0.03620014 0.033493243 0.118789375 0.10937292 0.0026502318 0.0024047254 0.001783281 0.001602137
0.01658588 0.015356771 0.00019090039 0.00017051969 0.0039354432 0.0036122915 0.04612202 0.042205226
0.02636276 0.024408145 0.00012009381 0.00010830931 0.003913392 0.0035989832 0.010887463 0.00989695
0.009923945 0.009138936 0.046165664 0.042373385 5.9123835e-05 5.4479646e-05 0.028786402 0.02649976
0.00016983942 0.00014335338 0.016600762 0.015341946 0.040784728 0.037419908 0.00079598173 0.0007323956
0.0018659997 0.0016936762 0.02168327 0.019773494 0.007551099 0.0070178336 0.0028790033 0.0026691104
0.0081253145 0.0075233644 0.014168435 0.013049706 6.626265e-06 6.5307254e-06 7.6553715e-06 6.995596e-06
0.00011868249 0.00011035277 0.0086033335 0.007832326 1.044345 0.86289084 0.018844392 0.017349772
0.004113295 0.0037529257 0.011578925 0.010635842 0.0064589716 0.0060153473 7.983626e-05 7.161206e-05
0.0008218486 0.0007429734 0.0022620717 0.002033455 0.0006431444 0.0005870243 0.0069562127 0.006343794
0.029699717 0.027034612 0.00039317316 0.00036836157 0.0074451896 0.0068699643 0.009774886 0.009071504
0.005478338 0.005082779 0.0019208661 0.0017538668 9.03725e-07 8.4651447e-07 6.087175 5.4804344
0.0003319454 0.00029815538 0.0005132094 0.0004728328 0.0029789745 0.0027480486 0.010841171 0.009969808
0.0038655999 0.0034810335 0.060488626 0.055498246 0.048274025 0.044170175 3.348362e-07 3.024518e-07
0.0007036691 0.0006435508 0.0002763364 0.0002551758 0.014998773 0.013564832 0.004658873 0.0042028273
0.060840398 0.055481054 0.006544668 0.0059948135 0.0013264192 0.0012144286 0.014049024 0.012868261
0.021869244 0.01989094 0.0050339056 0.004626912 0.028293878 0.026059419 0.0053464584 0.004913459
0.03589079 0.033374995 0.0009733888 0.00089389406 0.18629281 0.16989636 0.0025272612 0.0023336743
0.001958102 0.0018071855 0.0001609679 0.00014846251 0.008482577 0.0077454215 0.029104175 0.026829755
