lightning_logs/version_64/checkpoints/epoch=19-step=7700.ckpt (torch, 227829 bytes, 18 tensors)

station_embedding.weight f4 [70, 2]
0	0xbea38ca9	-0.31943253
1	0xbfad80ba	-1.3554909
2	0x3f97624b	1.1826872
3	0xbdb1f75e	-0.0868976
4	0x3efb43e6	0.4907524
5	0xbf014326	-0.50493085
6	0xbee2337f	-0.44179913
7	0xbf1c7d69	-0.6112886
8	0xc0a2b3d3	-5.084451
9	0x3e8adb3e	0.27120394
10	0xbf98cbfa	-1.1937249
11	0x401ab103	2.417054
12	0x3e219925	0.15781076
13	0x3fcf4ced	1.6195351
14	0xbf547fb2	-0.8300735
15	0xbe2b4f8d	-0.16729565
16	0xbfa278dd	-1.2693135
17	0xbf63bc58	-0.88959265
18	0x3fc177c0	1.511467
19	0xbe9adaea	-0.30245143
20	0x3ff13137	1.8843144
21	0xbe921dc4	-0.28538334
22	0x3f8cfc70	1.1014538
23	0x4018a17f	2.384857
24	0xc04d1017	-3.204107
25	0x4008d136	2.1377692
26	0xbef058ee	-0.46942848
27	0x3fdaec00	1.7103271
28	0x3f39cdfc	0.7257993
29	0x3d636001	0.05551148
30	0xbf051d0c	-0.51997447
31	0x3f6524d3	0.89509314
32	0xbf7bac3b	-0.9830968
33	0xbf060a46	-0.52359426
34	0x3f7b6010	0.98193455
35	0x3ed926d8	0.42412448
36	0xbf8636f1	-1.0485517
37	0xbf24756b	-0.64241666
38	0xbfa26d55	-1.2689615
39	0x3f7c8941	0.9864693
40	0x3de83ca8	0.11339694
41	0xbf07a2f0	-0.52983
42	0xbe5900e1	-0.21191742
43	0xbf1e068b	-0.61728734
44	0x3f2c5e2a	0.6733118
45	0xbddda929	-0.1082328
46	0x3f8139da	1.009578
47	0xbdc2920c	-0.095005125
48	0x3fc0a38f	1.5049914
49	0x40161d09	2.3455222
50	0xc095e5fa	-4.6843233
51	0x3ef92515	0.48661104
52	0x400aff83	2.1718452
53	0xc0346b38	-2.819044
54	0x3fd97eaa	1.699178
55	0xbf7c0a84	-0.98453546
56	0xbe457388	-0.19282353
57	0xbfa6cab3	-1.3030609
58	0x3f868405	1.0509039
59	0xbee414aa	-0.44547015
60	0xc0678280	-3.61734
61	0xc00429b3	-2.065045
62	0x3e3e90a6	0.18609866
63	0xbed18355	-0.4092051
64	0xbf1e5086	-0.6184162
65	0xbf8c7745	-1.0973898
66	0xc00a39e3	-2.1597831
67	0x3eaf07d9	0.34185675
68	0xc004bcf9	-2.074034
69	0x3fc65c23	1.5496868
70	0x3f38940c	0.721009
71	0xbdaafc28	-0.08348876
72	0x3e9167d6	0.28399533
73	0x3f859a81	1.0437776
74	0xbfcdc6a4	-1.6076245
75	0xbf9e9c9a	-1.2391541
76	0xbf22e559	-0.63631207
77	0xbf653c47	-0.895451
78	0x3fe392a8	1.7779131
79	0x401adaa4	2.4195948
80	0xbefbfdd2	-0.49217087
81	0xbecb8717	-0.39751503
82	0xbf8410ca	-1.0317624
83	0xbfc7d643	-1.5612262
84	0x3e0bcf8c	0.13653392
85	0xbf12015d	-0.5703333
86	0xbfa77f23	-1.3085674
87	0xbe581d96	-0.21105036
88	0xbc45a0a2	-0.012062224
89	0x3ff509cd	1.9143616
90	0x3f651789	0.89489037
91	0xbc26da94	-0.010183949
92	0x3fbd84f3	1.4806198
93	0x3e09f578	0.13472545
94	0x3e1f59b0	0.15561557
95	0xbeaca27e	-0.33717722
96	0xbf809cf1	-1.0047895
97	0xbf0e1aac	-0.5550945
98	0xbe752841	-0.23941137
99	0xbf11e392	-0.5698787
100	0xc064e327	-3.5763643
101	0x3fd50614	1.664248
102	0x3f29857a	0.66219294
103	0x3f77a99e	0.9674319
104	0xbfad2191	-1.3525869
105	0xc012954b	-2.2903621
106	0xbeabd1a6	-0.33558387
107	0xbf34dde7	-0.70651096
108	0xc035184a	-2.8296075
109	0x3fdfb5b4	1.7477326
110	0xbf08b56b	-0.5340182
111	0xbe9de7d2	-0.30840927
112	0x4004cf92	2.075169
113	0xc072859e	-3.7894053
114	0x3f87b800	1.0603027
115	0xbf19eac3	-0.6012384
116	0x3ec89586	0.39176577
117	0x40260270	2.5938988
118	0x3fbaaa5b	1.4583238
119	0xbd4c00dc	-0.049805507
120	0x402503e6	2.578363
121	0x3fb80fe2	1.4379847
122	0xc09067d9	-4.5126767
123	0x3e304090	0.17212129
124	0xbfdca842	-1.7238848
125	0x3ff7d35a	1.9361374
126	0xbf0f3292	-0.5593654
127	0x40132572	2.2991605
128	0x3fa4f7fc	1.2888179
129	0xbeaea628	-0.34111142
130	0x401456b4	2.317792
131	0xbfead485	-1.8346106
132	0xbf925764	-1.143292
133	0xbf3b0a46	-0.7306255
134	0xbfe1e67d	-1.7648464
135	0xbf888dcc	-1.0668273
136	0xbfa38c38	-1.2777166
137	0x401431c9	2.3155386
138	0x3f8b86cd	1.0900513
139	0xbf1203e1	-0.5703717

lstm.weight_ih_l0 f4 [2800, 2]
0	0x3d869255	0.06570879
1	0x3d7a90ba	0.06117318
2	0x3e2fbf60	0.17162848
3	0x3e2aabf6	0.1666716
4	0x3db712ad	0.08939109
5	0x3def14a1	0.116738565
6	0x3d621962	0.05519999
7	0x3d8e5bce	0.06951104
8	0x3dd7b905	0.105333365
9	0x3d8fd27a	0.07022567
10	0x3d9945dc	0.07484028
11	0x3da00972	0.078143016
12	0x3d941f91	0.07232583
13	0x3db96a70	0.090535045
14	0xbe1de556	-0.15419516
15	0x3e53a344	0.2066775
16	0x3e1cbc83	0.15306287
17	0x3e35a229	0.1773764
18	0x3dec58f8	0.11540407
19	0x3e1b819c	0.15186161
20	0x3e00f77d	0.1259441
21	0x3e0a83ee	0.1352689
22	0x3da8fb8f	0.08251106
23	0x3da61b7b	0.0811071
24	0x3da87034	0.08224526
25	0x3d823f81	0.06359769
26	0x3dc386c5	0.095471896
27	0x3d8540b6	0.06506483
28	0x3dcf7105	0.10128979
29	0x3df636c7	0.12022167
30	0x3d8a8d09	0.067651816
31	0x3d51a109	0.051178966
32	0x3e1016ea	0.14071241
33	0x3e1f2d9c	0.15544742
34	0x3dd7273a	0.10505529
35	0x3d03f204	0.032213226
36	0x3d4f4991	0.050607268
37	0x3d955d4f	0.07293188
38	0x3da5a337	0.080877714
39	0x3da37795	0.07981793
40	0x3d7a928b	0.06117491
41	0x3d8c5dea	0.0685385
42	0xbd0f9b65	-0.035060305
43	0xbb39ef70	-0.0028371476
44	0x3dbef34b	0.09323748
45	0x3d705e18	0.058683485
46	0x3e025002	0.12725833
47	0x3dc9670c	0.09834108
48	0x3d94ef49	0.072722025
49	0x3d68ba0e	0.05681806
50	0x3db3845f	0.08765482
51	0x3d63a3d6	0.055576168
52	0x3d65ae12	0.05607421
53	0x3deb4d5a	0.11489363
54	0x3da5dcf1	0.08098782
55	0x3d856792	0.06513895
56	0xbce59748	-0.028026238
57	0xbd7dea9d	-0.061991323
58	0xbd69fe9e	-0.057127587
59	0xbd4cbb98	-0.04998359
60	0x3da4e942	0.08052303
61	0x3db70151	0.08935798
62	0xbe82c81d	-0.255433
63	0x3ccd5f70	0.025069922
64	0x3d53ee2e	0.051740818
65	0x3d794327	0.060855057
66	0x3d96d41d	0.07364676
67	0x3d7af7d3	0.0612715
68	0x3e36bb65	0.17844923
69	0x3e413a0e	0.18869802
70	0xbd1335de	-0.035940044
71	0xbd891f87	-0.066954665
72	0x3ea97cc7	0.3310301
73	0x3ebc6cb4	0.36801684
74	0x3db70dc8	0.089381754
75	0x3d5ee6a2	0.054419167
76	0x3da424c0	0.08014822
77	0x3d7d0049	0.06176785
78	0x3ddc00f3	0.107423685
79	0x3d7e3a5d	0.06206738
80	0x3e18064f	0.14846157
81	0x3e1e995d	0.15488191
82	0xbe5e23e0	-0.21693373
83	0xbe6b9edb	-0.23009817
84	0x3d815ccc	0.06316528
85	0x3d86c34b	0.06580218
86	0xbc6a2ca0	-0.014292866
87	0xbda8ce88	-0.08242518
88	0x3d8ee317	0.06976908
89	0x3d74d629	0.05977455
90	0xbecea0d4	-0.40357077
91	0xbd639f38	-0.055571765
92	0x3da489a9	0.08034069
93	0x3d2edc03	0.04269029
94	0x3e438fc2	0.19097808
95	0x3e3e56de	0.18587825
96	0x3dcec5cc	0.100963205
97	0x3da079f9	0.078357644
98	0x3db9066f	0.0903443
99	0x3df4ee5a	0.119595245
100	0x3d869ade	0.06572507
101	0x3d08981f	0.0333482
102	0x3dfba6d6	0.12287681
103	0x3de9d358	0.11417264
104	0x3e1fac40	0.15593052
105	0x3de0fbb0	0.109855056
106	0x3d7aea90	0.061258852
107	0x3d551d0a	0.052029647
108	0xbdf93eef	-0.12170207
109	0xbdfdac5f	-0.12386393
110	0x3d925d50	0.07146704
111	0x3da5d4c5	0.08097223
112	0x3df339af	0.11876237
113	0x3d9b8af0	0.075948596
114	0x3d79792e	0.06090658
115	0x3dcf5f50	0.10125601
116	0x3cee9350	0.029122978
117	0x3d42ba8f	0.047541197
118	0x3d7a9d34	0.061185077
119	0x3d995247	0.07486396
120	0x3dbeb239	0.09311337
121	0x3da6c33c	0.08142707
122	0x3d89f441	0.06736041
123	0x3d81e29a	0.06342049
124	0x3dae62e9	0.08514959
125	0x3d8712ec	0.06595406
126	0x3d5d391f	0.054009553
127	0x3daf678e	0.08564673
128	0x3d9176f9	0.0710277
129	0x3d89cb4d	0.0672823
130	0xbee8dc7b	-0.45480713
131	0xbe18beb9	-0.14916505
132	0x3dbbc53a	0.09168477
133	0x3da9794e	0.0827509
134	0x3dec975f	0.11552309
135	0x3e033585	0.12813385
136	0x3ddc4a10	0.10756314
137	0x3db0932b	0.0862182
138	0x3d3771c2	0.044786222
139	0x3dd81112	0.10550131
140	0x3d9f6e0e	0.07784663
141	0x3d4b62d2	0.04965479
142	0x3db10a34	0.08644524
143	0x3d3fc707	0.046820667
144	0x3deb3b2a	0.11485894
145	0x3e0ec8fd	0.13943858
146	0x3d94b8f0	0.072618365
147	0x3d7c799b	0.06163941
148	0x3dc197ce	0.094527826
149	0x3d43ec9c	0.04783307
150	0x3d502895	0.050819952
151	0x3db9d2ff	0.090734474
152	0x3da150a7	0.07876711
153	0x3d50979e	0.050925843
154	0x3d40ab99	0.04703865
155	0x3d9f195e	0.0776851
156	0x3d9878b9	0.07444901
157	0x3da4fe3d	0.080563046
158	0x3dbb6355	0.091498055
159	0x3d804dbd	0.062648274
160	0x3dc569e7	0.0963934
161	0x3d72a2d6	0.059237324
162	0x3d8e7af5	0.06957046
163	0x3d61b24f	0.05510169
164	0x3e5038ae	0.20334122
165	0x3e596010	0.21228051
166	0xbcda73c5	-0.026666531
167	0x3f2d292c	0.6764095
168	0x3d59b5d3	0.053151917
169	0x3d954829	0.07289154
170	0x3dea847f	0.11451053
171	0x3d70adb2	0.0587594
172	0x3da228f8	0.079179704
173	0x3d856ada	0.06514521
174	0x3d68bd0b	0.05682091
175	0x3dc6b6e0	0.097028494
176	0x3e4879bd	0.1957769
177	0x3e36187e	0.1778278
178	0x3dc896ce	0.09794389
179	0x3da3f963	0.08006551
180	0x3dec6eb6	0.11544554
181	0x3e09c8ab	0.13455455
182	0x3d35205e	0.04422032
183	0x3d95e50d	0.073190786
184	0x3dca6559	0.09882612
185	0x3d42608a	0.047455348
186	0x3e23bf27	0.15990888
187	0x3e3627fd	0.17788692
188	0x3da27ff6	0.07934563
189	0x3e124bdc	0.1428675
190	0xbe792a72	-0.24332598
191	0xbe1450d0	-0.14483953
192	0x3d3236d5	0.043509323
193	0x3d8fa6ff	0.07014274
194	0x3e9ce393	0.30642375
195	0x3eabe824	0.33575547
196	0x3d28a020	0.041168332
197	0x3db2a476	0.08722775
198	0x3df11ff4	0.11773673
199	0x3d90e888	0.07075602
200	0x3db43c25	0.08800534
201	0x3d36109c	0.044449434
202	0xbbe0e04d	-0.0068626762
203	0x3cffe6f0	0.03123805
204	0x3dee39e3	0.11632135
205	0x3dc7b341	0.09750987
206	0x3d8800a3	0.066407464
207	0x3d9edef3	0.07757368
208	0x3d76da44	0.060266748
209	0x3d845577	0.064616136
210	0x3d9fead7	0.07808464
211	0x3d6f5dd1	0.05843908
212	0xbcd76f67	-0.026298238
213	0xbddb60f6	-0.10711853
214	0x3d8169ce	0.06319009
215	0x3d8bffb1	0.06835879
216	0x3e00d6c4	0.12581927
217	0x3d95d625	0.073162355
218	0x3c4d1633	0.0125175
219	0x3d33f120	0.043931127
220	0x3d2aca15	0.041696627
221	0x3dc73c0a	0.097282484
222	0x3e19ab15	0.15006669
223	0x3e150450	0.14552426
224	0x3d66d051	0.05635101
225	0x3d842c49	0.06453759
226	0x3daeaf48	0.08529526
227	0x3cd3a4d1	0.025835427
228	0x3d8eea08	0.06978232
229	0x3d57cd0d	0.052685786
230	0x3e2f133a	0.17097178
231	0x3e2faa15	0.17154725
232	0x3d54cbfc	0.051952347
233	0x3dcd3021	0.100189455
234	0x3d1b9830	0.037986934
235	0x3dd23b38	0.10265201
236	0x3da657aa	0.08122189
237	0x3dba52fe	0.09097861
238	0x3e0e30c5	0.13885792
239	0x3e123683	0.14278607
240	0x3e039fb5	0.12853892
241	0x3dc27b58	0.09496182
242	0x3d4e4f13	0.05036838
243	0x3dba86f8	0.091077745
244	0x3dbc4cc2	0.09194328
245	0x3d5a28cc	0.053261563
246	0xbec11372	-0.37710148
247	0x3d3573de	0.044299953
248	0x3da530e0	0.08065963
249	0x3dc9e3d3	0.09857907
250	0xbc25edc2	-0.010127487
251	0xbc04734b	-0.008084129
252	0x3e26a9ed	0.16275759
253	0x3e13d026	0.14434871
254	0x3e1214b6	0.14265713
255	0x3e283ae4	0.16428715

lstm.weight_hh_l0 f4 [2800, 2]
0	0x3d07ee68	0.033186346
1	0x3db0176f	0.085982196
2	0x3d083035	0.0332491
3	0x3dc8aad3	0.09798207
4	0x3d83be41	0.064327724
5	0x3d70deda	0.058806278
6	0x3cd97bf9	0.026548373
7	0x3d5dcdbc	0.05415128
8	0x3daa9cfd	0.083307244
9	0x3d4a6063	0.049408328
10	0x3da32c06	0.07967381
11	0x3d129e19	0.035795305
12	0x3d9ba020	0.07598901
13	0x3d5087fb	0.05091093
14	0x3ea27baf	0.31734988
15	0x3ead2377	0.3381612
16	0x3d94ab43	0.07259228
17	0x3cfcc685	0.03085638
18	0x3d92c6a7	0.07166796
19	0x3d9817e2	0.0742643
20	0x3d088aee	0.03333562
21	0x3d99b21f	0.07504677
22	0x3d58e78b	0.05295519
23	0x3d7a8c74	0.061169103
24	0x3d75a63a	0.05997298
25	0x3d42e695	0.04758318
26	0x3dc01b8a	0.09380253
27	0x3ddf4236	0.109013006
28	0x3d8bf446	0.06833701
29	0x3d878bbe	0.066184506
30	0x3d5c2bd3	0.05375273
31	0x3d0bf97d	0.034173477
32	0x3dd478dc	0.103746146
33	0x3de10ee9	0.10989172
34	0x3d270dc4	0.040784612
35	0x3d9ee65a	0.0775878
36	0x3d046a9a	0.032328226
37	0x3dc6efb4	0.097136885
38	0x3ce4061c	0.027834944
39	0x3d84f6a6	0.06492357
40	0x3da38c46	0.079857394
41	0x3d4ea786	0.05045273
42	0xbdb1fcc3	-0.086907886
43	0xbdcd515a	-0.10025282
44	0x3cf5ebad	0.030019606
45	0x3da31e79	0.079647966
46	0x3d578ece	0.052626424
47	0x3da948c7	0.08265834
48	0x3da7c99c	0.08192751
49	0x3c6be3d5	0.014397581
50	0x3da17c1e	0.078850016
51	0x3d94237a	0.07233329
52	0x3d196489	0.037449393
53	0x3d327105	0.043564815
54	0x3db6a93a	0.08918996
55	0x3c3a1f45	0.011359994
56	0xbd9f4ab2	-0.07777919
57	0xbddb378e	-0.107039556
58	0xbd1fa4a3	-0.03897537
59	0xbda44505	-0.08020977
60	0x3ddcb13d	0.10775993
61	0x3d439966	0.047753714
62	0x3e1e0b58	0.15434015
63	0x3e30a20a	0.17249313
64	0x3d8ad25e	0.067784056
65	0x3d1937ba	0.03740666
66	0x3d30f3c0	0.043201208
67	0x3d9890b5	0.07449476
68	0x3d985fdb	0.07440158
69	0x3d854c42	0.06508686
70	0x3e2de950	0.16983533
71	0x3e4bf81d	0.19918866
72	0x3db031eb	0.08603271
73	0x3d65b08f	0.056076583
74	0x3da3009b	0.079591
75	0x3dabdd1f	0.08391785
76	0x3d13bb63	0.036067378
77	0x3d78572d	0.060630012
78	0x3d372061	0.044708613
79	0x3bf6334f	0.0075134407
80	0x3d41c6e1	0.047308806
81	0x3d20aada	0.039225437
82	0x3dd4a734	0.10383454
83	0x3dfc438c	0.12317571
84	0x3da90c31	0.082542785
85	0x3ccd6f3d	0.025077457
86	0xbd7c7940	-0.06163907
87	0xbd0f26ca	-0.0349491
88	0x3daebc23	0.08531978
89	0x3dc8ea65	0.09810332
90	0x3d0f4dbf	0.034986254
91	0x3ddd8db4	0.10818043
92	0x3ce53a4e	0.027981903
93	0x3cea0103	0.028564936
94	0x3d392ae0	0.045206904
95	0x3d80db74	0.06291857
96	0x3cb0e795	0.021594802
97	0xba57bab5	-0.00082294206
98	0x3cf32763	0.029681867
99	0x3d9b1931	0.07573164
100	0x3d9056aa	0.0704778
101	0x3dc35566	0.09537773
102	0x3cf8cb7d	0.030370468
103	0x3d3f4a74	0.046701863
104	0x3d1d91f0	0.038469255
105	0x3dd3caae	0.103413925
106	0x3d4fa648	0.050695688
107	0x3d86dd41	0.065851696
108	0xbe1f84f5	-0.15578063
109	0xbdda2c68	-0.10653001
110	0x3cc2a9a4	0.023762532
111	0x3d7c582b	0.06160752
112	0x3d9a3013	0.07528701
113	0x3db872a1	0.09006239
114	0x3d12fb09	0.035883937
115	0x3daed271	0.08536232
116	0x3d9ec870	0.07753074
117	0x3d65bbd1	0.05608732
118	0x3ca5f9ab	0.020260653
119	0x3cf38f27	0.029731346
120	0x3d7e3f2e	0.06207197
121	0x3d059452	0.032612152
122	0x3d584b2a	0.052806057
123	0x3d2843d0	0.041080296
124	0x3d5b689e	0.053566568
125	0x3d84dea3	0.06487777
126	0x3d1aa4fb	0.037754994
127	0x3d92135e	0.071326
128	0x3d8a493b	0.06752249
129	0x3db677d5	0.08909575
130	0x3d851063	0.06497266
131	0x3d9562a1	0.072942026
132	0x3d8da86e	0.06916891
133	0x3bb60b77	0.005555566
134	0x3ce08fc2	0.027412299
135	0x3d8d5ae4	0.06902102
136	0x3daeeab1	0.085408576
137	0x3d8a5d92	0.06756128
138	0x3d6af6c5	0.057364244
139	0x3dbc8ee3	0.09206941
140	0x3d4ac110	0.049500525
141	0x3d1290e2	0.035782702
142	0x3c6b72ea	0.014370659
143	0x3d7a57cf	0.061118897
144	0x3dda7b3b	0.106680356
145	0x3dccd4c8	0.10001522
146	0x3db3846b	0.08765491
147	0x3da4e452	0.08051361
148	0x3d84dfe1	0.06488014
149	0x3d2c72bc	0.042101607
150	0x3d82606a	0.06366046
151	0x3d0e0bd5	0.034679253
152	0x3da8b7a4	0.08238152
153	0x3dcedd6f	0.10100829
154	0x3da49d97	0.080378704
155	0x3d5efd8d	0.054441024
156	0x3dc19121	0.09451509
157	0x3df4650f	0.11933338
158	0x3d76fd11	0.060299937
159	0x3cbe4087	0.023224128
160	0x3d1ef672	0.038809247
161	0x3d729a9f	0.05922949
162	0x3da4ee62	0.080532804
163	0x3d8b7e84	0.0681124
164	0x3d7e6b5e	0.062114112
165	0x3dd11c18	0.102104366
166	0xbf1836ce	-0.59458625
167	0xbef48d3f	-0.47764012
168	0x3d8ebb9d	0.06969378
169	0x3d92c752	0.071669236
170	0x3dc5a890	0.09651291
171	0x3db12d83	0.08651259
172	0x3d8d481c	0.068985194
173	0x3d893696	0.066998646
174	0x3db590b5	0.08865491
175	0x3d8fd05d	0.07022164
176	0x3da038dd	0.07823346
177	0x3d9fef4d	0.07809315
178	0x3d116e0b	0.035505336
179	0x3dc1320b	0.09433373
180	0x3dc4d26d	0.09610448
181	0x3d92a1f1	0.07159794
182	0x3d702f18	0.058638662
183	0x3d9e3ee8	0.07726842
184	0x3da90402	0.082527176
185	0x3d3cc767	0.046088602
186	0x3caa47c5	0.020786176
187	0x3d0859a6	0.03328862
188	0x3d64118f	0.055680808
189	0x3c59b6bf	0.013288199
190	0x3d9c344e	0.07627164
191	0x3e1f6e79	0.15569486
192	0x3d88d294	0.066807896
193	0x3dab6f0d	0.08370791
194	0x3d24af97	0.040206518
195	0x3d8a8354	0.0676333
196	0x3da86846	0.082230136
197	0x3db3eb55	0.087851204
198	0x3cac8fa2	0.021064583
199	0x3d83c12b	0.06433328
200	0x3d3ed86d	0.04659312
201	0x3d97adf7	0.07406228
202	0xbe0afa7f	-0.13572119
203	0xbdf8fc5d	-0.121575095
204	0x3d61d580	0.05513525
205	0x3dcb43a0	0.09925008
206	0x3d1a5293	0.037676405
207	0x3d9018c1	0.070359714
208	0x3cda8cef	0.02667853
209	0x3dc8549c	0.09781763
210	0x3de33a5c	0.110951155
211	0x3d72c6d6	0.059271656
212	0xbdb2578b	-0.08708104
213	0xbe05d052	-0.13067749
214	0x3d181b43	0.037135374
215	0x3da3d82e	0.080002174
216	0x3d9b7f76	0.075926706
217	0x3daa668d	0.08320341
218	0x3d9b90ff	0.07596015
219	0x3e0a8f90	0.13531327
220	0x3d93367b	0.07188126
221	0x3db54815	0.08851639
222	0x3d0c8846	0.034309648
223	0x3d220b11	0.039561335
224	0x3d62fc58	0.055416435
225	0x3dbc02c6	0.091802165
226	0x3d04e537	0.03244516
227	0x3d6f9b06	0.05849745
228	0x3d78ea63	0.060770404
229	0x3d28bbd1	0.04119474
230	0x3d845641	0.06461764
231	0x3daab51c	0.08335325
232	0x3d8b2dbd	0.06795833
233	0x3d8ca867	0.06868058
234	0x3cdddab3	0.027081823
235	0x3d992e72	0.07479562
236	0x3d7f8ff0	0.06239313
237	0x3d0599fa	0.032617547
238	0x3d7bf8b1	0.061516467
239	0x3d4eb00f	0.05046087
240	0x3dab5168	0.083651364
241	0x3db0803d	0.086182095
242	0x3d6a0f29	0.057143364
243	0x3daeb1b2	0.085299864
244	0x3d39caef	0.04535955
245	0x3c0d99e0	0.008642644
246	0x3d50b977	0.050958123
247	0x3e0a69c3	0.13516907
248	0x3d17103a	0.03688071
249	0x3d954032	0.07287635
250	0x3db462c6	0.08807902
251	0x3db94eac	0.090482086
252	0x3d5d0987	0.053964164
253	0x3dd59b3d	0.1043
254	0x3d232636	0.039831363
255	0x3cd2b723	0.025722092

lstm.bias_ih_l0 f4 [2800]
0	0x3e110c61	0.14164878
1	0x3dbad802	0.091232315
2	0x3e333ffd	0.17504878
3	0x3dafbe5e	0.085812315
4	0x3e069f76	0.13146767
5	0x3dd2fde0	0.10302329
6	0x3e005fed	0.12536593
7	0x3e9add77	0.3024709
8	0x3e5c673e	0.21523759
9	0x3e0e4632	0.13893965
10	0x3e9e99eb	0.30976805
11	0x3e0ea940	0.13931751
12	0x3de93d17	0.11388605
13	0x3e1a1b09	0.15049376
14	0x3de98fe4	0.11404398
15	0x3dc1a7bc	0.09455821
16	0x3ea6a931	0.32550958
17	0x3d60f893	0.05492456
18	0x3dad032e	0.08447872
19	0x3e048305	0.12940605
20	0x3da2597c	0.07927224
21	0xbda4257a	-0.080149606
22	0x3e202718	0.15639913
23	0x3e518183	0.20459561
24	0x3defc6b7	0.11707824
25	0x3e046b10	0.12931466
26	0x3e308cb1	0.1724117
27	0x3e1fd4de	0.15608546
28	0xbd90e7a5	-0.07075433
29	0xbdd2d438	-0.10294384
30	0x3dcf6413	0.101265095
31	0x3e16d7b2	0.14730719
32	0x3de323fc	0.11090848
33	0x3dc30c25	0.09523801
34	0x3dab3d01	0.08361245
35	0xbd45c883	-0.048286926
36	0x3ebb1403	0.36538705
37	0x3e1de12e	0.1541793
38	0x3e168844	0.14700419
39	0x3e398170	0.18115783
40	0x3eb58b3e	0.35457796
41	0x3dfd273e	0.123610005
42	0x3de93d9c	0.11388704
43	0xbd05e029	-0.03268448
44	0x3de9a166	0.114077374
45	0xbe167414	-0.14692718
46	0x3d9f40e0	0.07776046
47	0x3e0312c6	0.1280013
48	0x3dafc7af	0.085830085
49	0x3e4a24a2	0.19740537
50	0x3dcf447b	0.101204835
51	0x3ddc5bc1	0.10759688
52	0x3eac3fe4	0.33642495
53	0x3de60b89	0.11232669
54	0xbe62b7f8	-0.22140491
55	0x3e0cc0ef	0.13745473
56	0x3e777e61	0.24169303
57	0x3e019209	0.12653364
58	0x3da0eacb	0.07857283
59	0x3e023b8b	0.12718026
60	0x3df45336	0.11929934
61	0x3dcf226a	0.10113986
62	0x3e191baf	0.14951967
63	0x3e1f89ea	0.15579954
64	0x3dc372b9	0.09543366
65	0xbbd72775	-0.006565983
66	0x3e36e0b6	0.17859158
67	0x3e5b47d1	0.21414115
68	0x3db76962	0.08955647
69	0x3dd3ca2e	0.10341297
70	0x3db48a82	0.08815481
71	0x3e0cfb7f	0.13767813
72	0x3e53dce4	0.20689732
73	0x3dc91e0f	0.09820186
74	0x3d99b0fe	0.07504462
75	0x3e11871c	0.14211696
76	0x3de62bc2	0.11238815
77	0x3dc7a505	0.09748272
78	0x3dbf4b2e	0.09340511
79	0x3e0160c2	0.12634566
80	0x3dce0f92	0.100615636
81	0x3dd646e3	0.10462739
82	0x3ee22d97	0.44175407
83	0xbfc586f9	-1.5431815
84	0x3dd8b3ae	0.10581146
85	0x3e35ebab	0.17765681
86	0x3e10b493	0.14131384
87	0x3d5f72fc	0.054553017
88	0x3ed8ffac	0.42382562
89	0x3e1ba5f9	0.15200032
90	0x3e5c8eb4	0.21538812
91	0x3e06f894	0.13180763
92	0x3e08af59	0.1334814
93	0x3ec8d064	0.3922149
94	0x3e909e21	0.28245643
95	0x3d485eff	0.04891872
96	0x3e0a9c65	0.13536222
97	0x3eb2f850	0.34955072
98	0x3daa1c8c	0.08306226
99	0x3e205110	0.15655923
100	0x3dd436bb	0.103620015
101	0x3d036faf	0.03208893
102	0x3e2604cc	0.16212767
103	0x3e11e5a9	0.14247765
104	0x3dbfbc08	0.09362036
105	0x3e09d233	0.13459091
106	0x3d34022f	0.043947395
107	0x3e0b889d	0.13626333
108	0x3e4a5514	0.19759017
109	0x3da43aba	0.08019014
110	0x3df9d64d	0.12199078
111	0x3e97d566	0.29654998
112	0x3dc22eff	0.0948162
113	0x3de8d673	0.11369028
114	0x3dbd3fc9	0.09240682
115	0x3e5f4d7e	0.21806905
116	0x3da75f47	0.081724696
117	0x3dfd576f	0.12370192
118	0x3e49d2be	0.19709298
119	0x3dd741ae	0.10510574
120	0x3e291e15	0.16515382
121	0x3dd044bf	0.10169362
122	0x3dc07759	0.09397764
123	0xbe06c813	-0.1316226
124	0x3e1c23ea	0.15248075
125	0x3d7caafa	0.061686493
126	0x3ec57259	0.38563803
127	0x3de6ea1c	0.112751216
128	0x3e31dee4	0.17370182
129	0x3e9e2a29	0.3089154
130	0x3e148874	0.14505178
131	0x3e0c682c	0.13711613
132	0x3deb9a39	0.11504025
133	0x3dba0690	0.09083283
134	0x3dea80c2	0.1145034
135	0x3d81ede3	0.063442014
136	0xbdd1b3ef	-0.10239398
137	0x3e6203d6	0.22071776
138	0x3e8805cc	0.26566923
139	0x3de450a3	0.11148193
140	0x3d94e98c	0.07271108
141	0x3dda8bd6	0.10671203
142	0x3d84d3be	0.06485699
143	0x3da0509d	0.07827876
144	0xbdaa8ff9	-0.08328242
145	0x3dff486d	0.12464986
146	0x3e1e38a5	0.15451296
147	0x3e106470	0.14100814
148	0x3e804f76	0.25060624
149	0x3e08f33a	0.13374034
150	0x3d4403b3	0.04785509
151	0x3d9ff014	0.07809463
152	0x3e085976	0.13315377
153	0x3e15fd90	0.14647508
154	0x3dbbdce0	0.09172988
155	0x3dfc04fa	0.12305637
156	0x3e02ab08	0.12760556
157	0x3de67842	0.11253406
158	0xbd4f5076	-0.050613843
159	0x3e5b1671	0.2139528
160	0x3e02bd26	0.12767467
161	0x3e034fa0	0.12823343
162	0x3e4e79be	0.20163628
163	0x3e3bcd2e	0.18339989
164	0x3e3b1466	0.182695
165	0x3e3ec3c9	0.18629374
166	0x3e0f3e22	0.13988546
167	0x3e807d96	0.25095814
168	0x3e03048d	0.12794705
169	0x3dea566a	0.114422634
170	0x3d9a2541	0.07526637
171	0x3dc1a185	0.094546355
172	0x3df85744	0.121260196
173	0x3df79570	0.1208905
174	0x3da251fa	0.07925792
175	0x3e527afe	0.2055473
176	0x3dfc5689	0.12321193
177	0x3d8d9b83	0.06914427
178	0x3e27a7bc	0.1637258
179	0x3dcf1996	0.10112302
180	0x3df58b02	0.11989404
181	0x3e8b6779	0.2722738
182	0x3e054135	0.13013156
183	0x3e0cf50a	0.1376535
184	0x3e006891	0.12539889
185	0x3da8d294	0.082432896
186	0x3ebe4f17	0.37169716
187	0x3e093c69	0.13401951
188	0x3e07cf05	0.13262565
189	0x3e037e31	0.12841107
190	0x3e094952	0.13406876
191	0x3dd1a0cc	0.10235748
192	0x3e0053d9	0.12531985
193	0x3e07fcfb	0.13280098
194	0x3d22cf89	0.039748702
195	0xbd6ba838	-0.057533473
196	0x3e0b4d47	0.13603698
197	0x3e1c84d3	0.15285043
198	0x3dd987c3	0.106215976
199	0x3ddf55b5	0.10905019
200	0x3e1528e1	0.14566375
201	0x3dc79463	0.097450994
202	0x3e05fe3b	0.13085262
203	0x3db41d50	0.087946534
204	0x3ebad07d	0.3648719
205	0x3e2bbcc5	0.16771229
206	0x3e684b38	0.22684944
207	0x3e3bdfd4	0.18347102
208	0x3df92f62	0.12167241
209	0x3df4da65	0.11955718
210	0x3db2cd3b	0.08730551
211	0x3de9e90f	0.114214055
212	0x3d684b3a	0.056712367
213	0x3de24733	0.110487364
214	0x3d98fcc6	0.07470088
215	0x3e060944	0.13089472
216	0x3eb6655a	0.356242
217	0x3e03702c	0.12835759
218	0x3e06509f	0.13116692
219	0x3de0ca1f	0.109760515
220	0x3e1f3d7c	0.15550798
221	0x3ead5fd9	0.33862188
222	0x3e81b625	0.25334278
223	0x3dccd316	0.10001199
224	0x3e726640	0.23671818
225	0xbe903d13	-0.28171596
226	0x3e25e3bf	0.1620016
227	0x3e98673b	0.2976626
228	0x3dd7b901	0.105333336
229	0x3e20d8e8	0.15707743
230	0x3e2a6467	0.16639863
231	0xbeb52cd7	-0.35385773
232	0xbd0d388e	-0.034477763
233	0x3dd1d7f3	0.10246267
234	0x3e2688a4	0.16263062
235	0x3ddce399	0.10785598
236	0x3e123b96	0.14280543
237	0x3ebcaf9b	0.36852726
238	0xbf9960d8	-1.1982679
239	0x3e09229b	0.13392107
240	0x3e119e0b	0.14220445
241	0x3ddd9156	0.10818736
242	0x3e9878a4	0.29779541
243	0x3e8b9a6a	0.27266246
244	0x3e840d96	0.25791615
245	0x3d9bb370	0.07602584
246	0x3dbf98ec	0.093553394
247	0x3ea4c740	0.32183266
248	0x3dcd1986	0.10014634
249	0x3e554af7	0.20829378
250	0x3df42d9d	0.119227625
251	0x3e06a5f8	0.1314925
252	0x3da693c9	0.081336565
253	0xbd9fdb9b	-0.07805558
254	0x3eedf7fc	0.4647826
255	0x3df2b603	0.11851122

lstm.bias_hh_l0 f4 [2800]
0	0x3df5106a	0.11966021
1	0x3dedb42a	0.11606629
2	0x3e354544	0.17702204
3	0x3d8618ba	0.06547685
4	0x3e060735	0.13088687
5	0x3e19a19d	0.15003057
6	0x3e0318f1	0.12802483
7	0x3e886004	0.26635754
8	0x3e690e09	0.2275926
9	0x3dc2d315	0.09512917
10	0x3eafcf21	0.34337714
11	0x3de33587	0.11094194
12	0x3e0815fc	0.13289636
13	0x3e178509	0.14796843
14	0x3d934545	0.071909465
15	0x3dd1afe9	0.1023863
16	0x3ec0ea03	0.37678537
17	0x3d937f25	0.07201985
18	0x3dcb8055	0.09936587
19	0x3e009244	0.12555796
20	0x3d600a6a	0.05469743
21	0xbd7b2a37	-0.061319556
22	0x3df9dc48	0.122002184
23	0x3e361383	0.1778088
24	0x3d8fa981	0.07014752
25	0x3db1a655	0.086743034
26	0x3e259c5a	0.16172925
27	0x3e25252e	0.16127464
28	0xbd42263a	-0.047399737
29	0xbd9b22f0	-0.07575023
30	0x3df53972	0.119738474
31	0x3e206f98	0.1566757
32	0x3d984465	0.0743492
33	0x3e08518f	0.13312362
34	0x3dac53c6	0.08414416
35	0xbd96c10e	-0.07361041
36	0x3e9d0e47	0.30674955
37	0x3dddb660	0.10825801
38	0x3dfaa639	0.12238736
39	0x3e1c3a3f	0.15256594
40	0x3ebad8e4	0.364936
41	0x3d7f9abd	0.06240343
42	0x3dc832b2	0.09775294
43	0xbd35fe8b	-0.044432204
44	0x3dbb8650	0.091564775
45	0xbe1e6b6e	-0.15470669
46	0x3deb2d73	0.11483278
47	0x3e0b7080	0.13617134
48	0x3e1a182a	0.1504828
49	0x3e25569c	0.1614632
50	0x3db2a40b	0.08722695
51	0x3dea3e02	0.11437608
52	0x3ea50894	0.32233107
53	0x3de87976	0.11351292
54	0xbe48e750	-0.19619489
55	0x3dce087c	0.10060212
56	0x3e341c4e	0.17588922
57	0x3df8ff14	0.12158027
58	0x3df4d96b	0.11955532
59	0x3e0c1553	0.1368001
60	0x3e261a01	0.16220857
61	0x3e0a6687	0.13515674
62	0x3dfa9cab	0.12236913
63	0x3e213914	0.1574443
64	0x3da2cb6f	0.07948958
65	0x3d086716	0.033301435
66	0x3e3c2192	0.18372181
67	0x3e5f33d1	0.2179711
68	0x3dfe0423	0.12403133
69	0x3de8ecc9	0.11373288
70	0x3dbbc431	0.0916828
71	0x3d8a89a3	0.06764533
72	0x3e354213	0.17700987
73	0x3dbc5c3d	0.091972806
74	0x3e08e9fb	0.13370506
75	0x3dc06d4b	0.09395846
76	0x3dd24b78	0.10268301
77	0x3d92558c	0.07145223
78	0x3d8a6cf0	0.067590594
79	0x3da8981c	0.082321376
80	0x3e1847cb	0.14871137
81	0x3d99bd36	0.07506792
82	0x3ef72c40	0.48275948
83	0xbfc28784	-1.5197606
84	0x3e102c53	0.14079408
85	0x3e33df7a	0.17565718
86	0x3df2f39a	0.118628696
87	0x3de8156d	0.11332212
88	0x3efadc6b	0.4899629
89	0x3e0c2c81	0.13688852
90	0x3e4e6d1c	0.2015881
91	0x3d71001d	0.058838
92	0x3ddd7cf8	0.108148515
93	0x3ec4a4cb	0.38406977
94	0x3e8f59cc	0.27998197
95	0x3d933228	0.07187301
96	0x3db83763	0.08994939
97	0x3ea5cd38	0.32383132
98	0x3e0734a7	0.13203679
99	0x3de4d8ef	0.11174189
100	0x3d8c720a	0.06857689
101	0x3d735b6e	0.059413366
102	0x3e43e706	0.19131097
103	0x3e20866f	0.15676282
104	0x3d202fd4	0.039108112
105	0x3d98e677	0.07465833
106	0x3cfa3b5e	0.030545887
107	0x3d98ed2b	0.07467111
108	0x3e524f15	0.2053798
109	0x3d56d3f1	0.052448217
110	0x3e0e59a3	0.13901381
111	0x3e98ff1c	0.29882133
112	0x3dcb0745	0.09913496
113	0x3da14fb4	0.0787653
114	0x3dc26cdb	0.09493419
115	0x3e59e243	0.21277718
116	0x3d88ead5	0.06685416
117	0x3e080afd	0.13285442
118	0x3e0fa34f	0.14027141
119	0x3d8b10e7	0.06790333
120	0x3e34953c	0.17635053
121	0x3da6036c	0.081061214
122	0x3dab96f2	0.083784
123	0xbdf056a7	-0.117352776
124	0x3dfbeea1	0.12301374
125	0x3d7db366	0.061938666
126	0x3eb3a46a	0.35086375
127	0x3e02c7d9	0.12771548
128	0x3e2db0b0	0.16961932
129	0x3e940eeb	0.28917632
130	0x3e18af10	0.14910531
131	0x3e01ea72	0.1268709
132	0x3ddb963c	0.10722014
133	0x3e00a293	0.12562017
134	0x3dc31e40	0.09527254
135	0x3e0046ef	0.12527059
136	0xbdaec099	-0.08532829
137	0x3e52232d	0.20521231
138	0x3e91c0a3	0.28467283
139	0x3da1b39b	0.07895585
140	0x3dfb6b1a	0.122762874
141	0x3ddfaff9	0.10922236
142	0x3de093ec	0.10965714
143	0x3da80405	0.08203892
144	0xbd6f971b	-0.058493715
145	0x3dd2d9d0	0.10295451
146	0x3deabcf2	0.1146182
147	0x3e33a511	0.17543437
148	0x3e68d7ce	0.22738573
149	0x3ddb8882	0.10719396
150	0x3dce64ea	0.100778416
151	0x3df2f8e6	0.1186388
152	0x3dedd26e	0.11612402
153	0x3dd9f105	0.10641674
154	0x3de2837c	0.11060235
155	0x3dd8998d	0.105761625
156	0x3df1adbf	0.118007176
157	0x3df219de	0.1182134
158	0xbdbece7d	-0.09316728
159	0x3e3b5e94	0.18297797
160	0x3e0b1424	0.13581902
161	0x3e02001e	0.12695357
162	0x3e6d6cd9	0.23186053
163	0x3e25ff37	0.16210638
164	0x3e48b99a	0.19602051
165	0x3e2506bd	0.16115852
166	0x3da5fda7	0.08105021
167	0x3e882b40	0.26595497
168	0x3e17f46f	0.14839338
169	0x3d930978	0.071795404
170	0x3de1457c	0.10999581
171	0x3e06e8ff	0.13174818
172	0x3dfe3974	0.12413302
173	0x3e027729	0.12740768
174	0x3e0c19a3	0.13681655
175	0x3e46dc1a	0.194199
176	0x3dfb8f9d	0.122832514
177	0x3df3f734	0.11912385
178	0x3e28da96	0.16489634
179	0x3dd76938	0.10518116
180	0x3e1ba9e3	0.15201525
181	0x3e82b67a	0.25529844
182	0x3e238df1	0.15972115
183	0x3e2beac6	0.16788778
184	0x3dbacb8e	0.09120856
185	0x3dec4a71	0.11537636
186	0x3ec75e12	0.38938957
187	0x3e1961f4	0.14978772
188	0x3da5a8aa	0.08088811
189	0x3dab08ad	0.08351264
190	0x3e2cd400	0.16877747
191	0x3e00e7aa	0.12588373
192	0x3df26d96	0.11837308
193	0x3e2dcba4	0.16972214
194	0x3d63ccb9	0.05561516
195	0xbd77a596	-0.06046065
196	0x3d9c237a	0.07623954
197	0x3db19e1c	0.08672735
198	0x3e1da54c	0.15395087
199	0x3debbb8d	0.11510382
200	0x3e05ea14	0.13077575
201	0x3d361eba	0.044462897
202	0x3e36e2eb	0.1786
203	0x3d903d53	0.07042947
204	0x3ea62913	0.32453212
205	0x3de2303c	0.11044356
206	0x3e377fdc	0.17919868
207	0x3e65a8d4	0.22427684
208	0x3d76fc79	0.06029937
209	0x3e07db14	0.13267165
210	0x3d8414bc	0.06449267
211	0x3daa6651	0.083202966
212	0x3da09305	0.07840542
213	0x3df0a089	0.1174937
214	0x3da273ac	0.07932219
215	0x3de683ec	0.11255631
216	0x3e95bd2a	0.29245883
217	0x3db03aa1	0.086049326
218	0x3e14f404	0.1454621
219	0x3d9b3e17	0.07580202
220	0x3e020a81	0.1269932
221	0x3ea177f4	0.3153683
222	0x3e65154a	0.22371402
223	0x3ddbc732	0.10731353
224	0x3e7ed3d7	0.24885498
225	0xbeb3c91d	-0.35114375
226	0x3e15e10f	0.14636634
227	0x3e9ee9da	0.3103779
228	0x3df5849b	0.11988183
229	0x3e287f0d	0.16454716
230	0x3e07bcb6	0.13255581
231	0xbebad634	-0.3649155
232	0xbd73a8c9	-0.059487138
233	0x3d85855b	0.06519576
234	0x3e215e88	0.15758717
235	0x3d9a23ca	0.075263575
236	0x3dc405ac	0.09571394
237	0x3ea7c738	0.3276918
238	0xbf948645	-1.1603476
239	0x3e0c760f	0.13716911
240	0x3e06dceb	0.13170211
241	0x3e03b019	0.12860145
242	0x3ead6685	0.3386728
243	0x3eaf83ab	0.34280142
244	0x3e7ed2c6	0.24885091
245	0x3e0769e8	0.13223994
246	0x3dd9eb64	0.106406
247	0x3e90591b	0.28192982
248	0x3def351c	0.11680052
249	0x3e5b2a5d	0.21402879
250	0x3df1eae5	0.11812381
251	0x3df00440	0.117195606
252	0x3dfd33ad	0.12363372
253	0xbd955edc	-0.072934836
254	0x3ef90455	0.48636118
255	0x3df26b9d	0.11836932

lstm.weight_hr_l0 f4 [2, 700]
0	0x3dbdf7a5	0.0927575
1	0x3de5faa5	0.11229447
2	0x3dc97662	0.09837033
3	0x3def8c5f	0.116966955
4	0x3e028fee	0.12750217
5	0x3d837e2d	0.064205505
6	0xbdfb60cd	-0.12274323
7	0xbec1ca32	-0.37849575
8	0xbdda2c85	-0.10653023
9	0xbd975654	-0.07389513
10	0xbdf54c39	-0.11977429
11	0xbdf56d88	-0.11983782
12	0xbda835b9	-0.08213372
13	0x3ce92adb	0.028462818
14	0xbda82bd0	-0.082114816
15	0x3dc13229	0.094333954
16	0x3e0078e9	0.12546124
17	0xbd10e551	-0.035374943
18	0xbd98466f	-0.07435309
19	0x3ddfa45b	0.1092002
20	0x3dbeab91	0.093100674
21	0xbcd804ee	-0.026369538
22	0xbdcd94fc	-0.10038182
23	0xbdc7160b	-0.09721001
24	0xbdecea2d	-0.11568103
25	0xbd97cf5a	-0.07412596
26	0x3da862ff	0.08222007
27	0x3decc27e	0.11560534
28	0x3bafcf12	0.005365261
29	0x3c1e4af4	0.009661425
30	0xbd707981	-0.058709625
31	0x3eb61fd7	0.35571167
32	0xbd5d3a18	-0.05401048
33	0xbddef58d	-0.10886679
34	0x3df6d3b7	0.120521
35	0x3d9732b0	0.07382715
36	0x3d24c460	0.04022634
37	0xbdb46dd1	-0.08810008
38	0xbdd23448	-0.10263878
39	0x3de75e7c	0.11297318
40	0xbdf3baa9	-0.11900837
41	0xbfdcd655	-1.7252909
42	0xbdce01a7	-0.10058909
43	0x3cbbb0f6	0.02291153
44	0xbd2ee1e4	-0.042695895
45	0xbebf77a0	-0.37395954
46	0xbdfed376	-0.12442677
47	0xbd94ed26	-0.07271795
48	0x3da500b2	0.08056773
49	0xbd7d1484	-0.061787143
50	0xbd008dcd	-0.03138523
51	0xbd83e02b	-0.06439241
52	0xbde2ca65	-0.1107376
53	0x3d5072a7	0.05089059
54	0x3d99b5da	0.075053886
55	0xbd432d72	-0.047650762
56	0x3df07c41	0.117424496
57	0xbdab081a	-0.083511546
58	0xbdc1fdac	-0.09472212
59	0xbdddc3d0	-0.10828364
60	0x3de40e5a	0.1113555
61	0xbdbe0183	-0.09277632
62	0x3de234aa	0.11045201
63	0x3dc73000	0.09725952
64	0xbe029a8e	-0.1275427
65	0x3ebd7704	0.37004864
66	0xbdc07c70	-0.093987346
67	0xbdb0bd94	-0.08629909
68	0xbd841184	-0.06448653
69	0x3db06d13	0.08614554
70	0xbd9244b2	-0.07142009
71	0xbdfeb5f3	-0.12437048
72	0x3e691b54	0.22764331
73	0x3e05e15a	0.13074246
74	0xbdd9adad	-0.10628829
75	0xbdfab885	-0.122422256
76	0x3dd42969	0.10359461
77	0xbe039519	-0.12849845
78	0xbdbbdf6f	-0.09173476
79	0x3d86ad7c	0.06576058
80	0xbdb39863	-0.087693
81	0x3de18997	0.11012571
82	0x3de4946f	0.11161124
83	0x3f9aceeb	1.2094396
84	0xbddaeed2	-0.106900826
85	0x3e03b3b6	0.12861523
86	0x3dc5473a	0.09632726
87	0xbdb0272e	-0.08601223
88	0xbdcf6ec9	-0.101285525
89	0xbdebc992	-0.11513056
90	0x3d96ce63	0.07363584
91	0xbe0371c9	-0.12836374
92	0x3df0d927	0.117601685
93	0x3de56cd6	0.112023994
94	0xbd90a739	-0.07063145
95	0xbec885db	-0.39164624
96	0xbdf4d97b	-0.119555436
97	0xbde269f8	-0.11055368
98	0xbdabd80c	-0.08390817
99	0xbde5e2b0	-0.11224878
100	0xbe03bd4f	-0.12865184
101	0x3cadd567	0.021219922
102	0x3dcd9799	0.100386806
103	0xbd92fb0e	-0.07176791
104	0xbbd90940	-0.006623417
105	0x3de760b8	0.112977445
106	0xbd6e63fc	-0.05820082
107	0x3dcfce98	0.101468265
108	0xbda5397a	-0.080676034
109	0x3b7f8e80	0.0038994849
110	0x3d54d5a3	0.051961552
111	0xbd9c67db	-0.07636996
112	0x3da63f6a	0.08117564
113	0xbda1b63e	-0.07896088
114	0xbde3d0e2	-0.111238256
115	0x3e08296d	0.13297053
116	0xbd9e8b8c	-0.0774146
117	0xbdf79cbb	-0.12090441
118	0xbdc45264	-0.09586027
119	0x3d1cc173	0.038270425
120	0xbd9c2219	-0.07623691
121	0x3dddf0b0	0.10836923
122	0xbdd0dddf	-0.101985686
123	0x3e9e0ed2	0.30870682
124	0xbdf04a03	-0.117328666
125	0xbeb19068	-0.34680486
126	0xbe020411	-0.12696864
127	0x3e02935f	0.1275153
128	0x3dd7038a	0.10498722
129	0xbf98ea08	-1.1946421
130	0xbdfeb118	-0.12436122
131	0xbd6283b1	-0.055301372
132	0xbd9c71af	-0.07638871
133	0xbd99b40e	-0.07505046
134	0xbe01bb4f	-0.12669109
135	0xbdb095a5	-0.086222924
136	0x3dc027da	0.09382601
137	0x3dc1a539	0.09455342
138	0x3dcb6ed1	0.09933246
139	0xbd338bed	-0.043834615
140	0x3dab7e60	0.083737135
141	0xbdf0fddc	-0.1176717
142	0xbd69e1fc	-0.05710028
143	0x3d5a54dc	0.053303584
144	0xbc99cbe4	-0.01877398
145	0xbde2e7d5	-0.11079375
146	0x3d8be63f	0.06831025
147	0x3e2aa05a	0.16662732
148	0xbdd1d804	-0.1024628
149	0xbd4aee6c	-0.049543783
150	0x3db61806	0.08891301
151	0xbd4ea215	-0.050447542
152	0x3dca50a3	0.098786615
153	0x3dc66ae6	0.09688358
154	0x3d854c3e	0.06508683
155	0x3df02f74	0.11727801
156	0x3d188fd7	0.03724655
157	0xbe067d2b	-0.13133685
158	0x3dec020a	0.115238264
159	0x3de0211d	0.10943816
160	0xbde7b3c5	-0.11313585
161	0xbd571038	-0.0525057
162	0xbdeea353	-0.116522454
163	0x3dfcedb4	0.12350026
164	0xbdb9a9c4	-0.09065583
165	0xbddff42b	-0.10935243
166	0xbdd92ce5	-0.10604266
167	0xbe073458	-0.13203561
168	0xbd8af082	-0.067841545
169	0x3df23e28	0.118282616
170	0xbd1667c8	-0.036720067
171	0x3dd9df51	0.10638297
172	0x3da2b948	0.07945496
173	0xbdeecf2d	-0.116606094
174	0xbddd97e4	-0.108199865
175	0xbe1d6c3b	-0.15373318
176	0x3dce512a	0.100740746
177	0xbd619585	-0.055074234
178	0x3dca119e	0.098666415
179	0xbdca0515	-0.098642506
180	0x3dfeb7e0	0.12437415
181	0xbdb5a87a	-0.08870025
182	0x3dfc037c	0.12305352
183	0x3db7eef0	0.089811206
184	0xbd932951	-0.07185615
185	0x3daa185b	0.08305427
186	0xbdfb3b3f	-0.1226716
187	0x3db09a2d	0.08623157
188	0xbda36a03	-0.079792045
189	0xbd88d58a	-0.06681354
190	0xbdf880cd	-0.12133942
191	0x3de08358	0.10962552
192	0x3dd1613d	0.10223625
193	0x3dbdf332	0.092749014
194	0x3ce32229	0.02772625
195	0x3daaa3dc	0.08332035
196	0xbddbeeca	-0.10738905
197	0x3d5f504a	0.05451993
198	0x3df4596a	0.11931117
199	0x3de0fb3f	0.109854214
200	0x3dbe5049	0.09292657
201	0xbc0dda3c	-0.008657988
202	0x3dbd5c94	0.092461735
203	0xbdbb5ea8	-0.091489136
204	0x3e079c51	0.13243224
205	0x3de1ba8c	0.11021909
206	0x3d75f6f5	0.06004997
207	0xbdff5a18	-0.12468356
208	0x3d75f02d	0.060043503
209	0x3e01d1d1	0.12677695
210	0x3dde892a	0.10866006
211	0xbe07a198	-0.13245237
212	0xbdbbd590	-0.09171593
213	0xbdbc981d	-0.09208701
214	0x3d647b1a	0.05578146
215	0xbd9ee844	-0.07759145
216	0xbdd74bce	-0.105125055
217	0x3dd7a78b	0.10530003
218	0x3d8c2b06	0.068441436
219	0xbd57650c	-0.0525866
220	0x3d8d18f7	0.06889527
221	0x3db6b023	0.08920314
222	0x3d8e7f50	0.06957877
223	0x3deff05e	0.11715768
224	0x3dd0c838	0.10194439
225	0xbd489a0e	-0.048975043
226	0xbdd8d339	-0.105871625
227	0x3db05ae7	0.08611088
228	0x3dbafa0f	0.09129726
229	0x3e0620db	0.13098471
230	0x3d72371d	0.05913459
231	0x3eaec7fc	0.3413695
232	0xbc1bc920	-0.009508401
233	0x3cd70c93	0.026251113
234	0xbd8afb6d	-0.06786237
235	0x3de9eb80	0.11421871
236	0x3dc1dbf5	0.094657816
237	0x3dbe9e87	0.093075804
238	0x3ea8f58d	0.3299984
239	0xbd864a30	-0.06557119
240	0x3d948fca	0.07253988
241	0x3de7cc06	0.11318211
242	0x3d8011e2	0.06253411
243	0xbdf4a0a4	-0.11944702
244	0x3df245c2	0.118297115
245	0x3de6b6ee	0.1126536
246	0xbdf8fa7a	-0.121571496
247	0xbe018baf	-0.12650941
248	0xbddbbc0c	-0.107292265
249	0x3d1dabc1	0.038493875
250	0x3df0ba3f	0.117542736
251	0xbc987a4f	-0.018613009
252	0xbd8dcc3d	-0.06923721
253	0xbdf7d4f8	-0.121011674
254	0xbdb4f705	-0.08836178
255	0xbe4d24bb	-0.20033543

exp_avg f4 [70, 2]
0	0x3bd38bb3	0.0064558624
1	0x3b1dcadb	0.002407721
2	0xbab83b80	-0.0014055818
3	0x3b89d0c9	0.0042057973
4	0x3988804d	0.00026035533
5	0x3afb4f9b	0.0019173505
6	0xbc043233	-0.008068609
7	0x3c1948ac	0.009355705
8	0xb81e2824	-3.770752e-05
9	0x384d4979	4.8944235e-05
10	0x3b01bd5b	0.0019796703
11	0x39883822	0.00025981764
12	0xbb70f2ae	-0.0036765742
13	0xb9e3e420	-0.0004346678
14	0xba875524	-0.0010325057
15	0xbb35de08	-0.002775075
16	0x3a14c65a	0.00056753086
17	0xbb3f88cf	-0.0029225831
18	0x3b243369	0.0025055057
19	0xbbbcae6b	-0.005758097
20	0xb9acfb0e	-0.00032993447
21	0x3bc74030	0.00608065
22	0x3aa550c2	0.0012612569
23	0xba221d4b	-0.00061841746
24	0xbaa01061	-0.0012211913
25	0xb90f6fa1	-0.00013679128
26	0x3c9ac5be	0.018893119
27	0x3b232674	0.0024894746
28	0xba5f48a1	-0.00085175975
29	0x3b9c2fb4	0.004766429
30	0xbbd888e7	-0.006608117
31	0xba6b6380	-0.0008979365
32	0xbb6c4ec9	-0.0036057702
33	0x3b3a2186	0.002840133
34	0x39ce8fb9	0.00039398464
35	0xbb94478f	-0.004525132
36	0x3aadcf53	0.001326064
37	0xbc51a12b	-0.012794773
38	0x3bb87207	0.0056288275
39	0x3a809d4b	0.0009812502
40	0x3a874b0b	0.0010322047
41	0x3bb5c23b	0.0055468357
42	0x39250ff6	0.00015741572
43	0xbb75da70	-0.0037514232
44	0x3b8770a1	0.0041332995
45	0xbb22636e	-0.0024778503
46	0x3b35d234	0.00277437
47	0xbbbaddbf	-0.0057027037
48	0xb8f392a1	-0.00011614455
49	0xb6bcc24a	-5.625455e-06
50	0xb85692dc	-5.115835e-05
51	0x3883d6a4	6.286547e-05
52	0x3ad7a566	0.0016452491
53	0xba856d21	-0.0010179618
54	0x39efa68f	0.00045709728
55	0xbb3df59e	-0.002898551
56	0xbb0935e3	-0.002093666
57	0xba3a4d9f	-0.00071069034
58	0x39bf708a	0.00036514207
59	0xbb9a06e4	-0.0047005285
60	0x3a7fc6d1	0.0009757104
61	0xbabc91f2	-0.0014386757
62	0xbb8c0d4f	-0.0042740474
63	0xbc5ea38f	-0.0135888
64	0xbb3aa79e	-0.0028481255
65	0x3b890753	0.0041817813
66	0x3bda47ca	0.00666139
67	0x3a8ab556	0.0010582607
68	0xbb8133cf	-0.0039429436
69	0xb9b079d3	-0.00033660102
70	0xbaa718cd	-0.001274848
71	0x3c0d48b4	0.008623291
72	0xba77c3ea	-0.0009451496
73	0xb9cd1c0a	-0.00039121538
74	0x3b161850	0.0022902675
75	0xbb2f7ba1	-0.002677657
76	0xbbe4c09b	-0.006980968
77	0x3c3aaee5	0.011394237
78	0x36d11801	6.23148e-06
79	0xb97b7c3f	-0.0002398351
80	0xbbbc6017	-0.0057487595
81	0x3ca3ca32	0.019993875
82	0xbc07f4ff	-0.008298158
83	0xb8e371ba	-0.00010845387
84	0xba4c777c	-0.0007799787
85	0x3b384193	0.0028115257
86	0x3b6530b5	0.0034971659
87	0x3c07ffad	0.008300704
88	0xbb529544	-0.0032132426
89	0xb92e922c	-0.00016648386
90	0xbb40d2af	-0.0029422452
91	0x3c200294	0.00976624
92	0xba5f8709	-0.00085268967
93	0xbaf7a2ab	-0.0018893083
94	0xbbb2e809	-0.0054597897
95	0x3c6c6ab8	0.014429741
96	0xbbcbdf11	-0.00622166
97	0x39acc0ad	0.0003294995
98	0xbabdb393	-0.0014473073
99	0x3b92ef24	0.004484074
100	0xba0196a3	-0.0004943406
101	0xb88a48d3	-6.593917e-05
102	0xbbaf7b11	-0.005355247
103	0x3a35c5ca	0.0006934075
104	0xbc4864e3	-0.0122310845
105	0xbb1d499f	-0.002400018
106	0x3aa4234e	0.0012522729
107	0x3be46dfa	0.006971118
108	0xbb5f81f0	-0.0034104548
109	0xb9ef7025	-0.00045669187
110	0xba1ed5f9	-0.0006059106
111	0xbba7bc04	-0.0051188488
112	0xbb91740a	-0.0044388818
113	0x3b30a936	0.0026956326
114	0x3bc0face	0.0058892732
115	0xbc9f1ce3	-0.019422954
116	0x3b5c2ecf	0.0033597236
117	0x39d6f7a1	0.0004100176
118	0x3b299a5d	0.0025879361
119	0xbc2147a8	-0.009843744
120	0xba812396	-0.0009852524
121	0x3a732773	0.0009275593
122	0xb7252753	-9.843922e-06
123	0x375e51ef	1.3251308e-05
124	0xbb62db61	-0.0034615623
125	0xba2829b1	-0.0006414904
126	0xbb720714	-0.0036930488
127	0xb9d38e35	-0.0004035101
128	0xba5797e3	-0.0008224232
129	0x3b42a6e5	0.0029701528
130	0xbacafa9a	-0.0015486062
131	0x3a25e8ea	0.00063289574
132	0x39d9b1b6	0.0004152187
133	0x3bd5d5cc	0.0065257307
134	0xbc0d182e	-0.008611722
135	0xbbe999e8	-0.0071289428
136	0xba94f8de	-0.0011365672
137	0x3924b472	0.0001570748
138	0xba42b6af	-0.00074277347
139	0x3bfc1fa7	0.007694203

exp_avg_sq f4 [70, 2]
0	0x392640b6	0.000158551
1	0x38e4f069	0.00010916667
2	0x39255946	0.00015768883
3	0x3b00b459	0.0019638746
4	0x397fff1e	0.00024413734
5	0x3ac8c80b	0.0015318407
6	0x390a2b98	0.00013176946
7	0x3a855767	0.0010173143
8	0x34668fd1	2.147274e-07
9	0x3376cd3a	5.746299e-08
10	0x38740ee5	5.8188005e-05
11	0x3585447e	9.929206e-07
12	0x398bde30	0.0002667769
13	0x367f9fe9	3.809104e-06
14	0x3a185cb4	0.00058121537
15	0x3a1d7f8c	0.00060080807
16	0x380e472a	3.3921715e-05
17	0x39adea6c	0.0003317179
18	0x38ad06ca	8.2505474e-05
19	0x3acbaa59	0.0015538438
20	0x39a3f53b	0.00031272494
21	0x3b9cc087	0.0047836932
22	0x387b83a0	5.996565e-05
23	0x363f4dc1	2.8506477e-06
24	0x388f2ba1	6.826898e-05
25	0x35f24b89	1.8052389e-06
26	0x3a1d6552	0.00060041726
27	0x373961f9	1.104967e-05
28	0x394833e3	0.00019092816
29	0x39cc169b	0.00038926754
30	0x39f40e73	0.00046550072
31	0x371acb36	9.226429e-06
32	0x3978cb3f	0.00023726838
33	0x3a851384	0.0010152911
34	0x39223702	0.00015470016
35	0x381e7553	3.7779402e-05
36	0x39663a45	0.00021956216
37	0x3aa79821	0.0012786427
38	0x3983e4d5	0.0002515676
39	0x3685f3ed	3.9921056e-06
40	0x3910ff10	0.00013827928
41	0x3a8baa19	0.0010655551
42	0x38cc36eb	9.737707e-05
43	0x3a8783e8	0.0010338994
44	0x386919d6	5.557559e-05
45	0x398fec91	0.0002745134
46	0x3930bed4	0.00016855757
47	0x3a609ea0	0.0008568559
48	0x375945e1	1.2950478e-05
49	0x357a9472	9.3348274e-07
50	0x3531a788	6.618143e-07
51	0x33d93a76	1.0115484e-07
52	0x385ebb79	5.3103522e-05
53	0x37a7af75	1.9989655e-05
54	0x383fe72b	4.575324e-05
55	0x389dd751	7.526449e-05
56	0x39189195	0.00014550083
57	0x38b494a6	8.610757e-05
58	0x388fde37	6.860162e-05
59	0x3a4ee4b4	0.0007892356
60	0x3882b2c2	6.232179e-05
61	0x38b37914	8.557938e-05
62	0x398d94d6	0.00027004507
63	0x3ae24a36	0.0017264548
64	0x399d0ca6	0.00029954797
65	0x3ac56051	0.0015058612
66	0x39f27713	0.00046246554
67	0x37356c7b	1.0813698e-05
68	0x3a2f55e9	0.0006688522
69	0x37795d98	1.4863348e-05
70	0x38e427b1	0.0001087928
71	0x39c9ee5b	0.00038515296
72	0x392db191	0.00016564714
73	0x3672bf8c	3.6172305e-06
74	0x39313ee9	0.00016903471
75	0x3a1b94e4	0.0005934967
76	0x39b2f5c6	0.0003413392
77	0x3b37c261	0.0028039443
78	0x3841e3a9	4.622681e-05
79	0x36cf7fa8	6.183942e-06
80	0x39be1e96	0.00036262412
81	0x3b18995d	0.002328477
82	0x398a6512	0.00026396714
83	0x38f59c11	0.0001171158
84	0x391f903e	0.00015217156
85	0x3a7ff422	0.00097638567
86	0x3a4ef529	0.0007894808
87	0x38c35b3f	9.3153205e-05
88	0x3a32bf4b	0.0006818666
89	0x370ee423	8.516977e-06
90	0x3a04fe59	0.0005073301
91	0x3ac4c3e3	0.0015011992
92	0x393f6b21	0.00018255088
93	0x3a9b3438	0.0011841124
94	0x39b1076c	0.000337656
95	0x3aeaa32f	0.0017901416
96	0x39dfbc81	0.0004267432
97	0x3b1fe1e4	0.0024396116
98	0x38a2cc90	7.762865e-05
99	0x3a210862	0.0006142912
100	0x37fcd05f	3.0137771e-05
101	0x3588abfa	1.0182841e-06
102	0x39e8dd4c	0.00044415367
103	0x388f85de	6.843706e-05
104	0x3a02976c	0.000498167
105	0x375aceae	1.3041934e-05
106	0x391b4ede	0.00014811332
107	0x3a97775e	0.001155596
108	0x3a2e9132	0.0006659209
109	0x3797d75c	1.8100887e-05
110	0x3905c93c	0.00012758834
111	0x39bf6223	0.00036503476
112	0x38a21659	7.7289245e-05
113	0x37e7b96a	2.7623686e-05
114	0x39c797f7	0.0003806946
115	0x3bbeec5c	0.005826516
116	0x39c0b805	0.000367582
117	0x36a7ca22	5.000519e-06
118	0x3940b00b	0.00018376128
119	0x3b2848ca	0.0025678151
120	0x3848cfec	4.7877358e-05
121	0x381720a0	3.603159e-05
122	0x354c450a	7.6096387e-07
123	0x33786c70	5.7840623e-08
124	0x39845d24	0.00025246397
125	0x3694c5ca	4.4337694e-06
126	0x39b1a658	0.00033884007
127	0x36c47f1d	5.856053e-06
128	0x39143e56	0.00014137602
129	0x3ae912c2	0.001778208
130	0x37af4e9c	2.0898231e-05
131	0x36daa5b6	6.5161976e-06
132	0x3873e5a1	5.8149573e-05
133	0x39f56af6	0.00046809734
134	0x392995df	0.00016172927
135	0x3a4ec2a5	0.00078872807
136	0x3997478d	0.00028854274
137	0x36834a69	3.9127667e-06
138	0x39294536	0.00016142879
139	0x3ad52194	0.0016260617
