lightning_logs/version_75/checkpoints/epoch=14-step=5880.ckpt (torch, 412350 bytes, 15 tensors)

lstm.weight_ih_l0 f4 [5200, 2]
000000 a8 db e8 3c 32 d6 21 bb 80 d5 55 3d 6f 83 5a 3d
       0.028425053 -0.002469432 0.052205563 0.053348
000010 07 4c 41 3c f9 b7 09 3c 25 9b d7 3c e0 31 a1 3b
       0.0117979115 0.008405679 0.026319096 0.0049192756
000020 70 ef fe 3c fc 56 8e 3c c5 28 ba bc 12 7a 27 bd
       0.031120032 0.017375462 -0.022724519 -0.0408879
000030 48 b8 79 bd b8 41 48 3b 62 76 75 3d e6 01 88 3d
       -0.06096676 0.003055675 0.05992735 0.06640987
000040 fc d9 4d bd 49 34 55 bd 4e 83 87 bc 24 59 21 bd
       -0.050256714 -0.052051816 -0.016542103 -0.03939165
000050 b9 d1 c4 be ed bd b6 be ed 16 2f 3c ab ed 2b 3c
       -0.38441256 -0.35691777 0.010686618 0.010493676
000060 6a e3 3c bd bb c5 bf bc 0f c8 bf bd fa 7a 80 bd
       -0.046115316 -0.023409715 -0.0936433 -0.06273456
000070 2f 9e 7d bd 5c 0d 4e bd f5 36 4a 3d 85 93 a7 3d
       -0.061918434 -0.05030571 0.049368817 0.08182434
000080 8c bd 43 3c 27 35 b6 3c c4 f8 75 be db 00 72 be
       0.011947047 0.022242142 -0.24020678 -0.23633139
000090 90 f6 86 3c 6d 43 73 3c e5 dd f8 be 84 2a ee be
       0.016474992 0.0148476185 -0.48606792 -0.46516812
0000a0 21 c3 40 bd 40 58 4e bd eb 6a dd be 2e f2 cc be
       -0.04706109 -0.05037713 -0.43245634 -0.40028518
0000b0 15 18 e5 3c d4 c1 8e 3c 0f 4b f0 bb f8 2f 50 3d
       0.027965585 0.017426409 -0.0073331664 0.050826997
0000c0 e5 8a 85 3d 69 09 ea 3c 0f f0 86 bd 42 c9 42 bd
       0.06520633 0.02856894 -0.06588756 -0.047555216
0000d0 55 a8 b4 3c eb fe eb 3c df 7c 1a 3d 16 b7 8f 3c
       0.022052923 0.028808078 0.037716743 0.017543357
0000e0 08 4c 66 bd e5 02 22 bd 33 43 db 3c d5 e0 ef 3c
       -0.056224853 -0.03955354 0.026765442 0.029282013
0000f0 01 45 40 bd 5c 09 03 bd e8 ee 12 3d 1d bf 08 3c
       -0.046940807 -0.031991348 0.03587237 0.008346346
000100 5e be a4 bb 47 d7 60 3d 97 d3 78 bd 33 80 3c bd
       -0.0050275763 0.054892804 -0.060748663 -0.046020698
000110 e3 89 ba bc 5a a7 3b bd ec be 74 bd ce 93 5a bd
       -0.022770828 -0.045813896 -0.05975239 -0.053363614
000120 cd b6 3b 3c 38 eb 20 3d 60 b2 a7 b9 33 f7 38 3d
       0.011457157 0.039286822 -0.00031985622 0.045157623
000130 62 75 a9 3c 61 05 db 3c 1c 3f 15 3d e8 2d 98 3c
       0.020685855 0.026735963 0.03643714 0.018576577
000140 56 2a 9f bd de 3e fd bb 20 7e 8b 3d 52 d5 3b 3d
       -0.07771747 -0.0077284416 0.06811166 0.045857735
000150 92 d8 a1 bc 4a 26 9b 3d ec f3 6e bd bb f5 00 bd
       -0.01975659 0.075756624 -0.05833809 -0.031484347
000160 f6 ad c9 bd 3f 0d 96 bd 71 f5 26 bd f1 e3 4e bd
       -0.098476335 -0.07326745 -0.040761415 -0.05051035
000170 d1 88 17 3d 78 84 cd 3c 90 62 7a 3d b5 4b c1 3d
       0.036995713 0.02508758 0.061129153 0.09438268
000180 83 0e 8f bd e6 cf 61 bd 46 8f 3b bd 4a 61 72 bd
       -0.0698519 -0.055129908 -0.045790933 -0.059174813
000190 31 d3 9b 3c 26 41 1f 3d b9 c4 b5 bc 17 2e 8d 3c
       0.019021602 0.03888049 -0.022188531 0.017233891
0001a0 60 57 3d 3c 39 9f 1b 3d 2a 54 4e bd 45 08 02 bd
       0.011556476 0.037993643 -0.050373234 -0.031746168
0001b0 5e 5c 25 3d ea d5 6a 3d 0e 7e 1c 3d 26 2b fd 3c
       0.04037129 0.05733291 0.038206153 0.030904364
0001c0 ed 76 69 bd 73 f8 84 bd 96 4f 3c bd 68 96 94 bd
       -0.056998182 -0.064927004 -0.045974337 -0.0725525
0001d0 9a 1d 00 bd d7 bb 8f bd ba 39 79 bd b2 4d 25 bc
       -0.03127823 -0.070182495 -0.060846068 -0.010089325
0001e0 31 1b 9b bc 30 6b 2d bd e2 e0 5e 3c c8 ea 6e 3c
       -0.018933864 -0.04233855 0.013603421 0.014582343
0001f0 6b ab 82 bd c7 40 0c bc d9 c7 8c 3d b4 83 dc 3c
       -0.06380352 -0.008560366 0.068740554 0.02691827
000200 cf 26 8e 3d 96 97 8d 3d cf aa 5d 3d ce bb ac 3c
       0.06940996 0.06913678 0.054117974 0.021085646
000210 51 06 3f 3d 43 69 c7 3c 75 c2 42 bd 2f 79 80 bd
       0.046636883 0.024342185 -0.04754873 -0.06273114
000220 f3 0a 24 3c 1c 9b c3 3c 21 76 89 3d 1f 54 0c 3d
       0.010012376 0.023877673 0.067119844 0.03425991
000230 2f ed d0 3c 37 a9 60 3c 7b 32 dd 3c 9d 2b 1e 3c
       0.025503723 0.013712219 0.02700161 0.009653953
000240 56 5d ac 3b c5 d2 1f 3d e4 a4 25 bd bc bf 4d bd
       0.00526015 0.039019365 -0.040440455 -0.05023168
000250 4a 39 69 bb 0f 1d 53 bd 6e 95 44 3c 74 27 f9 3c
       -0.0035587125 -0.051541384 0.011998517 0.03041432
000260 08 f5 10 bd e2 5a 21 bd 8d dd d5 bd e9 cd 03 be
       -0.03538993 -0.039393313 -0.10442648 -0.12871517
000270 d1 65 48 3d ec d8 01 3d cf 69 24 bd 06 21 29 bd
       0.048925225 0.031701013 -0.04013997 -0.04129126
000280 05 37 80 3c 20 4f b1 3c d1 97 39 3c 83 14 fd 3c
       0.015651235 0.021644175 0.0113277 0.03089357
000290 fd e5 a4 3c 9c e2 d1 3c ca 4d af bc bb cb 3d bc
       0.020129198 0.025620751 -0.021399397 -0.011584218
0002a0 f9 86 bc 3c 5b b0 b7 3b 5c 10 99 bd 97 32 3f bd
       0.023013579 0.00560574 -0.074738234 -0.046679106
0002b0 33 a6 4d bd 9d 58 8f bd 26 75 92 bc 67 34 b5 bc
       -0.050207328 -0.069993235 -0.017878126 -0.022119714
0002c0 70 c3 04 bd df a3 68 bd 25 ed a2 3c 53 4d 05 3d
       -0.032412946 -0.056796905 0.01988847 0.032544445
0002d0 c2 00 10 bd 39 67 0e bd 6b 94 c2 3c b0 a0 19 3d
       -0.035156973 -0.03476641 0.023752412 0.03750676
0002e0 dd c1 e0 3c d8 51 31 3c 4d 76 a4 ba 3e 7e 7b 3c
       0.027436191 0.010822736 -0.0012547463 0.015349923
0002f0 ae 16 7a bd 88 69 64 bd 98 8e 33 3d f0 59 57 3d
       -0.061056785 -0.055764705 0.04383716 0.052576005
000300 fc 81 57 bd ed d0 72 bd 40 3d 5f bd 3e 0b 59 bd
       -0.052614197 -0.05928128 -0.054501772 -0.052989237
000310 84 9f 38 bc ca c7 e2 bb af ec 8b bd 2e 1c 30 bd
       -0.0112685 -0.0069207894 -0.06832253 -0.042995624
000320 27 67 83 3c 30 c1 49 3d 14 0e 8a bc f9 e5 96 3d
       0.016040398 0.049256504 -0.016852416 0.073680826
000330 ad 3c e2 3c 1c 89 72 3d 34 c5 9b 3c ba a9 82 3d
       0.027616823 0.05921279 0.019014932 0.06380029
000340 ed 73 ba bd f1 19 33 bd a4 42 09 3c af 02 23 3d
       -0.09104142 -0.04372591 0.008377705 0.03979748
000350 38 45 83 bd 5b 00 29 bd 6f 20 e1 3c f6 fc 95 3c
       -0.06409687 -0.041260105 0.027481286 0.018309098
000360 9f 91 55 bd cc 0b 01 bd 44 87 3b bd 88 08 3e bd
       -0.05214083 -0.03150539 -0.045783296 -0.046394855
000370 4f bf 98 3c 31 8a a5 3c 9d a6 2b bd 86 69 bf bc
       0.01864591 0.020207496 -0.04190694 -0.023365747
000380 04 83 36 bc 9d 99 09 bd bf f6 0c 3d 42 a8 08 3d
       -0.011139635 -0.033593763 0.034415003 0.03336359
000390 f6 c2 16 be 54 7b 29 be db 14 af bc 14 a5 a7 3d
       -0.14722809 -0.16550952 -0.02137225 0.08185783
0003a0 fb a9 b0 3c b7 d6 85 3d 53 64 cc bd f6 55 57 bd
       0.021565428 0.06535094 -0.09980073 -0.052572213
0003b0 d1 fc 7f 3d 84 cc 7a 3d a8 af 38 bd 30 82 52 bc
       0.062496964 0.061230198 -0.045089394 -0.012848422
0003c0 93 1f 41 bd 38 6c 44 bc c7 d2 bf bd 3b ff 31 bd
       -0.047149252 -0.011988692 -0.093663745 -0.043456297
0003d0 16 d4 4d bd 13 0f 8c bd 34 eb 14 3d 91 10 34 3d
       -0.05025109 -0.06838813 0.03635712 0.04396111
0003e0 d7 40 04 bd 94 23 2b bd b9 9b c0 3c 05 c0 61 b9
       -0.0322884 -0.041781977 0.023511754 -0.00021529205
0003f0 6e 7a 8a be c3 bb 7f bd 4d 92 7c bc 9c ea 31 bd
       -0.2704653 -0.062434923 -0.01541574 -0.04343663

lstm.weight_hh_l0 f4 [5200, 2]
000000 05 fb b2 3d 37 63 3c 3e 57 e3 8e 3d ee 75 4b 3d
       0.087392844 0.18397222 0.069769554 0.049673013
000010 f8 f6 96 3d cc 47 64 3d 52 18 79 3d 18 11 a4 3d
       0.07371324 0.055732533 0.06081421 0.08011073
000020 d1 9d 6a 3d c0 c8 52 3d 1b ca 15 3e 10 23 d4 3d
       0.05727941 0.05146098 0.14627878 0.1035825
000030 ef 3c 37 3e a4 b4 91 3e e9 5f 87 3d 06 23 2f 3d
       0.17894338 0.2845813 0.0661009 0.04275801
000040 03 cc d7 bc 8f 6c 38 bd 79 21 af 3e ea a4 ae 3e
       -0.026342398 -0.045025405 0.34205225 0.34110194
000050 72 aa 19 be aa 43 cf bd a5 5a 47 3d 28 b6 87 3d
       -0.15006426 -0.10120328 0.04867043 0.066265404
000060 aa 00 4e bd 43 26 38 bd 91 d7 9f 3e 2e 17 aa 3e
       -0.050293602 -0.044958364 0.31219152 0.3322081
000070 12 61 ad 3e 6c 13 9c 3e 78 9e bb 3e a3 60 c9 3e
       0.3386312 0.30483568 0.3664434 0.3933154
000080 58 60 eb 3d c3 ad dc 3d 6c 2a 1a be 1e 07 4a be
       0.114929855 0.1077533 -0.15055245 -0.19729277
000090 f9 a3 5d 3d 9a 04 b1 3d 99 08 28 be 58 c5 19 be
       0.054111455 0.08643456 -0.1640953 -0.15016687
0000a0 17 7c 99 3e f7 4e 8e 3e 72 a7 03 be e4 ec ef bd
       0.29977486 0.2779462 -0.12856844 -0.11715105
0000b0 88 59 0b 3e d7 fb 01 3e 8c 0e cd 3d ed 40 17 3e
       0.13608372 0.12693726 0.1001254 0.14770861
0000c0 74 f9 8c 3d fa bb 85 3d 45 70 8f 3e ba 96 ac 3e
       0.06883517 0.06529994 0.28015342 0.33708745
0000d0 49 da 24 3d c2 62 73 3d de 35 c4 3d 36 25 94 3d
       0.040247235 0.059420355 0.09580587 0.0723366
0000e0 43 78 12 3e 7b e9 25 3e 84 d4 4c 3e bf 68 57 3e
       0.14303689 0.16202347 0.20002943 0.21036051
0000f0 cb c2 99 bd 02 1f 99 bd dd bf ed 3c 10 6a 97 3d
       -0.07507857 -0.074766174 0.029022152 0.07393277
000100 ae 65 88 3e 68 10 9c 3e 48 69 94 3e 6e b5 a3 3e
       0.26640075 0.30481267 0.28986573 0.31974357
000110 fb 92 8e bd 31 48 64 bd 51 3e 84 3e ed 54 80 3e
       -0.06961628 -0.05573291 0.25828794 0.25064793
000120 5f 04 ab 3d a5 da 58 3d 34 40 cd 3d 88 62 e5 3d
       0.08350443 0.05294289 0.100220114 0.11200434
000130 8f 22 a5 3d ae 2a 3a 3d f6 4a 14 3d 57 16 13 3d
       0.08063232 0.04545086 0.0362043 0.035909977
000140 75 4e 8c 3e 1a 0c a4 3e f5 87 3e 3d a0 ae 19 3d
       0.27403608 0.32040483 0.046516377 0.03752005
000150 f9 18 a0 3e 3d 71 a8 3e 95 0c b6 bd 3d fc 6b bd
       0.31269053 0.32898894 -0.088891186 -0.0576136
000160 9b 74 a7 3e 7d f8 9d 3e 98 7d c1 bd a2 91 d9 bd
       0.3270615 0.30853644 -0.09447783 -0.106234804
000170 2b c3 80 3d 3b 39 9b 3d d4 b1 7b 3e 26 d1 73 3e
       0.06287225 0.07579275 0.24579555 0.23810253
000180 96 8e a4 3e bb 7d b0 3e 82 46 62 bd 39 dc 5a bd
       0.32140034 0.34470925 -0.055243023 -0.053432677
000190 5e f4 c9 3d 2e a2 1a 3e b1 e4 05 3e 45 db 02 3e
       0.098610625 0.15100929 0.1307552 0.12778957
0001a0 2b 67 8b 3d ab 95 3c 3d 4e f1 92 3e 08 dc 8f 3e
       0.06806787 0.046041172 0.28699726 0.28097558
0001b0 9e b8 ab 3d da e4 5e 3d f4 81 7c 3d fa 77 31 3d
       0.08384822 0.05441747 0.06164737 0.04332731
0001c0 af e8 49 bd 70 3e 88 bd 50 bc 95 3e 0f 03 8b 3e
       -0.04929417 -0.06652534 0.29245234 0.2715077
0001d0 33 c6 4d bd de 25 e0 bc 9c 28 34 3e 59 a0 47 3e
       -0.050237846 -0.027361806 0.17593616 0.19494762
0001e0 85 e7 85 bd 49 ee 52 bd 90 de a2 3d 58 97 e9 3d
       -0.065382995 -0.051496778 0.07952607 0.1140582
0001f0 67 da 5d 3e 15 e3 5a 3e 16 a9 9a 3d 21 97 a5 3d
       0.21665345 0.21375687 0.07551782 0.08085466
000200 d3 79 24 3e d3 80 08 3e 69 ec 9a 3d c6 bc 37 3d
       0.16062097 0.13330393 0.07564623 0.044857763
000210 b3 44 7f 3d 4f ed b4 3d 47 5b 89 3e 75 e6 8e 3e
       0.062321376 0.088343255 0.26827452 0.279102
000220 59 17 a9 3d 63 bb 99 3d 0c 20 2a 3d 5f 7f a4 3d
       0.08256406 0.07506444 0.04153447 0.080321066
000230 3c 41 89 3d 86 7b 00 3d aa 27 c6 3d f4 09 c7 3d
       0.067018956 0.0313678 0.09675534 0.09718695
000240 a7 8c 02 3e b5 65 1d 3e c2 6a 87 bd 1c 3c 80 bd
       0.12748967 0.1537083 -0.06612159 -0.06261465
000250 b9 54 c2 3b dc a2 10 3d e8 d6 7c 3e 6a 78 6c 3e
       0.00593051 0.035311565 0.24691355 0.2309281
000260 dc 88 6d bd 45 05 67 bd 8a f2 da 3e ba 43 df 3e
       -0.057991847 -0.05640151 0.42763168 0.4360636
000270 a2 cc 88 3d 7a 3c 28 3d df 47 64 3e 5a 28 84 3e
       0.066796556 0.0410733 0.22293042 0.25812036
000280 a3 c5 5c 3d 7c 2c 8a 3d 4b e5 d3 3d 57 ec 05 3e
       0.05389942 0.06746766 0.103464685 0.13078438
000290 55 dd 6a 3d 1c bf ae 3d 09 99 8d bd b4 a1 d2 bc
       0.057339985 0.08532545 -0.06913955 -0.025711872
0002a0 19 4d ce 3d 87 53 a8 3d 9e ce 9a 3e 3e dd 90 3e
       0.10073299 0.082190566 0.3023576 0.28293794
0002b0 40 68 30 3e 1a 04 4f 3e f4 9f 20 bc 6e f5 5c bd
       0.17227268 0.20216408 -0.009803761 -0.053944997
0002c0 18 36 bc bc d6 e2 5e bd a9 06 a9 3d 6e 08 a7 3d
       -0.022975013 -0.054415546 0.082532234 0.08155905
0002d0 e2 f9 85 bd a2 25 5c bc be 7d ac 3d 1b 3b da 3d
       -0.06541802 -0.013436707 0.08422421 0.10655805
0002e0 60 18 bb 3d d0 83 b8 3d bc 4a 4b 3d 09 e1 a7 3d
       0.091355085 0.09009516 0.04963182 0.08197219
0002f0 03 fa 7a 3e da 94 91 3e 7b 2d 06 3d c9 cf 98 3d
       0.24509434 0.28433877 0.032758217 0.07461507
000300 75 e0 97 3e 3d dc b2 3e f3 39 97 3e 3f 47 a2 3e
       0.29663435 0.34933653 0.295364 0.3169498
000310 b8 58 bf bd 86 56 5e bd b5 c3 8a 3e ad 05 8e 3e
       -0.09343094 -0.054281734 0.27102438 0.27738705
000320 12 68 10 3d 6e 4a 38 3d fa 40 aa 3e fa 9c 9b 3e
       0.0352555 0.044992857 0.33252698 0.303932
000330 18 1b 3e 3d 10 ff b0 3d a1 be 8c 3d a1 22 81 3d
       0.046412557 0.08642399 0.06872297 0.06305433
000340 0e 3a 93 3e 73 0f ad 3e aa 4a d7 3d ac d8 a5 3d
       0.2875523 0.3380085 0.10512288 0.080979675
000350 01 7c 96 3e 53 69 9d 3e c5 fc cf 3d 70 7d be 3d
       0.29391482 0.30744419 0.10155634 0.09301269
000360 6e 40 18 bd 37 90 a2 bd 53 f6 8e 3e cf 86 8f 3e
       -0.03717082 -0.07937663 0.27922305 0.28032538
000370 ff fe 90 3d e5 31 66 3d 16 ad 6d bd 3f 1a 92 bd
       0.07079887 0.056199927 -0.058026396 -0.07133912
000380 65 53 d8 3d 7a 37 11 3e 7a 5e 94 3d e0 3f 31 3d
       0.10562781 0.14181319 0.072445825 0.043273807
000390 99 99 05 3f 11 23 07 3f e3 c5 96 3e 21 ea 89 3e
       0.52187496 0.5278788 0.2944785 0.2693644
0003a0 12 45 9b 3d 92 03 a1 3d c2 42 6d 3e af e5 60 3e
       0.075815335 0.07862009 0.23169997 0.21962617
0003b0 48 26 6c 3e 1a 59 6c 3e 26 af 83 bd 5f 79 7f bd
       0.23061478 0.23080865 -0.06429891 -0.062371608
0003c0 16 49 cb 3d 06 41 10 3e 84 cd 92 3e 70 4d 96 3e
       0.099260494 0.14087304 0.2867242 0.29355955
0003d0 fb bb 82 3e 23 a3 82 3e 65 8b 03 3d e7 fc a8 3d
       0.25534043 0.25515088 0.03211536 0.08251362
0003e0 0d 48 94 bd 0e d6 77 bd 74 61 4b 3d ad c6 9c 3d
       -0.07240305 -0.060506873 0.049653485 0.07655082
0003f0 ba 80 71 3e 05 ba f8 3d e0 48 b3 bc eb 70 88 bd
       0.23584262 0.121448554 -0.021885335 -0.066621624

lstm.bias_ih_l0 f4 [5200]
000000 bb 48 b3 bc 21 97 80 3d 01 f5 10 3c 22 c9 cf bc
       -0.021885267 0.062788256 0.008847476 -0.025364462
000010 54 a7 0e bd b1 dd 14 bc c4 1c af bd 28 a5 0e 3d
       -0.034827545 -0.0090860585 -0.085504085 0.034825474
000020 e7 d8 57 bd 8b b6 c3 bc da 58 f8 be 47 ec 00 3d
       -0.05269709 -0.023890754 -0.48505288 0.03147533
000030 c9 35 66 bc 80 bb 83 bc 55 56 55 be f1 45 0a be
       -0.014050909 -0.016080618 -0.20833714 -0.13503243
000040 7c cc e7 bc 77 c0 8a be 85 8c ac bb d6 13 fe be
       -0.028295748 -0.27099964 -0.0052657747 -0.4962451
000050 69 f0 41 be b3 f4 f4 be 63 7e ce bd 48 28 9e bd
       -0.18939365 -0.4784294 -0.100827 -0.07722527
000060 36 b1 0b 3c e6 30 6b be 0f 45 2c bb 83 38 0b be
       0.008526137 -0.22967872 -0.002628628 -0.13595776
000070 17 63 0a bd b5 b6 14 be 16 2c c9 bc f0 ba 91 3c
       -0.033785906 -0.14522822 -0.024557155 0.017789334
000080 5f f8 a9 bd 83 39 5a be f7 d2 a6 bb 6a cb 78 be
       -0.08299326 -0.21311001 -0.005091067 -0.24296346
000090 26 0b 17 3d eb fb 7c bd f9 0d 4a 3d 2c f8 4e 3d
       0.036875866 -0.061763685 0.04932973 0.050529644
0000a0 f7 9a 1f be 0d cd 86 3d 76 d4 1b be 63 3f d5 bc
       -0.15586458 0.06582079 -0.15217766 -0.026031202
0000b0 29 93 59 be 3c 45 61 bd 97 76 39 3d 42 d4 a4 bd
       -0.21247543 -0.054997668 0.04527911 -0.080482975
0000c0 74 de 74 be 94 76 07 bd a3 c4 35 be 40 d7 03 bd
       -0.23912984 -0.03307207 -0.17750792 -0.0321877
0000d0 b9 e8 af 3c 62 b1 26 be b0 2f 81 3d 90 f6 21 3d
       0.021473275 -0.16278604 0.06307924 0.03954178
0000e0 eb f8 83 bd 87 d0 56 be 53 35 78 bd b7 ae 1b be
       -0.06443962 -0.20977984 -0.06059773 -0.15203367
0000f0 b3 d5 99 bc 5a 1b e4 ba fe f8 de bd b2 68 e4 3c
       -0.018778658 -0.0017403171 -0.10887335 0.027881954
000100 c0 cf 81 bd 88 43 cf 3c 89 15 fd 3c 5a 48 7f be
       -0.06338453 0.025300756 0.030894058 -0.24929944
000110 f7 eb 06 bd 90 a0 65 3d ae 90 f5 3b ba c2 e5 bc
       -0.032939877 0.056061327 0.007494054 -0.028046954
000120 a1 a5 5c bd 4f 64 53 bd c8 74 08 bd 5b d1 2a be
       -0.053868894 -0.051609334 -0.033314496 -0.16681425
000130 1e af cb bc 56 b2 d0 be e8 79 d5 3c be 5a 0f be
       -0.024863776 -0.4076106 0.026059106 -0.13999459
000140 80 fa 27 3c c0 e9 65 bd fd 09 2d 3d 4a 1c da bb
       0.010252595 -0.056131124 0.042245854 -0.0066562044
000150 e0 09 bb 3b 5d 11 4f be e9 28 a7 bd 16 a5 76 bc
       0.0057079643 -0.20221467 -0.081621 -0.015054008
000160 19 5c 43 bd 62 ea c5 3c 65 aa 5a bd c9 45 25 3d
       -0.047695253 0.024159614 -0.053385157 0.040349755
000170 ae 40 42 bd d3 0f 9d 3b ef f7 61 be c2 cf a0 3b
       -0.047424965 0.004793146 -0.22067235 0.004907579
000180 0b cb 1f be 84 e0 c0 bd ba 13 fb 3c 60 0b 14 be
       -0.15604798 -0.09417823 0.030649055 -0.14457464
000190 0d 7f 82 3c c1 27 27 be 49 73 3d 3d 5e 2a 09 3d
       0.015929723 -0.16323759 0.046252523 0.03348767
0001a0 62 69 88 be ef bf a3 bd 2a e5 00 be e7 16 92 bd
       -0.266429 -0.07995593 -0.12587419 -0.071332745
0001b0 39 c8 00 bd 76 ae e8 bd 34 ee a4 3c e2 e5 7b bd
       -0.031440947 -0.11361401 0.020133115 -0.06149853
0001c0 58 ef f1 bc 71 e7 9a 39 72 6b 44 be 2b 2b 14 be
       -0.029533073 0.00029545606 -0.19181612 -0.14469592
0001d0 43 18 01 3d 0e b1 86 be 12 44 a8 bd 28 30 e7 bc
       0.03151728 -0.26306957 -0.082161084 -0.028221205
0001e0 36 07 48 bd 1d 21 51 be d3 96 85 be 18 d1 63 3c
       -0.048835002 -0.20422788 -0.26091632 0.013904832
0001f0 8f 8f a7 bc a4 3d cf bc 48 0a 0b 3f e0 70 54 bd
       -0.020454196 -0.025297947 0.5431256 -0.05186546
000200 f1 20 9b be 2f 0b 3d bc c9 1d 36 bd 31 73 c4 3d
       -0.3029857 -0.011538311 -0.044462 0.095922835
000210 e6 6d 92 bd e9 06 01 3d 8f e2 45 be 4a 5a 29 be
       -0.07149868 0.03150073 -0.19324706 -0.16538349
000220 73 93 8d bd 26 4e 15 bd a0 af fd bd eb c9 a6 bc
       -0.06912889 -0.03645148 -0.123870134 -0.020359954
000230 6e e6 1f bd 79 49 14 be f3 f3 a9 bc 79 40 e5 3e
       -0.039038114 -0.14481153 -0.020746207 0.4477575
000240 01 40 48 bd 54 4c 75 be d7 97 45 be 77 7e a4 bd
       -0.048889164 -0.23954898 -0.19296204 -0.08031934
000250 cd 66 2a be 6f 5f 30 be 66 26 3e bd 86 d9 59 bd
       -0.16640778 -0.17223905 -0.04642334 -0.053185962
000260 3d 88 ea be a7 fe ad 3c 5d c7 15 be 7a 65 99 bd
       -0.45807067 0.021239592 -0.14626832 -0.07490058
000270 7a 86 62 3c 6d a4 00 bd ce 3a 15 be 4a 0b 95 bd
       0.013826007 -0.03140681 -0.14573213 -0.07277544
000280 74 21 d8 bb c7 cb 50 bd 01 4d 6f bc 42 4f 72 3c
       -0.006595785 -0.050975587 -0.0146057615 0.014789404
000290 17 20 0a bd 0b c8 ae bd 7f 5f 5f bc a1 00 32 be
       -0.03372201 -0.08534249 -0.013633608 -0.17383052
0002a0 8b a6 51 be 9e 27 69 3d 8c 57 6c be ec 5a 0e be
       -0.20473687 0.056922548 -0.23080271 -0.13901871
0002b0 20 07 2f 3d 78 f1 20 bd ba 7a 6b be 97 10 2c 3c
       0.042731404 -0.039292783 -0.22996035 0.010502002
0002c0 be c5 c5 be ec 47 ae 3c b0 ac c3 3c 77 4e 0c be
       -0.38627428 0.02127453 0.023886055 -0.13701807
0002d0 34 37 46 be 9a a0 87 bd ff 8c 26 bd 74 80 dc bd
       -0.19356996 -0.06622429 -0.040661808 -0.10766688
0002e0 da 6c b2 bd 04 d1 7d 3c be d7 f3 bd 77 89 70 3d
       -0.08712168 0.015491728 -0.11906384 0.058724847
0002f0 db 5c 62 3d 82 e4 c9 3c d9 fe b3 be 38 29 65 3b
       0.055264335 0.024645094 -0.3515537 0.0034967195
000300 0c fe 89 3c e4 e9 b5 bd d7 d6 06 bc e0 b8 d6 bc
       0.016844772 -0.08882502 -0.008229933 -0.026211202
000310 c6 77 1c 3d 89 a5 75 bc 6f bf 45 bd cd 76 54 be
       0.038200162 -0.01499308 -0.04827827 -0.20748444
000320 69 e3 dd 3c 77 a1 6a be da 15 e2 3c 7f 4e 32 bc
       0.027085977 -0.22913156 0.02759831 -0.010882973
000330 93 47 1b be ea 7f 77 bd b1 5b 01 be 9b 38 9a 3b
       -0.15164022 -0.060424723 -0.12632634 0.004706455
000340 8d 31 4b bc af 18 61 bd 7a 93 58 bd ac 85 65 3c
       -0.012401951 -0.05495518 -0.05287502 0.014008921
000350 4c 59 88 3c 82 6a a9 3c c3 5f 34 bc 61 04 86 bd
       0.016644143 0.02068067 -0.0110091595 -0.06543804
000360 91 d6 1a bd 72 9b f9 bc 9d d5 31 be 13 e8 96 be
       -0.037802283 -0.03046963 -0.17366643 -0.29473934
000370 f9 2c eb bd 38 20 85 be 94 bb 60 3d ef 6d 5b be
       -0.11483187 -0.26001143 0.05486639 -0.21428655
000380 a5 5e 8b bd f7 31 e8 bc cb a6 da bd bf ec 47 bc
       -0.068051614 -0.028344138 -0.106763445 -0.012202441
000390 77 0f 06 be 72 9c c6 be e4 de 58 3c 3c b3 8d be
       -0.13091837 -0.38791233 0.013236735 -0.27675807
0003a0 de 75 64 3c ce b0 6c bc 90 77 18 3d 2d 54 b6 bc
       0.013944117 -0.01444645 0.0372234 -0.022256935
0003b0 3b c5 60 bb 07 b4 3f be 6b 92 39 3d dd de 76 bd
       -0.0034297246 -0.18721019 0.04530565 -0.060271133
0003c0 c1 b9 8b bc d2 a6 55 be 2a 76 d3 3e f7 21 01 3d
       -0.017056348 -0.20864418 0.4130109 0.031526532
0003d0 3f ce 5a bd f4 b0 43 be 06 25 18 bd 1f ba 71 3c
       -0.053419348 -0.19110471 -0.037144683 0.014753847
0003e0 06 a7 09 bd 84 2f 80 bd c1 ab 27 3d 78 4c 67 bd
       -0.03360655 -0.06259063 0.04093528 -0.05646941
0003f0 90 77 24 be 06 b1 94 bc 96 d0 69 be 60 62 a5 bc
       -0.16061234 -0.018150818 -0.22833475 -0.02018851

lstm.bias_hh_l0 f4 [5200]
000000 80 90 ea bc 46 89 5d 3d 7f 56 23 3a eb 3c 8a 3c
       -0.028633356 0.054085992 0.00062308455 0.016874751
000010 24 04 1f bd ea b7 21 bd 61 0c b8 bd a2 d5 3b 3d
       -0.03882231 -0.039482035 -0.08986736 0.045858033
000020 06 f3 16 bd d8 ac 12 3c eb 04 fd be 4e da 85 3b
       -0.03685286 0.008952342 -0.49417815 0.004084862
000030 a6 0e 8b bd ed ab 22 bd bb ee 4f be 97 8a fa bd
       -0.06789903 -0.039714742 -0.20305912 -0.12233465
000040 17 69 31 bd bf 88 9f be f9 8f 39 bc 3f ad fa be
       -0.043313112 -0.31159016 -0.01132583 -0.489603
000050 e9 b5 2c be ab cf f1 be 66 9a b0 bd 6e bd ab bd
       -0.16866268 -0.4722875 -0.08623199 -0.0838574
000060 0d b3 b3 3c 74 5a 46 be cf 84 03 bd 08 43 ff bd
       0.021935964 -0.19370443 -0.032109078 -0.12463957
000070 a1 87 48 bd 85 86 17 be 29 d5 a0 bc 00 dd e9 3b
       -0.04895747 -0.14797409 -0.019632893 0.007136941
000080 c1 8b b4 bd 3a 8d 50 be aa 44 04 bd ba cb 86 be
       -0.088157184 -0.20366374 -0.032292046 -0.26327306
000090 24 7a 05 3d 8b 42 82 bd 65 72 2d 3d 8e e6 27 3d
       0.032587186 -0.06360348 0.042345423 0.04099136
0000a0 da 71 13 be 06 31 23 3d ff fc 27 be 65 91 3d bd
       -0.143989 0.039841674 -0.16405104 -0.046281237
0000b0 9a 2c 43 be 29 11 68 bd d9 e2 b7 3c 73 d5 09 bd
       -0.19059983 -0.05665699 0.022447037 -0.033650827
0000c0 d0 1b 73 be 3d 51 79 bd 28 9d 20 be f1 95 79 bd
       -0.23741078 -0.06086849 -0.1568495 -0.06093401
0000d0 cd 80 13 3d 81 76 00 be cc 83 6d 3c e6 58 25 3d
       0.036011506 -0.12545206 0.014496755 0.040367983
0000e0 dc 14 3b bd d5 cd 47 be 62 70 68 bc 85 7e 20 be
       -0.04567419 -0.19512112 -0.01418695 -0.15673263
0000f0 60 1c 96 bc 8e ad e6 bc 57 cd 1a be ff 2b ec 3c
       -0.018324077 -0.02815893 -0.15117393 0.028829573
000100 cc 66 d2 bd 3e d5 74 3d f3 f5 31 3d b6 a7 51 be
       -0.10273513 0.059773676 0.043447446 -0.20474133
000110 5b 2d 10 ba 8c c7 88 3d c1 96 d7 3c 8a 58 0d bd
       -0.00054999226 0.066786855 0.026317002 -0.034508266
000120 d5 ad 7f bd ef fd 2f bd 20 1b 1e bd da 02 16 be
       -0.06242164 -0.04296678 -0.038600087 -0.14649525
000130 28 6a 21 ba 95 fd dc be 59 da e7 3c 05 0d 00 be
       -0.0006157481 -0.43162218 0.028302358 -0.12504967
000140 24 5a b7 bc 60 76 4b bd 39 65 ed 3c e4 a1 39 bd
       -0.02238185 -0.049673438 0.02897893 -0.045320407
000150 3c ff 10 bb 9e 61 36 be 7f d2 8e bd 0a e2 cd ba
       -0.0022124788 -0.17810676 -0.06973743 -0.0015707624
000160 2f 90 f0 bc ac d4 f6 39 0b 16 68 bd 62 47 4d 3d
       -0.029365627 0.0004707923 -0.056661647 0.050116904
000170 21 3f d3 bc 66 00 88 3c 11 83 83 be 9e 53 08 3b
       -0.025786938 0.016601752 -0.25685933 0.0020801793
000180 15 01 0e be d1 e3 bd bd 6c 44 08 bc d6 d3 2d be
       -0.138676 -0.09271968 -0.008317094 -0.1697534
000190 fa a1 6a 3d 31 5c 19 be f6 ab 4e 3d b8 9c 08 3d
       0.05728338 -0.14976574 0.050456963 0.033352584
0001a0 bd a7 82 be 01 9a 46 bd c3 0a aa bd de 06 40 bd
       -0.255186 -0.048486713 -0.08302834 -0.04688155
0001b0 b6 c2 0e bd ec b6 14 be bf ca 11 3d 56 24 8b bd
       -0.03485366 -0.14522904 0.035593744 -0.0679404
0001c0 7f 51 0a bd fa 73 9f 3c a3 a0 4f be 7e 12 25 be
       -0.033769127 0.019464482 -0.20276122 -0.16120335
0001d0 9e db 8c 3c 4e 6b 8d be 64 df af bd f0 3b fa bc
       0.017194565 -0.2762093 -0.0858753 -0.030546159
0001e0 cd 61 c3 bc f9 95 49 be f4 da 89 be 97 74 0c 3d
       -0.023850346 -0.19686116 -0.2692486 0.034290876
0001f0 2f ef 3a bc d7 d0 c3 3c fa fa 04 3f e9 0c 5f bd
       -0.011409565 0.023903294 0.5194546 -0.05445567
000200 c0 65 b2 be 58 51 8b 3c 84 da e2 bc 13 30 a7 3d
       -0.34843254 0.017006561 -0.027692087 0.08163466
000210 10 93 4d bd f5 3f 47 3d 50 a5 12 be c6 db fa bd
       -0.050189078 0.04864498 -0.14320874 -0.1224895
000220 7f 12 99 bd 0e 89 48 bc a3 93 00 be 59 12 97 bc
       -0.07474231 -0.012239708 -0.12556319 -0.018441366
000230 4e 0e fd bc ba 44 fe bd 42 f3 71 bd 46 09 dd 3e
       -0.03089061 -0.12415452 -0.05906988 0.43171138
000240 89 cb 53 bd 40 c7 69 be 2b d5 36 be 63 05 38 bd
       -0.051707778 -0.22829914 -0.17854755 -0.044927012
000250 ab c5 1c be e5 8f 4b be 1f e1 50 bd b0 c6 98 bc
       -0.1530978 -0.1987911 -0.050995942 -0.01864943
000260 26 a3 d5 be 73 8f 47 ba 24 fa eb bd 22 98 2f bd
       -0.41726035 -0.0007612623 -0.1152232 -0.042869695
000270 77 e1 26 3d 70 8a 5c bd c0 c4 dd bd 03 2f 81 bd
       0.040742364 -0.05384296 -0.10828543 -0.06307795
000280 9b 69 d7 3c 59 c5 83 bd 85 1d 67 bc 45 ad cc 3a
       0.026295474 -0.064341255 -0.014106159 0.0015615603
000290 2e a9 75 bd ac 25 a7 bd 15 cd 1b ba b1 be 33 be
       -0.059975795 -0.08161482 -0.00059433404 -0.17553212
0002a0 a8 bd 5a be f2 3a 5a 3d fc 6b 74 be d3 56 e5 bd
       -0.2136141 0.05327887 -0.23869318 -0.11198201
0002b0 59 94 b3 3b 93 d4 91 bc 83 84 6e be d3 ac 01 3d
       0.005480331 -0.017801559 -0.23292737 0.03165896
0002c0 d8 9f c7 be 74 f9 c8 3c 36 f3 ff bb a5 bc 16 be
       -0.3898914 0.024533011 -0.0078109754 -0.147204
0002d0 6f 71 32 be f7 44 ed bc b6 a4 31 bd 43 2d 1c be
       -0.17426084 -0.028963549 -0.04336997 -0.15251641
0002e0 56 f1 b6 bd 71 c7 e0 3c 7d 60 fc bd 9a 3e 33 3d
       -0.0893275 0.027438851 -0.12323091 0.043760873
0002f0 4d c6 63 3d c6 63 fd bb 17 48 c0 be e3 e7 09 bd
       0.055609036 -0.007732841 -0.37555 -0.03366841
000300 1b a2 a4 bc bd aa d9 bd c8 ff 61 3c 41 67 97 ba
       -0.02009683 -0.10628269 0.013793893 -0.0011551158
000310 55 ae 1a 3d 27 ac ac bc 00 f1 0d bd c2 a8 31 be
       0.037763912 -0.021078182 -0.034653664 -0.17349532
000320 e3 a9 0f 3d 3f cc 74 be 6e d9 ad 3c b9 8e c7 bc
       0.035074126 -0.23906039 0.021221843 -0.024360048
000330 25 aa da bd ee 01 10 bd ac 71 ca bd 03 99 e6 3b
       -0.10676984 -0.03515809 -0.098849624 0.0070372834
000340 4f d8 a1 3c ab c2 95 bd d3 fb 03 bc 9a 30 76 3d
       0.019756464 -0.073125206 -0.008055645 0.060104944
000350 71 36 62 3d 3f 8b 57 3c 4b b4 6c bc ac 70 95 bd
       0.0552277 0.013155757 -0.014447282 -0.07296881
000360 e9 84 21 bd 82 66 2d b9 7d 77 47 be 85 68 96 be
       -0.039433394 -0.00016536753 -0.19479175 -0.29376617
000370 5e 08 d2 bd 72 dd 91 be 77 df 11 3c e5 e6 4e be
       -0.10255502 -0.28489262 0.008903376 -0.20205267
000380 14 da 68 bd 78 98 47 bd 78 c4 9c bd 1d b4 3a bc
       -0.0568486 -0.04872939 -0.07654661 -0.011395481
000390 80 27 f4 bd 97 2c c4 be 8b bf 25 3d 16 32 8d be
       -0.119215965 -0.3831527 0.040465873 -0.27577275
0003a0 ef fb 42 39 09 a8 ee bc 0f cd e5 3c 01 04 d9 bc
       0.00018595134 -0.02913286 0.028051881 -0.026491167
0003b0 37 cf 91 3c bb e0 55 be 20 40 81 3d 13 44 08 bd
       0.017799003 -0.20886509 0.06311059 -0.033268046
0003c0 44 6c 3f bb 73 34 57 be ec 29 cd 3e 66 b4 cf 3c
       -0.0029208818 -0.21016102 0.40071046 0.025354575
0003d0 fa 4b fd bc b5 71 48 be 81 31 47 bd 45 55 d3 3c
       -0.030920018 -0.19574626 -0.048631195 0.025797496
0003e0 06 de 42 3c 2a 1d 42 bd 30 30 8d 3d 96 a5 cd bc
       0.011893755 -0.047391094 0.06893957 -0.025103372
0003f0 66 aa 0e be a9 8e e1 bc 7d cd 6e be 79 99 db bc
       -0.1393219 -0.027533846 -0.23320575 -0.02680658

lstm.weight_hr_l0 f4 [2, 1300]
000000 70 b9 04 be 52 b9 f7 bd db 6a e1 bd 15 f6 ba bd
       -0.12961364 -0.12095894 -0.11006709 -0.09128968
000010 fc b2 b4 3d 85 6d d8 bd 0a 7b 0b be 06 8c 89 bd
       0.08823201 -0.10567764 -0.13621154 -0.067161605
000020 7f 74 39 3d 54 ef f5 3d c7 ec a9 3d d8 43 06 3e
       0.045277115 0.12008539 0.08297115 0.13111818
000030 2d f9 9c 3c 9d 07 9d 3d 7f 8b 10 3e f0 fc c5 3d
       0.019161785 0.07667468 0.14115714 0.096673846
000040 74 37 09 be 21 c3 a7 bd c7 c3 cc bd f5 67 c3 3d
       -0.1340006 -0.08191515 -0.09998279 0.095413126
000050 5a 3d 02 be 14 78 ea bd ce 31 04 be 49 55 ca bd
       -0.12718716 -0.11448684 -0.12909624 -0.09879548
000060 61 10 a0 bd 5b c8 f4 3d 0a 47 07 be fd 2e d7 bd
       -0.07815624 0.11952277 -0.13210693 -0.10507009
000070 40 7c de bc b8 5c 00 3e eb 00 32 3d d3 3f f9 3d
       -0.027158856 0.1253537 0.043457907 0.12170377
000080 93 b4 b2 bd 13 a6 e2 bd c4 c3 46 bd e1 98 0d be
       -0.08725848 -0.110668324 -0.04852654 -0.1382785
000090 ee cd 44 bd da a1 83 bd 15 5f 04 be 65 ad c6 3d
       -0.048047952 -0.06427355 -0.12926896 0.09701041
0000a0 6b 21 03 3e 5a a4 01 be d5 56 08 be 56 4b c8 bc
       0.12805717 -0.12660351 -0.13314374 -0.024449985
0000b0 36 6b 0f be a6 6c 73 bb 16 ed ec 3d b3 5b ed 3d
       -0.14005741 -0.0037143617 0.11568658 0.11589756
0000c0 f7 9f 0c 3e 76 43 cd 3c 77 cd d1 bd 96 6a a4 bd
       0.13732897 0.025056582 -0.102442674 -0.08028142
0000d0 73 54 4c bd 36 0f de 3d 9d d9 c1 3d 2b 1e 08 be
       -0.049885225 0.10842745 0.094653346 -0.13292758
0000e0 24 41 b9 3a 05 52 0f 3e 69 8b 5d bd d1 5d d4 3d
       0.0014133793 0.13996132 -0.05408803 0.103694566
0000f0 1a c2 e0 3b b9 5b d5 bd 8d 47 ef bd c4 45 d9 bd
       0.006859076 -0.10417885 -0.11683569 -0.1060901
000100 31 66 ea bd 1c ac 8e bd 07 cb e5 3d 6d 12 d3 3d
       -0.11445273 -0.06966421 0.11220365 0.10306249
000110 5a 93 02 3e fb a0 e3 bd 3d 35 07 3e 3c d3 07 3e
       0.12751523 -0.11114689 0.13203903 0.13264173
000120 d6 1e 00 3e 29 0a 68 bc 2f af c4 bc dc ec 04 be
       0.12511763 -0.014162579 -0.024009315 -0.1298098
000130 22 36 2c 3d ba bd 0c be c8 eb da 3d 28 53 0a be
       0.042043813 -0.1374425 0.10689503 -0.13508284
000140 ed 07 00 be 05 30 b3 3d a7 70 e8 bc 2d 07 3e bd
       -0.12503023 0.087493934 -0.02837403 -0.046393562
000150 d6 4d cf 3d d4 e3 c9 3d 31 b0 1f 40 7b e5 92 bc
       0.10122268 0.09857908 2.4951289 -0.01793169
000160 7c 43 c2 bc 21 05 9a 3d 07 c8 df 3c aa 5d 55 3d
       -0.02371382 0.075205095 0.02731706 0.052091278
000170 19 a5 f6 3d 17 ef 7f 3d e6 f2 03 3e 5b 15 d4 bd
       0.12043209 0.062483873 0.12885627 -0.10355636
000180 7b 70 03 3e 5b 93 e4 3d ce 7a 35 bd c8 7c 09 3e
       0.12835877 0.11160918 -0.04430657 0.13426507
000190 db b6 d1 3d 51 4e 0c 3e 73 80 92 3b c3 3d 5f bd
       0.10239955 0.1370175 0.0044708787 -0.05450226
0001a0 74 83 12 3e 3d 7e f7 3d 19 7d 0c 3e aa 9d fe 3d
       0.14307958 0.12084625 0.13719596 0.12432416
0001b0 5a 2b 49 3d 03 3d 00 3e ee 32 01 3d b1 93 d5 3b
       0.04911361 0.12523274 0.03154271 0.0065178503
0001c0 c3 c0 94 bc 8b 83 04 be 76 97 0b c0 3c 65 9e bd
       -0.018158322 -0.12940805 -2.1811194 -0.07734153
0001d0 87 d3 20 bd 53 c2 cf 3d ce 43 fd 3d ff f2 1c 3d
       -0.03926423 0.10144486 0.12366448 0.038317677
0001e0 38 85 bb 3c f1 9d e3 3d a5 bd 04 3e 38 ab f9 3d
       0.022890672 0.11114109 0.12962969 0.121908605
0001f0 f5 c7 4b 3c 3c 75 00 3e a6 0d 0e c0 92 cd 44 3d
       0.01243781 0.12544721 -2.219583 0.04804761
000200 d8 61 cd bd 9b 10 ec bc e4 ec 8c 3c 97 ea 83 bd
       -0.10028428 -0.028816512 0.017202802 -0.06441229
000210 51 88 c4 bd 16 cb f1 bc 31 0f 17 be ea 14 ad bd
       -0.09596313 -0.029515784 -0.14751889 -0.08451255
000220 82 98 4c bc 15 8e e9 bd 75 f1 0f be 85 16 87 3c
       -0.012487533 -0.11404053 -0.14056952 0.01649023
000230 91 e7 43 bc cf 57 f6 3d 28 8e 8f bd f8 4a 3c bf
       -0.011957065 0.12028467 -0.07009536 -0.73551893
000240 0e 61 e8 3d 05 bd e8 3d e9 7a 05 3e b6 c8 bf 3d
       0.11346637 0.113641776 0.13035168 0.093644544
000250 7d 50 14 3e a3 8e 92 bd ea 17 87 3c fb 03 61 bc
       0.14483829 -0.07156112 0.016490895 -0.013733859
000260 0d 06 f6 bd fd c3 f9 bd e4 b2 0a 3e 77 89 ca bd
       -0.12012873 -0.12195585 0.13544804 -0.098895006
000270 c3 1e 81 bc 0a 57 cf 3d b6 72 a9 bd 0a db 06 3e
       -0.015761739 0.10124023 -0.082738325 0.13169494
000280 0a b8 b9 3d 12 23 56 bc 2e 93 73 bd 5f c6 07 be
       0.09068306 -0.013069885 -0.059466533 -0.13259266
000290 0e d7 02 be 97 8e ef bd 16 71 91 3d 38 4d fd 3d
       -0.1277735 -0.11697119 0.071016476 0.12368244
0002a0 f0 e5 e7 3d 04 49 f7 bd 36 29 e6 bd 5d fa f2 bd
       0.11323154 -0.120744735 -0.11238329 -0.11864159
0002b0 33 66 f0 3d 88 76 29 3c 1d 9d 10 3e af bf ec bd
       0.11738243 0.010343201 0.14122434 -0.11559998
0002c0 1d 55 da 3d d8 c9 d7 bd 75 d1 de 3d 41 0d f5 bd
       0.10660765 -0.105365455 0.108797945 -0.119654186
0002d0 da fd ed bd 2d a6 28 bc 4a 33 66 bc a6 bc e5 bc
       -0.11620684 -0.010293526 -0.014050314 -0.028044056
0002e0 7d f3 b2 3d eb 71 83 bd 1e 48 e4 3d 50 2a be bd
       0.08737848 -0.064182125 0.11146568 -0.09285414
0002f0 6f 96 d9 bd fb 26 ec bd 2d 87 ea bd d8 96 37 bd
       -0.10624396 -0.115308724 -0.11451564 -0.04482159
000300 08 39 02 be ee c0 0e be 73 5c 20 bd 1c 94 db 3d
       -0.12717068 -0.13940784 -0.039150666 0.10721609
000310 00 9a 1d 3d 5a 55 d5 bd 8c 40 e5 bd 0d cd ca 3d
       0.038476944 -0.1041667 -0.11193952 0.099023916
000320 9b 20 03 3e e1 5b d5 3d a6 02 00 3e 6f 28 97 3c
       0.12805407 0.10417915 0.1250101 0.018451897
000330 a9 34 eb 3d 62 a6 f4 bb bf c8 87 3d 0b e8 00 be
       0.114846535 -0.0074661234 0.06630086 -0.12588517
000340 9b 90 0e 3d b2 3c f5 3d 35 63 d6 bd 13 b3 83 bd
       0.034805875 0.11974467 -0.10468141 -0.0643064
000350 ac 5c 80 bd 74 c6 09 be 96 ff ea 3d d5 6e de bd
       -0.06267676 -0.1345461 0.114745304 -0.10860983
000360 7b 5b 06 be ec 72 d2 bd 47 67 f6 bd 83 76 95 3d
       -0.13120835 -0.10275826 -0.12031417 0.07297995
000370 29 74 09 3e 41 2b ea bd d9 fc f0 3d 61 83 b1 3d
       0.13423218 -0.11434031 0.11766977 0.08667637
000380 8d 8b e0 3d 21 08 03 3e a9 49 e0 3d f6 70 f3 3d
       0.10964117 0.1279607 0.109515496 0.1188678
000390 e0 26 06 be 1c 27 cc 3d 04 2e 05 3e c1 72 f5 bd
       -0.13100767 0.09968397 0.13005835 -0.11984778
0003a0 ca be 04 be 82 c8 fd 3d 03 f2 79 bd 82 84 fd 3d
       -0.12963405 0.123917595 -0.061021816 0.123787895
0003b0 67 11 f5 bd 1e c1 05 be 04 6c 99 bd 6a a5 d1 bc
       -0.1196621 -0.1306195 -0.074913055 -0.02559157
0003c0 f5 64 a2 bc 00 81 4e 3b f4 e5 80 40 89 75 dd 3c
       -0.01982353 0.0031509995 4.0280704 0.027033584
0003d0 d9 7c 05 3d cf 6a 08 be 09 6f 6a bc b1 48 08 be
       0.032589767 -0.13321994 -0.014308699 -0.1330898
0003e0 dc 7d 04 3e 65 34 fd bd ae cb d9 bd 8b 24 13 bc
       0.12938637 -0.12363509 -0.10634552 -0.0089808805
0003f0 bb 99 c5 bd ee b8 ed 3c e4 50 bf bd 1d 41 04 be
       -0.096484624 0.029018845 -0.093416005 -0.12915464

exp_avg f4 [5200, 2]
000000 6b 6b 3d 3a c5 16 38 3a 04 41 a5 37 24 73 b0 37
       0.00072257844 0.0007022436 1.9699808e-05 2.1034451e-05
000010 e2 04 47 3a 69 64 40 3a 6c 44 dd 39 34 0d d3 39
       0.0007591975 0.0007339181 0.00042203383 0.00040254893
000020 ef d0 49 39 b6 bd 43 39 26 24 6a 39 56 78 46 39
       0.00019246688 0.00018667322 0.00022329445 0.0001892758
000030 bb fa f1 b7 fa c0 47 b8 bb 82 8b 33 b1 8a 8d 33
       -2.8846194e-05 -4.762502e-05 6.4964716e-08 6.591052e-08
000040 aa 6e b0 b7 6a cd b2 b7 67 88 c8 37 9b f0 cb 37
       -2.1032367e-05 -2.1314907e-05 2.3905375e-05 2.4311526e-05
000050 ea ed f3 2d 99 91 64 2c 9b 51 6b 3a dc 9e 63 3a
       2.7731557e-11 3.2481572e-12 0.0008976699 0.00086830347
000060 24 bc 34 b6 09 3d 35 b6 aa 1e b3 b6 15 fe bd b6
       -2.6931602e-06 -2.700663e-06 -5.3381855e-06 -5.662218e-06
000070 39 c4 03 36 8d 3e ee b5 38 91 7c 37 2b d7 82 37
       1.9634738e-06 -1.7750586e-06 1.5054182e-05 1.5597403e-05
000080 0f 9b 04 3a 2d 34 07 3a 66 05 3a 33 18 66 ce b2
       0.0005058506 0.0005157616 4.331141e-08 -2.4027983e-08
000090 76 3c f8 39 b9 dc ef 39 0c 40 22 a8 ad 1d fc a7
       0.00047347293 0.00045750084 -9.0066945e-15 -6.9976225e-15
0000a0 74 b2 7d 33 56 5c 83 33 b9 dd 08 ad a8 6d 87 ad
       5.9068455e-08 6.116959e-08 -7.779937e-12 -1.539642e-11
0000b0 de dc 67 39 15 01 77 39 a5 31 a8 39 3d 81 ab 39
       0.00022112156 0.00023556159 0.00032080445 0.00032711952
0000c0 8c bc 3d b8 5b b6 3e b8 bb c7 d9 36 d9 e1 1b 37
       -4.523671e-05 -4.546936e-05 6.4903556e-06 9.291304e-06
0000d0 0f 95 64 39 90 14 6c 39 72 28 43 39 be d9 42 39
       0.00021799303 0.00022514374 0.00018611716 0.00018582397
0000e0 7c 9e d0 b8 04 6e 8a b8 80 cc 6d 39 e6 34 72 39
       -9.947733e-05 -6.600845e-05 0.00022678263 0.00023098625
0000f0 99 2e da b7 d6 32 de b7 50 0f ab 39 dd 97 a8 39
       -2.6009324e-05 -2.6488135e-05 0.0003262707 0.00032156604
000100 01 ed 5f 35 8d 0c 66 35 ef 61 27 37 4b 9e 6d 37
       8.341886e-07 8.569994e-07 9.976778e-06 1.4163156e-05
000110 f9 5a 40 b7 78 36 44 b7 8b 38 36 37 13 9f 79 37
       -1.1465273e-05 -1.1695192e-05 1.086121e-05 1.4878594e-05
000120 36 5a bc 34 03 68 c2 34 71 ec 33 39 e4 e4 38 39
       3.5083366e-07 3.6210994e-07 0.00017158852 0.00017632876
000130 b7 6b 28 38 44 b9 29 38 84 d4 2e 39 b5 e0 27 39
       4.015464e-05 4.0465282e-05 0.00016673101 0.00016010071
000140 6b 92 30 38 d4 82 1a 38 56 71 f2 37 05 60 f3 37
       4.2098032e-05 3.6838304e-05 2.8901424e-05 2.901257e-05
000150 f4 52 61 39 7e 1d 81 39 9f 8e f6 b5 9c 76 f9 b5
       0.00021488575 0.0002462677 -1.8369936e-06 -1.8586466e-06
000160 df d4 e9 36 d9 bb fc 36 ab 5f 67 33 b8 5d 7a 33
       6.9687226e-06 7.5320536e-06 5.3870888e-08 5.8292898e-08
000170 f6 89 28 39 9f 67 2a 39 15 dd 1d 37 d5 88 25 37
       0.00016073123 0.00016251065 9.409404e-06 9.866625e-06
000180 9d 08 73 37 0e be 94 37 27 1f 4f 34 20 42 80 35
       1.4485934e-05 1.7731476e-05 1.928971e-07 9.555988e-07
000190 76 96 38 39 34 19 3c 39 68 1b 50 38 a3 35 51 38
       0.00017603658 0.00017938466 4.961659e-05 4.9879436e-05
0001a0 46 76 b4 35 d5 e2 b8 35 6e 78 21 b7 d2 3b 99 b6
       1.3445467e-06 1.3775085e-06 -9.6243875e-06 -4.5667193e-06
0001b0 dd 50 26 38 20 32 2b 38 d4 f1 09 39 c1 0e 0c 39
       3.9652794e-05 4.081626e-05 0.00013155426 0.00013356937
0001c0 22 0e 25 b3 32 a5 2a b3 9d 46 26 37 3f 9d 79 37
       -3.842991e-08 -3.9731454e-08 9.910812e-06 1.4878168e-05
0001d0 2e 44 3e 36 52 bf 78 36 83 76 8a b7 ab f7 99 b7
       2.8351892e-06 3.7066243e-06 -1.6506068e-05 -1.835435e-05
0001e0 b0 f0 50 b6 f5 3e 4d b6 86 35 13 3a f9 0e 0f 3a
       -3.1134514e-06 -3.0584026e-06 0.00056155806 0.0005457248
0001f0 da 6b 99 b7 bb fb ab b7 25 3a 41 b8 01 52 47 b8
       -1.8289244e-05 -2.050201e-05 -4.6068937e-05 -4.752167e-05
000200 18 41 7d 37 a3 3f 83 37 4d 8a 68 31 8f b9 64 31
       1.5095131e-05 1.564605e-05 3.3839058e-09 3.3283845e-09
000210 fe b7 b5 b8 45 69 b2 b8 ec 9e 13 37 2d 17 4e 37
       -8.665024e-05 -8.5073094e-05 8.798885e-06 1.2283953e-05
000220 36 ac 04 3a 4c 0c 04 3a 7f 00 04 b7 94 c0 ed b6
       0.0005061062 0.0005037233 -7.867929e-06 -7.0855695e-06
000230 03 ad dc 39 bb e3 d9 39 c5 13 f3 39 fe cf f2 39
       0.00042090574 0.00041559138 0.000463633 0.00046312803
000240 1d 67 a7 39 98 75 ae 39 bb 68 29 b6 68 f0 28 b6
       0.00031929548 0.0003327548 -2.5243924e-06 -2.5173886e-06
000250 81 0b b9 b6 ef 4d bd b6 63 f5 df 39 d9 e5 e5 39
       -5.514769e-06 -5.6417116e-06 0.00042716702 0.00043849534
000260 29 06 c7 b7 bf d7 ca b7 36 8f 79 33 3e 06 4a 33
       -2.3725517e-05 -2.4180741e-05 5.810508e-08 4.7037467e-08
000270 2a be a2 38 54 1a a4 38 cf d3 a0 b7 f2 bb 20 b7
       7.760183e-05 7.8250334e-05 -1.9172117e-05 -9.580503e-06
000280 45 2b e3 39 2a 34 e3 39 04 08 78 39 5c a3 7c 39
       0.00043329052 0.0004333568 0.00023654109 0.00024093449
000290 e1 05 90 38 60 17 8f 38 ad bb 8a b7 9b 99 8c b7
       6.86755e-05 6.823125e-05 -1.6538275e-05 -1.6760829e-05
0002a0 2d d8 09 3a 5d b6 04 3a a8 82 b1 36 9b 25 e6 36
       0.0005258348 0.00050625746 5.2902215e-06 6.858912e-06
0002b0 37 bb da 38 8d 90 00 39 85 8b 64 b8 d6 7a 60 b8
       0.000104299215 0.0001226088 -5.4489374e-05 -5.352016e-05
0002c0 12 7f e7 b5 2f 66 e4 b5 dc c5 6e 33 22 a4 75 33
       -1.7247824e-06 -1.7017063e-06 5.5593645e-08 5.7192786e-08
0002d0 a0 fd 68 b6 63 6b 64 b6 cb 03 65 b8 b6 97 5c b8
       -3.4718323e-06 -3.4037155e-06 -5.4601387e-05 -5.259338e-05
0002e0 36 dd d0 39 26 bb cf 39 ea 41 49 36 46 d0 4e 36
       0.00039837667 0.00039621553 2.99897e-06 3.0817623e-06
0002f0 54 1a f8 32 6a 6e 17 36 19 e4 40 38 04 ab 45 38
       2.8882972e-08 2.2565023e-06 4.59888e-05 4.712773e-05
000300 f2 ba 7a 37 11 2b ad 37 c8 0e a0 b5 82 9b be b6
       1.4944688e-05 2.0643261e-05 -1.1925231e-06 -5.6805447e-06
000310 e7 c0 40 ba 00 0b 45 ba b4 1a 1b b6 0e 99 c0 b6
       -0.00073529634 -0.0007516593 -2.3112343e-06 -5.739864e-06
000320 9e 16 00 39 26 cb 02 39 ca 25 4a 39 42 95 6d 39
       0.00012215457 0.00012473445 0.00019278299 0.00022657684
000330 39 e3 d7 36 bf 96 cb 36 45 71 bb 31 a2 90 c3 31
       6.4339515e-06 6.0674206e-06 5.4552936e-09 5.69169e-09
000340 a8 5d 61 37 de 12 7e 37 e5 a0 55 39 51 02 63 39
       1.3432851e-05 1.5143973e-05 0.00020373201 0.0002164927
000350 22 cb 32 b6 c5 7f 02 b7 43 ed a0 39 85 90 a1 39
       -2.6642306e-06 -7.7783525e-06 0.00030694352 0.00030815988
000360 af fd 98 36 3b 28 9a 36 b4 40 a8 35 ff f0 ab 35
       4.5594857e-06 4.594241e-06 1.2535806e-06 1.2810632e-06
000370 7e 01 26 35 12 b9 27 35 50 0e c8 b5 08 51 cc b5
       6.184199e-07 6.248166e-07 -1.4905327e-06 -1.5222768e-06
000380 50 bf 8a b7 ab f9 6e b7 4e 41 13 39 25 03 16 39
       -1.6539969e-05 -1.4244036e-05 0.0001404334 0.00014306286
000390 33 53 21 34 34 ba 27 33 d1 5f 85 38 06 12 b2 38
       1.5024561e-07 3.905207e-08 6.3597814e-05 8.4910585e-05
0003a0 db 67 42 b7 93 1f 30 b7 e7 d3 f7 36 bc 06 f8 36
       -1.1587482e-05 -1.0497769e-05 7.3858423e-06 7.39176e-06
0003b0 45 14 c9 37 26 75 d0 37 eb d6 19 b7 86 2f 1c b7
       2.3970506e-05 2.4850084e-05 -9.16955e-06 -9.3093895e-06
0003c0 cc 8b 5d 35 50 5e 5e 35 35 ee 3f 37 f8 de 52 37
       8.2532347e-07 8.283869e-07 1.1439949e-05 1.2568889e-05
0003d0 6e 72 22 37 45 c4 61 37 c2 15 b1 38 c2 75 b6 38
       9.682595e-06 1.3456743e-05 8.4440704e-05 8.7003704e-05
0003e0 f1 2a e6 b5 b9 be e9 b5 9a f2 48 3a 3a 3a 42 3a
       -1.7148833e-06 -1.741536e-06 0.0007665545 0.0007409189
0003f0 f2 1b 98 3c 48 e1 b1 3c 53 3e 6e b7 93 ce 72 b7
       0.018568013 0.021713868 -1.4200416e-05 -1.4472421e-05
