lightning_logs/version_20/checkpoints/epoch=32-step=11385.ckpt (torch, 37950 bytes, 15 tensors)

lstm.weight_ih_l0 f4 [400, 2]
000000 d3 c1 96 3d 76 88 87 3d 51 30 07 3e 5e 01 23 3d
       0.07361188 0.06617825 0.13202025 0.039796226
000010 fa 45 2d 3d b3 f7 8d 3d 6c 18 09 3e 32 b9 07 3d
       0.042303063 0.069320105 0.13388222 0.0331356
000020 20 55 ba 3c 73 36 12 3d 81 8c bb 3d 4e 54 0c 3d
       0.022745669 0.035696458 0.09157658 0.034260087
000030 ed 03 ed 3d 92 21 0d 3d cf b8 12 3d 02 57 e1 3d
       0.115730144 0.034455843 0.03582078 0.110029235
000040 8b 5a 9c 3d 98 10 e9 3d 36 dc b7 bb 71 d6 ae 3d
       0.07634457 0.11380118 -0.005610968 0.08536995
000050 16 01 fc 3d 0a 3c 09 3e c2 2d 85 bd 79 f9 0b 3e
       0.123048946 0.1340181 -0.06502868 0.13669385
000060 80 1d 3d 3d 96 21 9d 3d ae 62 b6 3c 3f f2 11 3e
       0.04617071 0.07672422 0.022263851 0.14252566
000070 b7 ae 4e bb 1e 8d 5c 3d 9f 1e c6 3c e9 75 6b 3d
       -0.0031537244 0.053845517 0.024184523 0.057485495
000080 0d be 88 3d ea ab 91 3d f2 2e a2 3c 0c 44 5e 3d
       0.06676874 0.07112868 0.019797776 0.054264113
000090 57 4e 28 3e 9e 45 61 bc d2 23 e4 3d dc e9 d5 3d
       0.16436134 -0.013749508 0.11139645 0.10444996
0000a0 58 2c fe 3d 8d 4b 72 3d a8 19 12 3e 61 4d f1 3d
       0.12410802 0.059154082 0.142676 0.11782337
0000b0 5a d5 e8 3d 4f b4 1a 3e 9b 00 05 3e 96 e9 b0 3d
       0.113688186 0.15107845 0.12988512 0.08638303
0000c0 53 12 b5 3b 35 9b 27 3e 3e b2 a0 3c 31 0a e9 3d
       0.005525866 0.163678 0.019616242 0.11378897
0000d0 c5 48 cf 3d 7a 44 38 bd e1 b3 11 bd 0e b5 b3 3d
       0.101213016 -0.04498718 -0.035571937 0.08774768
0000e0 9a 1f ff 3b ce aa 91 3d 1e f5 cd 3d db 54 f5 3d
       0.0077857496 0.071126565 0.10056518 0.119790755
0000f0 92 5a 24 bd 63 aa f1 3d b1 d9 82 3d 55 51 98 3d
       -0.040125437 0.11800077 0.063891776 0.07437388
000100 ea b8 c3 3d 0c 7c 16 bd 6a b9 70 3d 82 20 a6 3d
       0.09556754 -0.036739394 0.058770575 0.08111669
000110 42 fc 48 3e 56 8a a0 3d 3a bf 1b 3e 8b 98 0d 3d
       0.19627479 0.078388855 0.15209666 0.034569304
000120 3c 5d 8c 3d 2b 09 ea 3d 28 16 25 3e 7e cf cd 3d
       0.068537205 0.1142753 0.16121733 0.100493416
000130 e1 45 42 3d ac 38 b3 3d 73 84 d8 bb 07 cf dd 3d
       0.047429923 0.08751044 -0.006607586 0.10830503
000140 0a ca b9 3c ec 89 19 3e 07 ea be 3d 16 23 37 3e
       0.022679348 0.1499402 0.09321981 0.17884478
000150 8d 4e f7 3d 29 92 b6 3d 55 9e 71 3d e2 48 e0 3d
       0.12075529 0.089145966 0.058988888 0.10951401
000160 87 0c 2d 3e 38 18 c2 3d 29 dc ee ba fc 70 81 3d
       0.1689931 0.094772756 -0.0018223572 0.06320378
000170 64 8a dc 3c e2 6a 73 3d 2e 5a da 3d 94 19 15 3e
       0.026921459 0.059428103 0.10661732 0.14560539
000180 57 98 ea 3d b0 ba 7c bc b8 c3 1f 3d 02 c9 45 3d
       0.11454838 -0.015425369 0.03900501 0.0482874
000190 9d e9 9a 3d aa 77 92 3d 10 55 c3 3d 76 39 3f bd
       0.075640894 0.0715173 0.09537709 -0.04668566
0001a0 9d a4 33 3d 7c f9 06 3d 5e 19 b4 3d 7f a0 46 3d
       0.04385816 0.03295277 0.08793901 0.048492905
0001b0 9e b7 35 3e 8e 06 32 3d a8 ec ce 3d df 72 ad 3d
       0.17745826 0.043463282 0.10103732 0.084691755
0001c0 eb e8 de 3d c1 79 56 3d 7a 22 05 3e 73 c9 07 3e
       0.10884269 0.052362207 0.13001433 0.1326044
0001d0 98 c8 a5 3d 53 df 50 3e 5a aa 49 3d 3a 89 fb 3c
       0.08094901 0.20397691 0.049234726 0.030705083
0001e0 88 e7 a0 3c 4a 65 ee 3d 62 36 05 3e 9b 13 fa 3d
       0.019641653 0.11640413 0.13009027 0.12210771
0001f0 8a 53 c2 3d 6d f5 80 3d 5c 5b f3 3d 1d 9b 08 3e
       0.0948859 0.06296811 0.1188266 0.13340421
000200 36 96 69 3b c7 68 2a 3e f9 c5 75 3d c0 00 98 3d
       0.0035642511 0.16641532 0.060003255 0.07422018
000210 de 7a 48 3d 24 8a cd 3d 43 20 26 3e 38 4e c4 3d
       0.0489453 0.10036114 0.16223244 0.095852315
000220 93 87 2f 3d 10 41 ad 3d 25 93 39 3d 8d 72 1d 3e
       0.042853903 0.08459675 0.045306344 0.15375729
000230 2d 3e b1 bb 4b e6 d5 3d de 6f 9a 3d 06 a0 46 3e
       -0.0054090233 0.104443155 0.07540868 0.19396982
000240 b7 7e f8 3d 81 b9 35 3d ac a7 1e 3e 92 dc d1 3d
       0.12133544 0.044366363 0.15493649 0.102471486
000250 b2 ba f8 3d 96 ab 1c 3e e7 11 79 bd b2 ca 1a 3e
       0.12144984 0.1529983 -0.06080809 0.15116385
000260 73 3d 29 3e c5 5b 27 3b 3d 42 fe 3d 1e aa 0f 3e
       0.16527347 0.0025536877 0.12414978 0.14029738
000270 5a d8 08 3e 77 e3 0a 3d 9c 9c a0 3d 92 07 8a 3d
       0.13363782 0.033908334 0.07842371 0.06739725
000280 4a 9d 26 3e c8 55 d8 3d 15 94 4a 3d 5c 55 18 3d
       0.16270939 0.105632365 0.04945763 0.03719078
000290 ab a5 3a 3d 17 8b 51 3d ec f7 96 bb 5b 03 d1 3d
       0.04556815 0.051158037 -0.0046071913 0.10205718
0002a0 c3 89 ae 3d 77 1f 8d 3d e8 86 cc 3d cf 66 1c 3e
       0.0852237 0.06890767 0.09986669 0.15273593
0002b0 52 26 23 3d 23 1c 5d 3c e8 b2 0e 3e 75 c4 1f 3d
       0.039831467 0.013495478 0.13935435 0.039005715
0002c0 a8 d0 88 bc 0b f0 82 3d 99 94 06 3e e7 7a 80 3d
       -0.016701058 0.06393441 0.13142623 0.06273442
0002d0 21 16 d1 3d 45 b7 61 3d 74 e3 1b 3e cf 0c 5c 3d
       0.10209299 0.05510642 0.15223485 0.053723153
0002e0 d6 05 09 3e 95 39 0a 3e 09 53 3a 3d 4a 68 00 3e
       0.13381132 0.13498528 0.045489345 0.12539783
0002f0 fe 69 0d ba e4 6b 33 3e a4 ff 07 3e c0 43 3a 3d
       -0.0005394517 0.17521626 0.13281113 0.045474768
000300 30 0d da 3d 0f 5c 13 3e c6 e5 8d 3d 23 19 f4 3c
       0.106470466 0.14390586 0.069285914 0.029797142
000310 c5 88 51 3d 4f c0 d3 3c 03 dd 4e 3d e9 b7 cd 3d
       0.051155824 0.025848536 0.050503742 0.10044844
000320 57 58 95 bd 13 59 34 bd 63 fc a4 bd ad 7f fa 3c
       -0.0729224 -0.04403026 -0.080559514 0.030578459
000330 7a 7b e8 bc cb 2d a7 bd 80 df c2 3d 70 91 97 bd
       -0.02837919 -0.08163031 0.095152855 -0.07400787
000340 3f f8 80 bd dd 8d a9 bd ad ec c8 bd 27 0c 15 3c
       -0.06297349 -0.082790114 -0.09810767 0.009097136
000350 e3 d2 70 bd 67 a6 70 bd d0 55 6b 3d 55 d4 b1 bd
       -0.058794867 -0.058752444 0.057454884 -0.08683077
000360 47 cd 95 3c 88 0a 85 bd 45 23 c5 bd 45 69 99 3d
       0.01828636 -0.06496149 -0.09625868 0.07490782
000370 38 51 b9 bd 67 68 c3 3b 05 59 98 bd dd 34 b5 3d
       -0.09048694 0.0059633735 -0.07438854 0.088479735
000380 75 49 91 bd 80 7d 80 bd ab 2b a1 3d e2 4e a0 3d
       -0.07094089 -0.06273937 0.07869657 0.07827546
000390 63 32 4d bd 10 5c 67 bd 50 b8 28 3d ad 38 60 bd
       -0.05009688 -0.056484282 0.0411914 -0.05474155
0003a0 73 21 e0 bc f2 cf 80 3d ed 7d 8c bd f0 9c 4b bd
       -0.0273597 0.062896624 -0.06859956 -0.049710214
0003b0 aa a0 52 bd c3 00 87 bd a7 fb 63 bc cd 17 2f bb
       -0.051422752 -0.06591942 -0.013914979 -0.0026717067
0003c0 1a 3d 3a bc af 5b c9 3d 8a ec 31 bd b3 51 dd bc
       -0.011367107 0.098319404 -0.04343847 -0.027016496
0003d0 18 69 8a 3d 1a 93 3f 3c 00 71 4a bd 2d 8b e8 bc
       0.06758326 0.011692787 -0.04942417 -0.028386677
0003e0 2f 7a c4 bd ba 5e 30 bd 40 01 0f 3d ad fa 91 bd
       -0.09593617 -0.04305909 0.0349133 -0.07127891
0003f0 cd 88 38 3d b3 84 ac 3d 20 4e aa bc e7 5c fd 3b
       0.04505234 0.08423748 -0.020789206 0.007732022

lstm.weight_hh_l0 f4 [400, 2]
000000 ba f1 a0 bc b8 1f 8d bd 2d 7a 5d 3d d7 25 1c 3d
       -0.019646514 -0.068908155 0.054071594 0.038122024
000010 00 d8 d6 3c e3 7f 25 3d fd e8 7f 3d 33 90 62 3b
       0.026226044 0.040405165 0.062478054 0.0034570813
000020 87 a4 fc 3c 40 95 e6 bc 5a 7a 95 bd 0b d9 a3 3d
       0.030840172 -0.02814734 -0.07298727 0.08000382
000030 35 70 c1 3d 5a 6d b3 3c 73 f7 14 bc b0 51 b9 bd
       0.0944523 0.021902729 -0.0090922 -0.09048784
000040 35 24 be 3d d7 06 87 3d 80 bf 7f bd 00 5d ab 3b
       0.0928425 0.065931015 -0.062438488 0.0052295923
000050 ea 2f 5d bd 33 98 66 bb 93 81 6d bd 9a c4 f0 3b
       -0.054000773 -0.0035185933 -0.0579849 0.0073476555
000060 37 5b 94 3d df 45 93 bd 4f 41 8f 3d 0f dd c0 bd
       0.0724396 -0.07191061 0.069948785 -0.094171636
000070 dd 81 89 3d 1a 38 47 bc 00 e0 f8 ba 07 cf a5 3d
       0.067142226 -0.012159372 -0.0018987656 0.08096128
000080 33 bf f3 3b 4d aa 66 bd b3 fd 6e 3d 53 98 e9 3c
       0.007438564 -0.056314755 0.058347415 0.028515017
000090 25 96 9d bd 67 21 b0 bd e8 8e 96 bd 23 b6 40 bd
       -0.076946534 -0.08600121 -0.07351476 -0.0470487
0000a0 43 54 85 3d 9a 9c 5b 3d 98 b3 a7 bd c7 61 60 3d
       0.06510212 0.053616144 -0.08188552 0.054780748
0000b0 67 8b 20 bd 9d c3 b4 bd 67 4a 1a bc 30 fb 39 bd
       -0.039195444 -0.08826373 -0.009417153 -0.045405567
0000c0 0d fe 96 3c b7 f2 47 3d 48 12 a1 3d 33 17 c5 ba
       0.018431688 0.048815455 0.07864815 -0.0015036821
0000d0 00 56 eb ba f3 ee b5 3d d3 ba 93 bd 07 08 52 3d
       -0.0017954707 0.088834666 -0.07213368 0.051277187
0000e0 33 3b 79 bc 62 46 b0 3d 27 46 3c bc b2 bb b9 bd
       -0.015211868 0.086071745 -0.011491335 -0.09069003
0000f0 30 1e 21 3d 27 46 03 bd a7 9f 53 bc b3 e1 71 3d
       0.03933543 -0.032049324 -0.012916482 0.059053134
000100 ef f2 b1 bd f8 79 81 3d e0 6c ef 3c b3 ce 1f 3d
       -0.08688914 0.06322092 0.02922672 0.039015483
000110 9a ef 9e 3c b2 2a ba 3d 1a d9 3f bc 0a a0 b1 bd
       0.01940136 0.09090175 -0.011709476 -0.08673103
000120 d3 c0 55 bd ad 10 d7 bc 0a bc 23 bd cd c0 42 3c
       -0.052185845 -0.026253069 -0.03997425 0.011886788
000130 d0 b8 6a bd 1a 1b 43 3d ca c7 8d 3d 2a e3 2f 3d
       -0.057305157 0.047633268 0.06922872 0.04294125
000140 6f 38 99 bd a2 a0 c0 bd b3 e8 5f 3d 00 7e be ba
       -0.07481467 -0.09405638 0.05466528 -0.00145334
000150 73 8e 89 3d 80 1c 68 3d 7a bb aa bd 43 f9 1b 3d
       0.06716623 0.056667805 -0.083365396 0.03807951
000160 87 95 b3 bd a8 f3 af bd 67 fb 81 bb c7 8f 59 3d
       -0.087687545 -0.085913956 -0.003966737 0.053115632
000170 2d 19 09 3d 67 28 5c bb 47 08 db 3c e3 0f 31 bd
       0.033471275 -0.0033593418 0.026737345 -0.04322804
000180 1d a2 1b 3d 4a 3d 75 bd 6f b9 89 3d 40 a5 37 3d
       0.0379964 -0.059872903 0.06724822 0.04483533
000190 8d 83 b8 bc 9a 59 60 3d 6a 50 1d bd 33 fc 8d bd
       -0.022523666 0.05477295 -0.038406767 -0.06932869
0001a0 33 f4 18 bb 5a c5 3c bc 33 5d e1 3a 33 1b 4a bb
       -0.0023338913 -0.011521662 0.0017193913 -0.0030838966
0001b0 77 03 72 bd 53 52 25 bd 4d 6a 0e bd 1a 50 9e bc
       -0.059085336 -0.040361714 -0.034769345 -0.019325305
0001c0 fd 36 51 bd 95 ce b7 3d dd f8 5b bd 1a 48 1b bd
       -0.05107783 0.08974949 -0.05370413 -0.03791056
0001d0 4d 41 7c bc e8 96 b3 bd c0 cc b5 bd 5a 0f a5 bc
       -0.015396428 -0.087690175 -0.088769436 -0.020148922
0001e0 2d 49 6e bd 63 f0 76 3d 0d 4a 35 bc 7a ce 7d 3d
       -0.058175255 0.060287844 -0.011065018 0.06196449
0001f0 cd 85 65 bb d0 b9 76 bd 47 f6 96 3d fa da 40 3d
       -0.0035022378 -0.0602358 0.073711924 0.047083832
000200 43 95 3e 3d a0 8c 9f 3c 67 58 41 3d b2 3a 8c bd
       0.046529066 0.019476235 0.047203448 -0.06847133
000210 9a 04 ac 3d 33 2d bc bd 33 41 9a ba a7 75 10 bd
       0.08399315 -0.091883086 -0.0011768698 -0.035268452
000220 cd 68 b7 3b fd 18 82 3d 8a 25 85 3d 63 99 76 bd
       0.00559721 0.063524224 0.06501301 -0.060204875
000230 5a 1d 8f bc 00 63 0d 3b 70 36 12 bd ad cd a7 3c
       -0.01747005 0.0021573901 -0.035696447 0.020483816
000240 1a 7b ce bb fa ae 1b bd a7 87 9b 3d 3d 94 31 3d
       -0.006301296 -0.038008668 0.07594233 0.04335426
000250 88 60 b3 3d 5d cc 97 bd 4a e9 59 bd 0b 8f ab bd
       0.08758646 -0.07412026 -0.053200997 -0.08376893
000260 77 bb 59 3d 67 79 00 3b 90 11 21 3d 10 33 97 3d
       0.053157296 0.0019603611 0.03932339 0.07382786
000270 0a b5 1d bd b3 68 bc 3c 27 8f 0e bc 9a 19 13 3d
       -0.03850273 0.022999143 -0.008701122 0.035913087
000280 f0 6a 54 3d da 16 31 3d 7b ad a5 bd b3 dd b2 bc
       0.051859796 0.043234684 -0.080897294 -0.02183423
000290 67 14 7b 3b ba e7 04 bd 07 77 8d bc c0 38 24 3d
       0.0038311721 -0.032447554 -0.01726867 0.040093184
0002a0 2a fa 38 3d d0 61 51 bd 40 89 ba bc 13 51 da 3c
       0.04516045 -0.051118672 -0.022770524 0.026649987
0002b0 c0 9a 83 bd a7 30 8b 3c 70 af 0f bd 1b 74 93 3d
       -0.064260006 0.016990973 -0.03507942 0.0719988
0002c0 60 8a 14 bd f3 bf b7 3d e3 0c 89 3d 27 4e aa bc
       -0.036264777 0.08972158 0.06691911 -0.020789219
0002d0 2a 90 16 bd b3 4f bf bc 80 dc 93 3d ed 02 a6 bc
       -0.03675858 -0.023353433 0.072197914 -0.020265067
0002e0 27 72 d8 3c 1a e5 7f 3d dd 91 5b 3d 9a ed 0f 3a
       0.02642162 0.062474348 0.053605903 0.00054904225
0002f0 ad 5e 4c 3d 97 00 98 bd 5a 92 33 3d f3 83 cb 3c
       0.049894977 -0.074219875 0.043840744 0.024843192
000300 9a 23 de 3c 6d c7 1d 3d 13 e7 93 3c c2 96 a0 3d
       0.027116586 0.038520265 0.01805452 0.07841255
000310 d3 c0 ae bd 68 85 a7 3d 87 f3 c5 bc c7 f0 bb bd
       -0.08532872 0.08179742 -0.024163974 -0.09176784
000320 ad 1f 33 bd e7 2b 3c bc 1a 78 82 3c 93 47 41 bd
       -0.04373138 -0.0114850765 0.01592641 -0.0471874
000330 28 8e ca bd 17 40 96 3d 17 51 8d 3d 67 19 e6 3c
       -0.098903954 0.07336443 0.06900232 0.028088285
000340 bb 64 a0 bd 67 ec 95 bb 40 cc 10 bc f3 51 1e 3c
       -0.07831713 -0.0045753005 -0.0088377595 0.009663093
000350 6f e5 b6 bd 6f 0c b3 bd e8 92 a7 3d 80 6e 6b bd
       -0.0893048 -0.08742606 0.08182317 -0.057478428
000360 9a da 0a 3b a2 04 ba 3d 00 ae 46 3d 5b 43 91 3d
       0.0021187426 0.09082915 0.048505783 0.07092925
000370 00 a2 1d 3d 6d 3c a7 3d 32 e8 86 3d 13 a8 b8 3d
       0.038484573 0.08165822 0.065872565 0.090164326
000380 02 e4 9b 3d 5a 2d cf 3c 67 23 32 3b 77 2f 9b 3d
       0.076118484 0.02529018 0.0027181746 0.075774126
000390 e0 65 a2 3d 55 eb b0 bd 83 6f 04 bd c3 61 c8 3d
       0.07929587 -0.08638636 -0.03233291 0.097842716
0003a0 13 73 86 bc 73 12 78 bc c0 6f ac 3d 68 79 c1 3d
       -0.016412294 -0.015141117 0.08419752 0.094469845
0003b0 f3 92 aa 3c 83 53 91 3d 27 b9 c9 bc 83 f6 2b bd
       0.020822024 0.07096007 -0.02462442 -0.04198314
0003c0 93 0f be bc 80 3d 1c 3d 83 a4 b6 bd 1b 25 8b 3d
       -0.023200786 0.03814459 -0.08918097 0.06794187
0003d0 e0 9b 10 bd 90 f3 17 bd aa fc bd bd ca 5e 58 bd
       -0.035304904 -0.037097514 -0.092767075 -0.052824773
0003e0 c0 e4 99 bc 87 57 8a 3c aa f8 2f bd e7 69 88 3d
       -0.018785834 0.01688744 -0.042961754 0.06660824
0003f0 b8 cd 9b bd 20 a7 c9 3d ef f4 9e bd 9a 47 83 3a
       -0.07607597 0.0984633 -0.07761561 0.0010015846

lstm.bias_ih_l0 f4 [400]
000000 4a 7c 65 3c fd b8 2f 3e 08 a3 3c bf 06 26 11 3e
       0.014006684 0.17160411 -0.73686266 0.14174661
000010 1c 47 96 bf 51 64 38 bf ee 47 35 3e a4 a5 01 3d
       -1.1740451 -0.7202807 0.1770322 0.031652108
000020 43 9b 33 3e 06 29 8d bc 92 78 00 bf 34 00 9e bf
       0.17539696 -0.017231476 -0.50183976 -1.2343812
000030 03 81 fc be f1 b3 81 be 6a 59 83 bd 16 10 39 bd
       -0.49317178 -0.25332597 -0.06413539 -0.045181356
000040 29 38 8d 3d 31 73 91 bf 43 5f 36 bf a4 dc f2 3d
       0.06895477 -1.1363279 -0.7123911 0.1185849
000050 de b1 bc 3d 32 4e 89 be 6a b1 8f be 1f 9a 0d 3e
       0.09213613 -0.2681747 -0.28065044 0.13828324
000060 18 39 fe be 1d 05 28 3e e0 db c1 bb 49 ed 11 bf
       -0.49652934 0.164082 -0.0059161037 -0.57002693
000070 5a fc 90 bf 8f 92 e8 be 5b 49 67 bf 91 50 9d 3d
       -1.1327012 -0.45424315 -0.90346307 0.076813824
000080 c5 4b 80 bf 41 f1 95 bf 33 95 97 3e 92 95 25 3e
       -1.0023123 -1.171425 0.29606017 0.16170338
000090 46 cd 8e 3e b1 01 ba be 97 72 d5 3d 0e bb 54 3d
       0.27890986 -0.36329415 0.10422247 0.0519362
0000a0 6c 1d 84 3e 70 56 2a 3c 59 b2 f5 3d 7d 69 61 3e
       0.25803697 0.010396585 0.11996908 0.22012897
0000b0 07 34 62 be c7 0e 87 bf 16 04 53 bf f5 e8 07 bf
       -0.2209016 -1.0551385 -0.8242811 -0.5308984
0000c0 3b 2c 49 bf 50 dd 0f ba 53 39 0d 3e c5 86 01 bf
       -0.78583115 -0.0005487995 0.13791399 -0.50596267
0000d0 12 e5 86 bf 47 53 7e 3d c2 f1 72 3e c7 ef c2 3d
       -1.0538657 0.06209114 0.23725036 0.0951839
0000e0 11 c9 8f bf 32 d5 d4 3d 6d 47 99 be 5e 59 94 be
       -1.1233236 0.10392226 -0.29937306 -0.28974432
0000f0 6d 99 2e 3e 75 68 e6 be 53 cd 5a 3e ca 83 21 3e
       0.17050715 -0.4500157 0.21367387 0.1577293
000100 ef 6e e0 3d cf 34 65 3e ad a8 9f 3d db 9d e7 3d
       0.10958659 0.22383426 0.07795844 0.113094054
000110 39 27 9b be 99 2d 6d 3e c0 e5 9e bf a7 f3 bb be
       -0.30303362 0.23161925 -1.2413864 -0.3670933
000120 29 f7 12 3e 6f 63 fa be 0a 11 d7 be c6 86 48 be
       0.14352097 -0.48903987 -0.42005187 -0.19582662
000130 fc 0d 53 bf a2 24 e7 be 3a e7 9d 3d 2c d1 59 3d
       -0.82443213 -0.45145136 0.077101186 0.053177997
000140 7c d5 96 be b5 d4 1a bc 7d 1d 16 3e b8 01 74 bf
       -0.2945975 -0.009450127 0.14659686 -0.9531512
000150 78 78 8d bf 87 7c d2 bd 68 2b 8c bf 54 87 c4 3d
       -1.1052389 -0.10277658 -1.0950747 0.09596124
000160 05 aa 12 be d2 e7 60 3e 40 c4 d1 3d 67 71 c4 3d
       -0.1432267 0.21963432 0.1024251 0.09591942
000170 a9 13 8e be 3c df 86 bf 21 46 a8 be 2d f9 07 3e
       -0.27749375 -1.0536876 -0.32866004 0.13278647
000180 93 26 2c be e8 fb 98 bd 40 28 85 bf a9 17 5c bf
       -0.1681159 -0.07469922 -1.0402908 -0.859736
000190 20 ed b1 3c 10 e1 61 bd 77 c2 1d bd 9a 49 02 bd
       0.021719515 -0.055146277 -0.038515534 -0.031808473
0001a0 73 12 24 3c df 7b b2 3d 95 f1 c0 3d e7 fb 92 bb
       0.010014164 0.08715033 0.09421078 -0.0044855955
0001b0 d7 3e 99 3d 30 5c 29 bd 0d 6f 7c 3c f3 a4 01 3d
       0.07482689 -0.041347682 0.015407336 0.03165145
0001c0 cd 90 22 3d 00 c2 10 3b 00 80 06 ba 8d 81 a3 bc
       0.039688874 0.002208829 -0.0005130768 -0.019959236
0001d0 ba 74 b9 3d 80 9f a4 bd ca 2b 5d bd 07 e9 be bd
       0.09055467 -0.08038235 -0.05399684 -0.0932179
0001e0 da 5c 3f bc 83 d4 29 bd 33 c3 b2 3b 80 80 b4 3d
       -0.011679852 -0.041462433 0.0054553985 0.08813572
0001f0 80 2d f1 3c 83 61 36 bd 8a e5 a9 3d cd 44 67 3a
       0.029440641 -0.04452659 0.08295734 0.0008822203
000200 07 99 bb bc 3d d8 9d 3d 57 d9 18 bd 52 d0 88 3d
       -0.022900118 0.0770726 -0.037316646 0.06680359
000210 5d 35 06 3d 33 4f a8 bd fb 7e 8a 3d 8d 0a 70 bd
       0.032765735 -0.08218231 0.06762501 -0.058603812
000220 c0 b6 39 bd bf 34 b2 3d 30 9e 01 bd 80 17 a1 bd
       -0.0453403 0.08701467 -0.031645 -0.078658104
000230 a3 e7 9d bd 65 26 a4 bd dd bb af bd 62 6a b8 bd
       -0.07710197 -0.08015136 -0.08580754 -0.09004666
000240 8b f0 c5 bd 6d 16 d6 bc 50 1e 1c 3d 77 d9 4e 3d
       -0.096650206 -0.02613374 0.038114846 0.05050036
000250 92 d7 ae bd 33 7f 98 3b 70 bd 3c 3d 3a bd 7e bd
       -0.085372105 0.004653835 0.0460791 -0.06219218
000260 c0 51 53 3d af 37 96 3d ed 2a b2 bc a5 3d ba bd
       0.051591635 0.073348396 -0.021748984 -0.09093789
000270 a7 4b 30 bd 87 00 a3 bd 27 43 06 3d 0d bc 96 bc
       -0.043040898 -0.07959085 0.032778885 -0.018400216
000280 5a f0 f2 bc 2d e6 be bc 2d 29 c2 bd 93 55 e7 3c
       -0.029655624 -0.023303116 -0.0948051 0.028239047
000290 ad c8 0f bd b3 d9 eb bb 72 d3 bb 3d c0 bb 18 3d
       -0.03510349 -0.0071975826 0.09171189 0.037288427
0002a0 38 1c 81 bd 0b 89 9f 3d b7 d3 b7 bd 00 4e 78 bb
       -0.063042104 0.07789811 -0.08975928 -0.0037888288
0002b0 00 5e 23 bc 05 c8 be 3d a7 8f 4a 3d 53 ce ef 3c
       -0.009971142 0.093154944 0.049453404 0.029273188
0002c0 87 ab be bc 53 6a e7 bc 78 7c ae bd 8a fb 0e 3d
       -0.02327515 -0.028248942 -0.08519834 0.034907855
0002d0 a7 87 9a bd e7 92 ba 3c 18 c7 b3 bd c0 94 80 3c
       -0.07545405 0.022775127 -0.087782085 0.01569593
0002e0 ca 5a b7 3d 33 7c 16 3c 67 99 c5 3c 67 1c c1 3b
       0.089528635 0.009184885 0.024121 0.0058932784
0002f0 53 36 e6 bc aa aa 26 3d 9a 65 95 bd dd b5 9f 3d
       -0.028102076 0.0406901 -0.072947696 0.077983595
000300 37 20 51 bd 0f ad b0 bd 1f 60 84 bd 40 53 73 3c
       -0.051056113 -0.08626758 -0.06463646 0.014851391
000310 67 bb 3f 3d 9d b5 57 bd a7 81 87 3d dd 79 11 3d
       0.04680958 -0.052663434 0.06616526 0.03551661
000320 52 4e 6c be 30 82 96 be ca 9e 1a 3f c5 fc c1 3e
       -0.23076752 -0.293962 0.6039854 0.3788816
000330 20 ed 71 bf b6 ee 8a bf 4e 4d 54 bf e8 8f d4 3e
       -0.9450245 -1.0854099 -0.8293046 0.41516042
000340 28 dd 4c be 54 a4 40 bf cb 54 39 be f1 82 96 3f
       -0.2000624 -0.75250745 -0.18098752 1.175871
000350 84 7f a2 bf e6 bc 93 3f f9 2c 85 bf b0 37 60 3f
       -1.2695165 1.1542022 -1.040435 0.8758497
000360 d0 05 b2 bd 2d 86 68 3f c9 74 88 bf da 4a 6d be
       -0.08692515 0.90829736 -1.066064 -0.23173085
000370 05 65 88 bc 1a 72 8b 3e 53 6d 06 3e dd 61 35 be
       -0.016649732 0.2723549 0.13127641 -0.17713113
000380 85 20 3c 3e 62 4b 2f 3e db b0 56 3f 97 ac 82 bf
       0.1837178 0.171186 0.8386361 -1.020892
000390 5d e8 81 3f 61 83 df 3e 7b 73 07 bf 03 94 ad 3c
       1.0149037 0.43654922 -0.52910584 0.021188742
0003a0 57 47 3e 3f 05 bb 52 bf d0 0b cc bd 72 a9 3d be
       0.74327606 -0.8231662 -0.099631906 -0.1852167
0003b0 5c 24 2f be 10 00 c4 3d 39 13 dd be f6 5c 40 3f
       -0.17103714 0.095703244 -0.43178728 0.7514185
0003c0 11 a6 36 3e dd d4 e7 bd 38 ca 8a bd 51 07 41 bd
       0.17836787 -0.11319897 -0.067768514 -0.047126118
0003d0 7f e3 7d 3e b5 13 88 bf 58 ac 07 3f 87 ed a8 3e
       0.24793814 -1.0631014 0.5299735 0.3299372
0003e0 59 e8 be 3e c1 b8 9f bf 9c 4d b9 3e 09 31 c5 be
       0.37286642 -1.2478257 0.36192024 -0.38513973
0003f0 8c a6 3f bf 99 7e 8b 3e a8 0e 34 3e 0b b7 0f be
       -0.74863505 0.27245024 0.17583716 -0.14034669

lstm.bias_hh_l0 f4 [400]
000000 73 c8 0c 3e cf 4b 84 3e 14 d7 13 bf 40 e5 4e 3e
       0.1374834 0.25839087 -0.5775006 0.2020464
000010 88 b6 a3 bf 5b d7 1d bf 79 46 2b 3d 33 13 24 3e
       -1.2790079 -0.6165673 0.041815255 0.16022949
000020 52 92 20 3e 6c 54 b6 bb 30 3d b5 be a6 0c 8a bf
       0.15680817 -0.005564263 -0.35398245 -1.078511
000030 75 d4 e5 be d5 76 2b be bb 31 03 3d ff fa 42 bd
       -0.44888654 -0.1674455 0.03202985 -0.04760265
000040 94 f3 a8 3d cc 21 a0 bf 2a 7f 2e bf f0 d8 15 3e
       0.08249584 -1.2510314 -0.68162787 0.14633536
000050 f3 fc cd 3d 49 a6 ab be ce 7b 1c be b1 41 5c 3e
       0.10058012 -0.33525303 -0.15281603 0.21509434
000060 11 57 ca be 42 ca 0c 3e d0 e3 11 be 4c 4b 13 bf
       -0.3951955 0.1374903 -0.1424706 -0.5753677
000070 0c df 91 bf bc e8 b4 be 62 cd 79 bf 10 9e 5c 3d
       -1.1396194 -0.35333812 -0.97579014 0.053861678
000080 cb d5 86 bf be e3 83 bf 0b c8 24 3e 69 a8 21 3e
       -1.0533994 -1.0303876 0.16091935 0.157869
000090 c6 83 6c 3e 12 05 cb be 05 ae e5 3d 85 ac 86 3d
       0.23097143 -0.39652306 0.11214832 0.06575874
0000a0 b8 f8 60 3e 95 5d f7 3c b8 81 0e 3e d2 2b fd 3d
       0.21969879 0.03019599 0.13916671 0.12361874
0000b0 aa 47 3d be ab fe 91 bf 2e 2e 4f bf 94 66 07 bf
       -0.18484369 -1.1405843 -0.8092984 -0.52890897
0000c0 1b 12 38 bf fa 77 f3 3d ab c0 e9 3d 75 17 29 bf
       -0.71902627 0.11888118 0.114137016 -0.6605142
0000d0 6e a2 83 bf a8 7a 13 3e f8 1f 5e 3e 17 51 70 3e
       -1.0283945 0.14402258 0.21691883 0.23468433
0000e0 64 91 91 bf 4a 6f e1 3d d4 d3 62 be 23 8a 83 be
       -1.1372495 0.11007555 -0.22151119 -0.25691327
0000f0 9f 23 ec 3d cc 71 f1 be b1 a0 ce 3d 90 0d 9f 3e
       0.11530232 -0.47157133 0.10089243 0.31065035
000100 37 c8 d5 3d 3d ae 48 3e 6b 35 1a bd 4c 89 6d 3e
       0.104385786 0.19597717 -0.0376486 0.23196906
000110 da cb b7 be be 5d 90 3e ae b2 93 bf a4 21 e6 be
       -0.35897714 0.2819652 -1.1538904 -0.4494754
000120 cc d0 60 3e 3f 01 ca be 03 40 d6 be 00 15 68 be
       0.2195465 -0.39454076 -0.41845712 -0.22664261
000130 9e 21 69 bf d3 38 e1 be f4 12 2e 3d 5d b6 c2 3c
       -0.9106692 -0.43988666 0.042498544 0.023768598
000140 c6 15 a8 be 72 78 7e 3d 80 7b 49 3e 72 83 58 bf
       -0.32829112 0.062126584 0.19676018 -0.8457557
000150 be ca 86 bf 7b 55 2b be 0b f1 8c bf f5 20 8a 3e
       -1.0530622 -0.16731827 -1.101106 0.2697827
000160 0e 86 cd bd be 0d ea 3d 2d 01 8a 3d 13 1f 9f 3d
       -0.100353345 0.11428402 0.067385055 0.07769599
000170 54 24 82 be 1b 28 74 bf d0 a8 80 be ed 62 42 3e
       -0.2541834 -0.95373696 -0.25128794 0.1898305
000180 c0 2b 8f be 31 4d eb bc 29 20 8c bf 90 f4 5a bf
       -0.27963066 -0.028723331 -1.0947315 -0.8552942
000190 8f 59 8b 3d 60 5a 14 3d 20 bd d7 bc 9a cb bb 3b
       0.06804191 0.036219 -0.026335299 0.0057310583
0001a0 c3 c5 68 bd 9a dd c4 bd aa 62 0b 3d 33 dc f3 3b
       -0.056829225 -0.0961258 0.03402964 0.0074420213
0001b0 8d 5f 31 3d cd 80 ff 3c 4b 24 c2 bd a3 38 6c 3d
       0.043304015 0.031189347 -0.094795786 0.0576712
0001c0 00 a5 52 3d e7 24 c9 3b 47 74 1f 3d cd 2b 24 3c
       0.051426888 0.0061384323 0.03892925 0.010020209
0001d0 e0 df 2e 3d 12 91 94 bd 87 6a bf 3d 2d b6 af bd
       0.042693973 -0.072542325 0.0934649 -0.08579669
0001e0 60 76 51 bd ed 32 f2 3c fd 63 ca 3d 5d 95 ba 3d
       -0.05113828 0.029565299 0.098823525 0.0911052
0001f0 73 94 98 bc 33 53 2d ba 20 ec cb 3d 23 76 24 bd
       -0.018625474 -0.0006611824 0.09957147 -0.040151726
000200 b5 ec bd bd 4a 3b 7e bd a3 22 3c bd 33 ab 53 3d
       -0.09273664 -0.06206826 -0.04593147 0.05167694
000210 0d d2 5e bd da 17 dd 3c d7 c9 4e bd 40 b3 49 bc
       -0.05439954 0.026988912 -0.05048546 -0.012310803
000220 af 9a a1 3d 45 31 cc bd cd 3c 74 3d 4d e5 fa bc
       0.07890832 -0.09970335 0.059628297 -0.030626917
000230 9d 9f 77 3d 13 43 6c bd c0 e5 69 bd 4d f5 4c bc
       0.060454953 -0.057681154 -0.057103872 -0.012509656
000240 17 fb 8f bd 3b 7b a8 bd f0 ba 90 bd 43 a9 bd bd
       -0.070303135 -0.08226629 -0.070669055 -0.092608
000250 d7 69 b9 bd 17 1c 19 bd c0 91 55 bc 9b 03 c0 3d
       -0.090533905 -0.037380304 -0.013035238 0.09375688
000260 07 00 d8 bc 48 cb af bd 6a c8 96 bd 1a fa 74 bd
       -0.0263672 -0.08583695 -0.07362445 -0.059808828
000270 b3 5a 54 3c 7a 81 c5 bd a7 9a cb bd 7d e5 88 bd
       0.0129610775 -0.09643836 -0.09941607 -0.066843964
000280 b8 cd bf 3d b0 07 02 3d dd a8 3a bd 80 42 97 bd
       0.093654096 0.031745613 -0.045571197 -0.07385731
000290 13 5e d6 3c a7 30 1a bc 08 c3 c8 3d d0 f5 95 3d
       0.026167905 -0.009411014 0.09802824 0.07322276
0002a0 00 90 79 b9 33 6a 75 3b d0 31 8c 3d a0 f7 40 bd
       -0.00023800135 0.0037447333 0.068454385 -0.047111154
0002b0 17 6e 08 3d f3 48 b1 3d 9a ec 1e 3d fa 7a 89 3c
       0.033308115 0.08656492 0.03879986 0.016782273
0002c0 00 62 8e 3d 50 c5 b3 3d 7a 4a 5b 3d 9a de 18 3c
       0.06952286 0.08777869 0.053537823 0.009330416
0002d0 b3 ee 2c 3d cd 15 67 3b da e2 a4 3d 3a 2f 86 3c
       0.04221983 0.0035260797 0.08051081 0.016379941
0002e0 4d 67 49 bd 4f 7f 89 bd 95 9c c9 3d 63 60 9f 3d
       -0.04917078 -0.06713735 0.09844319 0.07782056
0002f0 a7 f9 17 bc 60 da 98 bd 37 5f b4 3d b3 81 be bb
       -0.00927583 -0.07463527 0.08807223 -0.005813801
000300 cd 76 86 3c e2 0d 9b bd 80 4b 8c bd 1a c4 b5 bb
       0.01641407 -0.07571007 -0.06850338 -0.005547059
000310 9a df 06 3b b3 3e 94 bc 5d c0 22 3d 75 78 96 3d
       0.0020580054 -0.018096304 0.039734233 0.07347194
000320 88 5b a8 bd 07 5b 99 be e8 f1 24 3f 58 74 cb 3e
       -0.08220583 -0.2995226 0.6443162 0.397372
000330 55 7a 81 bf 84 4c 7e bf f9 81 5c bf 06 55 90 3e
       -1.0115458 -0.99335504 -0.8613582 0.28189868
000340 0c 34 70 be 11 fe 3d bf 75 c0 ce bd 87 45 8c 3f
       -0.23457354 -0.742158 -0.10095302 1.0958718
000350 53 3f a8 bf 75 1f 97 3f e3 51 81 bf 36 f8 56 3f
       -1.3144325 1.1806475 -1.0103115 0.8397249
000360 be 91 a3 bd e6 13 54 3f 83 9b 8e bf af d8 61 be
       -0.079867825 0.8284286 -1.1141208 -0.22055314
000370 94 10 b8 ba 2d 81 d3 3d 8f ab 69 3e 29 0a 4d bd
       -0.0014043027 0.10327373 0.2281935 -0.050058518
000380 a5 45 5c 3e d3 03 f9 3d 31 2e 42 3f 79 a5 66 bf
       0.21510942 0.121589325 0.7585173 -0.9009624
000390 66 a2 7e 3f 31 04 c5 3e d8 cb f1 be fa 95 51 3e
       0.9946655 0.3847976 -0.47225833 0.20467368
0003a0 d2 db 2d 3f a2 88 61 bf 64 fc 4d be 8e 9b b0 bd
       0.67913544 -0.8809911 -0.2011581 -0.0862342
0003b0 57 f9 00 be 7d 50 c7 3d 94 69 83 be ab b8 54 3f
       -0.12595116 0.09732149 -0.25666487 0.8309428
0003c0 cd a1 7c 3e cd 65 53 be fc 6f 07 be 67 5b fa bd
       0.24671097 -0.20644303 -0.13226312 -0.12224465
0003d0 69 a3 11 3e 78 c1 88 bf 1f 52 e1 3e a3 18 e7 3e
       0.14222492 -1.0684042 0.44007966 0.45135984
0003e0 a3 b9 05 3f d2 d2 94 bf 11 a6 c9 3e ef d4 e4 be
       0.52236384 -1.1626837 0.3938451 -0.44693705
0003f0 8c df 47 bf 82 30 5d 3e c8 c9 ae 3d d8 6a 78 be
       -0.7807548 0.21600536 0.085345805 -0.24259508

lstm.weight_hr_l0 f4 [2, 100]
000000 92 8c 84 3f d6 a5 8a 3f 50 8d 8f bf e9 bb 7a bf
       1.0355399 1.0831859 -1.1215 -0.9794298
000010 15 0a 8f 3f fb 34 96 3f 1e 1e f9 3e 62 73 76 bf
       1.1174952 1.1734918 0.4865579 -0.9626981
000020 56 1d 8f 3f d4 32 9b 3f 14 d1 87 bf d8 a0 8c bf
       1.1180828 1.2124887 -1.061068 -1.0986586
000030 b6 f8 3d 3f d5 02 4c bf 1f 1a 8c 3f d4 0e 8a bf
       0.7420763 -0.7969182 1.0945472 -1.0785775
000040 39 7a 8c 3f 1e 3a 81 bf d6 57 a6 3f 04 8a 72 bf
       1.0974799 -1.0095861 1.2995555 -0.94741845
000050 ea d0 7c 3f 10 72 79 3f 36 bb 88 3f 73 0d 77 bf
       0.9875628 0.9743967 1.0682132 -0.96504897
000060 6c dc 85 bf c6 f9 8a 3f 38 a4 7c bf 80 bf 68 3f
       -1.0457892 1.0857475 -0.9868808 0.90917206
000070 b5 e3 56 bf 48 c4 7a bf 7f a2 6b 3f 32 fb 81 3f
       -0.83941203 -0.9795575 0.92044824 1.0154784
000080 5a 31 8f bf b9 b9 a5 3f d5 93 89 bf c5 ab 8d 3f
       -1.1186936 1.2947303 -1.074824 1.1068045
000090 6f 1f 96 bf 29 f6 83 bf b3 c4 9b 3f 97 7d 8c bf
       -1.1728343 -1.0309497 1.2169403 -1.0975827
0000a0 5e 4f 88 bf 0f 8a 74 3f 71 1d 7d bf 57 b9 7f 3f
       -1.0649221 0.9552316 -0.9887305 0.9989218
0000b0 86 be 84 3f 48 2d 7a 3f 85 a5 7d bf 4c 4b 8e bf
       1.0370643 0.97725344 -0.9908069 -1.1116729
0000c0 20 68 8b bf dc ad 7e 3f 08 ea 97 bf b0 16 a2 3f
       -1.0891151 0.9948404 -1.1868296 1.2663174
0000d0 da 0b 95 3f 7a 29 93 bf de b1 7e bf ef 64 81 bf
       1.1644242 -1.1497033 -0.99490154 -1.0108927
0000e0 17 4e ab bf 48 74 8c 3f 95 be 60 bf a7 02 30 bf
       -1.3383206 1.0972986 -0.87790805 -0.6875405
0000f0 a2 8e 93 bf 67 3a 7b bf 10 f4 82 bf 07 a5 8c bf
       -1.1527903 -0.9813599 -1.0230732 -1.0987862
000100 ef 08 86 3f 9d 20 89 3f fc 38 c3 bf 4a a1 8b bf
       1.0471476 1.0713078 -1.5251765 -1.0908597
000110 8b 5f bb 3f 33 cd 99 3f 38 ee 53 3f 01 d9 97 bf
       1.4638532 1.2015747 0.8278537 -1.1863099
000120 60 3f 7a bf 31 c5 7e 3f 55 a0 92 3f d2 22 83 3f
       -0.9775295 0.9951964 1.145518 1.0245001
000130 cf 11 9f bf e0 d2 88 3f 97 c4 93 3f 92 f6 82 3f
       -1.242731 1.0689354 1.154437 1.0231497
000140 99 e6 85 3f fe 30 81 3f 6d 36 8e bf 42 b0 8b 3f
       1.0460998 1.0093076 -1.111036 1.0913165
000150 fb 0e b7 3f 26 73 8c bf f8 51 86 3f f2 0d 95 3f
       1.4301447 -1.097264 1.0493765 1.1644881
000160 18 21 85 bf 29 0c 6d bf 73 53 88 3f 68 47 7f bf
       -1.0400724 -0.9259668 1.0650467 -0.9971833
000170 1c 27 82 3f b9 c5 19 bf 3f 45 80 3f 0b 71 84 3f
       1.0168185 -0.60067326 1.0021132 1.0346998
000180 3b a8 73 3f ae 3f 9e 3f fc c5 89 3f 62 f6 8a bf
       0.95178574 1.2363183 1.0763545 -1.085644
000190 96 07 81 3f b8 b0 8b 3f a4 99 92 bf 67 49 85 bf
       1.008044 1.0913305 -1.1453137 -1.0413026
0001a0 57 dd 88 3f b1 a6 4e 3f 06 c8 ca 3f 82 6e 87 bf
       1.0692548 0.807231 1.5842292 -1.0580599
0001b0 f6 43 8b 3f d7 95 8b 3f 1d 50 89 bf 2e f7 b6 bf
       1.0880115 1.0905102 -1.0727574 -1.4294183
0001c0 ca 11 a3 3f cf 83 af bf 18 24 7f 3f c0 0e 7c bf
       1.2739804 -1.37121 0.9966445 -0.98460007
0001d0 3f 2f 8a 3f b9 b7 6a bf b2 a5 6d 3f cf 0a 78 bf
       1.0795668 -0.9168659 0.92830956 -0.9689149
0001e0 ef 46 85 3f 5f 3d 88 3f 90 6f 6e 3f 90 33 83 bf
       1.0412272 1.0643729 0.9313898 -1.0250111
0001f0 fe 25 83 bf ac 92 71 3f 96 a9 80 bf 10 ef 80 3f
       -1.0245969 0.9436443 -1.0051754 1.0072956
000200 26 fb ac bf 73 6d 71 bf 50 04 87 3f 2c af 83 3f
       -1.3514144 -0.9430763 1.0548191 1.0287833
000210 a6 10 59 bf 51 e0 36 3f b5 df 7b bf 75 96 88 3f
       -0.8479103 0.7143603 -0.98388225 1.0670916
000220 d6 e9 8d bf 57 18 59 bf 10 b7 85 3f 7b 57 8d bf
       -1.1086986 -0.84802765 1.0446491 -1.1042322
000230 d3 99 84 bf 0e 9c 73 3f cc 6f 83 bf 6f 00 8a 3f
       -1.0359443 0.95159996 -1.0268493 1.0781382
000240 06 fd 89 3f 6d c6 68 3f 24 05 59 bf 3b 05 85 bf
       1.0780342 0.90927774 -0.8477347 -1.0392221
000250 5e d7 36 bf 18 f7 9e 3f e6 c8 87 bf 91 3c 8c 3f
       -0.71422374 1.2419157 -1.0608184 1.0955983
000260 42 08 8a 3f 88 8b 8f bf 19 4e 7d bf 69 d2 6f bf
       1.078377 -1.1214457 -0.9894729 -0.93680435
000270 6e 7e 50 bf 2a 0d 80 3f 31 12 84 bf ed 29 a2 bf
       -0.81442916 1.0004017 -1.0318052 -1.2669045
000280 1d ac 7f bf 21 32 84 bf 97 f2 6e bf 4f 9f 65 bf
       -0.99872 -1.0327798 -0.9333891 -0.8969621
000290 01 c9 87 3f 67 c5 86 3f 91 56 c4 be d6 84 89 bf
       1.0608217 1.0528992 -0.38347295 -1.0743663
0002a0 4e f9 27 3f a7 99 9e 3f fd 76 ab 3f 9f 61 95 bf
       0.65614784 1.2390641 1.3395687 -1.1670417
0002b0 73 da 87 bf 75 3e 6f 3f 57 88 80 3f fb 51 89 3f
       -1.061354 0.93454677 1.0041608 1.0728143
0002c0 e0 dd 2e bf 8f 93 6b 3f 63 b2 8f 3f 86 b2 80 3f
       -0.68307304 0.9202203 1.1226314 1.0054481
0002d0 e5 55 54 3f 6c 9b a0 3f f4 1e a2 bf e0 f5 95 3f
       0.82943565 1.2547431 -1.2665696 1.171566
0002e0 35 f0 4a 3f 60 d8 8c bf d6 9b 87 3f 7c 15 87 3f
       0.79272777 -1.1003532 1.0594432 1.0553432
0002f0 95 45 92 bf 63 f4 79 bf d8 6f 7c 3f 31 72 77 bf
       -1.1427485 -0.9763853 0.9860816 -0.9665862
000300 47 7b 5a 3f 73 19 c0 bf b6 81 78 3f 48 c1 73 3f
       0.85344356 -1.5007766 0.97072923 0.952168
000310 9e a2 76 3f 17 cf 64 3f 90 78 8e 3f 5e 49 91 bf
       0.96341884 0.89378494 1.1130543 -1.1350515

exp_avg f4 [400, 2]
000000 41 2f c9 3a c4 78 9e 3a a1 68 14 39 8a 9e f6 b8
       0.0015349166 0.0012090434 0.00014153357 -0.00011759724
000010 01 54 29 3d 04 b6 17 3d b0 d3 43 39 94 e8 24 b9
       0.041339878 0.037038818 0.00018675509 -0.00015726901
000020 2a 16 c4 3f c1 9f a9 3f 63 19 1b 3c 44 a9 1a 3c
       1.5319264 1.3251878 0.009466502 0.00943977
000030 4a 93 0c bb 70 20 02 bb 2b c2 d7 3a a4 85 b1 3a
       -0.0021450096 -0.001985576 0.0016461065 0.0013543856
000040 d5 11 0b 39 74 ad ab 38 7f 15 ce 3d 10 4f c0 3d
       0.00013262716 8.1862236e-05 0.10062694 0.0939008
000050 61 2e 01 39 0b db cc 38 6e 8c 9d bb 2b 5d 65 bc
       0.00012319676 9.768278e-05 -0.0048080003 -0.013999264
000060 3d f5 9f bc 76 aa 85 bc 3f f0 54 bb 14 bc 26 bb
       -0.019526118 -0.016316634 -0.003249183 -0.0025441693
000070 a5 8a 9a 3e dd 11 84 3e 6c d4 9c 3d 49 8d 92 3d
       0.30183902 0.2579488 0.07657704 0.07155854
000080 da 34 02 3b 69 83 d4 3a 01 ea 76 3f 30 37 60 3f
       0.0019867928 0.001621348 0.9645081 0.8758421
000090 b6 cc 52 3b 81 76 0d 3c 8a 07 62 38 ad f0 d9 37
       0.0032165474 0.008634211 5.388962e-05 2.598049e-05
0000a0 5a cd 23 39 33 cc 2a 37 0a 2d cf 38 a1 5f a0 38
       0.00015621391 1.0180333e-05 9.878918e-05 7.647207e-05
0000b0 f0 3c 81 38 26 ca 5b 38 e1 c7 82 38 ab ad db 37
       6.16255e-05 5.2401934e-05 6.2361134e-05 2.6187705e-05
0000c0 89 b5 b2 3a 61 a7 93 3a 8f ec fa 3a 34 a7 e6 3a
       0.0013634424 0.0011265093 0.0019143986 0.0017597438
0000d0 92 5a 51 3e 1c 18 33 3e b3 b3 2e 3f ab 68 14 3f
       0.20444706 0.17489666 0.6824295 0.5797221
0000e0 53 eb 74 be 76 e2 5e be a4 2d 12 39 66 b7 ab 38
       -0.23917894 -0.21766075 0.00013940647 8.188076e-05
0000f0 a6 2f 4e 3f 5c 37 3a 3f 7b 97 fb 3a a6 7b ce 3a
       0.80541456 0.7274072 0.0019194925 0.0015753403
000100 c0 da 85 3f f1 0b 7c 3f 4c 47 98 3c 9f 29 76 3c
       1.0457382 0.9845572 0.018588684 0.015024572
000110 42 88 94 37 3d 30 00 35 7b a2 0a 37 5e 87 91 b9
       1.7706425e-05 4.775391e-07 8.263271e-06 -0.00027757412
000120 e8 f7 ea 38 8e ca 98 38 98 08 83 38 1d f5 dd 37
       0.00011204166 7.2856536e-05 6.2481675e-05 2.6459393e-05
000130 00 63 ee 3a 9e 41 cf 3a a0 26 b0 3c 09 5b ae 3c
       0.0018187463 0.0015812402 0.021502793 0.021283643
000140 78 9a a5 39 a3 fb 81 39 3b f2 50 38 90 00 39 38
       0.0003158634 0.0002479228 4.981666e-05 4.410796e-05
000150 a9 b8 8e 38 cf 3a d5 37 e0 dc 92 b8 22 b3 90 b6
       6.805483e-05 2.5418964e-05 -7.002964e-05 -4.3123882e-06
000160 47 18 85 38 6d c4 10 38 25 23 60 3f b8 3e 3d 3f
       6.346456e-05 3.451521e-05 0.87553626 0.73923826
000170 a4 2f 4b 3e 6f fb 3b 3e a5 04 0b 39 27 8c d5 38
       0.19842392 0.18357633 0.00013257803 0.00010182737
000180 35 09 72 3d f6 83 8e 3d 2b 3a 7b bc d2 f2 68 bc
       0.05909081 0.06958763 -0.015333693 -0.014218049
000190 6f c6 46 3a 6a 8d 0e 3a 43 34 84 3f ec dc 7d 3f
       0.00075826695 0.00054379425 1.0328449 0.99165225
0001a0 31 24 2d 3f 12 c5 20 3f 23 ba df 3a f0 ac 9d 3a
       0.6763335 0.62800705 0.0017069023 0.0012029689
0001b0 b5 d8 a0 b6 02 1a ea b8 ac 0b a5 38 e1 a4 76 37
       -4.7935996e-06 -0.00011162834 7.869987e-05 1.47011315e-05
0001c0 aa e1 03 3c 3f 53 19 3c 45 8e 07 38 65 d2 d2 37
       0.008049408 0.009358226 3.2319007e-05 2.5131923e-05
0001d0 ab c8 71 37 0b b1 d0 37 4a 9d 92 bd 81 fa 81 bd
       1.4411441e-05 2.4877974e-05 -0.07158907 -0.06346608
0001e0 3f 21 df 3a 3e e7 cc 3a fa 27 0a 39 12 9c cd 38
       0.0017023458 0.001563288 0.00013175598 9.804232e-05
0001f0 5c d5 a3 39 0b 33 15 39 18 d6 c2 37 2c 63 91 37
       0.00031248748 0.00014228762 2.3226297e-05 1.7331527e-05
000200 8f da 19 3a 86 ce fb 39 29 78 f4 3a 4a 49 cd 3a
       0.00058690546 0.00048028323 0.0018651533 0.0015662101
000210 e1 ff 2a bb 0f 5c 02 bb 8c 43 f5 37 d3 50 69 37
       -0.0026092457 -0.0019891297 2.923773e-05 1.3906701e-05
000220 b9 c9 cc 3b 77 a7 9f 3b 59 a6 28 39 cf c9 f9 38
       0.006249633 0.0048722583 0.00016083698 0.00011910835
000230 c8 38 1f be 6b ab 13 be 77 64 1b 39 b4 c2 06 39
       -0.15549004 -0.1442086 0.00014819378 0.00012851768
000240 82 0e 6e 39 72 98 3c b7 05 f1 b5 38 37 e2 3f 38
       0.00022702853 -1.1241167e-05 8.675646e-05 4.5748628e-05
000250 42 94 d2 38 29 2f b9 38 a1 47 b5 3d 0b 36 bf 3d
       0.000100411955 8.830272e-05 0.08851553 0.0933648
000260 b0 7a 71 3b a7 26 ee 3b 26 61 bc 38 40 27 99 38
       0.003684681 0.0072677913 8.982634e-05 7.3029194e-05
000270 cd d5 0c 39 5f 85 b4 b9 86 74 97 3a b8 f4 61 3a
       0.00013431087 -0.00034431645 0.0011555112 0.0008619535
000280 60 08 5e 38 ae dc e9 37 20 e3 91 bc 96 ad 85 bc
       5.2936724e-05 2.7878526e-05 -0.017808497 -0.016318124
000290 7b a8 f4 bb a0 04 e3 bb 0e d2 53 3e f6 c8 43 3e
       -0.0074663735 -0.0069280416 0.20685598 0.1911963
0002a0 d8 aa 44 3c 38 88 3a 3c 17 b6 b2 38 3a 17 94 38
       0.012003623 0.011385016 8.521618e-05 7.061516e-05
0002b0 c0 a4 d5 3f 1e 62 bb 3f 73 b8 62 37 8d 73 88 b9
       1.6690903 1.4639318 1.3513595e-05 -0.00026026033
0002c0 f7 98 e5 3e 9c 79 c3 3e 0d 4f 90 38 fc 4b b7 b7
       0.44843265 0.38178718 6.8811794e-05 -2.1850683e-05
0002d0 e0 e8 bb 39 20 5c ee 38 28 71 97 37 98 bb da b8
       0.00035840925 0.00011365884 1.8053295e-05 -0.00010429992
0002e0 7d ce 75 38 1d f3 46 38 5f 62 34 bc 11 15 fc bb
       5.860486e-05 4.7433296e-05 -0.011009782 -0.007692941
0002f0 5a 10 3e 3a 06 bf 1e 3a c3 b7 25 38 e7 cb 2f b9
       0.00072503614 0.00060556864 3.9510207e-05 -0.0001676526
000300 d1 c2 ad 38 84 ef 88 38 0d e3 aa 3c b8 7a a0 3c
       8.28557e-05 6.5295986e-05 0.02086022 0.019589767
000310 b4 49 25 3f 55 01 17 3f a8 fc ba 3b 4b bf 93 3b
       0.6456559 0.5898641 0.0057063885 0.004508888
000320 00 00 00 00 00 00 00 00 00 00 00 00 00 00 00 00
       0.0 0.0 0.0 0.0
000330 00 00 00 00 00 00 00 00 00 00 00 00 00 00 00 00
       0.0 0.0 0.0 0.0
000340 00 00 00 00 00 00 00 00 00 00 00 00 00 00 00 00
       0.0 0.0 0.0 0.0
000350 00 00 00 00 00 00 00 00 00 00 00 00 00 00 00 00
       0.0 0.0 0.0 0.0
000360 00 00 00 00 00 00 00 00 00 00 00 00 00 00 00 00
       0.0 0.0 0.0 0.0
000370 00 00 00 00 00 00 00 00 00 00 00 00 00 00 00 00
       0.0 0.0 0.0 0.0
000380 00 00 00 00 00 00 00 00 00 00 00 00 00 00 00 00
       0.0 0.0 0.0 0.0
000390 00 00 00 00 00 00 00 00 00 00 00 00 00 00 00 00
       0.0 0.0 0.0 0.0
0003a0 00 00 00 00 00 00 00 00 00 00 00 00 00 00 00 00
       0.0 0.0 0.0 0.0
0003b0 00 00 00 00 00 00 00 00 00 00 00 00 00 00 00 00
       0.0 0.0 0.0 0.0
0003c0 00 00 00 00 00 00 00 00 00 00 00 00 00 00 00 00
       0.0 0.0 0.0 0.0
0003d0 00 00 00 00 00 00 00 00 00 00 00 00 00 00 00 00
       0.0 0.0 0.0 0.0
0003e0 00 00 00 00 00 00 00 00 00 00 00 00 00 00 00 00
       0.0 0.0 0.0 0.0
0003f0 00 00 00 00 00 00 00 00 00 00 00 00 00 00 00 00
       0.0 0.0 0.0 0.0

exp_avg_sq f4 [400, 2]
000000 86 39 ca 3b 9f 93 be 3b 9a 31 00 3b 02 4a 08 3b
       0.006171408 0.0058159376 0.0019560815 0.0020796065
000010 f0 7b 72 3d 98 38 61 3d 01 1f 2f 3b f7 df 45 3b
       0.059200227 0.054985613 0.002672136 0.0030193308
000020 66 e2 3c 41 d8 28 2c 41 f6 32 62 3d 54 fe 98 3d
       11.805273 10.759972 0.05522438 0.07470384
000030 ee da 8f 3b c1 a9 98 3b 8a 23 6e 3b ef 32 57 3b
       0.004390112 0.004658908 0.00363371 0.0032836755
000040 98 de 22 3a b6 ab 19 3a 3e 24 b6 3d f2 e5 7a 3d
       0.00062129786 0.0005862074 0.088936314 0.06125445
000050 25 23 bc 39 54 c1 c8 39 fa 85 5d 40 b3 a8 2a 40
       0.0003588434 0.00038291013 3.4613023 2.6665466
000060 cc ee ce 3c b0 4c a9 3c aa 52 0c 3c f0 e7 79 3b
       0.025260352 0.02066645 0.0085646305 0.003813263
000070 7a 49 b3 3e 7a 3e 9d 3e ab fa 96 3d 5f 8b 85 3d
       0.35016996 0.30711728 0.0737203 0.065207236
000080 b9 3f 59 3c 66 64 49 3c 4d 20 e8 40 90 f4 cc 40
       0.013259822 0.012292003 7.253943 6.404854
000090 5d 6c 8b 3d 49 d8 07 3e 16 a8 f6 38 8c 4b f4 38
       0.06807778 0.132661 0.000117615025 0.00011648898
0000a0 9a 71 9b 3a d4 59 9a 3a 5f 49 4a 39 bb a8 71 39
       0.0011859417 0.0011776038 0.00019291554 0.00023046408
0000b0 2e a6 ff 38 65 3e 01 39 ca af 3e 39 e4 7c 3c 39
       0.00012190301 0.00012325642 0.00018185299 0.00017975603
0000c0 3b ce 1a 3b 68 34 d6 3a 97 60 31 3b 28 b4 19 3b
       0.0023621458 0.0016342523 0.0027065629 0.0023453329
0000d0 d0 26 0b 3f 3b 99 43 3f 16 52 ff 3f cf 08 e2 3f
       0.543561 0.76405686 1.9946926 1.7658938
0000e0 5f d4 a7 3f c2 0b 5d 3f 41 55 37 3a 3e 44 3c 3a
       1.3111686 0.86346066 0.00069936 0.00071818
0000f0 34 bb a7 40 8e 7d 7e 40 61 01 b9 3b 10 f0 ac 3b
       5.241602 3.9764132 0.0056459163 0.005277641
000100 92 68 27 41 fc 76 1f 41 8f 8e 8c 3d 5c 16 8e 3d
       10.46303 9.966549 0.068631284 0.069378585
000110 cf b7 98 37 ae 04 41 38 23 33 24 3b 4c ef 3d 3b
       1.8205405e-05 4.6019144e-05 0.0025054894 0.0028981743
000120 b9 53 84 39 db 0e 86 39 9a 8c 95 39 8d 0c a7 39
       0.0002523938 0.0002556954 0.0002852425 0.00031862073
000130 ac 21 99 3b b5 1d 8d 3b 84 75 d2 3c 42 78 85 3c
       0.0046732035 0.00430652 0.025690801 0.016292695
000140 dd 2f 72 39 85 72 49 39 fe ad 3d 38 50 7a 31 38
       0.00023096749 0.00019211516 4.5223154e-05 4.2314e-05
000150 e1 87 84 39 1b 19 83 39 68 f0 55 3b a3 c9 42 3b
       0.0002527824 0.00025004972 0.0032644514 0.0029722236
000160 fe f7 08 39 e8 6c 54 39 37 2a 69 40 9d 51 53 40
       0.00013062355 0.00020258466 3.6432016 3.3018563
000170 3b 6e 96 3e 46 fa 70 3e b8 cb 54 3a 05 47 54 3a
       0.29380974 0.23532972 0.00081175147 0.0008097741
000180 b0 3a 3e 3f b9 5d 46 3f 4b 9f dd 3c 1a c3 c0 3c
       0.743083 0.7748676 0.027053496 0.023530532
000190 25 86 1c 3b f0 1c 16 3b f9 85 2c 41 3a dd 3c 41
       0.0023883667 0.0022905432 10.782708 11.80401
0001a0 56 91 61 40 5f ce 51 40 a9 45 2c 3c fb 15 24 3c
       3.5244956 3.278221 0.010514655 0.010015006
0001b0 4b f1 c6 39 2a b1 0b 3a 9b d5 ea 39 52 3d e3 39
       0.0003794528 0.00053288287 0.00044791106 0.000433425
0001c0 18 09 40 3d 4d 1a 82 3d 20 51 23 38 b6 e1 30 38
       0.046883672 0.06352673 3.8937782e-05 4.217188e-05
0001d0 31 95 0b 39 5e cb cf 38 9d f2 20 3d fa 0d 21 3d
       0.00013311651 9.908409e-05 0.039293874 0.03931997
0001e0 79 0c 09 3b 09 d3 ea 3a d3 4a e5 39 fd 87 f3 39
       0.0020911975 0.0017915677 0.00043734032 0.0004644989
0001f0 90 dc e8 3a 45 a0 e0 3a 15 45 14 38 cf ee 12 38
       0.0017765928 0.0017137608 3.5350287e-05 3.503152e-05
000200 8a e4 61 3b 0f e8 21 3b ee 19 b4 3b ba 0b a7 3b
       0.0034468495 0.0024704968 0.005496255 0.0050978335
000210 4a 17 77 3a bf 2d 65 3a 4f 73 4c 38 40 80 60 38
       0.00094257726 0.00087424734 4.874478e-05 5.3525204e-05
000220 ee 47 00 3c 96 bb fc 3b f0 f1 05 39 3a 57 fe 38
       0.007829649 0.0077127917 0.00012773997 0.00012127911
000230 0c 18 8a 3f 93 34 1f 3f 8f 42 c8 39 ad 16 ad 39
       1.0788589 0.62189597 0.00038196563 0.00033014026
000240 b3 f3 94 3a 5f ad a3 3a b4 34 c5 39 81 e7 e3 39
       0.0011364132 0.0012487582 0.00037614035 0.00043469298
000250 92 1b 93 39 26 5d 94 39 8c 4a 70 3e f7 02 e7 3d
       0.00028058566 0.0002829816 0.23465937 0.112798624
000260 fc 4a 6f 3c a0 59 0b 3d 2f 3a 9e 39 f3 b6 a4 39
       0.01460528 0.03402102 0.0003017946 0.00031416825
000270 51 80 97 3b 12 32 ab 3b 26 34 8f 3b c8 14 88 3b
       0.004623451 0.0052244747 0.0043702303 0.004152868
000280 ff d1 35 39 be 80 64 39 49 6b 0a 3d 2e 2a 00 3d
       0.00017339735 0.00021791735 0.03379372 0.031290226
000290 91 77 ab 3c 7b 2c 9c 3c 05 64 19 3f cb f5 de 3e
       0.020931037 0.019064179 0.5991824 0.435469
0002a0 0c e1 53 3d 88 19 79 3d e3 4e 0a 39 4a a6 09 39
       0.051728293 0.060815364 0.00013190093 0.00013127286
0002b0 28 b6 5d 41 5d a1 53 41 12 80 0e 3b 36 51 1b 3b
       13.856972 13.226895 0.0021743816 0.0023699529
0002c0 bd 40 5f 3f aa 00 43 3f 0b fd d3 39 f2 72 d8 39
       0.8720816 0.7617289 0.00040433588 0.0004128437
0002d0 47 ca 52 3b 4f 29 4d 3b 5a bb 1c 3a 3d 07 2e 3a
       0.0032164024 0.003130514 0.00059788453 0.0006638652
0002e0 73 63 04 39 b7 04 0e 39 ec fc ba 3d 73 0d 8a 3d
       0.00012625549 0.00013543932 0.09130272 0.067408465
0002f0 be 9d 81 3a 4f 33 24 3a 93 6a 83 3a 42 c1 95 3a
       0.000988893 0.0006263749 0.0010026268 0.0011425393
000300 b5 1d 16 39 ed 40 19 39 e3 64 df 3c 27 9d eb 3c
       0.00014316181 0.00014615404 0.027269786 0.02876146
000310 df c6 41 40 d1 24 39 40 46 1c 86 3c ef dd 6c 3c
       3.0277631 2.892872 0.016370904 0.01445721
000320 00 00 00 00 00 00 00 00 00 00 00 00 00 00 00 00
       0.0 0.0 0.0 0.0
000330 00 00 00 00 00 00 00 00 00 00 00 00 00 00 00 00
       0.0 0.0 0.0 0.0
000340 00 00 00 00 00 00 00 00 00 00 00 00 00 00 00 00
       0.0 0.0 0.0 0.0
000350 00 00 00 00 00 00 00 00 00 00 00 00 00 00 00 00
       0.0 0.0 0.0 0.0
000360 00 00 00 00 00 00 00 00 00 00 00 00 00 00 00 00
       0.0 0.0 0.0 0.0
000370 00 00 00 00 00 00 00 00 00 00 00 00 00 00 00 00
       0.0 0.0 0.0 0.0
000380 00 00 00 00 00 00 00 00 00 00 00 00 00 00 00 00
       0.0 0.0 0.0 0.0
000390 00 00 00 00 00 00 00 00 00 00 00 00 00 00 00 00
       0.0 0.0 0.0 0.0
0003a0 00 00 00 00 00 00 00 00 00 00 00 00 00 00 00 00
       0.0 0.0 0.0 0.0
0003b0 00 00 00 00 00 00 00 00 00 00 00 00 00 00 00 00
       0.0 0.0 0.0 0.0
0003c0 00 00 00 00 00 00 00 00 00 00 00 00 00 00 00 00
       0.0 0.0 0.0 0.0
0003d0 00 00 00 00 00 00 00 00 00 00 00 00 00 00 00 00
       0.0 0.0 0.0 0.0
0003e0 00 00 00 00 00 00 00 00 00 00 00 00 00 00 00 00
       0.0 0.0 0.0 0.0
0003f0 00 00 00 00 00 00 00 00 00 00 00 00 00 00 00 00
       0.0 0.0 0.0 0.0
