lightning_logs/version_28/checkpoints/epoch=115-step=5800.ckpt (torch, 37950 bytes, 15 tensors)

lstm.weight_ih_l0 f4 [400, 2]
0	0xbcef94c4	-0.029245742
1	0xbdef2be2	-0.11678292
2	0x3d680108	0.05664161
3	0x3b431702	0.0029768352
4	0xbdd66b8d	-0.104697324
5	0x3cf4b395	0.029870788
6	0xbc18956f	-0.0093129715
7	0xbd6da801	-0.05802155
8	0x3c97eead	0.018546427
9	0xbde700c6	-0.112794444
10	0x3d53169c	0.051535234
11	0x3e0d4977	0.13797556
12	0x3d70723c	0.058702692
13	0xbc4540f2	-0.01203941
14	0x3dc867d4	0.09785429
15	0x3e59def2	0.21276453
16	0xbd2967f8	-0.041358918
17	0xbda57479	-0.08078856
18	0x3c884556	0.016634624
19	0x3d19c46d	0.03754084
20	0x3d366895	0.04453333
21	0x3d8d893c	0.06910941
22	0xbd00c98b	-0.031442206
23	0xbc0a09db	-0.008425201
24	0x3e0962a5	0.13416536
25	0x3dd526f0	0.10407817
26	0xbd960726	-0.07325582
27	0xbd3b52f2	-0.0457334
28	0x3ddb26e4	0.10700777
29	0xbd55d5c6	-0.052205823
30	0xbd823f6a	-0.063597515
31	0xbd95fd51	-0.07323707
32	0x3dcb39a7	0.09923106
33	0x3e8700c7	0.2636778
34	0x3dbf72a1	0.093480356
35	0x3e6a8d45	0.22905453
36	0xbd83ccbc	-0.06435534
37	0xbb913cfb	-0.0044323183
38	0x3e0f9b9f	0.14024208
39	0x3d2be867	0.041969683
40	0xbd82e115	-0.06390587
41	0x3c52aacc	0.012858104
42	0xbdcf12cd	-0.10111008
43	0xbd02783d	-0.03185295
44	0x3d53f494	0.05174692
45	0xbbe3e844	-0.0069551785
46	0xbdf36189	-0.11883838
47	0xbcbdc8c3	-0.02316702
48	0x3cfb29d8	0.030659601
49	0xbc932e48	-0.017966405
50	0x3de07a94	0.1096088
51	0x3dcc7a8b	0.09984311
52	0x3de4f80f	0.11180126
53	0x3e4bae03	0.19890599
54	0x3e26248d	0.1622488
55	0x3e407e94	0.18798286
56	0xbe02fe2e	-0.12792274
57	0x3b845378	0.0040382706
58	0x3c328cb7	0.010897807
59	0xbd79a3c9	-0.060947213
60	0x3e2de713	0.16982679
61	0x3e11813a	0.14209452
62	0xbd11c713	-0.035590243
63	0xbcd0234e	-0.02540746
64	0x3e08fc82	0.13377574
65	0x3d5a0571	0.053227846
66	0xbdabaffe	-0.08383177
67	0x3d332464	0.043735877
68	0x3d5b4d39	0.053540442
69	0x3c90aac1	0.017659547
70	0xbbc4f513	-0.0060106604
71	0x3d5c9db3	0.05386133
72	0x3ce03dcd	0.027373219
73	0xbdbada6d	-0.09123693
74	0x3d9ce2d7	0.07660454
75	0x3e2eed4a	0.17082706
76	0x3dc403d1	0.095710404
77	0x3d9a8c14	0.07546249
78	0xbdef8cdc	-0.11696789
79	0x3afe920f	0.0019422191
80	0x3e085be4	0.13316303
81	0x3d4dd11e	0.050248258
82	0x3b484941	0.003056124
83	0x3c81af51	0.015830668
84	0x3d1ab1db	0.037767272
85	0x3bc2424b	0.005928313
86	0x3d9da648	0.07697731
87	0x3e5a4bff	0.21318053
88	0x3e35132f	0.17683099
89	0x3e5fa9d4	0.21842128
90	0xbdeb0bf5	-0.1147689
91	0x3d36c52f	0.044621643
92	0x3e83d4ce	0.25748295
93	0x3d6367ec	0.05551903
94	0xbd7509f7	-0.059823956
95	0xbbb96628	-0.00565793
96	0xbd0a9531	-0.033833686
97	0xbd4d2e7e	-0.050093167
98	0x3dd727d4	0.105056435
99	0x3e9bffbf	0.30468556
100	0x3d880898	0.06642264
101	0x3e0f5426	0.13996944
102	0x3d400cf5	0.046887357
103	0x3d8a4968	0.067522824
104	0x3e27a94e	0.16373178
105	0x3e2241e7	0.15845452
106	0xbca62385	-0.020280609
107	0xbdceedd6	-0.10103957
108	0x3e2ca073	0.16858082
109	0x3e4f8aca	0.20267788
110	0xbc7e009e	-0.015503077
111	0xbc95f83d	-0.018306846
112	0xbdb6e1cd	-0.08929787
113	0xbd1d7783	-0.038444053
114	0x3e206acb	0.15665738
115	0x3db98a00	0.090595245
116	0x3dedb701	0.11607171
117	0xbd2127b2	-0.039344497
118	0x3e1f2809	0.15542616
119	0x3e225714	0.1585353
120	0x3d21557a	0.039388157
121	0x3d2e0f33	0.042494964
122	0x3da7d33e	0.08194588
123	0x3e829272	0.25502354
124	0xbbfa9e88	-0.007648293
125	0xbd3d514e	-0.046220116
126	0xbccda2ec	-0.025102101
127	0xbd628916	-0.055306517
128	0x3de3066e	0.11085211
129	0x3e29fdaa	0.16600671
130	0x3e99d438	0.30044723
131	0x3e8f19d5	0.27949396
132	0xbd8cf81e	-0.06883262
133	0xbd3f57f3	-0.046714734
134	0x3e6e884b	0.23294179
135	0x3d89dc47	0.06731468
136	0xb95e3d97	-0.00021194514
137	0xbd8dbd60	-0.06920886
138	0xbd1c4fe3	-0.038162123
139	0xbdc5a57e	-0.09650706
140	0x3dc97aff	0.09837913
141	0x3bd06f62	0.006360934
142	0xbd492640	-0.049108744
143	0xbd9dac4e	-0.0769888
144	0xbd06f1f7	-0.0329456
145	0x3dbc1de4	0.09185389
146	0xbb4c2707	-0.0031151192
147	0xbd3edad4	-0.04659541
148	0xbc863090	-0.016380578
149	0x3d97a19c	0.074038714
150	0x3d90c7d3	0.070693634
151	0x3e782b8f	0.24235366
152	0x3aa5e36e	0.001265628
153	0xbd45be6b	-0.0482773
154	0xbd5e4f60	-0.054274917
155	0xbd02f8e1	-0.03197563
156	0x3dba7c1d	0.09105704
157	0xbd5f2062	-0.054474242
158	0xbd93aea7	-0.07211047
159	0x3d00cea7	0.03144708
160	0x3d9ad4d5	0.07560126
161	0x3e54c49d	0.20778127
162	0x3d9e37de	0.077254996
163	0x3d9f57b6	0.077804014
164	0x3e9512a4	0.29115784
165	0x3e85034f	0.25979087
166	0xbc654fef	-0.013996108
167	0x3cf8c5dd	0.030367786
168	0x3e0b225d	0.13587327
169	0x3e2ad0b7	0.16681181
170	0xbc6be21b	-0.014397169
171	0xbd14bf41	-0.036315206
172	0xbd05a85d	-0.032631267
173	0x3dc0cceb	0.09414085
174	0x3c0b1ddb	0.008491005
175	0xbc316466	-0.0108271595
176	0x3b42056c	0.0029605282
177	0xbd4cae8a	-0.04997114
178	0xbcacd4e0	-0.0210976
179	0xbd49f72b	-0.049307983
180	0x3d16639a	0.03671608
181	0x3d96868a	0.0734988
182	0x3d7303fe	0.05932998
183	0x3d0608cc	0.032723233
184	0xbdd4ba8a	-0.10387142
185	0xbc8764f5	-0.016527632
186	0xbd27ee7d	-0.040998925
187	0xbc5ed5a5	-0.0136007415
188	0x3e00e79e	0.12588355
189	0x3e3c5516	0.18391833
190	0xbc810a54	-0.015751995
191	0xbdcada77	-0.0990495
192	0x3da5a0aa	0.08087285
193	0x3e8df9e6	0.2772972
194	0x3c985541	0.01859534
195	0x3cb74d02	0.022375587
196	0xbd0118ff	-0.03151798
197	0xbb9b800a	-0.004745488
198	0xba9e5d3c	-0.0012082229
199	0x3d3d7f21	0.046263818
200	0x3ba6ff64	0.005096363
201	0x3d22c849	0.039741788
202	0x3ce0cf1f	0.027442513
203	0x3c36c3fe	0.011155127
204	0x3d9af432	0.07566108
205	0x3c71f066	0.014766788
206	0x3da405d8	0.08008927
207	0x3da1d720	0.0790236
208	0x3c84b61c	0.016200118
209	0xbc673c61	-0.014113517
210	0x3d805034	0.062652975
211	0xbca76663	-0.020434564
212	0x3d016560	0.03159082
213	0x3d508d6d	0.050916124
214	0xbbbfc5f2	-0.0058524543
215	0x3e7951bf	0.2434759
216	0x3da0406d	0.07824788
217	0x3db02569	0.086008854
218	0xbc2970cd	-0.010341835
219	0x3d375ddc	0.044767246
220	0xbbbaa110	-0.0056954697
221	0x3d33234d	0.043734837
222	0x3de7468a	0.11292751
223	0xbd00e686	-0.031469844
224	0x3e593062	0.21209863
225	0x3ca6df75	0.020370224
226	0x3db82ccd	0.0899292
227	0x3e170e74	0.14751607
228	0xbcb936c6	-0.022609126
229	0x3d59ac90	0.053143084
230	0x3d66b813	0.05632789
231	0x3d87a2d4	0.06622854
232	0x3e2b8da5	0.16753252
233	0x3e154bf2	0.14579752
234	0x3c288b47	0.010287113
235	0x3e78387e	0.242403
236	0x3d5ee060	0.0544132
237	0x3e137be5	0.14402731
238	0x3c132d10	0.008982912
239	0x3deb3536	0.114847586
240	0x3da2d63c	0.07951018
241	0x3d412bbb	0.047160845
242	0x3d7335ae	0.059377365
243	0x3d9f56b4	0.07780209
244	0xbcf06f17	-0.029349847
245	0x3d5ff551	0.05467731
246	0x3e4fcf2d	0.20293875
247	0x3da906b0	0.08253229
248	0x3bd91b38	0.006625559
249	0x3cb9ad38	0.022665605
250	0x3c0b4c90	0.008502141
251	0x3e4e7d82	0.20165065
252	0x3df80607	0.121105246
253	0x3dd0d3cb	0.10196646
254	0x3dd053c2	0.101722255
255	0x3e43fe9e	0.19140097

lstm.weight_hh_l0 f4 [400, 2]
0	0x3d952223	0.07281902
1	0x3e0d7413	0.1381381
2	0x3ad29c22	0.001606826
3	0x3d49b1bd	0.04924177
4	0x3d53cdf4	0.051710084
5	0x3d1dbda6	0.03851094
6	0x3d15de12	0.036588736
7	0x3d4681ea	0.04846374
8	0xbd22b29b	-0.039721113
9	0xbe04b627	-0.1296011
10	0xbdb0abbf	-0.08626508
11	0xbdf1943f	-0.11795854
12	0x3db2a4ba	0.08722825
13	0x3df9013d	0.12158439
14	0xbe3a05af	-0.1816623
15	0xbe4545aa	-0.19264856
16	0x3d903398	0.07041091
17	0x3dd57f8e	0.1042472
18	0x3d1922d8	0.037386745
19	0x3e2e8bfb	0.17045586
20	0x3d33fb2c	0.043940708
21	0x3db17aae	0.086659774
22	0x3e62bf56	0.22143301
23	0x3dabf286	0.08395867
24	0x3c958174	0.018250205
25	0x3c2303fc	0.00994968
26	0x3e1649ea	0.14676633
27	0x3cab63da	0.020921636
28	0x3dcf5133	0.101229094
29	0x3d8df48d	0.0693141
30	0x3da10a4f	0.07863294
31	0x3de9cb86	0.11415772
32	0xbe790963	-0.24319987
33	0xbe1d770d	-0.15377446
34	0xbe79b8d0	-0.24386907
35	0xbdfb2f7d	-0.12264917
36	0x3cb563aa	0.02214225
37	0x3d7bcc72	0.06147427
38	0x3df2034f	0.11817037
39	0x3e146203	0.14490514
40	0x3d1670ec	0.036728784
41	0x3c8bcd13	0.01706556
42	0x3d9c6248	0.07635933
43	0x3dd3dd76	0.10344975
44	0x3d40c7d2	0.047065563
45	0x3e20afa1	0.15691997
46	0x3c84d0cc	0.016212843
47	0x3e32af5d	0.17449708
48	0x3e3da7a1	0.18520977
49	0x3d3b2b01	0.04569531
50	0xbe483e95	-0.19555123
51	0xbdd5fbee	-0.104484424
52	0xbe8abd15	-0.27097383
53	0xbdda0a9e	-0.10646556
54	0xbe9a9e2d	-0.30198804
55	0xbdcf7a5f	-0.10130762
56	0x3d7216eb	0.059103888
57	0x3ddcb180	0.10776043
58	0xbe247ea2	-0.16063932
59	0xbcaf4303	-0.021394258
60	0xbe68c5d0	-0.2273171
61	0xbe46972a	-0.19393602
62	0x3c687dcb	0.014190148
63	0x3d79a7c3	0.060951006
64	0x3e2fccdd	0.17167993
65	0x3dbcf826	0.09227018
66	0x3e180325	0.1484495
67	0x3e262270	0.16224074
68	0x3cff8a71	0.031193944
69	0x3e07f2e2	0.13276246
70	0x3d0997a0	0.033591866
71	0x3ddb00b9	0.10693497
72	0xbdff899e	-0.1247742
73	0xbdc0af98	-0.09408492
74	0xbe61541b	-0.2200474
75	0xbd2c9513	-0.042134356
76	0x3dda9aa8	0.106740296
77	0x3da859a9	0.08220226
78	0x3ddda553	0.10822549
79	0x3d28956f	0.041158136
80	0x3d07d25b	0.033159595
81	0x3e19992d	0.14999838
82	0x3d4cb032	0.04997272
83	0x3e44541b	0.19172709
84	0x3d0fe818	0.03513345
85	0x3d7a4b86	0.06110718
86	0xbe1bae65	-0.15203245
87	0xbe66eeeb	-0.22552077
88	0xbc65a67b	-0.014016743
89	0x3d8ac0dc	0.06775066
90	0x3d12e660	0.035864234
91	0xbe07906a	-0.13238683
92	0xbe4c1c13	-0.19932584
93	0xbe102809	-0.14077772
94	0x3dddee06	0.10836415
95	0xbcc59468	-0.024118617
96	0x3dae1d7b	0.08501717
97	0x3d007ad4	0.031367138
98	0xbea5e13b	-0.323984
99	0xbded525c	-0.115879744
100	0x3e11b743	0.14230065
101	0x3dcdaef0	0.10043132
102	0xbd2d198f	-0.042260703
103	0x3d1e301b	0.038620096
104	0xbe56128c	-0.20905513
105	0xbe517991	-0.2045653
106	0x3de4d33f	0.111731045
107	0x3d7324fb	0.05936144
108	0x3dde834f	0.10864889
109	0x3daee961	0.08540607
110	0x3d80b200	0.06283951
111	0xbcc49598	-0.023997113
112	0x3dad97e0	0.084762335
113	0x3d802e98	0.06258887
114	0x3d70506f	0.058670457
115	0x3e331c93	0.17491369
116	0x3d2566fa	0.04038141
117	0x3d624eeb	0.055251043
118	0xbe507c2e	-0.20359871
119	0xbe3d1ad7	-0.1846727
120	0x3d307f67	0.04309025
121	0xbc330758	-0.010927044
122	0xbe49ec3c	-0.19719023
123	0xbe3b9def	-0.18321966
124	0xbda4c270	-0.080448985
125	0xbde8a719	-0.11359996
126	0x3d34cef7	0.04414269
127	0x3d7e1fd0	0.062042058
128	0xbe681a48	-0.22666276
129	0xbe0be6b4	-0.13662225
130	0x3cf64145	0.03006042
131	0x3ca7e9cb	0.020497223
132	0x3e0babbe	0.13639733
133	0x3cd6277f	0.02614188
134	0xbe7f75a5	-0.24947222
135	0xbd9e1bf9	-0.07720179
136	0x3d07b4bb	0.033131342
137	0xbd916c48	-0.07100731
138	0xbdbc5978	-0.09196752
139	0xbdd48b82	-0.103781715
140	0xb9b35d7b	-0.0003421119
141	0x3d1125d0	0.03543645
142	0x3dd7c8d0	0.10536349
143	0x3d9d5a2e	0.07683216
144	0x3cf590d8	0.029976293
145	0x3dea4667	0.114392094
146	0x3d53c5ae	0.051702194
147	0x3b9cee7a	0.004789171
148	0xbd36cc0d	-0.04462819
149	0x3e0e6279	0.13904752
150	0xbc8d11a1	-0.01722032
151	0xbab548f5	-0.0013830947
152	0x3e12ec15	0.1434787
153	0x3d9e4ce1	0.07729507
154	0x3ccd2d65	0.02504606
155	0x3da6664e	0.08124982
156	0x3d838c72	0.06423272
157	0x3dddc28b	0.10828122
158	0x3dd62dd5	0.104579605
159	0x3e245700	0.16048813
160	0xbe2fab8c	-0.17155284
161	0xbe0c57c1	-0.1370535
162	0x3d716f40	0.058943987
163	0x3d956906	0.07295422
164	0x3d864d5e	0.06557725
165	0x3e197219	0.14984931
166	0x3ddb7e04	0.10717395
167	0x3dfe0a33	0.12404289
168	0xbe449c61	-0.19200279
169	0xbe5ef12c	-0.21771687
170	0x3d283e3c	0.041074976
171	0x3caec3cd	0.0213336
172	0x3d08de23	0.03341497
173	0xbd4f2404	-0.050571457
174	0xbbcea69c	-0.0063064825
175	0x3dfcbc54	0.12340608
176	0x3dab2cd8	0.08358163
177	0xbcdcb2cf	-0.026940731
178	0xbc8c0b90	-0.017095357
179	0x3ddc4734	0.107557684
180	0xbca32aa3	-0.019917792
181	0x3b44e5a8	0.0030044112
182	0x3c1387fa	0.009004587
183	0x3ac3dac7	0.001494252
184	0x3dc7e187	0.09759813
185	0x3d843672	0.06455697
186	0xbdb6e390	-0.08930123
187	0xbde1d467	-0.11026841
188	0x3dfefba8	0.12450343
189	0x3dbe38f9	0.092882104
190	0xbd0342c8	-0.03204611
191	0x3a2f661f	0.00066909374
192	0xbe944bec	-0.28964174
193	0xbdc31544	-0.095255405
194	0x3e1661de	0.14685771
195	0x3d726db8	0.059186667
196	0x3b8b3155	0.004247824
197	0x3e3a5064	0.18194729
198	0x3e01f3cf	0.12690662
199	0x3e19d36b	0.15022056
200	0x3da02192	0.07818903
201	0x3cef0d4f	0.02918115
202	0x3d94dddc	0.07268879
203	0x3d79a506	0.060948394
204	0x3d2d762b	0.042349022
205	0x3c2f4d6e	0.010699613
206	0x3d619c0c	0.05508046
207	0x3ce21b0f	0.027600793
208	0xbdaf304d	-0.085541345
209	0xbd1ae622	-0.037817128
210	0xbd4d2b9a	-0.05009041
211	0xbdb608df	-0.08888411
212	0x3dc97b2a	0.09837945
213	0xbc50e4f5	-0.0127499
214	0xbdf8b1da	-0.121432975
215	0xbd854f47	-0.065092616
216	0x3e0b83b0	0.13624454
217	0xbca251a9	-0.01981433
218	0x3d7f3377	0.06230494
219	0x3dc012b0	0.09378564
220	0x3d4b666f	0.049658235
221	0x3d6800f2	0.056641527
222	0xbd23417d	-0.039857376
223	0x3d1ecdf5	0.038770635
224	0xbe09fe62	-0.13475946
225	0xbc50db80	-0.012747645
226	0x3e0976dc	0.13424248
227	0x3d525934	0.051354602
228	0x3dfdfb5e	0.1240146
229	0x3dd76abf	0.10518407
230	0x3debe8a3	0.11518981
231	0xbce0cf74	-0.027442671
232	0xbe3c6f12	-0.18401745
233	0xbda7e0ca	-0.08197172
234	0xbd6bd3cf	-0.057575043
235	0xbe17b709	-0.14815916
236	0x3d64d976	0.05587145
237	0x3de66909	0.112505026
238	0x3cfedee5	0.031112144
239	0xbd09c0c5	-0.033631105
240	0x3df86cae	0.12130104
241	0x3ddc5dcb	0.10760077
242	0x3e24f0a4	0.16107422
243	0x3da1f25e	0.07907556
244	0x3d704293	0.05865724
245	0x3e1c2400	0.15248108
246	0xbd754f7e	-0.059890263
247	0x3c40f10e	0.011776222
248	0x3e3ef467	0.1864792
249	0x3d58e1a0	0.052949548
250	0xbdbc3d02	-0.09191324
251	0xbd80da18	-0.06291598
252	0xbd87cbe0	-0.06630683
253	0xbdc41853	-0.09574952
254	0xbdff5720	-0.1246779
255	0xbdda0251	-0.10644973

lstm.bias_ih_l0 f4 [400]
0	0xbbdf97be	-0.006823509
1	0x3d3baf4e	0.04582148
2	0xbdd3ad8f	-0.10335838
3	0x3b32929d	0.0027248033
4	0x3cfc71f7	0.030816061
5	0x3d1ee395	0.038791258
6	0xbd136c12	-0.035991736
7	0xbefe44bf	-0.49661824
8	0xbd9209b6	-0.071307585
9	0x3d9c70a7	0.07638674
10	0x3dcb69a2	0.09932257
11	0x3cf362dd	0.029710228
12	0x3d631069	0.05543557
13	0xbe0e9c8e	-0.13926908
14	0xbd71057f	-0.058843132
15	0xbd7c485d	-0.06159245
16	0xbf3110ad	-0.6916607
17	0xbf2ed912	-0.68299973
18	0x3dd87440	0.10569048
19	0x3df5eba8	0.120078385
20	0x3e02deba	0.12780276
21	0xbdd130ad	-0.10214362
22	0x3da5a2b4	0.08087674
23	0x3e245e7e	0.16051671
24	0xbb1bd0b4	-0.002377552
25	0xbe31aff7	-0.17352282
26	0xbf12a363	-0.5728056
27	0xbf18c504	-0.5967562
28	0xbe302aac	-0.17203778
29	0xbb377643	-0.0027994073
30	0xbea213c0	-0.31655693
31	0x3d885bbe	0.066581234
32	0x3cd7b21d	0.026330048
33	0xbd70d182	-0.058793552
34	0xba2bf06b	-0.00065589574
35	0x3dd4313b	0.103609525
36	0xbce7b91d	-0.028286511
37	0xbf6077b9	-0.8768268
38	0x3d4ace6b	0.04951326
39	0xbaf92fd3	-0.0019011445
40	0xbbf291bc	-0.007402627
41	0x3e209994	0.15683585
42	0x3ab8bda3	0.0014094602
43	0xbf0e93e3	-0.5569441
44	0x3e045029	0.12921204
45	0x3d79aa8c	0.06095366
46	0xbf077044	-0.5290568
47	0x3cc2e12e	0.023789015
48	0xbe0330f3	-0.12811641
49	0xbf161fd8	-0.5864234
50	0x3e16a6fa	0.14712134
51	0x3c1dfbc8	0.009642549
52	0xbf056d1c	-0.5211961
53	0xbb3050c9	-0.002690362
54	0x3dd1b45d	0.1023948
55	0x3ab9bb0f	0.0014170128
56	0x3b5ab54c	0.0033372222
57	0x3df115ce	0.11771737
58	0x3d982929	0.07429726
59	0xbf06f7b8	-0.5272174
60	0x3e03d1fe	0.12873074
61	0xbf16d7b8	-0.5892291
62	0x3c86255b	0.016375234
63	0xbd179db1	-0.03701562
64	0xbeb4c739	-0.35308245
65	0x3e7d573d	0.2474031
66	0xbe3045a6	-0.17214069
67	0xbf5d7166	-0.8650116
68	0xbcaf2d65	-0.02138395
69	0x3d032cf7	0.032025304
70	0xbc886556	-0.016649883
71	0xbde44e98	-0.11147803
72	0x3cb4dff6	0.02207945
73	0x3df932e4	0.1216791
74	0x3de53932	0.1119255
75	0x3cae17f9	0.021251665
76	0x3dc5807c	0.09643647
77	0xbd52422e	-0.051332645
78	0xbd6dc9ac	-0.058053657
79	0x3bf1dd0a	0.0073810862
80	0xbf44234b	-0.7661635
81	0x3d030ef4	0.031996682
82	0x3e0ef4a5	0.13960512
83	0x3dccb59c	0.09995577
84	0xbf14cafa	-0.5812222
85	0x3d0b17ce	0.03395825
86	0x3d1c5934	0.03817101
87	0x3d48f54b	0.049062055
88	0x3d715852	0.05892212
89	0x3d19125b	0.03737102
90	0xbd961d1b	-0.0732977
91	0xbd34c777	-0.044135537
92	0xbdff6f6a	-0.124724224
93	0x3d0f5fc3	0.035003435
94	0x3e4915a3	0.1963716
95	0xbdb68bc1	-0.08913375
96	0xbf26c115	-0.6513837
97	0x3d5d8f10	0.054091513
98	0x3e15fcf9	0.14647283
99	0xbe372bb0	-0.17887759
100	0x3e0658ba	0.13119784
101	0xbd4299f4	-0.047510102
102	0xbd73258c	-0.05936198
103	0x3e0cd72c	0.13753957
104	0xbdd66c1f	-0.10469841
105	0x3d23143c	0.03981422
106	0xbd809e4f	-0.06280195
107	0xbead2133	-0.33814391
108	0xbc7565e3	-0.014977905
109	0x3dcdd56f	0.10050475
110	0x3e0bb6e2	0.13643983
111	0x3aeda473	0.0018130675
112	0xbd892d9a	-0.06698151
113	0x3d5e056d	0.054204393
114	0x3c72d1dd	0.014820543
115	0x3e09a3da	0.1344141
116	0xbe9a0ac9	-0.30086353
117	0xbebdf745	-0.37102714
118	0xbd41a09f	-0.04727232
119	0x3c783f10	0.015151754
120	0x3e1921d7	0.14954315
121	0x3d6c489b	0.05768643
122	0xbcf762e0	-0.030198514
123	0x3ddb7265	0.107151784
124	0xbc1add73	-0.009452212
125	0xbe1b8c5d	-0.15190263
126	0xbece044e	-0.4023766
127	0xbeb51a8f	-0.35371825
128	0xbd20aa3b	-0.039224844
129	0x3d4e3526	0.050343655
130	0xbe5adf22	-0.21374181
131	0x3e0f2aee	0.1398122
132	0xbf310201	-0.6914368
133	0x3dd77cf9	0.105218835
134	0xbc12e187	-0.008964903
135	0x3e1226bc	0.14272588
136	0xbd9319d9	-0.071826644
137	0xbef95705	-0.48699203
138	0x3e54a1d7	0.20764862
139	0xbcb88156	-0.02252261
140	0x3e097672	0.1342409
141	0x3e45b37b	0.19306748
142	0x3dbcc7a7	0.09217768
143	0xbeb7e07f	-0.35913464
144	0x3d96ceac	0.07363638
145	0x3d6c9548	0.057759553
146	0xbe3d2ab0	-0.18473315
147	0xbc65f959	-0.0140365
148	0xbd0f8cb0	-0.03504628
149	0xbe5192e3	-0.20466189
150	0xbc7464f7	-0.01491665
151	0x3d66f7be	0.05638861
152	0xbec04a02	-0.37556463
153	0x3e1a4b38	0.15067756
154	0x3d57d51f	0.052693482
155	0x3db5c203	0.088748954
156	0xbd112c07	-0.03544238
157	0x3d87e962	0.06636311
158	0xbb52d389	-0.0032169542
159	0xbed6194d	-0.41816178
160	0x3e25ab37	0.16178595
161	0xbe76621b	-0.24060862
162	0xbcbb59d9	-0.022869991
163	0xbd291356	-0.041278206
164	0xbe8845e2	-0.26615816
165	0xbcc54149	-0.024078982
166	0x3d62479e	0.05524408
167	0xbecb16c9	-0.3966582
168	0x3d6864f5	0.056736905
169	0xbd1504aa	-0.0363814
170	0x3daf7ff9	0.08569331
171	0x3caabeb4	0.020842887
172	0x3df8219e	0.12115787
173	0x3ca64882	0.020298246
174	0x3e119fa2	0.14221051
175	0xbdb19746	-0.08671431
176	0x3dfd57b2	0.12370242
177	0x3b1a988a	0.0023589456
178	0x3b64bc93	0.0034902438
179	0x3c506bd1	0.012721018
180	0xbef03ca4	-0.46921265
181	0xbd035179	-0.03206012
182	0xbe1fba5c	-0.15598434
183	0x3d93b863	0.07212903
184	0xbecfbab7	-0.4057214
185	0x3b86a156	0.004108588
186	0x3d926046	0.07147269
187	0xbc97a138	-0.018509492
188	0x3d0cf4fc	0.034413323
189	0x3e01cfc5	0.12676914
190	0x3e0171c3	0.12641053
191	0x3d8d5e0d	0.069027044
192	0xbd89a03d	-0.06720016
193	0xbe072710	-0.13198495
194	0x3dc21604	0.094768554
195	0x3cc18f89	0.023628013
196	0xbe946d66	-0.28989714
197	0x3e348fe6	0.17633018
198	0x3e042aa3	0.1290689
199	0x3e342287	0.17591296
200	0xbd950bbe	-0.0727763
201	0x3d5af6b8	0.053457946
202	0x3aeffd48	0.0018309737
203	0xbd1d75ab	-0.038442295
204	0x3e35086b	0.17678992
205	0xbe5ced0b	-0.215748
206	0xbddba1b8	-0.10724205
207	0x3da1fd12	0.079095975
208	0xbdc1736f	-0.09445845
209	0x3da1f50a	0.079080656
210	0xbde0594d	-0.10954533
211	0xbdc59c18	-0.09648913
212	0x3e1a498e	0.15067121
213	0xbe1ed971	-0.15512635
214	0xbde16fd3	-0.11007657
215	0xbd8a7b17	-0.06761759
216	0x3cbbdbfa	0.022932041
217	0x3e0caec8	0.13738549
218	0xbbe90c08	-0.00711203
219	0xbce86f7e	-0.028373476
220	0xbdaad09a	-0.08340569
221	0xbc47a3f2	-0.012185084
222	0xbcf9c97b	-0.030491581
223	0xbe282fb2	-0.16424444
224	0x3c8ece32	0.017432306
225	0xbda4322b	-0.08017381
226	0xbc9032e3	-0.01760239
227	0xbce76c2a	-0.028249819
228	0xbd719b79	-0.05898616
229	0xbd61a94b	-0.05509309
230	0xbe2f5865	-0.17123564
231	0xbdd6231c	-0.10455915
232	0x3e34fe17	0.17675053
233	0xbbc58c81	-0.0060287123
234	0x3d15f608	0.036611587
235	0xbcd7210b	-0.026260873
236	0x3d7cd0bd	0.061722506
237	0xbe5a2dd7	-0.21306549
238	0xbd8557d7	-0.06510895
239	0x3cc2c7bf	0.023776887
240	0x3dae6055	0.085144676
241	0xbdf5faa2	-0.12010695
242	0x3cce3513	0.025171792
243	0xbb850c1d	-0.004060282
244	0xbbd03710	-0.00635422
245	0x3d19dbd7	0.03756317
246	0x3db747f4	0.08949271
247	0x3e26e902	0.16299823
248	0x3d47a608	0.048742324
249	0x3d9bfc29	0.07616455
250	0xbdea72b6	-0.114476606
251	0x3dbc2d0a	0.09188278
252	0x3cde6cde	0.027151521
253	0x3c720292	0.014771121
254	0xbe2067bc	-0.15664572
255	0xbdb85618	-0.09000796

lstm.bias_hh_l0 f4 [400]
0	0xbd555244	-0.052080408
1	0x3c7923b9	0.015206271
2	0x3ca30c41	0.019903304
3	0x3d395528	0.045247227
4	0xbddba13d	-0.10724113
5	0x3d82af05	0.063810386
6	0x3db7812d	0.08960185
7	0xbf02ee77	-0.5114512
8	0xbe0357f9	-0.12826528
9	0x3e101dcc	0.14073867
10	0x3dfabaf5	0.122426905
11	0x3df05dda	0.11736651
12	0xbd83d55e	-0.06437181
13	0xbe2c7a7d	-0.168436
14	0x3df5541d	0.11978934
15	0xbe2a6df5	-0.16643508
16	0xbf40163b	-0.7503392
17	0xbf2bf66f	-0.671729
18	0x3d20a49a	0.039219476
19	0x3e650d89	0.22368445
20	0x3d337aef	0.04381841
21	0xbc1ab450	-0.009442404
22	0x3d38184a	0.04494504
23	0x3e41e854	0.18936282
24	0x3e293ac1	0.16526319
25	0xbe3bdeb6	-0.18346676
26	0xbf144081	-0.57910925
27	0xbeee8ca2	-0.4659167
28	0xbe282b16	-0.16422686
29	0xbe03a479	-0.1285571
30	0xbe976d89	-0.29575756
31	0x3d36d4a1	0.044636372
32	0x3d7fd2e6	0.062456988
33	0x3cfd59bb	0.030926576
34	0xbc2afef5	-0.010436763
35	0x3ccbd790	0.024883062
36	0x3cdf17fc	0.027233116
37	0xbf79dddf	-0.97604173
38	0x3de070d8	0.10959023
39	0xbda524fd	-0.080636956
40	0x3cc2b6fb	0.023768893
41	0x3ca60ea4	0.020270653
42	0xbe0e06c2	-0.13869765
43	0xbef6efba	-0.48229772
44	0x3dcf316f	0.101168506
45	0xbdb2bd67	-0.08727532
46	0xbf083e07	-0.53219646
47	0xbd04ea97	-0.032450285
48	0xbd970259	-0.07373495
49	0xbf1cfa5d	-0.61319524
50	0x395516a1	0.00020321693
51	0x3d61184a	0.054954804
52	0xbeea9da1	-0.45823386
53	0xbd4563be	-0.048190825
54	0x3de8c07f	0.11364841
55	0x3b92ddad	0.004481992
56	0x3d52c693	0.051458906
57	0x3dd38d8a	0.10329731
58	0x3d67cc97	0.056591596
59	0xbeba63fc	-0.36404407
60	0x3dc4c97b	0.09608742
61	0xbf024522	-0.5088674
62	0xbc0c0540	-0.008546174
63	0x3d8c90c1	0.06863547
64	0xbecef489	-0.4042094
65	0x3e77dc21	0.24205066
66	0xbdeaa74c	-0.114576906
67	0xbf80eaff	-1.0071715
68	0x3cbc18e5	0.02296109
69	0xbd991460	-0.07474589
70	0xbd68ff33	-0.056884002
71	0xbe2fa2bf	-0.17151926
72	0x3cb2c309	0.021821516
73	0x3dc406d1	0.095716126
74	0x3d563fa4	0.052306786
75	0xbd450052	-0.04809601
76	0x3d96e103	0.07367136
77	0xbab5c405	-0.0013867622
78	0x3ce238f5	0.02761505
79	0x3dc00ce5	0.093774594
80	0xbf53d297	-0.8274321
81	0x3d4b732a	0.049670376
82	0x3e472f60	0.19451666
83	0x3e005a9b	0.12534563
84	0xbf1b10c8	-0.6057248
85	0x3c7c4f84	0.015399817
86	0x3d360a61	0.04444349
87	0x3c5c70e0	0.013454646
88	0x3cd872da	0.026421953
89	0x3d92c3a9	0.071662255
90	0xbc05ab5c	-0.008158531
91	0x3e03fde0	0.12889814
92	0xbe65cad9	-0.22440661
93	0x3d552250	0.052034676
94	0x3da1e8e0	0.079057455
95	0x3ccea38e	0.025224473
96	0xbf07c772	-0.53038704
97	0x3cf4762e	0.029841509
98	0x3de1a1dd	0.11017201
99	0xbda009fa	-0.07814403
100	0xbc555ca1	-0.013022573
101	0xbd0ec66c	-0.0348572
102	0xbc78f149	-0.015194246
103	0x3e1197e5	0.142181
104	0xbc585bfa	-0.013205523
105	0xbda205c0	-0.07911253
106	0xbbb6ad98	-0.005574893
107	0xbe2f79da	-0.17136326
108	0x3d86a8a6	0.06575136
109	0x3d9915b8	0.07474846
110	0xbc93e0de	-0.018051561
111	0x3daa76a0	0.08323407
112	0xbe08e1cc	-0.13367385
113	0xbb85cd7b	-0.004083333
114	0x3ddd2812	0.107986584
115	0x3e073c70	0.13206649
116	0xbec3c881	-0.3823891
117	0xbe894e65	-0.26817623
118	0x3c86f1a2	0.016472641
119	0x3dd67dcb	0.10473212
120	0x3cfe681d	0.031055504
121	0x3d4597cf	0.04824048
122	0xbc7db13f	-0.015484153
123	0x3e75a877	0.23990045
124	0xbb862f05	-0.0040949606
125	0xbe962da8	-0.29331708
126	0xbef153a7	-0.47134134
127	0xbe95547d	-0.29166022
128	0xbba1351e	-0.004919662
129	0x3c177015	0.009243031
130	0xbe839914	-0.25702727
131	0x3d591f3b	0.0530083
132	0xbf27e8e2	-0.65589726
133	0xbce3debb	-0.027816167
134	0x3e08fc9e	0.13377616
135	0x3dab2adf	0.083577864
136	0xbd7fc993	-0.062448096
137	0xbf00196a	-0.5003878
138	0x3e7b6880	0.24551582
139	0x3d85ce0e	0.065334424
140	0x3c90ba85	0.017667064
141	0x3df286bb	0.11842104
142	0x3b9b6136	0.004741813
143	0xbeb5ecd1	-0.3553224
144	0x3cfd1732	0.03089485
145	0x3c5f3d7e	0.013625501
146	0xbe54bc85	-0.2077504
147	0xbbdbf4e3	-0.0067125424
148	0xbb25b5f7	-0.0025285461
149	0xbe7be6a7	-0.24599706
150	0xbd2d62f5	-0.0423307
151	0x3d50c4fa	0.0509691
152	0xbefda05a	-0.495364
153	0x3db5b717	0.08872812
154	0x3d83384a	0.06407221
155	0xbd141512	-0.036152907
156	0xbd61f9d6	-0.055169903
157	0x3df84bbf	0.121238224
158	0x3d2e0af8	0.04249093
159	0xbe920f3d	-0.2852725
160	0x3c5f3550	0.0136235505
161	0xbe93d7b1	-0.28875497
162	0xbdc3d061	-0.095612295
163	0x3d18d3bb	0.037311297
164	0xbe942163	-0.28931722
165	0x3d99cc2e	0.07509647
166	0x3d991e01	0.07476426
167	0xbecdcf5e	-0.4019727
168	0xbcfee200	-0.031113625
169	0xbd825d74	-0.06365481
170	0x3dcd41a9	0.10022289
171	0x3cc142a0	0.02359134
172	0x3e1c3e7a	0.15258208
173	0xbc1caeca	-0.009563157
174	0x3e0fc8b6	0.14041409
175	0x3da809f6	0.08205025
176	0x3d1aa5d5	0.037755806
177	0x3de32549	0.11091096
178	0x3b957877	0.0045614797
179	0xbc7aeea5	-0.015315686
180	0xbef51654	-0.47868598
181	0x3de11e9d	0.10992167
182	0xbe1b7234	-0.15180284
183	0x3c6c5e0e	0.014426721
184	0xbecf34b9	-0.40469912
185	0xbcb8274c	-0.022479676
186	0x3d02b5cb	0.031911653
187	0xbcf03f01	-0.029326918
188	0x3de0ce50	0.10976851
189	0xbca938c7	-0.020656956
190	0x3a55fdfb	0.0008163151
191	0xbdb517eb	-0.088424526
192	0xbd9b6921	-0.07588411
193	0xbc4adb2a	-0.012381354
194	0x3d3f2830	0.046669185
195	0xbdd574e1	-0.104226835
196	0xbe91a209	-0.28443936
197	0x3def2027	0.116760544
198	0x3d9fd3df	0.07804083
199	0x3e32ee07	0.17473613
200	0x3aba1621	0.0014197269
201	0x3d7752c1	0.060381655
202	0xbc0c574f	-0.008565738
203	0x3c74e8d4	0.014948089
204	0x3d7c5dab	0.061612766
205	0xbe16711f	-0.1469159
206	0xbdc0c036	-0.09411661
207	0x3d4961fb	0.049165707
208	0xbe2700b9	-0.1630887
209	0x3dfc8c94	0.12331501
210	0xbe02a90a	-0.12759796
211	0xbe01fedb	-0.12694876
212	0x3dfe465f	0.12415766
213	0xbe283a5c	-0.16428512
214	0xbd43e474	-0.04782529
215	0xbd2c0417	-0.041996088
216	0xbc9bcf4c	-0.019019745
217	0xbbde21b7	-0.0067789215
218	0xbe14794d	-0.14499398
219	0xbdc4e632	-0.09614219
220	0xbc810760	-0.015750587
221	0x3d98daa6	0.07463579
222	0xbe1b3ce3	-0.15159945
223	0xbe1ee553	-0.15517168
224	0x3df1e434	0.118111044
225	0xbdd42f8a	-0.1036063
226	0xbd08db86	-0.03341248
227	0x3cd2b078	0.025718912
228	0xbd7d7daa	-0.06188742
229	0x3daf28d2	0.08552708
230	0xbe006759	-0.12539424
231	0xbdd41859	-0.103562064
232	0x3e286378	0.16444194
233	0x3e4458aa	0.19174448
234	0x3d7b5f08	0.061369926
235	0x3ccfbd98	0.02535896
236	0x3d818e60	0.06325984
237	0xbe4f4664	-0.20241696
238	0xbd347999	-0.044061277
239	0xbe28d2e5	-0.164867
240	0x3d9be125	0.07611302
241	0xbbbe5757	-0.0058087516
242	0x3d6cfc56	0.057857834
243	0xbd9aee9d	-0.07565043
244	0x3e2fefe9	0.17181362
245	0x3dac8cff	0.0842533
246	0x3e45d461	0.19319297
247	0x3e18cc59	0.14921702
248	0xbd6e3183	-0.058152687
249	0x3d2513a3	0.04030193
250	0x3c7f872f	0.015596195
251	0x3defa4e2	0.11701371
252	0xbd1bb41b	-0.03801356
253	0xbd98131b	-0.07425519
254	0xbe427704	-0.18990713
255	0xbdbc4641	-0.09193087

lstm.weight_hr_l0 f4 [2, 100]
0	0xbf4628b1	-0.7740584
1	0x3f53b9fe	0.82705677
2	0x3f2efb1c	0.6835191
3	0xbf3d267b	-0.7388684
4	0x3d4c6b9b	0.049907308
5	0xbcca86d9	-0.024722503
6	0xbf753ff9	-0.9580074
7	0xbf1da57c	-0.61580634
8	0xbf47de72	-0.780738
9	0x3f586114	0.8452313
10	0xbf3da31f	-0.7407703
11	0xbf7f1423	-0.996401
12	0xbf695e37	-0.91159385
13	0xbf6c4e1b	-0.9230668
14	0xbf452d64	-0.77022386
15	0xbf4cba8f	-0.79972166
16	0xbf379e8c	-0.717263
17	0x3f439414	0.76397824
18	0xbf5cb8db	-0.8621957
19	0xbf4b10e8	-0.7932267
20	0xbf3e9f13	-0.7446148
21	0x3f59cc8f	0.85077757
22	0xbf6997bf	-0.9124717
23	0x3f87cdff	1.060974
24	0x3f5bf09e	0.8591403
25	0xbf43d35c	-0.76494384
26	0xbf5be7ed	-0.85900766
27	0xbf418d62	-0.7560636
28	0xbf477fa1	-0.7792912
29	0x3cd0db8c	0.025495313
30	0xbf59c79a	-0.8507019
31	0xbf61e1cc	-0.88235164
32	0x3f70df25	0.9409049
33	0x3f65c801	0.89758307
34	0x3f6b2a65	0.91861564
35	0xbf543295	-0.8288968
36	0x3d108e16	0.035291754
37	0xbf6029b2	-0.8756362
38	0x3ef3abc0	0.47591972
39	0xbf490c4f	-0.78534406
40	0x3f3893c2	0.7210046
41	0xbf6fd3c0	-0.9368248
42	0x3f57edee	0.84347427
43	0xbf289105	-0.6584628
44	0x3f717661	0.94321257
45	0x3d632bba	0.055461623
46	0x3f6ab534	0.91682744
47	0x3f5b9e0d	0.8578804
48	0xbf4da53f	-0.8033027
49	0x3f1272d8	0.5720649
50	0xbf569491	-0.83820444
51	0x3f419ae5	0.75626975
52	0xbf53ddc3	-0.82760257
53	0x3f783012	0.9694835
54	0xbf5b2d7f	-0.85616297
55	0xbf5214f9	-0.8206325
56	0x3f95f8e6	1.1716583
57	0x3f5815e5	0.8440841
58	0xbf541b18	-0.8285384
59	0x3f802995	1.001269
60	0xbf53fa3c	-0.828037
61	0xbf08f72d	-0.5350216
62	0xbcf4e492	-0.029894147
63	0xbf49116a	-0.78542197
64	0xbf2c6dae	-0.6735486
65	0xbf4f9636	-0.8108858
66	0xbf7e4cb1	-0.9933577
67	0x3f71186b	0.94177884
68	0x3d443786	0.047904514
69	0x3c967a0d	0.018368745
70	0xbf410138	-0.75392485
71	0x3f604150	0.8759966
72	0x3f6de0e5	0.92921287
73	0x3f5837a9	0.8445993
74	0x3f4e9564	0.806967
75	0xbca3381d	-0.019924218
76	0xbf6e92ee	-0.93192947
77	0xbf53cf9c	-0.8273866
78	0x3f600d46	0.87520254
79	0xbf77086e	-0.9649724
80	0xbf2cbd0a	-0.6747595
81	0x3f649055	0.89282733
82	0x3f633597	0.88753647
83	0x3f575eca	0.8412901
84	0xbf64cbc2	-0.8937341
85	0x3f4cef1d	0.8005236
86	0x3f3c9775	0.73668605
87	0x3f542135	0.8286317
88	0xbf39b768	-0.7254548
89	0xbf5948e3	-0.8487684
90	0x3f121012	0.5705577
91	0xbf21a018	-0.6313491
92	0x3f2facbf	0.68622965
93	0xbce3ca79	-0.027806507
94	0xbf45b6fd	-0.7723234
95	0xba09d15c	-0.0005257332
96	0xbf099891	-0.5374842
97	0xbf88968b	-1.0670942
98	0x3f5bf79c	0.85924697
99	0x3f6a6db2	0.9157363
100	0xbf66da46	-0.9017681
101	0x3f453166	0.770285
102	0x3f3df98a	0.7420889
103	0xbf45b6fe	-0.7723235
104	0xbb1fd84e	-0.0024390402
105	0x3c3ee37d	0.011650917
106	0xbf69830b	-0.9121558
107	0xbf628306	-0.88481176
108	0xbf3b13de	-0.7307719
109	0x3f541683	0.8284685
110	0xbf341c0e	-0.7035531
111	0xbf7d3b74	-0.98918843
112	0xbf32c53e	-0.6983222
113	0xbf559677	-0.83432716
114	0xbf413052	-0.75464356
115	0xbf61a5a0	-0.8814335
116	0xbf5932b9	-0.8484302
117	0x3f8d1852	1.1023047
118	0xbf2820dd	-0.65675145
119	0xbf591dcc	-0.8481109
120	0xbf52598a	-0.82167876
121	0x3f4d7b53	0.802663
122	0xbf529d0c	-0.82270885
123	0x3f26f259	0.65213543
124	0x3f7f9094	0.99829984
125	0xbf5df83e	-0.8670691
126	0xbf530761	-0.82433134
127	0xbf5042ba	-0.81351817
128	0xbf1c079b	-0.60949105
129	0xbcf7b11a	-0.030235816
130	0xbf53084c	-0.82434535
131	0xbf5cdfe0	-0.86279106
132	0x3f5b893a	0.85756266
133	0x3f3c8cff	0.7365264
134	0x3f59ffa0	0.8515568
135	0xbf5adef7	-0.8549647
136	0x3c8c16a1	0.017100634
137	0xbf871b35	-1.0555178
138	0x3fa8a9e3	1.3176845
139	0xbf32371e	-0.6961535
140	0x3f45f3a2	0.7732488
141	0xbf65336c	-0.8953159
142	0x3f603df7	0.8759455
143	0xbf42ebfd	-0.7614134
144	0x3f39fb21	0.7264882
145	0xbd0f4598	-0.03497848
146	0x3f091ef6	0.5356287
147	0x3f4e22b3	0.80521697
148	0xbf3b79b3	-0.73232573
149	0x3f666d5a	0.9001061
150	0xbf5645f3	-0.83700484
151	0x3f38a095	0.7212003
152	0xbf474508	-0.7783971
153	0x3ef94bc1	0.48690608
154	0xbf4dbf5d	-0.8037012
155	0xbf584bb2	-0.844905
156	0x3ef847ff	0.4849243
157	0x3f477967	0.7791962
158	0xbf5d1c9d	-0.86371785
159	0x3f4f7b9f	0.81048006
160	0xbf2b1549	-0.66829354
161	0xbf78b9bd	-0.97158414
162	0x3d7d4d49	0.061841283
163	0xbf41c82e	-0.75696075
164	0xbf3d4f0b	-0.73948735
165	0xbf546bf8	-0.8297725
166	0xbf65cc06	-0.8976444
167	0x3f303c93	0.6884243
168	0xbd5a672c	-0.05332105
169	0x3d8bdfb2	0.06829776
170	0xbf31ffa7	-0.6953072
171	0x3f4a1622	0.7894002
172	0x3f56d373	0.83916396
173	0x3f50eb1c	0.8160875
174	0x3f304a4a	0.68863356
175	0x3d0ab603	0.033864986
176	0xbf6ab81a	-0.91687167
177	0xbf6df676	-0.92954195
178	0x3f5139ca	0.81728804
179	0xbf466d04	-0.77510095
180	0xbf57a236	-0.8423189
181	0x3f4b48cd	0.7940796
182	0x3f34fa9f	0.7069492
183	0x3f5c76f9	0.8611904
184	0xbf487d6f	-0.78316396
185	0x3f41d86b	0.7572085
186	0x3f388e18	0.7209182
187	0x3f3cb482	0.73712933
188	0xbf510a49	-0.8165632
189	0xbf32371a	-0.6961533
190	0x3f7daa56	0.99088037
191	0xbf3c0a02	-0.7345277
192	0x3f4e03df	0.80474657
193	0xbd80f384	-0.06296447
194	0xbf2b2dfc	-0.6686704
195	0x3d866d1a	0.06563778
196	0xbf747f7e	-0.9550704
197	0xbf67e50a	-0.9058386
198	0x3f4df2fd	0.80448896
199	0x3f57d7c0	0.84313583

exp_avg f4 [400, 2]
0	0x3cd87307	0.026422037
1	0x3cd3e06f	0.025863854
2	0xba3c4365	-0.00071816734
3	0xb9e0f817	-0.0004290945
4	0x3d472729	0.04862133
5	0x3d3c4325	0.04596247
6	0x3d5de121	0.054169778
7	0x3d5bb058	0.05363497
8	0xb5c486a4	-1.4642324e-06
9	0xb5c37f3c	-1.4565662e-06
10	0xb313445e	-3.4288284e-08
11	0xb385548d	-6.208675e-08
12	0xbb87dccb	-0.0041461936
13	0xbbab1d28	-0.0052219816
14	0x3ee0f6c2	0.4393826
15	0x3edc4406	0.43020648
16	0x3cd4b8cd	0.025967026
17	0x3ccd1878	0.025036082
18	0xbaa4685e	-0.0012543311
19	0xba5e04de	-0.0008469353
20	0xb90fa00b	-0.00013697163
21	0xb8f026a5	-0.0001145129
22	0x3b10dcd1	0.0022104273
23	0x3b9476dd	0.004530771
24	0xb9043c0b	-0.00012610869
25	0xb90b10f1	-0.00013262384
26	0x3ce2d31f	0.027688561
27	0x3cd4cbb7	0.025976045
28	0x37e2313c	2.6964226e-05
29	0x397a1b89	0.00023852116
30	0x3ccf4549	0.025301592
31	0x3cc6ee64	0.024283595
32	0x3dfa0bcd	0.12209282
33	0x3df7f524	0.12107304
34	0x3ee38fd0	0.44445658
35	0x3edfec01	0.43734744
36	0x3d548d56	0.0518926
37	0x3d4a41e9	0.049379263
38	0xb6c606dd	-5.901659e-06
39	0xb6d272ec	-6.2718664e-06
40	0x3da564d6	0.080758736
41	0x3da10840	0.07862902
42	0x3cb4e491	0.022081645
43	0x3ca63cd9	0.020292686
44	0xb9ed0c66	-0.000452134
45	0x38c2204d	9.256657e-05
46	0x3e0b40ac	0.13598889
47	0x3e039dfe	0.12853238
48	0x3c10bd0f	0.008834138
49	0x3c313919	0.010816836
50	0x3d71c397	0.05902442
51	0x3d816c6e	0.063195094
52	0x3e72bb51	0.23704268
53	0x3e71c97d	0.23612018
54	0x3e462762	0.19350961
55	0x3e3aca7e	0.18241307
56	0x3c81f405	0.015863428
57	0x3c5cbfe2	0.013473483
58	0xb320f2ca	-3.747372e-08
59	0x34e6d993	4.2999145e-07
60	0x3ef15816	0.47137517
61	0x3efdf49f	0.49600694
62	0x3d910326	0.07080679
63	0x3d8e3be8	0.0694502
64	0xb709b163	-8.207137e-06
65	0xb71ae3f1	-9.232187e-06
66	0x3b8e8489	0.0043492955
67	0x3bbc90a5	0.0057545477
68	0xba3cb963	-0.00071992556
69	0xba06dcf8	-0.0005144621
70	0xbb025443	-0.001988665
71	0xbaacdaf5	-0.0013187813
72	0xb7f63d27	-2.9353962e-05
73	0xb7c80a14	-2.384655e-05
74	0x3d30bffd	0.043151844
75	0x3ca2fdc9	0.019896405
76	0xb71402f8	-8.822179e-06
77	0x35f2332a	1.8045296e-06
78	0x3cb866e0	0.022509992
79	0x3ca46086	0.020065557
80	0xb6e21d50	-6.7387373e-06
81	0xb6dfb462	-6.666917e-06
82	0x3b55f605	0.003264786
83	0x3ba544ad	0.005043587
84	0xbbba52b4	-0.0056861285
85	0xbbe34a49	-0.0069363457
86	0x3f041f0d	0.5160988
87	0x3f08f43d	0.5349768
88	0xb3a7f3da	-7.8209e-08
89	0xb4090287	-1.2760039e-07
90	0xb6b11c9b	-5.278341e-06
91	0xb6aff05b	-5.2433875e-06
92	0xbe8e23d5	-0.27761713
93	0xbe8e0c4e	-0.27743763
94	0x3d817cb5	0.06322614
95	0x3d79b967	0.06096783
96	0x3d2af7f5	0.041740377
97	0x3d258cc9	0.040417466
98	0x3eaac3f3	0.33352622
99	0x3ea792b3	0.3272911
100	0xb6843e52	-3.9411616e-06
101	0xb68c26da	-4.176848e-06
102	0xb946671d	-0.00018921164
103	0xb9295044	-0.00016146997
104	0x3f09f2d9	0.5388618
105	0x3f0f8704	0.5606539
106	0x3fa84f3c	1.314918
107	0x3fae9eb8	1.3642187
108	0xb3b1fa46	-8.287729e-08
109	0xb411f454	-1.3593063e-07
110	0x3dc663e9	0.09687025
111	0x3dc6c8eb	0.09706291
112	0x3f92aebc	1.1459575
113	0x3f8e869f	1.1134833
114	0xb59c762c	-1.1657298e-06
115	0xb5e36e76	-1.6944966e-06
116	0xb94be0dc	-0.00019443355
117	0xb8b587bc	-8.656035e-05
118	0x3eab4f8c	0.33459127
119	0x3ebd67f3	0.3699337
120	0xb9f5d0dc	-0.00046885654
121	0xb9c3a59f	-0.00037316696
122	0x3ef7204c	0.48266828
123	0x3ef29cc7	0.47385237
124	0x3521702e	6.0140417e-07
125	0x3346a3c9	4.624943e-08
126	0x3d404029	0.046936188
127	0x3d3bef38	0.045882434
128	0x3ef69ac7	0.4816496
129	0x3f0004a5	0.50007087
130	0xb1349ca7	-2.6282494e-09
131	0xb1893682	-3.9934216e-09
132	0x3d018f40	0.031630754
133	0x3cf33436	0.029687982
134	0xbcce4d73	-0.025183415
135	0xbca66201	-0.020310404
136	0xb21b58c1	-9.042368e-09
137	0xb422fbab	-1.5178982e-07
138	0xb5e60257	-1.7137016e-06
139	0xb5b3412d	-1.3355508e-06
140	0xb92bdca9	-0.00016390033
141	0xb908bba5	-0.00013039874
142	0x3cd4ac62	0.025961105
143	0x3ccb9d68	0.02485533
144	0x3b32f206	0.0027304902
145	0x3aed08b9	0.0018084265
146	0x3d9a1ba3	0.075248025
147	0x3d9a0bca	0.0752178
148	0xbae48d98	-0.0017437218
149	0xbaaa67fc	-0.001300096
150	0xb0a92819	-1.2307765e-09
151	0xb105b317	-1.9455848e-09
152	0x3a668541	0.000879366
153	0x3b40041e	0.002929933
154	0x3f6c616f	0.9233617
155	0x3f6cbf87	0.9247975
156	0x3af6a6a7	0.0018817977
157	0x3b259029	0.0025262928
158	0x3b942dcd	0.0045220614
159	0x3bcb1526	0.0061975894
160	0x3e88d2d0	0.26723337
161	0x3e89e8a8	0.26935315
162	0xb7f821ab	-2.9579582e-05
163	0xb7ea3032	-2.7917416e-05
164	0xb2021a63	-7.572996e-09
165	0xb24ad617	-1.1806626e-08
166	0x3b4dac48	0.0031383205
167	0x3ba1dae9	0.004939426
168	0x3dfec082	0.12439062
169	0x3e11417f	0.14185141
170	0x3d8d6de3	0.06905725
171	0x3d8c6ded	0.06856904
172	0xbb06344a	-0.0020477944
173	0xbad098f1	-0.0015914721
174	0x3c91968e	0.017771985
175	0x3ca6b9a8	0.0203522
176	0x3d973503	0.07383158
177	0x3d97d47b	0.07413574
178	0x3d54ee61	0.05198515
179	0x3d5075cf	0.0508936
180	0xb9962db4	-0.0002864428
181	0xb9768f3f	-0.00023513752
182	0xb99c1f3f	-0.0002977792
183	0xb979c806	-0.00023821005
184	0x3cd415ff	0.025889395
185	0x3cc56095	0.024093905
186	0x32f1d55f	2.8153122e-08
187	0x330e2eab	3.3104396e-08
188	0xb428c091	-1.5716275e-07
189	0xb488694d	-2.540859e-07
190	0x352c5fe3	6.4214527e-07
191	0x33e9ce6a	1.08874545e-07
192	0x3f109841	0.5648232
193	0x3f0c9d20	0.54927254
194	0xb73b3c72	-1.1160142e-05
195	0xb7aba4c3	-2.0461512e-05
196	0x3beaea79	0.0071690646
197	0x3c1a0faa	0.009403149
198	0xba55447d	-0.0008135511
199	0xbb443bbd	-0.0029942833
200	0x36b6e63a	5.4508246e-06
201	0x36a3a95d	4.877495e-06
202	0x3736d651	1.0897945e-05
203	0x3745942c	1.1776614e-05
204	0x37303d44	1.0504682e-05
205	0x3716175f	8.946138e-06
206	0xb478609d	-2.3131948e-07
207	0xb47738c1	-2.3024315e-07
208	0xb01ca584	-5.698768e-10
209	0xb01de566	-5.744226e-10
210	0x30ebccd6	1.7156718e-09
211	0x31018b5c	1.8851187e-09
212	0xb7f3ddc4	-2.9071125e-05
213	0xb799d975	-1.8340283e-05
214	0xbef02f7a	-0.46911222
215	0xbee11bf0	-0.43966627
216	0xb29925db	-1.7828759e-08
217	0xb2ca4b5b	-2.3550163e-08
218	0x36f2db3d	7.2376847e-06
219	0x36f76ec6	7.3740694e-06
220	0x37ae01f7	2.0743331e-05
221	0x37b3392e	2.136509e-05
222	0x383cae16	4.4984823e-05
223	0xb91964e9	-0.00014628809
224	0xbce494ca	-0.02790298
225	0xbca475b5	-0.020075658
226	0xb038cc9a	-6.7229566e-10
227	0xb05bfc73	-8.003049e-10
228	0x35c1b48d	1.4432168e-06
229	0x35c16808	1.4409898e-06
230	0x33513c4b	4.871644e-08
231	0xb1450350	-2.8669156e-09
232	0xbf08befd	-0.53416425
233	0xbf004dbf	-0.5011863
234	0xbe7b9d9d	-0.24571843
235	0xbe6ff53d	-0.23433395
236	0xb200f2f0	-7.505818e-09
237	0xb21e592b	-9.217085e-09
238	0xb78a6544	-1.6498037e-05
239	0xb790b46a	-1.725015e-05
240	0xb2bc419e	-2.191592e-08
241	0xb2bea311	-2.2193065e-08
242	0xb14f8239	-3.0196488e-09
243	0xb1614526	-3.2781116e-09
244	0x36a01338	4.770609e-06
245	0x369dce2b	4.7029657e-06
246	0x3aa83f71	0.001283629
247	0xba4d05cc	-0.0007820993
248	0x36158944	2.228263e-06
249	0x361a0738	2.295199e-06
250	0xbf537d22	-0.8261281
251	0xbf41b17b	-0.7566144
252	0xbef1bf0b	-0.47216067
253	0xbeef68e7	-0.46759722
254	0xbf6b6b37	-0.9196047
255	0xbf533f15	-0.8251813

exp_avg_sq f4 [400, 2]
0	0x3cb54d5b	0.022131613
1	0x3caeec52	0.02135292
2	0x3ee62821	0.4495249
3	0x3ed39bf7	0.4132993
4	0x3e08b96f	0.13351987
5	0x3e009a5f	0.12558888
6	0x3eb30afb	0.34969315
7	0x3ea5908f	0.32336852
8	0x38720b66	5.770791e-05
9	0x385ab991	5.2148072e-05
10	0x2cd961dc	6.1783755e-12
11	0x2ce68ebc	6.55284e-12
12	0x3b0feed3	0.0021962419
13	0x3b058c79	0.0020377918
14	0x3ef84943	0.48493394
15	0x3f03672e	0.51329315
16	0x3cea7c37	0.028623683
17	0x3ce1b9f5	0.027554492
18	0x3e29f43e	0.16597077
19	0x3e1c2826	0.1524969
20	0x390550ef	0.00012714019
21	0x38f19ecb	0.00011521353
22	0x3e119e6c	0.1422059
23	0x3e0660cf	0.13122867
24	0x3c8e0a4f	0.0173389
25	0x3c8a2bf1	0.016866656
26	0x3d2dc0d9	0.042420242
27	0x3d26a274	0.04068227
28	0x3e86c588	0.2632258
29	0x3e7d35b6	0.2472752
30	0x3cf2ff9b	0.029662898
31	0x3cea0ec2	0.02857149
32	0x3f298c82	0.6623002
33	0x3f27c28e	0.6553124
34	0x3f5d0a1e	0.8634356
35	0x3f62aaf2	0.8854209
36	0x3ecfb8db	0.4057072
37	0x3ebfb303	0.37441263
38	0x33da17fe	1.015578e-07
39	0x33d4507f	9.8866614e-08
40	0x3f8e9706	1.1139839
41	0x3f84641e	1.0343053
42	0x3d06c4e8	0.03290263
43	0x3d00ff6b	0.031493586
44	0x3d367e24	0.04455389
45	0x3d269e44	0.040678278
46	0x402c8a0c	2.6959257
47	0x401768e9	2.3657782
48	0x3f97f3cc	1.1871276
49	0x3f8b5036	1.0883853
50	0x3f889140	1.0669327
51	0x3f7b409b	0.98145455
52	0x3e916a18	0.28401256
53	0x3ea2f4f8	0.3182752
54	0x3ebeb0b7	0.37244198
55	0x3ec3eab7	0.3826501
56	0x3cf12038	0.029434308
57	0x3ce5ac32	0.02803621
58	0x3687445f	4.031273e-06
59	0x3679a9e8	3.720279e-06
60	0x3e8f1972	0.279491
61	0x3e889295	0.26674333
62	0x3ee1f89e	0.44134992
63	0x3ed05f4e	0.40697712
64	0x344d92df	1.9145544e-07
65	0x344bc0f3	1.8976043e-07
66	0x3e90999f	0.28242204
67	0x3e8699dc	0.2628926
68	0x3d098697	0.03357562
69	0x3cfd3065	0.030906865
70	0x3f164918	0.5870528
71	0x3f0a2bc0	0.5397301
72	0x3e711635	0.23543628
73	0x3e5d54ae	0.21614334
74	0x40078e4c	2.11806
75	0x40096e89	2.1473715
76	0x36fcbf82	7.5324797e-06
77	0x3705db79	7.978518e-06
78	0x3d226d81	0.039655212
79	0x3d1a6902	0.0376978
80	0x3448804b	1.8673124e-07
81	0x345012f6	1.9378408e-07
82	0x3ff46f9b	1.9096559
83	0x3fe0e9e7	1.7571381
84	0x3b0e72a2	0.0021735807
85	0x3b05665e	0.0020355205
86	0x3e7c4235	0.24634631
87	0x3e910ecb	0.283316
88	0x2ddb5e9a	2.4939429e-11
89	0x2deb733d	2.6767583e-11
90	0x3ac1eebb	0.0014795879
91	0x3ab1242b	0.0013514807
92	0x3f557cb8	0.8339343
93	0x3f3fac0b	0.7487189
94	0x3f956ac9	1.1673213
95	0x3f8a2847	1.0793542
96	0x3d8de809	0.06929023
97	0x3d8626d4	0.065503746
98	0x3f78b5b0	0.97152233
99	0x3f6fd8b4	0.9369004
100	0x33009b0c	2.9943337e-08
101	0x32d7c777	2.512e-08
102	0x3b0fa92d	0.0021920905
103	0x3b038f80	0.0020074546
104	0x3e886d94	0.266461
105	0x3e8b2df4	0.27183497
106	0x3f9d3521	1.2281839
107	0x3f95b927	1.1697129
108	0x2e2b1f13	3.8908498e-11
109	0x2e2208cc	3.684235e-11
110	0x3fddbc78	1.7323141
111	0x3fcb88f0	1.5901165
112	0x4050cf7d	3.262664
113	0x402cd38b	2.7004116
114	0x31b9da96	5.409059e-09
115	0x31b55ceb	5.278357e-09
116	0x3d3d486d	0.04621165
117	0x3d2fe605	0.042943973
118	0x3f068e26	0.5256065
119	0x3f13fb00	0.5780487
120	0x3c974a89	0.018468158
121	0x3c887a0a	0.016659755
122	0x3f36cec2	0.7140924
123	0x3f38821b	0.72073525
124	0x3514d07b	5.5437675e-07
125	0x3503063f	4.881039e-07
126	0x3e394dce	0.18096086
127	0x3e2d83ce	0.16944811
128	0x3e592191	0.21204211
129	0x3e7b9bb4	0.24571115
130	0x293c091f	4.1752297e-14
131	0x295f7c10	4.9623554e-14
132	0x3d502954	0.050820664
133	0x3d47cf33	0.048781585
134	0x3ed32129	0.41236237
135	0x3eb7bd26	0.35886496
136	0x3a6a1a2f	0.0008930293
137	0x3a5662ad	0.0008178156
138	0x38a3d85e	7.812747e-05
139	0x388c0745	6.677074e-05
140	0x3aa8d98b	0.0012882216
141	0x3a9f6426	0.0012160584
142	0x3d05debd	0.032683123
143	0x3d00f117	0.03147992
144	0x3eae14ca	0.34000236
145	0x3e9f7f65	0.31151882
146	0x3fb00303	1.3750919
147	0x3fa1374f	1.2595004
148	0x3d46aa06	0.04850199
149	0x3d310b38	0.04322359
150	0x27c149c5	5.364824e-15
151	0x27533471	2.931056e-15
152	0x3dbf2ade	0.09334348
153	0x3daf354f	0.0855509
154	0x40b25738	5.573147
155	0x40accfd5	5.40037
156	0x3e5095b6	0.2036961
157	0x3e3f0c33	0.18656997
158	0x3dbb1ae3	0.091359876
159	0x3dac1ec0	0.084043026
160	0x3f64503f	0.89184946
161	0x3f699541	0.9124337
162	0x35e4e7c7	1.705478e-06
163	0x35d99f78	1.6214171e-06
164	0x2a7b08bf	2.2296313e-13
165	0x2a9cd195	2.7856593e-13
166	0x3ea1aedd	0.31578723
167	0x3e94fc1f	0.29098603
168	0x3e81d214	0.2535559
169	0x3e8a1890	0.26971865
170	0x3ef1de96	0.47240132
171	0x3edf2227	0.43580744
172	0x3df7a9cf	0.12092935
173	0x3ddf02d0	0.10889208
174	0x3f6a4939	0.9151798
175	0x3f57b0a3	0.842539
176	0x3f68391e	0.90712154
177	0x3f5500b9	0.8320423
178	0x3ebe25b1	0.3713813
179	0x3eb0276a	0.3440507
180	0x3b31803f	0.0027084497
181	0x3b28500c	0.0025682477
182	0x3938ec8d	0.0001763573
183	0x3930b99c	0.00016853813
184	0x3d06f0d9	0.032944534
185	0x3d00fda2	0.031491883
186	0x2f01ddae	1.1811238e-10
187	0x2ef4fd2b	1.1140807e-10
188	0x2f734b64	2.2127505e-10
189	0x2f585829	1.9676406e-10
190	0x3792361c	1.7429753e-05
191	0x378226b4	1.551523e-05
192	0x3f806e2e	1.0033624
193	0x3f79dd85	0.97603637
194	0x3d1ac381	0.037784103
195	0x3d0cfcc2	0.034420736
196	0x3f0d3def	0.5517263
197	0x3f01aac5	0.506512
198	0x3b3a2c1a	0.0028407634
199	0x3b24feae	0.0025176215
200	0x38d63aaa	0.00010215242
201	0x38c02e92	9.163948e-05
202	0x3d8595a9	0.06522686
203	0x3d74fa89	0.05980924
204	0x3b6424ae	0.0034811902
205	0x3b577e73	0.0032881766
206	0x36877916	4.03741e-06
207	0x36774f61	3.6852073e-06
208	0x32d128c5	2.4349342e-08
209	0x32bc5d78	2.1928585e-08
210	0x2bd787a3	1.5314316e-12
211	0x2bcd8db3	1.4605456e-12
212	0x3a25e751	0.00063287193
213	0x3a17f7d6	0.00057971233
214	0x406480dd	3.5703652
215	0x404a16a7	3.1576326
216	0x2e04667e	3.0104357e-11
217	0x2dd83fe7	2.4584735e-11
218	0x3d7667c7	0.060157564
219	0x3d61bf42	0.05511404
220	0x3c987934	0.018612482
221	0x3c8b95dd	0.017039234
222	0x3d25d204	0.04048349
223	0x3d189993	0.037255835
224	0x3ecaa157	0.39576218
225	0x3eee7cf1	0.46579698
226	0x2c9dd83e	4.486216e-12
227	0x2c952d10	4.2398376e-12
228	0x3dfb4582	0.12269117
229	0x3de7d848	0.11320549
230	0x3212bed6	8.54171e-09
231	0x320af859	8.089125e-09
232	0x4062b006	3.5419936
233	0x404abdee	3.1678424
234	0x40b55f60	5.6678925
235	0x40a2e914	5.090952
236	0x3450a8bb	1.9432893e-07
237	0x342b8d7f	1.5977092e-07
238	0x3cab9c5e	0.020948585
239	0x3c9fd0a4	0.019508667
240	0x3a00f9eb	0.0004920053
241	0x39ef5f59	0.00045656672
242	0x30fffbc3	1.8625247e-09
243	0x30eb859a	1.7136472e-09
244	0x3c67e7c6	0.01415438
245	0x3c542af0	0.01294969
246	0x3c913a47	0.017727984
247	0x3ca5978e	0.020213868
248	0x3f0c8613	0.5489208
249	0x3f0195b5	0.5061906
250	0x4081c830	4.055687
251	0x40616035	3.521497
252	0x403e992d	2.978099
253	0x402ed0b0	2.7314873
254	0x401947f5	2.395017
255	0x4004b4b6	2.0735297
