lightning_logs/version_22/checkpoints/epoch=20-step=8085.ckpt (torch, 318718 bytes, 15 tensors)

lstm.weight_ih_l0 f4 [4000, 2]
0.0013411295 -0.012488346 0.019984188 0.033282127 -0.012824375 0.08809903 0.0077051967 -0.03782625
0.054940797 0.0638313 -0.033206757 -0.014598206 0.032213204 0.0143331215 0.09845599 -0.09110449
0.028861526 0.053179804 -0.012598473 -0.026673032 0.11172921 0.12774189 -0.021571767 0.009351125
0.06688208 0.045634292 0.05978995 0.061154302 -0.0052809687 -0.025920697 0.05769 -0.0019984068
0.11342274 0.12614033 0.047236554 0.013868481 0.06398824 0.078287624 0.027973631 0.020416427
0.018720552 -0.039894495 0.048527822 0.07772364 0.05017805 0.03555135 0.07882235 0.044829734
0.05259731 0.014276429 0.083553165 0.043587882 0.039979354 0.0119447205 0.06753271 0.13372213
0.08001632 0.13371593 0.027583819 0.0394128 0.040884223 0.06873803 0.034234516 0.035143502
0.028392665 0.038234133 0.011624724 0.04780271 0.060371418 0.032267433 -0.03308858 -0.012287553
0.055178773 0.0514796 -0.028427003 0.075343736 0.03342301 0.044271808 0.051567007 0.09053676
-0.013869588 0.00531557 0.00042219547 0.006619664 0.044405352 -0.0014675669 0.018392963 0.05465522
0.08294964 0.114742465 0.016232347 -0.040513072 0.047639024 0.01826083 0.036320437 0.042448703
0.07045673 0.06802678 0.02379299 0.07945301 0.06505097 0.025125794 0.07705709 0.055211972
0.07310728 0.027026458 0.06690476 0.010212997 0.011162221 -0.028909475 -0.026052011 -0.025724703
-0.010031475 -0.015015934 0.008562258 -0.01070393 0.04415584 0.070196316 0.100225024 0.09752461
0.063271224 0.056233775 0.06994426 0.077000774 0.01779259 0.017403496 -0.02414625 -0.033213556
0.09615244 0.06963286 0.026564566 0.013405828 0.039387792 0.0060519506 0.042065553 0.018015372
0.035868578 0.07453383 -0.035267234 -0.012114634 -0.0041750506 -0.01497459 -0.020119855 -0.019766333
-0.029711818 -0.008828545 0.08685976 0.11177747 0.03948167 0.023467056 0.010892924 -0.019899437
0.027800616 0.038400687 0.06327441 0.07761583 0.055171717 0.021413142 0.04725499 0.06431611
0.014980319 0.046680994 -0.088744305 -0.05345524 -0.018824931 -0.042239923 0.02348459 0.06192306
-0.015925057 -0.020107277 0.09888287 0.11991308 0.01328029 0.05907899 0.06293707 0.036766835
0.021011531 0.017587787 -0.0018056062 0.036912084 0.008080614 0.032301527 0.05028027 0.05786893
0.04409732 0.035060007 0.08769358 0.07033858 -0.02790007 -0.035032667 0.06713074 0.023300398
0.034355372 0.031269085 0.038845927 0.030636191 0.02160247 0.011083146 0.011913922 0.043475993
0.031177638 0.055398516 0.06392461 0.053323783 0.06100714 0.03269441 0.041593157 0.021951094
0.054167397 0.057501804 0.02108192 0.036644697 -0.06271257 -0.080227435 0.01193871 0.05547294
-0.0064256275 -0.038990315 0.06172133 0.028134363 -0.01956281 -0.005868563 0.056051064 0.020106364
0.057726704 0.03516889 0.05251812 0.021562545 0.022698846 0.082511134 0.041547954 0.019110408
0.0481356 0.060312867 0.030447444 0.009694511 0.0005376499 0.017481104 0.025261771 0.050989218
0.0013197127 -0.033546623 -0.029724224 -0.01870483 0.055711444 0.059981335 0.065060616 0.03319123
0.033217303 0.0060550445 0.030201463 0.049088538 -0.024153598 -0.022509668 0.025470713 0.05393531
00000000: d7c8 af3a eb9b 4cbc e1b5 a33c d752 083d
00000010: 541d 52bc 446d b43d e07b fc3b b3ef 1abd
00000020: 9a09 613d fcb9 823d cf03 08bd 502d 6fbc
00000030: fef1 033d 78d5 6a3c 4ba3 c93d fe94 babd
00000040: 026f ec3c 11d3 593d d369 4ebc 6781 dabc
00000050: 49d2 e43d c5ce 023e 46b7 b0bc 7635 193c
00000060: 79f9 883d 06eb 3a3d 4ee6 743d ef7c 7a3d
00000070: fa0b adbb a457 d4bc 594c 6c3d b4f7 02bb
00000080: 2e4a e83d ee2a 013e 1e7b 413d a038 633c
00000090: 440c 833d 4355 a03d f528 e53c 5a40 a73c
000000a0: d85b 993c 6968 23bd 1cc5 463d 922d 9f3d
000000b0: 8087 4d3d 4b9e 113d 9d6d a13d 629f 373d
000000c0: 4770 573d afe7 693c ec1d ab3d 3589 323d
000000d0: 64c1 233d cab3 433c 974e 8a3d 74ee 083e
000000e0: 99df a33d d4ec 083e 76f7 e13c 516f 213d
000000f0: 3776 273d 86c6 8c3d 7e39 0c3d a2f2 0f3d
00000100: bc97 e83c 659b 1c3d a075 3e3c c6cc 433d
00000110: 0548 773d db2a 043d e487 07bd bc51 49bc
00000120: 2303 623d 46dc 523d bfdf e8bc d14d 9a3d
00000130: 91e6 083d 5b56 353d ed37 533d 566b b93d
00000140: 453d 63bc 3c2e ae3b 1e5a dd39 c4e9 d83b
00000150: 63e2 353d 605b c0ba d7ac 963c 27de 5f3d
00000160: 80e1 a93d 19fe ea3d b3f9 843c 09f1 25bd
00000170: 2321 433d bc97 953c bdc4 143d b1de 2d3d
00000180: 9e4b 903d a051 8b3d 84e9 c23c 42b8 a23d
00000190: 7139 853d 9cd4 cd3c 1cd0 9d3d f325 623d
000001a0: 45b9 953d 9766 dd3c 5d05 893d 6a54 273c
000001b0: c0e1 363c 90d3 ecbc 076b d5bc 9dbc d2bc
000001c0: 0e5b 24bc 6405 76bc b748 0c3c 895f 2fbc
000001d0: c1dc 343d 16c3 8f3d c742 cd3d fcba c73d
000001e0: 5894 813d 6355 663d f03e 8f3d 95b2 9d3d
000001f0: c4c1 913c c791 8e3c 5bce c5bc f00a 08bd
00000200: 92eb c43d ac9b 8e3d ef9d d93c 1ea4 5b3c
00000210: 1855 213d 714f c63b ee4c 2c3d f994 933c
00000220: eeea 123d 31a5 983d 6074 10bd 757c 46bc
00000230: ddce 88bb fc57 75bc 65d2 a4bc 01ed a1bc
00000240: 3366 f3bc 9aa5 10bc 88e3 b13d 96eb e43d
00000250: 88b7 213d fc3d c03c 3c78 323c 2504 a3bc
00000260: 1ebe e33c 0a4a 1d3d 0496 813d 0cf5 9e3d
00000270: bdfb 613d 9d6a af3c 738e 413d 2ab8 833d
00000280: 0370 753c 9234 3f3d 93bf b5bd e2f3 5abd
00000290: be36 9abc c503 2dbd c162 c03c 09a3 7d3d
000002a0: 4475 82bc 04b8 a4bc 1a83 ca3d fd94 f53d
000002b0: 9395 593c d0fc 713d 27e5 803d d298 163d
000002c0: 6020 ac3c 4314 903c 17aa ecba 2031 173d
000002d0: 8d64 043c 9b4e 043d aff2 4d3d f907 6d3d
000002e0: 649f 343d 159b 0f3d b198 b33d ac0d 903d
000002f0: b08e e4bc 6a7e 0fbd d77b 893d 7ae0 be3c
00000300: 38b8 0c3d 0314 003d e81c 1f3d c0f8 fa3c
00000310: aaf7 b03c 1596 353c 9c32 433c e213 323d
00000320: 3f68 ff3c 8ee9 623d e8ea 823d 0a6a 5a3d
00000330: 9fe2 793d 93ea 053d 965d 2a3d c8d2 b33c
00000340: a2de 5d3d 0387 6b3d feb3 ac3c c018 163d
00000350: 736f 80bd 484e a4bd 949a 433c 9837 633d
00000360: 128e d2bb 4fb4 1fbd 81cf 7c3d 097a e63c
00000370: 3042 a0bc 134d c0bb cd95 653d 1ab6 a43c
00000380: d672 6c3d 410d 103d 3d1d 573d efa3 b03c
00000390: eef2 b93c 99fb a83d 302e 2a3d 6e8d 9c3c
000003a0: d629 453d a00a 773d eb6c f93c bad5 1e3c
000003b0: 13f1 0c3a 8834 8f3c c6f1 ce3c 12da 503d
000003c0: 36fa ac3a 2f68 09bd 3780 f3bc df3a 99bc
000003d0: af31 643d fdae 753d 803e 853d 87f3 073d
000003e0: de0e 083d 6569 c63b 0f69 f73c 1011 493d
000003f0: c4dd c5bc 3266 b8bc f5a7 d03c 46eb 5c3d

lstm.weight_hh_l0 f4 [4000, 2]
-0.05207137 -0.039275628 0.044584475 0.028421579 0.04608614 0.028409597 -0.025115002 0.0042140908
0.011050164 0.0321073 -0.03302923 -0.038172096 0.032210153 0.042357504 0.016921807 0.022889547
0.06364879 0.023873093 0.0148271285 0.020276533 0.03377595 -0.021352442 0.04561645 0.052647926
0.025185086 0.020571284 0.06861668 0.02048147 0.007243291 0.042301554 0.048338935 -0.0013314568
-0.008072611 -0.0033331558 -0.0032321133 0.04828657 -0.00013244226 0.037470758 0.015427587 0.05491307
-0.0433316 -0.03198934 0.029517652 0.02737852 0.016574765 0.009252452 0.04878548 0.014119432
0.0044973693 0.008298899 0.015863003 0.05456184 0.028681789 0.055900604 -0.13131548 -0.13114117
0.0369578 0.039043505 0.051044527 0.018519916 0.02905237 0.06701566 0.045847423 0.010185927
0.02863996 0.04825455 0.03058115 0.029905926 0.050561618 0.02712933 0.051352695 0.0064499443
0.050893858 0.001954995 0.021758882 0.057885755 0.024628825 0.021924501 0.045709245 0.039336737
0.044468693 0.025648508 0.042238053 0.061292484 0.046633888 0.0054411273 0.04027015 0.060747914
0.0080791125 0.04118476 -0.06212025 -0.03303388 0.038279504 0.030450283 0.011099418 0.034387995
0.027207755 0.039156545 0.029774725 0.06562711 0.045184188 0.040921215 0.030158116 0.029181993
0.015116034 0.020309534 -0.068392985 -0.06281432 -0.041921068 -0.035691876 0.028812757 0.02090825
0.026336212 0.06069846 0.060004517 0.022616688 0.026291585 0.053272724 -0.12845185 -0.14535882
0.027645025 0.046576694 0.025995102 0.039860714 0.017819354 0.045996092 0.0075970194 0.04587514
0.04522245 0.039193995 0.023199353 0.008100994 0.024090825 0.013710843 0.03538578 0.013984274
0.051494904 0.024639854 0.020707512 0.025270913 0.034260858 0.050773375 0.034322124 0.001887716
0.0033952661 0.047248606 -0.11565661 -0.1564398 0.02872975 0.019148374 0.06101434 0.03501459
0.004659878 0.028719116 0.010374754 0.053705912 0.035655726 0.0031928008 0.031324845 0.03993346
0.04224981 0.024467764 0.08628943 0.09025493 -0.00030481786 0.012433138 0.023869287 0.0606373
0.0082366625 0.024246164 0.011971938 0.008933615 0.055354062 0.013954947 0.045266565 0.044693783
0.018847406 0.063374706 0.062250376 0.020682203 0.05514259 0.037428398 0.0031990777 0.033978276
0.032412767 0.022517104 0.019584753 0.047837105 0.0460373 0.01602435 0.044287004 0.029043507
0.009850106 0.045975406 0.023983369 0.044594917 0.021792924 0.028537784 0.051678926 0.008257397
0.05695488 -0.0018341038 0.03982641 0.037455726 0.026772942 0.043707423 0.00387501 0.023158316
0.015067552 0.03970547 0.014624416 0.034239944 0.070818454 0.11205206 0.01677721 0.009929498
0.036385633 0.029606804 0.047757726 0.032945927 -0.03529658 -0.026620714 0.0222697 0.051785078
0.008946612 0.052878693 0.048788264 0.023357883 0.023546038 0.048537694 0.039996043 0.027601225
0.042914074 0.0042732917 0.023601692 0.04345336 0.03405541 0.0060750837 0.024896253 0.058482487
-0.0291666 -0.03317744 0.0068853484 0.039732408 0.032852884 0.040636502 0.007632036 0.050865952
0.0019507656 -0.0207862 0.052193105 0.043505903 0.044488594 -0.000575527 0.009641902 0.059094924
00000000: ca48 55bd 7bdf 20bd 369e 363d 5fd4 e83c
00000010: d2c4 3c3d 3ebb e83c fabd cdbc 5b16 8a3b
00000020: bf0b 353c f282 033d a849 07bd 585a 1cbd
00000030: cbee 033d 107f 2d3d 9a9f 8a3c dc82 bb3c
00000040: 4c5a 823d 8191 c33c 7ced 723c f91a a63c
00000050: a758 0a3d 51eb aebc 51d8 3a3d 5aa5 573d
00000060: f450 ce3c 1c85 a83c e786 8c3d c1c8 a73c
00000070: 2159 ed3b 6544 2d3d 0cff 453d 4784 aeba
00000080: fc42 04bc 1371 5abb ddd1 53bb 23c8 453d
00000090: 33e0 0ab9 f07a 193d fdc3 7c3c 87ec 603d
000000a0: 7a7c 31bd 4107 03bd 01cf f13c eb48 e03c
000000b0: cdc7 873c 9997 173c 49d3 473d 3155 673c
000000c0: ab5e 933b 1bf8 073c 21f3 813c 3c7c 5f3d
000000d0: 12f6 ea3c 08f8 643d 9177 06be df49 06be
000000e0: 1061 173d 15ec 1f3d 1114 513d 14b7 973c
000000f0: 3cff ed3c 823f 893d 82ca 3b3d e0e2 263c
00000100: 599e ea3c 90a6 453d 5285 fa3c 46fd f43c
00000110: b319 4f3d 543e de3c 3457 523d 0e5a d33b
00000120: 1476 503d 601f 003b af3f b23c 9d19 6d3d
00000130: 64c2 c93c 039b b33c 9e39 3b3d 8f1f 213d
00000140: ce24 363d d21c d23c cf01 2d3d d40d 7b3d
00000150: 2d03 3f3d 7c4b b23b 50f2 243d ced2 783d
00000160: 415e 043c 5ab1 283d ce71 7ebd 894e 07bd
00000170: f8ca 1c3d df72 f93c 55da 353c 6dda 0c3d
00000180: cce2 de3c 9d62 203d 20ea f33c 8267 863d
00000190: 0e13 393d 019d 273d 270e f73c 130f ef3c
000001a0: 3ea9 773c 2e60 a63c 9f11 8cbd cba4 80bd
000001b0: 6db5 2bbd a531 12bd bb08 ec3c c747 ab3c
000001c0: 0abf d73c f39e 783d 4cc7 753d a246 b93c
000001d0: 7361 d73c 8034 5a3d e288 03be f1d8 14be
000001e0: d277 e23c 34c7 3e3d aef3 d43c fd44 233d
000001f0: e5f9 913c 6666 3c3d 6bf0 f83b 92e7 3b3d
00000200: 2d3b 393d e289 203d 920c be3c 08ba 043c
00000210: 1f5a c53c 72a3 603c aef0 103d 4c1e 653c
00000220: 52ec 523d 85d9 c93c cda2 a93c f204 cf3c
00000230: 1d55 0c3d bef7 4f3d 5b95 0c3d 3d6d f73a
00000240: 1d83 5e3b c187 413d 5fdd ecbd c131 20be
00000250: a75a eb3c 0ddd 9c3c 2cea 793d 756b 0f3d
00000260: e4b1 983b 5a44 eb3c dffa 293c bbfa 5b3d
00000270: bd0b 123d 4f3e 513b 7b4e 003d 4591 233d
00000280: 230e 2d3d 9f70 c83c 83b8 b03d 94d7 b83d
00000290: f6cf 9fb9 5cb4 4b3c 8689 c33c d15e 783d
000002a0: 11f3 063c e49f c63c f325 443c 4c5e 123c
000002b0: f1ba 623d 4aa3 643c 6f69 393d d410 373d
000002c0: e065 9a3c 99ca 813d 40fa 7e3d b96d a93c
000002d0: 32dd 613d 854e 193d 9ea7 513b ce2c 0b3d
000002e0: 40c3 043d ca75 b83c 3470 a03c d7f0 433d
000002f0: 9c91 3c3d 7f45 833c 4a66 353d a6ec ed3c
00000300: 5762 213c b550 3c3d c578 c43c 29a9 363d
00000310: 1387 b23c 12c8 e93c 48ad 533d 094a 073c
00000320: 8549 693d 5066 f0ba 0521 233d 2d6b 193d
00000330: ee52 db3c 8e06 333d e1f3 7d3b 82b6 bd3c
00000340: e5dd 763c 34a2 223d 3f9b 6f3c 2f3f 0c3d
00000350: 4409 913d 8d7b e53d 5c70 893c 55af 223c
00000360: 1a09 153d f889 f23c 9b9d 433d 4ff2 063d
00000370: 2693 10bd af13 dabc f26e b63c 971c 543d
00000380: cf94 123c 5497 583d 34d6 473d 0859 bf3c
00000390: 9fe3 c03c 76cf 463d e4d2 233d f71b e23c
000003a0: abc6 2f3d f806 8c3b 5658 c13c 27fc 313d
000003b0: b07d 0b3d 7f11 c73b 3af3 cb3c 558b 6f3d
000003c0: cbee eebc 11e5 07bd 7d9e e13b 73be 223d
000003d0: bf90 063d 7672 263d 2916 fa3b d158 503d
000003e0: d5b0 ff3a d247 aabc 70c8 553d 3f33 323d
000003f0: ac39 363d f7de 16ba 11f9 1d3c 850d 723d

lstm.bias_ih_l0 f4 [4000]
-0.005164712 0.0700448 -0.06382306 0.0025207384 0.0494572 0.00020412316 0.061558064 0.019606505
0.106456436 0.05240118 0.10647736 0.04978629 0.06883938 0.06587709 -0.017686997 0.030942574
0.13742237 0.028816631 0.07550674 0.0655741 0.018879525 0.09609481 0.08462035 0.10560901
0.008740587 0.09478741 0.035442337 -0.09715939 0.1432878 0.052333314 0.053362116 0.06362962
0.054612473 0.020957656 0.06726816 0.06531348 0.046955653 -0.034913663 0.086913325 0.10932647
-0.015046827 0.05996597 0.015091258 -0.03914319 0.13292165 0.014486117 0.046409875 0.08002415
0.08996523 0.097587526 0.031366102 0.09068695 0.06453471 -0.039883245 -0.024988301 0.06013839
0.026421154 0.013501141 0.048738506 -0.11403973 0.08121189 0.12634042 0.020360451 0.043987185
0.12461756 0.040055048 0.04105798 0.05880768 0.036388848 0.017989181 0.02478398 0.021270603
0.060621276 -0.099401064 0.051537145 0.023233673 0.022096666 0.07287256 0.041513808 0.062613994
0.07584457 -0.1140792 0.072463624 0.084218785 0.034723654 0.16405503 0.03335589 -0.06946194
0.06864199 0.024043161 0.03534804 0.025400657 0.019878887 0.12969007 0.06634529 0.046203144
0.03481374 0.04033322 0.06452958 0.01833455 0.023461467 0.06541695 0.07944462 -0.048222598
0.037210528 0.011440704 -0.17263412 0.008916269 0.017377889 0.029427659 0.0036650512 0.03521169
0.07010377 0.07797585 0.052884348 0.06539055 0.04809741 0.06374464 0.06588904 0.052693903
-0.036852393 0.06741776 0.03817745 0.042620562 -0.15271133 0.06485364 0.07508008 0.018335864
0.094351225 0.023323229 0.11010515 0.029004615 0.045901056 0.047772642 0.01851891 0.036017977
0.05223727 0.046141606 -0.12849663 0.05216764 0.042448197 0.0341767 0.09303543 0.03228485
0.024409741 0.09908801 -0.03013713 0.07271401 0.027555626 0.02036999 0.07078045 0.0029409938
0.031742133 0.0064839534 -0.16378629 0.07963599 0.011579226 -0.04746679 0.106122054 0.084004894
-0.008153839 -0.105416976 0.030428512 0.0448647 0.106458776 0.02019536 0.06497529 0.03344415
0.067941785 0.09801673 0.063337445 0.040323902 0.08052568 0.050026666 0.07594724 0.16983148
0.016190983 0.11392827 0.06447206 0.021720102 0.10766735 0.0003478969 0.08878395 -0.06268015
0.02280673 0.016185777 0.08307235 0.1341032 0.05277337 0.0027462454 0.05992614 0.050467934
0.031736113 0.036062084 0.019805435 0.11417726 0.033069737 0.06755999 0.05928342 0.037556663
0.038600843 0.191383 0.09078499 -0.0036185142 0.019593144 -0.06262399 0.016702076 0.08482099
0.036744833 0.101628505 0.121100016 0.09382394 0.06443188 0.017032994 0.03992773 -0.0237958
0.07994496 0.049565863 0.10480269 0.01184517 0.09234688 0.09690791 0.047320336 0.013070463
0.05220238 0.07416991 0.045209035 0.10741159 0.030301409 0.0076820822 0.06764588 0.11691087
0.044852193 4.192619e-06 0.09681148 0.08975587 0.035141423 0.030090395 0.071061246 0.097404815
0.108537525 0.0641445 0.0685453 0.10111386 0.021884115 0.046698693 0.03738438 0.05885283
-0.15349048 0.07384924 0.02327737 0.038991675 0.052520305 0.04237908 0.034505084 0.121235475
00000000: bf3c a9bb a673 8f3d aab5 82bd f932 253b
00000010: a293 4a3d e509 5639 4f24 7c3d d29d a03c
00000020: d505 da3d 9fa2 563d cd10 da3d b5ec 4b3d
00000030: a9fb 8c3d 91ea 863d 52e4 90bc 487b fd3c
00000040: 73b8 0c3e db10 ec3c 47a3 9a3d b74b 863d
00000050: 3ca9 9a3c 5bcd c43d 6f4d ad3d 8949 d83d
00000060: ae34 0f3c e71f c23d fc2b 113d 81fb c6bd
00000070: 09ba 123e 755b 563d 3c92 5a3d 3f50 823d
00000080: 54b1 5f3d 64af ab3c e4c3 893d 13c3 853d
00000090: 9254 403d a101 0fbd 9dff b13d 8ee6 df3d
000000a0: f786 76bc e19e 753d 5341 773c 9c54 20bd
000000b0: 9d1c 083e 2e57 6d3c 4818 3e3d b4e3 a33d
000000c0: b13f b83d f8db c73d be79 003d 14ba b93d
000000d0: c62a 843d 9d5c 23bd 44b4 ccbc ac53 763d
000000e0: 2d71 d83c e433 5d3c 07a2 473d a98d e9bd
000000f0: 6b52 a63d 625f 013e f6ca a63c e82b 343d
00000100: 7e37 ff3d c310 243d 6a2c 283d 52e0 703d
00000110: 790c 153d 0c5e 933c c607 cb3c b03f ae3c
00000120: 044e 783d c992 cbbd 9d18 533d 8b54 be3c
00000130: 1104 b53c 353e 953d 620a 2a3d c43b 803d
00000140: 6654 9b3d 5ba2 e9bd cf67 943d e67a ac3d
00000150: 643a 0e3d 0bfe 273e 30a0 083d 1042 8ebd
00000160: 2c94 8c3d 2af6 c43c 1bc9 103d 0a15 d03c
00000170: 0cd9 a23c 79cd 043e 0ae0 873d 823f 3d3d
00000180: da98 0e3d 7234 253d 1628 843d 5732 963c
00000190: 4332 c03c 52f9 853d dcb3 a23d 0f85 45bd
000001a0: 116a 183d ca71 3b3c 00c7 30be 8b15 123c
000001b0: 135c 8e3c 4612 f13c 5b31 703b 223a 103d
000001c0: 9192 8f3d cdb1 9f3d 429d 583d 7beb 853d
000001d0: ca01 453d 8d8c 823d d5f0 863d 90d5 573d
000001e0: 89f2 16bd 5312 8a3d f55f 1c3d e692 2e3d
000001f0: 5c60 1cbe fcd1 843d 96c3 993d 1835 963c
00000200: 373b c13d 5b10 bf3c cf7e e13d 169b ed3c
00000210: bf02 3c3d 3fad 433d f8b4 973c 9687 133d
00000220: bff6 553d fbfe 3c3d 9f94 03be bcad 553d
00000230: 29de 2d3d defc 0b3d 5c89 be3d 1e3d 043d
00000240: f0f6 c73c a8ee ca3d 24e2 f6bc 15eb 943d
00000250: 56bc e13c f7de a63c 57f5 903d b0bd 403b
00000260: 0a04 023d 5877 d43b 98b7 27be 3218 a33d
00000270: cbb6 3d3c 896c 42bd 8556 d93d c20a ac3d
00000280: ae97 05bc dbe4 d7bd 3745 f93c 0cc4 373d
00000290: 0f07 da3d bd70 a53c c411 853d bcfc 083d
000002a0: 1025 8b3d ffbc c83d 10b7 813d ad2a 253d
000002b0: a6ea a43d c3e8 4c3d 3a8a 9b3d 4ee8 2d3e
000002c0: f4a2 843c 3a53 e93d ed09 843d 5bee b13c
000002d0: b380 dc3d ee65 b639 5cd4 b53d 735e 80bd
000002e0: 2ed5 ba3c 0998 843c d621 aa3d 5952 093e
000002f0: e428 583d 5afa 333b 1d75 753d 77b7 4e3d
00000300: bafd 013d d6b5 133d 023f a23c c4d5 e93d
00000310: 2274 073d e45c 8a3d 2cd3 723d 04d5 193d
00000320: eb1b 1e3d e8f9 433e 7bed b93d 9824 6dbb
00000330: cd81 a03c 0241 80bd cbd2 883c a1b6 ad3d
00000340: c081 163d 9b22 d03d 4903 f83d c426 c03d
00000350: ddf4 833d c788 8b3c 428b 233d 69ef c2bc
00000360: 2fba a33d 9305 4b3d cba2 d63d 3e12 423c
00000370: 5c20 bd3d a877 c63d f8d2 413d 7f25 563c
00000380: 2ad2 553d 65e6 973d 1c2d 393d 9cfa db3d
00000390: a93a f83c fab9 fb3b ec89 8a3d f76e ef3d
000003a0: efb6 373d 53ae 8c36 1945 c63d edd1 b73d
000003b0: 74f0 0f3d 2280 f63c 8f88 913d 2d7c c73d
000003c0: ec48 de3d 315e 833d 7a61 8c3d c914 cf3d
000003d0: 5146 b33c 2147 3f3d 5d20 193d aa0f 713d
000003e0: 9c2c 1dbe 453e 973d 2fb0 be3c bcb5 1f3d
000003f0: 881f 573d b095 2d3d 3455 0d3d 4e4a f83d

lstm.bias_hh_l0 f4 [4000]
-0.002240704 0.077346 -0.076992825 5.0477716e-05 0.04720527 -0.015881257 0.064228304 0.019436423
0.082518294 0.055504303 0.15524136 -0.003711466 0.07107782 0.115553565 0.00869064 0.021507572
0.16909915 0.007221384 0.06802224 0.0273758 -0.002217381 0.08295648 0.02927708 0.07402756
0.036923043 0.11555623 0.025475482 -0.14692539 0.17119355 0.043767273 0.10145904 0.05451492
0.043993454 0.013924282 0.048297763 0.08129873 0.06615166 -0.033164095 0.043538105 0.12683521
-0.025764171 0.04830278 0.010367888 -0.03453986 0.1524682 -0.03044358 0.026590519 0.04487704
0.0643244 0.07253639 0.030560575 0.10229329 0.059530955 -0.091369666 -0.022656607 0.047656607
0.06763911 0.050116498 0.038031586 -0.16978164 0.061956022 0.11165098 0.01787634 0.016801553
0.16018994 0.0128231365 0.04416538 0.03292978 0.082851745 0.05092716 0.020553023 0.072786905
0.011369121 -0.080175 0.05358343 0.038406607 0.035977636 0.07960861 0.00075464323 0.072070695
0.06307505 -0.08887034 0.017948706 0.060643934 0.047457293 0.10973225 0.08343246 -0.02409966
0.08560976 0.030669993 0.04660471 0.07425767 0.07608325 0.11871313 0.044390146 0.033913225
0.034906626 0.08571026 0.065597504 0.039946496 0.04689601 0.07817843 0.080191426 -0.055698473
0.048956864 0.061619826 -0.12025182 0.023023468 0.010330818 0.06974328 -0.044045378 0.034335464
0.043773245 0.07863407 0.05122917 0.044722665 0.028728446 0.07596337 0.007908487 0.09193879
0.021210007 0.027247043 0.036564328 0.056046173 -0.1572634 0.07864027 0.021643035 0.027937887
0.03995923 0.058345243 0.12689658 0.039553028 0.08308717 0.028144253 0.029899972 0.05463589
0.02740955 0.070456095 -0.11010349 0.011758914 0.048484094 0.059921224 0.09142854 0.029215198
0.02832142 0.101586916 -0.06341623 0.06108008 0.023412341 0.024861664 0.026332013 0.01084527
0.025621673 0.051702958 -0.15850092 0.04304702 0.01341503 -0.0035951044 0.10538592 0.09003505
-0.0069675986 -0.1437992 0.024957808 0.011386147 0.080943376 -0.003729419 0.07155812 0.043129858
0.090121545 0.06379575 0.058708806 0.04574983 0.030161543 0.024450915 0.09341174 0.1337522
0.02992156 0.11580146 0.046705708 0.024127023 0.09737126 0.0152735775 0.10056312 -0.049821712
0.07988533 0.0026898985 0.10081732 0.123514034 0.018069638 -0.009905398 0.043876085 0.012013677
0.06519835 0.025149839 0.03301727 0.08765986 0.013752294 0.014088925 0.041543815 0.015811812
0.066571936 0.15506278 0.09047415 0.057280734 0.019147344 -0.042565703 0.06411134 0.08952716
0.025469122 0.09780631 0.11858447 0.12786375 0.07323606 0.040235523 0.030677749 -0.02446858
0.05268927 0.011180318 0.09943778 0.016132727 0.13910799 0.082529575 0.020688374 -0.02438393
0.073278956 0.111633055 0.03193686 0.08068929 0.038688347 0.008904813 0.09084839 0.14327899
0.015228829 0.009386701 0.11952512 0.06288991 0.0101916995 0.03767964 0.059216216 0.03932884
0.10775859 0.0827584 0.09569922 0.10978803 0.040511522 0.1019052 0.029717242 0.061036427
-0.15926822 0.059902526 0.04228346 0.07053138 0.06840315 0.056349248 -0.017027266 0.10432923
00000000: c6d8 12bb 9467 9e3d 6aae 9dbd 09b8 5338
00000010: 505a 413d 6919 82bc 218a 833d 2239 9f3c
00000020: 5aff a83d 7b58 633d 97f7 1e3e 113c 73bb
00000030: 4091 913d 59a7 ec3d 3063 0e3c a630 b03c
00000040: 5428 2d3e 5ca1 ec3b 3f4f 8b3d 3743 e03c
00000050: 7b51 11bb 16e5 a93d 7dd6 ef3c c39b 973d
00000060: 9e3c 173d bfa8 ec3d f5b1 d03c 9c73 16be
00000070: 5d4d 2f3e 5045 333d c2c9 cf3d 094b 5f3d
00000080: 7b32 343d ac22 643c e0d3 453d f37f a63d
00000090: 867a 873d 13d7 07bd 0355 323d 17e1 013e
000000a0: 620f d3bc 23d9 453d 13de 293c ab79 0dbd
000000b0: a020 1c3e d164 f9bc 5cd4 d93c fdd0 373d
000000c0: 83bc 833d f58d 943d 2c5a fa3c 257f d13d
000000d0: bbd6 733d 0520 bbbd 599a b9bc 9333 433d
000000e0: 6086 8a3d f546 4d3d 02c7 1b3d 3ddb 2dbe
000000f0: 99c5 7d3d 45a9 e43d 6771 923c 69a3 893c
00000100: d508 243e 2218 523c c2e6 343d 61e1 063d
00000110: 2dae a93d ff98 503d d05e a83c 4d11 953d
00000120: 8d45 3a3c ca32 a4bd 4c7a 5b3d 3f50 1d3d
00000130: 495d 133d d709 a33d 40d3 453a cd99 933d
00000140: 7e2d 813d a701 b6bd 2a09 933c c665 783d
00000150: 9462 423d 4dbb e03d a3de aa3d a66c c5bc
00000160: 2b54 af3d a33f fb3c 95e4 3e3d 6814 983d
00000170: 89d1 9b3d df1f f33d 71d2 353d 98e8 0a3d
00000180: 40fa 0e3d dc88 af3d fc57 863d f09e 233d
00000190: 0816 403d 031c a03d 673b a43d 1524 64bd
000001a0: fe86 483d 1265 7c3d 9646 f6bd b69b bc3c
000001b0: 9742 293c 91d5 8e3d ed68 34bd 58a3 0c3d
000001c0: 934b 333d e60a a13d aed5 513d 1d2f 373d
000001d0: eb57 eb3c af92 9b3d 9992 013c 684a bc3d
000001e0: 9cc0 ad3c 3135 df3c 7ac4 153d ac90 653d
000001f0: a809 21be 260e a13d bc4c b13c ffdd e43c
00000200: 4aac 233d 6cfb 6e3d 2df1 013e 5b02 223d
00000210: 9b29 aa3d c78e e63c c9f0 f43c e2c9 5f3d
00000220: fe89 e03c 494b 903d f07d e1bd 76a8 403c
00000230: 4297 463d f56f 753d e33e bb3d b654 ef3c
00000240: 5302 e83c cd0c d03d 5ee0 81bd 1b2f 7a3d
00000250: 3dcb bf3c b0aa cb3c 3cb6 d73c 5cb0 313c
00000260: 8be4 d13c 7bc6 533d 114e 22be 1252 303d
00000270: b7ca 5b3c d89b 6bbb 93d4 d73d 4c64 b83d
00000280: 7450 e4bb 1940 13be 5174 cc3c f68c 3a3c
00000290: a4c5 a53d 4569 74bb 108d 923d efa8 303d
000002a0: a591 b83d 59a7 823d a578 703d 2c64 3b3d
000002b0: 5715 f73c 494d c83c a84e bf3d 56f6 083e
000002c0: 0f1e f53c 5129 ed3d 7c4e 3f3d 09a6 c53c
000002d0: 956a c73d 073e 7a3c 09f4 cd3d da11 4cbd
000002e0: eb9a a33d 0249 303b 5079 ce3d edf4 fc3d
000002f0: c706 943c 404a 22bc 69b7 333d 03d5 443c
00000300: b686 853d 0907 ce3c 1e3d 073d 0387 b33d
00000310: 4d51 613c 3cd5 663c d929 2a3d c687 813c
00000320: de56 883d c7c8 1e3e 834a b93d 349f 6a3d
00000330: e4da 9c3c 6059 2ebd ce4c 833d 045a b73d
00000340: 9fa4 d03c ad4e c83d 6adc f23d b7ee 023e
00000350: cafc 953d 01ce 243d e74f fb3c 5572 c8bc
00000360: b4d0 573d a72d 373c 09a6 cb3d c828 843c
00000370: 5372 0e3e 4405 a93d aa7a a93c cfc0 c7bc
00000380: 4713 963d df9f e43d 3ad0 023d 6d40 a53d
00000390: ac77 1e3d 7ee5 113c b80e ba3d bab7 123e
000003a0: 5782 793c adca 193c 96c9 f43d 6dcc 803d
000003b0: 16fb 263c f755 1a3d b48c 723d 4717 213d
000003c0: 89b0 dc3d 3c7d a93d f4fd c33d 8cd8 e03d
000003d0: 69ef 253d acb3 d03d 9371 f33c 5501 7a3d
000003e0: 3517 23be 5a5c 753d 6c31 2d3d c272 903d
000003f0: f316 8c3d 78ce 663d c47c 8bbc 90aa d53d

lstm.weight_hr_l0 f4 [2, 1000]
-0.0034516207 -0.053192604 -0.25515366 -0.022091191 0.046154436 0.015404778 0.113211736 -0.8196445
-0.0766434 -0.109440655 -0.07737286 -0.06411918 -0.020314232 0.06161726 -0.04761886 0.050345175
0.04559483 -0.07973804 -0.05469222 -0.08885927 0.021152887 -0.10252009 -0.09583619 0.07496751
-0.1060224 0.09759737 0.08424973 -0.099238835 -0.084353685 -0.09869276 -0.04241069 0.11109108
-0.12007389 0.09662956 0.074631356 -0.10123109 -0.11407223 -0.090512335 -0.08960218 0.07005741
-0.20345971 0.09109545 0.10817809 -0.20001294 -0.077670924 0.010388001 -0.064376816 -0.08962111
0.09461886 0.08444048 -0.16465808 -0.03147738 0.06653864 0.11497511 0.008572837 0.11625687
-0.093914345 -0.10721496 -0.095066145 -0.14160821 0.07636551 0.09303051 -0.09053426 0.15072078
-0.04822299 -0.07466707 0.12230841 -0.08108168 0.070438094 0.06857275 -0.104261756 0.07349396
-0.06638557 -0.16119424 0.09524022 0.06919942 -0.09938046 -0.09857212 0.08395085 0.051722024
-0.09523517 -0.21616362 -0.06590562 -0.09207223 -0.06177092 0.17404646 0.08817505 0.14095071
-0.10019907 0.07183495 0.02989884 -0.07283241 0.10252247 -0.08268571 -0.08825729 0.09538477
-0.09616938 -0.0920936 -0.080970734 -0.08197388 0.0725872 0.093859315 0.09704976 -0.15339962
0.06435834 0.04860096 -0.11850361 -0.04475028 -0.09688569 0.08875339 0.010255629 0.10144686
-0.027622694 0.08780857 -0.042568244 -0.06177487 -0.09136323 -0.08409907 -0.098831825 -0.071826614
0.005692817 0.08262704 0.072461806 0.09079241 0.15218881 0.10265689 0.07065861 0.09380762
-0.052812353 0.085907295 -0.08491343 -0.082284346 -0.083674364 0.09493029 0.16512051 -0.07607446
0.068449944 -0.077909574 0.11639968 0.0837918 0.097698756 0.06401233 0.11201852 0.078201436
-0.12560591 -0.05642059 0.1264197 -0.0946461 -0.071545094 0.08464107 0.10448627 -0.0050337357
-0.10539046 -0.08982467 0.20764582 -0.06202925 0.1322845 -0.0035891107 0.062418386 -0.1023877
0.07964077 0.20340508 -0.15410012 0.14272036 -0.09701842 -0.090858035 0.06123888 0.15462711
0.11807852 0.09545687 -0.094103344 -0.098809265 0.076963246 0.021677217 -0.09890117 -0.06289565
-0.09291626 -0.06723632 0.07584347 -0.08371273 0.103864305 -0.14338693 0.0952023 -0.16469206
0.07609705 -0.09865491 -0.09934812 -0.07324534 -0.050790515 -0.020877449 -0.112934045 0.07815774
0.022165673 0.07662111 0.11362368 -0.048766408 -0.09911917 0.10496727 -0.093084596 0.06813202
-0.015026854 0.1126883 0.086704426 -0.090032436 -0.09816506 0.18323247 -0.09266417 0.02927863
0.03697793 0.079791196 -0.09193795 -0.16796736 -0.09284161 0.047831487 -0.074811995 0.22249591
0.065269254 0.09211205 -0.08861067 0.057904 -0.07432045 0.0814751 0.115930736 0.02420051
0.09221563 -0.08589285 0.108727925 -0.09310694 0.101569846 -0.0879295 0.11209165 0.09422133
0.1031201 0.07860196 -0.09519526 0.09096948 -0.077475674 -0.09182058 -0.08514038 -0.06196203
0.12121386 0.07120117 -0.10099063 0.08073856 -0.09539315 0.14157298 -0.06232256 -0.054851484
0.11894078 -0.07969719 -0.17019667 0.10143253 0.08967732 0.09463056 -0.08781036 0.09865076
00000000: 9634 62bb 7de0 59bd 80a3 82be 96f8 b4bc
00000010: 6f0c 3d3d 5264 7c3c 8edb e73d 39d4 51bf
00000020: 37f7 9cbd 6c22 e0bd a975 9ebd eb50 83bd
00000030: 086a a6bc 6162 7c3d fe0b 43bd be36 4e3d
00000040: a5c1 3a3d b34d a3bd f304 60bd d9fb b5bd
00000050: d248 ad3c 0ef6 d1bd c445 c4bd 9188 993d
00000060: 4622 d9bd 21e1 c73d 1f8b ac3d bb3d cbbd
00000070: a0c1 acbd 6e1f cabd d5b6 2dbd b883 e33d
00000080: 4de9 f5bd b8e5 c53d 53d8 983d 3f52 cfbd
00000090: b49e e9bd 885e b9bd 5981 b7bd 427a 8f3d
000000a0: be57 50be 4090 ba3d 798c dd3d 31d0 4cbe
000000b0: ef11 9fbd 6f32 2a3c fed7 83bd 468b b7bd
000000c0: 88c7 c13d 21ef ac3d 219c 28be 6dee 00bd
000000d0: 6945 883d 1278 eb3d 1675 0c3c 1518 ee3d
000000e0: 2a56 c0bd 8493 dbbd 0ab2 c2bd be01 11be
000000f0: 8565 9c3d c886 be3d 076a b9bd 8c56 1a3e
00000100: 7885 45bd 0ceb 98bd d57c fa3d 270e a6bd
00000110: d941 903d df6f 8c3d 3087 d5bd 0084 963d
00000120: 28f5 87bd 1a10 25be 4e0d c33d 6db8 8d3d
00000130: fc87 cbbd 2ee0 c9bd 6cee ab3d 79da 533d
00000140: a80a c3bd ff59 5dbe 87f9 86bd 5e90 bcbd
00000150: 8103 7dbd 3c39 323e 1f95 b43d 6255 103e
00000160: 2c35 cdbd 341e 933d 69ee f43c 2929 95bd
00000170: 4df7 d13d 2057 a9bd 3dc0 b4bd 1759 c33d
00000180: 74f4 c4bd 929b bcbd fcd3 a5bd ece1 a7bd
00000190: 99a8 943d 5039 c03d 06c2 c63d ca14 1dbe
000001a0: 4ece 833d cd11 473d 05b2 f2bd 124c 37bd
000001b0: 016c c6bd 56c4 b53d 3a07 283c 5fc3 cf3d
000001c0: fd48 e2bc fbd4 b33d 0a5c 2ebd a507 7dbd
000001d0: a51c bbbd 223c acbd 5768 cabd d519 93bd
000001e0: cf8a ba3b 5e38 a93d db66 943d 5ff1 b93d
000001f0: 62d7 1b3e c73d d23d 76b5 903d 361e c03d
00000200: c451 58bd 2af0 af3d 18e7 adbd b284 a8bd
00000210: 775d abbd d06a c23d 5a15 293e edcc 9bbd
00000220: 7c2f 8c3d 0e8f 9fbd f562 ee3d 099b ab3d
00000230: 4916 c83d e518 833d f769 e53d 1328 a03d
00000240: d69e 00be 4719 67bd 2a74 013e d1d5 c1bd
00000250: 3c86 92bd 4c58 ad3d e6fc d53d 09f2 a4bb
00000260: f4d6 d7bd fff5 b7bd 1ba1 543e 6212 7ebd
00000270: 9775 073e 4937 6bbb 6caa 7f3d a4b0 d1bd
00000280: b31a a33d 6c49 503e 6ccc 1dbe 4925 123e
00000290: 98b1 c6bd c713 babd 9fd5 7a3d 9256 1e3e
000002a0: 27d3 f13d e47e c33d 41b9 c0bd 835c cabd
000002b0: e89e 9d3d 6b94 b13c b28c cabd 6fcf 80bd
000002c0: e14a bebd 32b3 89bd d253 9b3d 9471 abbd
000002d0: cfb6 d43d 06d4 12be 6cf9 c23d 09a5 28be
000002e0: c5d8 9b3d 960b cabd 0777 cbbd a701 96bd
000002f0: b709 50bd 2f07 abbc f749 e7bd 2a11 a03d
00000300: c994 b53c 87eb 9c3d 88b3 e83d 49bf 47bd
00000310: fefe cabd 14f9 d63d 23a3 bebd cd88 8b3d
00000320: 3233 76bc 20c9 e63d 1792 b13d ed62 b8bd
00000330: c30a c9bd 4ba1 3b3e b6c6 bdbd bdd9 ef3c
00000340: 2c76 173d 9169 a33d f749 bcbd a3ff 2bbe
00000350: be23 bebd f3ea 433d 0837 99bd f8d5 633e
00000360: e3ab 853d 3ea5 bc3d 8379 b5bd bf2c 6d3d
00000370: 5235 98bd 6bdc a63d 186d ed3d 2640 c63c
00000380: 8cdb bc3d 97e8 afbd bfac de3d daae bebd
00000390: da03 d03d 6214 b4bd 4f90 e53d 1df7 c03d
000003a0: a230 d33d 10fa a03d bcf5 c2bd 354e ba3d
000003b0: 91ab 9ebd 6e0c bcbd 145e aebd e6cb 7dbd
000003c0: f93e f83d ebd1 913d 2dd4 cebd 425a a53d
000003d0: 7c5d c3bd 82f8 103e f145 7fbd f3ab 60bd
000003e0: 3997 f33d 4838 a3bd 0948 2ebe dcbb cf3d
000003f0: bea8 b73d abcd c13d ebd5 b3bd 6909 ca3d

exp_avg f4 [4000, 2]
1.4785977e-05 1.0430299e-05 0.00023719946 0.00019799148 0.00096871576 0.0018764546 3.7762326e-05 3.274763e-05
-1.1787696e-05 -1.26933355e-05 1.3793661e-05 8.960369e-06 0.00045295624 0.00035320877 -0.46425974 -0.43315506
-1.1303124e-05 -1.3852338e-05 0.03992301 0.03418054 -2.89931e-07 -2.4255664e-07 0.0065785917 0.005721856
-1.5315189e-05 -1.9563238e-05 -7.918937e-06 -8.497248e-06 0.0126237795 0.010398255 0.00012426382 -1.4971768e-05
-3.1277813e-07 -2.6349272e-07 0.00012205692 4.4672222e-05 -6.930741e-06 -6.7027327e-06 0.00044721618 0.00034078417
0.00011667308 0.000105369014 -1.0017041e-05 -9.0403055e-06 -3.1883187e-06 -1.8609733e-05 -1.074961e-05 -1.3690446e-05
5.47774e-05 -1.3897075e-05 -1.3086662e-05 -1.6261198e-05 0.00025434257 0.00016649772 0.032449733 0.040574376
-6.6883433e-07 -5.4486907e-07 0.000103883045 8.494886e-05 -1.2201603e-05 -1.0895064e-05 5.6939334e-06 -5.6653357e-06
0.00010067115 0.00010228149 0.00024055109 0.00022815284 -9.783364e-06 -2.0102632e-05 0.015286946 0.012858128
-8.1925755e-06 -1.0469739e-05 -0.019014876 -0.016105339 2.361954e-05 1.7096447e-05 -6.808005e-06 -5.815685e-06
0.0001272586 0.0001606074 0.0040608854 0.003609141 0.00066947105 0.00044050405 0.0013717887 0.0013682825
-1.0254191e-06 -8.67336e-07 2.0081492e-05 1.0710939e-05 6.4016145e-05 1.2461046e-05 1.6078644e-05 3.0918618e-06
-6.586459e-06 -6.643049e-06 -1.764641e-05 -1.0734696e-05 -3.1450447e-05 -3.8102535e-05 -6.7350697e-06 -7.887545e-06
-2.3027933e-05 -3.8813185e-05 -0.027435327 -0.026373407 8.284416e-05 7.0346505e-05 0.033489186 0.029231546
0.0060331277 0.0051655015 0.005917753 0.0052127694 -1.2422244e-05 -1.1974852e-05 -0.004973014 -0.0019991673
-1.3022472e-05 -1.5092327e-05 -4.70105e-06 -4.5310535e-06 0.0010637703 0.00089844986 0.03511519 0.030867847
-2.7489186e-06 -2.8597237e-06 0.0008064186 0.0006123335 0.0004950736 0.00035820116 0.00011775261 5.9202484e-05
-1.559305e-05 -1.26120385e-05 0.029412821 0.025799364 0.003079483 0.0027348928 0.035912715 0.030519318
0.015436031 0.013406437 -0.012559268 -0.00687201 8.170958e-06 -9.620918e-06 0.006360291 0.00548763
9.614032e-05 6.416563e-05 -6.1499277e-06 -5.7599614e-06 8.502323e-06 -3.333539e-05 -1.1562001e-05 -1.2091409e-05
7.0656824e-05 6.086149e-05 0.2454465 0.21729904 0.03626966 0.035863817 -3.3258573e-07 4.086304e-06
0.035309684 0.029597966 -4.0415213e-07 -3.208124e-07 5.1384763e-05 6.1816216e-05 -0.00024041184 -0.00030660516
0.00073390827 0.00064115715 0.001167293 0.0010765103 0.00081985176 0.0007135299 -1.2056155e-05 -1.27072935e-05
3.1978176e-05 1.940365e-05 -3.817779e-06 -4.001511e-06 0.034199834 0.029215684 -9.392131e-06 -2.4354998e-05
0.00011645878 8.351308e-05 6.627572e-05 3.5044035e-05 0.0011705374 0.00092210993 0.00013480612 0.00011658049
-2.2893512e-06 -4.8475226e-06 -1.3548587e-05 -1.5809721e-05 -6.133345e-06 -1.6138734e-05 0.0035568515 0.0054879743
-1.3864632e-05 -1.5923759e-05 0.00021844408 0.00015900664 0.21362928 0.20145102 0.00011383158 0.00010505823
0.01148723 0.009106624 -6.8265676e-06 -2.1181208e-05 5.813629e-05 5.104293e-05 1.802027e-05 -1.6832813e-05
-1.4161397e-05 -3.2946195e-05 -4.1502763e-06 -2.488821e-05 -2.0653608e-05 -1.3239099e-05 4.922297e-05 7.2017397e-06
-4.900751e-06 -4.6564887e-06 0.0007850156 0.0005707522 0.0039355187 0.0034521953 2.960104e-05 2.7856731e-05
6.32714e-05 4.90508e-05 0.035463475 0.030691715 -1.0960659e-05 -1.1933346e-05 -1.5949016e-05 -2.042022e-05
-0.01991975 -0.02105716 2.624471e-05 2.1101052e-05 0.030013826 0.025238398 2.2008318e-05 2.0180849e-05
00000000: 4a11 7837 cbfd 2e37 bfb8 7839 ef9b 4f39
00000010: 6af1 7d3a 5ef3 f53a fd62 1e38 805a 0938
00000020: c5c3 45b7 76f5 54b7 536b 6737 7e54 1637
00000030: c27a ed39 e12e b939 74b3 edbe 80c6 ddbe
00000040: 8ca2 3db7 5767 68b7 4f86 233d e500 0c3d
00000050: d0a7 9bb4 bb38 82b4 3a91 d73b 687e bb3b
00000060: 1e79 80b7 bc1b a4b7 93db 04b7 678f 0eb7
00000070: f8d3 4e3c 715d 2a3c d14c 0239 412f 7bb7
00000080: e6eb a7b4 2a76 8db4 cff8 ff38 6f5e 3b38
00000090: 9d8e e8b6 09e8 e0b6 5778 ea39 47ab b239
000000a0: 62ae f438 8ff9 dc38 dd0e 28b7 d1ab 17b7
000000b0: e6f6 55b6 191c 9cb7 3959 34b7 05b0 65b7
000000c0: c9c0 6538 7c27 69b7 c98e 5bb7 a868 88b7
000000d0: 4859 8539 e495 2e39 03ea 043d 5131 263d
000000e0: f289 33b5 1e43 12b5 c9db d938 9226 b238
000000f0: 7cb5 4cb7 f2c9 36b7 840e bf36 dd18 beb6
00000100: 6a1f d338 f57f d638 713c 7c39 503c 6f39
00000110: 3a23 24b7 13a2 a8b7 1976 7a3c e6aa 523c
00000120: d872 09b7 30a7 2fb7 16c5 9bbc 58ef 83bc
00000130: 9322 c637 576a 8f37 5170 e4b6 5b24 c3b6
00000140: b870 0539 b868 2839 2d11 853b 5787 6c3b
00000150: 717f 2f3a 74f3 e639 97cd b33a f157 b33a
00000160: 22a1 89b5 e0d2 68b5 ad74 a837 22b3 3337
00000170: 6840 8638 c90f 5137 a0e0 8637 c87d 4f36
00000180: 4101 ddb6 5be7 deb6 6007 94b7 2b19 34b7
00000190: a9e9 03b8 49d0 1fb8 cffd e1b6 bf54 04b7
000001a0: 1c2c c1b7 57cb 22b8 0dc0 e0bc 0b0d d8bc
000001b0: 9fbc ad38 fe86 9338 f52b 093d ff76 ef3c
000001c0: 8bb1 c53b 5e43 a93b b6e9 c13b e1cf aa3b
000001d0: 2269 50b7 99e7 48b7 aaf4 a2bb 7604 03bb
000001e0: 177b 5ab7 0d35 7db7 b6bd 9db6 7409 98b6
000001f0: 356e 8b3a f385 6b3a f2d4 0f3d 91de fc3c
00000200: 107a 38b6 aee9 3fb6 d665 533a 0185 203a
00000210: d4c7 013a f2cc bb39 f3f1 f638 2f50 7838
00000220: d2cd 82b7 4b98 53b7 28f3 f03c 3059 d33c
00000230: 27d1 493b e33b 333b 3619 133d a603 fa3c
00000240: 68e7 7c3c aca6 5b3c 63c5 4dbc 992e e1bb
00000250: ff15 0937 8769 21b7 fd69 d03b 94d1 b33b
00000260: f19e c938 a990 8638 7a5b ceb6 b145 c1b6
00000270: 33a5 0e37 9ad1 0bb8 6bfa 41b7 35dc 4ab7
00000280: 982d 9438 8745 7f38 5456 7b3e a483 5e3e
00000290: 7f8f 143d f0e5 123d 3c8e b2b4 161d 8936
000002a0: e3a0 103d 6f77 f23c 3ffa d8b4 1f3c acb4
000002b0: f885 5738 54a3 8138 1017 7cb9 d9bf a0b9
000002c0: c063 403a 5413 283a dbff 983a b119 8d3a
000002d0: 52eb 563a 2e0c 3b3a cb44 4ab7 6931 55b7
000002e0: 4e20 0638 05c5 a237 791a 80b6 b844 86b6
000002f0: 2015 0c3d bb55 ef3c e592 1db7 f64d ccb7
00000300: 553b f438 be23 af38 82fd 8a38 3ffc 1238
00000310: b86c 993a c0b9 713a be5a 0d39 ad7c f438
00000320: c1a2 19b6 e7a7 a2b6 bd4e 63b7 1e9f 84b7
00000330: 08cd cdb6 ab61 87b7 111a 693b 77d4 b33b
00000340: 249c 68b7 0394 85b7 230e 6539 05bb 2639
00000350: a2c1 5a3e 2d49 4e3e ddb8 ee38 b552 dc38
00000360: ef34 3c3c f333 153c c50f e5b6 4cae b1b7
00000370: 5ed7 7338 ee16 5638 3c2a 9737 3134 8db7
00000380: bd96 6db7 b52f 0ab8 9a42 8bb6 06c7 d0b7
00000390: 4941 adb7 7f1d 5eb7 c374 4e38 79a6 f136
000003a0: 2171 a4b6 ef3e 9cb6 81c9 4d3a 889e 153a
000003b0: 86f5 803b 3a3e 623b c04f f837 e0ad e937
000003c0: 93b0 8438 e5bb 4d38 2642 113d 316d fb3c
000003d0: ace3 37b7 5535 48b7 40ca 85b7 174c abb7
000003e0: be2e a3bc 1180 acbc 1628 dc37 2a02 b137
000003f0: 8edf f53c c2c0 ce3c 819e b837 0b4a a937

exp_avg_sq f4 [4000, 2]
4.5339007e-06 4.13115e-06 0.00023941338 0.00022211716 0.010406781 0.007882382 6.612227e-05 6.0621667e-05
3.0800945e-06 2.8230825e-06 5.309854e-05 4.8858103e-05 0.00035539613 0.00032475547 3.065754 2.9058542
1.635209e-05 1.5125897e-05 0.1354938 0.12584223 9.605682e-10 8.741809e-10 0.0035767623 0.0032935329
4.313307e-06 4.0577415e-06 1.1433053e-06 1.0385781e-06 0.010654087 0.009874939 0.0006285136 0.0005803997
7.2128864e-10 6.562644e-10 0.0005749454 0.000530467 3.7746403e-07 3.4547298e-07 0.000686132 0.00062838994
0.00030313208 0.00027707432 1.4306502e-06 1.282662e-06 6.956159e-05 6.343612e-05 1.0567686e-06 9.963645e-07
0.0008124225 0.0007462447 1.68366e-06 1.5683034e-06 0.00032590795 0.0003007131 0.039041284 0.04286826
3.3704737e-09 2.9300435e-09 0.00027645694 0.00025277393 3.5785897e-06 3.285078e-06 4.7860194e-05 4.367979e-05
8.035456e-05 7.2152085e-05 0.0011670493 0.0010441433 2.133734e-05 1.9680896e-05 0.007843892 0.007246288
8.107352e-06 7.3225665e-06 0.026022445 0.02147441 6.991477e-05 6.3377614e-05 3.3592423e-07 3.0090428e-07
0.00022489743 0.0002094874 0.00059734524 0.00054460106 0.0018606897 0.001711045 0.0011907298 0.0010158344
6.2510415e-09 5.394868e-09 0.00035016632 0.0003265677 0.0001812577 0.0001683968 0.0001104019 0.00010119284
3.4415837e-07 3.1699116e-07 8.7758835e-06 7.804184e-06 6.937643e-06 6.4172764e-06 4.0122765e-07 3.7770775e-07
1.2589175e-05 1.1774421e-05 0.015489025 0.013436824 9.404772e-05 8.754016e-05 0.075922586 0.070615284
0.0016046456 0.0014809717 0.0013393856 0.0012366459 4.3200707e-06 3.9225624e-06 0.027123595 0.025714697
3.7716993e-06 3.4586096e-06 1.9834125e-07 1.7913015e-07 0.0014517502 0.0013251364 0.09919372 0.09252813
4.6370694e-08 4.3433747e-08 0.0033562537 0.003087461 0.0006579806 0.0005978469 0.00036505755 0.0003352986
5.1121424e-06 4.6240875e-06 0.051244143 0.04751012 0.0007952206 0.0007333139 0.092322 0.085724846
0.00902991 0.008298501 0.029982097 0.02988518 0.00011281753 0.00010330114 0.0010392495 0.00097271614
0.00031801278 0.00029148703 4.0481456e-07 3.6136657e-07 0.00041801162 0.00038740374 3.6199592e-06 3.3781293e-06
7.788618e-05 7.058996e-05 0.40374485 0.44251692 0.06251206 0.056389038 2.7414002e-05 2.4673807e-05
0.07778523 0.07261681 8.11413e-10 7.074765e-10 5.99486e-05 5.356596e-05 0.00047996055 0.00045945888
0.00019256833 0.00017476754 0.0009935229 0.0009229738 0.0015243248 0.0014026127 1.3175695e-06 1.2057644e-06
6.648707e-05 6.0634986e-05 1.16234965e-07 1.0621861e-07 0.09824435 0.09179599 2.2506249e-05 2.0830415e-05
0.00024142362 0.00022025271 0.00010514039 9.6028976e-05 0.0034025218 0.0031645924 0.00020190774 0.00018437844
6.071798e-05 5.564173e-05 3.6554354e-06 3.3638212e-06 1.6240105e-05 1.5102141e-05 0.0015573862 0.0015055315
5.328594e-06 4.889031e-06 0.00047842792 0.0004393577 0.20747323 0.23509072 0.0009281562 0.000847165
0.005070003 0.0047240662 2.5572652e-05 2.3629977e-05 0.00031523412 0.00028717966 7.384189e-05 6.800155e-05
3.1111675e-05 2.9317163e-05 5.4958928e-05 5.052822e-05 5.7864313e-06 5.1627508e-06 9.945847e-05 9.254682e-05
2.8100196e-06 2.5229308e-06 0.0012487589 0.001151113 0.014819741 0.013620501 5.2702846e-05 4.8182097e-05
0.0007169334 0.00065970956 0.07402216 0.068870395 3.0157184e-06 2.7859362e-06 9.309909e-06 8.547368e-06
0.32866433 0.29290298 4.8461803e-05 4.3743505e-05 0.069810666 0.065040246 0.00022930227 0.00020779167
00000000: e921 9836 4f9e 8a36 0a0b 7b39 1fe8 6839
00000010: 3481 2a3c 1b25 013c 20ab 8a38 0544 7e38
00000020: 9fb3 4e36 3074 3d36 20b6 5e38 fdec 4c38
00000030: 7654 ba39 f143 aa39 5035 4440 84f9 3940
00000040: d92b 8937 3cc5 7d37 e3be 0a3e c9dc 003e
00000050: fd04 8430 034b 7030 1d68 6a3b 50d8 573b
00000060: 06bb 9036 bc27 8836 ac73 9935 4665 8b35
00000070: 7b8e 2e3c 7fca 213c d5c2 243a f725 183a
00000080: 2d44 4630 8064 3430 efb7 163a 0a0f 0b3a
00000090: 43a6 ca34 7279 b934 8add 333a 89ba 243a
000000a0: b3ed 9e39 4944 9139 c404 c035 ee27 ac35
000000b0: 98e1 9138 0209 8538 4bd6 8d35 d3ba 8535
000000c0: c0f8 543a a29f 433a 1efa e135 7f7e d235
000000d0: a0de aa39 07a9 9d39 c1e9 1f3d a196 2f3d
000000e0: 009e 6731 df59 4931 6cf1 9039 be86 8439
000000f0: b427 7036 3675 5c36 7ebd 4838 d134 3738
00000100: 0784 a838 5b50 9738 adf7 983a a3db 883a
00000110: 97fd b237 6718 a537 ab83 003c 4572 ed3b
00000120: d004 0837 5eb4 f536 062d d53c 1aeb af3c
00000130: 359f 9238 99e9 8438 1359 b434 f88b a134
00000140: 72d2 6b39 d9a9 5b39 2997 1c3a 8fc3 0e3a
00000150: 63e2 f33a 2545 e03a 4312 9c3a bf25 853a
00000160: bec8 d631 c35d b931 8796 b739 2d37 ab39
00000170: fe0f 3e39 ac93 3039 9287 e738 7e37 d438
00000180: c4c4 b834 ef2e aa34 223c 1337 b7ee 0237
00000190: e6c9 e836 fc53 d736 4f68 d734 c2c7 ca34
000001a0: 1836 5337 c18a 4537 aec5 7d3c 2026 5c3c
000001b0: 7c3b c538 c495 b738 4d7d 9b3d bf9e 903d
000001c0: f952 d23a 2a1d c23a 538e af3a f316 a23a
000001d0: 20f5 9036 8e9e 8336 4d32 de3c a1a7 d23c
000001e0: 4d1d 7d36 761a 6836 a1f7 5434 ec56 4034
000001f0: a748 be3a 33b0 ad3a 1426 cb3d 637f bd3d
00000200: 1e29 4733 e98b 3a33 98f4 5b3b 0057 4a3b
00000210: 557c 2c3a d4b8 1c3a 3265 bf39 04cb af39
00000220: f888 ab36 9c28 9b36 61e5 513d f999 423d
00000230: 5a76 503a dd3b 403a 5113 bd3d 8290 af3d
00000240: 30f2 133c 70f6 073c 049d f53c c4d1 f43c
00000250: 7398 ec38 61a3 d838 6d37 883a e0fd 7e3a
00000260: f4ba a639 bad2 9839 4a55 d934 d801 c234
00000270: 9228 db39 731c cb39 6dee 7236 d2b3 6236
00000280: d356 a338 b209 9438 a5b7 ce3e 9491 e23e
00000290: 5306 803d 31f8 663d 1ff7 e537 99fa ce37
000002a0: dd4d 9f3d 1fb8 943d 1d0a 5f30 3c78 4230
000002b0: 5271 7b38 03ac 6038 37a3 fb39 87e3 f039
000002c0: 2bec 4939 ce41 3739 1939 823a b9f3 713a
000002d0: dacb c73a dfd7 b73a 58d7 b035 c0d5 a135
000002e0: f96e 8b38 5252 7e38 d99c f933 4c1a e433
000002f0: 5534 c93d 89ff bb3d cdcb bc37 fabc ae37
00000300: a926 7d39 a3f3 6639 d17e dc38 2a63 c938
00000310: d8fc 5e3b 0d65 4f3b 32b7 5339 b655 4139
00000320: 6fab 7e38 da60 6938 e74f 7536 02be 6136
00000330: 5c3b 8837 345f 7d37 3621 cc3a 4155 c53a
00000340: 46cc b236 750c a436 82d5 fa39 9859 e639
00000350: dd73 543e 9fbb 703e 824f 733a 4814 5e3a
00000360: 4522 a63b 57cc 9a3b da84 d637 fd38 c637
00000370: 0246 a539 9a90 9639 90db 9a38 0e9c 8e38
00000380: e87d 0238 21ee f537 b383 6638 43ee 5338
00000390: 1129 c236 b13b ad36 5c94 d038 b215 c238
000003a0: c593 3c36 9f4f 2936 65ad a33a f1e0 963a
000003b0: 80ce 723c 8628 5f3c 400d 5d38 2217 4a38
000003c0: 96f0 3b3a 5cf0 2c3a ee98 973d ec0b 8d3d
000003d0: a661 4a36 05f6 3a36 c131 1c37 ab66 0f37
000003e0: b146 a83e 61f7 953e 7743 4b38 3b79 3738
000003f0: e5f8 8e3d d233 853d dc70 7039 a7e2 5939
