lightning_logs/version_70/checkpoints/epoch=12-step=5057.ckpt (torch, 321461 bytes, 18 tensors)

station_embedding.weight f4 [70, 2]
0	0xbd99246a	-0.074776486
1	0xbf7f6ef4	-0.99778676
2	0xbf09626b	-0.536658
3	0x4037a9ac	2.869731
4	0xbe1e7ebd	-0.15478034
5	0xbf5ffa3e	-0.87491214
6	0x3f2250ee	0.6340474
7	0xbfd6d802	-1.678467
8	0xbfc871d8	-1.5659742
9	0xbfaf4ba7	-1.3694962
10	0xc078fb84	-3.8903513
11	0xc029015b	-2.6407077
12	0x3fd29637	1.6452092
13	0x3fea66c6	1.8312614
14	0x3e791b4e	0.24326822
15	0x3fe63a45	1.7986532
16	0xbffa7fd4	-1.957026
17	0xc0021e42	-2.0330968
18	0xbf99169c	-1.1960025
19	0x3d722664	0.059118643
20	0x3f70e663	0.9410154
21	0x400db833	2.2143676
22	0x3fc82247	1.5635461
23	0x3ff8112a	1.9380238
24	0x3fd88208	1.6914682
25	0x3f9c00c7	1.2187737
26	0x3f7f7346	0.9978527
27	0x3f046f22	0.51732075
28	0x3f13bc98	0.57709646
29	0x3f59dbec	0.851012
30	0x3fa37db4	1.2772737
31	0x3fa28a3e	1.2698438
32	0xc009088c	-2.1411467
33	0x3ee2c8be	0.4429378
34	0x3f652424	0.8950827
35	0x402ea1ee	2.7286334
36	0xbfb379e6	-1.4021575
37	0xbeb1b897	-0.34711143
38	0x3c207302	0.009793045
39	0xc022d9db	-2.5445468
40	0x3bfc35ba	0.0076968344
41	0x3f42765c	0.7596185
42	0xbf72a972	-0.94789803
43	0x3ef37c98	0.47555995
44	0x3df52dc1	0.119716175
45	0x3f842f95	1.0327021
46	0x3f9627d0	1.17309
47	0x3f37fe9c	0.7187288
48	0x400d64a8	2.2092686
49	0x3f7e6241	0.99368674
50	0xbdb24a7b	-0.08705612
51	0xc055e793	-3.3422592
52	0xbfe6e178	-1.8037558
53	0x3fe83d85	1.8143774
54	0xbfbde3bc	-1.4835124
55	0x40088187	2.1329057
56	0xbf47cc28	-0.7804589
57	0x3f5fd5be	0.8743552
58	0xbfa2313a	-1.2671273
59	0x3e6d2c3c	0.23161405
60	0xc009ebe3	-2.1550224
61	0xbf086bfb	-0.53289765
62	0x3e87f689	0.2655528
63	0x3f79c08d	0.97559434
64	0x3e3bffcf	0.18359302
65	0xbfbe42ac	-1.4864097
66	0xbfdf4d45	-1.7445456
67	0xbfb354bb	-1.4010233
68	0xbfcc37f9	-1.5954581
69	0xbf25b2e7	-0.6472611
70	0x3e6bc9c0	0.2302618
71	0x3fa58044	1.2929769
72	0x401c0d78	2.438322
73	0x3fa6a8e9	1.3020297
74	0x3bfff31b	0.007810963
75	0xbf584ec4	-0.84495187
76	0xbeebef28	-0.460809
77	0x3f399e21	0.7250691
78	0x400c3085	2.1904614
79	0x3fd6d25d	1.6782948
80	0x3ea69c19	0.32540968
81	0x3f4f30fd	0.80934125
82	0xbeb92a09	-0.36164883
83	0xbe04f35a	-0.12983456
84	0xbf70b6e9	-0.940291
85	0x3eba7e12	0.3642431
86	0x3faaa48e	1.3331468
87	0x3f34ba82	0.7059709
88	0x4020b811	2.5112345
89	0x3f56e56a	0.8394381
90	0x3f4d45fb	0.80184907
91	0x401a599c	2.4117193
92	0x3fb8d96d	1.4441353
93	0x4006fa6d	2.1090348
94	0x3e1c3ef5	0.15258391
95	0x3f879756	1.0593059
96	0x3f4dfedd	0.80467016
97	0xbf452a29	-0.77017456
98	0x3c26d83d	0.010183391
99	0x3e81dd35	0.2536408
100	0xc005e9ec	-2.0924025
101	0xc0984f53	-4.759683
102	0x3fe4eeba	1.7885354
103	0x3f845735	1.0339113
104	0x3d87e43b	0.066353284
105	0xbf79c4c1	-0.9756585
106	0xbdfe096a	-0.12404139
107	0xbf0619c4	-0.52383065
108	0xc0846776	-4.1376295
109	0xc0194694	-2.3949327
110	0xbfd14013	-1.6347679
111	0xbf708e19	-0.93966824
112	0x3f3aea3a	0.7301365
113	0x401a442b	2.4104106
114	0xbf27dd67	-0.6557221
115	0xbd189d99	-0.03725967
116	0x3f906918	1.1282072
117	0x3f930ff8	1.1489248
118	0x3f1a9111	0.60377604
119	0xbf307d78	-0.6894145
120	0x3f977af7	1.1834401
121	0x403733d9	2.8625395
122	0xc028b7bf	-2.636215
123	0xbfe3cb5c	-1.7796435
124	0xbf47f817	-0.7811293
125	0xc0327a5b	-2.788718
126	0x40283eb8	2.628828
127	0x3f672238	0.9028659
128	0xbd4ba4fe	-0.049717896
129	0x3fc4a06f	1.536146
130	0xbfb81e41	-1.4384233
131	0x4008d225	2.1378262
132	0xc031830b	-2.7736232
133	0xbf7bc408	-0.98345995
134	0xbfb1cdb7	-1.3890904
135	0xc005a315	-2.0880787
136	0x3fede2cd	1.8584839
137	0xbe8b30a4	-0.27185547
138	0x3f5adb7d	0.8549116
139	0xbf387cef	-0.72065634

lstm.weight_ih_l0 f4 [4000, 2]
0	0x3d1261b8	0.035737723
1	0x3d621040	0.05519128
2	0x3d486705	0.048926372
3	0x3d88b28b	0.06674679
4	0xbe9b9ec6	-0.30394572
5	0xbe1e7163	-0.15472941
6	0x3d6a690e	0.057229094
7	0x3d750a6a	0.059824385
8	0x3d910cf9	0.070825525
9	0x3da77045	0.081757106
10	0xbd3186e0	-0.043341517
11	0xbd1978c4	-0.037468687
12	0x3d85cb22	0.06532885
13	0x3cdd9052	0.027046356
14	0x3da1e752	0.07905449
15	0x3cbb3dbc	0.022856586
16	0x3da52ef4	0.08065596
17	0x3d65f6db	0.056143623
18	0x3d926938	0.07148975
19	0x3d89dd92	0.06731714
20	0xbd2be428	-0.041965634
21	0xbd09dd0b	-0.03365807
22	0x3d2e2850	0.042518914
23	0x3d26f513	0.040761065
24	0xbd2d7c32	-0.04235477
25	0xbd23e3f2	-0.040012307
26	0x3d686cab	0.05674426
27	0x3ce70f0f	0.028205423
28	0x3d12d4e4	0.03584756
29	0x3d925461	0.07145
30	0x3cc56598	0.024096295
31	0x3d9d41a5	0.07678536
32	0xbcb82f54	-0.022483505
33	0xbd68aa6c	-0.056803152
34	0x3d010ba2	0.031505235
35	0x3d4ceb36	0.050029002
36	0x3cf8ce4f	0.030371813
37	0x3cbb6a97	0.022877974
38	0x3d74539f	0.05965006
39	0x3db169b0	0.086627364
40	0x3d24e0c4	0.040253416
41	0x3dac809c	0.08422968
42	0x3cf7f438	0.03026782
43	0x3d5bf8da	0.05370412
44	0x3cb61ec1	0.022231461
45	0x3da46d72	0.080286875
46	0x3d4877f5	0.048942525
47	0x3d0dedd5	0.034650642
48	0x3d873a80	0.06602955
49	0x3d2513b5	0.040301997
50	0x3d44cec8	0.048048764
51	0x3d2051b5	0.039140422
52	0x3d546d8c	0.051862285
53	0x3db70697	0.08936804
54	0x3d8e73cd	0.06955681
55	0x3cb8797d	0.022518868
56	0x3d78dcc2	0.060757406
57	0x3ce672bc	0.028130881
58	0xbe120868	-0.14261019
59	0xbe942216	-0.28932256
60	0x3d92dff8	0.07171625
61	0x3d845cb4	0.06462994
62	0xbd211943	-0.039330732
63	0xbd5af217	-0.05345353
64	0x3d92f0c7	0.07174831
65	0x3d3ed797	0.04659232
66	0x3d4b770c	0.04967408
67	0x3d728ddc	0.05921732
68	0x3d560d8b	0.05225901
69	0x3d4d7e6e	0.0501694
70	0x3d4d9bc1	0.050197367
71	0x3d21051b	0.03931151
72	0x3d858124	0.06518772
73	0x3d91cf21	0.07119585
74	0x3d423fb4	0.047424033
75	0x3dba9123	0.09109714
76	0x3ce9231d	0.028459126
77	0x3d3737ce	0.044730954
78	0x3d8f0db0	0.069850326
79	0x3d058e69	0.032606516
80	0x3d2ba99b	0.041909795
81	0x3d145b02	0.036219604
82	0xbd8bd838	-0.0682835
83	0xbd95fb6b	-0.07323345
84	0x3d6f325a	0.05839763
85	0x3d84ebd6	0.06490295
86	0x3c70c962	0.014696451
87	0x3d2aa0fe	0.04165744
88	0x3d9ceee3	0.076627515
89	0x3d6f9605	0.05849268
90	0xbd8172a8	-0.06320697
91	0xbd151f3f	-0.03640675
92	0x3d392fd7	0.04521164
93	0x3db4aeb9	0.08822388
94	0x3d55fd2f	0.052243408
95	0x3cc44791	0.023959907
96	0x3d1918f4	0.037377313
97	0x3d5d4706	0.05402281
98	0x3d681362	0.05665911
99	0x3d671f87	0.05642655
100	0x3d1ae653	0.03781731
101	0x3d1f93c4	0.03895928
102	0x3d6ccb55	0.0578111
103	0x3d012f59	0.031539295
104	0x3da99e83	0.08282187
105	0x3d581e79	0.052763436
106	0x3cc8df03	0.024520403
107	0x3d52ec63	0.051494967
108	0xbc939f29	-0.01802023
109	0xbd1d55cd	-0.038411904
110	0x3d81bd5c	0.063349456
111	0x3da26608	0.07929617
112	0x3d17006b	0.036865633
113	0x3d47fbfb	0.04882429
114	0xbebef2e4	-0.37294686
115	0xbebbc5c3	-0.36674318
116	0xbd0c20a2	-0.03421081
117	0xbd533657	-0.051565494
118	0x3cd17d70	0.025572509
119	0x3d9a4c4e	0.07534085
120	0x3d8b1286	0.067906424
121	0x3d0a1fc4	0.0337217
122	0x3d316681	0.043310646
123	0x3d004650	0.031317055
124	0x3d3cbffb	0.046081524
125	0x3d430e6c	0.047621176
126	0x3d89b9f0	0.06724918
127	0x3d2d0d6d	0.042249132
128	0x3d4b1644	0.04958178
129	0x3d04a00c	0.032379195
130	0x3d0c7df0	0.03429979
131	0x3be77ccb	0.007064437
132	0x3d456fbc	0.04820226
133	0x3da20388	0.0791083
134	0x3d4357e1	0.04769123
135	0x3d27f059	0.041000698
136	0x3d84a0da	0.064759925
137	0x3d0e7b0d	0.03478532
138	0x3d8cd39b	0.06876298
139	0x3d90c504	0.07068828
140	0x3d89fb87	0.06737428
141	0x3cfcc390	0.03085497
142	0x3cb3e932	0.021961782
143	0x3da0b9bf	0.07847928
144	0x3d3909ad	0.045175243
145	0x3d2ec11f	0.042664643
146	0x3cf8f9e7	0.0303926
147	0x3d6638e1	0.056206588
148	0x3d0dfae5	0.0346631
149	0x3d6f4a3f	0.058420416
150	0x3d92202d	0.07135043
151	0x3d94a529	0.07258064
152	0x3d8d77f2	0.069076434
153	0x3d2504a4	0.04028763
154	0x3d962ebe	0.07333134
155	0x3d1c9c26	0.038234852
156	0x3d1ce596	0.038304888
157	0x3d9644fb	0.07337376
158	0x3d63824f	0.055544194
159	0x3c894444	0.016756184
160	0x3db18ba8	0.086692154
161	0x3d754d9e	0.059888475
162	0x3d84745a	0.06467505
163	0x3d78843b	0.06067298
164	0x3d94cd39	0.072657056
165	0x3c69487c	0.014238473
166	0xbd686740	-0.056739092
167	0xbc7d0e17	-0.015445254
168	0xbc95eb6e	-0.018300738
169	0xbd9665a7	-0.073436074
170	0x3d7b259e	0.06131517
171	0x3d195123	0.037430894
172	0x3d7210f0	0.059098184
173	0x3d9395d4	0.07206312
174	0x3d520ff0	0.05128473
175	0x3d0469c6	0.032327436
176	0x3d6cb8a2	0.057793267
177	0x3d7066e4	0.058691874
178	0x3d4b55df	0.04964244
179	0x3d01d054	0.031692818
180	0x3d911c12	0.07085432
181	0x3cf327e2	0.029682104
182	0x3cdfebdd	0.027334148
183	0x3d09efd7	0.033675995
184	0xbe9c4d19	-0.3052757
185	0xbeb13d7c	-0.3461722
186	0x3d1bd4fa	0.038044907
187	0x3dbe67dd	0.09297154
188	0x3d85c494	0.06531635
189	0x3d9c148b	0.07621106
190	0x3d696ca4	0.056988373
191	0x3d1d3771	0.03838295
192	0x3d5ae34e	0.05343943
193	0x3d16edec	0.036847994
194	0x3d27d95a	0.040978767
195	0x3d9617de	0.07328771
196	0x3d1492f7	0.03627297
197	0x3d1eec83	0.038799774
198	0x3ca76d5b	0.020437887
199	0x3d1c1c13	0.03811271
200	0x3da3e76a	0.08003123
201	0x3d25af0f	0.040450152
202	0x3d74a694	0.059729174
203	0x3d250881	0.040291313
204	0x3d7d413b	0.061829787
205	0x3d322158	0.04348883
206	0x3d1956e2	0.037436374
207	0xbb98c359	-0.004661959
208	0x3cd0cbae	0.025487747
209	0x3cae3986	0.021267664
210	0x3d2aeb3d	0.041728247
211	0x3d82a60d	0.06379328
212	0x3c89dffe	0.01683044
213	0x3d15fd32	0.03661842
214	0x3d196860	0.037453055
215	0x3d465de0	0.04842937
216	0x3cf42a9d	0.029805476
217	0x3da01043	0.07815602
218	0x3d4914d2	0.04909212
219	0x3d8b5162	0.06802632
220	0x3d585540	0.052815676
221	0x3b9a40ac	0.0047074165
222	0x3d078fea	0.03309623
223	0x3d0f14e3	0.03493203
224	0x3d7be628	0.06149879
225	0x3cdf0ed5	0.027228752
226	0x3d568bc5	0.05237939
227	0x3ce4f34f	0.02794805
228	0x3da4aa27	0.080402665
229	0x3d4c7814	0.049919203
230	0x3d6a797f	0.057244774
231	0x3d01dbb2	0.03170366
232	0x3d2a8522	0.04163087
233	0x3d98a7ef	0.07453906
234	0x3d50d822	0.05098737
235	0x3d4c848e	0.0499311
236	0x3d8e338f	0.06943428
237	0x3d8345ed	0.06409822
238	0x3d871a73	0.06596842
239	0x3d58c08f	0.052918013
240	0x3d06f256	0.032945953
241	0x3d66bca4	0.056332245
242	0x3d8cee39	0.06881375
243	0x3d3ad371	0.045611802
244	0xbd509a22	-0.050928243
245	0xbc925f55	-0.017867723
246	0x3cd37218	0.02581124
247	0x3d5242c2	0.051333196
248	0x3d203c0d	0.03911977
249	0x3d312ee9	0.043257628
250	0x3d914870	0.070938945
251	0x3d2ef683	0.04271556
252	0x3cb6ebbf	0.02232921
253	0x3d7e0bef	0.0620231
254	0x3d8275d6	0.06370132
255	0x3d514bf5	0.05109783

lstm.weight_hh_l0 f4 [4000, 2]
0	0x3cbad7cb	0.022807976
1	0x3d1d428e	0.03839355
2	0x3d68d58c	0.05684428
3	0x3d045544	0.032307878
4	0x3ec6d2fc	0.38832843
5	0x3dbaabef	0.09114825
6	0x3d13b457	0.036060657
7	0x3da717dc	0.08158848
8	0x3cd81dcb	0.026381394
9	0x3d44db9a	0.04806099
10	0xbd3b510f	-0.0457316
11	0xbda20488	-0.079110205
12	0x3d7578f9	0.05992982
13	0x3d42d121	0.047562722
14	0x3ce3ca44	0.027806409
15	0x3d1e49dc	0.038644657
16	0x3d89f0b1	0.06735361
17	0x3d4b7be2	0.04967869
18	0x3d8e5aba	0.069508985
19	0x3d87bb27	0.06627493
20	0x3cb8611f	0.022507248
21	0x3c57b8bb	0.013166602
22	0x3c9833e4	0.01857943
23	0x3d2f64c7	0.04282072
24	0xbd5feec7	-0.054671075
25	0xbd3dbff7	-0.04632565
26	0x3c66f299	0.014095926
27	0x3d432d6e	0.047650747
28	0x3d6a5962	0.05721415
29	0x3d014336	0.031558238
30	0x3cf5c8c6	0.030002963
31	0x3da3edfb	0.080043755
32	0x3ca95c58	0.020673916
33	0xbced6e4b	-0.028983256
34	0x3d012450	0.03152877
35	0x3d375e15	0.044767458
36	0x3da3ccba	0.07998033
37	0x3d28f7e9	0.04125205
38	0x3cfffbb0	0.031247944
39	0x3d34fcee	0.044186525
40	0x3d6a84d5	0.057255585
41	0x3da3fd42	0.080072895
42	0x3d3eff14	0.04662998
43	0x3cfbb1ba	0.030724395
44	0x3cd37664	0.025813289
45	0x3cb75c0c	0.022382759
46	0x3d83d180	0.06436443
47	0x3d594958	0.05304846
48	0x3cae92a4	0.021310158
49	0x3d42ca5e	0.047556274
50	0x3d020e4d	0.03175192
51	0x3d34ab19	0.044108484
52	0x3d09c906	0.033638977
53	0x3d89646f	0.06708609
54	0x3da328fa	0.079668
55	0x3d0c98b8	0.03432533
56	0x3d3a8ef4	0.045546487
57	0x3d87272d	0.06599269
58	0x3ee58699	0.44829252
59	0x3ea44db4	0.32090533
60	0x3d1bb5f7	0.038015332
61	0x3d3eb0b3	0.046555232
62	0xbd0d038e	-0.03442722
63	0xbd9173c7	-0.07102161
64	0x3d239d09	0.039944682
65	0x3ccf544f	0.025308756
66	0x3d9445df	0.07239889
67	0x3d56df45	0.05245902
68	0x3d764878	0.060127705
69	0x3bc15582	0.005900086
70	0x3d9f1c0c	0.077690214
71	0x3d259227	0.040422585
72	0x3d337b55	0.04381879
73	0x3d40dc63	0.047085177
74	0x3d37d9eb	0.044885557
75	0x3d0f1114	0.034928396
76	0x3d8123e3	0.06305673
77	0x3d25857b	0.0404105
78	0x3bf178ea	0.0073691504
79	0x3d6cc8ad	0.057808567
80	0xba272c75	-0.0006377169
81	0x3d991428	0.074745476
82	0xbd6509b1	-0.055917446
83	0xbda18664	-0.07886961
84	0x3cf68cdb	0.030096462
85	0x3d375baa	0.044765152
86	0x3d6e82db	0.058230262
87	0x3d635c61	0.05550802
88	0x3d0791aa	0.0330979
89	0x3db44637	0.08802455
90	0xbd5b18ff	-0.053490635
91	0xbdcf2c83	-0.10115912
92	0x3d86823d	0.0656781
93	0x3dac970c	0.084272474
94	0x3d362e3f	0.044477697
95	0x3d6c9f28	0.05776897
96	0x3d1989b8	0.037484854
97	0x3d691cf6	0.056912385
98	0x3d3f904c	0.04676847
99	0x3ce05da0	0.027388394
100	0x3d78646b	0.06064264
101	0x3d8976ec	0.06712136
102	0x3ccdf346	0.025140416
103	0x3da70a10	0.08156216
104	0x3d5b585e	0.05355107
105	0x3dbf7778	0.09348959
106	0x3d2019bf	0.039087053
107	0x3d13d7fa	0.036094643
108	0xbd0c4b0b	-0.034251254
109	0xbd57f72f	-0.052725967
110	0x3d8e3415	0.069435276
111	0x3d8e51fd	0.06949232
112	0x3d5deda9	0.05418173
113	0x3d730a95	0.059336264
114	0x3ed7c120	0.4213953
115	0x3e67ffef	0.22656225
116	0xbd807a54	-0.06273332
117	0xbc886646	-0.01665033
118	0x3c6bbc49	0.014388152
119	0x3d5f57f2	0.05452723
120	0x3d13cde9	0.036085043
121	0x3d15530d	0.036456157
122	0x3d329167	0.043595698
123	0x3d88b3e3	0.06674936
124	0x3d4d28b3	0.050087642
125	0x3d8cc509	0.06873519
126	0x3cc906fc	0.024539463
127	0x3d830511	0.06397451
128	0x3d4f4b93	0.050609183
129	0x3d92df95	0.07171551
130	0x3d8fe625	0.070263185
131	0x3d780706	0.060553573
132	0x3c9f5512	0.019449744
133	0x3d877ee6	0.06616001
134	0x3ca5b1d0	0.02022639
135	0x3cc90c3f	0.024541972
136	0x3dd63fff	0.10461425
137	0x3d7cbc70	0.061703146
138	0x3d2f2139	0.042756293
139	0x3ca8b4e1	0.020594062
140	0x3d301bdc	0.04299532
141	0x3d2ad883	0.041710388
142	0x3d15448c	0.036442325
143	0x3da31263	0.07962491
144	0x3cd862ca	0.026414294
145	0x3d6dbc5e	0.05804097
146	0x3d1a2475	0.037632424
147	0x3d376621	0.044775132
148	0x3d542b8e	0.05179935
149	0x3d200061	0.03906286
150	0x3d1f98de	0.038964145
151	0x3d45b66c	0.048269674
152	0x3d7987fa	0.060920693
153	0x3d0533a5	0.032519955
154	0x3d60fd58	0.054929107
155	0x3cf3f126	0.029778074
156	0x3d3b580f	0.045738276
157	0x3d311431	0.043232147
158	0x3dd8ca4f	0.10585462
159	0x3da1fbad	0.079093315
160	0x3d0ffcaf	0.035153087
161	0x3d68f287	0.056871917
162	0x3ca77590	0.0204418
163	0x3d086d97	0.033307638
164	0x3d076948	0.03305939
165	0x3d938d53	0.0720469
166	0xbd963c4b	-0.07335719
167	0xbdcc9882	-0.09990026
168	0xbd211795	-0.03932913
169	0xbd98fb81	-0.074698456
170	0x3ce79e3f	0.0282737
171	0x3d6f28bb	0.058388453
172	0x3ccd31ab	0.025048098
173	0x3ca85552	0.020548496
174	0x3d17ce61	0.037062053
175	0x3d746754	0.059668854
176	0x3e1523ff	0.14564513
177	0x3dd8939d	0.1057503
178	0x3d34373b	0.043997984
179	0x3d3f5f29	0.04672161
180	0x3c841cc5	0.016127
181	0x3d670abb	0.056406718
182	0x3d9d5e94	0.07684055
183	0x3d627377	0.055285897
184	0x3e8257fa	0.25457746
185	0x3e51fc49	0.20506395
186	0x3db1517e	0.086581215
187	0x3d8b8d7d	0.06814096
188	0x3da1c695	0.07899205
189	0x3d780496	0.06055125
190	0x3d3031f0	0.043016374
191	0x3d52846d	0.051395822
192	0x3d8bab80	0.068198204
193	0x3cf66c3c	0.030080907
194	0x3c3516c6	0.011052793
195	0x3d8342f3	0.06409254
196	0x3d955081	0.072907455
197	0x3dba0375	0.090826906
198	0x3cfbdee7	0.030745937
199	0x3d753f30	0.059874713
200	0x3db4eb37	0.08833926
201	0x3d8bb0c4	0.06820825
202	0x3ca663be	0.020311233
203	0x3d6c07cb	0.05762462
204	0x3d99e908	0.0751515
205	0x3d983f37	0.07433932
206	0x3d863422	0.06552912
207	0x3d51dceb	0.051236074
208	0x3d9d8ceb	0.076928936
209	0x3d0a2e4e	0.033735566
210	0x3d6f3b76	0.058406316
211	0x3d67ae14	0.0565625
212	0x3e02cb89	0.12772955
213	0x3dcf1a62	0.10112454
214	0x3d44e0bc	0.048065886
215	0x3cd29c10	0.025709182
216	0x3dcd8247	0.10034614
217	0x3d263d15	0.040585596
218	0x3d5f85fe	0.054571144
219	0x3d4eb689	0.050467048
220	0x3d837f4b	0.064207636
221	0x3d9f7f38	0.07787937
222	0x3d8b8fc7	0.06814533
223	0x3d57e3d9	0.052707527
224	0x3c65f1ad	0.014034671
225	0x3d1206c3	0.03565098
226	0x3d6c1a93	0.05764253
227	0x3d3c2837	0.04593679
228	0x3d89fd9a	0.06737824
229	0x3d6c0a4a	0.057627
230	0x3dc34ccc	0.09536132
231	0x3d7add02	0.061245926
232	0x3c03a541	0.008035005
233	0x3d0575af	0.032582935
234	0x3d12a235	0.035799224
235	0x3ceff40f	0.02929118
236	0x3c8ad430	0.016946882
237	0x3d73ce90	0.059523165
238	0x3d120776	0.035651647
239	0x3d8b3401	0.06797028
240	0x3d06729b	0.03282414
241	0x3d008e17	0.031385507
242	0x3dccae72	0.0999421
243	0x3d9a3fd0	0.075317025
244	0xbd1ec08b	-0.038757842
245	0xbd9bc7d4	-0.076064736
246	0x3d79a65e	0.060949676
247	0x3d94c034	0.07263222
248	0x3ce1c4a2	0.027559582
249	0x3d609ff6	0.05484005
250	0x3c488b5d	0.012240258
251	0x3d485271	0.048906747
252	0x3cf4693b	0.029835334
253	0x3d909f0a	0.07061584
254	0x3d79b696	0.060965143
255	0x3d369f60	0.044585586

lstm.bias_ih_l0 f4 [4000]
0	0x3d3cb590	0.04607159
1	0x3d2992e4	0.04139985
2	0x3eaa2e9e	0.3323869
3	0x3d7d01a1	0.06176913
4	0x3db9b8d0	0.09068453
5	0xbd492554	-0.049107864
6	0x3d0d4a27	0.034494545
7	0x3d90f6d3	0.07078328
8	0x3d83dd08	0.06438643
9	0x3d7a5d7d	0.061124314
10	0xbd69d588	-0.057088405
11	0x3da11d6e	0.078669414
12	0xbd296708	-0.041358024
13	0x3d9a37bc	0.07530162
14	0x3d2dbcc4	0.04241635
15	0x3d9d06b5	0.07667295
16	0xbd0657bd	-0.032798517
17	0x3d87eb4d	0.06636677
18	0x3d80ff4f	0.06298696
19	0x3d68b92b	0.056817215
20	0x3d7a061c	0.061040983
21	0x3d88784e	0.06663571
22	0x3d105e15	0.035245974
23	0x3d5960cf	0.05307084
24	0x3d65d18a	0.056108035
25	0x3d3adc33	0.045620155
26	0x3d989764	0.074507505
27	0x3d3ac03e	0.045593493
28	0x3d270760	0.040778518
29	0x3ec71b4f	0.38888022
30	0x3d24ba68	0.040216833
31	0xbd3b4cb6	-0.045727454
32	0x3d724944	0.059151903
33	0x3d218c57	0.03944048
34	0x3d3b202a	0.04568497
35	0x3d9edd43	0.07757046
36	0x3cda9cdc	0.026686125
37	0x3dabb3ed	0.083839275
38	0x3d4a0df4	0.049329713
39	0x3d1a2d55	0.03764089
40	0x3c1a50bb	0.009418662
41	0xbdb46761	-0.088087805
42	0x3d696ad7	0.056986656
43	0x3d974f56	0.07388179
44	0x3d081b1a	0.03322897
45	0xbda74a4c	-0.08168468
46	0x3d77379a	0.06035576
47	0x3d967c5f	0.07347941
48	0x3d4e83ce	0.050418667
49	0x3d6da855	0.058021862
50	0x3d85651f	0.06513428
51	0x3d913dad	0.07091842
52	0x3dcca1a6	0.099917695
53	0x3d798102	0.060914047
54	0xbd6a144e	-0.05714827
55	0x3d32eaeb	0.043681066
56	0x3d401ba2	0.046901353
57	0x3edea02a	0.4348157
58	0xbd8581b5	-0.0651888
59	0x3d84ab01	0.06477929
60	0x3d14c4ee	0.03632062
61	0x3d9eed3a	0.07760091
62	0x3ce1e7c1	0.02757633
63	0x3d433a38	0.047662944
64	0x3d6b5ff0	0.05746454
65	0x3c1a38bb	0.00941294
66	0x3cfda6b5	0.030963281
67	0x3dac54fd	0.08414648
68	0x3d6a7997	0.057244863
69	0x3d042590	0.032262385
70	0x3d9d5e1b	0.07683965
71	0x3d646ed0	0.05576974
72	0x3d9a0c28	0.0752185
73	0x3d181aa2	0.037134774
74	0x3d4ff564	0.050771132
75	0x3d5f626a	0.054537214
76	0x3d4b378d	0.049613524
77	0x3d53f91a	0.051751234
78	0x3d898556	0.06714885
79	0x3d20f74b	0.039298337
80	0x3d37c62e	0.044866733
81	0x3d793293	0.060839247
82	0x3d956bca	0.0729595
83	0xbd81f750	-0.06345999
84	0xbca27924	-0.019833155
85	0x3d9f7060	0.07785106
86	0x3d85c3c8	0.06531483
87	0x3da75f17	0.08172434
88	0x3de00345	0.109381236
89	0x3d91ae01	0.07113267
90	0x3d0beb1b	0.03415976
91	0x3d4cbd37	0.049985137
92	0x3e98c9c9	0.2984145
93	0x3d66541a	0.05623255
94	0x3d76408c	0.06012015
95	0x3d5e0ebd	0.054213274
96	0x3d26fef6	0.040770493
97	0x3d9e4261	0.077275045
98	0x3d1eb32b	0.038745087
99	0x3d0dabda	0.03458772
100	0x3d40f3fb	0.047107678
101	0x3cd2347a	0.025659788
102	0x3d6b995f	0.057519313
103	0x3d26a534	0.040684894
104	0x3cd68e2c	0.02619084
105	0x3c45984a	0.012060234
106	0x3d85efc8	0.06539875
107	0x3d5461e1	0.051851157
108	0x3d78def1	0.06075949
109	0x3ca65afb	0.020307055
110	0x3cf18084	0.029480226
111	0x3d3da832	0.04630298
112	0x3d42fb6b	0.047603052
113	0x3d1eca2f	0.038767036
114	0x3d82de81	0.063900955
115	0x3da60e45	0.081081904
116	0x3d5ba19c	0.05362092
117	0x3d450b8b	0.04810671
118	0x3d2cd348	0.04219368
119	0x3d84492b	0.06459268
120	0x3d2b5cc6	0.041836523
121	0x3d8771d9	0.066135116
122	0xbd807001	-0.06271363
123	0x3d88946b	0.066689335
124	0x3dc1df7d	0.09466455
125	0x3d542c4f	0.05180007
126	0x3cf4afad	0.029868925
127	0x3d952f90	0.072844625
128	0x3d840a75	0.06447307
129	0x3d2f5349	0.042804036
130	0x3d7ed8dc	0.062218532
131	0x3da15351	0.078772195
132	0x3d9d07b8	0.07667488
133	0x3cbe5e55	0.02323834
134	0x3e7fdf2c	0.24987477
135	0x3d25666d	0.040380884
136	0x3d2c8887	0.04212239
137	0x3c738ed1	0.014865593
138	0x3ce90897	0.028446479
139	0x3d21acc1	0.03947139
140	0x3cd454f8	0.025919423
141	0x3cc93d4a	0.024565358
142	0x3dabeffd	0.083953835
143	0xbc0f3737	-0.008741192
144	0x3c92aa62	0.01790351
145	0x3d452386	0.04812958
146	0x3d619686	0.05507519
147	0x3cb89686	0.022532713
148	0x3db044be	0.086068615
149	0x3d5f114a	0.054459848
150	0xbd318cc2	-0.043347128
151	0x3ca59923	0.020214623
152	0x3d41b399	0.04729042
153	0x3ed81ed2	0.42211014
154	0x3d170578	0.03687045
155	0x3d61472e	0.054999523
156	0x3c96bbd3	0.018400108
157	0x3d8cc7e6	0.06874065
158	0x3c6193f6	0.013768187
159	0x3d15f1df	0.03660762
160	0x3d479498	0.048725694
161	0x3cfcb4cb	0.030847928
162	0x3cbed996	0.023297112
163	0x3db58df1	0.08864964
164	0x3d9d3899	0.07676811
165	0xbda66151	-0.081240304
166	0xbd9aa2a6	-0.07550554
167	0x3da12e2c	0.07870135
168	0x3c91632f	0.01774749
169	0x3d8ea40e	0.06964885
170	0x3cd9f1ad	0.026604498
171	0x3d97da67	0.07414704
172	0x3ce109ba	0.027470458
173	0x3ce18197	0.027527614
174	0xbcf436bb	-0.029811254
175	0x3cfc2eeb	0.030784091
176	0x3d617e37	0.05505201
177	0x3da35ff9	0.0797729
178	0xbdaa37a3	-0.08311393
179	0xbd9f607e	-0.07782076
180	0x3d9e083a	0.07716413
181	0x3dcc2542	0.09968044
182	0x3d3d4df7	0.04621693
183	0x3db0c34d	0.08631001
184	0x3ccd27fa	0.025043476
185	0x3d6d4449	0.05792645
186	0x3d1641d5	0.036683876
187	0x3d50c200	0.050966263
188	0xbd5f254e	-0.054478936
189	0x3cd03e78	0.025420412
190	0x3ce74ecb	0.028235814
191	0x3d6e820f	0.058229502
192	0x3d359663	0.044332873
193	0x3d8f28eb	0.06990226
194	0x3d160157	0.03662237
195	0x3c561283	0.013065937
196	0xbc32c05f	-0.010910123
197	0x3ccf04d1	0.025270851
198	0x3da7beae	0.08190666
199	0x3cc2c8e0	0.023777425
200	0x3d4c2bfa	0.049846627
201	0x3d12d171	0.03584427
202	0xbd3bd002	-0.04585267
203	0x3d3490d1	0.04408342
204	0x3cbf59f8	0.02335833
205	0xbd8b9881	-0.06816197
206	0x3cb685a0	0.022280514
207	0x3cc85705	0.024455557
208	0x3d559d53	0.05215199
209	0x3d2ea65c	0.04263912
210	0x3cdb1dfd	0.026747698
211	0x3d54ec56	0.0519832
212	0x3e00088a	0.12503257
213	0x3cfd483b	0.030918231
214	0x3d84e207	0.06488424
215	0x3d6fbbb0	0.058528602
216	0x3d85eb05	0.06538967
217	0x3da1d602	0.07902147
218	0x3d4c1f16	0.049834333
219	0x3c78dbc1	0.015189112
220	0x3cd57074	0.026054598
221	0x3d050c86	0.032482646
222	0x3cdd500d	0.02701571
223	0xbaaf6b68	-0.001338345
224	0x3d4aaf30	0.049483478
225	0x3d5871a6	0.05284276
226	0x3d4d5b70	0.05013603
227	0x3d44683d	0.047950972
228	0x3d0eec03	0.034893047
229	0x3db6e95b	0.08931228
230	0x3d41a2c4	0.047274366
231	0x3da62c2c	0.08113894
232	0x3d75f7ca	0.060050763
233	0x3d7790cb	0.06044082
234	0x3d630433	0.055423927
235	0x3d432640	0.0476439
236	0x3d2d9a51	0.042383496
237	0x3d4fc811	0.050727908
238	0x3d8dc23e	0.069218144
239	0x3d9f1cab	0.0776914
240	0x3cf7e5fc	0.030261032
241	0xbcc42290	-0.023942262
242	0x3d9f7fa5	0.07788018
243	0x3d98e0f5	0.07464782
244	0x3d6164ce	0.055027775
245	0x3d827ec4	0.06371835
246	0xbce5f15a	-0.028069187
247	0xbf561f14	-0.8364117
248	0x3cca8183	0.02471996
249	0x3d4b0205	0.049562473
250	0x3d18eeca	0.037337102
251	0x3d0eaee7	0.03483477
252	0xbd588ba7	-0.052867558
253	0x3daa9afc	0.08330342
254	0xbd41f859	-0.047355983
255	0x3d36472d	0.044501472

lstm.bias_hh_l0 f4 [4000]
0	0x3d4e3f30	0.05035323
1	0x3d3e23b5	0.04642077
2	0x3eabd428	0.335603
3	0x3ce1a231	0.02754316
4	0x3da5f801	0.081039436
5	0xbd90536d	-0.07047162
6	0x3cc59f53	0.024123823
7	0x3d8a0e20	0.067409754
8	0x3da8f7ca	0.08250387
9	0x3d9b121c	0.075718135
10	0xbcb885ef	-0.022524802
11	0x3d72bc9c	0.059261903
12	0xbce06380	-0.027391195
13	0x3d69631a	0.056979276
14	0x3d28992b	0.041161697
15	0x3d739f12	0.059477873
16	0xbd0a6eac	-0.03379695
17	0x3d5b2ea6	0.053511284
18	0x3d15f634	0.03661175
19	0x3d149dbd	0.036283243
20	0x3d71067f	0.058844086
21	0x3d68fafc	0.056879982
22	0x3d1ca497	0.038242903
23	0x3da96893	0.08271899
24	0x3d582840	0.05277276
25	0x3d7e6026	0.062103413
26	0x3d81de4a	0.063412264
27	0x3d5cd3f2	0.053913064
28	0x3d889ae8	0.06670171
29	0x3ed73fc7	0.42040846
30	0x3d76cff9	0.060256932
31	0xbd005aef	-0.03133672
32	0x3d70516e	0.058671407
33	0x3d84ca30	0.06483877
34	0x3d412661	0.04715574
35	0x3d872f05	0.06600765
36	0x3c5820cb	0.013191412
37	0x3da74be1	0.0816877
38	0x3d9d71e4	0.076877385
39	0x3ce519dc	0.027966432
40	0x3d4ef6b5	0.050528247
41	0xbd5b77e3	-0.05358113
42	0x3cf9bd05	0.03048564
43	0x3d33c221	0.043886308
44	0x3d945d79	0.07244391
45	0xbd87bb3a	-0.066275075
46	0x3d71d73a	0.059043147
47	0x3cdf2d26	0.027243208
48	0x3d371fef	0.04470819
49	0x3d00eb24	0.031474248
50	0x3d864655	0.065563835
51	0x3d48fcb6	0.04906913
52	0x3d9957a3	0.074874185
53	0x3da5dcf0	0.08098781
54	0xbd412b06	-0.04716017
55	0x3c22383c	0.009901103
56	0x3cf4e05c	0.02989214
57	0x3ef44d1e	0.47715086
58	0xbca1c659	-0.0197479
59	0x3d831be0	0.06401801
60	0x3d3e50cb	0.04646377
61	0x3ce61fdd	0.028091365
62	0x3d9724bd	0.07380054
63	0x3ccbc2fa	0.024873246
64	0x3d2e36f3	0.042532872
65	0x3d445243	0.047930013
66	0x3d86a81d	0.06575034
67	0x3d9caee9	0.07650549
68	0x3d3b0015	0.045654375
69	0x3d57b7e0	0.05266559
70	0x3d38e498	0.04513988
71	0x3d2a72d0	0.0416134
72	0x3d99a400	0.07501984
73	0x3d867c00	0.0656662
74	0x3d4bab53	0.049723934
75	0x3d355aac	0.044275925
76	0x3d516142	0.051118143
77	0x3d8c3dea	0.06847747
78	0x3d5d50bf	0.054032084
79	0x3d7b51e1	0.061357383
80	0x3d3e0f3d	0.04640125
81	0x3d4cd205	0.050004978
82	0x3d7829ba	0.06058667
83	0xbcb48f96	-0.022041123
84	0xbd9c9e8a	-0.076474264
85	0x3da569c2	0.08076812
86	0x3c905529	0.017618733
87	0x3daef382	0.08542539
88	0x3da9725c	0.082737654
89	0x3d566a36	0.052347384
90	0x3cd8496d	0.0264022
91	0x3ce616c1	0.028087022
92	0x3eab9545	0.3351232
93	0x3d70f0d8	0.058823436
94	0x3dad8822	0.08473231
95	0x3d28685b	0.041115146
96	0x3d7efbd0	0.062251866
97	0x3d517e86	0.051146053
98	0x3d847332	0.06467284
99	0x3d607b5b	0.05480514
100	0x3d5704dd	0.052494872
101	0x3d44d660	0.048056006
102	0x3d66f27e	0.056383602
103	0x3d74455e	0.059636466
104	0x3d8a3acd	0.067494966
105	0x3c1a9364	0.009434555
106	0x3dd49a75	0.10381023
107	0x3d86fe12	0.06591429
108	0x3da8ace8	0.08236104
109	0x3ca21c2f	0.01978883
110	0x3d7351e0	0.059404254
111	0x3d94b63c	0.07261321
112	0x3d94c5d7	0.072642975
113	0x3c79c5da	0.015244925
114	0x3d520283	0.051271927
115	0x3d446bd2	0.047954388
116	0x3d5dde43	0.054167043
117	0x3d8f8e55	0.070095696
118	0x3d4df5c5	0.050283212
119	0x3d7b3b74	0.061335996
120	0x3d84a1a4	0.06476143
121	0x3cd240fb	0.02566575
122	0xbd8233fa	-0.0635757
123	0x3d315988	0.043298274
124	0x3da02116	0.07818811
125	0x3d57b5cb	0.052663606
126	0x3d9d0ce1	0.07668472
127	0x3d89cc57	0.06728428
128	0x3d579798	0.052634805
129	0x3dbc2816	0.09187333
130	0x3d8e1bd0	0.069388986
131	0x3d98b74f	0.07456838
132	0x3db683ed	0.089118816
133	0x3cbd037c	0.02307295
134	0x3e86101c	0.26184165
135	0x3d0117be	0.031516783
136	0x3d586c00	0.05283737
137	0x3d8020da	0.06256266
138	0x3d48c74f	0.0490182
139	0x3d2a89f4	0.04163547
140	0x3d446daf	0.047956165
141	0x3d0d7181	0.034532074
142	0x3d9a4fb5	0.07534734
143	0x3cafbc80	0.021452188
144	0x3d1a9681	0.037741188
145	0x3da833c2	0.08212997
146	0x3cd13428	0.025537565
147	0x3ce71410	0.028207809
148	0x3d28b43f	0.04118752
149	0x3d391992	0.0451904
150	0xbd222093	-0.039581846
151	0x3d905a36	0.07048456
152	0x3cba0ab1	0.022710176
153	0x3ec6119d	0.38685313
154	0x3c927356	0.017877262
155	0x3d9b7302	0.075902954
156	0x3d1fdbda	0.039028026
157	0x3d50b637	0.050955024
158	0x3ccee752	0.025256786
159	0x3d4da590	0.05020672
160	0x3d5d2f2f	0.054000076
161	0x3da00391	0.0781318
162	0x3d108f77	0.03529307
163	0x3d83019d	0.06396792
164	0x3d5341cd	0.051576424
165	0xbce68bd6	-0.02814285
166	0xbd3af4f2	-0.045643754
167	0x3d7f3df5	0.062314946
168	0x3d8519ea	0.06499083
169	0x3d8e1607	0.06937795
170	0x3cc39dbd	0.023878926
171	0x3d46beb8	0.048521727
172	0x3d108790	0.035285532
173	0x3ca6d824	0.020366736
174	0xbcea0147	-0.028565062
175	0x3d93fbee	0.07225786
176	0x3adc12bd	0.0016790252
177	0x3d6805dd	0.056646217
178	0xbd5a4620	-0.053289533
179	0xbd936f78	-0.07198995
180	0x3d89c550	0.067270875
181	0x3d62d542	0.05537916
182	0x3d59d38b	0.05318026
183	0x3da114c7	0.07865291
184	0x3d3b535f	0.045733806
185	0x3d6661c4	0.05624558
186	0x3cfe05d3	0.031008637
187	0x3d998c18	0.07497424
188	0xbd410549	-0.04712418
189	0x3d6acfb5	0.05732699
190	0x3d8e5221	0.069492586
191	0x3d56e7b1	0.052467052
192	0x3d723428	0.05913177
193	0x3da25a1b	0.079273425
194	0x3d698944	0.057015672
195	0x3b846f06	0.0040415553
196	0xbd1ddf74	-0.03854318
197	0x3b3c2323	0.0028707467
198	0x3d99e743	0.07514813
199	0x3d436542	0.04770399
200	0x3ce2d61d	0.027689988
201	0x3d87fffd	0.06640623
202	0xbd94ca64	-0.072651654
203	0x3d3e1b5d	0.046412814
204	0x3d7bdde8	0.061490923
205	0xbd9c7b36	-0.07640688
206	0x3d78d63e	0.060751192
207	0x3c8b7017	0.017021222
208	0x3d6fffc8	0.05859354
209	0x3d5bddbc	0.05367826
210	0x3cf6ad0d	0.030111814
211	0x3d98fc1e	0.074699625
212	0x3dc098b2	0.09404124
213	0x3bfcdd26	0.0077167926
214	0x3d8ee076	0.06976406
215	0x3d908264	0.0705612
216	0x3d1a438f	0.037662085
217	0x3d3af590	0.045644343
218	0x3d946fa4	0.07247856
219	0x3d387423	0.04503263
220	0x3d39c0e5	0.045349974
221	0x3d881852	0.06645264
222	0x3d0de89a	0.034645654
223	0xbd069342	-0.03285528
224	0x3cb62290	0.022233278
225	0x3cb034ff	0.021509646
226	0x3ca31ef3	0.019912219
227	0x3d5aebb4	0.05344744
228	0x3d3dcfa4	0.0463406
229	0x3da1afff	0.07894897
230	0x3d11d4fc	0.03560351
231	0x3d53fa45	0.051752347
232	0x3d9e611f	0.07733368
233	0x3daad82c	0.08342013
234	0x3d8be049	0.068298884
235	0x3d3860ae	0.045014076
236	0x3d836f36	0.06417696
237	0x3d289b70	0.04116386
238	0x3d509893	0.050926756
239	0x3d75f6eb	0.060049932
240	0x3d99f07c	0.07516572
241	0xbc96009a	-0.018310834
242	0x3d42856a	0.047490515
243	0x3d4931ff	0.049119946
244	0x3d122744	0.035681978
245	0x3cb84b54	0.022496857
246	0xbd5a2b51	-0.053263966
247	0xbf5566e2	-0.8336011
248	0x3c7073c4	0.014676038
249	0x3d20d55d	0.03926598
250	0x3c548956	0.012972197
251	0x3ca05235	0.01957045
252	0xbd91de9b	-0.07122537
253	0x3d5bfffd	0.053710926
254	0xbcf83de9	-0.030302959
255	0x3dc6f3f0	0.09714496

lstm.weight_hr_l0 f4 [2, 1000]
0	0xbd998d19	-0.07497615
1	0x3dd6b663	0.10484006
2	0xbf0c488d	-0.54798204
3	0x3da32226	0.07965498
4	0xbdc6461c	-0.09681341
5	0x3ceec298	0.029145524
6	0x3d9d0eb2	0.076688185
7	0x3da25cee	0.07927881
8	0xbd988105	-0.074464835
9	0x3dd423d3	0.103583954
10	0xbccbc96f	-0.024876324
11	0xbda00ab5	-0.07814542
12	0x3cd83f8c	0.026397489
13	0xbdbba9d4	-0.091632515
14	0xbd52da65	-0.05147781
15	0xbd77aa71	-0.06046528
16	0xbb0fcc24	-0.0021941746
17	0x3d85a2eb	0.06525215
18	0x3d0cac4a	0.034343995
19	0x3d9ca537	0.076487
20	0xbdb80032	-0.08984412
21	0x3dac7953	0.08421578
22	0x3d9d7ba1	0.07689596
23	0xbdb111e3	-0.0864599
24	0x3d9ba766	0.07600288
25	0x3da8021f	0.082035296
26	0x3d9bc295	0.07605473
27	0x3d9c42fe	0.07629965
28	0xbd86cb3f	-0.06581735
29	0xbf9650ed	-1.1743447
30	0x3d894e13	0.067043446
31	0x3c18bba9	0.009322085
32	0xbd74aa62	-0.059732802
33	0xbdbe3063	-0.09286573
34	0x3d0e5570	0.03474945
35	0xbc6c1c9e	-0.01441112
36	0x3d678846	0.056526445
37	0xbdbae8cc	-0.09126434
38	0xbda37582	-0.07981397
39	0xbd869b3f	-0.065725796
40	0x3dd4b1aa	0.10385449
41	0x3c71886d	0.014741999
42	0xbdb161d2	-0.08661236
43	0xbd5491f7	-0.051897015
44	0x3d8babe2	0.068198934
45	0xbc028e5e	-0.007968513
46	0x3d6f1940	0.05837369
47	0x3d99dbf2	0.07512654
48	0x3dadb663	0.08482053
49	0x3d807a47	0.062733226
50	0x3dc72cc6	0.09725337
51	0x3dabf60c	0.08396539
52	0x3d5fe2d0	0.054659665
53	0xbd63ac8d	-0.05558448
54	0xbd0bc3a7	-0.034122135
55	0xbd301c3a	-0.04299567
56	0x3d7bbcd9	0.061459396
57	0xbf57242c	-0.8403957
58	0xbc62e68d	-0.013848913
59	0xbdbeb4c3	-0.09311821
60	0x3d8e8710	0.06959355
61	0x3d81317a	0.06308265
62	0xbdc839af	-0.09776627
63	0xbda38650	-0.079846025
64	0xbbe27fb7	-0.0069121975
65	0xbd78e091	-0.06076104
66	0x3d9bc78f	0.07606422
67	0xbd91765d	-0.07102654
68	0xbfdb3630	-1.7125912
69	0xbdbf18ae	-0.09330879
70	0x3db0f4b0	0.086404204
71	0xbd7e1f2f	-0.062041458
72	0x3db17863	0.0866554
73	0x3dc32e44	0.09530309
74	0x3d9780f5	0.073976435
75	0x3d83756e	0.06418882
76	0xbd8e08bc	-0.0693526
77	0xbdcd3999	-0.100207515
78	0xbd9cdb92	-0.07659067
79	0xbd0cf394	-0.03441198
80	0xbd729872	-0.059227414
81	0x3dca3c21	0.0987475
82	0xbdae94d8	-0.085244834
83	0x3c3b65db	0.011437858
84	0xbc827d29	-0.015928822
85	0x3d47cbef	0.04877847
86	0x3d96795d	0.07347367
87	0x3db40352	0.08789696
88	0xbf68b1d2	-0.9089633
89	0x3d56f145	0.052476186
90	0x3dafd007	0.085846
91	0x3d99160d	0.07474909
92	0xbf51a449	-0.81891304
93	0xbd971eb2	-0.073789015
94	0x3d9a77e8	0.075424016
95	0x3d99b684	0.07505515
96	0xbd56ac09	-0.05241016
97	0x3dc2000c	0.09472665
98	0x3d5fd4a3	0.054646146
99	0xbd1d7073	-0.038437318
100	0xbd9cde11	-0.07659543
101	0xbdafd7f1	-0.085861094
102	0xbcdb8e46	-0.02680124
103	0xbc4477f6	-0.011991492
104	0x3bd8480c	0.0066003855
105	0xbd3104fc	-0.043217644
106	0x3ea2a5d0	0.3176713
107	0x3dd4a9f6	0.1038398
108	0x3d5edce1	0.054409865
109	0xbd8778e8	-0.06614858
110	0xbd206b47	-0.039164808
111	0xbdb6c2b6	-0.08923857
112	0xbd9cc4fa	-0.07654758
113	0x3dc9aea2	0.09847762
114	0xbd762bd8	-0.060100406
115	0x3d202bd4	0.039104298
116	0x3dd4064b	0.10352763
117	0xbda789a2	-0.08180548
118	0x3dab031f	0.08350205
119	0xbdae8f91	-0.08523477
120	0x3dc16eff	0.09444999
121	0x3ce19b89	0.027539985
122	0x3ad894be	0.0016523821
123	0xbdcd32cf	-0.100194566
124	0xbd806928	-0.06270057
125	0xbd9ff441	-0.078102596
126	0xbdc5e98c	-0.09663686
127	0xbd35e7f9	-0.04441068
128	0x3da65e75	0.08123485
129	0xbd93b074	-0.0721139
130	0x3dac0e1c	0.08401129
131	0x3d8184fc	0.06324193
132	0x3d8d7327	0.06906729
133	0x3b2ae80c	0.0026078252
134	0xc0226745	-2.537553
135	0xbda3aa02	-0.07991411
136	0xbdd23bea	-0.10265334
137	0x3d9f65d6	0.077830955
138	0xbd33b6d3	-0.043875527
139	0xbd90d676	-0.07072155
140	0xbd91cb40	-0.07118845
141	0x3dd7836d	0.10523114
142	0x3d4af3e5	0.049549002
143	0xbd57e2b9	-0.052706454
144	0x3db23a7e	0.08702563
145	0x3dabd393	0.08389964
146	0xbd737ee3	-0.05944718
147	0x3d28c5e6	0.041204356
148	0x3d673b01	0.056452755
149	0x3d48bffe	0.049011223
150	0xbca3cecb	-0.019996068
151	0x3cad9bc6	0.021192443
152	0xbd8af086	-0.067841575
153	0xbf67bf8e	-0.90526664
154	0x3da97089	0.082734175
155	0x3d6820ee	0.05667203
156	0x3d32ebc1	0.043681864
157	0x3db6dec1	0.08929206
158	0xbdae8992	-0.08522333
159	0x3d97de65	0.07415465
160	0xbd9e67d4	-0.077346474
161	0xbced0c4c	-0.028936528
162	0xbd938cc9	-0.07204587
163	0x3d95ab7d	0.073080994
164	0xbd3d5fff	-0.046234127
165	0x3c850f12	0.016242538
166	0xbbe50e17	-0.006990205
167	0xbd82f06d	-0.06393514
168	0xbd8e0b1a	-0.06935711
169	0xbda038ec	-0.07823357
170	0x3f9baf64	1.21629
171	0xbda3771a	-0.07981701
172	0x3d715d45	0.05892684
173	0x3dacb73a	0.08433385
174	0xbcdb4e04	-0.0267706
175	0x3d2c8a80	0.04212427
176	0xbd7f0468	-0.06226006
177	0xbd954e68	-0.072903454
178	0x3bf7a893	0.0075579374
179	0x3cdad9ec	0.026715241
180	0x3d7960f9	0.060883496
181	0x3d9c43d9	0.076301284
182	0x3b56247f	0.0032675562
183	0x3d8f10e4	0.069856435
184	0xbd8e124b	-0.06937083
185	0xbd0ef7f4	-0.034904435
186	0xbd69a25e	-0.05703961
187	0xbda69a34	-0.08134881
188	0x3ca46350	0.020066887
189	0x3db955c2	0.0904956
190	0x3d986575	0.074412264
191	0xbd955a07	-0.07292562
192	0xbebac90d	-0.36481515
193	0x3d12289d	0.035683263
194	0x3d6aed3f	0.05735516
195	0x3d9823a9	0.07428677
196	0xbd5171ce	-0.051133923
197	0xbd2bc1b7	-0.041932788
198	0xbd83b28e	-0.06430541
199	0xbd8c9bc6	-0.06865649
200	0xbdd56989	-0.1042052
201	0xbdb2fcb3	-0.08739605
202	0x3bb8c453	0.005638638
203	0x3dc6cf58	0.097075164
204	0x3dc24034	0.09484902
205	0xbc997940	-0.018734574
206	0x3d930a17	0.07179659
207	0x3dc19799	0.09452743
208	0x3dc6558d	0.09684286
209	0xbd944725	-0.07240132
210	0xbdce3b68	-0.100699246
211	0xbdb7e77f	-0.08979701
212	0xc00464c4	-2.0686502
213	0xbcf44016	-0.029815715
214	0x3d72c29c	0.059267625
215	0xbd8070e5	-0.06271533
216	0x3d9d6a80	0.07686329
217	0xbd9f7a08	-0.077869475
218	0xbd7daddc	-0.061933383
219	0x3d812162	0.063051954
220	0xbdba3736	-0.09092562
221	0xbcfe1a5c	-0.031018429
222	0x3d0e68e1	0.03476799
223	0xbd0d547a	-0.03450439
224	0x3dc8c449	0.098030634
225	0xbd7e8ed0	-0.062147915
226	0xbd43d72d	-0.04781263
227	0xbd6c90d7	-0.057755318
228	0x3d80b3ef	0.062843196
229	0x3d77ff8f	0.060546454
230	0xbd028f03	-0.031874668
231	0xbdbc9ee3	-0.09209993
232	0xbdaf3ddf	-0.08556723
233	0xbd84e575	-0.06489078
234	0x3d906bd1	0.07051814
235	0x3db328fb	0.08748051
236	0x3d5af19b	0.05345307
237	0xbd85e1d2	-0.065372124
238	0x3dccc9aa	0.09999402
239	0xbb7663a9	-0.0037596023
240	0xbd926a85	-0.07149223
241	0xbc240a51	-0.010012225
242	0x3dd4158b	0.103556715
243	0xbd907103	-0.07052805
244	0x3dc15a62	0.09441067
245	0x3cb1df85	0.021713028
246	0x3c414687	0.0117966
247	0xbfd10dc0	-1.6332321
248	0xbd185587	-0.03719094
249	0x3dc21f23	0.09478595
250	0x3d515880	0.05110979
251	0x3d9d15c5	0.07670168
252	0x3c5e7654	0.013578016
253	0xbd882fa5	-0.066497125
254	0xbc27ef30	-0.010249898
255	0xbcf5a551	-0.029986056

exp_avg f4 [70, 2]
0	0x3af475d9	0.0018650844
1	0x3afd540d	0.0019327417
2	0x3c3708ee	0.011171563
3	0x3b65a151	0.003503878
4	0xbbadc92e	-0.0053035235
5	0xbb0d7657	-0.0021585429
6	0xbbb95bfe	-0.0056567183
7	0xbaba6200	-0.001421988
8	0x3ba290a6	0.004961091
9	0x3b33f034	0.0027456405
10	0x3bce78b5	0.0063010105
11	0x3bec975a	0.007220191
12	0xbc7ffb62	-0.015623899
13	0xbc12eb5c	-0.008967247
14	0x3a6bd2db	0.00089959585
15	0x3b0aa117	0.0021153146
16	0xba1a4ec6	-0.0005886372
17	0xba93df97	-0.0011281845
18	0x3b5cee5b	0.0033711407
19	0x3b32d0e7	0.002728516
20	0x3b87dd53	0.004146257
21	0x3c55f6ac	0.013059299
22	0x3c4d5f0b	0.012534867
23	0x3c934d43	0.017981177
24	0xbadf0de4	-0.001701769
25	0x3b5558bb	0.0032554108
26	0xbce10efd	-0.027472967
27	0xbc6796ff	-0.014135121
28	0xbc758fac	-0.014987867
29	0xbc2f3def	-0.010695918
30	0x3bb18b46	0.005418214
31	0xbacd3379	-0.0015655599
32	0x3a8cc97e	0.0010741202
33	0xbb54f295	-0.0032493223
34	0x3c150c0f	0.009097113
35	0x3c38dafb	0.011282678
36	0x3a4f3b3e	0.0007905251
37	0x3a9c361c	0.0011917981
38	0xb9c0c800	-0.00036770105
39	0x3a4b0d8d	0.00077458547
40	0xbb23d39b	-0.0024997953
41	0xbb4f9731	-0.003167581
42	0xbaebdfbe	-0.0017995758
43	0xbadd8afc	-0.0016902382
44	0x3c1ecbf1	0.009692178
45	0x3af93a78	0.0019014617
46	0x3a686dd1	0.00088664616
47	0xbad07d02	-0.0015906396
48	0xbab23b0b	-0.0013597918
49	0xbbb71c18	-0.005588066
50	0xba9cad26	-0.0011953458
51	0xb9607bf0	-0.00021408475
52	0x3b94a452	0.00453619
53	0x3c7930d7	0.015209398
54	0x3c00ea54	0.007868368
55	0xba60b873	-0.0008572407
56	0x3a4703a1	0.00075917883
57	0x3b2d3fea	0.00264358
58	0x3aa79ca4	0.0012787771
59	0x3b3f32a5	0.0029174474
60	0xbbea66a4	-0.007153349
61	0xbbfc1f2f	-0.007694147
62	0xbcadeb53	-0.021230375
63	0xbbf2475e	-0.0073937615
64	0x3aaba373	0.0013094976
65	0x3b522232	0.003206384
66	0x3b94552b	0.0045267544
67	0x3b7658c5	0.0037589532
68	0x39fb7bba	0.00047966634
69	0x3b16269e	0.0022911201
70	0xbc5fdd88	-0.013663657
71	0xbb705dc5	-0.0036676985
72	0xbc56c4a7	-0.013108409
73	0xbc25b304	-0.010113481
74	0xbc6e7f09	-0.014556655
75	0xbbc04eb6	-0.005868758
76	0xbbe966f1	-0.0071228673
77	0xbbbc4778	-0.0057458244
78	0x3cd99dce	0.026564505
79	0x3cf15985	0.029461632
80	0xbcdfd651	-0.027323874
81	0xbc4e8cb5	-0.012606789
82	0x3b19a543	0.002344445
83	0x3baf817d	0.0053560124
84	0xbaff133d	-0.001946069
85	0xbaef6867	-0.0018265367
86	0xbc49c857	-0.012315831
87	0x3b533230	0.003222596
88	0x3caf91cd	0.021431828
89	0x3d8d5b52	0.069021836
90	0xbc20ceb7	-0.00981491
91	0xbbf9133a	-0.007601169
92	0xbc8d47ee	-0.017246213
93	0xbca29628	-0.01984699
94	0xbb0ef526	-0.00218136
95	0xbaee32ad	-0.0018173062
96	0xbd056989	-0.03257135
97	0xbce58345	-0.028016696
98	0x3c19d0fd	0.009388206
99	0x3be2ddb8	0.0069234036
100	0x3aed54e4	0.0018106964
101	0x3aa7e0f9	0.0012808136
102	0x3b91851b	0.0044409162
103	0x3c057644	0.0081458725
104	0x3b979cd6	0.0046268506
105	0xba03e321	-0.0005031098
106	0x3bb4b23d	0.0055144117
107	0x3b4f202e	0.0031604874
108	0x3b89b5f5	0.004202599
109	0x3b659e73	0.003503707
110	0x3c49c650	0.012315348
111	0x3c2e739b	0.01064768
112	0x3b86f7dc	0.0041189026
113	0xbc43b54a	-0.011945078
114	0x3c35d306	0.011097675
115	0xb927f528	-0.00016017689
116	0x3b0c8916	0.0021444014
117	0x3ae6e7ec	0.0017616726
118	0xbc1dd4df	-0.009633272
119	0xbb8b1557	-0.0042444873
120	0xbb4c7686	-0.0031198575
121	0x3a483e09	0.00076386385
122	0x3b835b87	0.0040087136
123	0x3ba5b196	0.0050565703
124	0xbb860564	-0.004089998
125	0xba7dc828	-0.00096810097
126	0xbcd414a5	-0.02588875
127	0xbca8c193	-0.020600116
128	0xbb8252c3	-0.003977151
129	0xbb97852f	-0.004624031
130	0x3ab26111	0.001360925
131	0xbaabd9a6	-0.0013111129
132	0xba9c286b	-0.0011913901
133	0xb98ca5d2	-0.00026826427
134	0xbba719c6	-0.005099508
135	0xbacff747	-0.0015866541
136	0x39b2fe12	0.00034140103
137	0xbb09e586	-0.0021041348
138	0x3c80bf4b	0.015716216
139	0x3c0f200f	0.008735671

exp_avg_sq f4 [70, 2]
0	0x3a22002d	0.0006179836
1	0x39ee1cc6	0.00045416335
2	0x3b8c7f7e	0.004287659
3	0x3a8d64bf	0.0010787471
4	0x39d50682	0.00040631375
5	0x3980d13f	0.00024569963
6	0x3a38d52c	0.0007050808
7	0x39890849	0.0002613685
8	0x3934f9c2	0.0001725918
9	0x394ba9d1	0.0001942285
10	0x3a21bb4d	0.00061695726
11	0x3ab6f1e4	0.0013957587
12	0x3b281c1d	0.0025651522
13	0x3b812ea9	0.00394233
14	0x3baddc82	0.0053058276
15	0x3b4a25dd	0.0030845322
16	0x38a80efd	8.013656e-05
17	0x3828183c	4.007689e-05
18	0x39227179	0.00015491796
19	0x39869485	0.00025669127
20	0x3b98f663	0.0046680435
21	0x3c0e3315	0.008679171
22	0x3b029c14	0.0019929456
23	0x3b37a013	0.0028018996
24	0x3a189f1a	0.0005822048
25	0x3a893cce	0.0010470392
26	0x3b25f149	0.002532082
27	0x3ae5cfa7	0.0017533199
28	0x3b5d4adc	0.0033766543
29	0x3ae10a18	0.0017169146
30	0x3ac4174b	0.0014960555
31	0x3aec2f41	0.0018019454
32	0x3a36753e	0.00069602195
33	0x3aa7b8e8	0.0012796195
34	0x3b8e45d4	0.0043418203
35	0x3bdd2c37	0.0067496556
36	0x3a73d2f9	0.0009301152
37	0x3ab0f5bc	0.0013500969
38	0x3a2157b1	0.00061547296
39	0x3a4abeda	0.00077341276
40	0x3acdcf97	0.0015702125
41	0x3a203183	0.00061108934
42	0x3922c595	0.00015523129
43	0x39a031b4	0.0003055461
44	0x3ad5987f	0.0016296058
45	0x3a394e47	0.0007068854
46	0x3a822722	0.0009929875
47	0x3b03fbaa	0.0020139017
48	0x3a344747	0.0006877076
49	0x3a260e22	0.00063345034
50	0x3a05f38c	0.00051098387
51	0x3a910f98	0.0011067269
52	0x3a38c579	0.00070484687
53	0x3aacb351	0.0013175999
54	0x3a5f5466	0.0008519351
55	0x3a476e08	0.00076076435
56	0x39c6ad65	0.00037894692
57	0x3a59f393	0.00083141885
58	0x38e415b1	0.000108759275
59	0x3986ba78	0.00025697402
60	0x3b4c7788	0.0031199176
61	0x3b6c484a	0.003605383
62	0x3b5823fb	0.003298043
63	0x3a9621c2	0.0011454152
64	0x3ae2bf79	0.0017299495
65	0x3ad2d7ef	0.0016086082
66	0x3aaefadc	0.0013349908
67	0x3aa586c3	0.0012628663
68	0x3adc35b4	0.0016800673
69	0x3b120fb3	0.002228719
70	0x3b100875	0.0021977697
71	0x3a5c2c84	0.00083989673
72	0x3a9ee1b3	0.0012121707
73	0x3af442f6	0.0018635679
74	0x3a110a8e	0.0005532884
75	0x39fc0764	0.00048070692
76	0x3a8fb033	0.0010962546
77	0x3a8b1d67	0.0010613621
78	0x3b8c84e6	0.0042883037
79	0x3be7c723	0.0070732995
80	0x3b9b94bf	0.0047479565
81	0x3ab0040a	0.0013428938
82	0x3a35783f	0.000692252
83	0x3a3e5bf8	0.0007261629
84	0x39daaacc	0.00041707454
85	0x3a0d40f9	0.0005388405
86	0x3b06bb27	0.0020558329
87	0x3b260da7	0.0025337727
88	0x3b6600e7	0.0035095753
89	0x3c2afb9c	0.010435965
90	0x3bd80281	0.0065920954
91	0x3c382e54	0.011241514
92	0x3b9aac0a	0.0047202157
93	0x3c0a2276	0.008431068
94	0x3b71f280	0.0036918223
95	0x3ac729fd	0.0015195009
96	0x3badd099	0.005304408
97	0x3ae77535	0.0017658832
98	0x3a1c50b2	0.0005962952
99	0x3975e972	0.00023451986
100	0x391d4271	0.00014997438
101	0x3940239c	0.00018323812
102	0x3b86099a	0.0040905
103	0x3bd0292b	0.006352564
104	0x3a6f2ba8	0.0009123632
105	0x39cfd77e	0.0003964267
106	0x39c2a691	0.00037126665
107	0x3936361f	0.00017377034
108	0x3a85b03a	0.0010199614
109	0x3b14bfee	0.0022697407
110	0x3a72ae55	0.0009257545
111	0x3a95d978	0.0011432609
112	0x3b8489cc	0.004044747
113	0x3bdd7809	0.006758694
114	0x3b3df228	0.0028983448
115	0x3b17de6b	0.0023173343
116	0x3afe22ae	0.0019388997
117	0x3b296a4b	0.002585071
118	0x3b91431e	0.00443305
119	0x3a95226a	0.0011378054
120	0x3b621f1a	0.0034503401
121	0x3bb84957	0.005623977
122	0x39ac1d06	0.0003282802
123	0x3a671cb8	0.000881623
124	0x3a4e49a0	0.00078692473
125	0x3a8e024a	0.0010834422
126	0x3b07b014	0.0020704316
127	0x3b4f5c14	0.0031640576
128	0x3b59b73b	0.0033220786
129	0x3a686caf	0.0008866293
130	0x39ca25b6	0.0003855654
131	0x3a2b28ea	0.0006529229
132	0x394d51ca	0.00019580792
133	0x391f7579	0.00015207184
134	0x39604c4a	0.00021390725
135	0x39058843	0.0001273463
136	0x3b02cb25	0.001995751
137	0x3b009bfc	0.0019624224
138	0x3b6c65f7	0.0036071518
139	0x3ae1d361	0.0017229134
