lightning_logs/version_53/checkpoints/epoch=18-step=6878.ckpt (torch, 69118 bytes, 15 tensors)

lstm.weight_ih_l0 f4 [800, 2]
0.09026999 0.060693968 0.1310283 0.22532433 0.10047712 0.075869925 0.107535474 0.17715503
0.312407 0.27814788 0.071745574 0.11961558 0.05953974 0.12133063 0.23597978 -0.32669535
0.2241127 0.26115072 0.15079093 0.0660071 -0.17889257 -0.19210346 0.12666075 0.122871205
-0.052117005 -0.1706924 0.24448846 0.22940646 0.21145305 0.07311576 0.10042249 0.1456155
-0.13336554 -0.049617115 -0.04852158 -0.03851029 0.10455999 0.08130829 0.26182845 0.28131342
0.07734742 0.15627055 0.10333443 0.064211175 0.19475873 0.22025414 0.15581597 0.13801135
-0.096431375 -0.0866687 0.10352634 0.099752486 0.10146125 0.14768156 0.08621501 0.12411704
0.12257908 0.10817449 0.2090427 0.2626706 0.123423256 0.07257301 0.23911059 0.24817385
0.16423373 0.23369057 -0.18079144 -0.022738447 0.089948535 0.13178357 -0.044337895 -0.025865227
-0.09617806 -0.04669697 0.14422809 0.08023154 0.11469023 0.14298746 -0.04634702 -0.0316339
0.1491983 0.19371402 0.04912388 0.14254577 0.14239521 0.08856289 0.0856678 0.0308531
0.13821723 0.12621203 0.11068317 0.21188039 -0.090428956 -0.12559946 -0.1691749 -0.18195404
0.1661127 0.15865533 0.18079375 0.2608102 0.05992561 0.13050288 -0.055117298 -0.10039963
0.14582156 0.24066897 -0.008416776 0.097435385 0.18019934 0.27327794 0.09169607 0.1260446
0.09730197 0.18159825 0.108569995 0.074386604 0.022026038 0.069481604 0.05556358 0.14113104
0.15149198 0.18430516 0.045610357 0.048321206 0.11086581 0.11896034 0.08585084 0.104734264
0.11239385 0.11379871 0.19468048 0.12352513 0.100050315 0.15527393 0.13941428 0.12909435
0.068070374 0.14737745 0.1742776 0.18462771 0.33720717 0.038778186 -0.10811505 -0.16985631
0.18012777 0.24091367 0.19848062 0.29084983 0.07113664 0.2014866 -0.1622246 -0.054810714
0.25151396 0.21010105 -0.23934467 -0.16212301 0.13847256 0.15537652 -0.029458527 0.100343205
0.07800676 0.121176355 0.2146397 0.14579007 0.096996695 0.08437692 -0.10759835 -0.008823387
0.34557822 -0.0019436053 0.13070197 0.11088886 0.1662049 0.0887428 0.16507652 0.089528084
0.060333878 0.17120498 0.10442821 0.0817056 0.1541504 -0.06330793 0.23019558 -0.14476505
0.08556357 0.09775991 0.15958755 0.07443843 0.13391893 0.122058734 0.32031813 0.30038118
-0.09531579 -0.04809603 0.35516253 0.36073604 0.088560745 0.10018382 -0.17702064 -0.07766501
0.35121408 0.02012167 -0.11907847 -0.02047773 0.072287984 0.13217796 0.40259555 0.26376525
0.11160326 0.080256455 0.14566599 0.21753179 -0.07122814 -0.06392502 0.017891604 0.06786497
0.14853112 0.043141976 -0.04395165 -0.07081585 0.072408706 0.11407625 -0.114965424 -0.025786333
-0.13350423 -0.04950736 0.019033208 0.061336823 0.13636418 0.08262852 -0.15875496 -0.17245544
0.068093844 0.14331542 0.21527927 0.16634569 0.155803 0.11195396 0.2363662 0.16580334
0.18820326 0.29557085 0.21084867 0.21686035 0.15164115 0.10812753 0.08809473 0.2029871
-0.08408525 -0.02084001 0.10239208 0.09478833 0.16938983 0.21333249 0.11711371 0.2357761
00000000: 79df b83d 3d9a 783d 482c 063e 6cbb 663e
00000010: f3c6 cd3d b161 9b3d 8f3b dc3d 2168 353e
00000020: cff3 9f3e 6669 8e3e 58ef 923d 03f9 f43d
00000030: f1df 733d 317c f83d afa4 713e 9d44 a7be
00000040: cd7d 653e 8cb5 853e f068 1a3e bb2e 873d
00000050: 9d2f 37be c5b6 44be 5bb3 013e e6a3 fb3d
00000060: a478 55bd fdc9 2ebe 2f5b 7a3e 87e9 6a3e
00000070: 2687 583e b7bd 953d 4eaa cd3d 3b1c 153e
00000080: fa90 08be 513b 4bbd 90be 46bd f7bc 1dbd
00000090: 8c23 d63d f684 a63d 610e 863e 5008 903e
000000a0: 5368 9e3d 6305 203e 00a1 d33d 2681 833d
000000b0: d56e 473e 4d8a 613e 398e 1f3e d952 0d3e
000000c0: d07d c5bd 5c7f b1bd 9e05 d43d 084b cc3d
000000d0: eaca cf3d d639 173e 7f91 b03d 1331 fe3d
000000e0: be0a fb3d 968a dd3d 4a0f 563e c37c 863e
000000f0: 55c5 fc3d 29a1 943d 68d9 743e 4921 7e3e
00000100: e32c 283e 954c 6f3e 6421 39be fb45 babc
00000110: f036 b83d 46f2 063e a79b 35bd 50e3 d3bc
00000120: 01f9 c4bd 5245 3fbd 87b0 133e 6f50 a43d
00000130: b6e2 ea3d 4e6b 123e 5fd6 3dbd 8c92 01bd
00000140: 70c7 183e f85c 463e 1f36 493d 85f7 113e
00000150: 0dd0 113e 7660 b53d 9972 af3d a4bf fc3c
00000160: d188 0d3e ba3d 013e dcad e23d 2cf7 583e
00000170: d132 b9bd 259d 00be 2f3c 2dbe 2952 3abe
00000180: 7319 2a3e 8b76 223e ff21 393e ea88 853e
00000190: 8e74 753d 8ca2 053e adc2 61bd 529e cdbd
000001a0: 3f52 153e ed71 763e 84e6 09bc 348c c73d
000001b0: 2d86 383e 16eb 8b3e 26cb bb3d d611 013e
000001c0: 4146 c73d e4f4 393e f259 de3d 0158 983d
000001d0: f36f b43c 5f4c 8e3d a396 633d a884 103e
000001e0: b720 1b3e 7eba 3c3e edd1 3a3d 75ec 453d
000001f0: 9d0d e33d 7ba1 f33d 91d2 af3d eb7e d63d
00000200: bf2e e63d 4c0f e93d 525a 473e befa fc3d
00000210: 2ee7 cc3d 2100 1f3e 9ec2 0e3e 4f31 043e
00000220: 7b68 8b3d 1dea 163e d475 323e 0c0f 3d3e
00000230: 6ba6 ac3e e0d5 1e3d 6c6b ddbd d0ee 2dbe
00000240: 6a73 383e 13b2 763e 813e 4b3e 45ea 943e
00000250: 16b0 913d 8152 4e3e 351e 26be 3381 60bd
00000260: 70c6 803e bb24 573e c516 75be 9303 26be
00000270: c0cb 0d3e 061b 1f3e 0253 f1bc bd80 cd3d
00000280: 02c2 9f3d 4f2b f83d 82ca 5b3e fe49 153e
00000290: 34a6 c63d cecd ac3d 865c dcbd f88f 10bc
000002a0: a1ef b03e 92c0 feba bdd6 053e b319 e33d
000002b0: 9e31 2a3e c9be b53d d209 293e 805a b73d
000002c0: a820 773d 5c50 2f3e 75de d53d 4455 a73d
000002d0: 9ad9 1d3e 97a7 81bd 64b8 6b3e 4a3d 14be
000002e0: f43b af3d 5936 c83d eb6a 233e 2d73 983d
000002f0: 0b22 093e eef9 f93d bd00 a43e 90cb 993e
00000300: ed34 c3bd 5800 45bd ddd7 b53e 65b2 b83e
00000310: 565f b53d 2d2d cd3d e644 35be d50e 9fbd
00000320: 55d2 b33e 33d6 a43c 6adf f3bd eac0 a7bc
00000330: b90b 943d a959 073e 0121 ce3e 3d0c 873e
00000340: 4090 e43d 7f5d a43d 7729 153e a7c0 5e3e
00000350: 0fe0 91bd 1feb 82bd 6a91 923c cafc 8a3d
00000360: 8b18 183e a4b5 303d a506 34bd e607 91bd
00000370: 044b 943d cfa0 e93d fe72 ebbd dc3d d3bc
00000380: 55b5 08be 3bc8 4abd 88eb 9b3c 523c 7b3d
00000390: 0da3 0b3e 2439 a93d a990 22be 2998 30be
000003a0: c974 8b3d 47c1 123e 2b72 5c3e 8656 2a3e
000003b0: d28a 1f3e 1e48 e53d fb09 723e 5ac8 293e
000003c0: 5bb8 403e 1055 973e b7e8 573e a410 5e3e
000003d0: d147 1b3e f771 dd3d 036b b43d dadb 4f3e
000003e0: e334 acbd abb8 aabc f0b2 d13d 6220 c23d
000003f0: 8774 2d3e d573 5a3e 50d9 ef3d 4a6f 713e

lstm.weight_hh_l0 f4 [800, 2]
-0.18327685 -0.22376662 0.14913729 0.114080176 0.08098162 0.097524576 0.10020315 0.10395597
-0.37082502 -0.3376725 0.11896411 0.10388068 0.1029351 0.14751682 0.27238166 0.21196309
0.118810736 0.17778324 0.050921608 0.13094117 -0.048156932 -0.0068475455 0.050217032 0.11834751
-0.21169315 -0.25899303 -0.022133118 0.049091388 -0.35423407 -0.31436712 0.06650323 0.06832625
0.2653942 0.17851974 0.25836244 0.18624853 0.086647205 0.047690194 0.058642615 -0.0033106213
0.10506249 0.06362378 0.116945595 0.061593123 0.07043487 0.06033996 0.0427574 0.11087939
-0.07795007 -0.024508215 0.08623475 0.14491099 0.028741367 0.15298662 0.0741589 0.14375433
0.10322517 0.09777964 0.088323675 0.13206954 0.13979693 0.111064725 0.046363465 0.17119655
0.12544939 0.15621513 0.38253325 0.34063244 0.10268178 0.12040994 0.24994354 0.1418216
-0.028204788 -0.06989785 0.062971175 0.031143943 -0.29491478 -0.29488605 -0.1465105 -0.24323814
0.1008632 0.08979963 0.09380784 0.10187554 0.15406571 0.06241043 -0.061269205 -0.008356024
0.07312143 0.060612336 0.03493152 0.14604466 -0.034330353 -0.12084802 -0.07166425 -0.04626648
0.016873866 0.06350321 0.20262946 0.13064145 0.11759377 0.10883604 -0.11732968 -0.05968618
0.07765684 0.07316321 -0.17228632 -0.17361072 0.1605143 0.15334295 0.107268766 0.03795804
0.08850909 0.0712587 0.07688317 0.11674519 -0.11218799 -0.11087617 0.07197874 0.051374346
0.06796594 0.06865265 -0.21089292 -0.27695715 0.14116824 0.12116805 0.075251475 0.043989167
0.10908832 0.14435466 0.10679815 0.041345328 0.068767585 0.07296085 0.14073546 0.11038557
0.08805999 0.0781858 0.047750745 0.12465808 -0.28496572 -0.41628426 0.30782333 0.3330416
0.09144804 0.12493378 0.094849996 0.1496923 0.08838199 0.18479578 0.38051587 0.39917862
0.16162579 0.11805441 -0.058623247 -0.028408414 0.057281855 0.018136824 0.06777412 0.10033751
0.027269686 0.12750655 0.11058171 0.14315721 0.10970028 0.08711492 -0.13920583 -0.12906818
-0.30453703 -0.29712802 0.09834025 0.087798044 0.1137027 0.04751321 0.102520615 0.11105496
0.11091564 0.054024916 0.05064387 0.049005125 0.14523017 0.16560924 0.18531519 0.106101744
-0.020948883 -0.04400246 0.14280029 0.046795167 0.045820896 0.07902648 -0.25605747 -0.27466834
0.23181956 0.22765167 -0.29403883 -0.30382726 0.0665759 0.15902907 0.35758305 0.29367924
-0.3276343 -0.29320252 0.20306769 0.26064327 0.08890257 0.119115405 -0.38305858 -0.35081372
0.124949686 0.1316975 0.15920717 0.07582057 -0.135833 -0.10547748 -0.081162594 -0.015013701
-0.16565013 -0.1256559 -0.03693178 -0.06891995 0.07900734 0.052672096 -0.08372532 -0.09097598
-0.10374317 -0.059619334 0.13404965 0.12679698 0.13284145 0.10797759 -0.06852434 -0.0717705
0.07757119 0.036000215 0.144237 0.058395028 0.18704146 0.10008223 -0.26897308 -0.19001903
0.12164747 0.10526374 0.118562706 0.04026577 0.056706652 0.05525026 0.08284349 0.083345555
0.3883132 0.47076324 0.065715656 0.06884729 -0.40240613 -0.41827872 0.07088527 0.07620872
00000000: edac 3bbe 1423 65be 72b7 183e dea2 e93d
00000010: b1d9 a53d f7ba c73d 4f37 cd3d dee6 d43d
00000020: c7dc bdbe 69e3 acbe 75a3 f33d 65bf d43d
00000030: a3cf d23d a60e 173e 9c75 8b3e da0c 593e
00000040: 0b53 f33d cf0c 363e 2d93 503d 7115 063e
00000050: 3440 45bd 6061 e0bb 60b0 4d3d 2e60 f23d
00000060: 17c6 58be bc9a 84be 8350 b5bc 0d14 493d
00000070: 2b5e b5be baf4 a0be d832 883d a2ee 8b3d
00000080: c0e1 873e e1cd 363e 1548 843e efb7 3e3e
00000090: 1774 b13d cb56 433d 3d33 703d 02f7 58bb
000000a0: 012b d73d 2f4d 823d 2c81 ef3d 1249 7c3d
000000b0: 2840 903d 0927 773d 6222 2f3d bc14 e33d
000000c0: 49a4 9fbd 74c5 c8bc d89b b03d 8c63 143e
000000d0: 0473 eb3c 86a8 1c3e 9fe0 973d 5634 133e
000000e0: b867 d33d b140 c83d 0be3 b43d 3d3d 073e
000000f0: ed26 0f3e e775 e33d 9ee7 3d3d 264e 2f3e
00000100: ce75 003e dcf6 1f3e 66db c33e 6067 ae3e
00000110: d34a d23d 7d99 f63d 33f1 7f3e ae39 113e
00000120: ba0d e7bc 9b26 8fbd 08f7 803d 9521 ff3c
00000130: 12ff 96be 4efb 96be d906 16be 6b13 79be
00000140: 5e91 ce3d dee8 b73d 531e c03d 20a4 d03d
00000150: 67c3 1d3e 14a2 7f3d 6bf5 7abd b4e7 08bc
00000160: b0c0 953d a444 783d 5a14 0f3d bb8c 153e
00000170: fc9d 0cbd 2b7f f7bd b5c4 92bd ec81 3dbd
00000180: 103b 8a3c f90d 823d 197e 4f3e dfc6 053e
00000190: 01d5 f03d 6ee5 de3d 8b4a f0bd 7f79 74bd
000001a0: 8d0a 9f3d 98d6 953d d36b 30be 02c7 31be
000001b0: dc5d 243e ef05 1d3e baaf db3d e479 1b3d
000001c0: 4144 b53d 15f0 913d ec74 9d3d 1a18 ef3d
000001d0: d1c2 e5bd 0c13 e3bd 9769 933d e86d 523d
000001e0: ba31 8b3d c399 8c3d 50f4 57be 54cd 8dbe
000001f0: 688e 103e f426 f83d 721d 9a3d fc2d 343d
00000200: b269 df3d b5d1 133e fdb8 da3d b859 293d
00000210: 05d6 8c3d 806c 953d f51c 103e d411 e23d
00000220: cc58 b43d e01f a03d 4996 433d bc4c ff3d
00000230: 07e7 91be 3623 d5be 059b 9d3e 6e84 aa3e
00000240: 1c49 bb3d 48dd ff3d b740 c23d f048 193e
00000250: 9e01 b53d 1b3b 3d3e fad2 c23e 2461 cc3e
00000260: 3b81 253e 83c6 f13d ee1e 70bd c3b8 e8bc
00000270: 61a0 6a3d ad93 943c 28cd 8a3d c17d cd3d
00000280: ad64 df3c 1491 023e aa78 e23d ce97 123e
00000290: 8aaa e03d 4f69 b23d f98b 0ebe 732a 04be
000002a0: 47ec 9bbe 2a21 98be 9d66 c93d 76cf b33d
000002b0: f6dc e83d 369d 423d 54f6 d13d c870 e33d
000002c0: bd27 e33d 3b49 5d3d f26f 4f3d 99b9 483d
000002d0: 38b7 143e 7895 293e 44c3 3d3e df4b d93d
000002e0: fe9c abbc ec3b 34bd 3d3a 123e 4aac 3f3d
000002f0: b1ae 3b3d a3d8 a13d f719 83be 54a1 8cbe
00000300: 1b62 6d3e 851d 693e 428c 96be 3f8f 9bbe
00000310: f258 883d 84d8 223e 2015 b73e 205d 963e
00000320: afbf a7be a41e 96be faf0 4f3e 0973 853e
00000330: 8d12 b63d c7f2 f33d 4120 c4be db9d b3be
00000340: 9fe5 ff3d b6db 063e 3407 233e d147 9b3d
00000350: ce17 0bbe 9404 d8bd 9338 a6bd 07fc 75bc
00000360: 30a0 29be f1ab 00be c745 17bd e725 8dbd
00000370: 9ace a13d b2be 573d 2e78 abbd 9d51 babd
00000380: 4d77 d4bd 6733 74bd 5044 093e 11d7 013e
00000390: 9707 083e 5b23 dd3d 7d56 8cbd 69fc 92bd
000003a0: a5dd 9e3d f674 133d ddb2 133e a02f 6f3d
000003b0: cc87 3f3e eaf7 cc3d d7b6 89be 5994 42be
000003c0: 4f22 f93d 8494 d73d 01d1 f23d b8ed 243d
000003d0: 3c45 683d 194e 623d d9a9 a93d 13b1 aa3d
000003e0: fdd0 c63e e107 f13e ee95 863d cfff 8c3d
000003f0: 2d08 cebe a128 d6be 4c2c 913d 5113 9c3d

lstm.bias_ih_l0 f4 [800]
0.22742356 0.24058 0.16152607 0.17410792 -0.35466802 0.18303469 0.20374188 0.24895744
0.013357379 0.103310235 -0.079471186 0.16642477 -1.4088805 0.079284765 -0.09181125 0.1326325
0.03268275 -0.014778793 0.18439248 -0.051333845 0.14079612 0.19010548 0.19780424 0.17752236
-0.20907496 0.2560156 0.1833029 0.16775744 0.2320489 -0.10228029 0.20108214 -0.003819289
0.1497061 -0.15206556 0.23550722 0.03976795 -0.023400273 0.15809488 -0.091161005 1.6941541
0.21855067 0.09798223 0.22178766 0.11087626 0.1567356 0.25209945 0.19202256 -0.10523211
0.11210073 -0.0021216224 0.09684255 -0.19047119 0.20189829 0.13276385 0.06834409 0.17445913
0.16190962 0.18512984 0.03991197 0.11517154 0.25220907 0.13599916 0.20695299 0.108483806
0.23768699 0.28354135 0.20929344 0.19932705 0.06632593 0.26753783 -0.3757647 -0.25287762
0.08240124 -0.18945272 0.14801921 -0.24663222 0.34668705 -0.07594564 0.22382215 -0.26648465
0.13790661 0.28184295 0.113275506 -0.07290973 -0.42742133 0.16526636 0.20741625 0.25058156
0.12024903 0.23030941 -1.0548035 -1.2456836 0.15423009 0.17778604 0.17610781 -0.6624215
-0.18378824 -0.37373725 0.13696474 -0.12223708 -0.74316937 -0.10318993 0.13315049 -0.3399767
0.10243442 -0.09785488 -0.037152015 0.108779 0.19958636 -0.11832839 0.20018266 -0.085176215
-0.16660798 -2.065855 0.18724039 0.07387354 0.09021337 0.23838276 0.2349257 0.43631104
-0.075034104 0.084745765 0.2477077 0.14410633 -0.011101346 0.22686043 -0.29300797 0.19377124
0.554387 0.15601107 0.13342147 -0.0152744325 0.20311658 -0.18643244 1.6584538 -0.5553213
0.11081279 0.19268651 0.13444671 -0.12231566 -0.09562757 0.2332702 0.21232323 0.2121972
0.21513279 0.21788746 0.15155004 -0.16790318 -0.33634531 -0.36307737 -0.20831697 -0.22550352
0.2097903 0.007201628 0.08954335 -0.30354637 0.0862386 -0.085804 -0.14431815 0.20114753
-0.22883332 0.1715881 -0.15739806 -0.07741794 0.08313688 -0.03274195 -0.4896834 -0.098823756
-0.08566453 0.2184712 -0.12861453 0.064574786 -0.043387696 0.15377647 0.011238697 0.11346167
-0.2737497 0.11255073 -0.094514266 0.13844004 0.19729015 -0.07033238 0.20388031 0.15589675
0.043952323 0.2099853 0.17189085 0.23059916 0.14071672 -0.058549162 -0.21812572 0.12154984
-0.1187243 0.1892914 0.13562697 0.107799545 -0.13144144 0.14424507 -0.10579586 0.15441287
0.01175257 0.097390555 0.27074805 0.0570087 0.1255834 0.12045852 0.046673946 0.088702485
0.07330334 0.070925154 -0.03336224 0.12735882 0.16847788 0.061762076 0.08920159 0.11326981
0.043571595 0.11980383 0.16465291 0.15214303 -0.0026681598 0.051618323 0.12607114 -0.08460312
-0.00740156 -0.24936607 -0.0013159971 0.026827408 0.124288596 0.13280411 0.041790914 0.16333188
0.13510856 0.03143887 0.12262793 0.15798868 -0.038981892 0.10319159 -0.037802137 -0.02251677
0.14064103 0.19884664 0.069144554 -0.021647409 0.13840921 0.055426586 -0.059548154 -0.08922181
0.16807625 0.065477386 0.05721934 0.0002954365 0.15643518 -0.069619216 0.18986478 0.12418414
00000000: b9e1 683e 9b5a 763e 1767 253e 5949 323e
00000010: 0c97 b5be 726d 3b3e b6a1 503e b3ee 7e3e
00000020: e8d8 5a3c 5194 d33d cac1 a2bd 416b 2a3e
00000030: 3256 b4bf 0d60 a23d 8907 bcbd d0d0 073e
00000040: 59de 053d c022 72bc 62d1 3c3e 7043 52bd
00000050: dc2c 103e 03ab 423e 328d 4a3e 6cc8 353e
00000060: bf17 56be 7a14 833e c1b3 3b3e 9bc8 2b3e
00000070: 3a9e 6d3e 5478 d1bd 7ae8 4d3e 094d 7abb
00000080: 8e4c 193e 13b7 1bbe ce28 713e b8e3 223d
00000090: eeb1 bfbc a0e3 213e 9fb2 babd 0bda d83f
000000a0: bfcb 5f3e e8aa c83d 4e1c 633e 1813 e33d
000000b0: 4c7f 203e 2e13 813e 90a1 443e ef83 d7bd
000000c0: 1195 e53d eb0a 0bbb 6355 c63d e10a 43be
000000d0: 6dbe 4e3e 3ff3 073e fcf7 8b3d 6aa5 323e
000000e0: a3cb 253e ad92 3d3e bc7a 233d 0edf eb3d
000000f0: 8c21 813e 5d43 0b3e 7ceb 533e c22c de3d
00000100: 3864 733e 552c 913e 0551 563e 641c 4c3e
00000110: e4d5 873d b8fa 883e 3b64 c0be 2d79 81be
00000120: fbc1 a83d e5ff 41be 5992 173e 288d 7cbe
00000130: f780 b13e 6389 9bbd a231 653e ad70 88be
00000140: 6437 0d3e b84d 903e fdfc e73d b251 95bd
00000150: f8d6 dabe 963b 293e ed64 543e 3a4c 803e
00000160: 2045 f63d 3bd6 6b3e cd03 87bf 8f72 9fbf
00000170: 7eee 1d3e 8b0d 363e 9b55 343e 7594 29bf
00000180: fc32 3cbe 7d5a bfbe 7c40 0c3e 6f57 fabd
00000190: 5940 3ebf 3e55 d3bd 9a58 083e 6d11 aebe
000001a0: 23c9 d13d 2468 c8bd b62c 18bd 86c7 de3d
000001b0: 5e60 4c3e 2856 f2bd affc 4c3e de70 aebd
000001c0: 489b 2abe f836 04c0 f2bb 3f3e 034b 973d
000001d0: cac1 b83d 9c1a 743e 5d90 703e 2964 df3e
000001e0: 7bab 99bd 308f ad3d 16a7 7d3e 9c90 133e
000001f0: 6ce2 35bc 1a4e 683e 2405 96be f86b 463e
00000200: 4eec 0d3f 5ec1 1f3e a39f 083e 9d41 7abc
00000210: cbfd 4f3e 25e8 3ebe 3748 d43f 8929 0ebf
00000220: d1f1 e23d 9d4f 453e 66ac 093e a280 fabd
00000230: 63d8 c3bd 62de 6e3e 436b 593e 394a 593e
00000240: c54b 5c3e e41d 5f3e ef2f 1b3e d0ee 2bbe
00000250: 7435 acbe 47e5 b9be 0b51 55be 65ea 66be
00000260: 45d3 563e a2fb eb3b 8162 b73d 6e6a 9bbe
00000270: dd9d b03d 02ba afbd 23c8 13be 9ef9 4d3e
00000280: 4853 6abe cab4 2f3e f52c 21be 4c8d 9ebd
00000290: ab43 aa3d 6c1c 06bd c8b7 fabe 1c64 cabd
000002a0: e370 afbd eab6 5f3e 87b3 03be c93f 843d
000002b0: 4cb7 31bd 9477 1d3e 8322 383c 985e e83d
000002c0: ec28 8cbe ff80 e63d b290 c1bd 3ac3 0d3e
000002d0: 6e06 4a3e 6c0a 90bd 00c6 503e 66a3 1f3e
000002e0: 5a07 343d 6306 573e 2804 303e 3022 6c3e
000002f0: 0b18 103e 3fd1 6fbd 595c 5fbe 1fef f83d
00000300: ba25 f3bd 9bd5 413e cce1 0a3e 02c6 dc3d
00000310: 9698 06be fbb4 133e 80ab d8bd 681e 1e3e
00000320: da8d 403c b374 c73d 7d9f 8a3e f481 693d
00000330: ef98 003e f5b2 f63d 2e2d 3f3d a6a9 b53d
00000340: 1020 963d 3541 913d d8a6 08bd 5a6a 023e
00000350: 7785 2c3e 3bfa 7c3d 53af b63d 01fa e73d
00000360: 2178 323d b65b f53d c69a 283e 62cb 1b3e
00000370: 4bdc 2ebb bc6d 533d cb18 013e 6744 adbd
00000380: c988 f2bb d259 7fbe 897d acba 27c5 db3c
00000390: 058b fe3d cdfd 073e f32c 2b3d 7940 273e
000003a0: e659 0a3e 0bc6 003d 5a24 fb3d c9c7 213e
000003b0: 7aab 1fbd 1d56 d33d 6ad6 1abd 1775 b8bc
000003c0: 3404 103e 749e 4b3e a99b 8d3d e855 b1bc
000003d0: 25bb 0d3e fd06 633d c4e8 73bd edb9 b6bd
000003e0: 2e1c 2c3e 0219 863d d45e 6a3d d1e4 9a39
000003f0: 8b30 203e 8594 8ebd ea6b 423e 4154 fe3d

lstm.bias_hh_l0 f4 [800]
0.10085747 0.15072165 0.1672422 0.26387912 -0.29047364 0.12464666 0.1363429 0.28639853
-0.08118025 0.14395124 -0.058142077 0.2582213 -1.4092721 0.09246448 -0.19627379 0.16629612
0.012123771 -0.014911618 0.18156308 -0.0886931 0.1074282 0.19192971 0.29452527 0.2673033
-0.1501788 0.20311005 0.14215772 0.13979739 0.23412116 -0.06810135 0.10395741 0.054005872
0.17599398 -0.12851514 0.2315797 0.064534776 0.04332605 0.17554098 -0.1251578 1.7092851
0.2203195 0.12087475 0.21695112 0.16921574 0.14848953 0.25225613 0.15773317 -0.07580093
0.1361394 -0.0868785 0.113755696 -0.22155298 0.14078148 0.12663119 0.03783112 0.16015339
0.15601961 0.179657 0.06458441 0.07254816 0.17214061 0.19491947 0.19792037 0.12191386
0.24381241 0.29975 0.19457145 0.26512054 0.16142191 0.24947844 -0.4256792 -0.24317513
0.12627879 -0.07957546 0.1507224 -0.18684813 0.30174282 -0.07876451 0.16516438 -0.23391959
0.19713104 0.24353461 0.22337428 -0.08189264 -0.4521418 0.1481594 0.1391146 0.23088595
0.14299911 0.1922231 -1.0245739 -1.2759963 0.1488951 0.1845118 0.20476183 -0.7227233
-0.08539741 -0.4191066 0.1482349 -0.18382014 -0.69980955 -0.052253477 0.12120905 -0.27768642
0.14745577 -0.23269336 -0.042264942 0.16897048 0.18026632 -0.025624244 0.17720377 -0.007548572
-0.23934524 -2.1881237 0.18542215 0.102835685 0.10961679 0.1620916 0.23085439 0.4027693
-0.19257252 0.09396113 0.15408975 0.16281603 0.059999034 0.2525254 -0.35947925 0.19662496
0.54737854 0.124493964 0.13199782 -0.064190686 0.25323692 -0.22564887 1.5706218 -0.4947442
0.02207563 0.14360087 0.11406736 -0.12058094 -0.024580432 0.18249115 0.2128559 0.1633925
0.18764292 0.27948606 0.2745463 -0.16124293 -0.3085192 -0.25835988 -0.13201725 -0.1869523
0.23642385 0.009131698 0.11891086 -0.33317062 0.116526045 -0.07076342 -0.025325237 0.24974301
-0.27981964 0.1501049 -0.12963928 0.005762163 0.14403176 -0.09754997 -0.5697336 -0.037760865
-0.011465035 0.19968617 -0.15351044 0.12563391 -0.0014271565 0.15403318 0.09454747 0.11009906
-0.15772985 0.20142908 -0.20318484 0.14450124 0.23607434 -0.07803681 0.2060263 0.19509418
0.043543227 0.21586952 0.21633357 0.15847555 0.12570089 -0.032393865 -0.1803332 0.20900874
-0.23137046 0.19354802 0.117291726 0.10368208 -0.077606745 0.08473222 -0.0018957102 0.16350625
-0.036189076 0.04487794 0.13245438 0.12061967 0.13287261 0.060577765 0.11381892 0.11155139
0.1006656 0.11205902 -0.14965129 0.020468203 0.040943142 0.12507913 0.101138666 0.05918645
0.09194235 0.12447961 0.077760965 0.072343886 -0.010133529 0.16182926 0.16374956 -0.09671098
0.023096327 -0.23735176 0.12057169 0.06983957 0.07697289 0.07488045 0.11207314 0.06371974
0.15854615 0.07720865 0.101740494 0.15753634 0.0064596315 0.110833354 -0.039317306 -0.064979486
0.040589668 0.15862642 0.10770944 -0.040422194 0.03582915 0.14619866 0.024609141 -0.03917946
0.081060134 0.065350525 0.03309376 -0.06930815 0.07815454 -0.03855658 0.16743872 0.049387004
00000000: 5c8e ce3d c756 1a3e 8a41 2b3e 2a1b 873e
00000010: f6b8 94be c046 ff3d 799d 0b3e d4a2 923e
00000020: d541 a6bd f467 133e 6326 6ebd 9535 843e
00000030: 0763 b4bf 045e bd3d fffb 48be 8849 2a3e
00000040: c8a2 463c dc4f 74bc aceb 393e baa4 b5bd
00000050: 5103 dc3d 3989 443e 04cc 963e fadb 883e
00000060: 79c8 19be 15fc 4f3e cb91 113e 0c27 0f3e
00000070: 75bd 6f3e b878 8bbd 9fe7 d43d 4335 5d3d
00000080: c437 343e 7999 03be 3b23 6d3e cf2a 843d
00000090: a876 313d 04c1 333e 5e29 00be dbc9 da3f
000000a0: 6f9b 613e 2e8d f73d 6f28 5e3e e446 2d3e
000000b0: a40d 183e b727 813e ce84 213e 853d 9bbd
000000c0: 2068 0b3e 5bed b1bd bff8 e83d c9de 62be
000000d0: 0529 103e 9bab 013e cef4 1a3d 40ff 233e
000000e0: 9bc3 1f3e 01f8 373e d544 843d 2194 943d
000000f0: a145 303e f898 473e a3ab 4a3e f9ad f93d
00000100: f6a9 793e d578 993e bd3d 473e e1bd 873e
00000110: c94b 253e 4777 7f3e a0f2 d9be e702 79be
00000120: 3a4f 013e 75f8 a2bd f956 1a3e 1e55 3fbe
00000130: 097e 9a3e 4a4f a1bd da20 293e 9e88 6fbe
00000140: b8dc 493e 2361 793e 3abc 643e 54b7 a7bd
00000150: 217f e7be 19b7 173e 0f74 0e3e 5e6d 6c3e
00000160: 5c6e 123e 22d6 443e 3d25 83bf d953 a3bf
00000170: f577 183e a9f0 3c3e 16ad 513e 6504 39bf
00000180: d6e4 aebd 2495 d6be e4ca 173e 593b 3cbe
00000190: b826 33bf be07 56bd 733c f83d ea2c 8ebe
000001a0: a5fe 163e 2b47 6ebe 011e 2dbd 9906 2d3e
000001b0: bc97 383e efe9 d1bc e874 353e 035a f7bb
000001c0: eb16 75be 380a 0cc0 4edf 3d3e 849b d23d
000001d0: c57e e03d 57fb 253e 1865 6c3e c737 ce3e
000001e0: bb31 45be b16e c03d b4c9 1d3e 3fb9 263e
000001f0: 8cc1 753d 024b 813e aa0d b8be 0e58 493e
00000200: 0021 0c3f b1f6 fe3d 702a 073e 6876 83bd
00000210: 45a8 813e 7f10 67be 230a c93f 1d4f fdbe
00000220: f4d7 b43c 1b0c 133e 269c e93d 24f3 f6bd
00000230: e75c c9bc f6de 3a3e e6f6 593e 5d50 273e
00000240: 7725 403e cc18 8f3e 5591 8c3e de1c 25be
00000250: 3bf6 9dbe bf47 84be 882f 07be 6c70 3fbe
00000260: 1819 723e 1e9d 153c 8987 f33d 5795 aabe
00000270: 35a5 ee3d 69ec 90bd df76 cfbc a2bc 7f3e
00000280: 8544 8fbe 19b5 193e 29c0 04be 87d0 bc3b
00000290: 107d 133e 47c8 c7bd 10da 11bf 23ab 1abd
000002a0: d8d7 3bbc 887a 4c3e d731 1dbe 2da6 003e
000002b0: 6d0f bbba e0ba 1d3e 1ba2 c13d 9e7b e13d
000002c0: ef83 21be 6d43 4e3e b00f 50be 22f8 133e
000002d0: 79bd 713e c3d1 9fbd 8ff8 523e c5c6 473e
000002e0: 625a 323d e60c 5d3e 8c86 5d3e 6a47 223e
000002f0: bcb7 003e 6eaf 04bd 44a9 38be 6306 563e
00000300: 61ec 6cbe 7431 463e a536 f03d 4557 d43d
00000310: 49f0 9ebd 1688 ad3d 7b79 f8ba 2f6e 273e
00000320: ff3a 14bd eed1 373d 1fa2 073e 7207 f73d
00000330: c20f 083e 6420 783d e519 e93d 0e75 e43d
00000340: c429 ce3d 337f e53d 303e 19be efac a73c
00000350: ffb3 273d be14 003e ca21 cf3d 7e6d 723d
00000360: 454c bc3d 2aef fe3d 2441 9f3d 0829 943d
00000370: 1a07 26bc 92b6 253e f7ad 273e 6810 c6bd
00000380: 8234 bd3c 570c 73be 4aee f63d 0c08 8f3d
00000390: f6a3 9d3d ec5a 993d 9a86 e53d 7f7f 823d
000003a0: ec59 223e 921f 9e3d 525d d03d 3551 213e
000003b0: 51ab d33b 99fc e23d 2f0b 21bd f713 85bd
000003c0: 5a41 263d f76e 223e c496 dc3d be91 25bd
000003d0: 96c1 123d 1ab5 153e 1c99 c93c a47a 20bd
000003e0: db02 a63d 7fd6 853d 538d 073d 6ef1 8dbd
000003f0: 7d0f a03d 81ed 1dbd 0e75 2b3e 074a 4a3d

lstm.weight_hr_l0 f4 [2, 200]
0.1447662 0.57087755 0.61221176 0.51661575 -0.61382246 -0.5274677 -0.54226065 -1.6603593
-0.5168778 0.61576647 0.025362564 0.4712566 -0.5138576 -0.5930612 -0.5510861 1.1066468
1.3608712 -0.69468874 -0.5318278 0.6062376 -0.510484 -0.6093151 0.8478092 0.77381444
0.005691244 1.04576 0.531696 -2.0386324 -0.53342104 -0.48714268 -0.60120994 -0.5531632
-0.6195261 0.82919705 -1.1867514 0.8113975 0.0012854062 0.597134 0.39208788 0.76462644
1.204601 0.5717361 0.58471996 -0.18711382 0.57117337 0.5993925 -0.17763612 0.061301608
-0.439388 -0.5670215 -0.5634422 0.05542876 0.5734435 0.0006330698 -0.5417987 1.2541679
-1.152296 0.5381752 -0.041646328 -0.53972304 -0.4876035 -0.035242185 0.5127985 -0.5463861
-0.68359715 0.5224273 -0.54882085 0.96301496 -0.59866977 -0.5537631 2.027523 -0.6229877
0.3783158 0.5502755 0.63843185 1.0442048 -0.78283304 -0.12943515 -0.49743268 0.58233714
0.6499358 -0.61578417 -0.62058365 0.03212669 -0.6430712 -0.6056959 -0.5477806 -0.54254395
0.50389516 0.5173014 0.49531943 -1.1422598 -0.05626142 -0.53700215 0.5215269 -0.91402245
0.68645084 -1.2042387 -0.6400181 1.4128778 -1.653323 0.73560214 0.45573944 1.1357747
0.5475876 -0.37434667 -0.04081149 -0.027916176 0.11000405 0.06194836 0.56205183 0.011550898
0.050768998 0.7272148 -0.49254683 0.15558812 -0.48720354 0.57631046 -0.63968956 -0.46836403
0.6137571 -0.4611329 -0.4935393 0.49143302 0.5119211 -1.0924519 -0.6104032 0.55102617
-0.21698351 0.5334389 -0.5540118 0.04224505 0.59802413 0.043771584 0.50940335 -0.46705872
-0.7526018 -0.51338077 -0.57843 0.006095146 0.44717684 0.5230301 0.20707874 -0.58326536
-0.43273315 -0.52827895 1.1780406 0.040710337 -0.9315341 1.8392105 0.6867216 -0.93309534
0.52073526 0.6478689 0.48430815 0.8315496 -0.51249117 0.12781338 -0.059844024 0.71041065
0.83995587 -0.5043676 0.6219094 0.63011426 -0.6736173 0.002437322 0.5047134 0.03728347
-0.5303726 -0.55757356 -0.5407371 0.51589906 0.010574316 0.48724535 0.07212832 0.4087444
-0.06276457 0.5735952 0.17082927 -0.5508176 -0.5223293 0.364598 0.5717097 -0.0485131
0.749316 -0.6253401 -0.55720776 0.55795455 0.46951187 -1.1312326 -0.51603603 0.014381125
0.052129388 -0.79203355 -0.54897183 0.9185105 -0.4794776 -0.5398449 -0.06739552 0.90681386
0.20166382 0.56863713 0.54249126 0.61235166 -0.71797544 -0.5076109 -0.5283931 -0.30266076
-0.53375053 0.52990067 -0.054850355 0.53025746 -0.4165797 -0.47783202 -0.49024606 1.3878825
1.6854072 -0.66317683 -0.60436094 0.55815685 -0.4423223 -0.58438176 1.5755783 0.39376926
-0.032933965 0.6871804 0.52777267 -0.57485926 -0.58621705 -0.5316905 -0.50438076 -0.5110214
-0.61718714 1.2443185 -0.61409193 0.7737 0.023423396 0.5956659 0.40351662 0.79722005
1.0535184 0.47016856 0.4580193 -0.1602197 0.4540502 0.5379697 -0.19712238 0.08030585
-0.54183304 -0.45481557 -0.5437155 -0.06292571 0.4967144 0.0678926 -0.5689948 1.2794329
00000000: 973d 143e 0825 123f e9b9 1c3f ee40 043f
00000010: 7823 1dbf 2008 07bf 98d1 0abf a786 d4bf
00000020: 1a52 04bf dfa2 1d3f 27c5 cf3c 8c48 f13e
00000030: 2c8c 03bf dcd2 17bf fb13 0dbf 9aa6 8d3f
00000040: 0731 ae3f 1fd7 31bf de25 08bf 6332 1b3f
00000050: 14af 02bf 13fc 1bbf 060a 593f b418 463f
00000060: 9d7d ba3b 77db 853f 3b1d 083f f478 02c0
00000070: 488e 08bf c46a f9be e5e8 19bf 1a9c 0dbf
00000080: 4399 1ebf 4246 543f 78e7 97bf bfb7 4f3f
00000090: 137b a83a c6dd 183f bebf c83e 8fbe 433f
000000a0: 5e30 9a3f 4c5d 123f 35b0 153f c49a 3fbe
000000b0: 6b38 123f c971 193f 3ee6 35be 6517 7b3d
000000c0: 77f7 e0be 5228 11bf bf3d 10bf 4409 633d
000000d0: 31cd 123f 98f4 253a 52b3 0abf 9388 a03f
000000e0: 6f7e 93bf dac5 093f 5795 2abd 4a2b 0abf
000000f0: 2aa7 f9be 1c5a 10bd c346 033f f6df 0bbf
00000100: 3900 2fbf ccbd 053f 867f 0cbf 2688 763f
00000110: 6c42 19bf 6bc3 0dbf f0c2 0140 1f7c 1fbf
00000120: 9cb2 c13e dbde 0c3f 4570 233f 81a8 853f
00000130: bf67 48bf a68a 04be 7faf febe 0c14 153f
00000140: 3162 263f 08a4 1dbf 92de 1ebf 4797 033d
00000150: 50a0 24bf e30e 1bbf 593b 0cbf 29e4 0abf
00000160: 46ff 003f dd6d 043f 829a fd3e 9235 92bf
00000170: 6072 66bd f978 09bf c982 053f 60fd 69bf
00000180: 3ebb 2f3f 7e24 9abf 3ad8 23bf 2ed9 b43f
00000190: 17a0 d3bf 6c50 3c3f ae56 e93e 1161 913f
000001a0: b32e 0c3f 5eaa bfbe f329 27bd 77b0 e4bc
000001b0: ce49 e13d 90bd 7d3d a1e2 0f3f fa3f 3d3c
000001c0: 27f3 4f3d c02a 3a3f 192f fcbe 7e52 1f3e
000001d0: be72 f9be 1589 133f b2c2 23bf 69cd efbe
000001e0: 2f1f 1d3f 9d19 ecbe 2fb1 fcbe 1c9d fb3e
000001f0: 430d 033f 77d5 8bbf 6243 1cbf 0d10 0d3f
00000200: ed30 5ebe 748f 083f b8d3 0dbf 2509 2d3d
00000210: 1c18 193f d549 333d 4268 023f 5222 efbe
00000220: 83aa 40bf ec6c 03bf fd13 14bf cab9 c73b
00000230: 5df4 e43e 4de5 053f 730c 543e e150 15bf
00000240: 338f ddbe 4a3d 07bf 09ca 963f e2bf 263d
00000250: 0579 6ebf 406b eb3f fdcc 2f3f 56df 6ebf
00000260: e84e 053f bcda 253f 3df7 f73e 6fe0 543f
00000270: 9f32 03bf 83e1 023e 021f 75bd 79dd 353f
00000280: 5907 573f 3c1e 01bf 7435 1f3f 2b4f 213f
00000290: 2f72 2cbf 7abb 1f3b e634 013f 8db6 183d
000002a0: 80c6 07bf 24bd 0ebf bf6d 0abf f611 043f
000002b0: e53f 2d3c 3978 f93e 03b8 933d f246 d13e
000002c0: b68a 80bd 23d7 123f deed 2e3e 6202 0dbf
000002d0: 5fb7 05bf 97ac ba3e 915b 123f acb5 46bd
000002e0: 2cd3 3f3f 4a16 20bf 2ba5 0ebf 1cd6 0e3f
000002f0: dc63 f03e 3bcc 90bf f01a 04bf cf9e 6b3c
00000300: a085 553d b6c2 4abf 6b89 0cbf 8123 6b3f
00000310: 177e f5be 4633 0abf aa06 8abd f424 683f
00000320: f680 4e3e 3492 113f b5e0 0a3f 14c3 1c3f
00000330: 3dcd 37bf caf2 01bf c544 07bf 5af6 9abe
00000340: e0a3 08bf 92a7 073f c4aa 60bd f4be 073f
00000350: ef49 d5be 66a6 f4be 8801 fbbe 22a6 b13f
00000360: 6cbb d73f f5c5 29bf 66b7 1abf 5ee3 0e3f
00000370: 1278 e2be 0b9a 15bf 8dac c93f 209c c93e
00000380: c4e5 06bd 0eeb 2f3f 1c1c 073f fa29 13bf
00000390: 5212 16bf de1c 08bf 191f 01bf 4cd2 02bf
000003a0: faff 1dbf d445 9f3f 2135 1dbf 3411 463f
000003b0: 6ce2 bf3c 8f7d 183f bb99 ce3e 9d16 4c3f
000003c0: b1d9 863f efb9 f03e 8181 ea3e a210 24be
000003d0: 4579 e83e 62b8 093f 73da 49be 6577 a43d
000003e0: 92b5 0abf 96dd e8be f030 0bbf 32df 80bd
000003f0: 5a51 fe3e 470b 8b3d a5a9 11bf 75c4 a33f

exp_avg f4 [800, 2]
3.907037e-09 3.6758228e-09 -5.7821273e-07 -6.3160604e-07 7.024641e-05 7.154315e-05 -1.0901767e-06 -1.564968e-06
-0.10166821 -0.08889267 4.2109874e-05 3.436737e-05 6.573749e-05 5.4686196e-05 -0.010126017 -0.016621102
-4.0902677e-08 -4.2882714e-08 1.1880642e-05 2.1574631e-05 4.7205177e-08 4.2626564e-08 1.2819913e-07 -9.5290085e-07
-5.1777646e-05 -5.2569343e-05 3.2548408e-07 3.533922e-07 -9.949671e-05 -6.328897e-05 7.531055e-05 7.144163e-05
-0.0031506245 -0.001435425 0.0010874922 0.0076905815 4.438625e-05 4.2049185e-05 2.0119797e-08 2.264322e-08
6.470259e-06 4.256244e-06 9.463546e-05 0.0001113037 3.095217e-07 2.9123322e-07 7.208774e-06 6.781911e-06
8.338971e-10 7.478313e-10 0.00017472959 0.00016353355 1.4607401e-06 3.7989896e-08 0.00025738683 0.00024524526
3.794787e-06 2.0425211e-06 -7.466151e-08 -7.7141486e-08 3.0397176e-05 3.5840563e-05 -5.3109297e-08 -5.3740184e-08
-3.1675134e-07 -3.3275074e-07 0.0001917649 0.0033314982 0.000106272564 0.000100935344 0.023334201 0.047424648
8.038595e-07 7.1152596e-07 6.4311407e-06 8.0699065e-06 3.025497e-05 2.8532555e-05 1.5247684 1.4470799
3.1894044e-06 3.0277165e-06 5.20889e-05 4.3333217e-05 3.136701e-06 3.2249106e-06 6.025188e-06 5.729563e-06
-1.0097726e-06 -1.6920175e-06 -8.2517994e-07 -9.592804e-07 0.00014466506 0.00013750714 -4.4741353e-07 -4.219349e-07
-9.333797e-07 -1.0449298e-06 -1.4908919e-07 -1.537007e-07 5.5161458e-05 4.5188055e-05 -1.688949e-07 -1.3753362e-07
-3.1628517e-07 -3.3614933e-07 4.6038737e-09 4.3248947e-09 -1.0441283e-07 -1.0742307e-07 0.00020247076 0.00019207205
2.3435005e-05 2.2354998e-05 4.7091493e-05 4.9520324e-05 8.321378e-08 7.90712e-08 0.00018301379 0.0001755651
-7.936767e-07 -8.8153064e-07 3.3471093e-09 3.1079967e-09 4.9325613e-06 2.9334478e-06 4.517882e-05 3.7564285e-05
7.2050125e-06 4.6907066e-06 -1.127257e-06 -1.2364856e-06 6.7609585e-07 -4.260005e-07 3.231721e-05 3.0332667e-05
1.9346315e-05 1.50165715e-05 -5.0937945e-07 -5.4671074e-07 -3.5823305e-05 -0.00018280953 -4.3107844e-05 -4.3780397e-05
1.2774956e-07 1.2109152e-07 -4.952076e-08 -5.167888e-08 -2.222947e-08 -9.271145e-07 -0.00029851272 -2.9994391e-05
5.3846858e-08 5.028351e-08 -2.1450571e-12 -2.1330505e-12 -8.345118e-07 -1.0860401e-06 -0.05481824 -0.044856887
0.00015366815 0.00014593123 8.2824505e-07 7.574511e-07 5.8657322e-05 5.5235134e-05 -4.575043e-06 -3.931534e-06
-0.00028721316 -0.0018516064 1.6047145e-06 3.211811e-07 -1.4299727e-06 -1.2056639e-06 -7.2343096e-07 -5.0107184e-07
8.769468e-06 6.1217556e-06 4.166562e-05 3.9318315e-05 -0.10954388 -0.08445031 -0.63750356 -0.6341552
1.3164971e-07 1.3962566e-07 2.242812e-06 4.9740925e-06 -4.7799216e-07 -1.3374794e-06 -0.18116644 -0.22990195
-0.0011089876 -2.0695625e-05 -0.29202008 -0.3976053 5.2555843e-05 4.4349024e-05 -0.00021689985 -0.00016749596
-0.00084520585 -0.0019408105 0.0005248482 0.009299872 0.000120983794 0.00011537602 -1.5798612 -1.3756429
3.6604502e-05 3.643497e-05 1.296776e-06 1.2326672e-06 -1.8688875e-06 -1.577998e-06 -3.6262887e-10 -3.7282946e-10
5.82801e-10 5.3995697e-10 -8.838039e-06 -8.563734e-06 4.9535523e-05 4.1190837e-05 -1.244686e-07 -1.1743178e-07
-7.105137e-07 -7.203996e-07 -0.5395094 -0.5524692 7.1434106e-06 7.4608743e-06 2.6190635e-06 2.476303e-06
2.1420235e-05 1.6493128e-05 -3.7182218e-07 -3.902746e-07 -1.7025698e-06 -2.2382023e-06 1.5953617e-08 1.5214438e-08
-6.458051e-08 -6.7121555e-08 -1.4819994e-07 -1.5435994e-07 -1.0354166e-06 -1.5356595e-06 -8.2647244e-07 -1.2121949e-06
0.0011882584 0.017619228 0.0002828654 0.0002636927 -1.340618e-05 -1.34272805e-05 -5.8814095e-07 -6.46873e-07
00000000: a93e 8631 c299 7c31 7a36 1bb5 a38b 29b5
00000010: 4151 9338 7009 9638 3052 92b5 e40b d2b5
00000020: 6c37 d0bd 5c0d b6bd 229f 3038 af25 1038
00000030: 8cdc 8938 db5e 6538 98e7 25bc fa28 88bc
00000040: f8ac 2fb3 0b2e 38b3 f852 4737 2bfb b437
00000050: a4be 4a33 6714 3733 1ca7 0934 d9ca 7fb5
00000060: d32b 59b8 e77d 5cb8 31be ae34 dbb9 bd34
00000070: e4a8 d0b8 02ba 84b8 0bf0 9d38 efd2 9538
00000080: b57a 4ebb df24 bcba 2f8a 8e3a 4601 fc3b
00000090: 5f2b 3a38 f85d 3038 e7d3 ac32 f880 c232
000000a0: 1a1b d936 dcd0 8e36 0777 c638 b86b e938
000000b0: 572c a634 ca5a 9c34 e6e2 f136 2c90 e336
000000c0: 4b38 6530 f38f 4d30 9e37 3739 347a 2b39
000000d0: a60e c435 552a 2333 e0f1 8639 4394 8039
000000e0: f2a9 7e36 3f12 0936 9955 a0b3 fba8 a5b3
000000f0: 70fd fe37 8353 1638 4a1a 64b3 f5cf 66b3
00000100: f90d aab4 eaa4 b2b4 8014 4939 4455 5a3b
00000110: a6de de38 40ad d338 5e27 bf3c 5940 423d
00000120: cec8 5735 b1ff 3e35 14cb d736 fc63 0737
00000130: 0ecc fd37 3259 ef37 9c2b c33f ea39 b93f
00000140: 8d09 5636 c62f 4b36 087a 5a38 b0c0 3538
00000150: 1d80 5236 8b6b 5836 f92b ca36 9240 c036
00000160: 8687 87b5 4719 e3b5 ef81 5db5 a0c0 80b5
00000170: 3bb1 1739 cb2f 1039 0c34 f0b4 4b86 e2b4
00000180: 5d8d 7ab5 843f 8cb5 5315 20b4 ed08 25b4
00000190: 2a5d 6738 4e88 3d38 7a59 35b4 f4ac 13b4
000001a0: e7cd a9b4 0378 b4b4 1a30 9e31 2d9a 9431
000001b0: 8f39 e0b3 75b0 e6b3 554e 5439 f366 4939
000001c0: 4a96 c437 fe86 bb37 1b84 4538 0bb4 4f38
000001d0: 42b3 b233 dacd a933 64e7 3f39 e617 3839
000001e0: 0c0d 55b5 53a2 6cb5 f802 6631 7594 5531
000001f0: 6182 a536 40dc 4436 637e 3d38 588e 1d38
00000200: 96c2 f136 dd64 9d36 414c 97b5 52f5 a5b5
00000210: f47c 3535 10b5 e4b4 578c 0738 e872 fe37
00000220: e549 a237 afef 7b37 4abc 08b5 adc1 12b5
00000230: fb40 16b8 8fb0 3fb9 b2ce 34b8 d8a0 37b8
00000240: 882b 0934 6205 0234 a7b0 54b3 88f5 5db3
00000250: 1ff3 beb2 d3de 78b5 b381 9cb9 779c fbb7
00000260: 3f45 6733 4ef7 5733 eaf1 16ac 9f19 16ac
00000270: 3703 60b5 0ec4 91b5 1789 60bd dbbb 37bd
00000280: fb21 2139 1e05 1939 9154 5e35 a553 4b35
00000290: d206 7638 46ac 6738 5283 99b6 9feb 83b6
000002a0: 1995 96b9 9ab1 f2ba 9261 d735 cb6e ac34
000002b0: 7ded bfb5 4cd2 a1b5 cc31 42b5 6581 06b5
000002c0: 9420 1337 7b69 cd36 1ec2 2e38 b8e9 2438
000002d0: 8b58 e0bd 49f4 acbd 6f33 23bf ff57 22bf
000002e0: 995b 0d34 02ec 1534 3783 1636 21e7 a636
000002f0: 5f4f 00b5 7183 b3b5 b283 39be 6b6b 6bbe
00000300: 735b 91ba 849b adb7 a883 95be ec92 cbbe
00000310: 686f 5c38 6703 3a38 9c6f 63b9 dba1 2fb9
00000320: ce90 5dba cb62 feba f795 093a 7e5e 183c
00000330: aeb8 fd38 07f6 f138 e438 cabf 1115 b0bf
00000340: c987 1938 c0d1 1838 e20c ae35 1f72 a535
00000350: 7cd6 fab5 99cb d3b5 7a5b c7af 15f7 ccaf
00000360: f932 2030 186c 1430 1747 14b7 f5ac 0fb7
00000370: 5dc4 4f38 53c4 2c38 aba5 05b4 ce2e fcb3
00000380: 21ba 3eb5 7c61 41b5 4a1d 0abf 9f6e 0dbf
00000390: 6eb1 ef36 6c58 fa36 2bc3 2f36 902e 2636
000003a0: 9baf b337 b95a 8a37 da9e c7b4 ef86 d1b4
000003b0: da83 e4b5 0634 16b6 600a 8932 e7b0 8232
000003c0: 83af 8ab3 7724 90b3 e420 1fb4 23be 25b4
000003d0: a5f8 8ab5 dc1c ceb5 c1da 5db5 b3b2 a2b5
000003e0: 56bf 9b3a 3356 903c 8d4d 9439 3c40 8a39
000003f0: 1beb 60b7 bb45 61b7 bde0 1db5 c6a4 2db5

exp_avg_sq f4 [800, 2]
3.6910208e-08 3.3935205e-08 5.218818e-06 4.5985876e-06 0.07073084 0.06450131 9.529997e-05 8.410981e-05
0.6325361 0.59972024 0.015695803 0.014289132 0.033281613 0.030380301 7.808985 6.6903286
6.7643754e-08 6.851798e-08 0.008847206 0.00819846 2.0616344e-05 1.732971e-05 0.0005019251 0.00046615364
0.0008848291 0.0009012776 2.7697879e-05 2.6227244e-05 0.0025990221 0.002534115 0.0047418885 0.0042591593
0.05522348 0.081236556 0.40779027 0.37574178 0.033114657 0.030440478 2.1428836e-05 1.9875193e-05
0.0010576037 0.0009491471 0.14086004 0.12798995 2.0383438e-06 1.8753841e-06 9.276804e-05 8.381453e-05
3.046934e-09 2.7819793e-09 0.02513986 0.022916969 0.00057027786 0.00052130903 0.034709483 0.03161496
0.0015769511 0.001452448 1.3865507e-07 1.415605e-07 0.019501574 0.01773259 4.9142102e-08 5.7350373e-08
1.5625875e-06 1.3644125e-06 0.0019664937 0.0018878598 0.0057531274 0.0052176276 0.29748085 0.2737512
1.4046782e-06 1.1642528e-06 0.004404994 0.0040690526 0.0014340609 0.0013251513 5.54294 5.2109666
2.9722949e-05 2.6577194e-05 0.01812706 0.016443945 0.0017702179 0.0016224675 2.4596215e-05 2.2208716e-05
0.00033633524 0.00030513926 1.5128536e-05 1.3118413e-05 0.00027167232 0.0002601297 2.449263e-07 2.1334773e-07
8.807087e-05 8.216909e-05 3.7592025e-07 3.4794425e-07 0.023040641 0.020857202 1.889456e-07 1.8081961e-07
1.5830753e-06 1.4109758e-06 3.083297e-05 2.7586697e-05 1.9037203e-07 1.6874316e-07 0.020602515 0.018816901
0.00052921573 0.00046280498 0.034633394 0.03182718 2.8847012e-07 2.555566e-07 0.03309071 0.030000592
1.1847266e-05 1.0644094e-05 4.4322896e-08 4.5632664e-08 0.0014021192 0.0012843983 0.023832807 0.021643337
0.0025556542 0.0023540999 2.7162518e-05 2.5308344e-05 0.00036640736 0.0003298847 0.0009990548 0.0009255973
0.004141684 0.0037277562 4.3530295e-06 3.979161e-06 0.83293176 0.79279006 0.00011614305 0.0001242517
6.139855e-07 5.5935413e-07 8.607374e-08 7.246168e-08 0.00019289603 0.00017493666 0.00045486313 0.0007168292
1.6122563e-05 1.6113208e-05 2.1257598e-05 2.4127463e-05 7.010249e-05 6.33255e-05 0.31256 0.26424146
0.025361706 0.02325613 4.1379944e-06 3.9680585e-06 0.04526448 0.041303057 0.0063391733 0.005776724
0.04089438 0.038703315 0.0012155911 0.0011036961 0.0008112158 0.000769786 0.0004674374 0.00043338438
0.0011699041 0.001049315 0.028743327 0.026390985 0.22008133 0.20737122 4.030247 4.0430408
1.273356e-06 1.1879221e-06 0.002110729 0.0019703016 0.0004407853 0.00040377936 1.052631 0.96472394
0.007856514 0.00781571 9.060863 8.361995 0.034560006 0.031716056 0.00010620964 9.089036e-05
0.9371297 0.8863756 0.0039627366 0.0044613294 0.018310713 0.016622888 4.7792296 4.4119525
0.024095347 0.021903956 1.9178931e-05 1.8599309e-05 2.3722063e-05 2.2077267e-05 2.8338961e-06 2.5547324e-06
1.5996912e-08 1.4562879e-08 0.00018468664 0.00017080344 0.022234248 0.02020033 8.391191e-05 7.797637e-05
8.2791905e-07 7.396496e-07 2.3530629 2.202143 0.0041666143 0.0038062087 0.00034307587 0.00029362584
0.0046672695 0.0042173187 2.8298398e-06 2.6947512e-06 0.00036697564 0.00033982995 2.5322633e-08 2.4434831e-08
1.2374102e-07 9.812356e-08 4.6333412e-07 4.421849e-07 0.00036435775 0.00034067562 5.695936e-05 5.1154228e-05
0.06927334 0.06489697 0.061641157 0.056608405 0.0008827245 0.00077676587 5.144735e-06 4.6359824e-06
00000000: 3487 1e33 27c0 1133 4e1d af36 914d 9a36
00000010: 55db 903d 4319 843d c8db c738 1c64 b038
00000020: e3ed 213f 4487 193f 7c94 803c f71c 6a3c
00000030: 4d52 083d 1ce0 f83c 35e3 f940 2c17 d640
00000040: 8c43 9133 2824 9333 dff3 103c d552 063c
00000050: 43f1 ac37 455f 9137 a093 033a 1566 f439
00000060: e0f3 673a b743 6c3a be58 e837 9402 dc37
00000070: 5b54 2a3b 6513 263b d861 9b3b 6b90 8b3b
00000080: 0432 623d 5a5f a63d e3c9 d03e 3a61 c03e
00000090: 3ca3 073d 4f5e f93c 13c2 b337 a7b9 a637
000000a0: 4b9f 8a3a 2fd0 783a 9d3d 103e cc0f 033e
000000b0: 7bca 0836 b5b5 fb35 768c c238 95c5 af38
000000c0: 3b62 5131 192d 3f31 1cf2 cd3c 5ebc bb3c
000000d0: b37e 153a 75a8 083a 882b 0e3d b07e 013d
000000e0: b3b1 ce3a 1160 be3a 37e1 1434 dbff 1734
000000f0: c4c1 9f3c f043 913c 5010 5333 6751 7633
00000100: 19ba d135 db20 b735 4ae0 003b 1072 f73a
00000110: bb84 bc3b a2f8 aa3b 694f 983e 1e29 8c3e
00000120: 6088 bc35 6c43 9c35 c557 903b b055 853b
00000130: 19f7 bb3a b3b0 ad3a c45f b140 3dc0 a640
00000140: 8c55 f937 17f2 de37 337f 943c 74b5 863c
00000150: a806 e83a faa8 d43a f853 ce37 db4c ba37
00000160: 2756 b039 19fb 9f39 91d0 7d37 2817 5c37
00000170: 3e6f 8e39 0462 8839 6a7e 8334 9414 6534
00000180: b0b2 b838 3252 ac38 16d2 c934 18cd ba34
00000190: babf bc3c b9dc aa3c f9e0 4a34 5127 4234
000001a0: 0e7a d435 c260 bd35 a652 0138 fb69 e737
000001b0: 1169 4c34 c42f 3534 9bc6 a83c e725 9a3c
000001c0: 11bb 0a3a a2a4 f239 bfdb 0d3d 385d 023d
000001d0: 08df 9a34 6f33 8934 208a 073d cdc3 f53c
000001e0: 9fc3 4637 0994 3237 8a5d 3e33 a5fd 4333
000001f0: 50c7 b73a 4159 a83a 053d c33c 5e4d b13c
00000200: c37c 273b 3e47 1a3b 10db e337 414d d437
00000210: 5d1a c039 60f4 ac39 b7f2 823a c9a3 723a
00000220: f7b6 873b 5f4d 743b 3d10 9236 bc84 8536
00000230: 043b 553f 4af4 4a3f d391 f338 9049 0239
00000240: c3d0 2435 8626 1635 8ad7 b833 3b9c 9b33
00000250: 2244 4a39 346f 3739 b27a ee39 98e9 3b3a
00000260: f13e 8737 da2a 8737 5852 b237 5565 ca37
00000270: fd03 9338 9ecd 8438 dd07 a03e a84a 873e
00000280: 5ac3 cf3c a483 be3c 1ad9 8a36 5d25 8536
00000290: 3f67 393d 652d 293d d7b8 cf3b ac4a bd3b
000002a0: de80 273d 5e87 1e3d 7854 9f3a e5a9 903a
000002b0: c5a7 543a 77cb 493a 6312 f539 de37 e339
000002c0: 7857 993a 2b89 893a 2077 eb3c e831 d83c
000002d0: 005d 613e 1f59 543e c9f7 8040 9760 8140
000002e0: 2ee8 aa35 b170 9f35 2854 0a3b 2d20 013b
000002f0: 3419 e739 59b2 d339 9dbc 863f 26f8 763f
00000300: 9cb8 003c 770d 003c 4bf9 1041 bbca 0541
00000310: cb8e 0d3d b2e8 013d debc de38 649c be38
00000320: bbe7 6f3f 83e9 623f d8d9 813b 5830 923b
00000330: 5900 963c b92c 883c 73ef 9840 b72e 8d40
00000340: 9b63 c53c ed6f b33c 71e2 a037 b605 9c37
00000350: befe c637 9232 b937 f72d 3e36 f871 2b36
00000360: 9569 8932 3830 7a32 71a8 4139 b319 3339
00000370: 9924 b63c 2a7b a53c ddf9 af38 3f87 a338
00000380: 2a3e 5e35 558c 4635 9598 1640 e9ef 0c40
00000390: 1888 883b 9671 793b ddde b339 cbf1 9939
000003a0: e5ef 983b 6f31 8a3b 47e8 3d36 79d7 3436
000003b0: a366 c039 342b b239 0f85 d932 c3e4 d132
000003c0: acdd 0434 ffb7 d233 28c0 f834 6e65 ed34
000003d0: 4507 bf39 b59c b239 a6e7 6e38 6f8e 5638
000003e0: 2edf 8d3d b4e8 843d 707b 7c3d 37de 673d
000003f0: a366 673a e09f 4b3a f0a0 ac36 c98e 9b36
