lightning_logs/version_78/checkpoints/epoch=18-step=7467.ckpt (torch, 446261 bytes, 18 tensors)

station_embedding.weight f4 [70, 2]
0	0xbfa5ddb0	-1.2958279
1	0x40042c5b	2.0652072
2	0x40125e3a	2.2870011
3	0x3f17b9aa	0.59267676
4	0x4020ffde	2.515617
5	0x4013bf89	2.3085654
6	0xbfaa92b7	-1.3326024
7	0x3f2e10f6	0.6799463
8	0xc007b8d6	-2.1206565
9	0x4073a219	3.8067687
10	0xc062a490	-3.541294
11	0xbf95b091	-1.1694509
12	0x3f1cb9c4	0.61220956
13	0xbfbd575a	-1.4792283
14	0x3fa7e7e7	1.3117646
15	0x3ee5a3a6	0.44851416
16	0xbfec9d07	-1.8485421
17	0x3f921b88	1.1414652
18	0xbf391eab	-0.7231242
19	0x3edbcbba	0.4292887
20	0x40235fe5	2.552728
21	0xbf5b7b2a	-0.8573481
22	0x3e9858c9	0.29755238
23	0xbfa36e97	-1.2768124
24	0xbe6dd795	-0.2322677
25	0xbfd5006e	-1.6640756
26	0xbfd9ba14	-1.7009912
27	0xbe69d5e2	-0.22835496
28	0xbf67fc10	-0.9061899
29	0xbf41a511	-0.75642496
30	0xbf97ffd3	-1.1874946
31	0xbed00a55	-0.40632883
32	0xbdb44e3b	-0.08803984
33	0xbea37e74	-0.31932414
34	0x3fddf676	1.7340839
35	0xbfe26f7f	-1.7690276
36	0xbfd4b154	-1.6616616
37	0x3f0bb8cf	0.5457887
38	0x3e53eb86	0.20695314
39	0xbe55bd7c	-0.20873064
40	0x3f688530	0.9082823
41	0x3f806c4f	1.0033053
42	0x3cfa5ac4	0.030560859
43	0x3eddebed	0.4334406
44	0x3df2da96	0.11858098
45	0xbdfd35cc	-0.123637766
46	0x401b11ca	2.4229608
47	0x3d6c01c6	0.05761888
48	0x3f8b2d5c	1.0873218
49	0xbfa33c97	-1.2752866
50	0xc02bfee3	-2.687432
51	0x3fd283c8	1.6446466
52	0x3fb491c5	1.4106985
53	0x3fc08539	1.5040656
54	0x3f9e2cf3	1.2357467
55	0x3e0fe195	0.14050896
56	0x3ef3e6e1	0.47637084
57	0x3e29c516	0.16579089
58	0x402c19e5	2.6890805
59	0x3fe7c86a	1.8108037
60	0xc012303b	-2.2841938
61	0x406e8942	3.7271276
62	0x3f2c8b39	0.67399937
63	0x3db78295	0.089604534
64	0xbf81e9b9	-1.0149451
65	0x3fbea4d0	1.4894047
66	0xbe97c605	-0.29643264
67	0x3fa1ad9e	1.2631109
68	0xbe138ae8	-0.14408457
69	0x3d8461a6	0.064639375
70	0x3eff51bd	0.4986705
71	0xbe849e6b	-0.25902113
72	0x3f175dc3	0.59127444
73	0xbfd0e950	-1.6321201
74	0xc0443737	-3.06587
75	0x3fc03539	1.5016242
76	0x3c912f89	0.017722862
77	0x3fcc1416	1.594363
78	0x3fe0e7cc	1.7570739
79	0xc004f189	-2.0772421
80	0x3eb0df8c	0.34545553
81	0x3f0c63b4	0.54839635
82	0xbe9c2c15	-0.30502382
83	0x4008bb94	2.1364489
84	0xbc5be0d8	-0.013420306
85	0x3ec3874c	0.3818916
86	0xbf0392a4	-0.5139563
87	0xbf910253	-1.1328834
88	0x3f02674f	0.50938886
89	0xbfbd0f9a	-1.4770386
90	0x3feac7af	1.8342189
91	0xbf9c9e86	-1.2235878
92	0x4033afda	2.8076081
93	0xbf935b1f	-1.1512183
94	0x3f618fc9	0.88110024
95	0xbe5a6eac	-0.2133128
96	0x3c8c6402	0.017137531
97	0x3fed4153	1.853556
98	0x3f9b472b	1.2131094
99	0x4007d4f0	2.1223717
100	0xc05e3e63	-3.4725578
101	0x3ef5b5f4	0.47990382
102	0x402c8e41	2.6961825
103	0x3fd87380	1.6910248
104	0xbf931366	-1.1490295
105	0x40306bc1	2.7565768
106	0x3e88334d	0.2660164
107	0x3fdeef2f	1.7416743
108	0xbfb31226	-1.3989913
109	0x3f83be1c	1.0292392
110	0xbee05a61	-0.43818954
111	0x3eb4b65a	0.35295373
112	0x408dfd51	4.4371724
113	0x3e1f3763	0.15548472
114	0x3f254cc9	0.6457029
115	0x401070a2	2.2568746
116	0xbf836189	-1.026414
117	0xbfac4e31	-1.3461362
118	0x3fb50127	1.4140977
119	0x4049267d	3.1429741
120	0x400c0934	2.1880617
121	0xc03007dd	-2.75048
122	0xc017f89a	-2.3745484
123	0x3ffcf9e7	1.9763764
124	0xbf688768	-0.90831614
125	0xbe8664c0	-0.2624874
126	0xbf935450	-1.1510105
127	0xc04acbea	-3.168696
128	0x3f55d44e	0.83527076
129	0x3d749f1d	0.059722055
130	0x3fa49dd9	1.2860671
131	0x3f2aeaa8	0.6676431
132	0x3f2d967a	0.67807734
133	0x3fdebc67	1.7401246
134	0xbe84fd28	-0.25974393
135	0x4027fd91	2.6248515
136	0xbf03721c	-0.5134599
137	0xbff95b63	-1.9481014
138	0x3e02b256	0.12763342
139	0x400ae91a	2.1704774

lstm.weight_ih_l0 f4 [5600, 2]
0	0x3d58a1e6	0.052888773
1	0x3d294ac3	0.041331064
2	0x3d36b878	0.044609517
3	0x3d7b9610	0.061422408
4	0xbd1dde00	-0.038541794
5	0xbd72ba1e	-0.059259526
6	0x3d92c18d	0.07165823
7	0x3dc68e08	0.09695059
8	0xbce03cc1	-0.02737272
9	0xbd80c72a	-0.062879875
10	0x3c850a98	0.016240403
11	0x3cf832b6	0.030297618
12	0x3d84e8b6	0.064896986
13	0x3d95571d	0.07292006
14	0xbe5b16ba	-0.21395388
15	0xbe3822d2	-0.17982033
16	0x3d00b0b0	0.031418502
17	0x3d8ab799	0.067733
18	0xbd51f865	-0.051262278
19	0xbd375f0f	-0.04476839
20	0xbe5e7b7d	-0.21726795
21	0xbe66457a	-0.2248744
22	0x3b995441	0.0046792333
23	0x3ce14b6c	0.027501784
24	0x3d4fb2df	0.050707694
25	0x3d4f9000	0.05067444
26	0xbcf1364b	-0.029444834
27	0xbcf1aca9	-0.029501276
28	0x3db42f29	0.087980576
29	0x3d9909ed	0.07472596
30	0x3d640b2b	0.055674713
31	0x3ca8b35c	0.020593338
32	0xbc2d0e86	-0.010562545
33	0xbd6468f0	-0.05576414
34	0x3c74d1c9	0.014942595
35	0x3ccc9b59	0.02497642
36	0x3d86f328	0.06589347
37	0x3d77010e	0.06030374
38	0xbe53783c	-0.20651335
39	0xbe93e313	-0.2888418
40	0x3d991b93	0.074759625
41	0x3d0ab03b	0.033859473
42	0x3e0a958d	0.13533612
43	0x3db91954	0.09038034
44	0xbeb88d5c	-0.3604535
45	0xbeb48616	-0.3525855
46	0xbd1d1a37	-0.03835508
47	0xbd44b74c	-0.048026368
48	0x3dd8c273	0.10583963
49	0x3dd27d3b	0.10277792
50	0x3d8ad597	0.0677902
51	0x3d8c9f05	0.06866268
52	0x3d684e95	0.056715567
53	0x3d0be2cd	0.03415184
54	0x3d2c1d45	0.0420201
55	0x3d162b4a	0.036662377
56	0xbd1d95f5	-0.03847309
57	0xbc8c075f	-0.017093359
58	0x3d28648e	0.04111152
59	0x3d77ce99	0.06049976
60	0xbd042b1e	-0.032267682
61	0xbd372ba3	-0.04471935
62	0xbc91e379	-0.017808663
63	0xbd30950b	-0.04311089
64	0x3b63fe43	0.0034789003
65	0xbcad0084	-0.02111841
66	0x3d7f1395	0.062274534
67	0x3d94c4ae	0.07264076
68	0x3d3e00f3	0.046387624
69	0x3c9779db	0.018490722
70	0x3c1727bb	0.009225781
71	0x3d131484	0.035908237
72	0x3d76b29d	0.060228933
73	0x3cd24f52	0.025672588
74	0x3cda065a	0.026614357
75	0x3d2e90de	0.042618625
76	0x3cc5be45	0.02413858
77	0x3cfbdce9	0.030744987
78	0xbe939ae6	-0.28829116
79	0xbe9cf559	-0.30655935
80	0xbd5f285d	-0.054481853
81	0xbbe14d81	-0.0068756943
82	0x3d947224	0.07248333
83	0x3d8b3107	0.067964606
84	0x3da43f1a	0.08019848
85	0x3d889f11	0.066709645
86	0xbd91101f	-0.07083153
87	0xbd51723d	-0.051134337
88	0x3d0f343c	0.034961924
89	0x3d6c40e8	0.057679087
90	0x3d0aedf3	0.033918332
91	0x3d29539b	0.041339498
92	0x3d47967d	0.0487275
93	0x3ca4b7f6	0.02010725
94	0x3af95d8b	0.001902507
95	0xbc0f4a1a	-0.0087456945
96	0xbe06e388	-0.13172734
97	0xbdfe3dd1	-0.12414134
98	0x3d885c52	0.06658234
99	0x3d4a89a2	0.049447663
100	0x3d3bc3e6	0.04584112
101	0x3ce062f2	0.02739093
102	0x3d85cb0f	0.06532871
103	0x3dd90e8d	0.105984785
104	0x3cc8a3ec	0.024492227
105	0x3d190156	0.03735479
106	0xbe7beeea	-0.24602857
107	0xbe8a168b	-0.26970324
108	0x3db69ca8	0.089165986
109	0x3e05f98a	0.13083473
110	0x3d7067d8	0.058692783
111	0x3d549888	0.051903278
112	0x3d14db2c	0.03634183
113	0x3d33f8f0	0.043938577
114	0x3d3706b5	0.04468413
115	0x3d6903cb	0.056888383
116	0x3c94dba1	0.018171133
117	0x3d5369f0	0.0516147
118	0x3d5cf160	0.05394113
119	0x3cef1e1e	0.029189166
120	0x3d3db185	0.046311874
121	0x3cabf4ac	0.020990692
122	0x3d8ff7eb	0.070297085
123	0x3d13dcfb	0.036099415
124	0x3d75e0f8	0.060029
125	0x3d6cf49a	0.057850458
126	0x3da01f95	0.07818524
127	0x3d1434d3	0.03618319
128	0xbd06c329	-0.032900963
129	0xbcf04e93	-0.029334342
130	0x3d1d329c	0.038378343
131	0x3d9a92ab	0.07547506
132	0x3d8deb7a	0.06929679
133	0x3d587fbd	0.052856196
134	0x3ce91ea8	0.028457
135	0x3d075b14	0.033045843
136	0xbc2ea83b	-0.010660226
137	0xbcb0632d	-0.021531666
138	0x3c88b3d0	0.016687304
139	0x3d003684	0.03130199
140	0x3d70ec84	0.05881931
141	0x3da19532	0.07889785
142	0x3cdd7ef5	0.027038077
143	0x3d33ef61	0.04392946
144	0x3d23b95d	0.039971698
145	0x3d7dd579	0.06197116
146	0x3dabb89e	0.08384822
147	0x3d1e570f	0.038657244
148	0x3d489635	0.048971374
149	0x3d8ffc83	0.07030585
150	0x3d6cb0d3	0.05778582
151	0x3d0c0669	0.0341858
152	0xbd7a509a	-0.061112024
153	0xbd6f94e9	-0.05849162
154	0x3d26a190	0.04068142
155	0x3d503efa	0.05084131
156	0x3d243ff3	0.04010005
157	0x3d7d7c5c	0.061886176
158	0xbd0c2043	-0.034210455
159	0xbd56a9fa	-0.052408196
160	0xbc5b157c	-0.0133718215
161	0xbd2e69c7	-0.042581346
162	0x3d8015ba	0.06254144
163	0x3d331681	0.043722633
164	0xbd3ef1dc	-0.046617374
165	0xbd4f78cd	-0.050652314
166	0xbd76a93c	-0.06021999
167	0xbd4cb246	-0.049974702
168	0x3cf2c74a	0.029636044
169	0x3d1b276c	0.037879393
170	0x3cd115ad	0.025523031
171	0x3d1fa9a0	0.038980126
172	0x3cce3e3a	0.025176156
173	0x3d7735c4	0.06035401
174	0x3d348c23	0.044078957
175	0x3d1a3985	0.03765251
176	0x3d78d554	0.06075032
177	0x3d3a8732	0.04553909
178	0xbd5af44e	-0.053455643
179	0xbd1c8910	-0.03821665
180	0xbd04d47f	-0.032429215
181	0xbd4ed559	-0.050496433
182	0x3d86bb6d	0.065787174
183	0x3e1fcc7c	0.15605348
184	0xbe603839	-0.21896447
185	0xbe699ff7	-0.22814928
186	0x3cb7279d	0.022357756
187	0x3d69c1de	0.05706965
188	0xbd26a684	-0.040686145
189	0xbd079257	-0.033098545
190	0xbd3aa606	-0.04556849
191	0xbd73e1cd	-0.059541512
192	0xbe81cbb3	-0.25350723
193	0xbe6b2b25	-0.22965677
194	0x3d1f36c9	0.038870607
195	0x3d6acbd1	0.05732328
196	0x3d651220	0.05592549
197	0x3ca67753	0.02032057
198	0xbd0547d7	-0.032539215
199	0xbcf649e1	-0.030064525
200	0x3d9887ab	0.074477516
201	0x3d3701b4	0.04467936
202	0x3d6d8a06	0.057992958
203	0x3d3a4c19	0.04548273
204	0xbd212650	-0.03934318
205	0xbd972923	-0.07380893
206	0x3b44b9b8	0.0030017924
207	0x3c7fe5af	0.015618726
208	0x3d8fd681	0.07023335
209	0x3cdbd4d1	0.026834877
210	0xbe79246b	-0.24330299
211	0xbe674476	-0.2258471
212	0x3d1253ce	0.035724454
213	0x3da05e51	0.078304894
214	0x3d875ab0	0.06609094
215	0x3d096906	0.033547424
216	0x3da705c0	0.081553936
217	0x3d90afd5	0.07064787
218	0x3daead61	0.08529163
219	0x3dd03ec9	0.10168225
220	0xbe922121	-0.285409
221	0xbe6ba7db	-0.2301325
222	0x3d3409b2	0.04395456
223	0x3da9b504	0.08286479
224	0x3c59cd16	0.013293525
225	0x3af67ee2	0.0018806125
226	0x3da104f8	0.07862276
227	0x3d0d1307	0.034441974
228	0x3d1390ae	0.03602665
229	0x3cb9d3ab	0.022683939
230	0xbd72fe88	-0.05932477
231	0xbcf56728	-0.029956415
232	0x3d7cd97f	0.061730858
233	0x3de776c3	0.11301949
234	0x3d0a4de0	0.033765674
235	0xbb0a787c	-0.0021128943
236	0x3d87c1d4	0.06628767
237	0x3d818573	0.063242815
238	0x3d5c88e9	0.053841505
239	0x3d2393c1	0.03993583
240	0xbea363f0	-0.31912184
241	0xbeb9faa2	-0.3632403
242	0x3d8dae79	0.06918044
243	0x3d55fa4f	0.052240666
244	0x3d15ca8b	0.036570113
245	0x3c330d76	0.010928502
246	0x3d6be596	0.057591997
247	0x3d30f506	0.043202423
248	0x3e075ab4	0.13218194
249	0x3db5dc62	0.08879925
250	0x3c486f96	0.012233635
251	0x3ccae43a	0.02476703
252	0xbd811f81	-0.06304837
253	0xbd5fe43c	-0.05466102
254	0x3d23271b	0.039832216
255	0x3d0059d0	0.031335652

lstm.weight_hh_l0 f4 [5600, 2]
0	0x3d97f0e8	0.07418996
1	0x3d7fd111	0.06245524
2	0x3db0a1a8	0.086245835
3	0x3d2783b9	0.040897105
4	0xbd947002	-0.07247926
5	0xbdba2113	-0.0908834
6	0x3e5c7914	0.21530563
7	0x3e4bcd84	0.19902617
8	0x3e89bd8b	0.26902422
9	0x3e8d75c1	0.27628902
10	0x3d304f9c	0.04304467
11	0xbc0bbaeb	-0.008528451
12	0x3d362f31	0.0444786
13	0x3d858149	0.065188
14	0xbe9af8cd	-0.30267945
15	0xbe89b678	-0.26897025
16	0x3d12266b	0.03568117
17	0x3d2298d0	0.039696515
18	0xbd858ca3	-0.06520965
19	0xbd7ff3d0	-0.062488377
20	0x3ccccdfb	0.025000563
21	0xbe166ffc	-0.14691156
22	0x3cd4aa54	0.025960125
23	0x3d07bd8f	0.03313976
24	0x3dc20544	0.094736606
25	0x3d12d6d9	0.035849426
26	0xbd970aa6	-0.07375078
27	0xbd8f303f	-0.06991624
28	0x3d5671de	0.052354686
29	0x3cd41fe7	0.025894118
30	0x3cea8700	0.028628826
31	0x3d09ffef	0.033691343
32	0xbdb645f4	-0.08900061
33	0xbd85612e	-0.06512676
34	0x3d3ed48e	0.046589427
35	0x3b7b25e9	0.0038322157
36	0x3d92e2b8	0.071721494
37	0x3d9d4eb6	0.076810285
38	0xbd261cbb	-0.040554743
39	0xbe07a854	-0.13247806
40	0x3d20f85a	0.039299347
41	0x3d0c3861	0.034233455
42	0x3e8dd8c0	0.2770443
43	0x3df3bb7c	0.11900994
44	0x3d39e62e	0.045385532
45	0x3d4b88f9	0.049691174
46	0xbd43d535	-0.047810752
47	0xbd739cf9	-0.059475873
48	0x3e7ca8e1	0.24673797
49	0x3e19efed	0.1503293
50	0xbbec487d	-0.0072107897
51	0xbd0b4f11	-0.03401095
52	0x3dacc793	0.08436503
53	0x3d8a5315	0.06754128
54	0x3d2a2aca	0.041544713
55	0x3d16a6b3	0.03678007
56	0xbd9401a0	-0.072268724
57	0xbdbdd28d	-0.09268675
58	0x3d235405	0.03987505
59	0x3d37dc9e	0.04488813
60	0x3e2cd655	0.16878636
61	0x3e122574	0.142721
62	0xbd43f04f	-0.047836598
63	0xbd5ee5c2	-0.054418333
64	0x3d6e4f93	0.058181357
65	0x3d53c844	0.05170466
66	0x3d6da301	0.05801678
67	0x3d22b967	0.039727595
68	0x3dba952d	0.09110484
69	0x3d516f96	0.051131807
70	0x3d8561dc	0.06512806
71	0x3d4d9d17	0.05019864
72	0x3d665ca3	0.05624069
73	0x3d83000f	0.063964956
74	0x3d8e1408	0.069374144
75	0x3da7de70	0.081967235
76	0x3d2e6039	0.042572234
77	0x3cbcd820	0.023052275
78	0x3a9d0913	0.0011980854
79	0xbe25c21a	-0.16187325
80	0xbdaffeb1	-0.085935004
81	0xbd1a8ea9	-0.037733708
82	0x3cfa5a1f	0.030560551
83	0x3cfbafa8	0.030723408
84	0x3d81fd37	0.06347125
85	0x3d0d77d3	0.0345381
86	0xbd8c6b11	-0.06856359
87	0xbd5758f7	-0.052575078
88	0x3c83549e	0.01603156
89	0x3d349ea1	0.044096593
90	0x3d2e3327	0.04252925
91	0x3d4ef8e9	0.050530348
92	0x3d0e14fb	0.034687977
93	0x3d8a9c03	0.06768038
94	0x3e395409	0.18098463
95	0x3e172e03	0.14763646
96	0xbe458d69	-0.19292225
97	0xbe622d97	-0.22087704
98	0x3dabd95a	0.08391066
99	0x3d635b3c	0.05550693
100	0x3d8515db	0.06498309
101	0x3d9f74f0	0.07785976
102	0x3e748b32	0.23881224
103	0x3e260e62	0.16216424
104	0x3d7ee2f8	0.062228173
105	0x3d34b7dd	0.04412066
106	0xbe6c6491	-0.23085238
107	0xbe8736d3	-0.26409015
108	0x3e9f6bfb	0.3113707
109	0x3e4b5759	0.19857539
110	0x3d4641f4	0.04840274
111	0x3d06ec88	0.032940418
112	0x3d6d23e2	0.05789555
113	0x3d820a29	0.06349594
114	0xbe86292e	-0.26203293
115	0xbe79b0b0	-0.24383807
116	0x3d7b7296	0.061388575
117	0x3d82d7ba	0.06388803
118	0x3d71d5d2	0.059041806
119	0x3d15195d	0.03640114
120	0x3ce5c2b6	0.028046947
121	0x3cec44ef	0.028841464
122	0x3e99eeba	0.30064946
123	0x3e317da5	0.17333086
124	0x3d26f6b5	0.040762622
125	0x3d23b525	0.039967675
126	0x3d8cc8c5	0.06874231
127	0x3dacb4a1	0.0843289
128	0xbd8c6293	-0.06854739
129	0xbd17da04	-0.03707315
130	0x3d81a034	0.063293844
131	0x3d8c0417	0.068367176
132	0x3d93e264	0.07220915
133	0x3d27f337	0.041003432
134	0x3d582f7e	0.052779667
135	0x3ce5bd2e	0.02804431
136	0xbd437668	-0.047720343
137	0xbd98c2cb	-0.07459029
138	0x3d2ad312	0.0417052
139	0x3db2e9ec	0.08736023
140	0x3d143c2e	0.036190204
141	0x3d6863c5	0.056735773
142	0x3d65b185	0.0560775
143	0x3bc190e2	0.005907164
144	0x3d25b2f8	0.04045388
145	0x3d35ccb5	0.044384677
146	0x3d656b90	0.056010783
147	0x3d9a352e	0.075296745
148	0x3df4d4f9	0.11954684
149	0x3d894f11	0.06704534
150	0x3cc2b7f1	0.02376935
151	0x3d13c9bf	0.036081072
152	0xbd8eba24	-0.06969097
153	0xbd0f3f97	-0.034972753
154	0x3d207c20	0.039180875
155	0x3d21466a	0.039373793
156	0x3d4fd232	0.050737567
157	0x3cccbed9	0.024993347
158	0xbd8f7940	-0.070055485
159	0xbcf9cf71	-0.030494424
160	0xbd962cb5	-0.07332746
161	0xbd8fbc5d	-0.07018349
162	0x3d22435e	0.039615028
163	0x3cef095c	0.029179268
164	0xbd9389d7	-0.07204025
165	0xbd8dc65e	-0.06922601
166	0xbd34a08f	-0.044098433
167	0xbd7054b6	-0.058674537
168	0x3e12b925	0.1432844
169	0x3d4dd4ea	0.05025188
170	0x3d8cfcf1	0.06884182
171	0x3d18e8d6	0.037331425
172	0x3d331855	0.043724377
173	0x3d877355	0.06613795
174	0x3d0dc05f	0.034607287
175	0x3d46e2b3	0.04855604
176	0x3d4111c5	0.047136087
177	0x3c19d6e2	0.009389611
178	0xbd30f098	-0.043198198
179	0xbda00984	-0.07814315
180	0xbd4398c2	-0.047753103
181	0xbd874606	-0.06605153
182	0xbe53b423	-0.20674185
183	0xbed6c9ce	-0.4195084
184	0xbe154725	-0.1457792
185	0xbe48f8b1	-0.19626118
186	0x3d9f8d81	0.077906616
187	0x3d725551	0.059163395
188	0xbd938624	-0.0720332
189	0xbda4f6bf	-0.080548756
190	0xbda0a3b5	-0.07843725
191	0xbdae3dcc	-0.085078806
192	0xbbba999b	-0.0056945807
193	0x3d49af18	0.049239248
194	0x3cf98640	0.030459523
195	0x3d85aac8	0.065267146
196	0x3dc15fde	0.09442113
197	0x3e46d873	0.19418506
198	0xbd936c53	-0.071983956
199	0xbd844750	-0.06458914
200	0x3d9159e7	0.07097226
201	0x3d6c28a6	0.057655953
202	0x3c99be2c	0.018767439
203	0x3d5c4e03	0.053785335
204	0xbd7bb525	-0.06145205
205	0xbda7324a	-0.08163889
206	0x3df519e0	0.11967826
207	0x3deec716	0.116590664
208	0x3d7f4339	0.062319968
209	0x3d854e89	0.0650912
210	0xbd853d02	-0.06505777
211	0xbe7450b0	-0.23858905
212	0x3dadf7d0	0.08494532
213	0x3dbbac55	0.09163729
214	0x3d530ec3	0.05152775
215	0x3d889e41	0.066708095
216	0x3d183a89	0.0371652
217	0x3dac18e6	0.084031865
218	0x3e194065	0.14965971
219	0x3d911be0	0.07085395
220	0x3eca7cd2	0.39548355
221	0x3e0e41d4	0.13892299
222	0x3d47d32b	0.04878537
223	0x3d5b28aa	0.053505577
224	0x3d49be3e	0.049253695
225	0x3d7ab468	0.061207205
226	0x3d0f6ec1	0.035017733
227	0x3d682a4b	0.05668096
228	0x3d943441	0.07236529
229	0x3d0bdb13	0.034144472
230	0x3e53a7d2	0.20669487
231	0x3e43c573	0.1911829
232	0xbe91405e	-0.2836942
233	0xbeeb949a	-0.46011811
234	0x3d59f4f8	0.053212136
235	0x3d4aadea	0.049482264
236	0x3d06467c	0.032782063
237	0x3d5affc4	0.053466573
238	0x3d9ac67e	0.07557391
239	0x3d25d410	0.04048544
240	0x3cb8fa04	0.022580154
241	0x3d8d7444	0.069069415
242	0x3d31ff3d	0.043456305
243	0x3d836599	0.064158626
244	0x3da3b1c6	0.07992892
245	0x3d8850fe	0.06656073
246	0x3d6e50a5	0.058182377
247	0x3d7b4168	0.061341673
248	0x3e6d6cb7	0.23186003
249	0x3e4380d9	0.1909212
250	0x3cf12e40	0.029440999
251	0x3d7f7ab6	0.062372886
252	0xbd9f3109	-0.077730246
253	0xbd7a460b	-0.061101954
254	0x3d03b143	0.03215147
255	0x3cfafbd6	0.030637663

lstm.bias_ih_l0 f4 [5600]
0	0x3d8988c7	0.06715541
1	0x3d5949ff	0.053049084
2	0xbd628336	-0.055300914
3	0x3db701c0	0.08935881
4	0xbd41c049	-0.047302518
5	0x3d025bda	0.031825878
6	0x3d97b22d	0.07407031
7	0xbe85b43b	-0.26114067
8	0x3d3df917	0.04638013
9	0xbd766921	-0.060158852
10	0xbe69dc85	-0.22838028
11	0x3ba1651f	0.0049253847
12	0x3d551689	0.052023444
13	0xbd0bb331	-0.034106437
14	0x3da24883	0.07923987
15	0x3d6bf596	0.057607256
16	0xbd2a21fd	-0.04153632
17	0x3c920f50	0.017829567
18	0x3d9f4af0	0.07777965
19	0xbe1c5076	-0.15265068
20	0x3d76ffd7	0.06030258
21	0x3dc075c0	0.09397459
22	0xbde81802	-0.11332704
23	0xbcf51b5c	-0.029920273
24	0x3dd7af18	0.10531443
25	0x3c172207	0.009224421
26	0x3d31a925	0.0433742
27	0x3d736caa	0.059429802
28	0xbd8a5eed	-0.06756387
29	0x3d8d155b	0.06888839
30	0xbc7339c8	-0.014845319
31	0xbd270a8a	-0.040781535
32	0x3c7baa50	0.01536043
33	0x3db19025	0.086700715
34	0x3d1edb68	0.03878346
35	0x3d220161	0.039552096
36	0x3d31c6a1	0.043402318
37	0x3d6240c3	0.055237543
38	0xbc5f882f	-0.013643309
39	0xbe868322	-0.2627192
40	0xbce5eeb4	-0.028067924
41	0x3d63475f	0.055487987
42	0x3d717f8a	0.05895952
43	0xbd10e392	-0.035373278
44	0x3cf12036	0.029434305
45	0x3d2e3f16	0.042540632
46	0x3d057186	0.032578968
47	0x3d17a771	0.03702492
48	0xbe252a63	-0.1612945
49	0x3d72bc21	0.059261445
50	0x3d687100	0.05674839
51	0x3d1e7245	0.038683195
52	0x3d23129a	0.03981266
53	0xbeb06bc2	-0.34457213
54	0x3dd45986	0.10368638
55	0x3d4dcc9f	0.05024397
56	0x3d647dd8	0.055784076
57	0x3c2784f1	0.010224567
58	0x3d5450f8	0.05183503
59	0x3d23d2d7	0.039995994
60	0x3d220994	0.039559916
61	0x3db08b6a	0.08620341
62	0x3d55b557	0.052174892
63	0x3d941d92	0.072322026
64	0xbd5adf78	-0.053435773
65	0x3d838d2c	0.06423411
66	0x3d933d2d	0.07189403
67	0x3d5e797e	0.054315083
68	0xbdc252af	-0.09488427
69	0x3d026999	0.031838987
70	0x3d0be27d	0.034151543
71	0x3d25f315	0.040515024
72	0x3d483689	0.048880134
73	0x3dad130f	0.08450901
74	0x3d33212f	0.04373282
75	0x3d1916b4	0.037375167
76	0xbd0909e5	-0.0334567
77	0x3d712211	0.05887038
78	0x3c88f736	0.016719442
79	0xbd53d82e	-0.051719837
80	0xbd21024c	-0.03930883
81	0x3d90db6a	0.070731
82	0xbd9e0632	-0.077160254
83	0xbd943a30	-0.07237661
84	0x3d68550a	0.056721725
85	0x3d007cca	0.031369008
86	0x3d44bf09	0.048033748
87	0x3d7ca0e8	0.06167689
88	0x3ca3e957	0.020008726
89	0xbd77796e	-0.06041854
90	0xbd1730a5	-0.036911625
91	0x3c8e2792	0.017352853
92	0xbe77f351	-0.24213912
93	0x3d47ce18	0.04878053
94	0xbd553bb0	-0.052058876
95	0xbd970421	-0.073738344
96	0x3ca69b7c	0.020337813
97	0x3d80f60a	0.06296928
98	0x3b8b78a6	0.004256326
99	0xbd6dcc54	-0.05805619
100	0x3d70284e	0.058632188
101	0x3cd456ee	0.025920358
102	0xbd45c6a9	-0.04828516
103	0xbc2d0328	-0.010559835
104	0x3d8d79cd	0.06907997
105	0xbe97ea6b	-0.29671034
106	0x3d8cfe9d	0.06884501
107	0x3d57e7fb	0.05271147
108	0x3d722cbd	0.059124697
109	0x3dbbe6a8	0.091748536
110	0x3e2b5412	0.16731289
111	0x3dadef92	0.0849296
112	0x3dac0090	0.08398545
113	0x3d881e49	0.066464014
114	0x3d2d2f8c	0.042281672
115	0xbd847751	-0.0646807
116	0x3d9e117d	0.077181794
117	0x3d782cf2	0.06058974
118	0x3d688111	0.056763712
119	0x3d586aa3	0.05283607
120	0xbe8cd28a	-0.2750438
121	0x3cf7b5cd	0.030238057
122	0x3d74fb00	0.059809685
123	0x3cbbac6e	0.02290937
124	0x3de174da	0.11008616
125	0x3ce2b897	0.02767591
126	0xbd259a50	-0.040430367
127	0x3ceae449	0.028673308
128	0x3e2e0017	0.16992222
129	0x3d149b53	0.03628094
130	0x3d7e9fe7	0.062164214
131	0x3d849c06	0.064750716
132	0xbd583012	-0.05278022
133	0xbcd57249	-0.026055472
134	0x3d5958f5	0.05306335
135	0x3dae60c6	0.08514552
136	0x3d36a3db	0.04458986
137	0x3d897540	0.06711817
138	0x3c4e6e15	0.012599488
139	0x3da8fea1	0.082516916
140	0x3d184e6e	0.03718417
141	0x3d59a958	0.053140014
142	0x3d6a99cc	0.05727558
143	0xbd2df41d	-0.042469133
144	0xbdab267b	-0.08356949
145	0xbec0643f	-0.37576482
146	0x3e873c5c	0.26413238
147	0x3d274c9b	0.04084454
148	0x3d457e78	0.048216313
149	0x3cc7ecff	0.024405
150	0x3d89254a	0.066965654
151	0xbd5627a0	-0.052283883
152	0x3d0a666d	0.033789087
153	0x3d98fb3b	0.074697934
154	0x3dcdf0d5	0.10055701
155	0x3d1caf3e	0.03825306
156	0x3d9a2e55	0.075283684
157	0x3c998c57	0.018743677
158	0xbd8524d2	-0.065011635
159	0x3c7a1cf3	0.015265691
160	0xbd7f3a71	-0.062311593
161	0x3d8b8c02	0.06813814
162	0x3d6c5222	0.057695515
163	0x3c0a3dc9	0.008437582
164	0xbd35da2d	-0.04439752
165	0xbcb422d3	-0.021989262
166	0x3d4d8bac	0.05018203
167	0x3bb45d16	0.005504261
168	0x3db28b59	0.08717985
169	0x3d7e34a0	0.062061906
170	0xbd274a2c	-0.04084222
171	0x3c7d2ecf	0.015453055
172	0x3d7496da	0.059714176
173	0x3d01c649	0.03168324
174	0xbd1c4165	-0.038148303
175	0x3be5f061	0.007017181
176	0x3de0430c	0.10950288
177	0xbd832aca	-0.06404646
178	0xbeaff3db	-0.34365734
179	0x3d6b4007	0.057434108
180	0xbcf67ac2	-0.030087832
181	0x3d527afc	0.05138682
182	0x3cf830e4	0.03029675
183	0x3d8189e6	0.0632513
184	0x3d8666be	0.06562565
185	0x3c688cdc	0.01419374
186	0x3d12ab1b	0.03580771
187	0x3d2650d5	0.04060443
188	0xbcda3c53	-0.026640093
189	0x3d6abbf5	0.057308156
190	0xbe1bd8b4	-0.15219384
191	0x3d93f6ea	0.072248295
192	0x3d8eaf6f	0.06967055
193	0x3c9a420f	0.018830327
194	0xbcc2fa0a	-0.023800869
195	0xbec43ec5	-0.3832914
196	0xbe9d559f	-0.30729386
197	0x3d43c9e9	0.04779998
198	0x3ddd7fe6	0.1081541
199	0x3d029ed3	0.031889748
200	0x3d73959d	0.059468854
201	0x3d91888c	0.071061224
202	0xbea699ac	-0.32539117
203	0xbc34e85d	-0.011041728
204	0x3d0cf84b	0.034416478
205	0x3d9aa94c	0.07551822
206	0xbd80b908	-0.06285292
207	0x3cd40a68	0.025883868
208	0x3d6fd10f	0.058548983
209	0xbe549b38	-0.20762336
210	0x3c511622	0.0127616245
211	0x3d1a67a7	0.037696507
212	0x3d5661f8	0.052339524
213	0x3c737e42	0.014861645
214	0xbd9395fb	-0.07206341
215	0x3d9370cc	0.07199249
216	0x3d495062	0.049148925
217	0x3d84d955	0.06486765
218	0x3df40bd9	0.11916322
219	0x3d33f621	0.0439359
220	0x3d80a452	0.062813416
221	0xbd99715c	-0.07492325
222	0x3d144f75	0.03620859
223	0x3ce8bdf8	0.028410897
224	0x3da92dc5	0.08260683
225	0x3da398bd	0.07988117
226	0x3ceb7d09	0.028746145
227	0x3d8ce933	0.06880417
228	0x3e79cf49	0.2439548
229	0xbc80c3f3	-0.015718436
230	0x3d428e00	0.047498703
231	0x3d59e5e7	0.053197768
232	0x3c443931	0.011976526
233	0xbd1c3116	-0.03813275
234	0x3e1063c5	0.14100559
235	0x3d36fc05	0.04467394
236	0x3d7465f4	0.059667543
237	0x3d0ce875	0.034401376
238	0xbc940b6c	-0.018071853
239	0x3d07baf0	0.033137262
240	0x3d23d47d	0.039997566
241	0x3d8fc0a9	0.07019169
242	0x3d546a3a	0.051859118
243	0x3d41c1c9	0.04730395
244	0xbe83b435	-0.25723425
245	0x3d885727	0.06657248
246	0x3d07d9ba	0.033166625
247	0x3ce80d7e	0.028326746
248	0xbe31e61a	-0.17372933
249	0x3d54807a	0.051880337
250	0x3e371830	0.1788032
251	0xbd348c65	-0.044079203
252	0x3d74b542	0.059743173
253	0x3e3f94b5	0.18709071
254	0x3dc8bd93	0.098017834
255	0x3d4884d9	0.04895482

lstm.bias_hh_l0 f4 [5600]
0	0x3d6992c2	0.057024725
1	0x3d896a04	0.06709674
2	0xbd27e278	-0.04098746
3	0x3dd27721	0.10276628
4	0xbd788225	-0.06067099
5	0xbb787250	-0.0037909932
6	0x3da936e9	0.082624264
7	0xbe5cadcb	-0.21550672
8	0x3d2539d4	0.040338352
9	0xbd256357	-0.04037794
10	0xbe772f06	-0.24139032
11	0x3d0e7800	0.03478241
12	0x3d5d4488	0.054020435
13	0xbd208e13	-0.039197993
14	0x3dcf818a	0.101321295
15	0x3ccfac4c	0.025350712
16	0xbd6fc31a	-0.058535673
17	0x3d5975e7	0.053090956
18	0x3d2945f6	0.041326486
19	0xbdf312f5	-0.1186885
20	0x3d618287	0.05505612
21	0x3df153d5	0.11783568
22	0xbd926df0	-0.07149875
23	0xbd02e393	-0.031955313
24	0x3e107910	0.14108682
25	0x3bf3071d	0.0074166195
26	0x3d0c0e12	0.034193106
27	0x3d52a7ac	0.051429436
28	0xbd69af44	-0.057051912
29	0x3d11b64b	0.03557424
30	0xbc1f4bd8	-0.009722672
31	0xbd965407	-0.07340246
32	0xbac041e4	-0.0014668074
33	0x3d8720ce	0.06598054
34	0x3d6360cc	0.055512235
35	0x3cdc10f3	0.02686355
36	0x3cef0af8	0.029180035
37	0x3d3e7e10	0.04650694
38	0x3c9fea69	0.019520955
39	0xbe8f7fc8	-0.28027177
40	0xbd5f973c	-0.054587588
41	0x3d6bf774	0.057609037
42	0x3d821cab	0.06353124
43	0xbd4de564	-0.050267592
44	0x3cf92abc	0.030415885
45	0x3d83fc98	0.06444663
46	0x3d398111	0.045289103
47	0x3c894d3d	0.016760463
48	0xbe09eb66	-0.13468704
49	0x3da8c03e	0.08239792
50	0x3d8b0c6f	0.06789481
51	0x3d291690	0.041281283
52	0x3cf879b9	0.03033148
53	0xbeaad3fc	-0.33364856
54	0x3e010f76	0.12603554
55	0x3d7131a4	0.05888523
56	0x3d53bb49	0.05169228
57	0x3c997234	0.018731214
58	0x3d951dc6	0.072810695
59	0x3d789831	0.060692016
60	0x3d90f83c	0.07078597
61	0x3dd80c08	0.1054917
62	0x3da118dd	0.078660704
63	0x3d3fb7da	0.046806194
64	0xbd0d5d44	-0.034512773
65	0x3d5bb170	0.053636014
66	0x3d5c55b2	0.053792663
67	0x3d5e3533	0.054249953
68	0xbdb17773	-0.08665361
69	0x3d2b3b98	0.04180488
70	0x3d2b5aab	0.041834515
71	0x3d2aae76	0.041670285
72	0x3d7c3855	0.06157716
73	0x3d9ccda0	0.07656407
74	0x3d9348fb	0.07191654
75	0x3d36e327	0.044650223
76	0xbd45c816	-0.04828652
77	0x3d24b373	0.0402102
78	0x3d53f589	0.051747832
79	0xbd54eef1	-0.051985685
80	0xbda45aaa	-0.08025105
81	0x3d9f12de	0.077672705
82	0xbd073571	-0.03300995
83	0xbd8120df	-0.06305098
84	0x3c7169a0	0.014734656
85	0x3d8766d2	0.06611408
86	0x3d090b0f	0.033457812
87	0x3d65f998	0.056146234
88	0x3d5b245d	0.053501476
89	0xbd24ab25	-0.04020228
90	0xbd14fa4b	-0.03637151
91	0x3cd2ffc6	0.025756728
92	0xbe880930	-0.2656951
93	0x3d9dc250	0.07703078
94	0xbd334b39	-0.04377291
95	0xbd90f200	-0.07077408
96	0xbcc7c9fa	-0.024388302
97	0x3cf78c0a	0.030218143
98	0x39b731cf	0.0003494159
99	0xbd8351ef	-0.06412112
100	0x3d52d841	0.051475767
101	0x3cf365dc	0.029711656
102	0xbd905078	-0.07046598
103	0xbc0f97b9	-0.008764201
104	0x3d27b357	0.040942516
105	0xbe96ff35	-0.29491583
106	0x3d92a76c	0.071608394
107	0x3d17ad87	0.037030723
108	0x3dbf3f3c	0.09338233
109	0x3d906947	0.0705133
110	0x3e3b0634	0.18264085
111	0x3d82c3ff	0.063850395
112	0x3d850a75	0.06496135
113	0x3d07b1ce	0.033128552
114	0x3d1c3d23	0.038144242
115	0xbdf04680	-0.11732197
116	0x3d5f9242	0.05458284
117	0x3d829cdc	0.06377575
118	0x3cbb4d48	0.022863999
119	0x3d1bfa0e	0.038080268
120	0xbe971fbc	-0.295164
121	0x3d206e0f	0.03916746
122	0x3d8e20cb	0.069398485
123	0x3d2f8a34	0.04285641
124	0x3dadaedd	0.08480618
125	0x3d3c1632	0.045919605
126	0xbd0f0fd1	-0.034927193
127	0x3d635125	0.055497307
128	0x3e225f10	0.15856576
129	0x3d189dca	0.037259854
130	0x3d8e7642	0.0695615
131	0x3c9df730	0.019282907
132	0xbd4c3e8e	-0.049864344
133	0xbd2a93bf	-0.041644808
134	0x3d389fa0	0.045074105
135	0x3def17d6	0.11674468
136	0x3cef0f23	0.029182022
137	0x3db9d1bd	0.090732075
138	0x3c9c57f3	0.019084906
139	0x3d35f47f	0.044422623
140	0x3bfc3576	0.0076968027
141	0x3da03df0	0.07824314
142	0x3d709723	0.058737885
143	0xbaca9670	-0.0015456211
144	0xbd530d7b	-0.051526528
145	0xbecbac7e	-0.3978004
146	0x3e8a2814	0.26983702
147	0x3d78174d	0.060569096
148	0x3d39822e	0.045290165
149	0x3d12b869	0.0358204
150	0x3cf9fd97	0.030516429
151	0xbd4963f9	-0.049167607
152	0x3d1923af	0.037387546
153	0x3d69e1a5	0.057099957
154	0x3de3e5c6	0.1112781
155	0x3ca6077c	0.02026724
156	0x3dcfb44e	0.10141812
157	0x3d167dc1	0.036741022
158	0xbda82b2e	-0.08211361
159	0x3bb91d18	0.00564922
160	0xbcc9ae50	-0.024619251
161	0x3d20d841	0.039268736
162	0x3d95e7b5	0.07319585
163	0x3c220730	0.009889409
164	0xbd79fd14	-0.06103237
165	0xbd0832fd	-0.03325175
166	0x3c12df60	0.00896439
167	0x3c7a00f1	0.0152590135
168	0x3d7b4731	0.06134719
169	0x3d3ae033	0.04562397
170	0xbcb37d0d	-0.021910215
171	0x39813c1e	0.00024649588
172	0x3daf0c2a	0.08547242
173	0x3b709a16	0.0036712936
174	0xbd835d6e	-0.06414305
175	0x3c6fe9d8	0.014643155
176	0x3de33149	0.11093385
177	0xbd557c45	-0.052120466
178	0xbeac3699	-0.33635405
179	0x3d9ccb75	0.07655994
180	0xbcc13296	-0.023583692
181	0x3d74bdb9	0.059751246
182	0x3d49dfd1	0.049285714
183	0x3d115de9	0.03548995
184	0x3d642747	0.05570152
185	0x3d440d7e	0.04786443
186	0x3d00e2e9	0.0314664
187	0x3cab3e6d	0.02090379
188	0xbbb3405d	-0.005470319
189	0x3d1cfb62	0.038325675
190	0xbe44680b	-0.19180314
191	0x3d2446f2	0.04010672
192	0x3d757b4e	0.059932046
193	0x3c44d74f	0.012014224
194	0xbd651b06	-0.055933975
195	0xbeb81f98	-0.35961604
196	0xbe9ec3ce	-0.31008762
197	0x3d5d6c8b	0.054058593
198	0x3ddbb9ae	0.10728775
199	0x3d07db6c	0.03316824
200	0x3d700cf5	0.058606107
201	0x3d9d0b34	0.076681525
202	0xbea84254	-0.32863104
203	0xbcd5a3e4	-0.026079126
204	0x3d2306ed	0.039801527
205	0x3d410ccf	0.047131356
206	0xbd6f511c	-0.05842696
207	0x3d8f95b0	0.070109725
208	0x3d9f865b	0.07789298
209	0xbe4a31db	-0.19745581
210	0xbca08d8f	-0.01959875
211	0x3d1ac129	0.037781868
212	0x3d921b20	0.0713408
213	0x3d2475ad	0.040151287
214	0xbd55e5f9	-0.052221272
215	0x3d8ef57e	0.06980418
216	0x3d1ee99b	0.038797002
217	0x3d91a74c	0.071119875
218	0x3dc2deb1	0.09515131
219	0x3d75306f	0.059860643
220	0x3d0e0f9c	0.034682855
221	0xbd2c2072	-0.04202313
222	0x3d7c3f46	0.06158378
223	0x3c5e5b5e	0.013571588
224	0x3dad7b46	0.08470778
225	0x3d68601d	0.056732286
226	0x3d0e6eb9	0.034773562
227	0x3d92e223	0.071720384
228	0x3e7ab7d4	0.24484187
229	0x3ae01113	0.0017094932
230	0x3d074bc9	0.03303126
231	0x3d252391	0.040317122
232	0x3cd898bc	0.026440017
233	0xbc70701c	-0.014675166
234	0x3de5d6c7	0.11222606
235	0x3da7b35d	0.08188508
236	0x3ce569c4	0.028004535
237	0x3d18d4e9	0.037312422
238	0xbc8e4ca5	-0.017370531
239	0x3c6547b0	0.013994142
240	0x3d30a6b4	0.04312773
241	0x3d3093db	0.043109756
242	0x3d76d282	0.06025935
243	0x3ba9f6f3	0.0051869093
244	0xbe6b5c46	-0.22984418
245	0x3d6f11da	0.058366634
246	0x3d811dfc	0.06304547
247	0x3d096a7a	0.03354881
248	0xbe316499	-0.17323531
249	0x3d89f132	0.067354575
250	0x3e24eabc	0.16105169
251	0xbcf98a27	-0.030461384
252	0x3da09f02	0.07842828
253	0x3e2b1fbb	0.16711323
254	0x3dc6f7f8	0.09715265
255	0x3da81925	0.08207921

lstm.weight_hr_l0 f4 [2, 1400]
0	0x3d8af53f	0.06785058
1	0x3d80a51d	0.06281493
2	0xbcf03b2b	-0.029325088
3	0x3da66f99	0.08126754
4	0x3dc2f90e	0.0952016
5	0x3a445b21	0.0007490386
6	0xbed14529	-0.40873078
7	0xbd95b878	-0.07310575
8	0xbda9ba68	-0.08287507
9	0xbbf0f5d4	-0.0073535237
10	0x3d350551	0.044194523
11	0xbdb1304a	-0.086517885
12	0x3d541197	0.051774587
13	0x3b389d26	0.002816984
14	0xc0357254	-2.835103
15	0xbd1ec71d	-0.038764108
16	0x3c31fff6	0.0108642485
17	0x3db0a9e8	0.08626157
18	0x3daffc5c	0.085930556
19	0x3d792f7d	0.060836304
20	0xbda17541	-0.078836925
21	0xbd91459b	-0.07093354
22	0x3d243c85	0.04009678
23	0xbc322b63	-0.010874602
24	0x3e1c2895	0.15249856
25	0x3d7382b6	0.059450828
26	0x3d98e5b0	0.074656844
27	0xbd96dbff	-0.0736618
28	0xbcc3d7ca	-0.023906607
29	0xbd8a04a0	-0.067391634
30	0x3d83c981	0.06434918
31	0xbc16147a	-0.009160155
32	0xbc2fff50	-0.010742024
33	0xbda42c4e	-0.08016263
34	0x3d07611c	0.033051595
35	0xbcb6258f	-0.022234706
36	0x3d92917d	0.07156656
37	0xbd158f05	-0.036513347
38	0x3dbb8f50	0.09158194
39	0xbd8e0138	-0.06933826
40	0x3bb27912	0.0054465616
41	0xbdb6a10f	-0.08917438
42	0x3d78379e	0.060599916
43	0x3b3c180f	0.0028700863
44	0xbd8577db	-0.06517001
45	0xbd8866ba	-0.066602185
46	0x3cac8df3	0.02106378
47	0xbd6968a7	-0.05698457
48	0xbda27a29	-0.079334565
49	0x3d736bdb	0.05942903
50	0x3d253e0a	0.04034237
51	0xbd8a18fb	-0.06743046
52	0xbd683690	-0.05669266
53	0x3d97880c	0.07398996
54	0x3d70f4ed	0.05882733
55	0xbdfc128b	-0.12308224
56	0x3cff66d6	0.031176966
57	0xbe75faf8	-0.24021518
58	0xbb01ce85	-0.0019806933
59	0x3cc70daa	0.024298508
60	0xbda3ea06	-0.08003621
61	0x3d99a6e8	0.07502538
62	0xbd608f4f	-0.05482417
63	0xbd7daa48	-0.06192997
64	0xbadb57e5	-0.0016734569
65	0x3db1d55b	0.086832725
66	0xbdb77221	-0.08957315
67	0x3d9de26d	0.07709203
68	0xbcbd8a2a	-0.02313717
69	0xbf60045e	-0.87506664
70	0x3ce06f2b	0.027396759
71	0xbd87c3d5	-0.06629149
72	0xbda5b052	-0.08090271
73	0xbf08b2a5	-0.5339759
74	0xbdb21a91	-0.086964734
75	0x3d415c15	0.047206957
76	0x3cb356ce	0.021891978
77	0x3cd69c89	0.026197689
78	0x3d9d36d1	0.07676471
79	0x3d0ca490	0.034336627
80	0x3d0ecfa9	0.03486601
81	0xbdb28721	-0.0871718
82	0xbbd53227	-0.0065062228
83	0xba97e9c7	-0.0011590057
84	0xbdbd0043	-0.092285655
85	0x3d9c805b	0.07641669
86	0xbd278bb2	-0.04090471
87	0xbd7363d0	-0.05942136
88	0xbd178010	-0.036987364
89	0x3b0e0822	0.0021672328
90	0x3abcaf40	0.001439549
91	0xbdbbe4d2	-0.091745034
92	0x3daec292	0.08533205
93	0xbd0a0eca	-0.03370551
94	0xbcdfffc1	-0.027343633
95	0xbc63f482	-0.013913276
96	0x3d168b7e	0.036754124
97	0xbdaa6060	-0.08319163
98	0xbd938499	-0.07203025
99	0x3b6b9d5d	0.003595195
100	0xbd557e90	-0.052122653
101	0x3d8b1365	0.067908086
102	0x3cab4648	0.020907536
103	0x3d6d3cc9	0.057919297
104	0x3d9943d6	0.07483642
105	0x3d454d6d	0.048169542
106	0x3efb573d	0.49089995
107	0xbd6c46a5	-0.05768456
108	0x3f56b278	0.8386607
109	0x3d5dff2e	0.054198436
110	0xbed571c0	-0.41688347
111	0xbdb4ffb3	-0.08837833
112	0xbbfdd3c9	-0.007746194
113	0xbdb4aee1	-0.08822418
114	0xbcb7f31c	-0.02245479
115	0x3d87f4f4	0.06638518
116	0xbd6f504f	-0.058426198
117	0x3d18f669	0.03734437
118	0xbd83f581	-0.064433105
119	0xbd55da25	-0.052209992
120	0xbd9b6533	-0.075876616
121	0x3d9757eb	0.07389816
122	0xbc4dad9e	-0.012553601
123	0xbc52e357	-0.012871585
124	0x3dac9cae	0.08428322
125	0x3cda0361	0.02661294
126	0x3b59e7ff	0.0033249853
127	0xbba8cf5d	-0.0051516728
128	0x3d7d977b	0.06191204
129	0xbd591751	-0.053000752
130	0x3d23bcf2	0.039975114
131	0x3c1072c0	0.008816421
132	0xbd0618af	-0.032738384
133	0xbc1a1fc7	-0.00940699
134	0x3db2f0fb	0.087373696
135	0x3d54fb01	0.05199719
136	0x3d9de07e	0.07708834
137	0xbd192a92	-0.037394114
138	0xbd9c0021	-0.07617212
139	0x3da8a87a	0.08235259
140	0x3db89988	0.09013659
141	0xbe27a658	-0.16372049
142	0x3d8ba405	0.068183936
143	0x3b929fb6	0.0044746054
144	0xbb952652	-0.0045516873
145	0xbd7375e8	-0.059438616
146	0xbed92f78	-0.42419028
147	0xbd8d44b4	-0.0689787
148	0x3da49100	0.08035469
149	0x3d96e090	0.07367051
150	0xbdaea9f4	-0.0852851
151	0x3c74c163	0.014938685
152	0xbdb62599	-0.0889389
153	0xbd70e0af	-0.058808025
154	0x3d532f68	0.051558882
155	0x3bb67c34	0.0055690054
156	0x3d43fe22	0.04784978
157	0x3d14ebdf	0.036357757
158	0x3c6ac44c	0.014329027
159	0xbd556d69	-0.052106295
160	0x3bb86565	0.0056273215
161	0x3db6d84b	0.08927973
162	0xbd5f9dc3	-0.054593813
163	0x3d27d880	0.040977955
164	0xbda82fc8	-0.082122386
165	0xbd73afb7	-0.059493747
166	0xbd18b4ff	-0.037281986
167	0xbd74d182	-0.059770115
168	0x3f6fc03e	0.93652713
169	0xbd9f2ab0	-0.07771814
170	0x3a065a24	0.00051251263
171	0xbd828a23	-0.06374004
172	0xbd842703	-0.064527534
173	0xbd4c4ee8	-0.04987994
174	0xbca32fae	-0.019920196
175	0xbdacb6b8	-0.08433288
176	0xbf1dba24	-0.61612153
177	0x3db72533	0.08942642
178	0xbd9dc2cc	-0.0770317
179	0x3d66cab9	0.056345675
180	0xbc42d9ad	-0.011892718
181	0x3d869b47	0.065725856
182	0x3cec0d92	0.028815065
183	0x3ceeed93	0.029166019
184	0x3da56cb1	0.08077372
185	0xbd8fca09	-0.07020957
186	0xbec40e9b	-0.38292393
187	0xbd0b98a7	-0.034081127
188	0x3c2909ac	0.010317247
189	0xbda48de3	-0.08034875
190	0x3d7970f4	0.060898736
191	0xbd54c278	-0.051943272
192	0x3f2e91d3	0.6819126
193	0xbd40250c	-0.04691033
194	0x3cac9bba	0.02107035
195	0x3d5ea176	0.0543532
196	0xbceb3937	-0.028713806
197	0xbd9c5f54	-0.0763537
198	0x3e399049	0.18121447
199	0x3d97708e	0.07394515
200	0x3eed6323	0.46364698
201	0x3d2e9c3a	0.042629458
202	0x3d8aa842	0.06770374
203	0x3ce8a199	0.028397368
204	0x3d4706d5	0.0485905
205	0x3dbf2c43	0.09334614
206	0xbab742bb	-0.0013981679
207	0x3c975fc8	0.01847829
208	0x3da06d02	0.078332916
209	0xbdbc4ab1	-0.09193934
210	0x3dbec509	0.09314925
211	0xbdb043cc	-0.08606681
212	0x3d7b5ffd	0.06137084
213	0xbd9ab937	-0.07554858
214	0x3bdcf3e6	0.006742942
215	0x3da0fd17	0.07860773
216	0x3d335f3e	0.043792002
217	0x3db38d23	0.08767154
218	0xbdaa00f8	-0.08300966
219	0x3db2b127	0.087251954
220	0xbdb4e80f	-0.08833324
221	0xbdab4e63	-0.083645605
222	0xbd6b169a	-0.0573946
223	0x3d61823d	0.055055846
224	0x3d89e8aa	0.0673383
225	0xbf265f5f	-0.64989275
226	0x3e1fcd0e	0.15605566
227	0xbf3bbbdb	-0.7333352
228	0x3db27643	0.08713963
229	0x3e186e84	0.14885908
230	0x3d9f1e01	0.07769395
231	0xbf1b24d0	-0.60603046
232	0xbd959fb2	-0.0730585
233	0x3b5f3fa7	0.003406504
234	0xbe96a8c5	-0.29425636
235	0x3c8867cf	0.016651062
236	0x3f108fb7	0.5646929
237	0x3da918a4	0.08256653
238	0xbd011b17	-0.031519976
239	0xbdab15df	-0.08353781
240	0x3d89c201	0.067264564
241	0x3db08fd5	0.08621184
242	0xbd5ea2ce	-0.05435448
243	0xbd22ea3b	-0.03977416
244	0x3d7ebc89	0.06219152
245	0xbd9427a8	-0.07234126
246	0x3d1e8556	0.038701378
247	0x3d9d52c9	0.07681806
248	0xbd9c8536	-0.076425955
249	0xbd7b39ff	-0.061334606
250	0xbf9954a0	-1.197895
251	0xbd311559	-0.04323325
252	0x3d774b4b	0.06037454
253	0xbb5ddb7a	-0.0033852742
254	0xbd0e99e6	-0.034814738
255	0xbdace6ed	-0.08442483

exp_avg f4 [70, 2]
0	0x3918756b	0.00014539591
1	0x3b6ce6fe	0.0036148424
2	0xbbeac8ac	-0.0071650352
3	0xbb9995ce	-0.0046870476
4	0x3a1b8434	0.00059324806
5	0xba0c9064	-0.0005362092
6	0xba041b93	-0.0005039509
7	0x39b9bd6e	0.00035427086
8	0xba3b5559	-0.00071462017
9	0x3b9a143d	0.0047021196
10	0x3af24b4b	0.0018485574
11	0xbaa8a640	-0.0012866929
12	0xbce53ee0	-0.027984083
13	0x3c7f96e2	0.015599938
14	0xbac51d6b	-0.0015038674
15	0x3a33d6fe	0.00068603444
16	0xbae08139	-0.0017128355
17	0x3ab0c5aa	0.0013486643
18	0xbb000383	-0.0019533343
19	0x3b0c88c3	0.002144382
20	0x3bcc035e	0.0062259873
21	0x3b3031b8	0.0026885103
22	0xbb18b21e	-0.0023299525
23	0x3b70036c	0.0036623133
24	0xbb04e3f4	-0.0020277472
25	0x378293d0	1.5566038e-05
26	0x3bf822cb	0.007572507
27	0x3c591d8b	0.0132516725
28	0x3b605939	0.0034232868
29	0xbbc95085	-0.006143632
30	0x3a885577	0.0010401447
31	0x3a655bf8	0.0008749361
32	0x3b32c7b2	0.0027279672
33	0x3af40648	0.0018617595
34	0xbb976913	-0.00462068
35	0x3aaf8057	0.0013389689
36	0xb9f38f4a	-0.0004645533
37	0x3a3a1169	0.0007097931
38	0x3b0da2d2	0.002161194
39	0xbade9ff3	-0.0016984924
40	0x3b2e65b8	0.0026610922
41	0x3b694f3a	0.0035600201
42	0x3b27d8c9	0.0025611392
43	0xbaea0d5f	-0.0017856768
44	0x3a213462	0.0006149468
45	0xba05618e	-0.0005088084
46	0xbb15c790	-0.0022854544
47	0xba0a05fd	-0.00052651746
48	0x3bcd4145	0.0062638843
49	0x3bc0c021	0.0058822786
50	0xbb399d8f	-0.0028322672
51	0xbb92a59d	-0.004475309
52	0x3b174084	0.0023079226
53	0xbae581d4	-0.0017510005
54	0x3b8dbad7	0.0043252516
55	0x395c2d3d	0.00020997688
56	0xbacc9621	-0.0015608707
57	0x38cbe0d9	9.7216755e-05
58	0x3b8bc262	0.0042651156
59	0x3b2e8504	0.0026629576
60	0xbc487a05	-0.012236123
61	0x3c819f9c	0.015823178
62	0xbb882eef	-0.0041559855
63	0xb9a14fa4	-0.0003076765
64	0x3bcdd75f	0.0062817778
65	0x3b1fabd6	0.0024363897
66	0xbbec3408	-0.007208351
67	0x3bcb1d60	0.00619857
68	0xbb126cdf	-0.0022342724
69	0xba09a056	-0.0005250027
70	0xbb16f071	-0.0023031498
71	0xbba2d415	-0.00496913
72	0x3b8a26b7	0.004216041
73	0xbb910305	-0.004425409
74	0x3b5a4142	0.0033303057
75	0xba9febd1	-0.0012201016
76	0xb9435313	-0.00018627597
77	0x3bf8edd0	0.007596709
78	0x3b8a0be1	0.004212842
79	0xbc3c2116	-0.011482498
80	0xbb3a6c23	-0.0028445802
81	0x395e8ced	0.00021224069
82	0xbb2cb657	-0.00263538
83	0x3bb198a0	0.0054198056
84	0x3b9f8bc2	0.0048689554
85	0x399f304a	0.0003036282
86	0xbc6e1652	-0.014531689
87	0x3ca3f54b	0.020014426
88	0x3c114c8a	0.008868346
89	0x39bbeb32	0.00035842654
90	0xbaa65511	-0.0012690147
91	0xbbbebf65	-0.005821156
92	0xbbe88c43	-0.0070967986
93	0x3b883880	0.004157126
94	0xbc0ad5bf	-0.008473813
95	0x3ba6ce30	0.0050904974
96	0xbbbadb84	-0.005702438
97	0xbd0cb664	-0.03435363
98	0x3c026eb4	0.007960964
99	0xba1ebc1d	-0.0006055253
100	0xba5926a3	-0.00082836504
101	0x3b77f590	0.0037835576
102	0xba95a077	-0.001141562
103	0x3bcbdad4	0.0062211547
104	0xbb65d8be	-0.0035071815
105	0xba023b80	-0.00049679726
106	0xbc092c00	-0.008372307
107	0xbbd7c163	-0.006584333
108	0x3a8d7ea0	0.0010795183
109	0xbb30a252	-0.002695222
110	0x3afabe91	0.001913028
111	0x3a1ecc54	0.0006057669
112	0x3b915738	0.004435446
113	0xbbb5cbfd	-0.005547999
114	0x3ccc8ad1	0.024968537
115	0xbaaed548	-0.0013338709
116	0x3be2252d	0.0069014044
117	0x3c038ee3	0.008029672
118	0x3ca5781e	0.020198878
119	0x3bb690b5	0.0055714496
120	0x3a8915cb	0.0010458765
121	0x3bbda441	0.005787403
122	0xbad97344	-0.0016590138
123	0xb81e8187	-3.7790767e-05
124	0xbbd8ac9c	-0.0066123735
125	0x3b0ef802	0.0021815305
126	0x3c509b00	0.012732267
127	0xbc182e0c	-0.009288322
128	0xb90a956d	-0.00013216371
129	0xbb3e9b84	-0.0029084394
130	0x3bad5a03	0.0052902712
131	0x3b050d48	0.0020302106
132	0xbae6f87e	-0.0017621664
133	0xb81c564f	-3.727368e-05
134	0xb9ad0768	-0.0003300265
135	0x3b1f874c	0.0024342118
136	0x3c259e33	0.010108518
137	0xbc42c188	-0.011886962
138	0x3b8d756b	0.004316976
139	0xbbeecb33	-0.007287407

exp_avg_sq f4 [70, 2]
0	0x3a09099b	0.00052275666
1	0x393f0d62	0.00018220165
2	0x39c0796e	0.00036711566
3	0x396c10fb	0.0002251304
4	0x39bb1d95	0.0003568946
5	0x38dcde2a	0.00010531799
6	0x38d14037	9.9778576e-05
7	0x38fd8d2d	0.00012090276
8	0x393faae0	0.00018278835
9	0x3987a4ba	0.00025871937
10	0x3a30fdb7	0.00067516736
11	0x39d17b4d	0.00039955453
12	0x3a9f1a62	0.00121386
13	0x3a732e1d	0.0009276586
14	0x3b347a5b	0.002753875
15	0x3a2a9354	0.0006506939
16	0x380626d4	3.198425e-05
17	0x381d3b13	3.7486734e-05
18	0x3981a138	0.00024724915
19	0x39548b6b	0.00020269833
20	0x3b027056	0.0019903383
21	0x3ad01f04	0.0015878384
22	0x3a347113	0.00068833044
23	0x3a26c6de	0.0006362031
24	0x3954a207	0.00020278255
25	0x39bfd6c1	0.00036590363
26	0x3b57e714	0.003294413
27	0x3b094727	0.002094695
28	0x3ae6d5ed	0.0017611362
29	0x3acf227c	0.0015803124
30	0x3ab10a41	0.0013507084
31	0x3a9f3f46	0.0012149594
32	0x3a25f23d	0.0006330347
33	0x39eb9c3a	0.0004493909
34	0x3ab17188	0.0013537863
35	0x3ab155db	0.0013529615
36	0x3a076a91	0.0005165721
37	0x3a0688b5	0.0005132065
38	0x3a116d5b	0.0005547606
39	0x39f18b08	0.00046070688
40	0x39f45f10	0.00046610134
41	0x39571b49	0.00020514162
42	0x39e46ef8	0.00043570227
43	0x3916ef1d	0.00014394191
44	0x3a0c9413	0.0005362641
45	0x39718887	0.00023034411
46	0x3ae941ce	0.0017796101
47	0x3a90c70a	0.0011045646
48	0x39ac4db7	0.000328643
49	0x39cce6ee	0.00039081968
50	0x39c9c51b	0.00038484563
51	0x3933ad02	0.0001713522
52	0x39ccd747	0.00039070306
53	0x39d14f6d	0.00039922763
54	0x3973ad42	0.0002323883
55	0x39c51038	0.00037586852
56	0x39e3ef04	0.00043474894
57	0x398f9c5f	0.0002739159
58	0x38f19be5	0.00011520813
59	0x387add05	5.9810485e-05
60	0x3af00b1e	0.001831386
61	0x3ad30d7a	0.0016102039
62	0x3a375f5c	0.00069951057
63	0x39ada133	0.00033117234
64	0x3a79a2b1	0.0009522839
65	0x39f43c1d	0.00046584095
66	0x3a08b4ff	0.0005214959
67	0x39d10f2c	0.0003987489
68	0x3a6f9e54	0.0009140719
69	0x3a232ee4	0.0006224944
70	0x3a172752	0.0005766052
71	0x3996fa24	0.000287966
72	0x3a17b3b4	0.0005786971
73	0x39ffb7bf	0.00048774292
74	0x3a1280e3	0.00055886636
75	0x39570eaf	0.00020509468
76	0x3a97578a	0.0011546474
77	0x3a12cba5	0.00055998034
78	0x3b0f3664	0.0021852488
79	0x3aafc1d1	0.0013409202
80	0x3a3e6f05	0.0007264468
81	0x3a29c40c	0.00064760516
82	0x39d46d2e	0.00040517136
83	0x39a0c24d	0.00030662343
84	0x3a1e4332	0.00060372346
85	0x3965b1f9	0.00021905442
86	0x3adff311	0.0017085989
87	0x3ae41ff8	0.0017404547
88	0x3b770607	0.0037692802
89	0x3b034754	0.0020031529
90	0x3b802773	0.0039109527
91	0x3b10a210	0.0022069253
92	0x3b0ff1f2	0.002196428
93	0x3ae6fa02	0.0017622116
94	0x3ab1c454	0.0013562539
95	0x3a243427	0.0006263875
96	0x3a9e8025	0.0012092633
97	0x3a996d53	0.0011705555
98	0x39803edf	0.00024460905
99	0x38a8d9aa	8.051407e-05
100	0x395667a5	0.00020447241
101	0x38b96f1d	8.842184e-05
102	0x3b3095e7	0.0026944818
103	0x3a7a0390	0.0009537274
104	0x39b102eb	0.00033762245
105	0x3949c6af	0.00019242869
106	0x3982615b	0.00024868068
107	0x394ab77b	0.00019332573
108	0x3a85f7b9	0.0010220922
109	0x39cde88d	0.0003927391
110	0x39876c25	0.0002582978
111	0x39316651	0.00016918151
112	0x3a81b120	0.0009894706
113	0x3a84d2a1	0.0010133573
114	0x3ae1dbfc	0.0017231698
115	0x3a9c7c52	0.0011938906
116	0x3adec949	0.0016997244
117	0x3b0159cb	0.0019737359
118	0x3ae52ca8	0.0017484622
119	0x39c55c30	0.00037643453
120	0x3b25f55f	0.0025323255
121	0x3aeb0c23	0.0017932694
122	0x39d5b25b	0.0004075941
123	0x3949e524	0.00019254215
124	0x39c5dc5d	0.00037738952
125	0x39a42ae3	0.0003131247
126	0x3a77a7f9	0.0009447332
127	0x3a90e493	0.0011054449
128	0x39930c01	0.00028046969
129	0x391ca77a	0.00014939709
130	0x395501c9	0.00020313928
131	0x3961b6df	0.00021525797
132	0x39b98684	0.00035386172
133	0x38dbd42e	0.00010482255
134	0x38b1276c	8.4473606e-05
135	0x38ccf4be	9.773065e-05
136	0x3abbe837	0.0014336173
137	0x3a56fd4e	0.00082011975
138	0x3a6ddd86	0.0009073842
139	0x3a489a02	0.00076523435
