lightning_logs/version_30/checkpoints/epoch=40-step=1804.ckpt (torch, 318718 bytes, 15 tensors)

lstm.weight_ih_l0 f4 [4000, 2]
0	0x3c79e7d1	0.015253023
1	0x3caa6430	0.020799726
2	0x3ce983d9	0.028505253
3	0x3ba1053c	0.004913954
4	0x3be5bc47	0.00701097
5	0x3ccfc22c	0.025361143
6	0x3d07f0ea	0.033188738
7	0x3cc1b149	0.023644106
8	0x3c8a357c	0.016871206
9	0x3c8aa524	0.016924448
10	0x3d058338	0.032595843
11	0x3cd40bcd	0.025884533
12	0x3c9314fe	0.017954346
13	0x3cd28537	0.025698287
14	0x3c79eeae	0.01525466
15	0x3c83de01	0.01609707
16	0x3d0dcd42	0.034619577
17	0x3b88c322	0.0041736523
18	0x3c9b0df1	0.018927546
19	0x3d42a365	0.047519106
20	0x3ca54363	0.020173734
21	0x3cd14ad2	0.025548372
22	0x3ca7206f	0.020401208
23	0x3d06d20e	0.032915168
24	0x3cc06815	0.02348713
25	0x3c973bf6	0.018461209
26	0x3d2217d1	0.039573494
27	0xbc424bee	-0.011858923
28	0x3d000dd5	0.03126319
29	0x399fdb77	0.00030490357
30	0x3cf20ce7	0.029547168
31	0x3d46a50c	0.048497245
32	0x3d2919a7	0.04128423
33	0x3bbe325c	0.005804343
34	0x3c98448e	0.018587377
35	0x3c7dd4b9	0.015492612
36	0x3d011257	0.03151163
37	0x3cd9724f	0.026543764
38	0xbbf3b55d	-0.0074373917
39	0x3d1e314e	0.03862124
40	0x3b7ea964	0.003885829
41	0x3d0bc182	0.03412009
42	0x3c9f2ead	0.019431436
43	0x3d100bc3	0.035167467
44	0xbc091af1	-0.00836824
45	0xbd193ca1	-0.037411336
46	0xbbca55f5	-0.0061747977
47	0x3d284963	0.041085612
48	0x3ca7be1e	0.020476397
49	0x3d162332	0.03665466
50	0xbd0c09ca	-0.034189023
51	0xbd096b8c	-0.03354983
52	0x3bb047ce	0.0053796535
53	0xbd228d1d	-0.039685357
54	0x3ce2ce2d	0.027686203
55	0x3aec1393	0.0018011205
56	0x3d28f7ee	0.04125207
57	0x3c9fc946	0.019505154
58	0x3cafa981	0.02144313
59	0x3c966793	0.018359935
60	0x3d1bcf60	0.038039565
61	0x3c9183db	0.017763069
62	0xbb731224	-0.003708967
63	0x3d0d761d	0.03453647
64	0x3c0bf62d	0.00854258
65	0x3cef7159	0.029228853
66	0x3b922e51	0.0044610878
67	0x3cf403ab	0.029786905
68	0x3c7930f6	0.015209427
69	0x3c701afa	0.014654869
70	0xbb855b8c	-0.004069751
71	0xbc549296	-0.012974402
72	0x3c72f892	0.014829772
73	0x3c8ea7e7	0.017414046
74	0x3cea7d67	0.02862425
75	0x3d0c2925	0.034218926
76	0x3ce27aac	0.027646385
77	0x3c8e438f	0.017366199
78	0x3c8fb879	0.017544018
79	0x3c718378	0.014740817
80	0x3cdaafe1	0.026695194
81	0x3c2bb53e	0.010480223
82	0xbbf11a0a	-0.0073578404
83	0x3d361399	0.044452284
84	0x3d0292fc	0.031878456
85	0xbba48b7a	-0.0050215097
86	0x3d3e64ef	0.046482977
87	0x3d2b33ff	0.041797634
88	0x3d0f52c3	0.034991037
89	0x3c81d5c4	0.015849002
90	0xbd29f919	-0.041497324
91	0xbb1774f9	-0.0023110493
92	0x3cfd9d7f	0.030958889
93	0x3d1c7f12	0.03820712
94	0x3d4b84d5	0.049687225
95	0x3cd53117	0.026024384
96	0x3c7e64c2	0.015526952
97	0x3d41e36c	0.047336027
98	0x3d24846d	0.040165354
99	0xbc482800	-0.012216568
100	0x3d35e227	0.04440513
101	0x3c53b24f	0.01292093
102	0xbce4681d	-0.027881676
103	0xbbccedcc	-0.0062539335
104	0x3bb64c48	0.0055632927
105	0x3d3339a2	0.043756135
106	0x3ce34669	0.027743535
107	0x3b8f1d8d	0.0043675364
108	0xbcacdfb9	-0.021102773
109	0x3c477d62	0.01217589
110	0x3bab06bd	0.005219309
111	0x3d6f9f9e	0.058501832
112	0x3c1ed724	0.009694848
113	0x3cbfee61	0.023429098
114	0x3cdd3770	0.027003974
115	0xbaca7a6f	-0.0015447865
116	0x3d398e7d	0.045301903
117	0xbc3112a8	-0.010807671
118	0x3ca3c409	0.019990938
119	0x3cf2040a	0.029542942
120	0x3bbacde6	0.0057008145
121	0x3ced8c3d	0.028997535
122	0x3d571449	0.05250958
123	0x3d042172	0.03225846
124	0x3cbe09f0	0.023198098
125	0x3cecad4a	0.028891224
126	0x3d117c5a	0.03551898
127	0x3a44cfb8	0.0007507759
128	0x3cd985a9	0.026552992
129	0x3d1efac4	0.038813367
130	0x3d1c13ff	0.038105007
131	0xbbc77c54	-0.006087819
132	0x3df082c6	0.11743693
133	0x3d04aebc	0.032393202
134	0x3c9327f9	0.017963396
135	0x3cecc3e6	0.028902005
136	0x3bb9ea1e	0.005673661
137	0x3d5bd5c9	0.05367068
138	0x3b18fd58	0.0023344364
139	0x3cfe6558	0.031054184
140	0x3d455942	0.048180826
141	0x3c6183d9	0.013764345
142	0x3c008ef7	0.0078465855
143	0x3d0e059d	0.034673322
144	0x3d1c533e	0.038165323
145	0x3d2a2ed6	0.041548572
146	0x3bdadc85	0.00667912
147	0x3cc2e0a5	0.02378876
148	0x3cf62f21	0.03005177
149	0x3c0e2cc0	0.008677661
150	0x3b88ec4a	0.0041785585
151	0x3cf6f593	0.030146396
152	0x3cbe6cf6	0.023245316
153	0x3bf0809c	0.00733955
154	0x3caff5c3	0.021479493
155	0x3d80640d	0.06269083
156	0x3c54dac4	0.012991611
157	0x3cd65885	0.026165256
158	0x3c9a7c01	0.018857958
159	0x3c23635d	0.0099724205
160	0x3c74eebc	0.014949497
161	0x3cb79feb	0.022415122
162	0x3d1b7c09	0.037960086
163	0x3c5d0244	0.01348931
164	0x3cce2cd0	0.025167853
165	0x3d257759	0.040397022
166	0x3ceebefd	0.029143805
167	0xb9fa92f3	-0.00047793202
168	0x3b6984f3	0.0035632222
169	0xbcf5cf05	-0.030005941
170	0xbc934392	-0.017976556
171	0x3cfd1aa8	0.0308965
172	0x3d45d664	0.048300162
173	0xbc8bae6c	-0.017050944
174	0xbc8dc4d5	-0.01730577
175	0xbd254353	-0.04034741
176	0x3cb5d720	0.022197306
177	0x3cfa6d8e	0.030569818
178	0x3cdf383c	0.027248494
179	0x3c9c0994	0.019047536
180	0x3cd6492e	0.026157942
181	0x3d3c409f	0.045960065
182	0x3c9eee94	0.019400872
183	0x3cf0e6ec	0.029406987
184	0x3c056fdf	0.008144348
185	0x3d258ae0	0.040415645
186	0x3c770d7a	0.015078897
187	0x3d760ba6	0.060069703
188	0x3c3ea8f1	0.011636958
189	0x3ca5a3d0	0.020219713
190	0x3c69fad4	0.0142809935
191	0x3d854acb	0.06508406
192	0x3c2a25ca	0.010384986
193	0x3d0d0f06	0.034438156
194	0x3d2033d2	0.03911192
195	0x3c837810	0.016048461
196	0x3ca27755	0.019832293
197	0x3d00af54	0.031417206
198	0x3cf2fd9d	0.029661948
199	0x3a1cacd2	0.000597668
200	0x3cd4e20b	0.025986692
201	0x3bd626f3	0.006535405
202	0x3d0fcfee	0.035110407
203	0x3b28aade	0.002573661
204	0x3d359a3d	0.044336546
205	0x3c9b2d24	0.018942423
206	0x3ccdba23	0.025113171
207	0x3c0fb8f1	0.008772121
208	0x3d18385b	0.03716312
209	0x3d16e17d	0.036836136
210	0x3cacf799	0.021114158
211	0x3d12aebb	0.035811167
212	0x3cbbd141	0.022926928
213	0x3d093315	0.03349598
214	0xbce53d5d	-0.027983362
215	0xbb6e2e9c	-0.00363437
216	0x3d0231a1	0.03178561
217	0x3d25ae35	0.04044934
218	0x3ca2915a	0.0198447
219	0x3ca2e0e3	0.019882625
220	0x3d3f71b6	0.046739303
221	0x3b35243f	0.0027640013
222	0x3b030c44	0.0019996325
223	0x3d035ba3	0.032069813
224	0x3d0a71a1	0.03379977
225	0xbaf27acb	-0.001849973
226	0x3d4053e3	0.046955
227	0x3bee03b1	0.0072636236
228	0x3cd808e5	0.026371429
229	0x3cf83484	0.030298479
230	0x3cf94745	0.030429492
231	0x3cea7a95	0.028622905
232	0x3b0b2e25	0.002123722
233	0x3d32b9f4	0.04363437
234	0x3b8ee300	0.0043605566
235	0xbb73b6ea	-0.0037187883
236	0x3c7a2a13	0.01526882
237	0x3caa064f	0.020754961
238	0x3cc21b27	0.023694588
239	0x3c2e5b13	0.010641831
240	0x3d32bf89	0.043639693
241	0x3ca8439d	0.020540053
242	0x3c23886e	0.009981258
243	0x3cb565e7	0.022143317
244	0x3cd2176f	0.02564594
245	0x3ceb769a	0.028743077
246	0x3ceb80cf	0.028747944
247	0x3cb21307	0.021737589
248	0x3cdeea61	0.02721137
249	0x3d09b7b2	0.03362245
250	0x3cfff9b5	0.031247
251	0x3cf2e460	0.029649913
252	0x3cc75f5d	0.024337465
253	0x3d05ad59	0.03263602
254	0x3bb8e201	0.005642176
255	0xbd379f57	-0.044829693

lstm.weight_hh_l0 f4 [4000, 2]
0	0xbc2d5561	-0.010579438
1	0xbc8ae9bf	-0.016957162
2	0x3cc8a96b	0.024494847
3	0xbcc93dc3	-0.024565583
4	0xbcf002ce	-0.029298212
5	0x3ce6d2b2	0.02817664
6	0x3cbefda6	0.023314308
7	0xba9a5172	-0.001177354
8	0x3c9048b5	0.017612794
9	0x3ce955a7	0.028483225
10	0xbc7ae7a5	-0.015314017
11	0x3c8c91a7	0.017159296
12	0xbb7f2986	-0.0038934662
13	0x3cc8a27c	0.024491541
14	0xbcaca4cc	-0.021074675
15	0xbc44a078	-0.012001149
16	0x3cb6afba	0.02230059
17	0x3bd0f29f	0.006376579
18	0x3b881262	0.004152582
19	0xbbcb5a95	-0.0062058666
20	0xbce6743f	-0.028131602
21	0x3cdbaf56	0.026817005
22	0x3cf928b4	0.030414917
23	0xbc88aba9	-0.016683416
24	0xbca47db4	-0.020079471
25	0x3a837c0a	0.0010031473
26	0x3c0ab7a2	0.008466633
27	0xb91ef9c1	-0.00015161095
28	0xbcaa8f07	-0.020820154
29	0x3cec8dc4	0.028876193
30	0xbbf20b90	-0.0073866323
31	0xba05c1a6	-0.0005102403
32	0xbc8c64a1	-0.017137827
33	0x3ce2bb58	0.027677223
34	0xbb4ddac9	-0.0031410924
35	0xbc8b1d43	-0.016981727
36	0xbcdda5ac	-0.027056538
37	0xbc24466b	-0.010026555
38	0xbca5707c	-0.020195238
39	0x3a4397c1	0.0007461273
40	0xbc8b423e	-0.01699936
41	0x3b852eeb	0.004064431
42	0xbcc819d6	-0.024426382
43	0xbc23168a	-0.009954104
44	0x3ce17416	0.027521174
45	0x3bd15767	0.006388593
46	0x3c5a4426	0.013321912
47	0xbc848258	-0.016175434
48	0xb99dccb4	-0.0003009789
49	0x3bb388c3	0.0054789498
50	0x3bd1d823	0.0064039393
51	0xba9fa70c	-0.0012180521
52	0x3b419ebd	0.0029544078
53	0xbba97710	-0.005171664
54	0xb9b035c3	-0.00033609392
55	0x3cad613b	0.021164527
56	0x3cbe9da2	0.023268525
57	0x3bfc5be8	0.0077013858
58	0x3c2a3957	0.010389647
59	0xbb941863	-0.0045195087
60	0x3c921f83	0.017837292
61	0x3c9ee693	0.019397056
62	0xbc261721	-0.01013735
63	0xbc8f8689	-0.017520206
64	0x3d0123d0	0.031528294
65	0x3cc73d4e	0.024321225
66	0x3c889125	0.016670773
67	0xbb3f01ba	-0.0029145316
68	0xbc7cdf34	-0.015434075
69	0x3cf089c2	0.029362563
70	0xbc8ec990	-0.017430097
71	0x3cf6b451	0.030115278
72	0xbc54d43d	-0.012990055
73	0xb9c5aa01	-0.0003770143
74	0xbcd4f813	-0.025997197
75	0x3c9a29cb	0.018818757
76	0xbcb3b07b	-0.021934738
77	0x3cd45894	0.025921144
78	0xbcd7d764	-0.026347823
79	0xbc015419	-0.007893586
80	0xbca31ba7	-0.019910647
81	0x3baf8286	0.005356136
82	0xbce62ac0	-0.028096557
83	0xbb485102	-0.0030565863
84	0x3b2f053c	0.0026706
85	0x3c7a41b4	0.015274454
86	0xbc1d5d1f	-0.009604721
87	0xbcc32f6e	-0.023826327
88	0xbc4b7929	-0.012419024
89	0xbbe84c5e	-0.007089182
90	0xb969d19d	-0.00022298699
91	0x38826b94	6.218921e-05
92	0x3c895bb8	0.016767368
93	0xbc74e8c5	-0.014948075
94	0x3c93dd41	0.018049838
95	0x3cdbfdf5	0.026854495
96	0x3b41f779	0.0029596968
97	0x3c8580d6	0.016296785
98	0xbc240505	-0.010010962
99	0x3a88a02e	0.0010423714
100	0xbcc072a4	-0.023492165
101	0xbcf5b1af	-0.029991953
102	0xbc33809f	-0.010955959
103	0x38954068	7.11687e-05
104	0x3b49381c	0.003070361
105	0xbc1fae8e	-0.009746207
106	0xbb68a197	-0.0035496706
107	0xbcfcd4f5	-0.030863265
108	0xbcadf6ea	-0.021235902
109	0x3ca6aaef	0.02034518
110	0xbbf283d3	-0.0074009686
111	0x3c906a4c	0.017628811
112	0x3c875719	0.016521024
113	0x3c089c9b	0.008338119
114	0xbc8643ac	-0.01638969
115	0xbba391ad	-0.004991731
116	0xbcb0bbab	-0.021573862
117	0x3c229818	0.009923957
118	0x3c8a4830	0.016880125
119	0x3c79f5b2	0.015256332
120	0x3c9c4596	0.01907615
121	0xbcfa698c	-0.030567907
122	0xbc5fb8ac	-0.013654869
123	0x3c9247d1	0.01785651
124	0x3c8dfd1b	0.017332604
125	0x3ca3e2ea	0.020005662
126	0xbce039b5	-0.027371267
127	0xbb0ce86a	-0.0021500834
128	0xbba42440	-0.005009204
129	0xbc3c7b43	-0.011503997
130	0xbcc8f6ac	-0.024531685
131	0xbc801a25	-0.015637467
132	0x3cbda704	0.023150928
133	0xbc9ba726	-0.019000601
134	0x3b4a4b5b	0.003086767
135	0xbc6f4c4a	-0.014605591
136	0x3b4eb845	0.0031542939
137	0xbab24cb1	-0.0013603178
138	0x3cfe0f15	0.031013051
139	0x3c554a25	0.013018166
140	0x3c568d89	0.013095268
141	0xbcc2cd24	-0.02377946
142	0xbcd6cb8c	-0.026220106
143	0xbcfca655	-0.030841032
144	0xbcae0410	-0.021242172
145	0xbca608ce	-0.02026787
146	0xbc81a7b7	-0.015827043
147	0x3caf9d18	0.021437213
148	0x3c8241f7	0.015900595
149	0x3bad5815	0.005290041
150	0x3cd3b660	0.0258438
151	0xbbf0ca7f	-0.007348358
152	0x3cfdd165	0.030983636
153	0x3c641e20	0.013923198
154	0xbc8c209d	-0.017105395
155	0x3cf9d846	0.030498635
156	0xbbb3837b	-0.00547832
157	0xbbb6ea78	-0.00558215
158	0x3cd4c385	0.025972137
159	0x3cd8a9af	0.026448099
160	0x3b383d7f	0.0028112826
161	0x3d00f9d2	0.031488247
162	0x3c359cac	0.011084717
163	0xba1db7f6	-0.0006016487
164	0xbad6a7e8	-0.0016376944
165	0x3c9c0277	0.019044144
166	0xbcb0ef98	-0.021598622
167	0xbcf47967	-0.029843045
168	0xbcb81c71	-0.0224745
169	0xbbc28bb0	-0.005937062
170	0x3cb723cb	0.022355935
171	0x39ede8f5	0.0004537773
172	0x3cbf11df	0.023323951
173	0xbc2477c4	-0.01003832
174	0xbcdd8a9c	-0.027043633
175	0x3a77d72d	0.0009454366
176	0x3cf31aa0	0.029675782
177	0x3c67953d	0.014134702
178	0x3c606f98	0.013698481
179	0xbc8a424c	-0.016877316
180	0x3cdd3354	0.027002014
181	0x3c255767	0.010091639
182	0x3caddacb	0.021222493
183	0x3aeca668	0.0018054964
184	0xbcbda977	-0.023152096
185	0xbc97a3fc	-0.018510811
186	0xbc947572	-0.018122409
187	0x3cb75176	0.02237771
188	0xbc0ae0ff	-0.008476495
189	0xbca5369c	-0.020167641
190	0x3cbc66e0	0.022998273
191	0xbca7d461	-0.020487012
192	0xbc8c050c	-0.01709225
193	0xbb08c641	-0.0020870122
194	0xbcf12083	-0.029434448
195	0xbcd206a2	-0.025637928
196	0x3ced37c5	0.028957257
197	0xbc709f51	-0.0146864215
198	0x3cf6edd5	0.030142704
199	0xbcc65c52	-0.024213944
200	0x3ca38e47	0.019965304
201	0x3cf6272e	0.03004798
202	0x3b8c3a45	0.004279407
203	0x3cd897b3	0.026439523
204	0x3c09092f	0.008364006
205	0xbca9edd5	-0.02074329
206	0xbba9630c	-0.005169278
207	0xbcd45dca	-0.025923628
208	0x3c7af552	0.015317278
209	0x3cdf85fb	0.027285567
210	0xbcb4eab1	-0.022084566
211	0xbc675ca3	-0.014121207
212	0xbca377f6	-0.019954663
213	0x3c571df9	0.013129705
214	0xbc38d82a	-0.011282006
215	0x3cfe0ee7	0.031012965
216	0x3ce8338b	0.02834489
217	0xbba33734	-0.004980946
218	0x3cb4642f	0.022020428
219	0xbbb9ea45	-0.005673679
220	0xbc48db23	-0.0122592775
221	0xbcb6934d	-0.022287035
222	0x3cf880a5	0.03033478
223	0x3b9cddec	0.0047871973
224	0x39e783a8	0.00044157845
225	0xbc9d0082	-0.019165281
226	0x3cb27a08	0.021786705
227	0xbce23c38	-0.027616605
228	0xbc40f35c	-0.011776771
229	0xbcfc002b	-0.030761799
230	0xbc089dcf	-0.008338406
231	0xbcbafb22	-0.022824828
232	0x3cc6c946	0.024265897
233	0x3cc79c4b	0.024366518
234	0x3c885b32	0.016645048
235	0x3b22cf53	0.0024842813
236	0xbc8f7bf9	-0.01751517
237	0xbaa19318	-0.0012327163
238	0x3cafdbd4	0.021467127
239	0x3a7fd50b	0.0009759224
240	0x3c3ec25f	0.011643021
241	0x3c3211bf	0.010868489
242	0xbcaac2e0	-0.020844877
243	0x3c6d4e57	0.01448401
244	0xbc8890c8	-0.0166706
245	0xbbeeeb31	-0.0072912206
246	0x3cb0274f	0.021503119
247	0x3bb08dcd	0.0053879977
248	0xbc2ce884	-0.010553483
249	0x3c48a029	0.012245216
250	0x3b5e25b4	0.0033896985
251	0x3c1ac5ea	0.0094466
252	0x3ca4789e	0.020077046
253	0x3c4b2773	0.012399542
254	0xbce211b4	-0.027596332
255	0xbccec6c1	-0.025241258

lstm.bias_ih_l0 f4 [4000]
0	0xbeadc084	-0.3393594
1	0xbe459804	-0.1929627
2	0xbe02e8ad	-0.12784071
3	0x3d76d007	0.060256984
4	0xbe331cf9	-0.17491521
5	0x3d1c96fb	0.038229924
6	0x3c4e128c	0.012577664
7	0xbd31ea2e	-0.04343622
8	0x3d4b61c4	0.049653783
9	0x3d165406	0.036701225
10	0x3c46aedb	0.01212665
11	0xbb8d0085	-0.0043030404
12	0x3d1130a8	0.035446793
13	0x3bb6d023	0.005579011
14	0xbd4ce27e	-0.050020687
15	0x3ceefd9d	0.029173667
16	0xbc8393d6	-0.016061705
17	0x3cd4f5b9	0.025996076
18	0x3d501d0e	0.05080896
19	0x3b91f7c3	0.0044545843
20	0xbe9c9ec9	-0.30589893
21	0x3d3fe570	0.046849668
22	0xbd2697c5	-0.040672082
23	0x3c50f692	0.012754099
24	0x3cdb8199	0.026795195
25	0xbd1a6d0e	-0.03770166
26	0xbd1feffa	-0.03904722
27	0xbcf77276	-0.030205946
28	0x3d5dcc22	0.054149754
29	0x3d34403b	0.044006567
30	0x3d90d22c	0.07071337
31	0xbd13fa8a	-0.036127605
32	0xbd84ae1e	-0.06478523
33	0xbd991a9f	-0.07475781
34	0xbdedf916	-0.11619775
35	0x3c3ce6b0	0.01152961
36	0xbdab50be	-0.0836501
37	0x3d95c9b3	0.07313862
38	0x3d539ece	0.05166512
39	0xbe4abb4b	-0.19798009
40	0xbc8c13d6	-0.017099302
41	0xbd129efe	-0.035796158
42	0xbcbdb38c	-0.023156904
43	0x3d09a7d4	0.03360732
44	0x3c66dc2b	0.014090578
45	0x3c5c3c5b	0.013442124
46	0x3ded62e6	0.11591129
47	0x3d30f4c9	0.043202195
48	0x3d4a9d33	0.049466323
49	0xbde1b004	-0.110199004
50	0x3d453f2e	0.048155956
51	0xbc4b0913	-0.0123923
52	0xbc49fbf9	-0.012328141
53	0xbd1f5801	-0.038902286
54	0xbd0da13c	-0.034577593
55	0x3c9bc406	0.01901437
56	0x3c07df3c	0.008292969
57	0xbc89fb90	-0.016843587
58	0xbbfa2336	-0.007633592
59	0x3c2bd209	0.010487088
60	0xbe47c945	-0.19510372
61	0x3d57bda7	0.0526711
62	0x3d923345	0.07138685
63	0x3c3e3874	0.011610139
64	0x3d86a0dc	0.0657365
65	0x3ae0b0eb	0.0017142569
66	0x3e0e7dff	0.13915251
67	0xbc3e6c6a	-0.011622528
68	0x3d564361	0.05231035
69	0xbd92307a	-0.071381524
70	0x3c8afc01	0.016965868
71	0x3d3a2f39	0.04545519
72	0x3d77b60c	0.060476348
73	0xbcc1c50b	-0.023653528
74	0xbe4c4e48	-0.19951737
75	0xbc220d3c	-0.009890851
76	0xbd86a3a9	-0.065741844
77	0x3d09d8df	0.03365409
78	0xbd84249b	-0.064522944
79	0xbd13f737	-0.036124434
80	0x3d619a9a	0.05507908
81	0x3d75ae4b	0.05998067
82	0x3cc42e2f	0.023947803
83	0xbe0879f7	-0.13327776
84	0xbc928def	-0.017889945
85	0x3cb58d6d	0.022162164
86	0xbe1f3a9b	-0.155497
87	0xbbaaae95	-0.0052088
88	0x3d134e50	0.035963356
89	0x3ce51f9f	0.02796918
90	0x3d84b45c	0.06479713
91	0x3d4d9499	0.050190542
92	0x3c70e3ba	0.014702732
93	0x3d8d7d64	0.06908682
94	0xbebc098e	-0.3672604
95	0x3d9b831c	0.075933665
96	0x3d1e8372	0.038699575
97	0x3d22e0fa	0.039765336
98	0x3cf87494	0.030329026
99	0xbdc5e6d4	-0.096631676
100	0xbd1caeb1	-0.038252536
101	0xbbdcb39e	-0.006735279
102	0x3c8de2c2	0.01732004
103	0xbded918f	-0.11600029
104	0x3d646946	0.05576446
105	0x3d1f8e06	0.038953803
106	0x3d49cd1f	0.049267884
107	0xbc47610c	-0.012169134
108	0x3d3e2d27	0.04642978
109	0xbc8a1b0e	-0.016858604
110	0x3cecc40c	0.028902076
111	0xbcd7a502	-0.026323799
112	0xbc957f6a	-0.018249232
113	0x3c6db946	0.014509505
114	0x3d81936e	0.06326948
115	0x3d0cac6b	0.034344118
116	0x3c138c64	0.00900564
117	0xbd213822	-0.039360173
118	0xbdf7a964	-0.120928556
119	0xbe54c968	-0.20779955
120	0x3d913f39	0.07092137
121	0xbd0bbc35	-0.034115035
122	0x3c854dc9	0.016272442
123	0x3d819450	0.063271165
124	0x3d2da84c	0.04239683
125	0x3d425cf9	0.047451947
126	0x3d215082	0.03938342
127	0xbd0345fb	-0.03204916
128	0xbe0945f8	-0.13405597
129	0xbc4ca79b	-0.012491132
130	0xbe34bdfa	-0.17650595
131	0x3d4de97d	0.0502715
132	0x3dc7d9a4	0.097583085
133	0xbeb297fe	-0.34881586
134	0x3d694075	0.056946237
135	0xbe53ad20	-0.2067151
136	0x3c14631c	0.009056833
137	0xbe5a9144	-0.21344477
138	0x3d04e4d2	0.032444783
139	0xbd6697a0	-0.056296945
140	0x3ba14f54	0.0049227867
141	0xbd8f9885	-0.07011513
142	0xbd4aa713	-0.04947574
143	0xbe166ec7	-0.14690696
144	0x3d6fdae0	0.058558345
145	0x3ce5ef23	0.02806813
146	0x3c7098a8	0.014684834
147	0x3bc97992	0.0061485255
148	0x3d014b45	0.031565923
149	0xbeb8d410	-0.3609929
150	0xbe142695	-0.14467843
151	0x3c454844	0.012041155
152	0xbcba8eea	-0.022773225
153	0x3c313b9a	0.010817433
154	0xbc24d83c	-0.01006132
155	0x3ce01292	0.027352605
156	0x3d57a9fd	0.052652348
157	0x3d991ea2	0.07476546
158	0x3cd9d7c6	0.026592147
159	0xbd1a19b8	-0.037622184
160	0xbcdfe5f8	-0.027331337
161	0x3d2bf302	0.041979797
162	0xbb8daba6	-0.0043234406
163	0xbc9368d8	-0.01799433
164	0xbdbbde09	-0.09173209
165	0x3d20edc1	0.03928924
166	0xbdde7eeb	-0.108640514
167	0xbe65e2e9	-0.2244984
168	0x3d8c2cd9	0.068444915
169	0xbd1df77d	-0.0385661
170	0xbe496831	-0.19668652
171	0xbd7c02a1	-0.061525945
172	0xbc45b4ab	-0.012067
173	0x3d8a2825	0.06745938
174	0xbbc991ae	-0.0061513996
175	0x3d728c64	0.05921592
176	0x3c599c07	0.013281829
177	0x3d57c1e3	0.05267514
178	0x3c5d9054	0.01352318
179	0xba6d7065	-0.00090575806
180	0xbd26271d	-0.040564645
181	0x3d1212b0	0.035662353
182	0x3c8b42e3	0.016999668
183	0x3d0671f8	0.032823533
184	0x3d5c647e	0.053806774
185	0xbd390762	-0.045173056
186	0xbc26356b	-0.010144572
187	0xbe36f171	-0.1786554
188	0x3d45fcf9	0.048336957
189	0x3cb6ac2f	0.0222989
190	0xbe74531f	-0.23859833
191	0xbcfcf5dc	-0.030878954
192	0x3ca1de60	0.019759357
193	0xbd93759b	-0.07200166
194	0xbe00dbd3	-0.12583856
195	0x3d5a0c6c	0.053234503
196	0x3d4c84e9	0.04993144
197	0x3d14c124	0.036317006
198	0x3d4737d9	0.048637245
199	0x3aeedd67	0.0018223942
200	0x3d90b774	0.07066241
201	0x3d55da9a	0.052210428
202	0xbda1001c	-0.07861349
203	0x3ce09abd	0.027417535
204	0x3ca6d1cf	0.020363716
205	0x3d029913	0.031884264
206	0x3cc48aee	0.023992028
207	0xbe0776e0	-0.13228941
208	0xbb89a76a	-0.0042008655
209	0x3d8e761d	0.06956122
210	0xbda69fa9	-0.081359215
211	0xbd8f5d3b	-0.07000204
212	0x3c85a249	0.016312735
213	0x3d7ee219	0.062227342
214	0x3cf45ec0	0.029830337
215	0x3c38db32	0.011282729
216	0xbd817af1	-0.06322277
217	0x3d8d2fcb	0.068938814
218	0x3c68e18e	0.014213933
219	0x3a8663db	0.0010253148
220	0x3d005cb6	0.031338416
221	0x3c954afc	0.018224232
222	0xbbc46572	-0.0059935385
223	0xbd8d0ae1	-0.068868406
224	0xbc225acd	-0.009909344
225	0xbdea75a8	-0.114482224
226	0x3da0b3e4	0.078468114
227	0x3d50f7cc	0.051017568
228	0x3c1f6fba	0.0097312275
229	0xba44f28b	-0.00075129484
230	0xbe1f250d	-0.15541478
231	0x3d09877c	0.033576474
232	0xbcaefacb	-0.021359822
233	0x3d2cae54	0.04215844
234	0x3d8e262f	0.06940877
235	0xbe785c8f	-0.24254058
236	0x3d8b9c23	0.0681689
237	0xbec0a0dc	-0.37622726
238	0x3cf8a62f	0.03035268
239	0x3d37345b	0.044727664
240	0x3ba4cb54	0.0050291214
241	0x3d94c54e	0.072641954
242	0x3d8fa0b5	0.07013074
243	0x3d74254c	0.05960588
244	0xba17c434	-0.00057894294
245	0x3c782274	0.015144933
246	0x3d2c6c3b	0.042095404
247	0x3cd45e0c	0.025923751
248	0xbd1d74f2	-0.038441606
249	0xbd37d12b	-0.044877212
250	0x3d30269f	0.043005582
251	0xbe0f1671	-0.13973404
252	0x3a8c5de5	0.0010709135
253	0x3d326ece	0.043562703
254	0x3cd01e5a	0.025405098
255	0x3d360dd8	0.044446796

lstm.bias_hh_l0 f4 [4000]
0	0xbeb00c94	-0.34384596
1	0xbe46b9e3	-0.19406848
2	0xbddb2e36	-0.107021734
3	0x3d82071d	0.06349013
4	0xbe56baa3	-0.20969634
5	0x3d8ab5db	0.067729674
6	0x3d659569	0.05605069
7	0xbc889499	-0.01667242
8	0x3cbb4f50	0.022864968
9	0x3cd4db00	0.025983334
10	0x3bca8ae5	0.0061811083
11	0x3cf059d6	0.029339712
12	0x3c2b39f3	0.010450828
13	0x3c64ed77	0.013972632
14	0xbc01eb9a	-0.007929707
15	0x3d4b6b62	0.049662955
16	0x3c446887	0.011987812
17	0xbce35c1d	-0.027753884
18	0x3d15eea2	0.03660453
19	0xbcdbb45c	-0.0268194
20	0xbe8b4621	-0.27201942
21	0x3d9eb18c	0.07748708
22	0x3b6bf1e2	0.0036002328
23	0x3d19ab60	0.03751695
24	0x3cab5be1	0.020917835
25	0xbcd61830	-0.02613458
26	0x3c4f2498	0.012643002
27	0xbb90686b	-0.004406979
28	0x3d87e268	0.066349804
29	0x3c93afa1	0.018028082
30	0x3d141207	0.036150005
31	0xbd94da2d	-0.07268176
32	0xbd3a8de9	-0.045545492
33	0xbd0ca304	-0.03433515
34	0xbe02ba91	-0.12766482
35	0xbb6040a4	-0.0034218216
36	0xbd7f6436	-0.062351428
37	0x3ca357c3	0.019939309
38	0x3d0d72af	0.0345332
39	0xbe41606b	-0.18884437
40	0xbc392a96	-0.011301657
41	0xbcf31e66	-0.029677581
42	0xbd185057	-0.037185993
43	0x3db16b29	0.08663017
44	0x3bb2cb6a	0.0054563778
45	0xbcf9f10c	-0.030510448
46	0x3dba4deb	0.09096893
47	0x3d6fa705	0.05850889
48	0x3d6c1b81	0.057643417
49	0xbda0636a	-0.07831462
50	0x3d02c023	0.031921517
51	0xbd14abd4	-0.03629668
52	0x3c76f346	0.015072649
53	0xbd29085c	-0.041267738
54	0xbc499f60	-0.012306064
55	0x3cc4f7be	0.024043914
56	0x3d1c4929	0.03815571
57	0x3b89c7c1	0.0042047207
58	0x3a8ba81a	0.0010654957
59	0x3c13bb6f	0.009016856
60	0xbe429cca	-0.19005123
61	0x3dab9675	0.08378307
62	0x3c904583	0.01761127
63	0x3caa270c	0.020770572
64	0x3dc16465	0.09442977
65	0xbd293b39	-0.041316245
66	0x3e27f6e4	0.16402775
67	0x3b29feaf	0.0025939157
68	0x3d5dd477	0.0541577
69	0xbdc54e52	-0.09634079
70	0x3d2c3b81	0.042048935
71	0x3d69604c	0.0569766
72	0x3d8a3fd7	0.06750458
73	0x3aabbd2d	0.0013102643
74	0xbe4289fa	-0.18997946
75	0xbc6427f1	-0.013925538
76	0xbd784345	-0.06061103
77	0x3d017439	0.03160498
78	0xbd3d7169	-0.046250734
79	0xbd483159	-0.048875187
80	0x3d7f5899	0.062340353
81	0x3d8ce794	0.068801075
82	0x3d6c2f11	0.057662074
83	0xbe17376b	-0.14767234
84	0x3b40f468	0.0029442552
85	0x3c4f34eb	0.012646894
86	0xbe1c4bab	-0.1526324
87	0x3c43532e	0.011921687
88	0x3cd80b5c	0.026372604
89	0x3d080ee3	0.033217322
90	0x3d599fad	0.053130794
91	0x3cce0891	0.02515057
92	0x3c89facc	0.016843222
93	0x3d4351d0	0.047685444
94	0xbeb5e23c	-0.35524166
95	0x3d2ed535	0.0426838
96	0x3d0a6d45	0.033795614
97	0x3cae996c	0.021313392
98	0x3d8a69b8	0.067584455
99	0xbd77429e	-0.060366265
100	0xbd3a2df1	-0.04545397
101	0xbd63c210	-0.055604994
102	0x3d934d94	0.07192531
103	0xbe07bd60	-0.13255835
104	0x3d91e6e8	0.0712412
105	0x3cde1dd8	0.02711384
106	0x3cc8e5ea	0.024523694
107	0x3a9136a6	0.0011078909
108	0x3d66b42c	0.05632417
109	0x3cb15634	0.02164755
110	0x3ba01e5e	0.0048864326
111	0xba3da37a	-0.0007234138
112	0xbc0f04d4	-0.008729178
113	0x3d078205	0.03308298
114	0x3d4136a5	0.047171254
115	0x3d83717b	0.06418129
116	0x3c204f3a	0.009784514
117	0xbcd0af19	-0.025474118
118	0xbe08352c	-0.13301533
119	0xbe494dce	-0.19658586
120	0x3c8201a0	0.015869915
121	0xbd115d34	-0.035489276
122	0xb8cbc8b8	-9.717181e-05
123	0x3c1c238e	0.009529961
124	0x3d02390b	0.03179268
125	0x3d8405a1	0.06446386
126	0x3d2951cb	0.04133777
127	0x3c25649f	0.010094791
128	0xbe00cca0	-0.12578058
129	0xbaaeb212	-0.0013328216
130	0xbe3ba1cb	-0.18323438
131	0x3cf1572e	0.029460516
132	0x3d3d8291	0.046267096
133	0xbecc01d2	-0.3984514
134	0x3da98b54	0.08278528
135	0xbe5266e2	-0.20547059
136	0x3d5bbc08	0.053646117
137	0xbe6dabad	-0.2321002
138	0x3d02d7ca	0.031944074
139	0xbd57c7d3	-0.0526808
140	0x3ce6e44f	0.028185038
141	0xbcf80a70	-0.030278414
142	0xbdb811ff	-0.089878075
143	0xbdc882d8	-0.097905815
144	0x3d4fc96b	0.050729197
145	0x3ca3f0fd	0.020012373
146	0x3be8f2a0	0.0071090013
147	0xbb0525f3	-0.002031681
148	0x3cd4c800	0.025974274
149	0xbe9f1843	-0.31073198
150	0xbe24cddb	-0.16094153
151	0x3c4cc912	0.012499111
152	0xbc65a8c7	-0.01401729
153	0x3d4b802e	0.04968279
154	0xbcff1383	-0.031137234
155	0x3d85c895	0.065323986
156	0x3d8f4339	0.069952436
157	0x3d059607	0.03261378
158	0x3d70fe30	0.058836162
159	0xbd35aa00	-0.044351578
160	0xbd10c521	-0.035344247
161	0x3c86781f	0.0164147
162	0xbcb08ade	-0.021550592
163	0xbc4c8e76	-0.012485137
164	0xbdec2b77	-0.11531728
165	0x3c9cc69d	0.019137675
166	0xbdd713c5	-0.105018176
167	0xbe6cd345	-0.23127468
168	0x3dcc3dd8	0.09972733
169	0xbcde5738	-0.027141199
170	0xbe50f9c6	-0.20407781
171	0xbd1a1c89	-0.03762487
172	0xbd0e394c	-0.03472261
173	0x3ce2f982	0.027706865
174	0x3d1bf855	0.038078625
175	0x3d5b9aac	0.053614303
176	0xbaa96032	-0.0012922345
177	0x3c6d812d	0.01449613
178	0x3d04e99f	0.03244936
179	0x3d159068	0.03651467
180	0xbce512c1	-0.027963044
181	0x3cf44459	0.029817747
182	0x3d4efc86	0.050533794
183	0x3c27a585	0.010232334
184	0x3c9bee88	0.019034639
185	0xbdaf34d7	-0.08555
186	0xbc0c9cb0	-0.008582279
187	0xbe253d9f	-0.16136788
188	0x3c965c69	0.018354611
189	0x3d3343ee	0.043765955
190	0xbe63344a	-0.22187915
191	0xbd34db29	-0.04415432
192	0x3d09b6ea	0.033621706
193	0xbd6ba274	-0.057527974
194	0xbdfb77c4	-0.12278703
195	0x3cc27226	0.02373607
196	0x3d9c2c1f	0.07625603
197	0x3c8abad3	0.016934788
198	0x3ca168ae	0.019703235
199	0x3c99b869	0.018764691
200	0x3d7ba2ac	0.061434433
201	0x3cb7c1bd	0.022431249
202	0xbde9f0b1	-0.11422861
203	0x3d1836cb	0.03716163
204	0xbc193be4	-0.009352658
205	0x3cf2e5fa	0.029650677
206	0x3cd9ed44	0.026602395
207	0xbe347247	-0.17621718
208	0xbd2f29f7	-0.04276463
209	0x3d2096cd	0.039206315
210	0xbdf40778	-0.11915487
211	0xbd9f4e03	-0.077785514
212	0x3bc3fc58	0.0059810095
213	0x3cb48c7b	0.022039643
214	0xbcd7e871	-0.026355954
215	0x3d238f90	0.039931834
216	0xbc7e31ae	-0.015514774
217	0x3c791c08	0.015204437
218	0x3cbce0a4	0.023056336
219	0x3c9e8cfe	0.01935434
220	0x3c4ce4f9	0.012505763
221	0x3c96ed82	0.0184238
222	0xbd2342dd	-0.039858688
223	0xbd69e7d4	-0.057105854
224	0xbd0a3dc8	-0.033750325
225	0xbded3c3b	-0.11583754
226	0x3d8803f8	0.06641382
227	0x3cfb28b4	0.030659057
228	0xbb11cf13	-0.002224867
229	0x3c552ef3	0.013011682
230	0xbe12819e	-0.14307258
231	0x3d2e7210	0.042589247
232	0xbbbdca6e	-0.0057919538
233	0x3d53f68b	0.051748794
234	0x3c86801a	0.016418505
235	0xbe6b7f8d	-0.22997876
236	0x3d3c7410	0.046009123
237	0xbebed5b6	-0.37272424
238	0x3c38a85e	0.011270611
239	0x3d9bc267	0.07605439
240	0x3d25bc0b	0.040462535
241	0x3ce1b554	0.027552284
242	0x3d7f4f8f	0.062331732
243	0x3daa3722	0.08311297
244	0xbc1ed246	-0.009693688
245	0x3b08c964	0.0020871991
246	0x3d773e32	0.06036205
247	0x3d92b146	0.071627185
248	0xbd5b00bb	-0.053467494
249	0xbc9e6cfc	-0.019339077
250	0x3d4991da	0.04921136
251	0xbe0084d0	-0.12550664
252	0xbcb8c9d2	-0.022557173
253	0x3d275d6f	0.04086059
254	0x3cab9796	0.020946305
255	0x3cf3deca	0.02976932

lstm.weight_hr_l0 f4 [2, 1000]
0	0x3dd4a089	0.10382182
1	0xbe0cf9e0	-0.13767195
2	0xbdbb0af8	-0.091329515
3	0x3df38c40	0.11891985
4	0xbe12d42f	-0.14338754
5	0xbde2a482	-0.110665336
6	0xbe233d43	-0.15941338
7	0x3dd21363	0.10257604
8	0xbe15043e	-0.145524
9	0x3dd7c135	0.10534898
10	0xbe11c92b	-0.14236896
11	0xbe080c28	-0.13285887
12	0xbddcee47	-0.10787635
13	0xbe077ffe	-0.13232419
14	0x3e1e879b	0.15481417
15	0xbdecffcd	-0.115722276
16	0xbdae1049	-0.084992
17	0x3dd870d5	0.10568396
18	0xbddc1c02	-0.107475296
19	0xbdce1fd9	-0.10064668
20	0x3e8628e2	0.26203066
21	0xbe12c43c	-0.1433267
22	0xbb9bcec7	-0.0047548744
23	0x3db31606	0.08744435
24	0xbdfba934	-0.12288132
25	0x3c9bd958	0.019024536
26	0x3ac7eea0	0.0015253611
27	0x3df860a2	0.12127806
28	0xbde7d69c	-0.1132023
29	0x3e340ff6	0.17584214
30	0x3dde0d2e	0.108423576
31	0x3e43bc48	0.19114792
32	0x3e269223	0.16266684
33	0xbe02c168	-0.12769091
34	0x3e07b118	0.1325115
35	0xbae2cfbe	-0.0017304344
36	0xbda32637	-0.07966273
37	0xbde066cc	-0.10957107
38	0xbdd7314b	-0.10507449
39	0x3ddb69f3	0.107135676
40	0x3dbc9207	0.0920754
41	0x3e16e507	0.14735804
42	0x3de1f3bc	0.11032817
43	0x3dcbec5c	0.09957191
44	0xbdc54d3f	-0.09633874
45	0x3b2dd1fe	0.002652287
46	0xbdf32128	-0.118715584
47	0x3dce0005	0.100585975
48	0x3dcac7c1	0.09901381
49	0xbe01be75	-0.1267031
50	0x3da53e47	0.08068519
51	0xbc45d64c	-0.012075018
52	0xbdc87ccf	-0.0978943
53	0x3e1b7ae4	0.15183598
54	0x3b96bf0b	0.004600411
55	0x3e0a4c42	0.13505653
56	0x3e057774	0.13033849
57	0xbc686b17	-0.014185688
58	0x3e192a2c	0.14957494
59	0xbe09b8df	-0.13449429
60	0x3e802b70	0.2503314
61	0x3dbb47f4	0.09144583
62	0x3e106d45	0.14104183
63	0x3df4590f	0.11931049
64	0x3df2b8c2	0.11851646
65	0xbe04bc6d	-0.12962504
66	0x3ef85e58	0.4850948
67	0xbdd5618b	-0.104189955
68	0xbda5f3ca	-0.0810314
69	0x3dbca538	0.092112005
70	0x3dd15b7e	0.10222529
71	0xbdf891dd	-0.12137196
72	0xbdd51979	-0.10405249
73	0xbdd3c773	-0.10340776
74	0xbe529ed1	-0.20568396
75	0xbde05c09	-0.10955054
76	0xbdceaf0d	-0.10091982
77	0xbdda3e53	-0.10656419
78	0xbd2ebc48	-0.042660028
79	0xbe3b9e93	-0.1832221
80	0x3e03abd2	0.12858513
81	0x3e0ef9dd	0.13962503
82	0xbdd6e6b3	-0.10493221
83	0x3deb94fb	0.11503025
84	0xbcac3755	-0.021022478
85	0xbcd38a74	-0.025822856
86	0x3e0b9f20	0.1363492
87	0x3a1d29b4	0.0005995289
88	0x3df87238	0.121311605
89	0xbdda5318	-0.1066038
90	0xbdcefe4e	-0.101070985
91	0x3dc33788	0.09532076
92	0x3de8c427	0.11365538
93	0xbdf98df6	-0.1218528
94	0xbe097122	-0.13422063
95	0xbded8fb7	-0.11599677
96	0xbe2ab5b8	-0.16670883
97	0x3de56b75	0.112021364
98	0x3e10169b	0.14071123
99	0x3dcabb85	0.09899048
100	0xbdec21dc	-0.11529896
101	0xbe039861	-0.12851097
102	0x3e1378ba	0.14401522
103	0x3e4c521e	0.199532
104	0xbdd6ffe7	-0.10498028
105	0xbdf47b6e	-0.11937605
106	0xbd9402b7	-0.0722708
107	0xbc28d8d8	-0.010305606
108	0x3dbaf3c7	0.09128528
109	0x3deec115	0.11657921
110	0xbdb9b219	-0.090671726
111	0x3df8385d	0.121201254
112	0xbe125e32	-0.14293745
113	0x3de70d0c	0.11281785
114	0x3e0e0a21	0.13871051
115	0xbe0c397e	-0.13693807
116	0x3dc904a5	0.09815339
117	0x3bfa3daa	0.0076367455
118	0xbded5e48	-0.11590248
119	0x3e1876ed	0.14889117
120	0x3dfff5d8	0.12498063
121	0x3dc89cc3	0.09795525
122	0xbdf6f65f	-0.1205871
123	0xbe1dd0e1	-0.15411712
124	0x3e03fb48	0.12888825
125	0x3dbc321c	0.09189245
126	0xbe065b41	-0.13120748
127	0x3ca65fcb	0.02030935
128	0x3dec7735	0.115461744
129	0x3df24a4c	0.11830577
130	0x3e1ea7f3	0.15493755
131	0xbe104c86	-0.14091691
132	0xbe0121fe	-0.12610623
133	0xbe03d2fd	-0.12873454
134	0x3df6215a	0.1201808
135	0xbe1c8a9a	-0.15287247
136	0xbdeaaef0	-0.11459148
137	0xbd9ffe3e	-0.07812165
138	0x3dae19eb	0.08501037
139	0x3de241d4	0.11047712
140	0x3e0b1e23	0.13585715
141	0xbe0115d9	-0.1260599
142	0x3d8c9590	0.06864464
143	0x3d88e765	0.0668476
144	0x3e064eaf	0.13115953
145	0xbdcc0458	-0.09961766
146	0xbe194358	-0.14967096
147	0x3c720cad	0.01477353
148	0x3e0b1214	0.13581115
149	0xbe00ac63	-0.1256576
150	0xbd8baebc	-0.06820437
151	0x3c05c2f3	0.008164155
152	0x3dbc838b	0.09204777
153	0x3dd0e613	0.10200133
154	0xbdfddd23	-0.12395694
155	0x3de82a68	0.11336213
156	0x3dffda99	0.12492866
157	0xbe1f9d76	-0.1558741
158	0xbdebd714	-0.11515632
159	0x3e2b1866	0.16708526
160	0x3e55eb87	0.20890628
161	0xbe11c415	-0.14234956
162	0xbe0fc43c	-0.14039701
163	0x3b1cf02e	0.002394687
164	0xbda2d249	-0.07950265
165	0x3e0263bd	0.1273336
166	0x3dfefa98	0.12450141
167	0xbe151a61	-0.14560844
168	0xbddf0f35	-0.108915724
169	0xbe1228c4	-0.14273363
170	0xbe82acac	-0.25522363
171	0xbdedc609	-0.11610038
172	0x3e1dbb9d	0.154036
173	0x3df2cdd4	0.11855665
174	0x3e2a6b62	0.16642526
175	0xbdf301c9	-0.11865575
176	0x3e10623d	0.14099975
177	0x3db0c544	0.086313754
178	0x3e3dfcc5	0.18553455
179	0x3e0a4ebf	0.13506602
180	0xbc256815	-0.010095616
181	0x3e02fa48	0.12790787
182	0x3dd1ef8e	0.102507696
183	0x3db73951	0.08946479
184	0xbdd8fd34	-0.1059517
185	0xbe68b5ab	-0.22725551
186	0x3e0f9c95	0.14024575
187	0xbe1aeccb	-0.15129392
188	0x3e0b4f3b	0.13604443
189	0xbe091a1d	-0.13388868
190	0xbdf99c05	-0.121879615
191	0xbc1cf626	-0.009580171
192	0xbe082669	-0.13295902
193	0x3e1500e3	0.1455112
194	0x3e16f716	0.14742693
195	0xbe08e55b	-0.13368742
196	0x3dce74b6	0.100808546
197	0x3e0346fb	0.12820046
198	0xbe01b3d6	-0.12666258
199	0xbe00e82e	-0.1258857
200	0x3e1758d2	0.14779976
201	0xbe1668b6	-0.14688382
202	0x3da36be6	0.07979564
203	0xbe0b7003	-0.13616948
204	0xbdab42cf	-0.08362352
205	0x3e12930f	0.14313911
206	0x3dedb777	0.11607259
207	0xbe08cbd9	-0.13359012
208	0xbdb1be2d	-0.08678851
209	0x3de5e5c5	0.11225466
210	0xbdb7cf44	-0.0897508
211	0x3e3cd8ca	0.18442073
212	0xbd9cd896	-0.07658498
213	0x3de54d4d	0.111963846
214	0x3e116396	0.14198145
215	0x3dcc8a81	0.09987355
216	0xbe19e67c	-0.15029329
217	0xbdee09a3	-0.11622932
218	0x3e1aba81	0.15110208
219	0xbda6a673	-0.081372164
220	0xbdf214a6	-0.118203446
221	0x3e05da1f	0.13071488
222	0xba962455	-0.001145492
223	0xbe10eef4	-0.14153653
224	0x3dcaf86b	0.09910663
225	0x3e4ca541	0.19984914
226	0xbe24d464	-0.16096646
227	0xbda51ad4	-0.08061758
228	0x3c0759ad	0.0082611265
229	0x3de30699	0.11085243
230	0xbdb26e39	-0.087124296
231	0xbdbfc190	-0.09363091
232	0xbe179afe	-0.14805219
233	0x3e024451	0.12721373
234	0xbde39494	-0.111123234
235	0x3de911c6	0.11380343
236	0xbe083ae0	-0.13303709
237	0x3e18520d	0.1487505
238	0x3df384e0	0.11890578
239	0x3dd41d10	0.10357106
240	0xbe28d195	-0.16486199
241	0xbdc622c7	-0.09674602
242	0xbdeb95ee	-0.11503206
243	0x3df47140	0.11935663
244	0x3df0130b	0.11722382
245	0x3e2074a6	0.15669498
246	0x3de11776	0.10990803
247	0x3dede7f0	0.11616504
248	0xbd9beddd	-0.07613728
249	0x3ea93ed9	0.3305576
250	0xbe00d290	-0.12580323
251	0x3dfd6ee7	0.123746686
252	0xbddfc57a	-0.109263375
253	0xbdb0ca5b	-0.08632346
254	0xbdfa41b5	-0.12219564
255	0x3dc0cf24	0.09414509

exp_avg f4 [4000, 2]
0	0xbd92b293	-0.071629666
1	0xbd56b6a1	-0.052420262
2	0xbd1ad30c	-0.037798926
3	0xbca3e660	-0.020007312
4	0xbd7eb75a	-0.062186576
5	0xbd3c6563	-0.045995127
6	0xbc52f6ff	-0.012876271
7	0xbc06812f	-0.008209511
8	0xbd5b4188	-0.053529292
9	0xbd0c5f46	-0.034270547
10	0xbc52316c	-0.012829166
11	0xbc0ff6ed	-0.008786899
12	0xbd39ea08	-0.045389205
13	0xbd19bf16	-0.03753575
14	0xbd40f3d7	-0.047107544
15	0xbd088d99	-0.033338163
16	0xbca93570	-0.020655364
17	0xbc5a41aa	-0.01332132
18	0xbc88e6cf	-0.01671162
19	0xbc531cf3	-0.01288532
20	0xbcaf6fd3	-0.021415627
21	0xbc6585c9	-0.014008948
22	0xbc6637ce	-0.014051391
23	0xbc316079	-0.0108262235
24	0xbc4c2726	-0.012460506
25	0xbbbc0a56	-0.005738537
26	0xbce091da	-0.027413297
27	0xbc3f5240	-0.011677325
28	0xbd0a902e	-0.033828907
29	0xbc97aaf8	-0.018514141
30	0xbc1392d3	-0.009007174
31	0xbbe904a5	-0.0071111494
32	0x3c676319	0.014122748
33	0x3c809103	0.015694147
34	0x3c40580d	0.011739743
35	0x3c75a5f0	0.014993176
36	0xbc124f8c	-0.008930098
37	0xbbaf5a07	-0.0053513083
38	0xbd92da43	-0.07170536
39	0xbd601252	-0.05470497
40	0x3c21cc7f	0.009875416
41	0x3ca372b9	0.019952165
42	0xbce97523	-0.028498238
43	0xbca99f85	-0.020705948
44	0xba27c3b2	-0.00063997053
45	0xba1052bf	-0.0005505494
46	0xbda63375	-0.081152834
47	0xbd807b6e	-0.06273542
48	0xbcaae8b0	-0.020862907
49	0xbc77e027	-0.015129126
50	0xbaeacb56	-0.0017913382
51	0xbae23289	-0.0017257492
52	0xba6f2b47	-0.00091235753
53	0xba44db55	-0.00075094897
54	0xbd58b102	-0.052903183
55	0xbd0955fb	-0.033529263
56	0xbc1679d2	-0.009184318
57	0xbbc03884	-0.005866112
58	0xbcaf5099	-0.021400737
59	0xbc2a7f78	-0.0104063675
60	0xbc94b820	-0.018154204
61	0xbc529d93	-0.012854951
62	0xbdfab11c	-0.12240812
63	0xbdbbc649	-0.09168679
64	0xbd816a4b	-0.06319102
65	0xbd4eae6e	-0.050459318
66	0x3c56848d	0.013093126
67	0x3c720a35	0.014772941
68	0xbd8a6e44	-0.06759313
69	0xbd325e92	-0.04354722
70	0x3a38aa2a	0.00070443994
71	0x3a16b13e	0.0005748457
72	0xbd15b359	-0.036547992
73	0xbcd18a84	-0.025578745
74	0xbc8b5fe1	-0.017013492
75	0xbc51a860	-0.012796491
76	0x3b3770e2	0.0027990867
77	0x3bca9a9b	0.006182981
78	0xbd9c3681	-0.07627583
79	0xbd609eed	-0.054839063
80	0xbd23c488	-0.03998235
81	0xbcd9640d	-0.026536966
82	0xbd8a7e64	-0.06762388
83	0xbd596a62	-0.05307997
84	0xbd622742	-0.05521322
85	0xbd14e4ef	-0.03635114
86	0xbbc0c47b	-0.0058827973
87	0xbba1a678	-0.0049331747
88	0x3b16d916	0.0023017577
89	0x3ba52f88	0.0050410666
90	0xb9937ffb	-0.00028133378
91	0xb969b1a4	-0.00022286788
92	0xbc25b9dd	-0.010115114
93	0xbbf768ee	-0.0075503504
94	0xbbe209d6	-0.006898145
95	0xbbae773d	-0.005324273
96	0xbc721054	-0.014774401
97	0xbc365fe2	-0.011131259
98	0xbd1f33cb	-0.038867753
99	0xbc70f4d4	-0.014706809
100	0xbc6982fe	-0.014252422
101	0xbc24f07c	-0.010067102
102	0x3884b606	6.328155e-05
103	0x38cba404	9.7103446e-05
104	0xbcd79b38	-0.026319131
105	0xbc95189b	-0.01820021
106	0xbd91ec67	-0.07125168
107	0xbd3bd264	-0.04585494
108	0xb9b03731	-0.00033610457
109	0xb9934945	-0.00028092615
110	0xbc458ab8	-0.012056999
111	0xbc09b191	-0.008404152
112	0xbc5ce8c5	-0.013483231
113	0xbbc98b69	-0.006150652
114	0xb9bb6ff7	-0.0003575084
115	0xb9ce5744	-0.000393564
116	0xbc5e9c50	-0.0135870725
117	0xbc81fd0f	-0.015867738
118	0xbc472b3e	-0.012156306
119	0xbbea41c8	-0.007148955
120	0xbe111eab	-0.14171855
121	0xbdd50be3	-0.10402658
122	0xbbbeabe0	-0.005818829
123	0xbb9dc63d	-0.0048148916
124	0xbca21a68	-0.019787982
125	0xbc4a2507	-0.01233793
126	0xbd2b8518	-0.041874975
127	0xbcd2bd98	-0.025725171
128	0xbc78641f	-0.0151605895
129	0xbc3b7948	-0.01144249
130	0xbd7ddb7a	-0.061976887
131	0xbd5fdc28	-0.054653317
132	0xb82e0c88	-4.1496503e-05
133	0xb91c7095	-0.0001491926
134	0xbd298a05	-0.04139139
135	0xbcf8d135	-0.030373195
136	0xbcbf9495	-0.02338628
137	0xbc95d064	-0.018287845
138	0xbdd08f6c	-0.101836056
139	0xbd9e14de	-0.07718824
140	0xbc3b0e06	-0.011416918
141	0xbc011cd2	-0.007880406
142	0xbcffe68a	-0.03123786
143	0xbcb1763f	-0.02166283
144	0xbba9ef2c	-0.005185982
145	0xbb837a19	-0.004012358
146	0xbd6ba75e	-0.05753266
147	0xbd2d4a55	-0.042307217
148	0xbda47d59	-0.08031721
149	0xbd8133ab	-0.06308683
150	0xbd90b3b4	-0.07065526
151	0xbd5160ce	-0.05111771
152	0xbd36fea5	-0.04467644
153	0xbcedc1e2	-0.029023115
154	0xbc16397b	-0.009168978
155	0xbbf58ecb	-0.007493829
156	0x3c95585f	0.018230615
157	0x3c8b259e	0.01698571
158	0xbdba91a7	-0.09109812
159	0xbd8173f0	-0.063209414
160	0xbd2725ed	-0.040807653
161	0xbce5eeb8	-0.028067932
162	0xbca5165d	-0.020152265
163	0xbc5108db	-0.012758459
164	0xbc7c9f6e	-0.01541887
165	0xbc40b394	-0.011761565
166	0xbd8a34dd	-0.06748364
167	0xbd29d195	-0.04145964
168	0x3c87818e	0.016541269
169	0x3c7176a7	0.014737762
170	0xbb0dd972	-0.00216445
171	0xbb08d3b8	-0.0020878147
172	0xbd88f008	-0.06686407
173	0xbd52c6e5	-0.05145921
174	0xb98eb9a5	-0.00027222667
175	0xb966cd52	-0.00022010997
176	0xbc83fdae	-0.016112175
177	0xbc22949a	-0.009923125
178	0xbc96c574	-0.0184047
179	0xbc56f4c4	-0.01311988
180	0xbc48ef9d	-0.0122641595
181	0xbc1e6fdb	-0.009670223
182	0x3ca0d6ca	0.01963367
183	0x3c9aa243	0.0188762
184	0xbcdf55a9	-0.027262526
185	0xbc9d6a99	-0.019215869
186	0xbc0ed659	-0.008718097
187	0xbbda1544	-0.006655367
188	0xbd20be7c	-0.03924416
189	0xbcacaeff	-0.021079538
190	0xbc1042ef	-0.008805021
191	0xbbe32f74	-0.006933147
192	0xbd30de37	-0.04318067
193	0xbcf3047c	-0.029665224
194	0xbc4aa289	-0.012367853
195	0xbbf91afe	-0.0076020947
196	0xbc93f857	-0.018062754
197	0xbc354e83	-0.011066082
198	0xbd15e384	-0.03659393
199	0xbcb44c8b	-0.022009155
200	0xbd726654	-0.05917962
201	0xbd1b0dce	-0.037854962
202	0xbd065b29	-0.03280178
203	0xbceb6b38	-0.02873765
204	0xbc29d92f	-0.010366722
205	0xbbd6891c	-0.0065471064
206	0xbd78eab6	-0.060770713
207	0xbd1ce570	-0.038304746
208	0xbc032ce1	-0.008006305
209	0xbbca1c71	-0.0061679413
210	0xbca6ab47	-0.020345343
211	0xbc6ad667	-0.014333344
212	0xbc91440e	-0.017732646
213	0xbc5a65fd	-0.01332998
214	0xbb8e03b6	-0.0043339385
215	0xbb390c00	-0.0028235912
216	0xbc343e4a	-0.011001179
217	0xbc0e166a	-0.008672336
218	0xbd17f80d	-0.037101794
219	0xbd007f4e	-0.031371407
220	0x3b413195	0.0029479016
221	0x3bd51bd9	0.006503564
222	0xbdad1570	-0.084513545
223	0xbd80d5d6	-0.06290786
224	0xbd43de47	-0.047819402
225	0xbd1040e5	-0.03521814
226	0xbc3e219d	-0.011604694
227	0xbbbbcbe2	-0.005731092
228	0xbca36d65	-0.019949624
229	0xbc63798f	-0.013883962
230	0xbc8954f5	-0.016764143
231	0xbc3c16a1	-0.0114800045
232	0xbd553c01	-0.052059177
233	0xbd218d56	-0.03944143
234	0x3a8f49e6	0.0010932058
235	0x3a7ec3c5	0.0009718503
236	0xbdace36d	-0.084418155
237	0xbd76351d	-0.060109247
238	0xbd9db902	-0.07701303
239	0xbd47a6f4	-0.048743203
240	0xbc3f2492	-0.011666434
241	0xbc0410fc	-0.00806069
242	0xbd789d27	-0.060696747
243	0xbd2f62c5	-0.042818803
244	0xbc8b154d	-0.01697793
245	0xbc3822c0	-0.011238754
246	0xbc78b91e	-0.015180854
247	0xbc424fd8	-0.011859857
248	0xbc8a1062	-0.016853515
249	0xbc45c05d	-0.012069789
250	0xbc867960	-0.016415298
251	0xbc4c535c	-0.012471046
252	0xbc7e46ab	-0.015519778
253	0xbc2a9fe0	-0.010414094
254	0xba623fc0	-0.00086307153
255	0xba395e74	-0.00070712646

exp_avg_sq f4 [4000, 2]
0	0x3e75bde6	0.23998222
1	0x3e6248ae	0.22098038
2	0x3e56fd5e	0.2099509
3	0x3e5400d3	0.2070344
4	0x3e1c1ba4	0.15244919
5	0x3e11e40a	0.14247146
6	0x3f743e4d	0.95407563
7	0x3f5ef482	0.8709184
8	0x3e825243	0.25453386
9	0x3e76ab4a	0.24088779
10	0x3f833061	1.0249139
11	0x3f6f73c0	0.93535995
12	0x3f35e0a0	0.71045876
13	0x3f255fd4	0.6459935
14	0x3e210379	0.15723981
15	0x3e13e588	0.14443028
16	0x3f53ceaf	0.8273725
17	0x3f41d1cf	0.7571077
18	0x3e646194	0.22302848
19	0x3e4fb695	0.20284493
20	0x3fcd412e	1.6035516
21	0x3fbaca5c	1.4593005
22	0x3ee0e7f0	0.43926954
23	0x3ecaf644	0.3964101
24	0x3f89227c	1.0713649
25	0x3f7aa48d	0.97907335
26	0x3e735665	0.23763426
27	0x3e621a74	0.22080404
28	0x3ec54a99	0.38533476
29	0x3ebbaa78	0.36653495
30	0x3e7bf77e	0.2460613
31	0x3e62fa22	0.2216573
32	0x3e3d5d3f	0.18492602
33	0x3e31c4f5	0.1736029
34	0x3ec4335a	0.38320428
35	0x3ebae2ef	0.36501262
36	0x3db1b981	0.0867796
37	0x3da20d48	0.079126894
38	0x3e8c7b76	0.27437943
39	0x3e7f4567	0.24928819
40	0x3ef485e9	0.47758415
41	0x3f07ed3d	0.5309637
42	0x40397aa6	2.8981109
43	0x4029adc4	2.6512308
44	0x3a60d2b1	0.00085763173
45	0x3a4d1ccb	0.000782442
46	0x3e2fc2c5	0.17164142
47	0x3e2077bd	0.15670677
48	0x409f4c20	4.9780426
49	0x40911ff4	4.5351505
50	0x3b0c005a	0.0021362514
51	0x3b00be4e	0.001964468
52	0x3be9e992	0.0071384395
53	0x3bd280ab	0.00642403
54	0x3f12e717	0.57383865
55	0x3f0a29ce	0.5397004
56	0x3f09b101	0.5378571
57	0x3efc78bd	0.49310866
58	0x4002660d	2.0374787
59	0x3fee39df	1.8611411
60	0x3fbcb2f1	1.4742109
61	0x3facb9ce	1.3494203
62	0x3f1a24a1	0.6021214
63	0x3f0f759c	0.5603883
64	0x3e308a5e	0.17240283
65	0x3e1cc1a6	0.15308246
66	0x3e2e0efe	0.16997907
67	0x3e2f1ea5	0.17101534
68	0x3e92c485	0.28665558
69	0x3e8f8e21	0.28038123
70	0x3c726bee	0.01479624
71	0x3c5c5d9d	0.0134500535
72	0x3dba32dd	0.09091733
73	0x3db3badf	0.08775877
74	0x3f95cba5	1.1702772
75	0x3f88a142	1.0674212
76	0x3fcd6253	1.6045631
77	0x3fbc50cf	1.4712161
78	0x3e72e63a	0.23720637
79	0x3e64927b	0.22321503
80	0x3d8b8c88	0.068139136
81	0x3d8fd2d8	0.07022637
82	0x3e373520	0.1789136
83	0x3e21a20a	0.15784469
84	0x3e44f658	0.19234598
85	0x3e383cc6	0.17991933
86	0x3d01d300	0.031695366
87	0x3ced4097	0.028961463
88	0x401d064e	2.4535098
89	0x400fc642	2.2464757
90	0x3c0194ca	0.007909009
91	0x3beb9ac3	0.00719008
92	0x3c0b72c9	0.008511254
93	0x3c044bbb	0.008074696
94	0x3e08b40e	0.13349935
95	0x3dfc2881	0.12312413
96	0x3ea85e75	0.32884565
97	0x3e98e817	0.2986457
98	0x3e35bb34	0.17747194
99	0x3e37b3ae	0.17939636
100	0x3e580be1	0.21098281
101	0x3e48c168	0.19605029
102	0x3c03e13b	0.008049305
103	0x3bf09a6d	0.0073426277
104	0x3e328054	0.17431766
105	0x3e2110b7	0.15729032
106	0x3eaae5ae	0.33378357
107	0x3ea97b99	0.3310211
108	0x391c76f2	0.0001492163
109	0x390d0c02	0.00013451281
110	0x3e56e9f4	0.20987684
111	0x3e3ff243	0.1874476
112	0x3f0ebf96	0.55761087
113	0x3f043244	0.516392
114	0x3977fb78	0.00023649435
115	0x3964442c	0.0002176917
116	0x3e45e7af	0.19326662
117	0x3e36f101	0.17865373
118	0x4056f541	3.358719
119	0x4043959d	3.0560067
120	0x3f5d61e8	0.8647752
121	0x3f4a8c8a	0.79120696
122	0x3cdc1f43	0.026870375
123	0x3ccc70aa	0.024956066
124	0x40ab2ec9	5.349461
125	0x409bff27	4.8748965
126	0x3e3ae140	0.18249989
127	0x3e3c50f5	0.18390258
128	0x3cab6d54	0.020926155
129	0x3c9e6636	0.019335847
130	0x3e25bf50	0.16186261
131	0x3e1a57fd	0.15072627
132	0x3aaf0a12	0.0013354442
133	0x3a99c244	0.0011730869
134	0x3d15ac5c	0.036541328
135	0x3d12fae3	0.035883795
136	0x3eeb393c	0.45942104
137	0x3ed553b0	0.4166541
138	0x3e208304	0.15674978
139	0x3e17f43c	0.14839262
140	0x3f3b0bf8	0.7306514
141	0x3f2bff1c	0.6718614
142	0x3f1d20fd	0.6137846
143	0x3f0e2900	0.5553131
144	0x3d59fde5	0.05322065
145	0x3d45e2d6	0.04831203
146	0x3e268e1a	0.16265145
147	0x3e177daa	0.14794031
148	0x3e8f3f40	0.27977943
149	0x3e80ba10	0.25141954
150	0x3dce177a	0.100630715
151	0x3dc529be	0.09627102
152	0x3e1e6c91	0.15471102
153	0x3e1bdee7	0.15221749
154	0x3e0ea899	0.13931502
155	0x3e007478	0.1254443
156	0x3c256f38	0.010097317
157	0x3c4bb936	0.012434294
158	0x3f0d596f	0.5521459
159	0x3f0293a5	0.5100654
160	0x3ffaaf63	1.9584774
161	0x3fe7d9bd	1.8113323
162	0x3ea544a5	0.32278934
163	0x3e9a6b87	0.30160162
164	0x3f86e44d	1.0538422
165	0x3f75381b	0.95788735
166	0x3e4efc08	0.2021333
167	0x3e475227	0.19464932
168	0x3c581dd0	0.013190702
169	0x3c43e0eb	0.01195548
170	0x3a04696e	0.00050511106
171	0x39f05b0e	0.00045844208
172	0x3e7925b2	0.24330786
173	0x3e61834b	0.2202274
174	0x3cb8a022	0.022537295
175	0x3ca60f88	0.020271078
176	0x3e12ae7f	0.14324377
177	0x3e05bb67	0.1305977
178	0x3eb34172	0.35010868
179	0x3ea33a8b	0.31880602
180	0x3e9f6813	0.3113409
181	0x3e90b943	0.28266343
182	0x3f117190	0.5681391
183	0x3f0532aa	0.5203043
184	0x4004e90e	2.0767245
185	0x3ff17217	1.8862942
186	0x3e87b1ad	0.26502743
187	0x3e73e883	0.23819165
188	0x3eb2b0a0	0.3490038
189	0x3eb63aa6	0.3559162
190	0x3dceff5a	0.10107298
191	0x3db937e8	0.090438664
192	0x3fd301f6	1.6484973
193	0x3fc2600d	1.5185562
194	0x3f551ec7	0.8325009
195	0x3f4311a1	0.76198775
196	0x402d99ee	2.7125201
197	0x401debc4	2.467515
198	0x3df932f6	0.12167923
199	0x3def3281	0.11679555
200	0x3e0db845	0.13839824
201	0x3e101fb3	0.14074592
202	0x3d95e6fd	0.07319448
203	0x3d8a8b43	0.06764843
204	0x3f17dace	0.59318244
205	0x3f0be208	0.5464177
206	0x3eba43b4	0.36379778
207	0x3eafd0e0	0.34339046
208	0x3e36ab0a	0.17838684
209	0x3e26b543	0.16280083
210	0x3f8cfe18	1.1015043
211	0x3f80c4fb	1.0060114
212	0x3ed29869	0.41131905
213	0x3ec0e8c1	0.37677577
214	0x3ee5118a	0.44739944
215	0x3ed1c7a3	0.40972623
216	0x3e65d1b1	0.22443272
217	0x3e50dff0	0.20397925
218	0x3d986259	0.07440633
219	0x3d8a7e83	0.067624114
220	0x3f1e0116	0.61720407
221	0x3f122412	0.5708629
222	0x3e39da7e	0.18149754
223	0x3e303fda	0.17211857
224	0x3ebe8c91	0.3721662
225	0x3ead960f	0.33903548
226	0x3ef815a8	0.48454022
227	0x3ee47efd	0.44628134
228	0x405752b3	3.3644226
229	0x40445366	3.0675902
230	0x4011bb6c	2.2770643
231	0x40045bb7	2.0680978
232	0x3f1e2404	0.61773705
233	0x3f0faed8	0.56126165
234	0x3abb86bd	0.0014307123
235	0x3aa8a44b	0.0012866346
236	0x3e282bef	0.1642301
237	0x3e263fa3	0.16235213
238	0x3e8920ea	0.26782924
239	0x3e89c5ad	0.26908627
240	0x3e8d931b	0.27651295
241	0x3e8225ee	0.25419563
242	0x3e08ed0b	0.13371675
243	0x3e017ca4	0.12645203
244	0x3f0dceaa	0.5539347
245	0x3f014789	0.5049978
246	0x400873b0	2.132061
247	0x3ff828d2	1.9387457
248	0x4011d558	2.2786465
249	0x40048b7e	2.071014
250	0x3fb1b27c	1.3882594
251	0x3fa2c22c	1.2715507
252	0x4027aef8	2.6200542
253	0x40189b27	2.3844697
254	0x3c05e8ff	0.008173226
255	0x3bf0cbab	0.007348498
