lightning_logs/version_6/checkpoints/epoch=0-step=345.ckpt (torch, 9473 bytes, 15 tensors)

lstm.weight_ih_l0 f4 [40, 2]
000000 cc dc 4a 3e a5 d4 90 be 68 65 89 be bc c9 4c be
       0.1981079 -0.28287235 -0.2683518 -0.1999883
000010 88 41 63 3e 1e 7d 0d 3d d4 7c 3e 3e c7 52 87 3d
       0.22192967 0.03454315 0.18602306 0.066075854
000020 da 50 1e 3d c5 ac 9a 3e ed bf 48 be 59 4b f5 bd
       0.038651325 0.30209938 -0.19604464 -0.11977262
000030 fc ee 80 be 08 4c 89 3e a5 44 d0 bd dd c6 7f be
       -0.2518233 0.2681582 -0.10169343 -0.24978204
000040 b4 68 4e 3e 95 d3 29 be 7b bc 88 3e cd 3e ae 3d
       0.20157129 -0.16584618 0.267063 0.08508072
000050 2d a7 39 be 2f 58 3d be 3b af ab 3d 38 ec 00 bc
       -0.18130179 -0.1849067 0.08383032 -0.007868819
000060 87 15 5d 3e f9 0e 86 be ab 70 01 3e f4 43 8c be
       0.21590243 -0.26183298 0.12640636 -0.27395594
000070 11 11 31 3e 11 eb 8b 3e b9 38 cb bd d4 0c 75 be
       0.17291667 0.2732778 -0.09922928 -0.23930675
000080 68 ee fd 3d d3 fc 11 be eb 76 8e 3e 5f a7 44 3e
       0.12398988 -0.14256601 0.27825102 0.19204472
000090 11 6f 84 be 7a fe ed 3d 8c cd 02 be 90 2e 93 3e
       -0.25865987 0.11620803 -0.12773722 0.28746462
0000a0 9a 4b 79 be cd 0e 53 be 67 21 dd 3d c8 56 93 3d
       -0.24345246 -0.20611115 0.107973866 0.071942866
0000b0 6d f7 10 be c0 b6 06 be e9 9d 76 be 19 84 44 3e
       -0.14156885 -0.13155651 -0.24083675 0.19191016
0000c0 64 8e 79 3d 2d ba 4f bc 3b cf ae bd b6 5e 02 3e
       0.06092681 -0.012678665 -0.0853562 0.12731442
0000d0 e3 7d a1 3e 73 6b a0 be 94 a9 84 be a1 aa 0a 3e
       0.31541356 -0.31331977 -0.25910628 0.13541652
0000e0 70 54 ae bd ed 91 39 be 68 6e 7f 3e 34 17 9d 3e
       -0.08512199 -0.18122073 0.2494446 0.30681765
0000f0 1f 2e 3b be 12 16 96 3d c5 2d 10 3e 1f 21 22 3e
       -0.18279313 0.07328428 0.1407996 0.15832947
000100 12 a6 55 3e a1 75 81 3e d5 dd 5c 3d 28 0d 5d 3e
       0.20864132 0.25285056 0.053922493 0.2158705
000110 3c 29 1e be 82 64 0c 3e 97 52 8a be 8a 96 29 be
       -0.15445417 0.13710216 -0.27016136 -0.16561332
000120 4f df c6 bd ec e4 43 be 13 2b 65 be 1b 65 5d 3d
       -0.097105615 -0.19130296 -0.22379713 0.0540515
000130 06 1d 5f 3d 38 c5 f0 3d 15 14 6b 3e 49 7a 03 3c
       0.05447104 0.117563665 0.2295688 0.0080247605

lstm.weight_hh_l0 f4 [40, 2]
000000 27 8e 8f 3e f0 c3 15 be 8a 25 4c bd 79 19 2a bd
       0.2803814 -0.14625525 -0.049840488 -0.0415282
000010 29 a4 a7 3d 57 0e 8a be 5f d8 20 be 17 5e 33 3e
       0.08185608 -0.26964065 -0.15707539 0.17516361
000020 45 38 70 3e 0d dc 71 3d f8 0d 28 3e 8e 35 00 3d
       0.23458965 0.059047747 0.16411579 0.031301074
000030 c8 18 84 be b4 a8 74 be df 36 12 be 05 92 93 3e
       -0.25800157 -0.2389248 -0.14278744 0.28822342
000040 42 1d dc b9 67 d6 9c be 5d 0a 3c 3e 42 3e eb bd
       -0.0004198347 -0.30632326 0.18363328 -0.11486484
000050 79 12 f7 3d c2 5e 79 3d 25 93 5b bd dc 9e 7f 3e
       0.1206407 0.060881384 -0.053607125 0.24962944
000060 7a 3f 45 be 39 71 90 3e 04 40 a4 3d 35 b3 35 3d
       -0.19262496 0.28211382 0.080200225 0.04436036
000070 a9 2e 59 be f3 a7 d0 3d 73 98 1c 3e 4b b0 4f 3e
       -0.21209206 0.10188284 0.1529253 0.20282094
000080 68 44 85 be e1 8b b2 3b 1b 39 4f 3d fc d7 4b 3e
       -0.26028752 0.005448804 0.05059157 0.1990661
000090 19 0e 7c be 05 55 65 3e 88 0d 6d 3c ad f8 85 3e
       -0.24614753 0.22395714 0.014468558 0.26166287
0000a0 78 67 92 3e 2c 83 8a be 09 bf fa bd 41 5c a1 3e
       0.28594565 -0.270532 -0.12243468 0.31515697
0000b0 6e 6f 44 be 5a c1 d1 bd a4 0b 3c 3e 61 f6 c1 bd
       -0.19183132 -0.10241957 0.18363816 -0.09470821
0000c0 db 60 6d 3d e8 65 81 3e f1 7b 9e bc fb 6e 40 be
       0.057953697 0.2527306 -0.01934621 -0.18792336
0000d0 08 33 6b 3e 9a 2b f2 bd a0 48 7d be 22 25 2f be
       0.22968686 -0.118247226 -0.24734735 -0.17104009
0000e0 b0 5a 0c be 07 66 89 be 71 3e 85 3d c8 98 0b 3d
       -0.1370647 -0.26835653 0.065060504 0.03408125
0000f0 1a b4 16 3c 5e e2 76 be 63 7d e2 bc c4 77 ba bc
       0.009198213 -0.2410979 -0.02764768 -0.022762187
000100 54 db 95 3d 8c 41 61 3e fe f1 f1 3d 4e 15 3c be
       0.07317224 0.2199766 0.118137345 -0.18367502
000110 3b 1c 99 be bd ca 87 3e 3a 1f 71 3d 24 94 cf 3d
       -0.2990435 0.26521865 0.05886767 0.101356775
000120 35 f1 28 3c da 59 20 be ce 3f f9 3d b3 a6 2a be
       0.0103114145 -0.15659276 0.12170373 -0.16665153
000130 fa f2 99 be 35 8b 4c bc b6 2b a3 bc c9 cf 13 3e
       -0.3006819 -0.012484361 -0.019918304 0.14434732

lstm.bias_ih_l0 f4 [40]
000000 79 3f 86 3e 18 d6 8c bd 01 4f df bd 64 b5 04 be
       0.262203 -0.06876773 -0.10903741 -0.1295982
000010 fe ec 7e 3e b0 cd 71 3c 9b 87 5a bd 27 6f f7 3d
       0.24895093 0.014758512 -0.05335198 0.120817475
000020 55 d9 d9 bd 3f 96 8c be d5 2d 5b 3d c0 06 66 3d
       -0.10637156 -0.2745838 0.053510506 0.05615878
000030 59 eb 20 3e 31 3c c9 bc 67 15 8f be d0 6c 99 bd
       0.15714778 -0.024564834 -0.27946016 -0.074914575
000040 3f 85 f7 3d 16 07 46 3e c0 04 32 3e 35 42 1a be
       0.120859616 0.1933864 0.17384624 -0.15064318
000050 71 9c a0 3d 5a 06 66 3e d1 f1 b4 3d 0c 4e 48 3e
       0.07842339 0.2246336 0.08835185 0.19561023
000060 a4 8d 83 be 66 9e 06 be 3b d9 a7 3d 37 a6 81 bd
       -0.25694 -0.13146362 0.0819573 -0.06330531
000070 1b e5 7c 3e 55 aa 41 3d d9 62 81 3e 25 f3 6f 3c
       0.24696772 0.047281582 0.25270727 0.0146453725
000080 1b ac 8d bd 8f ec 69 be 57 61 62 be 1f e0 23 3e
       -0.06917592 -0.22844146 -0.22107445 0.16003464
000090 50 29 f8 3d be 46 4e 3e 6c e7 8a 3d ac b8 4b 3e
       0.12117255 0.20144174 0.067824215 0.19894665

lstm.bias_hh_l0 f4 [40]
000000 5f 3a 76 be e1 60 01 be 90 6b 22 be 37 64 e1 bd
       -0.24045704 -0.12634613 -0.15861344 -0.110054426
000010 48 4a 47 3e 88 48 1b bd a9 91 da 3d 57 0f 71 be
       0.1946193 -0.037910968 0.10672314 -0.23541008
000020 79 ff 22 bd c5 63 ad 3d 06 6b 1e 3d f8 aa 8e be
       -0.03979442 0.08466295 0.038676284 -0.27864814
000030 39 a9 8e bc 20 d4 4a 3e 15 c6 25 3e df 74 81 3e
       -0.017414676 0.19807482 0.16188844 0.25284478
000040 78 42 58 bc 55 e8 e5 bd 1f 08 64 3d 4c 03 8d ba
       -0.013199441 -0.112259544 0.055671807 -0.0010758429
000050 74 cd 41 be df 1c e6 3c a1 ed ef bd 79 5b 01 be
       -0.1892603 0.028089939 -0.11715246 -0.1263255
000060 82 9b c0 bd 03 07 49 be 4d d4 9d 3e a6 bb 5a 3e
       -0.09404661 -0.19631581 0.30826035 0.21360645
000070 35 76 77 3e ad 24 79 3d 81 93 2d 3e 9f e1 7c be
       0.24166186 0.060825992 0.169508 -0.24695443
000080 49 4e 08 3e 5d 7a 60 be 52 59 63 3e 60 84 83 3c
       0.13311113 -0.21921678 0.22202042 0.016054332
000090 8a 31 83 be c7 70 fd 3d cb f8 6d be 14 66 96 bd
       -0.25623733 0.12375026 -0.23239438 -0.073436886

lstm.weight_hr_l0 f4 [2, 10]
000000 6c d6 59 3d fb 5e 59 3e bb 42 8c bd fc b1 29 be
       0.053183004 0.21227638 -0.06848665 -0.16571802
000010 87 b8 53 3a 72 a3 20 be 15 65 22 be 57 e6 8c 3e
       0.0008076508 -0.1568735 -0.15858872 0.27519485
000020 97 db 74 be fa 9b d8 3d cb 7a a6 3d 9d 66 43 3e
       -0.23911892 0.10576625 0.0812889 0.19082113
000030 b9 c8 1c 3e d5 5e da 3d 6e 80 a7 3d 8d dd 84 be
       0.15310945 0.10662619 0.08178793 -0.2595028
000040 c3 a8 45 3e d3 23 07 be 67 43 0d 3e 2a ca 51 be
       0.19302659 -0.1319726 0.13795243 -0.20487276

exp_avg f4 [40, 2]
000000 89 c3 22 3f 87 88 19 3f 72 9d 0a ba 67 17 43 ba
       0.6357961 0.5997395 -0.00052877434 -0.0007442147
000010 7c 4e 5d 3c db 50 99 3c bd 31 45 bb 7e c5 1f ba
       0.013507482 0.018715313 -0.003008946 -0.0006094797
000020 89 0d b4 b8 7f 91 bf b8 f5 b2 ea 36 f0 ae 3a 37
       -8.58559e-05 -9.1346905e-05 6.994577e-06 1.1127195e-05
000030 b3 52 bf b8 aa 2f bb b8 1d 68 81 38 75 58 a1 38
       -9.122994e-05 -8.925733e-05 6.170592e-05 7.693555e-05
000040 aa 7e 12 c4 f2 3c 12 c4 54 45 95 3a 4f 2b d9 3a
       -585.9791 -584.9523 0.0011388459 0.0016568693
000050 00 00 00 00 00 00 00 00 00 00 00 00 00 00 00 00
       0.0 0.0 0.0 0.0
000060 00 00 00 00 00 00 00 00 00 00 00 00 00 00 00 00
       0.0 0.0 0.0 0.0
000070 00 00 00 00 00 00 00 00 00 00 00 00 00 00 00 00
       0.0 0.0 0.0 0.0
000080 00 00 00 00 00 00 00 00 00 00 00 00 00 00 00 00
       0.0 0.0 0.0 0.0
000090 00 00 00 00 00 00 00 00 00 00 00 00 00 00 00 00
       0.0 0.0 0.0 0.0
0000a0 3f dc f5 b1 26 68 36 b2 7b 3a 51 b6 c6 a3 a3 b6
       -7.1554775e-09 -1.0617475e-08 -3.1177467e-06 -4.8768443e-06
0000b0 3b 4a 54 b8 fb 67 98 b8 b3 ad cd 42 06 08 ec 42
       -5.061387e-05 -7.267293e-05 102.83926 118.01567
0000c0 25 2e df c1 1e e4 fd c1 76 6d 56 36 4b 2c 9c 36
       -27.897532 -31.736385 3.19522e-06 4.6543187e-06
0000d0 c1 2b 2f ba f6 be 33 ba f4 9d 82 b8 b6 09 d6 b8
       -0.000668224 -0.00068567635 -6.228304e-05 -0.00010206124
0000e0 93 9c bf 38 b5 95 e7 38 34 5c b5 a9 34 5c b5 a9
       9.136754e-05 0.000110428235 -8.0540094e-14 -8.0540094e-14
0000f0 68 d1 2d 3f a7 d7 21 3f 64 4f 5e b6 a5 cb a8 b6
       0.67897654 0.63219684 -3.312679e-06 -5.0304975e-06
000100 cd d3 b8 38 7c 67 fa 38 86 3e f7 bb 19 2c e9 bb
       8.813255e-05 0.000119402044 -0.007545295 -0.0071158526
000110 ca 5c 87 c4 77 48 84 c4 bf 1a ec 36 c4 d6 3b 37
       -1082.8997 -1058.2645 7.0364617e-06 1.1196073e-05
000120 b3 45 0e b8 76 ea 23 39 5a 74 69 38 64 5f 8f 38
       -3.392035e-05 0.00015632235 5.565989e-05 6.836539e-05
000130 59 ee 38 bf 86 9c 2e bf a0 21 24 3d e0 c6 6a 3d
       -0.7223869 -0.68207586 0.04007113 0.05731857

exp_avg_sq f4 [40, 2]
000000 bb b3 5f 40 d7 c5 44 40 ab b7 f4 36 00 bd 10 37
       3.4953449 3.0745752 7.2931484e-06 8.627074e-06
000010 8d c8 e1 39 50 f4 86 3c 1c 39 b7 38 b8 6c 38 39
       0.00043064766 0.01647392 8.7367574e-05 0.00017588108
000020 46 3a bb 32 4c 71 cd 32 60 d4 7b 30 26 3b c8 30
       2.1796165e-08 2.3916662e-08 9.161507e-10 1.4568726e-09
000030 c8 de 3f 36 79 92 3f 36 1f 45 7b 36 e5 a1 7c 36
       2.8590894e-06 2.8546476e-06 3.7442148e-06 3.7645161e-06
000040 29 1c c0 48 84 83 b3 48 0d eb 6b 37 32 be 33 38
       393441.28 367644.12 1.4061819e-05 4.285406e-05
000050 00 00 00 00 00 00 00 00 00 00 00 00 00 00 00 00
       0.0 0.0 0.0 0.0
000060 00 00 00 00 00 00 00 00 00 00 00 00 00 00 00 00
       0.0 0.0 0.0 0.0
000070 00 00 00 00 00 00 00 00 00 00 00 00 00 00 00 00
       0.0 0.0 0.0 0.0
000080 00 00 00 00 00 00 00 00 00 00 00 00 00 00 00 00
       0.0 0.0 0.0 0.0
000090 00 00 00 00 00 00 00 00 00 00 00 00 00 00 00 00
       0.0 0.0 0.0 0.0
0000a0 6e ca df 2b 88 db df 2b a3 5e b5 31 f5 be b8 31
       1.5901289e-12 1.5906035e-12 5.2785523e-09 5.376814e-09
0000b0 6a cd df 34 8e 20 e8 34 e8 69 49 46 c9 c4 5e 46
       4.1686445e-07 4.3237054e-07 12890.477 14257.196
0000c0 d7 45 8c 43 28 4a de 43 a3 9e 2f 32 fd da 30 32
       280.54562 444.57935 1.02224105e-08 1.02943405e-08
0000d0 c4 f0 8b 38 13 35 8d 38 b6 a8 75 34 7d dc 95 34
       6.6728826e-05 6.73329e-05 2.287878e-07 2.791384e-07
0000e0 64 41 d1 37 a3 6f d1 37 03 7e 16 2b 03 7e 16 2b
       2.4945191e-05 2.4966726e-05 5.346558e-13 5.346558e-13
0000f0 73 15 92 40 b2 82 79 40 25 6d be 31 2f a3 c1 31
       4.5651183 3.898602 5.542136e-09 5.635591e-09
000100 f3 be 35 35 77 4a 3d 35 49 26 62 39 18 ec 14 39
       6.770562e-07 7.051635e-07 0.00021567302 0.00014202332
000110 c0 c3 4e 47 0d 39 47 47 a0 da 80 30 01 27 cc 30
       52931.75 51001.05 9.375363e-10 1.4854039e-09
000120 6d 15 89 37 0b 4e 91 37 03 40 3a 36 fd 57 3b 36
       1.634165e-05 1.7321689e-05 2.775342e-06 2.7916387e-06
000130 81 d4 31 3f a9 88 0d 3f 40 8f af 3b 05 c6 b1 3e
       0.6946488 0.5528665 0.005357653 0.3472139

exp_avg f4 [40, 2]
000000 00 00 00 00 00 00 00 00 00 00 00 00 00 00 00 00
       0.0 0.0 0.0 0.0
000010 00 00 00 00 00 00 00 00 00 00 00 00 00 00 00 00
       0.0 0.0 0.0 0.0
000020 00 00 00 00 00 00 00 00 00 00 00 00 00 00 00 00
       0.0 0.0 0.0 0.0
000030 00 00 00 00 00 00 00 00 00 00 00 00 00 00 00 00
       0.0 0.0 0.0 0.0
000040 00 00 00 00 00 00 00 00 00 00 00 00 00 00 00 00
       0.0 0.0 0.0 0.0
000050 00 00 00 00 00 00 00 00 00 00 00 00 00 00 00 00
       0.0 0.0 0.0 0.0
000060 00 00 00 00 00 00 00 00 00 00 00 00 00 00 00 00
       0.0 0.0 0.0 0.0
000070 00 00 00 00 00 00 00 00 00 00 00 00 00 00 00 00
       0.0 0.0 0.0 0.0
000080 00 00 00 00 00 00 00 00 00 00 00 00 00 00 00 00
       0.0 0.0 0.0 0.0
000090 00 00 00 00 00 00 00 00 00 00 00 00 00 00 00 00
       0.0 0.0 0.0 0.0
0000a0 00 00 00 00 00 00 00 00 00 00 00 00 00 00 00 00
       0.0 0.0 0.0 0.0
0000b0 00 00 00 00 00 00 00 00 00 00 00 00 00 00 00 00
       0.0 0.0 0.0 0.0
0000c0 00 00 00 00 00 00 00 00 00 00 00 00 00 00 00 00
       0.0 0.0 0.0 0.0
0000d0 00 00 00 00 00 00 00 00 00 00 00 00 00 00 00 00
       0.0 0.0 0.0 0.0
0000e0 00 00 00 00 00 00 00 00 00 00 00 00 00 00 00 00
       0.0 0.0 0.0 0.0
0000f0 00 00 00 00 00 00 00 00 00 00 00 00 00 00 00 00
       0.0 0.0 0.0 0.0
000100 00 00 00 00 00 00 00 00 00 00 00 00 00 00 00 00
       0.0 0.0 0.0 0.0
000110 00 00 00 00 00 00 00 00 00 00 00 00 00 00 00 00
       0.0 0.0 0.0 0.0
000120 00 00 00 00 00 00 00 00 00 00 00 00 00 00 00 00
       0.0 0.0 0.0 0.0
000130 00 00 00 00 00 00 00 00 00 00 00 00 00 00 00 00
       0.0 0.0 0.0 0.0

exp_avg_sq f4 [40, 2]
000000 00 00 00 00 00 00 00 00 00 00 00 00 00 00 00 00
       0.0 0.0 0.0 0.0
000010 00 00 00 00 00 00 00 00 00 00 00 00 00 00 00 00
       0.0 0.0 0.0 0.0
000020 00 00 00 00 00 00 00 00 00 00 00 00 00 00 00 00
       0.0 0.0 0.0 0.0
000030 00 00 00 00 00 00 00 00 00 00 00 00 00 00 00 00
       0.0 0.0 0.0 0.0
000040 00 00 00 00 00 00 00 00 00 00 00 00 00 00 00 00
       0.0 0.0 0.0 0.0
000050 00 00 00 00 00 00 00 00 00 00 00 00 00 00 00 00
       0.0 0.0 0.0 0.0
000060 00 00 00 00 00 00 00 00 00 00 00 00 00 00 00 00
       0.0 0.0 0.0 0.0
000070 00 00 00 00 00 00 00 00 00 00 00 00 00 00 00 00
       0.0 0.0 0.0 0.0
000080 00 00 00 00 00 00 00 00 00 00 00 00 00 00 00 00
       0.0 0.0 0.0 0.0
000090 00 00 00 00 00 00 00 00 00 00 00 00 00 00 00 00
       0.0 0.0 0.0 0.0
0000a0 00 00 00 00 00 00 00 00 00 00 00 00 00 00 00 00
       0.0 0.0 0.0 0.0
0000b0 00 00 00 00 00 00 00 00 00 00 00 00 00 00 00 00
       0.0 0.0 0.0 0.0
0000c0 00 00 00 00 00 00 00 00 00 00 00 00 00 00 00 00
       0.0 0.0 0.0 0.0
0000d0 00 00 00 00 00 00 00 00 00 00 00 00 00 00 00 00
       0.0 0.0 0.0 0.0
0000e0 00 00 00 00 00 00 00 00 00 00 00 00 00 00 00 00
       0.0 0.0 0.0 0.0
0000f0 00 00 00 00 00 00 00 00 00 00 00 00 00 00 00 00
       0.0 0.0 0.0 0.0
000100 00 00 00 00 00 00 00 00 00 00 00 00 00 00 00 00
       0.0 0.0 0.0 0.0
000110 00 00 00 00 00 00 00 00 00 00 00 00 00 00 00 00
       0.0 0.0 0.0 0.0
000120 00 00 00 00 00 00 00 00 00 00 00 00 00 00 00 00
       0.0 0.0 0.0 0.0
000130 00 00 00 00 00 00 00 00 00 00 00 00 00 00 00 00
       0.0 0.0 0.0 0.0

exp_avg f4 [40]
000000 e9 4f 5c 3c 4a 90 15 b8 1e 39 1e 3a 14 4e a9 b7
       0.013446786 -3.5658748e-05 0.0006035733 -2.0182728e-05
000010 ea b5 79 b6 84 eb 11 35 3e a3 06 b6 95 a8 78 36
       -3.720978e-06 5.435943e-07 -2.0062575e-06 3.7053007e-06
000020 50 d4 19 c1 bc 90 93 38 00 00 00 00 00 00 00 00
       -9.614334 7.036465e-05 0.0 0.0
000030 00 00 00 00 00 00 00 00 00 00 00 00 00 00 00 00
       0.0 0.0 0.0 0.0
000040 00 00 00 00 00 00 00 00 00 00 00 00 00 00 00 00
       0.0 0.0 0.0 0.0
000050 eb 73 10 b0 38 3e 80 b4 3b d5 6f b6 06 38 ee 3f
       -5.2551624e-10 -2.3887128e-07 -3.5737892e-06 1.8610847
000060 68 60 18 bf 4e af 76 34 10 54 e7 b7 6a 5b a6 b6
       -0.59522104 2.2974311e-07 -2.757649e-05 -4.9578275e-06
000070 16 86 b1 36 22 ee eb a7 e7 94 69 3c 94 8e 84 b4
       5.2906207e-06 -6.5483787e-15 0.0142566925 -2.4690655e-07
000080 59 b7 c2 36 dc f2 55 b9 00 24 8a c1 ef c9 12 35
       5.802995e-06 -0.00020403735 -17.267578 5.468309e-07
000090 04 5d 4d 37 e3 2c 5c 36 ee fb 72 bc 77 06 db 3a
       1.2240609e-05 3.2808682e-06 -0.0148305725 0.0016710301

exp_avg_sq f4 [40]
000000 c5 31 9b 3a 41 3e 3b 33 c3 fd c8 36 29 c6 0b 35
       0.0011840394 4.359595e-08 5.9900062e-06 5.2069896e-07
000010 f0 84 d0 2e e4 48 cd 2c 2c 42 a0 32 a6 af d0 32
       9.482359e-11 5.834543e-12 1.8656543e-08 2.4294263e-08
000020 88 b8 c8 42 c3 a7 ba 33 00 00 00 00 00 00 00 00
       100.36041 8.6918156e-08 0.0 0.0
000030 00 00 00 00 00 00 00 00 00 00 00 00 00 00 00 00
       0.0 0.0 0.0 0.0
000040 00 00 00 00 00 00 00 00 00 00 00 00 00 00 00 00
       0.0 0.0 0.0 0.0
000050 42 37 3d 28 cf fc 18 2e b0 1f 36 31 4b e8 69 40
       1.050359e-14 3.4785338e-11 2.6502498e-09 3.654803
000060 2d 7f fa 3d 1e 53 93 2e 20 92 e4 34 b9 8f cf 30
       0.12231288 6.6995506e-11 4.257463e-07 1.5102081e-09
000070 94 92 30 34 2c b2 7e 27 d8 fc c9 3a 03 30 20 2e
       1.6444602e-07 3.5346168e-15 0.0015410436 3.642243e-11
000080 9c 1d 8c 31 3e 6a 25 35 89 7a 59 41 76 33 d2 2c
       4.0779025e-09 6.162189e-07 13.592416 5.9742723e-12
000090 dc 21 e5 33 48 66 9a 32 3e 79 8f 39 af 1e eb 38
       1.06698025e-07 1.7974472e-08 0.00027365418 0.000112113885

exp_avg f4 [40]
000000 e9 4f 5c 3c 4a 90 15 b8 1e 39 1e 3a 14 4e a9 b7
       0.013446786 -3.5658748e-05 0.0006035733 -2.0182728e-05
000010 ea b5 79 b6 84 eb 11 35 3e a3 06 b6 95 a8 78 36
       -3.720978e-06 5.435943e-07 -2.0062575e-06 3.7053007e-06
000020 50 d4 19 c1 bc 90 93 38 00 00 00 00 00 00 00 00
       -9.614334 7.036465e-05 0.0 0.0
000030 00 00 00 00 00 00 00 00 00 00 00 00 00 00 00 00
       0.0 0.0 0.0 0.0
000040 00 00 00 00 00 00 00 00 00 00 00 00 00 00 00 00
       0.0 0.0 0.0 0.0
000050 eb 73 10 b0 38 3e 80 b4 3b d5 6f b6 06 38 ee 3f
       -5.2551624e-10 -2.3887128e-07 -3.5737892e-06 1.8610847
000060 68 60 18 bf 4e af 76 34 10 54 e7 b7 6a 5b a6 b6
       -0.59522104 2.2974311e-07 -2.757649e-05 -4.9578275e-06
000070 16 86 b1 36 22 ee eb a7 e7 94 69 3c 94 8e 84 b4
       5.2906207e-06 -6.5483787e-15 0.0142566925 -2.4690655e-07
000080 59 b7 c2 36 dc f2 55 b9 00 24 8a c1 ef c9 12 35
       5.802995e-06 -0.00020403735 -17.267578 5.468309e-07
000090 04 5d 4d 37 e3 2c 5c 36 ee fb 72 bc 77 06 db 3a
       1.2240609e-05 3.2808682e-06 -0.0148305725 0.0016710301

exp_avg_sq f4 [40]
000000 c5 31 9b 3a 41 3e 3b 33 c3 fd c8 36 29 c6 0b 35
       0.0011840394 4.359595e-08 5.9900062e-06 5.2069896e-07
000010 f0 84 d0 2e e4 48 cd 2c 2c 42 a0 32 a6 af d0 32
       9.482359e-11 5.834543e-12 1.8656543e-08 2.4294263e-08
000020 88 b8 c8 42 c3 a7 ba 33 00 00 00 00 00 00 00 00
       100.36041 8.6918156e-08 0.0 0.0
000030 00 00 00 00 00 00 00 00 00 00 00 00 00 00 00 00
       0.0 0.0 0.0 0.0
000040 00 00 00 00 00 00 00 00 00 00 00 00 00 00 00 00
       0.0 0.0 0.0 0.0
000050 42 37 3d 28 cf fc 18 2e b0 1f 36 31 4b e8 69 40
       1.050359e-14 3.4785338e-11 2.6502498e-09 3.654803
000060 2d 7f fa 3d 1e 53 93 2e 20 92 e4 34 b9 8f cf 30
       0.12231288 6.6995506e-11 4.257463e-07 1.5102081e-09
000070 94 92 30 34 2c b2 7e 27 d8 fc c9 3a 03 30 20 2e
       1.6444602e-07 3.5346168e-15 0.0015410436 3.642243e-11
000080 9c 1d 8c 31 3e 6a 25 35 89 7a 59 41 76 33 d2 2c
       4.0779025e-09 6.162189e-07 13.592416 5.9742723e-12
000090 dc 21 e5 33 48 66 9a 32 3e 79 8f 39 af 1e eb 38
       1.06698025e-07 1.7974472e-08 0.00027365418 0.000112113885

exp_avg f4 [2, 10]
000000 d1 64 e7 3d bd ce b7 b8 4a eb ea 44 d7 fe e5 44
       0.11298526 -8.764628e-05 1879.3528 1839.9637
000010 68 56 8d c3 2c 01 aa b5 15 46 c2 39 28 c7 db 37
       -282.67505 -1.2666328e-06 0.0003705478 2.6199574e-05
000020 fc da dc 44 ee ea ea c4 2c c3 d9 3d bc 06 bd b8
       1766.8433 -1879.3416 0.10632929 -9.013477e-05
000030 4a ae e8 44 e1 8e e3 44 09 43 8d c3 f1 28 b3 b5
       1861.4465 1820.465 -282.5237 -1.3348455e-06
000040 7c 86 be 39 d0 76 df 37 87 92 da 44 f0 ad e8 c4
       0.00036339823 2.6638998e-05 1748.579 -1861.4355

exp_avg_sq f4 [2, 10]
000000 d7 58 91 3d eb 98 42 35 ca 51 b9 49 c0 af 9c 49
       0.07097023 7.2493157e-07 1.5181372e+06 1.283576e+06
000010 dc 91 7a 45 62 c8 dd 2e 90 ee d2 36 f5 30 bd 34
       4009.1162 1.00855116e-10 6.28626e-06 3.5239614e-07
000020 65 c7 67 49 f7 50 b9 49 18 fd 82 3d aa 9e ff 33
       949366.3 1.5181109e+06 0.0639593 1.1903224e-07
000030 13 c6 b2 49 07 c9 95 49 7c f5 7b 45 8b dc e7 2d
       1.4645144e+06 1.2270409e+06 4031.3428 2.63596e-11
000040 77 9c 2c 36 7a 9d 81 33 b5 0f 5e 49 53 c5 b2 49
       2.5721072e-06 6.0356754e-08 909563.3 1.4644904e+06
