lightning_logs/version_63/checkpoints/epoch=18-step=7315.ckpt (torch, 225150 bytes, 15 tensors)

lstm.weight_ih_l0 f4 [2800, 2]
000000 05 3d 53 bd 5b ff e8 bc 9f 1e 69 3d 2f 55 21 3e
       -0.051571865 -0.028442075 0.05691397 0.15755151
000010 89 81 e7 3d 61 10 cd 3c 61 a3 54 bd 06 20 61 bd
       0.11304004 0.025032224 -0.051913623 -0.05496218
000020 fe 00 9d 3d 33 2e 1a 3d 7d 01 b0 bb c2 b8 95 bc
       0.07666205 0.037641715 -0.005371271 -0.018276576
000030 ed cb 52 3d 23 90 42 3d 61 b7 11 3d a4 b7 6b 3d
       0.05146401 0.04750074 0.035575274 0.05754818
000040 d9 b1 9b 3e a6 e0 93 3e 88 4b 5a 3d 78 6e 91 3d
       0.30409124 0.2888233 0.05329469 0.07101148
000050 a2 1a 31 bd e0 d7 02 bd 79 6c 19 be 1b 73 1e be
       -0.04323829 -0.031944156 -0.14982785 -0.15473597
000060 9e 16 d3 3c 02 4d 3f 3d 50 25 cc 3c 2f 4b 74 3d
       0.02576762 0.0467043 0.024920136 0.059642013
000070 89 7e 3f 3d 65 f0 82 3d f3 3a b1 3d 57 98 26 3d
       0.046751533 0.06393508 0.08653822 0.040672626
000080 4e 4c 21 3e 0d 8a 53 3c a3 d2 7c 3d 4b f6 fc 3d
       0.15751764 0.012911332 0.061724316 0.12351664
000090 40 13 f1 be 5a 33 cc be 85 3e 01 3e 1f f7 80 3d
       -0.47085 -0.39882928 0.12621506 0.062971346
0000a0 25 cd 11 3d 9c 64 53 3d 7f a7 d2 3d 39 89 81 3d
       0.03559603 0.05160962 0.102858536 0.06325001
0000b0 18 0f 82 3d 90 54 e4 3c 56 c7 fe 3c f0 8a b4 3d
       0.06350535 0.027872354 0.03110091 0.08815563
0000c0 8b 32 89 3d 82 1d 83 3d a9 a3 c6 3d 05 d4 07 3e
       0.066990934 0.064021125 0.096991844 0.13264473
0000d0 b5 32 0a bd 20 f7 90 bd 4b bc f5 3d 7d d4 e3 3c
       -0.033739764 -0.07078385 0.11998805 0.027811283
0000e0 1c 97 d3 3c 3f 4f 42 3d ee 74 23 3d b2 84 82 3d
       0.02582889 0.047438856 0.039906435 0.06372966
0000f0 90 a3 97 bd 91 ec b0 bc 0b e2 c1 be 3e f7 db be
       -0.07404244 -0.021597179 -0.3786777 -0.42962068
000100 24 64 e1 3d 77 dc 71 3c a1 ea da 3d d9 cd 69 3d
       0.110054284 0.014762036 0.10689283 0.057081077
000110 1d 8a c6 3c 9e f1 41 3d 9d da 79 bd 99 26 56 bd
       0.02423578 0.047349565 -0.0609995 -0.052282903
000120 14 d4 11 3e 70 0b fc 3d ff fa 06 3d 40 10 90 3d
       0.14241058 0.12306869 0.032954212 0.070343494
000130 4a 5b 74 bd b2 dc 53 bd ec 89 93 3d e2 2f ed 3c
       -0.059657373 -0.051724143 0.07204041 0.028953496
000140 b0 aa 9d 3d 74 9b 59 ba 02 7d 92 3d 0d e8 1e 3d
       0.07698572 -0.00083010574 0.071527496 0.03879552
000150 68 72 0f 3d 3f 20 af 3d b3 39 8f 3d 74 9d f8 b9
       0.035021216 0.08551072 0.06993427 -0.00047419558
000160 75 9f 48 3d f6 f8 05 3d 5d 7f b1 3d be 37 b5 3c
       0.048980195 0.03270813 0.08666871 0.022121307
000170 2c 61 40 bd b8 95 51 bc c1 11 6a 3d d0 2e fa 3b
       -0.04696767 -0.012792043 0.057145838 0.007634975
000180 6b 63 fd 3c fe 29 e8 3c 0f 73 3e bd c0 23 c0 bd
       0.030931195 0.028340336 -0.046496447 -0.09381819
000190 af 9c 66 3d 33 95 69 3d 54 8a 9d be d6 0a 8c be
       0.05630177 0.057027053 -0.30769598 -0.27352017
0001a0 37 7f 1e be 6c b0 1a be 3b d8 e5 3d 68 57 36 3e
       -0.15478216 -0.15106362 0.11222883 0.1780678
0001b0 57 9f da 3d 36 32 3c 3e c9 c9 cc 3d 21 cb 08 3d
       0.10674923 0.18378529 0.09999425 0.033396844
0001c0 ec 63 22 3d aa 9b 01 3d 0e 86 af bd 81 49 a1 bd
       0.039646074 0.031642593 -0.08570491 -0.07875348
0001d0 6d 36 3c 3d a5 b9 66 3d 08 f2 02 3d 42 5a 3a 3d
       0.045950342 0.05632939 0.0319691 0.045496233
0001e0 5a 4e 2d bd 17 00 20 bd e7 43 b8 bd 16 75 b9 bd
       -0.04231105 -0.039062586 -0.08997326 -0.090555355
0001f0 34 40 33 be de ae 46 be 02 2d 80 be 3f a0 83 be
       -0.1750496 -0.19402644 -0.25034338 -0.25708196
000200 c5 b9 4f 3d ad bf 84 3d 87 a1 88 3d 48 69 6b 3d
       0.050714273 0.06481872 0.06671434 0.05747345
000210 9d 36 30 bd 76 1d a4 bc 1c d2 59 3d b8 f7 f7 3c
       -0.043020833 -0.02003358 0.05317889 0.030269489
000220 26 af 1e 3d 66 9f 8c 3d 26 f7 8b bd da b8 33 bd
       0.038741253 0.0686634 -0.06834249 -0.04387746
000230 32 ce c5 be 8b 46 cb be cf 14 94 bd 16 04 cd bd
       -0.38633877 -0.39702258 -0.072305314 -0.10010545
000240 12 a1 95 bd 9a be 45 bd 79 a3 82 bd b7 45 06 bd
       -0.07306112 -0.048277475 -0.06378836 -0.03278133
000250 26 ad 2f 3d 61 cf 2c 3d 98 10 d6 3d 34 6a ba 3d
       0.042889737 0.04218996 0.10452384 0.09102288
000260 cb 92 48 3d 43 fa 98 3d 74 ea 6e 3c 04 32 21 3d
       0.048968118 0.07469609 0.014582265 0.03935434
000270 79 71 8a 3d 1f bb 89 3d f4 b0 24 3d ce c1 69 3d
       0.067599244 0.06725144 0.04020782 0.057069592
000280 02 05 fb 3d 2a c9 a6 3d 7a e3 3d 3d f4 79 ad 3d
       0.122568145 0.08143838 0.046359517 0.08470526
000290 2a 8b 84 3d 20 a9 3c 3d 67 a9 aa 3d d5 99 44 3d
       0.06471856 0.046059728 0.08333092 0.04799827
0002a0 5e a2 d9 3d 3b 58 e1 3d fe 30 db 3c 57 19 91 3d
       0.10626672 0.11003157 0.02675676 0.07084911
0002b0 9f de a0 3d 90 8b 58 3c 88 1e d2 3d e3 79 a2 3d
       0.078549616 0.013216868 0.102597296 0.07933404
0002c0 80 ee 0f bd 08 3f d5 bd cf 69 86 3d a1 ce d7 3c
       -0.03513956 -0.10412413 0.0656315 0.026343646
0002d0 62 3a 5e bd 6e 59 9b bd 9f 4e 85 3d 84 d8 75 3c
       -0.054254897 -0.07585417 0.065091364 0.015005235
0002e0 66 6c 25 3e 4b fe 69 3e 62 7b 6d bd 10 aa f7 bc
       0.16154632 0.22850911 -0.057978995 -0.03023246
0002f0 24 f5 e5 bc 4e 3c 6e bd 0d 80 c8 bd 5e 7a a3 bc
       -0.028070994 -0.05816298 -0.09790049 -0.01995581
000300 c8 c6 47 3e b6 0d 42 3e 99 ad 89 3d 5e 6c c9 3b
       0.19509423 0.18950543 0.06722564 0.0061469516
000310 74 03 94 3d 98 9d 91 3c 97 a4 70 3d 8a ff e2 3d
       0.07227221 0.017775342 0.058750715 0.110838965
000320 6b 5f 96 3d 24 23 44 3d e3 b0 1c 3e a3 55 13 3e
       0.07342418 0.047885075 0.15301852 0.14388137
000330 ed ee 5b bd 06 39 8d bd 0c a9 0b bd 23 43 6d bd
       -0.053694654 -0.06895642 -0.034096763 -0.057925355
000340 60 77 7c 3b 8b ae fe 3c f0 2b a8 3d 7e 2f 3f 3d
       0.0038523301 0.031089088 0.082115054 0.04667615
000350 11 13 ef 3c b5 98 38 3d 17 e5 01 3e f5 91 0d 3e
       0.029183896 0.045067508 0.12685047 0.1382521
000360 da 3a 9b 3c 17 9d d8 3c a2 a8 fd 3c 37 22 8e 3d
       0.018948961 0.026442094 0.0309642 0.0694012
000370 0e 53 f2 bd a5 d5 23 be ab 38 44 bd d1 f9 cd bc
       -0.11832248 -0.15999468 -0.047905605 -0.025143536
000380 90 92 54 3d 5b a3 06 3d fa c2 3c 3d 10 b8 84 3d
       0.051897585 0.03287063 0.04608438 0.0648042
000390 95 7c a2 3d fe fb f5 3c 66 18 19 3d 12 3f c2 3d
       0.079339184 0.030027386 0.037376784 0.09484686
0003a0 76 e8 db be 27 27 b3 be 7c 65 7f 3d 60 56 63 3d
       -0.4295079 -0.34990808 0.062352642 0.055502295
0003b0 b1 0a 79 3d b6 a0 d9 3b c8 d0 25 bd f2 3e 76 bd
       0.06080121 0.0066414727 -0.040482312 -0.060118623
0003c0 f4 ac 2e bc 54 5f 87 bd 61 24 c2 3c 2b e9 87 3d
       -0.010661352 -0.06609979 0.023698987 0.0663627
0003d0 6e 6a e4 bd 5a b4 35 bd aa 3b 94 3d b9 cc fe 3c
       -0.11153112 -0.04436145 0.072379425 0.031103479
0003e0 45 08 c6 3d 15 76 9a 3d 40 0a ab 3d c9 8a ef 3c
       0.09669546 0.075420536 0.083515644 0.029240983
0003f0 4d ff 9a be 52 5a af be 64 d9 3f bd 9c 12 81 bc
       -0.30272904 -0.34248596 -0.04683818 -0.015755944

lstm.weight_hh_l0 f4 [2800, 2]
000000 b3 3c 13 be 68 bd bb bd 47 40 d8 3d cf 11 e4 3d
       -0.14378624 -0.09166986 0.10559135 0.11136209
000010 fc c3 58 3e 6e 52 5a 3e 24 66 b0 bd bf 8b 3c bd
       0.21168512 0.21320507 -0.08613232 -0.04603171
000020 62 15 47 3d a7 2f 3d 3d 37 9f 25 3e fd 26 27 3e
       0.048604377 0.046188023 0.16174017 0.16323467
000030 75 43 29 3e 91 fd 26 3e 7d 94 4e 3e af 60 89 3e
       0.16529639 0.16307665 0.20173831 0.26831576
000040 ba 39 ac 3c 03 83 8c bd 4b 17 3c 3d 64 81 0d 3e
       0.02102362 -0.06860926 0.04592065 0.1381889
000050 93 9d 9b bd 9b 52 c3 bd 4e 90 e4 bd 56 51 8c bd
       -0.07598414 -0.0953724 -0.111603364 -0.06851451
000060 0e c9 bd 3d 56 50 c8 3d 97 52 a0 3d 8c 0a 16 3e
       0.09266864 0.09780948 0.07828253 0.14652461
000070 4b e6 39 3e 66 e6 34 3e a5 3a 51 3d 6c 20 98 3d
       0.18154256 0.17666015 0.05108132 0.07428059
000080 2c 62 1f 3e 69 8e 4f 3e e4 97 c0 3e 7f 0c bd 3e
       0.15564793 0.20269169 0.37615883 0.36923596
000090 e6 06 03 be 61 44 13 be 90 05 d7 be 98 54 9a be
       -0.127956 -0.14381553 -0.4199643 -0.30142665
0000a0 a5 43 44 3e 99 c7 6d 3e de 73 1c 3e 13 89 22 3e
       0.1916643 0.23220672 0.15278575 0.15872602
0000b0 8b 49 93 3d 51 14 1b 3d c5 d3 46 3e f1 d4 3d 3e
       0.071917616 0.037861172 0.19416721 0.18538262
0000c0 18 78 e6 3d 67 d3 25 3e f3 29 91 3e 88 52 80 3e
       0.11253375 0.16193925 0.28352317 0.25062966
0000d0 70 cc ff bd 1d c4 51 bd bf 82 05 3e 99 2e 3c 3e
       -0.12490165 -0.05121242 0.13038157 0.1837715
0000e0 36 6b c1 3d d0 ee 60 3d 30 b1 6e 3d e0 9e cf 3d
       0.09444277 0.05491525 0.058274448 0.10137725
0000f0 24 67 98 bd ad 8b 48 bd b6 d8 a7 bc 2c b5 51 3d
       -0.074415475 -0.04896133 -0.020489078 0.05119817
000100 0e e2 92 3e d5 b4 82 3e a1 83 97 3d d8 5a 79 3d
       0.2868809 0.2552859 0.07398153 0.06087765
000110 07 45 e5 3d 79 7d 81 3d 22 6e 94 3e ae 37 9f 3e
       0.111948065 0.0632276 0.28990275 0.31097168
000120 67 49 bd 3d 18 ad f1 3d 0e f3 9e 3d c6 91 b9 3d
       0.09242516 0.11800593 0.07761203 0.09061007
000130 24 84 83 bd a0 20 91 bd 2a cd e0 3d 7a a2 a9 3d
       -0.06421688 -0.07086301 0.10976632 0.08282943
000140 a3 37 6e 3e a3 fe 83 3e 76 cb c9 3d 61 e2 91 3d
       0.23263411 0.2578021 0.0985326 0.071232565
000150 29 34 bf 3d f4 d7 e8 3d e9 8c 57 3e 29 b0 68 3e
       0.09336121 0.11369315 0.21049847 0.2272345
000160 d2 58 a8 3d f2 d3 b0 3d 45 0d 89 3d 72 de 65 3d
       0.08220066 0.08634175 0.06691984 0.056120344
000170 2c 19 af bd 08 c9 24 bd 73 11 11 3e 0c 1f 61 3e
       -0.08549723 -0.04023078 0.14166813 0.219845
000180 ac 90 d1 3d ac 54 10 3d 98 00 8a 3e 38 9b 81 3e
       0.10232672 0.035237 0.26953578 0.25313735
000190 07 42 72 3d 16 bd ac 3d e9 b6 ca bd 93 23 a4 bd
       0.059145 0.08434503 -0.098981686 -0.08014598
0001a0 60 79 f9 be 2e 3e d8 be 28 34 5b 3e 9f 39 44 3e
       -0.48725414 -0.4223494 0.21406615 0.19162606
0001b0 34 71 c7 3e 1a 9a d3 3e f8 83 1e 3e 32 bc 34 3e
       0.38953555 0.41328508 0.1548003 0.17649916
0001c0 ff 97 39 3e 2e f3 54 3e 1c c8 b0 3e eb b0 cb 3e
       0.18124388 0.2079589 0.3452767 0.39783415
0001d0 d5 a2 47 be 47 66 51 be 00 a1 a5 3d 94 0f 88 3d
       -0.19495709 -0.20449172 0.08087349 0.06643596
0001e0 72 fe bb bd 39 73 1f bd e2 07 ae 3e 78 d9 c1 3e
       -0.09179391 -0.038928244 0.3399039 0.37861228
0001f0 7a c1 0d be 5e 86 d3 bd 40 c9 c7 3c 82 97 e9 bc
       -0.13843337 -0.10328363 0.024387956 -0.028514627
000200 46 84 82 3e c8 03 6e 3e 52 75 9a 3d 88 d4 94 3d
       0.25491542 0.2324363 0.07541908 0.072670996
000210 0b 4a c6 bd 42 09 a7 bd b0 50 2d 3e bd 0c 5e 3e
       -0.09682091 -0.08156063 0.16925311 0.21684547
000220 cb 4c a2 3d 40 c0 ce 3c 10 d5 a9 bd 5a d9 1b bd
       0.07924803 0.025238156 -0.082925916 -0.03804908
000230 04 2c 0a be f9 fe f9 bd b0 9b 1f 3f 4f f3 24 3f
       -0.13493353 -0.12206835 0.62346935 0.6443376
000240 0a 06 77 bd 50 42 8f bc 41 cd 98 bd 7c 64 a3 bc
       -0.060308494 -0.017487675 -0.07461024 -0.019945376
000250 cc e2 ee 3c 55 44 9e 3d 70 29 7c 3d b9 3a ee 3d
       0.02916088 0.07727877 0.061562955 0.11632294
000260 8c 6b 49 3e a2 44 32 3e b6 f8 d6 3d a1 de 40 3d
       0.19669932 0.17408994 0.104966566 0.047087315
000270 0b 84 ad 3d ed d5 bf 3d a6 02 d6 3d 36 d7 f0 3d
       0.08472451 0.09366975 0.10449724 0.11759798
000280 a2 e2 93 3e e5 61 99 3e f3 85 cc 3d b3 73 0d 3e
       0.28883845 0.299575 0.09986486 0.13813667
000290 e4 e7 c8 3d 2b d0 a8 3c e8 65 93 3d e2 b0 e8 3d
       0.098098546 0.020607075 0.071971714 0.11361863
0002a0 35 8e 86 3d 7f 93 d6 3d 89 71 c5 3d 47 a8 fc 3d
       0.065700926 0.104773514 0.09640796 0.12336784
0002b0 7a 9c 1d 3e 12 dc 00 3e b9 f8 a2 3e e3 b5 b2 3e
       0.15391722 0.1258395 0.31830385 0.34904394
0002c0 51 75 bc 3e f3 4b c3 3e 6a 16 00 3e 66 25 07 3e
       0.36808255 0.38143882 0.1250855 0.1319786
0002d0 fd 5e 80 3c 7f 84 9a 3c dc 67 8b 3d 10 4f ae 3d
       0.015670294 0.018862007 0.06806919 0.08511174
0002e0 26 bc 02 3f 96 64 0e 3f c5 95 55 bd f4 8a 56 bd
       0.5106834 0.5562223 -0.052144784 -0.05237861
0002f0 64 33 85 bd 7d 1b ab bd 96 eb ad 3e 34 9d a8 3e
       -0.065039426 -0.08354852 0.339688 0.32932436
000300 16 cf ce 3e 1b 51 fa 3e e0 4e 41 3e db d4 01 3e
       0.4039237 0.48890004 0.18877745 0.12678854
000310 ce e3 71 3d 59 77 ce 3d 57 6a 9c be c9 cc b6 be
       0.059055142 0.100813575 -0.3054988 -0.35703114
000320 71 f0 0a 3d 2f 2c 77 3d 00 62 ae 3e de 9c 9f 3e
       0.03392071 0.06034487 0.34059143 0.31174368
000330 ad ad 02 be ab 30 57 bd 1b 45 62 bd 30 dd ab bc
       -0.12761565 -0.052536648 -0.055241685 -0.020979494
000340 ed 3e da bd 46 e9 a9 bd 92 57 2f 3e 03 b9 4e 3e
       -0.106565334 -0.082964465 0.17123249 0.20187764
000350 89 8d 37 3d 10 49 2d 3d 6d fe 2f 3e c5 53 2d 3e
       0.044812713 0.042306006 0.171869 0.16926487
000360 92 b4 84 3d a1 23 80 3d fd ac b8 3d 44 5f b9 3d
       0.064797536 0.06256796 0.0901737 0.090513736
000370 f7 3b 79 be 03 1c 73 be a2 85 a5 bd 4b 21 11 bd
       -0.24339281 -0.23741154 -0.08082129 -0.03543214
000380 21 ee 65 3e ed 3e 6f 3e 2a 4a d2 3d 9f a6 a9 3d
       0.2245412 0.23363848 0.10268052 0.082837336
000390 eb f8 e4 3d b3 ba a6 3d 2c 91 d2 3e 85 b2 f4 3e
       0.1118029 0.08141079 0.41126382 0.4779245
0003a0 a0 1e ec bd 71 f1 ce bd a4 9f 46 3d f7 5b d6 3d
       -0.11529279 -0.10104645 0.04849209 0.1046676
0003b0 8c 45 d7 3d 17 52 00 3e 2c 38 c3 ba a6 11 4c 3c
       0.10511312 0.12531315 -0.001489406 0.01245538
0003c0 13 df 2f bd b4 d6 61 bc 5a 8a 78 3d c4 db 10 3e
       -0.04293735 -0.013784099 0.060678817 0.14146334
0003d0 a3 1d b8 3e a0 1d bc 3e b8 97 4c 3d 13 e2 ad 3d
       0.3596011 0.36741352 0.049949378 0.08490386
0003e0 52 23 9f 3e 4e 3e 9d 3e 3b f7 5a 3d 0b f8 d7 3d
       0.31081635 0.30711597 0.053458434 0.10545357
0003f0 1f cf 55 bd 77 12 c2 bd a2 4e 2c be 93 0c 2f be
       -0.05219948 -0.09476178 -0.16826871 -0.1709464

lstm.bias_ih_l0 f4 [2800]
000000 24 81 7e bc e8 41 71 3e 1f 77 4f bd 78 1d e5 bc
       -0.015533719 0.23560297 -0.050650712 -0.027968153
000010 26 ea d8 3c d0 fb b0 3d bf 5b 61 bd 8f 49 92 3d
       0.026478838 0.086417794 -0.055019137 0.071429364
000020 0e a9 bc 3e 3c 88 ac 3d 20 df 22 bd a3 e1 a9 bd
       0.36847728 0.08424422 -0.03976357 -0.0829499
000030 a8 63 5f 3d 28 90 0a 3d 3d f3 58 bc e0 d2 85 3d
       0.0545384 0.033828884 -0.013241586 0.06534362
000040 fb 01 c7 be 28 68 ae 3d 18 68 ed be 66 00 d5 3d
       -0.38868698 0.0851596 -0.4636848 0.104004666
000050 39 ea 4d 3d f0 4e 82 bd de 5d 68 3d 95 9b d7 bd
       0.0502722 -0.063627124 0.056730144 -0.10527722
000060 58 37 9d 3d 2b 3e 9e 3d bf cc 01 bd 9f c1 1c be
       0.076765716 0.07726701 -0.0316894 -0.15308236
000070 7b 02 fb 3c 6a de 88 3d 63 19 a4 bd 9b a6 20 bf
       0.030640831 0.06683047 -0.08012655 -0.6275422
000080 cf a4 30 3d 4e db 93 3d a9 de 4d bc 82 e1 1b be
       0.043125924 0.072195634 -0.012565293 -0.15222743
000090 dc 3b e4 3d fd 6a 14 3c de 8c 8b bd c6 52 26 bc
       0.1114423 0.009058711 -0.06813978 -0.010151571
0000a0 9d 61 d5 3d 91 61 06 3d 61 2d 3f 3d 64 73 86 3d
       0.10419009 0.03280789 0.046674136 0.06564978
0000b0 eb 53 45 3b 4b 25 d4 3c 5b 6d eb bc 51 98 08 3e
       0.0030109833 0.025896689 -0.028738668 0.13339354
0000c0 19 51 b8 3d 0c ad 1a be bd 87 39 3a 17 bd dc be
       0.08999843 -0.15105075 0.00070774165 -0.43113014
0000d0 3a bc 2c bd e7 80 50 3e 8c ef f8 3d 5d 10 66 bd
       -0.042171694 0.20361672 0.12155065 -0.05616795
0000e0 b2 2c bd 3d 82 2a 76 be 9b d7 06 3e 97 1a 41 3c
       0.092370406 -0.24039653 0.13168184 0.011786125
0000f0 05 64 ab bb e0 eb af be ab 11 a9 be f3 de 0d bf
       -0.005230429 -0.34359646 -0.33021292 -0.5541832
000100 9f 11 9c 3c c1 c2 77 3d d1 dd 88 bd 9b c1 02 3e
       0.019051371 0.060488466 -0.06682933 0.12769167
000110 24 39 8a 3d f0 84 08 bd 91 1d b1 be 0a b8 81 be
       0.0674918 -0.033329904 -0.3459287 -0.25335723
000120 40 1e 9f bd 40 61 ce bc c2 74 cd 3c 49 b9 2b be
       -0.077694416 -0.025192857 0.025080089 -0.167699
000130 7f 84 cc bd fc 48 1c 3d 22 56 74 3d 3d 07 8f bb
       -0.09986209 0.03815554 0.059652455 -0.0043648765
000140 5f 38 13 bc 56 53 7d 3d 02 2d de 3d ba 3c e2 3d
       -0.008985608 0.061847053 0.10848428 0.11046739
000150 f4 49 09 3e 6b 24 02 bd c6 50 d8 3b 64 ba 8c be
       0.13407117 -0.031773012 0.006601426 -0.27485955
000160 c7 c2 32 be a9 cc 1a bd 88 86 31 be 1b 65 2b bb
       -0.17457114 -0.037792835 -0.17336476 -0.0026152793
000170 9d 9e 12 3e 0e 42 dc bc 27 b5 00 bd f4 e2 ec bd
       0.14318319 -0.026886966 -0.03142276 -0.115667254
000180 fc 82 cd bd 1f 4b a4 bd 8e 75 fc 3b ab ea 49 3e
       -0.10034749 -0.08022141 0.0077044433 0.19718425
000190 b2 81 b5 3d 28 df e0 3d 78 b7 50 bd c9 18 a4 bc
       0.08862628 0.10980064 -0.05095622 -0.02003135
0001a0 89 42 34 3d 33 c3 28 be d2 cb 8b 3a 91 90 fd bc
       0.044008765 -0.16480713 0.0010665602 -0.030952724
0001b0 18 95 71 3c e3 46 fd bb 7b 78 ad be e6 95 6b bd
       0.014745019 -0.0077293976 -0.33880982 -0.057516
0001c0 2c fe 0a 3e 39 ce a9 3d 51 39 77 3d cf 6b 38 3c
       0.13573521 0.08291287 0.060357396 0.011256172
0001d0 d3 00 0a bf 90 94 67 3d 0a ae 84 bc 02 c1 16 bd
       -0.5390751 0.056538165 -0.01619627 -0.03680516
0001e0 c6 ca cb bc 58 97 7a 3d fb 55 0e be 77 ec 8d 3d
       -0.024876963 0.06117949 -0.13899986 0.06929868
0001f0 21 5c 04 3c af 58 ef 3b d1 9b 28 bf cd a8 9c bb
       0.008078606 0.007304273 -0.65862757 -0.004780865
000200 c4 25 31 be 21 4c 02 be 19 66 55 be 84 1a 24 be
       -0.17299563 -0.12724353 -0.20839728 -0.1602574
000210 db 08 7c 3c 29 09 df bc 22 25 8b 3d 75 6c 85 be
       0.015382971 -0.027226048 0.06794192 -0.2605931
000220 26 d6 89 3d 3a 53 5e bd 81 e8 0e 3e 62 67 27 bd
       0.06730299 -0.05427859 0.1395588 -0.040870078
000230 34 59 26 be f4 d2 a2 be 91 8a f6 bb f5 b9 8f be
       -0.16244966 -0.3180157 -0.0075238426 -0.2807156
000240 f7 ee 5f 3d 49 75 b2 3c 98 37 64 3d f8 d9 9d bd
       0.054671254 0.021784442 0.05571708 -0.0770759
000250 34 dc 3f be 09 e3 22 3d 7a 1a ab 3c 4d 94 49 be
       -0.18736345 0.0397673 0.020886648 -0.19685479
000260 1b 37 d4 bd 94 20 cc 3d 30 89 e1 be 20 c8 4d 3d
       -0.10362073 0.09967151 -0.44049978 0.050239682
000270 54 16 b8 3c 72 69 8b 3d 77 12 e9 3c 33 e7 55 3d
       0.022471584 0.068072215 0.028451188 0.052222442
000280 99 48 0c 3e bb 7c 74 bd 49 46 e9 3d c1 b5 fd bc
       0.13699569 -0.059689265 0.11390359 -0.030970456
000290 c7 25 d5 3b 06 cf 65 bd 4a cb fe bc 9c 99 42 bd
       0.0065047476 -0.056105636 -0.031102795 -0.047509775
0002a0 fb 06 21 3f 10 d3 10 bf 77 c6 4c be 71 78 45 bc
       0.62901276 -0.56572056 -0.19997583 -0.012052641
0002b0 da a7 2d 3d b1 d9 7f bb f8 80 f8 3d c6 88 4d be
       0.042396404 -0.0039039666 0.12133974 -0.20071706
0002c0 4f 0e ec 3d 6d 22 0d 3e 39 30 38 bd 03 31 8e 3d
       0.11526167 0.13782664 -0.044967864 0.06942942
0002d0 c1 cc 6c 3d 54 af 12 be 71 84 0f bd e0 bc 15 3d
       0.057812456 -0.14324695 -0.035038415 0.03655708
0002e0 42 a0 e2 bd 18 ef 87 be 92 85 49 3e e5 ef d8 be
       -0.11065723 -0.26549602 0.1967986 -0.42370525
0002f0 25 63 e2 bd 07 33 ad be 88 36 98 3c 15 43 c5 bc
       -0.110540666 -0.33827993 0.01858069 -0.024079839
000300 ff bf 64 3d 8f 48 f6 bc 21 cc 20 bd 74 86 00 3e
       0.055847164 -0.030063896 -0.039257172 0.1255129
000310 57 26 ab bd cf 3c 90 3d 25 a4 99 bd 0e c1 ad bd
       -0.08356922 0.07042848 -0.07502011 -0.08484088
000320 99 1b 26 bd 59 b4 82 3d 2a a7 8c bd e7 54 80 3d
       -0.040553663 0.06382055 -0.068678215 0.06266194
000330 f3 49 60 3d e5 4c 0a be 30 16 92 be 9e d5 fd 3c
       0.054758023 -0.13505895 -0.28532553 0.03098565
000340 3e 6d 34 3f 90 01 9f 3d cd b8 da 3c 98 9f 13 bd
       0.7047919 0.0776397 0.026699448 -0.036040872
000350 4e 25 0c 3d 12 1c 9c be fd 30 e1 bd e8 5e 90 bd
       0.034215264 -0.30490166 -0.10995672 -0.07049352
000360 ea 65 3b 3c a6 7e d1 bc 65 c1 6b bd dd 2e 95 3d
       0.011437872 -0.025573086 -0.057557482 0.07284329
000370 52 76 48 be d0 df d2 bc 5d 35 18 be 06 b6 1a bc
       -0.19576386 -0.025741488 -0.14864106 -0.009442812
000380 2b a6 a1 be 6a 14 06 bc 53 01 15 3f f3 1f 96 bd
       -0.3157209 -0.008183578 0.58205146 -0.073303126
000390 25 92 ae bc 26 48 13 be 48 9d c5 bd 11 0e c5 bd
       -0.021309922 -0.14382991 -0.0964914 -0.096218236
0003a0 0c 5d 4d 3d f6 78 73 3d 7e 97 ec bc e8 00 0b 3c
       0.050137565 0.05944153 -0.02888083 0.008484103
0003b0 00 63 5a be 91 84 6f 3d 0b 44 fd bd 0a ce 5b be
       -0.21326828 0.058476035 -0.12366494 -0.21465316
0003c0 a1 b7 11 3d 0c b8 6f be 34 1d ea bd 4f 2b 2f bc
       0.035575513 -0.23410052 -0.11431351 -0.010691478
0003d0 6d 3a 7d 3d 28 73 f5 3c 41 40 07 be 5b b3 e8 bc
       0.061823297 0.029962137 -0.13208105 -0.028405836
0003e0 58 7a cd 3d 3e 4f 87 3d c6 c2 98 3d 69 41 de bd
       0.10033101 0.06606911 0.07459025 -0.1085232
0003f0 e5 06 f2 3c 35 10 86 bd ba 59 cd bc 20 c6 09 bc
       0.029544303 -0.0654606 -0.025067199 -0.008409053

lstm.bias_hh_l0 f4 [2800]
000000 93 c8 af 3b 95 6e 53 3e 76 77 33 bd 48 db 14 bd
       0.0053644865 0.20647652 -0.0438151 -0.036341935
000010 8d ad de 3c 07 3a cc 3d 09 ce 06 bd ac a5 a1 3d
       0.027182365 0.09972005 -0.032911334 0.078929275
000020 f5 d8 ae 3e 61 dc 0a 3e 75 d9 9b bd 6f bb 57 bd
       0.341499 0.1356063 -0.07609836 -0.052668985
000030 a8 93 d4 3c 6a 7f 1d 3d c1 d4 3f bd f8 d3 02 3d
       0.025949314 0.03845159 -0.046833757 0.03194043
000040 6a a2 d1 be a1 38 b8 3d 83 a8 d6 be b8 61 fa 3d
       -0.40944225 0.08995176 -0.4192544 0.122256696
000050 10 5d bb 3d 87 75 37 bd c5 98 1a 3d 88 f2 d2 bd
       0.0914861 -0.044789817 0.03774335 -0.103001654
000060 79 c5 0b 3e 23 19 06 3e ee 0b a2 bb 41 01 46 be
       0.13649549 0.13095526 -0.00494527 -0.19336416
000070 8e 84 c1 3c 59 0c 81 3d 8f eb 7f bd 13 6f 1d bf
       0.023622777 0.06301183 -0.062480506 -0.6149761
000080 16 ea 8d 3d 44 2e 69 3d 10 71 03 3d 26 94 e7 bd
       0.06929414 0.056928888 0.032090247 -0.11307554
000090 57 68 b7 3d 5b da 60 3c 44 23 79 bd 31 be 0b bd
       0.08955448 0.013723935 -0.060824648 -0.034116928
0000a0 e5 ba 6c 3d bd 6f 27 3d 04 e3 34 3d c0 46 e3 3d
       0.057795424 0.040878046 0.04416181 0.11097479
0000b0 b4 69 1d 3c b5 7f 22 3c e1 b8 95 ba 97 27 a8 3d
       0.009607721 0.009918143 -0.0011422896 0.08210676
0000c0 64 25 7b 3d 95 53 15 be 4c 1c 45 bc 6e 6e be be
       0.061314955 -0.14582665 -0.012030672 -0.37193626
0000d0 62 d2 3c bd b3 95 49 3e 96 8f 9f 3d a7 dd 57 bd
       -0.046099074 0.19686012 0.07791059 -0.05270162
0000e0 57 7f 10 3e 53 14 8c be 91 af 24 3e 20 ff 88 3d
       0.14111076 -0.27359256 0.16082598 0.06689286
0000f0 c3 7d 92 bc bb 00 b5 be c2 e4 a8 be 76 2e f7 be
       -0.017882233 -0.3535212 -0.32987028 -0.48277634
000100 24 b6 9d 3d 49 8a a3 3c 41 f4 a6 bb 25 d5 a6 3d
       0.07700756 0.0199634 -0.0050950353 0.08146123
000110 a7 bf 3e 3d 20 c3 38 bd d5 67 d4 be 42 7b a3 be
       0.046569493 -0.04510796 -0.41485468 -0.31929976
000120 8e 8c 9b bd 4f 87 b4 bc 46 e4 ce 3c 24 08 3d be
       -0.07595168 -0.022037176 0.025255334 -0.18460137
000130 e2 e8 be bd 22 ee 97 bc dd b4 4f 3d 69 ea e6 39
       -0.093217626 -0.018546168 0.050709594 0.00044043668
000140 e3 70 b2 bc 59 74 a1 3d 6f b9 d2 3d 5c 87 60 3d
       -0.021782344 0.0788352 0.10289275 0.05481659
000150 12 39 09 3e 2c f9 42 3c 28 25 b3 ba a5 dd 4f be
       0.13400677 0.0119002275 -0.001366769 -0.20299394
000160 e6 a8 f3 bd 4e 85 61 3c f7 bb 38 be c5 1a 24 bb
       -0.11897449 0.0137646925 -0.18040453 -0.002504037
000170 31 a3 0b 3e cd 3d 09 bd 07 11 ac bd b6 d1 da bd
       0.13636471 -0.033506203 -0.08401685 -0.106845304
000180 c8 c7 0f bd 97 13 15 be 9e ef 2c bd 09 a2 02 3e
       -0.035102636 -0.14558254 -0.042220704 0.12757124
000190 b4 62 8d 3d b1 8f 0f 3e 58 ce 95 bd 75 1d 9f bc
       0.06903592 0.14019658 -0.073147476 -0.019423226
0001a0 94 09 30 3c f1 5e 10 be 4f 17 55 3d 21 82 b1 39
       0.010744471 -0.14098717 0.052024182 0.00033857024
0001b0 1b ba 68 3b 6d 44 85 bb 02 8d 9c be 5a e5 ee bb
       0.0035511318 -0.004066995 -0.3057633 -0.0072905244
0001c0 57 ad 0c 3e 38 7c a3 3d e4 2f a9 3d 34 78 42 bd
       0.13737999 0.07982677 0.082610875 -0.047477916
0001d0 cd 9e 0d bf 2f 85 bf 3d c1 6d ab bd 0c 8d 8b bc
       -0.55320436 0.09351575 -0.08370543 -0.01703503
0001e0 80 ef 02 bd 68 21 9d 3d 7d 18 05 be 53 37 c1 3d
       -0.031966686 0.07672387 -0.12997623 0.094343804
0001f0 9d eb 22 3d 6c 87 4e 3d 64 b5 2a bf 49 27 f8 bc
       0.03977548 0.050422117 -0.6668303 -0.03029217
000200 db 30 11 be 5e 3c 16 be f5 c2 54 be 92 a1 22 be
       -0.14178793 -0.14671466 -0.20777495 -0.15881947
000210 47 32 2b 3c 1c 31 f5 3c 3e cf d6 3d 39 8c 7b be
       0.010448999 0.029930644 0.10488747 -0.2456521
000220 64 ea 84 3d cd bd 65 3b 5c 68 fd 3d 96 ca 94 bd
       0.06490019 0.0035055757 0.123734206 -0.07265203
000230 42 9b 5a be d4 59 a3 be d1 1d 99 bb d6 3c 8c be
       -0.21348289 -0.3190447 -0.004672744 -0.27390164
000240 db 35 ea 3c 8b ae 48 3d c9 5c c1 3d 13 03 c6 bd
       0.028590133 0.048994582 0.094415255 -0.09668555
000250 ef 2e 31 be 63 62 b3 3b 47 e1 4a 3c 27 f0 2b be
       -0.1730306 0.005474375 0.012382812 -0.1679083
000260 46 fc bc bd a2 93 b1 3d 5f d1 c2 be 3c 6d 6a 3d
       -0.09227805 0.08670737 -0.38050362 0.05723308
000270 ed 9d e4 3c 02 52 9c 3d 6c 0e 9b bc b1 4b 22 3d
       0.027907336 0.07632829 -0.018927775 0.039622966
000280 0f ea 0b 3e bb cf ea bb d4 06 ee 3d 2a 28 37 bd
       0.13663505 -0.0071658767 0.11622396 -0.044716038
000290 52 92 65 bc 54 c8 2a bd 87 cd e2 bc 6e 48 54 bc
       -0.014011936 -0.041694954 -0.027685894 -0.012956722
0002a0 a6 4a 25 3f 1c 25 20 bf 48 81 76 be ee 40 7c 3d
       0.6456703 -0.62556624 -0.24072754 0.06158536
0002b0 e9 eb d0 3b 0c e5 70 bd 72 60 05 3e 08 9e 4b be
       0.006375779 -0.058812186 0.13025072 -0.19884503
0002c0 b5 90 13 3e b1 76 d1 3d 28 97 52 bd 17 60 88 3d
       0.1441067 0.10227717 -0.051413685 0.06658953
0002d0 a0 2d 17 3d 52 4c df bd aa ee 2a bc 1c ca 28 3b
       0.036908746 -0.10903229 -0.0104328785 0.0025755232
0002e0 8e 9f d2 bd 3e 64 94 be e6 39 2f 3e 12 52 ca be
       -0.10284339 -0.2898273 0.1711193 -0.3951574
0002f0 ee f9 db bd e2 e5 a8 be 67 1c 77 3d c7 a1 8e 3c
       -0.1074103 -0.32987887 0.06032982 0.017411126
000300 8d dd d1 3d 8e 09 83 bd f4 6e 8d bd 94 34 2c 3e
       0.102473356 -0.06398307 -0.06905928 0.16816932
000310 b6 84 b6 bd 88 49 76 3d 3c 12 68 bd ba 5c 7f bc
       -0.08912031 0.06012872 -0.056658015 -0.015586073
000320 2c 5c 2f 3c 96 b4 82 3d 96 87 2c bd e0 ad 62 3d
       0.010703128 0.063821 -0.042121492 0.0553416
000330 0d 2d b3 3d 81 a2 fa bd 81 66 7e be e3 9a c3 3b
       0.08748827 -0.122380264 -0.2484379 0.0059693917
000340 35 c7 31 3f a8 c7 21 3d 68 8b 9e 3b 06 03 21 bd
       0.6944459 0.039497048 0.004838396 -0.039309524
000350 23 18 5b 3d 5b 47 86 be 92 9c c7 bd 27 6b f9 bd
       0.053489815 -0.26226315 -0.0974666 -0.12178641
000360 c5 d3 00 3d 85 6d bc bc 94 d3 28 bd cf 8c 27 3d
       0.03145196 -0.023001442 -0.0412174 0.04090577
000370 ab 30 37 be 81 65 97 bb e8 b7 04 be a1 24 b9 3b
       -0.17889659 -0.0046202545 -0.1296078 0.0056501185
000380 35 b9 98 be f0 4a 46 bc 7d 42 1c 3f f9 9e 6e bd
       -0.29828802 -0.012102827 0.61038953 -0.058257077
000390 a3 83 47 3c 29 fe 2e be c8 85 a9 bd f5 25 96 bd
       0.012177381 -0.17089142 -0.0827747 -0.073314585
0003a0 b7 43 cc 3c 1c b4 81 3d 6e 09 42 bd 42 bb 37 bd
       0.024934633 0.06333181 -0.047372274 -0.044856317
0003b0 49 cd 77 be e4 80 1f 3c 5d 1a 0b be c9 c4 7e be
       -0.24199404 0.00973532 -0.13584276 -0.24879755
0003c0 4f d5 4c 3d 4c 59 86 be fb 76 d6 bd f0 cc 58 bd
       0.050008114 -0.26240003 -0.104719125 -0.05292982
0003d0 ef c9 09 3d 25 53 0f 3c 4e 1c 08 be 4c 09 a5 bd
       0.033639845 0.008747851 -0.13292047 -0.08058414
0003e0 aa 7c b9 3d 60 98 06 3e 76 84 db 3d 9e 65 07 be
       0.09056981 0.13144064 0.10718624 -0.13222358
0003f0 a9 ef ed 3c 2d f3 7a bc 54 c4 29 3b 8e a2 40 bb
       0.029044943 -0.015316767 0.0025904374 -0.0029393765

lstm.weight_hr_l0 f4 [2, 700]
000000 1c 1d 9e bc 7e 97 15 3e 9c 3e 46 3e d7 00 d0 3c
       -0.01930099 0.14608571 0.19359821 0.025391025
000010 d6 8d 51 be 02 86 c3 3d ff c1 3f be 04 e9 5d 3e
       -0.20464262 0.09547044 -0.18726347 0.2167092
000020 87 66 da bd f1 54 70 3e 4a 64 02 bd 68 43 67 3e
       -0.10664087 0.23469903 -0.031833924 0.22584307
000030 37 a8 26 be 0b c5 33 3e f7 e6 29 3e 7a 20 8b 3e
       -0.16275106 0.17555635 0.16592012 0.27173215
000040 90 2b 58 be 18 ac d7 3d 38 c5 20 3e c7 79 c3 bd
       -0.21110368 0.10530871 0.15700233 -0.095447116
000050 77 a1 55 3e 32 d8 37 3e 50 1a 3e be cd bc 3b be
       0.20862375 0.17953566 -0.18564725 -0.1833374
000060 7a 85 47 3d 25 3d e9 3d 8a 5c bc 3c ba 43 38 3e
       0.048711278 0.113886155 0.022993345 0.17994586
000070 99 65 5d 3e 85 82 4a be 5d dc 16 3a 60 38 6a 3e
       0.21620788 -0.19776352 0.00057548826 0.22873068
000080 58 72 48 3e d0 b3 64 be df 1c 4f 3e 30 ef 6b be
       0.19574869 -0.22334218 0.20225857 -0.23040462
000090 c0 1b 77 be ee e7 3f be ec e9 81 3b 26 04 5f 3e
       -0.2413168 -0.18740818 0.0039646532 0.21778926
0000a0 5d 80 5e be ea 06 36 3e 81 76 63 be 9a 6c 57 be
       -0.21728654 0.17776075 -0.22213174 -0.21037522
0000b0 91 d7 2e 3e 59 8a 41 be 2f 8c 10 bd 36 7c 55 3e
       0.1707442 -0.18900432 -0.03528994 0.20848164
0000c0 8e e1 27 3e e6 2b 58 be 57 d7 2b 3e 7d 7f 3c 3e
       0.16394636 -0.21110496 0.16781364 0.18408008
0000d0 70 b1 1b c0 02 43 64 3e fd 8b 32 be d2 99 39 3e
       -2.432705 0.22291186 -0.17436214 0.18125084
0000e0 a4 64 5c be c9 36 69 be a3 0e 75 be f5 49 3f be
       -0.21522766 -0.22774805 -0.23931365 -0.18680556
0000f0 98 cb d9 3c 3e e4 05 3e 66 e8 17 be 58 0f 45 be
       0.026586339 0.13075349 -0.14834747 -0.19244134
000100 f5 2d 4a 3e a4 2e 70 3e a3 40 1f 3d 99 dd 35 be
       0.19744094 0.23455292 0.03888 -0.17760314
000110 95 0c 41 3e 82 d3 a8 3c f4 a8 23 3e e6 ca 42 be
       0.18852456 0.020608667 0.15982419 -0.19022712
000120 c8 1f 9f 3a d6 bc 8e bc 19 a7 40 3e be 44 4b be
       0.0012140209 -0.017424028 0.18813743 -0.19850442
000130 ab 2d 4e be af 49 3b 3e 31 cf 63 3e 84 34 36 3e
       -0.20134608 0.18289827 0.22247006 0.1779347
000140 e4 ca 3c be d2 9f 50 be 81 1d 3f 3e 46 b4 73 be
       -0.18436772 -0.20373467 0.18663599 -0.23799238
000150 fe ab 1c be 4e c3 5a 3e 8e 07 48 3e 25 3b fd bd
       -0.15299985 0.21363565 0.19534132 -0.123647965
000160 d9 d4 50 3e 8c 53 1e be 20 57 21 bd 9b 1e 17 be
       0.20393695 -0.15461558 -0.03938973 -0.14757769
000170 64 4a b3 bd 8f 1a 0f bd dd 14 1d 3d 05 eb 5e 3e
       -0.08754423 -0.034937438 0.038349975 0.2176934
000180 67 6d 70 be 18 c7 20 3e 0b 21 47 3e ea 3c ed 3e
       -0.23479234 0.15700948 0.19446199 0.46335536
000190 e9 c5 59 be 37 69 3c be 9b 97 07 bc 0c 7b 6a bc
       -0.21266903 -0.18399511 -0.008275892 -0.014311563
0001a0 9d d8 92 3c 58 16 4b be 54 1f b4 bb 1c 7c 4f be
       0.017925555 -0.19832742 -0.0054968987 -0.20262188
0001b0 99 ad 17 3e 53 e3 35 be f5 e4 0c 3e e0 f9 a2 bc
       0.14812316 -0.17762499 0.13759215 -0.01989454
0001c0 22 76 65 be 22 40 6a 3e 61 7b 7b be ae 23 38 be
       -0.22408345 0.22876027 -0.24558784 -0.1798236
0001d0 15 69 fa 3d 2d 7f 83 3e 39 f5 2f 3e ec 21 4c bc
       0.12227074 0.25682965 0.17183389 -0.0124592595
0001e0 08 f1 19 bd 68 39 39 3e c6 60 6a be e4 78 55 be
       -0.03758338 0.18088305 -0.22888479 -0.20846897
0001f0 73 a8 48 be dd 67 56 be 1f 68 30 3e 2f 19 81 bc
       -0.19595508 -0.20938058 0.17227219 -0.015759079
000200 e6 d0 6e be e1 2c 34 bc ab 52 5d be 70 17 5c 3e
       -0.23321876 -0.010997028 -0.21613567 0.21493316
000210 09 d1 e5 bc 7f d6 5d be 8b 6a 4a be dc 4f 17 3e
       -0.028053777 -0.21663855 -0.19767205 0.14776558
000220 c0 a9 35 be e2 df 37 3e 02 49 5f be 5a bd 64 3e
       -0.17740536 0.17956498 -0.21805194 0.22337857
000230 07 05 5c 3e 24 d6 74 3e cc 67 53 be fd c2 0d be
       0.21486293 0.23909813 -0.20645064 -0.13843913
000240 17 0b 31 be 97 42 2f be 56 77 41 3e 86 f3 3e be
       -0.17289387 -0.17115246 0.1889318 -0.18647584
000250 3d cc 24 3e 75 af 40 be c1 16 4b be 86 65 53 be
       0.16093536 -0.18816932 -0.19832899 -0.20644197
000260 a4 a5 45 3e d5 2f 64 3e d2 e4 57 be ce d7 48 be
       0.19301468 0.22283871 -0.21083382 -0.19613573
000270 8b 02 4a be e9 82 53 be 2d 8b 2a 3e 7a e5 5c 3e
       -0.19727533 -0.20655407 0.16654654 0.21571913
000280 0b 29 45 be ea af 0b 3c f1 6e ca 3d 08 57 04 be
       -0.19253938 0.008525828 0.09884442 -0.12923825
000290 a9 54 98 bc e5 05 1d 3d 0c 0a 08 3d 83 d6 5e be
       -0.018595057 0.0383357 0.033212706 -0.21761517
0002a0 3e ec 84 40 a1 55 f7 3d 79 88 28 be 32 d9 53 3e
       4.153838 0.12076879 -0.1645831 0.20688322
0002b0 94 ec 32 be 8b 33 4c be d3 50 5c 3e 12 f2 20 3e
       -0.1747306 -0.19941537 0.21515207 0.15717342
0002c0 4d ea 36 bd fc 46 53 3e e2 ee 0d bd 1f 73 1c be
       -0.04465704 0.20632547 -0.034651645 -0.1527829
0002d0 9b 95 80 be cc 04 85 3e 6a 39 5f be 21 1f 50 be
       -0.2511414 0.25980222 -0.21799245 -0.20324375
0002e0 f7 4a 8e 3e c3 de 0e 3e 91 eb 56 be cc 00 2c 3e
       0.2779157 0.13952164 -0.20988299 0.16797179
0002f0 1c dd 61 be e3 59 1f be c0 db 5c be b2 4b 5a be
       -0.22057003 -0.15561633 -0.21568203 -0.21317938
000300 db bc 55 be 40 80 41 bd b5 e4 97 bc 11 75 71 be
       -0.20872824 -0.04724145 -0.018541673 -0.23579814
000310 1a 90 55 be 84 a6 40 3e 76 8f 85 bb 82 dc b1 3c
       -0.20855752 0.1881352 -0.0040759398 0.021711592
000320 04 0b 69 be 31 01 39 3e a5 ec 35 3e 56 ce 4b be
       -0.22758108 0.1806686 0.17766054 -0.1990293
000330 74 72 20 be 0d 08 2a 3e 66 97 59 be 63 25 41 3e
       -0.1566866 0.16604634 -0.2124916 0.18861918
000340 ad 63 a4 bf a6 2b 63 be 7d 76 43 be 41 7c 8a 3b
       -1.2842919 -0.2218462 -0.19088168 0.004226238
000350 ce 12 5d be b0 5c 1a be f7 d2 4f 3e 8c 23 97 be
       -0.21589205 -0.1507442 0.2029532 -0.29519308
000360 e6 e0 5c 3e ed 31 47 3e 6d 93 1f bc 2d 2c 46 be
       0.21570167 0.19452639 -0.009739739 -0.19352789
000370 97 9b 60 be 98 7b f0 bc 3a 20 60 be 21 bc 38 be
       -0.21934353 -0.02935581 -0.21887293 -0.18040515
000380 11 c7 61 3e 25 f5 40 3e b5 27 bd 40 8f 20 37 bd
       0.22048594 0.18843515 5.911097 -0.044708785
000390 5b bf e0 3c 0f d4 4f be 66 fb 42 3e 81 65 41 be
       0.027434995 -0.20295738 0.19041213 -0.18886377
0003a0 66 d6 eb 3d cd 29 21 3e 54 39 09 bd 07 fb 39 3e
       0.11515503 0.15738602 -0.033501938 0.18162166
0003b0 87 91 64 3e 5c 93 2e be 1b 1b 6a be 15 75 52 be
       0.2232114 -0.170484 -0.22861902 -0.20552476
0003c0 94 e8 3d be d0 07 27 be ae a9 38 bf 43 d3 42 be
       -0.18545753 -0.16311574 -0.7213391 -0.19025902
0003d0 d9 a5 3d be 5a 27 2c 3e 5a ab 13 be ab 21 4c be
       -0.18520297 0.16811886 -0.14420834 -0.19934718
0003e0 4c a8 56 bd 9f 2c 44 3e c3 2c 77 be 00 5a 65 be
       -0.052406594 0.19157647 -0.24138169 -0.22397614
0003f0 f1 c0 54 be 0c 5e 4f be 69 a1 52 bd e5 e9 56 be
       -0.20776726 -0.2025072 -0.051423464 -0.20987661

exp_avg f4 [2800, 2]
000000 5b 82 b4 b5 99 20 1e b6 ea e0 56 32 c0 98 9c 32
       -1.3448984e-06 -2.356281e-06 1.2507579e-08 1.8230253e-08
000010 3c 29 bd 37 8b d8 40 38 f2 bb 99 b4 5f 86 03 b5
       2.2549757e-05 4.597804e-05 -2.863522e-07 -4.899684e-07
000020 ac f9 c4 b7 10 9f 76 b6 e6 3e 18 bb 58 54 ea ba
       -2.3481283e-05 -3.6749443e-06 -0.002323085 -0.001787792
000030 0d 88 80 b8 24 99 bd 37 c0 0c c4 b8 7c 7b 5c b7
       -6.128857e-05 2.2601867e-05 -9.348383e-05 -1.3141773e-05
000040 96 d7 74 b7 17 e9 71 b7 34 b0 cf 30 6d fe 9c 30
       -1.4593728e-05 -1.441899e-05 1.5111312e-09 1.1422806e-09
000050 01 7c 0a b6 3d 19 85 b6 d6 2f 02 38 2b 1d f4 37
       -2.0635782e-06 -3.966647e-06 3.1038966e-05 2.9100649e-05
000060 cc 36 aa b9 62 2f 28 b9 ec 7e 4b b9 c9 21 a6 b8
       -0.00032465754 -0.0001603938 -0.0001940687 -7.92179e-05
000070 83 0d 3b b8 36 99 25 37 30 98 32 b7 0e 85 74 36
       -4.4596858e-05 9.870439e-06 -1.0645061e-05 3.6436281e-06
000080 87 4c 54 37 82 50 eb 37 ca bd bf 34 c7 6f 11 b6
       1.2654003e-05 2.8051672e-05 3.5714612e-07 -2.1671747e-06
000090 6e ff ca ad c2 0e c3 ae d1 46 1a b8 92 6d b4 37
       -2.3078175e-11 -8.870195e-11 -3.6782414e-05 2.1508695e-05
0000a0 2b 66 e9 b8 dd 0a c3 b7 aa 36 ac 33 2c 78 86 36
       -0.00011129336 -2.325087e-05 8.0193175e-08 4.007501e-06
0000b0 3c e6 a4 b8 b2 a0 13 b8 52 10 8d b8 f6 8e 88 b7
       -7.863014e-05 -3.519719e-05 -6.726444e-05 -1.6279035e-05
0000c0 82 8f 1d b6 8f 26 02 b5 8c dd 21 b5 dd 8a a0 b5
       -2.3478356e-06 -4.8484884e-07 -6.0299567e-07 -1.1961343e-06
0000d0 e9 53 d0 32 59 a4 7e b5 24 d1 1d 37 1f f4 d5 37
       2.4252545e-08 -9.486153e-07 9.406624e-06 2.5505256e-05
0000e0 4b 3b bf b9 28 f6 37 b9 2a 52 64 b8 aa a3 33 b8
       -0.00036474536 -0.0001754394 -5.4435957e-05 -4.282935e-05
0000f0 77 29 17 30 22 11 87 b3 8b 53 d1 36 cc c2 d4 36
       5.4992405e-10 -6.289544e-08 6.238411e-06 6.3407697e-06
000100 fc ad 30 38 d3 d3 a2 38 7b 45 e1 35 3a ff e8 36
       4.2123705e-05 7.764217e-05 1.6784028e-06 6.943851e-06
000110 71 d8 4f 34 4d 44 76 34 5f 5c b3 b8 fc 77 35 38
       1.9357118e-07 2.2935383e-07 -8.5525906e-05 4.3265507e-05
000120 4c 87 fe b1 e7 94 bb 33 25 f6 b6 b8 7e 25 97 b7
       -7.4077544e-09 8.734951e-08 -8.724284e-05 -1.8018061e-05
000130 21 e0 39 b4 39 9e 77 b4 92 6f 73 b6 52 3f 9b 38
       -1.7311005e-07 -2.3061229e-07 -3.6274764e-06 7.40277e-05
000140 8f 6d b5 b6 ce f3 41 39 64 cf b7 35 9b 0a 5c 38
       -5.4069747e-06 0.00018496739 1.3694921e-06 5.2461965e-05
000150 f2 92 6e 2d 85 1e cd ad bf 0d 4a b8 df a9 1a 39
       1.3561362e-11 -2.3319355e-11 -4.8173355e-05 0.00014749866
000160 40 ae fb b8 8d 66 05 b7 6b 70 a2 b7 74 06 49 37
       -0.00012001069 -7.951295e-06 -1.9364254e-05 1.1982036e-05
000170 2b 9b e2 b7 a0 9c 93 b8 05 cb 25 b9 19 83 33 38
       -2.7013555e-05 -7.03868e-05 -0.00015811257 4.279902e-05
000180 d5 b5 05 ba 02 d0 87 b9 13 a2 25 b7 79 76 1d 38
       -0.00051006424 -0.00025904184 -9.872502e-06 3.7542053e-05
000190 12 f1 c9 b7 c5 8c cd b6 35 26 2a 33 74 a9 1a 33
       -2.4073324e-05 -6.125864e-06 3.961596e-08 3.6010036e-08
0001a0 ad 54 90 b6 22 44 9d b6 a2 c9 7e 34 6c e6 cd 34
       -4.301392e-06 -4.6868963e-06 2.3728947e-07 3.835188e-07
0001b0 f9 28 4e 2e a7 60 96 2d 52 26 08 36 41 4d a0 37
       4.6875368e-11 1.7095948e-11 2.0287885e-06 1.910946e-05
0001c0 d5 f1 4d b9 2f 26 40 b8 ed f9 3d 37 ea 3a c0 37
       -0.00019640413 -4.581193e-05 1.1323468e-05 2.2915618e-05
0001d0 e9 a5 e5 b7 a8 77 7d b8 eb 7a 7f b9 4d 3f ca b8
       -2.7376185e-05 -6.043134e-05 -0.00024364486 -9.643901e-05
0001e0 ef 59 26 b6 78 ec 85 b6 8f 0e 6d b6 67 91 2c b7
       -2.4788276e-06 -3.9912375e-06 -3.5324226e-06 -1.0285853e-05
0001f0 c5 09 43 36 6e 6e 44 36 22 cf 2b 37 38 f4 24 37
       2.906295e-06 2.9270554e-06 1.0240621e-05 9.832023e-06
000200 58 25 cf b3 66 f2 62 36 d0 18 87 b7 89 dc f4 b6
       -9.6459814e-08 3.3817719e-06 -1.6104808e-05 -7.2974403e-06
000210 78 35 f7 b5 9f fd 42 b7 ab 55 e8 b8 56 a4 96 b8
       -1.8418496e-06 -1.1622352e-05 -0.00011078579 -7.183167e-05
000220 6d e6 58 b8 6f 22 1c 35 6d 4d 63 b5 e9 c8 a8 b5
       -5.1713014e-05 5.8164636e-07 -8.467676e-07 -1.2575448e-06
000230 d5 e5 4a 2f 39 b5 13 2e c3 2b 08 36 83 b7 6e 37
       1.8453446e-10 3.358489e-11 2.0291052e-06 1.4228633e-05
000240 24 87 8b b3 09 7b ad b3 0a c6 84 b5 b9 91 e7 b5
       -6.497274e-08 -8.07832e-08 -9.892403e-07 -1.7253252e-06
000250 91 0c 0a b9 4b 0c 50 b7 75 80 23 34 b8 3b ea 35
       -0.00013165387 -1.2400628e-05 1.522729e-07 1.7451739e-06
000260 13 cf d3 b7 da d5 0c 34 51 b5 44 34 b7 b2 da 35
       -2.5249587e-05 1.3116315e-07 1.8319885e-07 1.6294279e-06
000270 f5 54 f6 b6 b8 37 81 b5 fa dd b5 b8 19 84 e6 b6
       -7.3412616e-06 -9.627465e-07 -8.672099e-05 -6.8699123e-06
000280 6d 47 7f 36 10 11 d5 36 31 ee 28 b7 32 ad f3 b6
       3.8039536e-06 6.349881e-06 -1.0069039e-05 -7.262127e-06
000290 03 5f eb b7 68 d4 50 b7 bd f1 cb b6 b2 5a 95 36
       -2.8058426e-05 -1.2447221e-05 -6.0780135e-06 4.4511044e-06
0002a0 a0 05 c5 b3 52 c3 03 34 0b 5b 11 b9 05 c4 36 b8
       -9.1745505e-08 1.2271383e-07 -0.00013862194 -4.357474e-05
0002b0 da a8 ae b7 86 b1 91 38 a9 b4 3e 35 70 f6 5f 35
       -2.0821044e-05 6.947205e-05 7.104341e-07 8.343259e-07
0002c0 2e 2e 5e b8 d7 54 63 b7 b9 09 13 b8 d6 c9 65 38
       -5.2971933e-05 -1.3550008e-05 -3.5056586e-05 5.478583e-05
0002d0 9b 6b 0c 35 60 4a 6c 35 df 34 89 b8 76 6f a6 38
       5.231065e-07 8.802508e-07 -6.542517e-05 7.936258e-05
0002e0 b8 61 fd b2 21 51 0c b3 ee fb b3 b5 25 61 20 b6
       -2.9497514e-08 -3.2670076e-08 -1.340986e-06 -2.3898403e-06
0002f0 6c 10 ee b5 96 7a 55 b6 51 2e 60 38 de 96 65 39
       -1.7737161e-06 -3.1810828e-06 5.3448897e-05 0.00021895344
000300 5c aa c6 33 b2 77 c9 33 de c8 25 36 17 f7 45 36
       9.251082e-08 9.381564e-08 2.4703836e-06 2.9499113e-06
000310 8b e3 81 34 dd d9 90 34 09 b8 18 b6 d1 fd 39 b7
       2.4193682e-07 2.6980607e-07 -2.2756888e-06 -1.10859555e-05
000320 71 b6 7c b7 55 24 73 b6 54 2c 8c b3 bb 8f 44 b3
       -1.5062848e-05 -3.623097e-06 -6.527321e-08 -4.576553e-08
000330 a7 aa 8b b4 36 58 37 b5 fe 1e 18 b5 53 1a 94 b5
       -2.6014933e-07 -6.8301176e-07 -5.666951e-07 -1.1034521e-06
000340 dd 93 ba b4 c7 af 24 b5 52 08 89 37 28 42 7c 38
       -3.4752784e-07 -6.135055e-07 1.6335547e-05 6.0143095e-05
000350 90 62 08 b5 91 a5 4c b5 34 b6 bc b2 fd 58 70 33
       -5.0807375e-07 -7.6236853e-07 -2.1968937e-08 5.596029e-08
000360 04 35 2f 2e ab 96 82 2d af ff d1 b8 83 2c d5 b7
       3.983748e-11 1.4846199e-11 -0.000100135214 -2.5412306e-05
000370 24 e1 d2 37 d1 b5 d1 37 18 9e 74 35 bd 14 b0 b5
       2.513879e-05 2.4999406e-05 9.112714e-07 -1.3119057e-06
000380 e1 4a 74 b8 d1 14 13 38 07 1c 17 b8 1f 13 db b7
       -5.824387e-05 3.5066918e-05 -3.6027308e-05 -2.6115738e-05
000390 39 3a ea b7 91 77 3e b5 74 dd f4 b7 84 a8 1e b6
       -2.7922086e-05 -7.095451e-07 -2.9190189e-05 -2.3641924e-06
0003a0 ac 45 d5 2d 9c 16 a9 af f3 76 ce b7 e2 f1 5c b7
       2.4246237e-11 -3.0756986e-10 -2.4612504e-05 -1.316934e-05
0003b0 d1 94 2f 36 dc ea 65 36 43 ba be b4 ac c7 ff b4
       2.6163655e-06 3.4260365e-06 -3.552578e-07 -4.7642732e-07
0003c0 44 5d 0e b5 6e c9 bd b6 57 8e 17 b9 99 43 a6 b8
       -5.303484e-07 -5.6560884e-06 -0.00014453508 -7.928088e-05
0003d0 27 a3 36 38 8a c1 c8 38 92 36 1f b8 23 3a 47 b7
       4.354413e-05 9.5727926e-05 -3.7959377e-05 -1.187486e-05
0003e0 42 c6 17 30 5f 11 84 2f e0 18 9c b7 d0 b6 88 36
       5.521522e-10 2.4023003e-10 -1.8608232e-05 4.074398e-06
0003f0 64 9e 46 31 63 fa 7f 31 08 71 9b b4 d3 e5 c1 b5
       2.8902827e-09 3.7249712e-09 -2.895324e-07 -1.4446508e-06

exp_avg_sq f4 [2800, 2]
000000 15 ba 0e 36 3a 9c 02 36 b2 df 3d 35 0c 5c a9 35
       2.1267963e-06 1.9462445e-06 7.0733506e-07 1.261827e-06
000010 1c b2 6f 37 a7 59 5b 37 a6 3b 22 35 0a 86 11 35
       1.4286979e-05 1.3074291e-05 6.04365e-07 5.421176e-07
000020 2f a4 83 3a ce 2f 73 3a 63 4d c0 3a 84 f4 ae 3a
       0.0010043437 0.0009276838 0.00146715 0.0013348018
000030 bc fb 1d 39 ea 14 0f 39 67 53 56 39 a0 24 46 39
       0.00015066465 0.00013645334 0.000204397 0.00018896395
000040 4d 40 54 36 32 f6 46 36 cb ab 00 39 3e 19 ee 38
       3.162789e-06 2.9647604e-06 0.00012271029 0.00011353426
000050 a8 0d 5a 36 99 fc 46 36 6f 9d 9d 3b d1 0a 93 3b
       3.249248e-06 2.965133e-06 0.0048100273 0.0044873734
000060 1a f3 b3 3a 80 0f a6 3a ac fe 3d 3a c9 30 2e 3a
       0.0013729066 0.0012669414 0.0007247727 0.0006644843
000070 1b bc 7a 38 24 b9 64 38 14 19 ce 3a 4e 96 bb 3a
       5.977983e-05 5.453186e-05 0.0015724027 0.0014311762
000080 2a 75 24 37 98 1c 22 37 64 03 e1 34 42 c9 ce 34
       9.802441e-06 9.66261e-06 4.1911983e-07 3.8516924e-07
000090 6a 5a 1c 36 f8 df 09 36 6d 5c 77 3a a1 a3 6b 3a
       2.329844e-06 2.0544958e-06 0.0009436075 0.0008988921
0000a0 1f bc 88 39 53 46 7c 39 95 fd 9a 36 37 16 93 36
       0.00026080103 0.0002405879 4.6190785e-06 4.3835275e-06
0000b0 13 4f 93 3a bb 2c 87 3a 6a 99 39 38 09 7b 27 38
       0.0011238776 0.0010313013 4.4250315e-05 3.9930488e-05
0000c0 03 c6 21 36 ad 20 10 36 11 49 a8 34 e2 02 9f 34
       2.4106128e-06 2.1476692e-06 3.13456e-07 2.9618155e-07
0000d0 c0 59 8f 37 a0 1c 80 37 a6 aa b5 37 82 88 aa 37
       1.7088722e-05 1.5272119e-05 2.1656346e-05 2.0329146e-05
0000e0 35 4e e8 3a c9 e8 d2 3a 27 bb cd 3a 30 55 be 3a
       0.0017723503 0.0016091104 0.0015696035 0.0014521237
0000f0 24 d5 f2 35 84 84 d9 35 cc 4d b0 39 1d 17 af 39
       1.8092437e-06 1.6206327e-06 0.000336273 0.00033395822
000100 f1 c7 c2 39 a1 dc c0 39 73 8f e3 36 1e 1e d0 36
       0.0003715153 0.00036785475 6.781827e-06 6.202389e-06
000110 4d 1d 80 39 1d f8 67 39 ad 27 35 38 90 bf 2d 38
       0.00024435893 0.00022122306 4.3190714e-05 4.142482e-05
000120 d7 8d 56 32 65 56 51 32 c2 5d e0 38 c6 35 cb 38
       1.248869e-08 1.2185045e-08 0.00010698616 9.6898104e-05
000130 16 b3 14 37 5b eb 07 37 12 68 db 38 c0 34 cc 38
       8.863184e-06 8.101425e-06 0.000104621184 9.7373035e-05
000140 17 4b 3a 3a f9 88 2b 3a 8b c9 3d 38 3b 43 2e 38
       0.0007106526 0.0006543543 4.5248813e-05 4.1547446e-05
000150 d9 7c 17 39 8d 08 09 39 4c 5e 6a 3a f5 70 5b 3a
       0.00014446992 0.00013068524 0.0008940443 0.0008371019
000160 54 d2 0e 3a eb 90 03 3a ad 93 01 3a e0 7c ee 39
       0.00054482115 0.0005018848 0.0004942965 0.00045487937
000170 23 a4 53 38 31 4a 3f 38 96 93 27 3a 6f e8 18 3a
       5.0459184e-05 4.5607045e-05 0.00063925365 0.0005832975
000180 05 b6 95 3b 5e 70 89 3b 26 83 28 38 79 0d 19 38
       0.0045688176 0.0041943034 4.0176463e-05 3.649059e-05
000190 9d 49 28 39 fc 1f 1a 39 ee 5a cc 37 8c fd be 37
       0.00016049152 0.000146985 2.4361038e-05 2.2767832e-05
0001a0 44 c7 b9 3a fb da ad 3a f4 3a d6 32 c7 e5 bf 32
       0.0014173766 0.0013264114 2.4939688e-08 2.2339817e-08
0001b0 2b 22 15 37 05 24 08 37 40 a9 30 38 46 94 23 38
       8.889047e-06 8.114618e-06 4.2119296e-05 3.900032e-05
0001c0 9b 27 63 3a 04 7e 50 3a 51 fc 6a 37 07 9e 4c 37
       0.00086652645 0.0007953348 1.4006234e-05 1.2196141e-05
0001d0 d9 8c d0 36 7e 5b bb 36 aa fd 6e 3a f4 dc 59 3a
       6.21528e-06 5.5836854e-06 0.00091167784 0.00083108176
0001e0 f4 e9 b8 36 0b 05 a9 36 65 66 10 36 c7 fc 0a 36
       5.510863e-06 5.0371796e-06 2.1517274e-06 2.0710738e-06
0001f0 f7 71 c8 38 b6 86 b1 38 52 0c 16 38 42 39 24 38
       9.557971e-05 8.4651096e-05 3.577426e-05 3.9153972e-05
000200 9f a6 10 39 7a ef 05 39 a5 2d 16 3a bd e6 08 3a
       0.00013794981 0.0001277308 0.00057288475 0.0005222371
000210 a8 a8 fe 38 69 e5 e8 38 79 b4 26 3a fb df 19 3a
       0.000121430785 0.00011105353 0.000635929 0.00058698625
000220 07 95 bf 3a ac 0d af 3a 60 23 88 39 9a 4e 79 39
       0.0014616557 0.0013355515 0.00025966298 0.00023775772
000230 16 f0 c4 34 8e 59 b3 34 0c a0 19 34 b8 3e 27 34
       3.668253e-07 3.3406508e-07 1.430746e-07 1.5575904e-07
000240 85 9b 68 34 a0 b7 51 34 89 76 4b 3a fd 10 3b 3a
       2.1663261e-07 1.9531444e-07 0.00077614986 0.00071360153
000250 10 83 37 3b 6f e4 28 3b e7 e9 42 35 aa 7d 2d 35
       0.0028001703 0.0025770923 7.2611004e-07 6.463039e-07
000260 02 70 e5 37 75 ed ce 37 48 9e 23 3a 8e 83 14 3a
       2.7351085e-05 2.4667688e-05 0.0006241542 0.0005665355
000270 4e 36 d3 38 ad 17 c2 38 f3 52 23 39 cf 0a 15 39
       0.00010071379 9.255051e-05 0.00015575792 0.00014213774
000280 a8 09 94 35 4d ea 88 35 0b 7b e7 38 8c f9 d4 38
       1.102967e-06 1.020098e-06 0.00011037857 0.000101554295
000290 17 eb b8 3a f6 da a9 3a 8f a5 f4 38 33 61 de 38
       0.0014108148 0.0012958932 0.00011665664 0.0001060389
0002a0 f9 c1 29 33 6b 85 1a 33 58 aa 6c 39 c7 db 56 39
       3.9524796e-08 3.5977262e-08 0.00022570172 0.00020490504
0002b0 f0 04 53 39 cf bf 41 39 39 21 90 37 a0 73 89 37
       0.00020124367 0.00018477369 1.7181608e-05 1.6385515e-05
0002c0 a8 9d 0d 38 6f 69 00 38 64 4b 38 39 5a 61 2c 39
       3.376385e-05 3.061577e-05 0.00017575693 0.00016439465
0002d0 6a 88 bd 32 8c 79 a8 32 bc ec 14 3a bc ed 09 3a
       2.206453e-08 1.9613047e-08 0.0005681028 0.00052615604
0002e0 dd 11 57 34 fe 3d 55 34 40 f7 d6 34 55 ca c2 34
       2.0029934e-07 1.9859723e-07 4.0040504e-07 3.6282532e-07
0002f0 f8 02 3f 39 2b dc 30 39 93 5f 99 39 6c 6f 88 39
       0.00018216285 0.00016866687 0.00029253642 0.00026022957
000300 eb 2d 9f 36 fe 3a 9b 36 d9 19 88 38 e0 89 7a 38
       4.743915e-06 4.6262276e-06 6.4898e-05 5.973305e-05
000310 fb b2 bc 38 bc 8e b0 38 61 45 f7 34 c4 ba df 34
       8.997876e-05 8.41892e-05 4.6057815e-07 4.1672877e-07
000320 d0 d3 4f 3a be e6 3e 3a 16 bb f9 33 16 16 10 34
       0.0007927986 0.0007282308 1.1628997e-07 1.341908e-07
000330 0b 15 78 39 db c6 60 39 c0 cc 31 39 d9 ef 21 39
       0.00023658962 0.00021436384 0.0001695631 0.00015443507
000340 33 11 6c 32 b8 30 52 32 e9 4a e2 37 d3 61 d3 37
       1.3740919e-08 1.2234686e-08 2.6976182e-05 2.5198713e-05
000350 2e a7 9f 33 87 3f 91 33 f9 57 ad 31 6a 9b 9a 31
       7.434424e-08 6.763644e-08 5.044964e-09 4.4996584e-09
000360 0f 6e 0c 3b 71 cf 00 3b 37 46 0a 39 87 69 f8 38
       0.0021427905 0.0019654895 0.00013186863 0.000118452175
000370 f8 70 90 38 c1 48 85 38 7a ed 4b 36 dc ef 37 36
       6.887497e-05 6.355486e-05 3.0387587e-06 2.7408742e-06
000380 1b fa d6 39 1e 4f c3 39 18 b9 5b 3a b9 c9 47 3a
       0.00041003604 0.00037252245 0.0008381768 0.00076213066
000390 d1 ed c0 3a 7e 1b b0 3a ba 04 2e 37 93 04 1e 37
       0.0014719312 0.0013435928 1.0372309e-05 9.418599e-06
0003a0 93 05 16 37 68 8f fd 36 a1 64 56 3a e3 6d 42 3a
       8.941995e-06 7.5566822e-06 0.0008178447 0.0007416887
0003b0 2d cd 99 38 a0 4c 8f 38 98 6c 3f 33 1c 5a 2e 33
       7.3338255e-05 6.833044e-05 4.456942e-08 4.0594486e-08
0003c0 e0 32 58 39 5e 00 48 39 36 2e cc 39 9f 0b b9 39
       0.00020618318 0.00019073623 0.00038944342 0.00035294608
0003d0 04 c6 1c 36 6c db 12 36 78 af 90 3a 12 3f 84 3a
       2.3361072e-06 2.1883416e-06 0.0011038622 0.0010089597
0003e0 22 04 c0 34 ba 0c be 34 4b 95 85 39 cd fe 76 39
       3.5765794e-07 3.5399518e-07 0.0002547897 0.00023555309
0003f0 da 53 60 39 35 0d 5e 39 05 bb 21 35 08 d2 12 35
       0.00021393542 0.0002117649 6.0249323e-07 5.4694874e-07
