lightning_logs/version_67/checkpoints/epoch=10-step=4268.ckpt (torch, 287550 bytes, 15 tensors)

lstm.weight_ih_l0 f4 [3600, 2]
-0.10050774 -0.10042351 0.033084285 0.08110964 -0.0014074456 0.04072252 -0.08576767 -0.061957475
-0.047265816 -0.057725355 -0.08271471 -0.04891185 0.031145817 0.02193894 -0.1211702 -0.05310713
-0.045998573 0.09313546 0.035671763 0.018810512 -0.029444914 -0.061785065 -0.07778405 -0.09179836
-0.0020744917 0.04281361 0.059598375 0.066196606 -0.04155059 -0.02458841 -0.03791537 -0.04039536
0.040119074 0.016795598 0.004359959 0.044772074 0.012779161 0.02505427 -0.08072966 -0.095004074
0.086287305 0.024219692 0.059292383 -0.003726584 0.011135742 0.022662083 0.020957561 0.030996667
0.054267615 0.046149872 0.045872677 0.07059476 -0.11303122 -0.08049588 0.073867634 0.0330645
0.014058659 0.022116464 -0.05964731 -0.04164214 0.008740405 0.04535674 -0.068844914 -0.0897983
0.027513593 0.01285768 0.021817552 0.055652954 0.021281583 0.020620834 -0.024735833 0.07075708
0.02980593 0.013534454 -0.07705541 -0.05842504 -0.065775834 -0.028652336 0.060432166 -0.015060867
-0.06895194 -0.017853837 0.059582546 0.07412514 -0.108894944 -0.0472917 -0.024135899 0.06446631
0.047041412 0.0108007295 0.038344137 0.010462047 0.04937767 0.086257435 0.06610058 0.051663958
-0.056877155 -0.051792786 0.02739606 0.020573916 0.036031496 0.008128503 -0.08807751 -0.041597705
0.042414326 0.02630578 0.053198844 0.06952516 -0.09064257 -0.1431744 0.014438189 0.024206758
0.022519752 0.036857188 0.02817917 0.009792392 0.04525284 0.014855296 0.050791387 0.058007073
-0.15617086 -0.056717057 -0.06573453 -0.040635087 -0.039755166 -0.047424152 0.030025274 0.04903549
0.044332005 0.054894105 0.053788636 0.053894956 -0.033137664 -0.0518308 0.052065052 -0.0046275677
0.01871422 0.051370237 0.008320776 0.02599822 0.030093195 0.04004365 0.027667603 0.03210386
0.022623466 0.046706516 -0.11221563 -0.10353214 0.03615295 0.020011 0.04235406 0.035232313
-0.030783826 -0.01605929 0.0019088926 0.035471015 -0.029163307 -0.060901545 0.026489157 0.020658258
-0.28500417 -0.26390764 -0.07359235 -0.05916578 -0.27493447 -0.2572336 -0.11489888 -0.094874114
0.015642768 0.01921296 0.05151326 0.07075025 -0.08398681 -0.12440887 -0.07891362 -0.066588454
-0.02223392 -0.06797599 -0.03783786 -0.07596075 0.035511583 0.07268351 0.024500154 0.025168419
0.14472449 0.14095794 -0.020430451 0.06122728 -0.03535276 -0.07434523 0.056326035 0.07074271
0.03242642 0.01851999 -0.008830845 -0.06232935 0.0414996 0.035711706 -0.005759174 0.04712981
-0.07627085 -0.07536793 0.02704069 0.011949682 -0.043139778 -0.025895314 0.044296145 0.04228025
-0.020293167 -0.06528137 0.05734077 0.07755934 -0.033844307 -0.043094248 -0.05303847 -0.06699401
0.042270627 0.052105945 0.035235923 0.017612746 0.054458275 0.03866989 0.0026313572 0.0329891
-0.100815274 -0.043175686 0.032681625 0.021613624 0.00024512975 0.043248195 0.013936746 0.00042901997
0.04872128 -0.0027823234 -0.043200802 -0.042152975 0.062516965 -0.0009054843 0.05265912 0.0598118
0.04617441 -0.00347257 -0.0038698425 0.05093655 0.010215478 0.05441549 0.0239382 0.055435106
-0.09550853 -0.07180271 0.034108672 0.056291405 0.052943084 0.048794445 0.0037008722 0.04296544
00000000: 01d7 cdbd d7aa cdbd 6383 073d d01c a63d
00000010: 0a7a b8ba a8cc 263d f6a6 afbd 1fc7 7dbd
00000020: cd99 41bd 6c71 6cbd 5466 a9bd cb57 48bd
00000030: 8325 ff3c 4bb9 b33c 1528 f8bd dd86 59bd
00000040: 0069 3cbd cebd be3d 8e1c 123d 8118 9a3c
00000050: 7636 f1bc 5612 7dbd 3e4d 9fbd c700 bcbd
00000060: 32f4 07bb 535d 2f3d 6d1d 743d 1692 873d
00000070: f430 2abd a26d c9bc 264d 1bbd 9b75 25bd
00000080: e653 243d ec96 893c fddd 8e3b ec62 373d
00000090: b05f 513c 9d3e cd3c 9855 a5bd 7f91 c2bd
000000a0: 66b7 b03d 6068 c63c 92dc 723d b439 74bb
000000b0: b072 363c d5a5 b93c 31af ab3c b9ec fd3c
000000c0: b847 5e3d a607 3d3d fde4 3b3d fc93 903d
000000d0: ea7c e7bd 06db a4bd ea47 973d a46e 073d
000000e0: 4a56 663c 962d b53c bd50 74bd f390 2abd
000000f0: ea33 0f3c fdc7 393d 90fe 8cbd 2ce8 b7bd
00000100: 3064 e13c 05a9 523c b9ba b23c 5af4 633d
00000110: b756 ae3c 06ed a83c cda2 cabc 17e9 903d
00000120: 912b f43c 9dbf 5d3c 3acf 9dbd 184f 6fbd
00000130: 7bb5 86bd 4eb8 eabc b887 773d dbc1 76bc
00000140: ad36 8dbd 3642 92bc d40c 743d ecce 973d
00000150: 5004 dfbd f1b4 41bd a6b8 c5bc ea06 843d
00000160: 7fae 403d 8bf5 303c be0e 1d3d 0169 2b3c
00000170: 3d40 4a3d bda7 b03d be5f 873d 969d 533d
00000180: 05f8 68bd ac24 54bd b46d e03c a18a a83c
00000190: c395 133d 6a2d 053c fb61 b4bd 5b62 2abd
000001a0: a5ba 2d3d 387f d73c 08e7 593d 3563 8e3d
000001b0: d0a2 b9bd 4f9c 12be 278e 6c3c 404d c63c
000001c0: 587b b83c 90f7 163d 01d8 e63c 4570 203c
000001d0: 0b5b 393d a163 733c a10a 503d d398 6d3d
000001e0: 41eb 1fbe 2550 68bd d39f 86bd fa70 26bd
000001f0: 50d6 22bd d43f 42bd 90f7 f53c 70d9 483d
00000200: 7a95 353d a4d8 603d 7951 5c3d f5c0 5c3d
00000210: 5cbb 07bd 884c 54bd 2a42 553d daa2 97bb
00000220: 904e 993c 9969 523d dd53 083c 38fa d43c
00000230: 0186 f63c cf04 243d 2ba7 e23c 567f 033d
00000240: d954 b93c 554f 3f3d 4fd1 e5bd a908 d4bd
00000250: 1e15 143d 1cee a33c 737b 2d3d c24f 103d
00000260: 5d2e fcbc c68e 83bc cf33 fa3a 0e4a 113d
00000270: e3e7 eebc e673 79bd caff d83c 823b a93c
00000280: 11ec 91be e71e 87be 96b7 96bd d157 72bd
00000290: 36c4 8cbe 1fb4 83be 1b50 ebbd 5c4d c2bd
000002a0: 4325 803c 7f64 9d3c 91ff 523d 82e5 903d
000002b0: 4701 acbd 14ca febd 779d a1bd 875f 88bd
000002c0: e923 b6bc ff36 8bbd dffb 1abd 4f91 9bbd
000002d0: 9874 113d 18db 943d 8cb4 c83c 002e ce3c
000002e0: a832 143e 4757 103e c35d a7bc 75c9 7a3d
000002f0: 0ece 10bd 5042 98bd 21b6 663d 8ee1 903d
00000300: 91d1 043d 3cb7 973c 40af 10bc 0f4d 7fbd
00000310: 7cfb 293d 7046 123d 74b7 bcbb 300b 413d
00000320: e433 9cbd 805a 9abd 7084 dd3c 99c8 433c
00000330: 56b3 30bd 6922 d4bc e06f 353d 0e2e 2d3d
00000340: db3d a6bc 3db2 85bd 28de 6a3d 6ed7 9e3d
00000350: 54a0 0abd 9883 30bd de3e 59bd 2834 89bd
00000360: f723 2d3d 0b6d 553d 8b53 103d 9b48 903c
00000370: a40f 5f3d 5264 1e3d d972 2c3b 941f 073d
00000380: 3d78 cebd fdd8 30bd 2bdd 053d 0e0f b13c
00000390: c284 8039 0525 313d f356 643c 16ee e039
000003a0: f78f 473d a457 36bb 53f3 30bd 99a8 2cbd
000003b0: e508 803d 065e 6dba 17b1 573d 38fd 743d
000003c0: 6121 3d3d 0f94 63bb 2f9d 7dbb d8a2 503d
000003d0: d25e 273c c7e2 5e3d 0b1a c43c ec0f 633d
000003e0: fa99 c3bd 4d0d 93bd 89b5 0b3d d191 663d
000003f0: d9da 583d afdc 473d 558a 723b 87fc 2f3d

lstm.weight_hh_l0 f4 [3600, 2]
0.3597201 0.3544567 0.0429339 0.045554075 0.06927769 0.080976605 0.24637923 0.26378816
-0.054085962 -0.06861107 -0.09387424 -0.119256 0.13092001 0.19823566 0.25678694 0.24021448
0.10520358 0.13528192 0.10861381 0.10145261 -0.052612845 -0.03876775 0.25774214 0.2571546
0.06769494 0.078473136 0.03520658 0.08951181 0.109438024 0.10341025 -0.060518987 -0.082490265
0.019236755 0.07954097 0.107763104 0.07244591 0.060629293 0.05425522 0.27619857 0.21935424
0.02213978 0.059085622 0.09646381 0.11324939 0.06326445 0.07001621 0.069345646 0.08768635
0.047188085 0.02537703 0.23009375 0.2550818 0.33200514 0.30868348 0.072793156 0.06226079
0.07299706 0.08522677 -0.040029533 -0.06738989 0.04265941 0.045344636 0.21142766 0.32288355
0.08970883 0.07725362 0.06477705 0.083879225 0.079983324 0.107248805 0.14442688 0.12738375
0.07769836 0.047672383 0.21885239 0.21710466 -0.042278282 -0.012309205 0.08791544 0.11871972
-0.017843084 -0.06553447 0.03140388 0.049713485 0.23909903 0.26760215 0.101060554 0.11635566
0.067377195 0.044362985 0.08608776 0.093771234 0.03694371 0.06338782 0.046556644 0.09485242
0.0018706289 -0.057526685 0.05560271 0.03020766 0.055492822 0.040914193 0.24318035 0.2276485
0.048135974 0.06815811 0.10908143 0.07400761 0.37165087 0.3940725 0.060407396 0.051755156
0.03932821 0.022649715 0.09186268 0.037184935 0.02260979 0.059167027 0.046079405 0.05258175
0.28259146 0.27091193 -0.0735156 -0.03934962 -0.00577094 -0.028508341 0.040013775 0.038278095
0.08253641 0.08639653 0.06444991 0.0723815 -0.040969506 -0.05629361 0.074635096 0.07367629
0.08088687 0.086570196 0.060191188 0.0799463 0.09324197 0.0716674 0.032393575 0.036144156
0.060016703 0.035311878 0.2891466 0.2645561 0.09332854 0.087347835 0.08438887 0.09404196
-0.03711241 -0.08028917 0.062228132 0.10123919 -0.058771897 -0.09255625 0.078564376 0.076288626
-0.11518532 -0.08981222 0.24047449 0.19582757 -0.17894684 -0.14883524 0.382584 0.36656028
0.07878063 0.078199014 0.041920226 0.091254175 0.334498 0.34498656 0.21446683 0.21565194
-0.051818945 -0.06860399 -0.043403465 -0.05662114 0.05318965 0.053492572 0.09006716 0.09306674
0.074226074 0.09345085 0.08186203 0.11950059 -0.03827158 -0.027116248 0.067040615 0.070273586
0.10323266 0.08564869 0.18234909 0.1912538 0.055543385 0.061144 0.082888775 0.068330355
0.25137648 0.23368132 0.06804052 0.05144958 -0.06624065 -0.0353592 0.07240476 0.06794016
-0.068964876 -0.02687114 0.050988294 0.064586334 -0.05648956 -0.064337425 -0.020661395 -0.0718714
0.07655336 0.12107224 0.042264983 0.042987283 0.023180595 0.03638032 0.07900805 0.07142067
0.21862967 0.29851943 0.07292807 0.09785643 0.11237863 0.1373618 0.10434289 0.11178246
0.0479622 0.05953419 -0.03952362 -0.036065973 0.111440696 0.058146033 0.06660085 0.05022274
0.08532369 0.12917992 0.12283582 0.119019486 0.15738705 0.15757944 0.11458377 0.06325295
0.22326498 0.23774695 0.10293148 0.07639878 0.07967301 0.07024873 0.1072608 0.10770346
00000000: 3c2d b83e 597b b53e 75db 2f3d e996 3a3d
00000010: 76e1 8d3d 10d7 a53d d64a 7c3e 3e0f 873e
00000020: 3e89 5dbd f683 8cbd 2341 c0bd 7d3c f4bd
00000030: e50f 063e 4afe 4a3e 9479 833e c9fa 753e
00000040: f974 d73d 5887 0a3e eb70 de3d 63c6 cf3d
00000050: 9180 57bd efca 1ebd c7f6 833e c5a9 833e
00000060: a5a3 8a3d 86b6 a03d c634 103d f851 b73d
00000070: 0b21 e03d c1c8 d33d c2e2 77bd a8f0 a8bd
00000080: 6696 9d3c 60e6 a23d e7b2 dc3d 855e 943d
00000090: 6c56 783d b93a 5e3d e669 8d3e 669e 603e
000000a0: 7c5e b53c c403 723d d18e c53d 4cef e73d
000000b0: cb90 813d a964 8f3d 1705 8e3d e794 b33d
000000c0: 4b48 413d 7de3 cf3c b29d 6b3e 159a 823e
000000d0: 94fc a93e c30b 9e3e 9414 953d 2c05 7f3d
000000e0: 7c7f 953d 5f8b ae3d 02f6 23bd b603 8abd
000000f0: a2bb 2e3d 4cbb 393d 7e80 583e fe50 a53e
00000100: 43b9 b73d 2537 9e3d d4a9 843d dfc8 ab3d
00000110: 4cce a33d 43a5 db3d a4e4 133e e370 023e
00000120: 5120 9f3d 1e44 433d d71a 603e af50 5e3e
00000130: fe2b 2dbd 8cac 49bc 030d b43d 5323 f33d
00000140: a92b 92bc f036 86bd 5ba1 003d 5ea0 4b3d
00000150: 60d6 743e 2603 893e d6f8 ce3d e04b ee3d
00000160: 0efd 893d f6b5 353d c84e b03d 220b c03d
00000170: 4a52 173d 79d1 813d 2eb2 3e3d fc41 c23d
00000180: e42f f53a 1aa1 6bbd abbf 633d 0e76 f73c
00000190: 714c 633d a495 273d 4504 793e b01c 693e
000001a0: 3a2a 453d 7b96 8b3d 1666 df3d 4d91 973d
000001b0: 0649 be3e dfc3 c93e bf6d 773d 37fd 533d
000001c0: 9e16 213d e58b b93c 8022 bc3d 3b4f 183d
000001d0: 2b38 b93c 2059 723d c2bd 3c3d f65f 573d
000001e0: d4af 903e f8b4 8a3e 598f 96bd 112d 21bd
000001f0: 271a bdbb 538a e9bc 7ce5 233d 7ec9 1c3d
00000200: d908 a93d aaf0 b03d 50fe 833d c03c 943d
00000210: a4cf 27bd 2194 66bd 49da 983d 98e3 963d
00000220: 04a8 a53d b74b b13d 098b 763d e3ba a33d
00000230: a5f5 be3d 5cc6 923d 20af 043d e50b 143d
00000240: 13d4 753d 30a3 103d 060b 943e e673 873e
00000250: 0923 bf3d 6ce3 b23d 12d4 ac3d 1299 c03d
00000260: 2f03 18bd a66e a4bd ede2 7e3d 7e56 cf3d
00000270: cdba 70bd 228e bdbd 5ce6 a03d 363d 9c3d
00000280: 48e6 ebbd 78ef b7bd f23e 763e 0687 483e
00000290: d73d 37be 4468 18be 0de2 c33e caad bb3e
000002a0: bd57 a13d ce26 a03d 8bb4 2b3d 78e3 ba3d
000002b0: 5243 ab3e 14a2 b03e 319d 5b3e ddd3 5c3e
000002c0: 1a40 54bd 4080 8cbd d5c7 31bd 92eb 67bd
000002d0: 64dd 593d 071b 5b3d 2275 b83d c699 be3d
000002e0: d703 983d 2963 bf3d 48a7 a73d babc f43d
000002f0: a9c2 1cbd e522 debc 974c 893d 99eb 8f3d
00000300: a56b d33d 9568 af3d b8b9 3a3e 09d8 433e
00000310: 7681 633d 2272 7a3d 97c1 a93d c9f0 8b3d
00000320: 6bb4 803e 284a 6f3e d458 8b3d cbbc 523d
00000330: 2ea9 87bd cfd4 10bd f248 943d 3624 8b3d
00000340: 753d 8dbd dd20 dcbc 1ad9 503d d745 843d
00000350: 9961 67bd 57c3 83bd 1642 a9bc 5031 93bd
00000360: 02c8 9c3d b9f4 f73d 0c1e 2d3d 6f13 303d
00000370: 3be5 bd3c 8803 153d f9ce a13d 0045 923d
00000380: 75e0 5f3e 8ad7 983e 505b 953d f468 c83d
00000390: c426 e63d 92a8 0c3e bab1 d53d 34ee e43d
000003a0: 0374 443d 1fda 733d 85e3 21bd eab9 13bd
000003b0: 053b e43d 892a 6e3d 0766 883d 5cb6 4d3d
000003c0: 30be ae3d be47 043e 5991 fb3d 7dc0 f33d
000003d0: 122a 213e 815c 213e e5aa ea3d c38a 813d
000003e0: 939f 643e f073 733e bdcd d23d f776 9c3d
000003f0: 9a2b a33d 91de 8f3d 8dab db3d a293 dc3d

lstm.bias_ih_l0 f4 [3600]
-0.24975866 0.06929876 -0.008203227 -0.2156445 -0.024983307 0.17339681 -0.36143833 -0.23697758
-0.27806193 -0.27609512 -0.08580007 -0.12556753 -0.0056181834 0.08044818 -0.032954358 -0.06374597
-0.006948741 0.015063218 -0.0394653 -0.17466776 0.04126501 -0.26673236 -0.004865802 -0.11193327
-0.00679864 -0.22032431 -0.26678222 0.08215584 -0.0080192 -0.060996063 0.0075813113 -0.17635758
0.045609415 0.06690432 -0.055495463 -0.3427011 -0.008802737 -0.15630683 -0.07790241 -0.10262277
-0.05076324 0.04504021 -0.2984102 -0.15083168 0.039739747 0.00016769506 0.082045324 0.01656872
-0.052163787 0.0453224 0.01955169 -0.23295937 0.006754859 0.06819308 -0.15965387 0.00022430651
0.06366514 0.02141803 0.0103606675 0.0017196573 -0.31323984 -0.071492344 -0.053309172 0.04920506
0.04929531 0.030670268 -0.013476392 -0.048537802 0.04182287 -0.0035368605 0.0020750558 0.032547817
0.040700905 -0.18866223 0.04713419 0.029985161 -0.026412988 -0.051454138 -0.048129402 0.012235821
-0.5656306 -0.17549452 -0.31678653 -0.18580517 -0.046068173 0.008486557 -0.16803624 -0.124487184
-0.059283916 -0.08114192 0.07192413 -0.13533895 0.09392591 -0.1342432 -0.06497197 0.029485
-0.1561395 -0.0066303066 0.08310158 -0.031999532 -0.21625751 -0.010898076 -0.036720596 0.04195822
-0.046217415 0.0193288 -0.045819182 -0.050839894 0.011243057 0.07002175 0.05448745 -0.036307346
-0.21513018 -0.104081936 -0.14972502 -0.07920254 0.0020061885 -0.027257547 0.014764283 0.03374086
-0.04924264 -0.23251492 -0.30025342 -0.0507668 -0.24176727 0.033346638 0.029635403 -0.19699293
0.059050612 -0.005789036 0.05836762 0.048472654 0.051327307 -0.119518645 0.035678204 0.010018864
-0.16851301 -0.04558114 -0.10256651 -0.1574677 -0.026170913 -0.18659946 -0.30711636 0.124087974
0.035574008 -0.0048963423 -0.05421755 -0.04046201 0.005204272 -0.258558 0.04643822 -0.0024518368
-0.035302587 0.55818594 -0.06820381 -0.03421893 -0.022964932 0.06497098 -0.04075076 -0.055344414
0.055581897 -0.16316037 -0.045138046 -0.063842185 -0.025313962 -0.021068165 -0.08269024 -0.027699456
-0.029969752 0.029544132 -0.36148223 -0.18231437 -0.025176682 -0.21504892 -0.006611347 0.68460023
0.06969306 0.0021016828 0.077074 0.040709164 -0.09474301 0.06867769 -0.27678278 -0.10535218
-0.1800556 -0.049410164 0.038175378 -0.03633002 -0.029842932 -0.033747304 -0.19534507 -0.18612623
-0.05175781 -0.06518412 -0.18978181 0.047880236 0.039866444 -0.026527843 -0.2631321 -0.02104564
-0.045292184 0.055890117 -0.07370662 0.02092245 0.031333607 0.0007323667 0.64331645 0.0665536
-0.11416738 -0.0055786455 0.031871334 0.0119226 0.07426657 -0.07711781 -0.18220519 -0.18956475
-0.021003949 0.020518659 -0.022531543 -0.040618453 -0.06531502 0.060113307 -0.016019847 -0.047360793
0.127868 -0.026344443 0.0016078199 0.047280103 -0.020239966 0.049106948 0.014524469 0.07190882
-0.08488355 0.13796845 0.57907206 -0.2493058 -0.36977994 -0.2670459 -0.055771604 0.023006959
-0.14871491 -0.123846434 0.0890824 -0.09734628 0.03420706 0.03497029 0.03989208 0.07317607
0.020140758 0.009608077 -0.014092461 -0.21736374 -0.27573347 0.14005423 -0.19528942 -0.014952579
00000000: bcc0 7fbe 82ec 8d3d d466 06bc e9d1 5cbe
00000010: cba9 ccbc ef8e 313e 720e b9be 40aa 72be
00000020: 225e 8ebe 575c 8dbe f2b7 afbd c694 00be
00000030: bd18 b8bb 04c2 a43d 26fb 06bd 3f8d 82bd
00000040: 44b2 e3bb b7cb 763c 5ea6 21bd 1bdc 32be
00000050: 8005 293d 2591 88be 4e71 9fbb 453d e5bd
00000060: 20c7 debb b29c 61be ae97 88be 5241 a83d
00000070: f662 03bc 02d7 79bd a66c f83b 1597 34be
00000080: f0d0 3a3d 2205 893d 364f 63bd 8576 afbe
00000090: 5b39 10bc e60e 20be 4c8b 9fbd e32b d2bd
000000a0: 1ded 4fbd 157c 383d 39c9 98be 9f73 1abe
000000b0: 25c6 223d 4dd7 2f39 6107 a83d 20bb 873c
000000c0: b2a9 55bd fba3 393d de2a a03c e78c 6ebe
000000d0: dd57 dd3b d0a8 8b3d 4e7c 23be d233 6b39
000000e0: de62 823d dd74 af3c cabf 293c 2066 e13a
000000f0: f960 a0be 946a 92bd b85a 5abd 3f8b 493d
00000100: e1e9 493d 3740 fb3c 16cc 5cbc 93cf 46bd
00000110: 754e 2b3d acca 67bb a9fd 073b dc50 053d
00000120: feb5 263d ac30 41be c80f 413d 71a3 f53c
00000130: 0d60 d8bc 93c1 52bd 5623 45bd c178 483c
00000140: 2bcd 10bf d6b4 33be d831 a2be b643 3ebe
00000150: fbb1 3cbd 330b 0b3c b111 2cbe 23f3 febd
00000160: b1d3 72bd bc2d a6bd f54c 933d 4b96 0abe
00000170: 3a5c c03d 0d77 09be 0610 85bd 878a f13c
00000180: 08e3 1fbe 0b43 d9bb 2931 aa3d f111 03bd
00000190: 9c72 5dbe d88d 32bc 5668 16bd 62dc 2b3d
000001a0: 794e 3dbd 6e57 9e3c e5ac 3bbd 7e3d 50bd
000001b0: cd34 383c 9067 8f3d 3b2e 5f3d 03b7 14bd
000001c0: 164b 5cbe e928 d5bd 8451 19be f134 a2bd
000001d0: 427a 033b 384b dfbc e4e5 713c db33 0a3d
000001e0: a7b2 49bd 6418 6ebe d1ba 99be d9f0 4fbd
000001f0: d791 77be 7c96 083d f2c5 f23c 84b8 49be
00000200: 0edf 713d f4b1 bdbb e312 6f3d 438b 463d
00000210: 953c 523d 31c6 f4bd 4f23 123d 2926 243c
00000220: ad8e 2cbe 4ab3 3abd 640e d2bd 363f 21be
00000230: 6264 d6bc ee13 3fbe 5b3e 9dbe d621 fe3d
00000240: 0db6 113d 7f71 a0bb 3913 5ebd 7ebb 25bd
00000250: 9988 aa3b b761 84be 0136 3e3d ffae 20bb
00000260: 7299 10bd 46e5 0e3f 70ae 8bbd 2629 0cbd
00000270: f420 bcbc 810f 853d 45ea 26bd d3b0 62bd
00000280: d8a9 633d 8313 27be ace2 38bd b1bf 82bd
00000290: 3a5f cfbc 2597 acbc 8059 a9bd f8e9 e2bc
000002a0: 2083 f5bc 8906 f23c 3314 b9be 9eb0 3abe
000002b0: 543f cebc c935 5cbe 00a4 d8bb f641 2f3f
000002c0: 3cbb 8e3d 63bc 093b f9d8 9d3d a7be 263d
000002d0: a008 c2bd e4a6 8c3d 79b6 8dbe e2c2 d7bd
000002e0: 7f60 38be 5062 4abd c95d 1c3d c9ce 14bd
000002f0: 2a79 f4bc 9d3a 0abd 8a08 48be e097 3ebe
00000300: ffff 53bd 407f 85bd 2a56 42be 111e 443d
00000310: ff4a 233d eb50 d9bc 40b9 86be e867 acbc
00000320: 4c84 39bd 09ed 643d 7ff3 96bd 8f65 ab3c
00000330: ab57 003d 4cfc 3f3a 63b0 243f 414d 883d
00000340: 96d0 e9bd 12cd b6bb 848b 023d 0257 433c
00000350: 1219 983d f1ef 9dbd ff93 3abe 431d 42be
00000360: 7910 acbc bf16 a83c 1294 b8bc 895f 26bd
00000370: e2c3 85bd 5f39 763d 0e3c 83bc 64fd 41bd
00000380: d4ef 023e 4dd0 d7bc 7cbd d23a c8a8 413d
00000390: 49ce a5bc 5e24 493d 0af8 6d3c ee44 933d
000003a0: 6dd7 adbd 9a47 0d3e 113e 143f 054a 7fbe
000003b0: cc53 bdbe 3dba 88be c470 64bd 1779 bc3c
000003c0: b948 18be 33a3 fdbd d570 b63d 7d5d c7bd
000003d0: b41c 0c3d 023d 0f3d e165 233d 56dd 953d
000003e0: 3bfe a43c 326b 1d3c 11e4 66bc 9a94 5ebe
000003f0: f02c 8dbe 606a 0f3e f3f9 47be a9fb 74bc

lstm.bias_hh_l0 f4 [3600]
-0.2784617 0.050834548 -0.06339792 -0.18854131 -0.040855985 0.14023252 -0.36501357 -0.17384988
-0.2753795 -0.23307022 -0.030227957 -0.18625179 0.03367006 0.053586245 -0.0028774405 -0.02947551
-0.019736003 0.034746736 0.017069483 -0.16739741 0.061332177 -0.2565522 -0.022505306 -0.07586446
0.031904325 -0.25913656 -0.26525563 0.05753486 0.011726277 -0.062056806 0.024274915 -0.13447316
0.037772916 0.07192831 -0.032713726 -0.32813287 -0.02929108 -0.14925832 -0.061644472 -0.05207123
-0.030585581 0.026844703 -0.24293536 -0.16235211 -0.009168891 0.019600715 0.0667927 0.05562589
-0.036303196 0.034451175 0.060115937 -0.23874937 0.065336905 0.041483406 -0.17989255 0.031776834
0.017515058 -0.013583377 0.033635214 0.010021237 -0.289299 -0.015465733 -0.019416329 0.01846229
0.010313511 0.045705043 -0.033924956 -0.04615182 0.056564514 -0.010079281 0.021989372 0.05421735
0.029164867 -0.22787116 0.049800556 0.05280004 -0.016335417 -0.042332757 -0.02989372 0.074966
-0.5659746 -0.20091045 -0.3635367 -0.17527673 -0.019653045 0.06507765 -0.17583318 -0.12611908
-0.026436416 -0.07556682 0.042332802 -0.12547654 0.08127276 -0.15678582 -0.03836202 0.02111707
-0.1379832 -0.04895926 0.077938624 -0.055304945 -0.23032312 0.00011186412 -0.023614457 0.044525806
-0.05387837 0.06940141 -0.028548636 -0.06539757 0.030253878 0.06331161 0.04450443 -0.01585737
-0.21090624 -0.07302956 -0.11954457 -0.06442059 -0.016402211 -0.029154485 0.0054116216 -0.015620946
-0.06878393 -0.23448768 -0.2968649 -0.04638032 -0.21043812 0.025559368 0.06686796 -0.1612687
0.035732582 0.01608662 0.0034918457 0.064203374 0.023867425 -0.11696762 0.07464578 -9.898559e-05
-0.15417199 -0.04896166 -0.13014805 -0.18190405 0.003378701 -0.15224066 -0.2882296 0.09624353
0.06543235 -0.033359826 -0.0589113 -0.0914033 0.016541248 -0.2536518 0.080455884 0.014469294
-0.064829886 0.54069144 -0.0835208 -0.05534898 -0.027339464 0.06935222 -0.049434125 -0.03011245
0.04482477 -0.13947666 -0.018033382 -0.071560584 -0.05618287 -0.005171363 -0.05823329 -0.0057716016
-0.060681883 0.058422934 -0.33096546 -0.18460691 0.008579067 -0.15623713 -0.029166 0.7091196
0.07945086 -0.0014032399 0.036800236 0.041185 -0.091253474 0.056392252 -0.29860306 -0.060313568
-0.16133165 -0.036491685 0.0717872 -0.053193796 -0.030375564 -0.048792794 -0.22826125 -0.18408424
-0.010779625 -0.097266115 -0.18944639 0.061624397 0.043371744 -0.012017259 -0.28033707 -0.010340015
-0.095090635 0.053721234 -0.0214174 -0.0044960836 -0.0015780848 0.040637698 0.66269356 0.056366365
-0.07821877 -0.033160903 0.026491841 0.043523557 0.0397687 -0.062093087 -0.15073168 -0.17892112
-0.048678316 0.006955746 -0.054188896 -0.07515912 -0.034322586 0.05469543 -0.06608127 -0.06500894
0.13192955 -0.04057339 -0.002685402 0.0282937 -0.025662517 0.032106955 0.017714702 0.057230495
-0.09151676 0.1397441 0.55339986 -0.24806382 -0.33551505 -0.2789757 -0.06203596 0.02453807
-0.18016107 -0.14274792 0.119500935 -0.13871464 0.074662484 0.01806245 0.021594105 0.033927746
0.045575835 -0.0006438817 0.0045830985 -0.19658963 -0.330019 0.106666446 -0.20938261 -0.021128926
00000000: 8892 8ebe e337 503d c5d6 81bd f910 41be
00000010: 9b58 27bd 1d99 0f3e 0fe3 babe b405 32be
00000020: 8bfe 8cbe f6a9 6ebe 9fa0 f7bc cab8 3ebe
00000030: 9ee9 093d 407d 5b3d 7193 3cbb a076 f1bc
00000040: 66ad a1bc 9852 0e3d 4dd5 8b3c 3a6a 2bbe
00000050: 7337 7b3d cf5a 83be 0c5d b8bc d35e 9bbd
00000060: 1cae 023d 8cad 84be 96cf 87be aca9 6b3d
00000070: 921f 403c 472f 7ebd 30dc c63c 55b3 09be
00000080: c6b7 1a3d 264f 933d d4fe 05bd 0801 a8be
00000090: d9f3 efbc 2cd7 18be ea7e 7cbd a448 55bd
000000a0: 9d8e fabc 6ce9 db3c 0cc4 78be a23f 26be
000000b0: 1e39 16bc ae91 a03c 9cca 883d f9d7 633d
000000c0: a9b2 14bd ad1c 0d3d 213c 763d b77a 74be
000000d0: 5bcf 853d 81ea 293d c135 38be 6d28 023d
000000e0: bd7b 8f3c d08c 5ebc 14c5 093d 1d30 243c
000000f0: 001f 94be fc63 7dbc fe0e 9fbc 3a3e 973c
00000100: 00fa 283c 3635 3b3d e5f4 0abd b109 3dbd
00000110: 31b0 673d 9223 25bc 0e23 b43c 0313 5e3d
00000120: 29eb ee3c 0f57 69be abfb 4b3d db44 583d
00000130: dad1 85bc 1d65 2dbd ade3 f4bc c687 993d
00000140: b6e3 10bf 78bb 4dbe 7b21 babe be7b 33be
00000150: 6cff a0bc 6e47 853d 9d0d 34be 5c25 01be
00000160: 2f91 d8bc c7c2 9abd 2965 2d3d ec7c 00be
00000170: 5572 a63d 768c 20be 7e21 1dbd b5fd ac3c
00000180: 784b 0dbe 8189 48bd 499e 9f3d 7087 62bd
00000190: d3d9 6bbe 9898 ea38 1b73 c1bc b160 363d
000001a0: 91af 5cbd 5422 8e3d d4de e9bc 29ef 85bd
000001b0: fbd6 f73c 84a9 813d 474a 363d 51e7 81bc
000001c0: cef7 57be 8690 95bd c9d3 f4bd f1ee 83bd
000001d0: ee5d 86bc 63d5 eebc f953 b13b ffee 7fbc
000001e0: 97de 8cbd 8a1d 70be adfe 97be 4af9 3dbd
000001f0: 177d 57be e161 d13c 12f2 883d 9f23 25be
00000200: 545c 123d 16c8 833c 73d7 643b 0f7d 833d
00000210: 9e85 c33c b88c efbd e3df 983d 7c96 cfb8
00000220: 43df 1dbe 068c 48bd 8845 05be 0e45 3abe
00000230: 326d 5d3b fae4 1bbe d592 93be 541b c53d
00000240: 6501 863d 50a4 08bd fa4c 71bd a731 bbbd
00000250: 8381 873c a6de 81be 0ec6 a43d 9e10 6d3c
00000260: 88c5 84bd c16a 0a3f f40c abbd 9db5 62bd
00000270: 03f7 dfbc 8908 8e3d 707b 4abd 62ae f6bc
00000280: 2e9a 373d f8d2 0ebe beba 93bc 5b8e 92bd
00000290: 0220 66bd 8974 a9bb 0886 6ebd b41f bdbb
000002a0: 918d 78bd e34c 6f3d 4e74 a9be 9809 3dbe
000002b0: 378f 0c3c a0fc 1fbe 89ed eebc dd88 353f
000002c0: 22b7 a23d ebec b7ba d8bb 163d 9ab1 283d
000002d0: 1ae3 babd 90fb 663d 80e2 98be 5c0b 77bd
000002e0: 2034 25be 4e78 15bd 2b05 933d bde1 59bd
000002f0: 2dd6 f8bc f4da 47bd 51bd 69be 9480 3cbe
00000300: 069d 30bc 7533 c7bd 3cfe 41be dd69 7c3d
00000310: 92a6 313d 0ae4 44bc 5788 8fbe 2b69 29bc
00000320: e1be c2bd cc0a 5c3d 8b73 afbc e253 93bb
00000330: bdd7 ceba b773 263d 49a6 293f 6be0 663d
00000340: 2a31 a0bd bad3 07bd 6b05 d93c c245 323d
00000350: 81e4 223d 5255 7ebd 6859 1abe 1937 37be
00000360: ea62 47bd 07ed e33b 2df5 5dbd 06ed 99bd
00000370: d795 0cbd 5108 603d 9e55 87bd 6823 85bd
00000380: 8a18 073e 4830 26bd 92fd 2fbb 31c8 e73c
00000390: 333a d2bc 9582 033d 6c1e 913c 866a 6a3d
000003a0: 246d bbbd 1419 0f3e 9dab 0d3f 7104 7ebe
000003b0: a1c8 abbe e7d5 8ebe 6b19 7ebd 1004 c93c
000003c0: 257c 38be 832c 12be e8bc f43d 360b 0ebe
000003d0: a5e8 983d b4f7 933c 1fe6 b03c d2f7 0a3d
000003e0: baad 3a3d 2bca 28ba d12d 963b cb4e 49be
000003f0: 40f8 a8be f073 da3d 6568 56be 9216 adbc

lstm.weight_hr_l0 f4 [2, 900]
-0.118811116 0.15263681 -0.10816894 0.13588962 0.036677435 -0.019448284 0.14979613 0.14163719
-0.11194393 -0.095245235 -0.011005246 -0.124319136 0.0935279 -0.10942172 0.08384415 -0.04772788
-0.13649066 0.028150914 0.08927602 0.1069759 -0.14193068 0.11966398 0.1412292 -0.1222416
0.12550732 -0.114668794 -0.14379759 0.150204 0.11898071 0.0027653526 0.14273538 0.14006218
-0.11187962 0.0759034 0.13574034 0.1085462 0.13871673 -0.10603211 -0.030449921 0.14138317
-0.03471978 0.1420991 0.11002395 0.14003651 0.11951327 -0.08429627 0.14490297 -0.12031121
-0.031501543 -0.13767152 0.13833414 0.09846747 0.09996246 -0.17003977 0.10815304 -0.11556138
0.13220365 0.12863646 -0.14509246 0.13941468 -0.12750627 0.018195733 0.026860388 0.14371108
0.11918948 -0.12092458 0.033751294 -0.12590362 0.11814924 -0.1012903 0.10121575 -0.13850228
0.13297188 -0.09930874 -0.1317326 0.07277475 0.017796136 0.14928967 -0.012117308 -0.062057823
-0.10983924 -0.12577906 -0.11726433 0.15123057 0.11925246 0.08435228 0.15005744 0.123581715
-0.0018610358 0.02696186 -0.14807266 0.13376676 0.08080181 0.10024894 0.017022451 0.12375676
-0.11949569 0.018547377 -0.15470561 -0.094603725 0.09263201 0.14197287 -0.045007493 -0.13920975
0.013103272 -0.0801582 0.013935316 -0.026292188 0.12501724 0.13187551 0.12142857 0.119829156
0.14653578 0.10203974 0.14096235 -0.103878684 0.105088614 -0.013549116 0.07665547 0.15234159
0.14101423 0.11982437 -0.12331687 -0.10233078 -0.10796405 -0.13768138 0.13666359 0.12216905
-0.13724603 -0.12505764 0.10354666 -0.1458175 0.12077173 0.13108042 0.13935184 0.095803134
-0.15251756 0.003567602 -0.09633631 0.14153284 0.14543028 0.096478865 0.1451696 -0.11386397
-0.050706774 0.0077228807 -0.041711498 -0.14628993 0.102522515 0.15223013 0.15130205 -0.115513645
0.103296325 -5.1512375 0.0068699657 0.028111389 0.1257755 0.14323507 -0.123123 0.103093155
0.1212022 -0.13634539 0.0027405366 -0.13199106 -0.011720994 -0.119451895 0.045467097 -0.021781337
-0.045732666 -0.10493665 -0.11069862 0.12648773 0.004377715 -0.1066765 -0.037577886 -4.0513444
0.08081563 0.08075138 0.1136867 0.14737825 -0.13568884 -0.11721814 0.13195679 -0.08132408
-0.10144577 -0.12483414 0.1514673 -0.024907518 -0.11698903 0.124980316 0.10767249 -0.12106206
-0.010489985 -0.18115024 0.11608865 -0.15164682 -0.13432811 -0.00801118 -0.11393239 0.120072044
-0.14959879 0.1297147 0.026186498 0.1256475 -0.11418889 -0.15177071 2.9499276 0.14768319
0.018211694 -0.006080166 -0.09455507 -0.10970256 0.1091383 0.15007164 0.14519921 -0.13442515
0.118441075 0.073239885 -0.011196039 0.12782085 -0.028262142 0.13109998 -0.12896574 -0.10306723
0.09207497 0.094602995 -0.13044949 -0.13215303 -0.01499041 -0.14839497 -0.11016141 0.1171652
-0.12892753 -0.13515007 -1.4065366 0.12328611 0.15524511 0.08504193 -0.14080842 -0.14696379
0.073967546 -0.1422824 -0.10907842 0.09665511 -0.1391933 -0.045293562 -0.13278925 0.096706234
0.14514418 -0.10342965 -0.14290266 -0.100913934 -0.14540993 1.2776942 0.10573785 0.07679782
00000000: 3e53 f3bd d34c 1c3e ad87 ddbd a626 0b3e
00000010: 143b 163d 0252 9fbc 2864 193e 5709 113e
00000020: dc42 e5bd ef0f c3bd 594f 34bc 089b febd
00000030: 8e8b bf3d 7f18 e0bd 7bb6 ab3d 4f7e 43bd
00000040: 35c4 0bbe bf9c e63c 59d6 b63d 2e16 db3d
00000050: 4756 11be 6412 f53d 639e 103e ce59 fabd
00000060: fe84 003e 79d7 eabd ad3f 13be 14cf 193e
00000070: 29ac f33d eb3a 353b 3929 123e 766c 0f3e
00000080: 2421 e5bd 3e73 9b3d 84ff 0a3e 784d de3d
00000090: c20b 0e3e 5d27 d9bd 1d72 f9bc c0c6 103e
000000a0: 5436 0ebd 6d82 113e 3d54 e13d bb65 0f3e
000000b0: 60c3 f43d 86a3 acbd 7261 143e b965 f6bd
000000c0: c307 01bd c3f9 0cbe 77a7 0d3e 50a9 c93d
000000d0: 1eb9 cc3d e81e 2ebe 577f dd3d 72ab ecbd
000000e0: 6560 073e 47b9 033e 1e93 14be b9c2 0e3e
000000f0: 0191 02be 380f 953c 510a dc3c ff28 133e
00000100: 9d19 f43d 4ea7 f7bd cc3e 0a3d e1ec 00be
00000110: 3bf8 f13d 4a71 cfbd 344a cf3d 8bd3 0dbe
00000120: c829 083e 6162 cbbd e9e4 06be ee0a 953d
00000130: 34c9 913c 64df 183e ac87 46bc 5830 7ebd
00000140: 65f3 e0bd 3acc 00be 4828 f0bd 30dc 1a3e
00000150: a23a f43d e3c0 ac3d a8a8 193e 6918 fd3d
00000160: 00ee f3ba 1edf dc3c 5ca0 17be 27fa 083e
00000170: 6b7b a53d 514f cd3d ab72 8b3c 2f74 fd3d
00000180: 28ba f4bd abf0 973c 266b 1ebe 99bf c1bd
00000190: dab5 bd3d 5661 113e c759 38bd 008d 0ebe
000001a0: 1baf 563c fb29 a4bd f450 643c b762 d7bc
000001b0: 8504 003e 600a 073e 8baf f83d fd68 f53d
000001c0: 7a0d 163e 36fa d03d 6f58 103e 59be d4bd
000001d0: b338 d73d 1dfd 5dbc 8bfd 9c3d 6fff 1b3e
000001e0: 0966 103e 7b66 f53d 8e8d fcbd cd92 d1bd
000001f0: 411c ddbd 59fc 0cbe 8af1 0b3e c433 fa3d
00000200: 398a 0cbe 1c0f 00be 4510 d43d 2f51 15be
00000210: 2b57 f73d f239 063e 40b2 0e3e 6f34 c43d
00000220: 902d 1cbe 6ece 693b f94b c5bd fced 103e
00000230: adeb 143e b696 c53d 57a7 143e 8331 e9bd
00000240: e8b1 4fbd 3810 fd3b add9 2abd 07cd 15be
00000250: 53f7 d13d 37e2 1b3e edee 1a3e 6b92 ecbd
00000260: 068d d33d f0d6 a4c0 731d e13b db49 e63c
00000270: 4bcb 003e 37ac 123e e927 fcbd 8122 d33d
00000280: dc38 f83d 209e 0bbe 939a 333b aa28 07be
00000290: 6909 40bc 32a3 f4bd b53b 3a3d c66e b2bc
000002a0: 2d52 3bbd 07e9 d6bd f5b5 e2bd 0086 013e
000002b0: ef72 8f3b 3579 dabd 45eb 19bd 9da4 81c0
000002c0: aa82 a53d fb60 a53d 93d4 e83d 53ea 163e
000002d0: 04f2 0abe 1010 f0bd ae1f 073e 3d8d a6bd
000002e0: cdc2 cfbd 0ba9 ffbd 3e1a 1b3e da0a ccbc
000002f0: f297 efbd aef5 ff3d 6583 dc3d 63ef f7bd
00000300: 30de 2bbc 737f 39be e3bf ed3d 4e49 1bbe
00000310: 4f8d 09be 5341 03bc 6355 e9bd 55e8 f53d
00000320: 6d30 19be eed3 043e 1185 d63c bda9 003e
00000330: dddb e9bd c869 1bbe 9dcb 3c40 433a 173e
00000340: b130 953c 213c c7bb 17a6 c1bd bcab e0bd
00000350: e783 df3d 61ac 193e 1aaf 143e bfa6 09be
00000360: 3c91 f23d cbfe 953d 976f 37bc 78e3 023e
00000370: 0286 e7bc 133f 063e 980f 04be e914 d3bd
00000380: cd91 bc3d 37bf c13d 8d94 05be 2053 07be
00000390: 569a 75bc daf4 17be 4e9c e1bd 4ff4 ef3d
000003a0: 9405 04be c864 0abe 6409 b4bf 6e7d fc3d
000003b0: 93f8 1e3e 772a ae3d 1530 10be ad7d 16be
000003c0: 4c7c 973d 7ab2 11be 8264 dfbd 1df3 c53d
000003d0: b088 0ebe be85 39bd e8f9 07be eb0d c63d
000003e0: ada0 143e edd2 d3bd 1355 12be f7ab cebd
000003f0: 57e6 14be 7c8b a33f 168d d83d 2d48 9d3d

exp_avg f4 [3600, 2]
5.277217e-06 5.5022624e-06 3.9675073e-05 3.380553e-05 0.00034096872 0.00018285163 2.4214109e-05 2.3186592e-05
-1.5152246e-07 -1.1179043e-07 -0.00018881008 -0.00020105099 0.00018017707 9.8400815e-05 4.436008e-05 3.362023e-05
0.0005234882 0.00020311135 4.5751396e-05 5.006247e-06 -4.4961857e-07 -4.219638e-07 2.063421e-05 1.9422916e-05
-0.0006312028 -0.0005917785 2.1566464e-05 2.0013664e-05 0.00012873071 8.659841e-05 -5.243093e-07 -4.4660436e-07
0.00019971211 0.00015704005 -5.3505664e-06 -9.799357e-06 0.00021093039 0.00010555117 2.6747472e-05 2.3293976e-05
3.655011e-05 3.5171543e-05 0.00013604878 0.00010010293 0.00037298404 0.00021173352 0.00014925309 9.05932e-05
5.3003518e-05 4.725691e-05 4.972867e-05 4.4571676e-05 9.27267e-06 9.1218335e-06 4.2058167e-05 3.9651786e-05
-3.644992e-05 -8.992359e-05 -2.1357368e-07 -2.1238823e-07 0.0003106365 0.00021712127 2.2395066e-05 2.2158933e-05
-0.0003836221 -0.00037371548 9.5030024e-05 7.61595e-05 0.00028183786 0.00017838736 0.0003480239 0.00010171195
0.00027414283 0.00018678258 3.778635e-05 3.3243905e-05 -3.4459129e-07 -3.4633638e-07 0.00016255095 0.00010629536
-1.1669472e-06 -1.2216277e-06 1.8727525e-05 1.7302596e-05 2.4083372e-05 2.0873245e-05 0.00054689933 0.00026525886
0.00015416373 0.00012470204 0.00015639047 0.00011891298 1.9233294e-05 1.7491697e-05 2.7905557e-05 2.613466e-05
-1.8287609e-06 -1.7466213e-06 0.0002499224 0.00017765725 0.00023218374 0.00016288912 2.9420478e-05 2.6960703e-05
0.00012529813 0.00010499129 -6.1545694e-07 6.717017e-07 3.2756584e-06 3.4848986e-06 0.00030394358 0.00018542753
0.00021110286 0.00015124273 0.0002450305 0.00015152272 0.00016721689 0.00013349018 4.102818e-05 3.669115e-05
5.1957864e-05 3.5762467e-05 -3.64262e-07 -3.2935299e-07 -4.0177265e-06 -3.7844009e-06 0.00014009007 0.00011322522
-8.743812e-06 -7.183273e-06 4.4065848e-05 3.9982126e-05 -1.5528274e-06 -1.4631755e-06 0.00015553633 0.000109744025
0.00016554195 0.0001291296 0.0002524441 0.0001301151 0.00012799674 0.0001031482 0.0001920338 0.00014298139
0.00018007055 0.00014025325 2.5563799e-05 1.9212617e-05 0.00020682694 0.00016422833 -5.1644332e-05 -4.8149723e-05
-1.7934394e-06 -1.6101708e-06 0.00045512395 0.00025565355 5.979117e-08 3.5997385e-08 -0.00024290195 -0.0002288407
3.487872e-07 3.506898e-07 4.260149e-05 3.8033824e-05 4.962848e-07 5.0380976e-07 6.5016293e-06 6.8606014e-06
0.0002840228 0.00015372477 2.3587534e-05 2.1508175e-05 6.8774184e-06 7.1150935e-06 4.31455e-05 3.574219e-05
-1.1601754e-06 -9.895764e-07 -2.019997e-08 -2.2924874e-08 5.473159e-05 4.709265e-05 0.00021985867 0.00014419985
-6.771459e-08 -8.208983e-08 0.00039100455 0.00020251353 -6.267109e-08 -6.8590325e-08 7.6544416e-07 1.6304153e-06
0.00018773676 0.0001285649 3.0786916e-06 2.4212675e-06 -6.761169e-05 -6.338792e-05 0.0003161602 0.00016467794
2.3170163e-05 2.1466052e-05 0.00030590466 0.00020143032 -4.552194e-06 -4.2618553e-06 8.783284e-05 7.5994685e-05
5.6200525e-07 5.363258e-07 2.5119662e-06 2.7583428e-06 -7.054723e-07 -6.1789035e-07 2.6763773e-08 3.7995804e-08
-1.8420626e-05 -1.5852216e-05 0.00020588833 0.0001558061 6.166762e-05 5.4036715e-05 0.00036009325 0.00019210628
2.8028535e-05 2.6500726e-05 0.00010347712 6.923687e-05 0.00039523284 0.00022943121 -4.987514e-08 -5.8816298e-08
0.00013556161 9.386869e-05 -2.6582866e-06 -2.4931571e-06 -7.7091245e-05 -8.321366e-05 4.0198298e-05 3.6299392e-05
0.00020036368 0.0001302633 0.00032461196 0.00015951147 3.438786e-06 3.2079665e-06 -5.4813092e-05 -4.787117e-05
4.9812796e-05 3.7763053e-05 8.5632724e-05 7.237805e-05 5.5274108e-05 4.9677896e-05 0.00033600835 0.00019043873
00000000: f312 b136 13a0 b836 c968 2638 69ca 0d38
00000010: 0cc4 b239 dcbb 3f39 671f cb37 d480 c237
00000020: 2db2 22b4 7011 f0b3 52fb 45b9 37d1 52b9
00000030: eaed 3c39 895c ce38 460f 3a38 7203 0d38
00000040: b33a 093a 4afa 5439 30e5 3f38 56fb a736
00000050: 1b63 f1b4 438a e2b4 a117 ad37 65ee a237
00000060: 4e77 25ba 9521 1bba a1e9 b437 04e3 a737
00000070: e3fb 0639 2b9c b538 43be 0cb5 d6c4 efb4
00000080: d069 5139 1eab 2439 0489 b3b6 eb67 24b7
00000090: 322d 5d39 5a5b dd38 c25f e037 6f67 c337
000000a0: 624d 1938 2885 1338 51a8 0e39 5aee d138
000000b0: 128d c339 c904 5e39 d280 1c39 dbfc bd38
000000c0: 1850 5e38 b935 4638 c193 5038 79f2 3a38
000000d0: d091 1b37 fa09 1937 9d67 3038 c84f 2638
000000e0: cee1 18b8 5c95 bcb8 b052 65b4 d50c 64b4
000000f0: eddc a239 0cab 6339 0add bb37 f2e1 b937
00000100: e320 c9b9 3eef c3b9 db4a c738 d2b7 9f38
00000110: a3c3 9339 7e0d 3b39 fa76 b639 304e d538
00000120: d4ba 8f39 11db 4339 c97c 1e38 5f6f 0b38
00000130: 4400 b9b4 1cf0 b9b4 7072 2a39 e3ea de38
00000140: 00a0 9cb5 cff6 a3b5 0e19 9d37 0b25 9137
00000150: a606 ca37 f418 af37 cb5d 0f3a 7112 8b39
00000160: 03a7 2139 73c2 0239 bffc 2339 ec60 f938
00000170: 2f57 a137 22bb 9237 ba16 ea37 c13b db37
00000180: bf73 f5b5 736d eab5 0408 8339 8149 3a39
00000190: 5976 7339 37cd 2a39 ffcb f637 ab29 e237
000001a0: 7662 0339 c52e dc38 e135 25b5 fd4e 3435
000001b0: 62d3 5b36 1ade 6936 9e5a 9f39 536f 4239
000001c0: 7e5b 5d39 e996 1e39 7077 8039 12e2 1e39
000001d0: f156 2f39 7ff9 0b39 ac15 2c38 d3e4 1938
000001e0: 55ed 5938 a8ff 1538 ca8f c3b4 eed1 b0b4
000001f0: 02d0 86b6 83f7 7db6 24e5 1239 5473 ed38
00000200: 63b2 12b7 d807 f1b6 58d3 3838 7bb2 2738
00000210: be6a d0b5 5462 c4b5 7717 2339 6026 e638
00000220: 5495 2d39 f766 0739 795a 8439 826f 0839
00000230: dd36 0639 4551 d838 ae5c 4939 46ed 1539
00000240: 52d1 3c39 f210 1339 d771 d637 c82a a137
00000250: afdf 5839 b534 2c39 ae9c 58b8 5ff4 49b8
00000260: 1cb6 f0b5 0c1d d8b5 b49d ee39 3d09 8639
00000270: 8b66 8033 8b9b 1a33 7fb3 7eb9 f5f4 6fb9
00000280: f340 bb34 7046 bc34 00af 3238 8286 1f38
00000290: 6f38 0535 8b3d 0735 9228 da36 1e34 e636
000002a0: e5e8 9439 2e31 2139 d8dd c537 746c b437
000002b0: 93c4 e636 30be ee36 21f7 3438 e2e9 1538
000002c0: 53b7 9bb5 96d1 84b5 3484 adb2 55ec c4b2
000002d0: 998f 6538 5985 4538 dd89 6639 5a34 1739
000002e0: 7d6a 91b3 5c49 b0b3 beff cc39 d059 5439
000002f0: cc95 86b3 ee4b 93b3 ec78 4d35 a5d4 da35
00000300: 34db 4439 61cf 0639 859b 4e36 0f7d 2236
00000310: c0ca 8db8 21ef 84b8 4ec2 a539 66ad 2c39
00000320: 8c5d c237 ff11 b437 d461 a039 0a37 5339
00000330: 0cbf 98b6 0f01 8fb6 e632 b838 565f 9f38
00000340: b5dc 1635 07f8 0f35 4093 2836 f81b 3936
00000350: b05f 3db5 1add 25b5 29e6 e532 d430 2333
00000360: fe85 9ab7 60fa 84b7 bae3 5739 e25f 2339
00000370: 8d53 8138 7ba5 6238 e6ca bc39 2370 4939
00000380: d21e eb37 e04d de37 db01 d938 4333 9138
00000390: 4137 cf39 7993 7039 4c36 56b3 349d 7cb3
000003a0: 8b25 0e39 5fdb c438 0465 32b6 1d50 27b6
000003b0: 0cac a1b8 fe82 aeb8 989a 2838 2d40 1838
000003c0: b718 5239 4a97 0839 ae30 aa39 8942 2739
000003d0: e5c5 6636 7248 5736 1ce7 65b8 47c9 48b8
000003e0: 15ee 5038 c563 1e38 b895 b338 abc9 9738
000003f0: 1fd6 6738 3c5d 5038 472a b039 82b0 4739

exp_avg_sq f4 [3600, 2]
3.3810431e-07 3.1020247e-07 0.0059984443 0.0054739993 0.0026048943 0.0024077576 4.164791e-05 3.7728856e-05
0.00022020064 0.00020807119 0.00013907817 0.00012875846 0.00014655136 0.00012948974 1.12465805e-05 1.0153179e-05
0.00011566068 9.757414e-05 6.75154e-05 6.231134e-05 0.00027637708 0.0002536328 2.1867543e-05 2.0449963e-05
0.015306082 0.014203486 0.0031825218 0.0029318559 0.009354217 0.008508941 4.2364984e-05 3.9422703e-05
0.0033396157 0.0031125527 0.00031061043 0.00028557956 0.0077663357 0.007226939 1.2943337e-05 1.19896695e-05
0.04835474 0.045098335 0.00016023984 0.00015119172 0.01086853 0.009854032 7.37287e-05 6.653182e-05
0.00013562872 0.000121929304 8.613119e-06 7.559103e-06 8.4725303e-07 7.9304453e-07 0.016957024 0.015787775
0.011006815 0.010419779 4.091e-06 3.8660564e-06 0.005635837 0.005116244 4.8117832e-05 4.482981e-05
0.032585107 0.029844515 0.01111448 0.010197133 0.0023539683 0.0022079542 0.00015772875 0.00014024199
0.0074773687 0.007071515 5.500501e-05 5.0865277e-05 0.00022094084 0.00020064917 0.001416076 0.0013292716
0.0005993544 0.0005702722 0.0019438518 0.0017888782 1.6535949e-05 1.496947e-05 0.00057364174 0.0005138667
0.004022208 0.003711521 0.0074578268 0.0068006925 0.0002963166 0.00026822614 0.0005585946 0.00051884376
0.0048261005 0.004507749 0.022428226 0.020531617 0.026206125 0.024056576 4.7213918e-05 4.6141955e-05
0.0073621594 0.006838793 9.183653e-05 8.220325e-05 1.6830766e-07 1.17476795e-07 0.029609403 0.027179815
0.049094032 0.04496097 0.008138884 0.0075253868 0.0067682797 0.00627237 4.147334e-05 3.756643e-05
1.172395e-06 1.1032731e-06 0.0001552454 0.00014588574 0.005276909 0.004978696 0.106827706 0.09794671
0.00013304577 0.00011931794 0.0005859507 0.00054626033 0.0006742521 0.0006423933 0.0011060579 0.0010286971
0.0033499291 0.0030992823 0.0068173385 0.006290307 0.00047701804 0.00043985827 0.018218748 0.01690278
0.0024615477 0.002274221 9.907977e-07 9.0445536e-07 0.043086592 0.03968092 0.003964321 0.0036828339
1.983142e-06 1.7417773e-06 0.0055844495 0.0051008617 0.00031203413 0.00029131066 0.00971201 0.008914232
0.0007554562 0.00069414784 6.8353576e-05 6.3014886e-05 1.4893461e-05 1.5455826e-05 1.2189047e-06 1.0828769e-06
0.0084278975 0.0078078625 0.00015034604 0.00013680586 5.840655e-07 5.3619266e-07 3.3462555e-05 3.2476397e-05
0.00046581723 0.00042633995 2.1669953e-07 2.0095557e-07 0.05435555 0.04976531 0.00029320273 0.00029849092
7.808203e-09 7.165416e-09 0.0005586517 0.0005003209 6.979414e-05 6.178171e-05 0.00036431968 0.00033662518
0.00032680758 0.00030163774 0.0043857023 0.004093389 0.032982286 0.030114055 0.0013298119 0.0012151009
2.2419485e-05 2.0952544e-05 0.028986407 0.026457673 0.00044298833 0.000418926 0.0011822997 0.0010934996
0.0009031511 0.00085857266 0.00060738384 0.0005504708 0.00014634895 0.00013092908 7.1686422e-06 6.497352e-06
0.00053946784 0.0004944543 0.081355505 0.07474041 0.039666325 0.036644023 0.006323892 0.0057723452
5.6297016e-05 5.0991337e-05 4.5563716e-05 4.1880263e-05 0.0008016413 0.0006965305 0.0008487115 0.00079332583
0.0015947002 0.0015054008 0.0054246592 0.0050669718 0.0036888677 0.0034118113 2.9481327e-05 2.687194e-05
0.003072272 0.002752044 0.0002948399 0.00026654557 9.748343e-05 8.813505e-05 0.000775308 0.00073344086
5.4023576e-06 4.9814926e-06 0.0019502176 0.0017844334 0.019734353 0.018185508 0.0006505918 0.0005850977
00000000: b484 b534 e789 a634 998e c43b 3c5f b33b
00000010: e0b6 2a3b 78cb 1d3b 1aaf 2e38 0d3f 1e38
00000020: a9e5 6639 af2d 5a39 83d5 1139 5603 0739
00000030: 95ab 1939 a3c7 0739 b2af 3c37 9257 2a37
00000040: db8e f238 b8a0 cc38 0e97 8d38 25ad 8238
00000050: b4e6 9039 05fa 8439 3170 b737 f68b ab37
00000060: 5cc6 7a3c bdb5 683c db91 503b 6124 403b
00000070: 6e42 193c 1669 0b3c 0eb1 3138 ce59 2538
00000080: 74dd 5a3b f8fb 4b3b 6dd9 a239 d7b9 9539
00000090: bf7c fe3b f5cf ec3b 3627 5937 3d27 4937
000000a0: 9f0f 463d 08b9 383d 0e06 2839 3889 1e39
000000b0: eb11 323c ce72 213c cb9e 9a38 0087 8b38
000000c0: 8f37 0e39 4cb4 ff38 1081 1037 33a4 fd36
000000d0: c96e 6335 9be1 5435 75e9 8a3c 5d55 813c
000000e0: ee55 343c b9b7 2a3c 6c45 8936 2cb9 8136
000000f0: d4ac b83b 2aa6 a73b 21d2 4938 a407 3c38
00000100: f677 053d 7c7c f43c 8219 363c e011 273c
00000110: 0945 1a3b 53b3 103b fd63 2539 ec0d 1339
00000120: b704 f53b 2bb8 e73b 2eb5 6638 2d58 5538
00000130: 5bac 6739 5a65 5239 a09b b93a f43a ae3a
00000140: fe1d 1d3a 527e 153a d8c8 fe3a cb78 ea3a
00000150: aeb6 8a37 6225 7b37 7260 163a 03b5 063a
00000160: bacc 833b fd3c 733b c960 f43b 58d8 de3b
00000170: f15a 9b39 b4a0 8c39 a66e 123a 0403 083a
00000180: 4424 9e3b bdb5 933b 66bb b73c ec31 a83c
00000190: 3aae d63c 4c12 c53c 8f07 4638 8c88 4138
000001a0: 453e f13b f417 e03b 5d98 c038 8964 ac38
000001b0: 0fb8 3434 8d47 fc33 6b8f f23c 34a8 de3c
000001c0: d316 493d fe28 383d f458 053c 8597 f63b
000001d0: 72c8 dd3b 7488 cd3b a9f3 2d38 a690 1d38
000001e0: 2f5b 9d35 2d14 9435 5fc9 2239 e8f8 1839
000001f0: ece9 ac3b 5424 a33b 7cc8 da3d 4998 c83d
00000200: 3482 0b39 553a fa38 7c9a 193a e932 0f3a
00000210: 4bc0 303a 4966 283a 25f9 903a 59d5 863a
00000220: 7c8a 5b3b 541d 4b3b fb63 df3b eb1e ce3b
00000230: 4718 fa39 c79c e639 7c3f 953c b377 8a3c
00000240: eb51 213b 190b 153b 8dfb 8435 b3c9 7235
00000250: 917b 303d 7688 223d 23e7 813b b35b 713b
00000260: 1f16 0536 03c7 e935 c2fd b63b 2125 a73b
00000270: 8398 a339 0ebb 9839 1f1f 1f3c 000d 123c
00000280: cf09 463a 79f7 353a 0c59 8f38 dc26 8438
00000290: eede 7937 22a7 8137 3f99 a335 5e57 9135
000002a0: 2a15 0a3c 19d9 ff3b 35a6 1d39 8b73 0f39
000002b0: adc8 1c35 e1ee 0f35 255a 0c38 4437 0838
000002c0: ee38 f439 6186 df39 eaad 6834 3fc6 5734
000002d0: eda3 5e3d b6d6 4b3d 01b9 9939 c67e 9c39
000002e0: d724 0632 aa33 f631 7b72 123a f827 033a
000002f0: 725e 9238 ce90 8138 2902 bf39 117d b039
00000300: 5f57 ab39 2225 9e39 f0b5 8f3b d621 863b
00000310: 6f18 073d c0b1 f63c 154d ae3a 0544 9f3a
00000320: 7a11 bc37 3fc3 af37 e774 ed3c c3bd d83c
00000330: e340 e839 4ca3 db39 65f7 9a3a c253 8f3a
00000340: 72c1 6c3a d611 613a d738 1f3a 784d 103a
00000350: 3f75 1939 024a 0939 2b8a f036 d403 da36
00000360: 136b 0d3a 449e 013a b79d a63d 8011 993d
00000370: 2879 223d 0b18 163d a738 cf3b f125 bd3b
00000380: 7620 6c38 88df 5538 ab1b 3f38 97a8 2f38
00000390: 3d25 523a 5f97 363a 117c 5e3a 32f7 4f3a
000003a0: 4205 d13a de50 c53a 57c1 b13b d708 a63b
000003b0: eec0 713b b298 5f3b ab4e f737 0d6b e137
000003c0: 2c58 493b a35b 343b be94 9a39 24bf 8b39
000003d0: 0570 cc38 25d5 b838 0a3e 4b3a 6244 403a
000003e0: e645 b536 b226 a736 729e ff3a a6e3 e93a
000003f0: f0a9 a13c c6f9 943c 7a8c 2a3a 3e61 193a
