lightning_logs/version_81/checkpoints/epoch=7-step=3168.ckpt (torch, 880318 bytes, 15 tensors)

lstm.weight_ih_l0 f4 [11200, 2]
00000000: 51be 99bc f801 e5bb 53f4 04bd 96b4 0dbd
00000010: edc7 2a3d 6b90 5d3d 7e18 f13c 6246 173d
00000020: fa86 053d 2026 5b3d e109 353d 2aad 403d
00000030: 97cd 2c3d e714 393d 20c0 cf3c b1e6 083d
00000040: 580a 0fbd d8cb 4abd 58b9 4fbd 0922 4fbd
00000050: 996d 56bd 74a4 0abd 71fc 24bd ed48 30bd
00000060: 954e a9be e147 b1be 6e7e 08bd c585 7cbd
00000070: 9155 0b3d c987 323d cceb 1c3d 6e71 323d
00000080: 952b 543d 168e 3c3d a4df 1d3d 5112 3a3d
00000090: d9d5 ba3c b2f1 123d a019 cb3c bade 943c
000000a0: abfb 393c 3306 023d 2432 8c3d 348d 013d
000000b0: eb18 423d 6d48 323d 01dd 8bbd 30c0 8cbd
000000c0: 7887 19bd c44e 0abd 2ae3 08bc 7698 0b3c
000000d0: 534b 693d bafd 423d c023 fbbc 5c4a 55bd
000000e0: 9a3e 1dbd 0320 7bbc a6d6 0f3d 5d4e 0f3d
000000f0: c77d 6d3d e12e 573d c0b1 19bd 0fdd 7cbd
00000100: 66da bcbc 8f44 35bd e29d ee3c 1c92 4a3d
00000110: f8e9 3cbd e714 38bd 4f86 3fbd f691 4fbd
00000120: 56a9 fb3c 16a2 3b3d 6fa7 433d d42d 3a3d
00000130: bc10 f73c 36c3 d43c f66e 9c3c c7c7 003d
00000140: 7c6d 003b cd6d e23c 16cd 1bbd 9045 d2bc
00000150: 6d2f 4c3d 63cc e03c d448 2f3d 3da1 2e3d
00000160: 39fa 04bd e85f 37bd 089b 213d 091e f83c
00000170: 8a0a 51bd 5219 4fbd 75f3 d3bc 0e37 afbc
00000180: 2063 143d 1edd 1f3d 4d3c e03c 4bcf 0b3d
00000190: 9964 313c b7a3 2a3d b33d 0ebd 6bad b8bc
000001a0: 6036 2b3d bbd3 3d3d ed6f caba e027 6ebc
000001b0: 2679 3d3d 60a4 0f3d d494 2ebd 83fd e7bc
000001c0: a8e0 42bd 6f19 d5bc fd70 663d 297b 093d
000001d0: c900 813c 24db 8b3c 1f05 4abc f96e 9abc
000001e0: a9f0 4d3d 04b7 073d 0a04 393c 6752 823b
000001f0: 2153 36bd 39f2 19bd 6221 efbc b85d 26bd
00000200: be08 dd3c 9397 ec3c 187e 543d f792 203d
00000210: be79 d03c d0dd 043d 403c 21bd 4835 e6bc
00000220: 91aa 193d d4c8 023d 9bfa 44bd 6959 44bd
00000230: 95dc 03bd 734e f8bc 0749 0ebd 2179 3ebd
00000240: 7b92 21bd 5a5f 38bd 6460 2d3d 7a88 5f3d
00000250: 0958 a93c a803 023d 458c 54bd 76b8 18bd
00000260: eded 633d 2489 ba3c e52e cbbb 8d32 f9bc
00000270: b171 a3bd 6143 a6bd 8950 16bd 88ad 0dbd
00000280: c2e6 cf3c 78e4 533d 3bfc 133d 2e0f 363d
00000290: 5d76 05be 0636 97be 0021 f33c c8be 103d
000002a0: 6e4e fc3c 1b8f c03c 98d7 54bd 7f7e a8bc
000002b0: e8ca 673d fa44 f83c 2f06 943b 4810 f1bc
000002c0: 2ac4 3abe 8419 26be 3eb1 253d 5fcc 333d
000002d0: 8254 0c3d 9928 4f3d 3213 39bd 4118 09bd
000002e0: e23c fdbc 1185 2abd 0350 e33c 0c33 0e3d
000002f0: ac50 2b3d 490a 023d 5a1b 1e3d 1ba8 513d
00000300: d016 6d3d 6798 093d 649c 73bd 060b 87bd
00000310: be71 96bc ef22 00bd 7f95 203d bfe5 563d
00000320: 95e7 a9ba bd2d 833b c18c 073d 8977 653d
00000330: a521 73bd cea1 99bd 824f 853d 6530 713d
00000340: d565 4f3d df69 083d 1c92 37bd f87b 1abc
00000350: 6ceb 5b3d c4ad 013d 9d69 9bbc 3c19 47bd
00000360: 5170 6a3d 1db2 333d 20eb 453d e698 c73c
00000370: 32c7 593d 98af 5d3d 70ff 1f3d 0d19 1a3d
00000380: 8917 d13c d030 533d ecad b73c fe72 013d
00000390: fae9 11bd 467f 3fbd 4129 2f3d 1351 003d
000003a0: fa8b 8b3c e5c6 cbba 06fe 263d 5855 5a3d
000003b0: c099 f73c 1637 963c f096 50bd 09e1 a4bc
000003c0: e2f0 a73c 1737 5d3d ce83 353d 3d1d 4a3d
000003d0: f6cd 243d 2b5e cf3c 4a0d 213d dc84 143d
000003e0: 46f2 0b3d 2d18 163d 336f e5bc 4346 06bd
000003f0: 7eca cc3c 1888 2d3d 2445 5c3d a54f 033d
-0.018767508 -0.00698876 -0.03245957 -0.03459605 0.04169457 0.054092806 0.029430624 0.036932357
0.032599427 0.053503156 0.044198874 0.047040142 0.042188253 0.04518595 0.025360167 0.03342313
-0.034921974 -0.049510807 -0.050713867 -0.050569568 -0.052350614 -0.03384824 -0.04027981 -0.043038297
-0.33067766 -0.34625152 -0.033323698 -0.06165101 0.03401715 0.043586526 0.03831081 0.043565206
0.051799376 0.04603394 0.03854336 0.045427624 0.022807049 0.03587503 0.024792492 0.01817261
0.011351506 0.031744193 0.06845501 0.031628802 0.047387045 0.0435261 -0.068292625 -0.06872594
-0.03748271 -0.033766523 -0.008354941 0.008520236 0.0569566 0.047605254 -0.030656695 -0.052072868
-0.03838978 -0.015327456 0.035116814 0.034986842 0.05798128 0.05253494 -0.03752303 -0.061734255
-0.02305336 -0.044254836 0.029128019 0.049455747 -0.046121567 -0.04494181 -0.046758946 -0.05067631
0.030720394 0.045808874 0.0477671 0.04545386 0.030159347 0.02597199 0.019095879 0.031440523
0.0019596508 0.027640248 -0.038037382 -0.025667936 0.049849916 0.02744121 0.042794064 0.042634238
-0.032465193 -0.044769198 0.03945449 0.03028776 -0.05103544 -0.050561257 -0.025872925 -0.021388557
0.036227345 0.039029233 0.027372504 0.034133237 0.010827207 0.041660037 -0.03472681 -0.02254363
0.041799903 0.0463445 -0.0015444733 -0.014535874 0.046258114 0.03506887 -0.042622402 -0.028319126
-0.04757753 -0.026013104 0.056260098 0.03356472 0.015747445 0.017072268 -0.0123303225 -0.018851744
0.05027834 0.03313352 0.011292467 0.0039771083 -0.04451287 -0.037584517 -0.029190723 -0.04061672
0.026981708 0.02888087 0.051878065 0.039202657 0.025448676 0.0324381 -0.0393641 -0.028101578
0.03751618 0.031929806 -0.04809056 -0.04793683 -0.032192785 -0.030310845 -0.034737613 -0.046502236
-0.039446335 -0.04501281 0.042328253 0.054573514 0.020671861 0.031741768 -0.051891584 -0.03728529
0.055646826 0.022770472 -0.0062006586 -0.030419612 -0.07980669 -0.0811832 -0.036697898 -0.03458932
0.025378589 0.051731557 0.036129218 0.04444807 -0.13033433 -0.29533404 0.029678822 0.035338193
0.030799117 0.023505738 -0.05196342 -0.02056813 0.05658999 0.030306328 0.0045173387 -0.029426709
-0.18238893 -0.16220671 0.040452234 0.043896075 0.03426028 0.050575826 -0.04518432 -0.033470396
-0.03091282 -0.04163081 0.027748113 0.03471665 0.04182498 0.03174809 0.038600303 0.05118571
0.057883084 0.033592608 -0.059475318 -0.065938994 -0.018364783 -0.031283315 0.03920507 0.052465197
-0.0012962694 0.004003255 0.033093218 0.0560222 -0.059358258 -0.07501565 0.065093055 0.058884043
0.050634224 0.03330409 -0.044817075 -0.0094289705 0.053691313 0.031659856 -0.018971259 -0.04860805
0.05723602 0.043871034 0.048319936 0.0243649 0.053168483 0.054122537 0.039061964 0.037621547
0.025523918 0.051560223 0.0224218 0.031603806 -0.035623528 -0.046752237 0.042763952 0.03132732
0.01703452 -0.0015546946 0.0407696 0.053304046 0.03022468 0.018336814 -0.050925195 -0.020126836
0.020500604 0.054007616 0.044315152 0.04934429 0.040235482 0.025313457 0.039319314 0.036259517
0.034166597 0.03664415 -0.028007125 -0.03278185 0.0249989 0.042366117 0.053776875 0.032058377

lstm.weight_hh_l0 f4 [11200, 2]
00000000: a86f b13c a46b 2d3d 35c0 26bd b2c4 c6bc
00000010: 69fe f03c 3fba 163d 927d d83c f84b 093d
00000020: 6ef9 653d 985b 6a3d 1038 ad3c d84b e73c
00000030: bbb4 ed3c d65b d93c ec0f 0b3d 7565 7a3d
00000040: dda4 1ebd 545a f0bc f7bf 82bd 125a f2bc
00000050: 2c01 173e 142c d63d 630d 00bd c38c 0ebd
00000060: 55eb 37be 075d 36be ef82 86bd 3a77 18bd
00000070: 3675 9d3c 4d35 923c d65b d03c e6ed 1d3d
00000080: 7626 7a3d ac9f 063d 7cb1 3b3d 43c8 ad3c
00000090: a172 483d 90c3 cc3c ef3c 5e3d 526e 733d
000000a0: 4d89 283d d17e 903c 65be 353d 35e5 513d
000000b0: 39fb 1d3d d20b 3e3d c3ee 1cbd b285 b7bc
000000c0: 5b9e 5dbd aab5 9abc e5f2 413d 330d 9a3d
000000d0: d122 1d3d cc00 523d 71d6 13bd 455f 30bd
000000e0: c549 22bd 5389 a8bc 158e 123d 6697 aa3c
000000f0: 7362 ad3c d9ef 0c3d 8d2b 44bd 2b76 06bc
00000100: fa88 6fbd 0fdc 2ebd 7ff4 b53c 5ff3 d23c
00000110: 6afd 69bd 200d d2bc b4be 46bd ff3c fbbc
00000120: a96b c63c f5b1 303c a8e0 c23c 9a55 103d
00000130: d15e d03c 3f7f 5c3d 20e7 503d b611 873d
00000140: 96c3 e33c e4de 823d 49b2 0dbd b345 e4bb
00000150: 6aaf 283d 8b2d 353d 5287 8e3d 5819 e43c
00000160: c0f3 82bd 296e 15bd a16a 673d 38dd 133d
00000170: 2262 1bbd 4547 643b 6134 08bd ab6e d9bc
00000180: 5d81 483d 42e5 1c3d cf41 5e3d b4b2 fa3c
00000190: f77e 033d 3fa3 4a3c e7c7 1dbd 1741 20bd
000001a0: 6a94 083d c021 bf3c 311a 4a3d ae5e 243d
000001b0: fad2 503d 061b 263d 2ea5 42bd 9529 6bbd
000001c0: dffe 6abd 51b1 15bd 9492 5e3d 76aa 163d
000001d0: 0d6c 313d 9ce4 a53c 8d53 833d c6a9 673d
000001e0: 492d fc3c 1208 f93c 7538 9c3c 64e7 793d
000001f0: 9b94 23bd 9287 82bc 74c5 32bd 944a 22bd
00000200: f58b f73c 12b9 bb3c 1a35 d93c e893 3e3d
00000210: 3816 fa3c b5d2 053d dd48 463e ee70 023e
00000220: d5fb c23c 0abc bb3c 0b4d ddbc fda9 c8bc
00000230: 2c5f 84bc 3399 ddbc 0350 4dbd 4b95 32bd
00000240: 742d 30bd 3a56 57bd 21e8 4a3d fb36 043d
00000250: 633f 4e3d 685c ed3c 2510 43bd b048 a8bc
00000260: 9ad7 d43c 9954 2b3d 4f64 9b3d 73c2 633d
00000270: 6269 9d3e 5ffa 293e 488d bfbc 2857 07bd
00000280: 927d 773d b150 e63c 7f05 a33c 4fd1 103d
00000290: b682 403e a556 053e 6d97 333d 4328 8b3d
000002a0: 431b 413d cae4 b33c 8ab8 34bd 50ff 5ebd
000002b0: 05e8 0c3d e5ce 2c3d 4b84 603e c609 523e
000002c0: 3cdc 49be b615 51be 0446 773d cb79 6a3d
000002d0: 220d 253d e5fb 2f3d ddf3 46bd d033 52bd
000002e0: a673 2dbd 4748 18bd d1e2 103d 7e4a 283d
000002f0: e69a 653d 4c10 543d 1d86 e33c 57c4 2a3c
00000300: 54f3 713d 8460 bf3c 4f6a f0bc be65 d1bc
00000310: 9dc5 0ebd 9a41 34bd 1c02 523d 494d 013d
00000320: 2b58 573d 04ff 733d 018f 303d 4700 423d
00000330: b603 963e b93e a23d 362a 8b3d 87dd e23c
00000340: 4628 7f3d 3d6c 483d 20f8 ae3d e61b 553d
00000350: de50 0f3d a25d af3c a61d 07bd 68d0 00bd
00000360: 99a0 e33c 4e8e 253d f8b5 6a3d ce21 873d
00000370: 49b8 443d a832 f53c 79df 4a3d 131f 193d
00000380: 5fca 543d 9d1f 823d 3b4c 0b3d 5431 253d
00000390: 0b5d 5abd b3eb d3bc 3c75 1e3d 9b2a 113d
000003a0: 81ac 863d babf 613d cd87 593d a5dd 4a3c
000003b0: e32d 1d3d 62b2 013d 8313 3bbd 8e88 0dbd
000003c0: b700 1b3d 5939 893c c983 5b3d 3c0c 393d
000003d0: a282 513d 2f06 603d 97ff 563d aad3 9f3c
000003e0: a74c 253d fbe9 1a3d 7e54 35bd 40c4 ccbd
000003f0: c478 6c3d d5b5 873d 7bd9 373d 1bb6 d73c
0.021659687 0.042338982 -0.040710647 -0.024263714 0.029418187 0.036798712 0.026427064 0.033519715
0.056146078 0.057216257 0.021144897 0.028234407 0.029016843 0.026533049 0.03395073 0.061131913
-0.038731445 -0.029339947 -0.06384271 -0.029583964 0.14746541 0.10457626 -0.031262767 -0.03480221
-0.17960866 -0.17808925 -0.06567942 -0.03722308 0.01922093 0.017847681 0.025434416 0.038556956
0.061071835 0.03286712 0.04582356 0.021213656 0.048937444 0.024995595 0.05425733 0.05943138
0.041146565 0.017638596 0.044371027 0.05124398 0.038569663 0.04639799 -0.03831364 -0.022402618
-0.054106098 -0.018885452 0.047350783 0.07522049 0.03836328 0.05127029 -0.03609318 -0.043059606
-0.039621133 -0.020573294 0.03578003 0.020824146 0.021165108 0.034408424 -0.047893096 -0.008206884
-0.05848024 -0.042690333 0.022211311 0.025750814 -0.05712644 -0.025641024 -0.048521712 -0.030668734
0.024221258 0.010784616 0.023788765 0.035237886 0.025435837 0.05383229 0.051001668 0.06595175
0.027803224 0.06390169 -0.034593854 -0.0069663166 0.041182913 0.044232886 0.06959404 0.027844116
-0.06394148 -0.03648201 0.056498174 0.036099643 -0.037935384 0.003483252 -0.033253077 -0.026542028
0.048951495 0.038304575 0.05426198 0.03060279 0.032103505 0.012368022 -0.03852072 -0.039124575
0.033344664 0.023331523 0.049341384 0.040129356 0.050982453 0.040553115 -0.04752081 -0.057412703
-0.05737197 -0.036546055 0.054339007 0.036783658 0.043315936 0.020250611 0.064124204 0.056558393
0.030783312 0.030399356 0.01906989 0.061011687 -0.039936643 -0.015933786 -0.043645337 -0.039621904
0.030218104 0.022915397 0.026514579 0.046527773 0.030528173 0.03267165 0.19363733 0.12738392
0.023801723 0.022916812 -0.027014276 -0.02449512 -0.016158663 -0.02705059 -0.050125133 -0.043599408
-0.043012097 -0.052572466 0.04953778 0.032278996 0.05035342 0.028974727 -0.04762282 -0.020542473
0.025981713 0.041828725 0.07587492 0.055605363 0.30744463 0.16599415 -0.023382798 -0.033042103
0.060422488 0.028114649 0.019900082 0.035355862 0.18799862 0.13021334 0.043845583 0.06794789
0.04714514 0.021959681 -0.044121303 -0.054442704 0.03440096 0.042189498 0.21925466 0.20511541
-0.19712919 -0.20418438 0.060369506 0.057245057 0.040295728 0.042964835 -0.04857241 -0.051318944
-0.04234662 -0.037178304 0.03537256 0.041086666 0.056055926 0.051773354 0.027773911 0.010422788
0.059069946 0.023361452 -0.029347567 -0.02556121 -0.034856427 -0.044007875 0.051271543 0.031567845
0.052574318 0.059569374 0.04310513 0.047363546 0.29299706 0.0792212 0.067951605 0.027693523
0.062294267 0.04893135 0.0854342 0.05202856 0.03498923 0.021406952 -0.03298726 -0.03144875
0.02778654 0.040418915 0.057302445 0.065982446 0.04802731 0.029931381 0.049529526 0.03738315
0.05195081 0.06353686 0.034008246 0.040330246 -0.05331139 -0.025869226 0.038686022 0.035441022
0.06575871 0.055114485 0.053108025 0.012381946 0.03837384 0.03166426 -0.045672905 -0.034554057
0.03784248 0.016750978 0.053592477 0.045177683 0.05114997 0.054693397 0.052489843 0.019510109
0.040356304 0.037820797 -0.04427003 -0.09998369 0.05773236 0.066264786 0.04488514 0.026331952

lstm.bias_ih_l0 f4 [11200]
00000000: b543 0c3c c4fe 64bd 7cf1 d33c 692c 693d
00000010: 7bd0 423d fee2 2d3d dc9f 313d 96ad d23c
00000020: e442 45bd 28f8 80bd a215 86bd a4d1 4cbd
00000030: 55f5 b7be 0b34 2abd 3545 3c3d 0b58 533d
00000040: faf7 7f3d a743 1a3d ddb4 9b3c 2dfb a23c
00000050: 4105 113c 419b 353d 7b53 e43c ffc0 8bbd
00000060: e867 12bd 8a00 103b 101d d33c e7de f5bc
00000070: a241 1cbd c8d2 a33c c1b7 b83c dd72 19bd
00000080: 587b 4bbd 4072 3c3d dc55 29bd 84be 06bd
00000090: 82df f73c 374b 463d c21b 89bb abab 8d3c
000000a0: c935 833c 2f6e 9cbc 396d 073d f243 923d
000000b0: a177 34bd b433 0e3d cb2a 8cbc 4ea2 25bd
000000c0: c618 403d cf28 743d 9421 363d a9f1 4bbd
000000d0: 8f2b fd3c de5e bfbc f044 863d 3202 07bd
000000e0: 67f8 41bd fbcc 173d 45d9 163d b7ae a0bc
000000f0: 4c92 5d3d d125 dcba 79ed 30bd 0a22 46bd
00000100: c388 ff3c aa67 2c3d d484 683c b665 84bd
00000110: 72cc 813c 6abe 59bd 88c0 f4bc 353e 26bd
00000120: 8c19 eabc e45f 883d ba89 733c 813a 3fbd
00000130: 8df0 e13c 0a65 91bc 298d bdbd e994 82bd
00000140: 4ee3 613d ac2c d33c 4085 2a3f 53c1 043d
00000150: 819b d13c 1b7f 87bc c292 293d df1e a7bc
00000160: aa60 43be 3225 d43c a58e 633d 3cc4 e8bc
00000170: 37bd 4cbd eba9 033d e32f 4b3d 9d3e 403d
00000180: 0a35 3b3d 5b49 49bd a959 f4bc 068a 463d
00000190: 04c2 59bc 7fc2 433d b9ab 70bd 2dac 773d
000001a0: e1db ea3c 99d0 513c bbc7 153d 32c9 95bc
000001b0: be1f 6a3d 551f d63c a46e 123d b365 4c3d
000001c0: 8845 fb3c f887 8d3c f2f2 d7bc 9022 3f3d
000001d0: f4c4 9fbb b0ae 5f3d ccba bf3c 7117 f1bc
000001e0: 0789 4a3d 4f61 113d e9d6 463d 230b 133d
000001f0: eec8 503d f307 06bd 2320 533d deb9 b03c
00000200: 0707 0a3d 19e9 1d3d ffc5 5abd d06a 753d
00000210: cb29 2b3d 6a0e 943c 0396 a43c f586 3bbb
00000220: 4da0 9c3b 6f64 273c 74eb 49be 402f 2f3d
00000230: ac4e ddbd a1c5 80bd 941c 743d 00ef f83c
00000240: a639 373d 8bdd 56bc dcf4 01bc cf0e 823d
00000250: 7a88 ec3c 1311 c4bc d290 f73c 4823 bd3c
00000260: 9d85 13bd 115a 0d3d a8ea a5bc 18a4 4ebc
00000270: 839c 1a3d f377 1d3d 0b4b 533d 99a4 303d
00000280: 95cb a7bc 3359 343d f037 723d dbf6 bd3c
00000290: 37ea 3fbd c8ee 0cbc 9951 233d fc2b ef3c
000002a0: 0655 863d 8c51 b73c 4fe6 583d 72da 37bd
000002b0: d797 483d b27a a1bc e090 1a3c 3606 8abd
000002c0: a540 ae3c 4590 63bd fdd0 153d aec6 583d
000002d0: a62b 84bd c1d4 5dbd c3d0 10be 9cfa 8bba
000002e0: c22a 2ebd 0348 17bd 2429 88bd bb45 f43c
000002f0: 2449 763d 0687 9e3c 3144 9cbc dd52 b73b
00000300: 563e 14bd 35b4 163d 5ae2 d6bc 9d54 023d
00000310: 13cf 2f3f 62d2 533d 6ab9 91bd 1478 db3c
00000320: 86e6 21bd 9ba9 d03b 63c8 b83c 9c88 7f3d
00000330: a803 26bd 079a 4dbd 7503 1e3d a426 36bd
00000340: 5a4d 6bbd 8350 17bd e08e 663d 0662 21bd
00000350: c7a7 08bd c5d5 2cbd 2b7d 813d a694 b43c
00000360: b790 a8bc 2454 3c3d 75a2 fbbc 6ee1 6c3d
00000370: e2bf 9a3c d787 48bd 12f4 52bd 7f83 bcbd
00000380: 6ef9 58bd 5494 06bd 2f55 14bd f13d d2bc
00000390: 63a8 503d ccec 453d 7ac7 89bb 1d83 1ebe
000003a0: 5aae 66be 9f8a 32bd 5164 db3b 399d 2c3d
000003b0: 2832 773d 6e91 96bd 1fe8 2c3c 1b52 20bd
000003c0: 6722 873d ff82 31bd b5cc ec3c 560f 643b
000003d0: 7c5e 013d 4a03 db3c 7be5 b93c 7f1c 5dbe
000003e0: 8679 233d 26d3 853c abe9 0abd 921f 013d
000003f0: 6574 34bc 97e1 4c3c dfd8 013d db59 383d
0.0085610645 -0.055907026 0.025871985 0.05692712 0.047562104 0.042452805 0.043365344 0.025717538
-0.048159495 -0.06297332 -0.06547095 -0.050004616 -0.3592936 -0.04155354 0.04596444 0.051597636
0.06249235 0.037662175 0.01900714 0.01989516 0.00885135 0.044337515 0.027871838 -0.068239205
-0.035743624 0.0021972978 0.025770694 -0.030013515 -0.03814853 0.01999797 0.022548558 -0.037463058
-0.049678177 0.046007395 -0.041341648 -0.032896534 0.030257944 0.048411574 -0.004184217 0.017293772
0.016016858 -0.019095508 0.033063147 0.07141866 -0.0440594 0.034717277 -0.017110249 -0.04043799
0.046898626 0.05960923 0.044465616 -0.049791012 0.03090456 -0.023360666 0.065561175 -0.032961078
-0.047356036 0.03706072 0.036828298 -0.01961456 0.054094598 -0.0016795938 -0.04319522 -0.048372306
0.031193143 0.04209105 0.014191825 -0.06464712 0.015844557 -0.05316011 -0.029876962 -0.04058667
-0.028576635 0.06658915 0.01486438 -0.046686653 0.027580524 -0.017748374 -0.0925544 -0.063760586
0.055148415 0.025778137 0.66609573 0.03241093 0.025586845 -0.0165401 0.041399725 -0.020400463
-0.19079843 0.025896642 0.05555596 -0.028413884 -0.049985137 0.03214447 0.049606215 0.046934713
0.04570488 -0.049142223 -0.02982791 0.048471473 -0.013290886 0.047792908 -0.058757517 0.060466934
0.0286693 0.012806081 0.03656743 -0.018284414 0.057159178 0.026137987 0.035750046 0.049901675
0.030672804 0.017276749 -0.026360963 0.04666382 -0.0048757736 0.054609954 0.023404501 -0.029430123
0.049447086 0.03549319 0.048544798 0.035899293 0.05097287 -0.032722425 0.05154432 0.021573003
0.033698108 0.038552377 -0.05341148 0.059916317 0.041787904 0.01807328 0.020091062 -0.0028614376
0.0047798515 0.010216816 -0.19718724 0.04276967 -0.10806021 -0.06287695 0.059597567 0.030387402
0.044732712 -0.013114343 -0.007931914 0.06350481 0.02887367 -0.023933923 0.030220423 0.023088112
-0.036016095 0.034509722 -0.020253494 -0.012612365 0.037746917 0.03844447 0.05158524 0.043125723
-0.020482818 0.04403038 0.059135377 0.023188999 -0.046854224 -0.008601852 0.03987274 0.029195778
0.06559186 0.022377752 0.052954014 -0.04488606 0.04897293 -0.019711826 0.009433955 -0.06739466
0.02127106 -0.055557508 0.03657626 0.05292385 -0.06453638 -0.054157976 -0.14142136 -0.0010679546
-0.042521246 -0.03693391 -0.06648472 0.029818406 0.060128346 0.019351494 -0.019075485 0.005594595
-0.03619226 0.036792953 -0.02623098 0.031818975 0.68675345 0.05171431 -0.07115443 0.026790656
-0.039526485 0.006367875 0.02255649 0.06238614 -0.04053083 -0.05019572 0.038577516 -0.044470444
-0.057446815 -0.036942016 0.0562886 -0.039400123 -0.03336313 -0.042196054 0.06322702 0.022043537
-0.020576818 0.04597868 -0.030717114 0.057832174 0.018890325 -0.048957672 -0.051502295 -0.092047684
-0.05297225 -0.0328563 -0.03621405 -0.025664302 0.050941836 0.04832153 -0.0042046877 -0.15479703
-0.22527447 -0.04358923 0.0066953083 0.042142127 0.060350567 -0.07351957 0.010553389 -0.039140802
0.065983586 -0.04333782 0.028906206 0.003479918 0.031584248 0.026734967 0.022692433 -0.21592902
0.039910816 0.016336035 -0.03391425 0.03152425 -0.011014079 0.012504957 0.031700965 0.045007568

lstm.bias_hh_l0 f4 [11200]
00000000: 6082 0abb 088d c5bc c69e 8c3c 436b 173d
00000010: d781 233d 4f9e bf3c 2966 123d 7bb3 593c
00000020: 4940 07bd 3c37 2ebd bb14 1abd 1615 fabc
00000030: 125d b9be 3dc7 56bd fc58 883c 0a64 363d
00000040: 1da7 4f3d 3433 023d 1200 423d 02c5 c73c
00000050: 161c a43c ac8c 853d 848d 6b3d 03c8 49bd
00000060: 03af 3abd fcfc 32bc a2eb fd3c e651 48bd
00000070: 7093 3ebd a025 ff3c cad9 ef3c 398c 4dbd
00000080: 84d3 58bd b9a4 183d cae6 79bd deb3 f8bc
00000090: 2d8a df3c 2a6f ed3c 9b89 ecbb 833d d93c
000000a0: 96c4 df3b f2b3 1fbd 0529 f13c a488 353d
000000b0: b994 45bd 708c 6e3d 36e4 06bd 799f 46bd
000000c0: 5a6d 443d 8ca3 6d3d 6305 413d 13d1 07bd
000000d0: 9f85 3b3d 8f6b bdb8 ea9a 693d 2df7 49bd
000000e0: 1455 b8bc b650 e03c 9fb2 cf3c b7cb 373c
000000f0: b2b3 e43c 4e17 a1bc bebf 15bd 43e5 33bd
00000100: 74a4 e63c d371 1b3d 4183 bc3c 9f4e 89bd
00000110: 48ec 893c 803d 05bd e312 0dbd 1a7a c4bc
00000120: d65a 33bd 15a0 6c3d 89ca 953c 0f26 09bd
00000130: dba3 e53c 0151 21bd 0dfc bbbd cf0e 8dbd
00000140: d61b 293d c835 bd3c 1003 2e3f dbde 343d
00000150: 3db8 233d db2e 10bd 3f74 183d b7cf 43bc
00000160: 90b3 2ebe e8af 483d 08ee fb3c e9e1 29bd
00000170: 6d52 8bbc 5db4 ef3c bcb7 ff3c e2a5 373d
00000180: 0eb9 e03c a4f5 70bd 041a b7bc 2c25 d13c
00000190: 8da1 8fbc 19f7 dd3c 4f86 93bd 48be 633d
000001a0: 45b7 2a3d 963d 8c3c eb0f 743d d007 29bd
000001b0: 5498 313d 6bec 573d 2c8e 083d ca3f 493d
000001c0: 517e 3e3d c246 073d 831a b9bc 3e3b 5f3d
000001d0: 6fc3 f53b 4479 d33c 8af4 a43b 4713 37bd
000001e0: 07d8 053d f6e0 433d 8eea 2f3d 833a 223d
000001f0: 238b 2a3d b556 76bd b818 f23c ad1f 1c3d
00000200: e33d a53c 805a 123d f358 9cbd 7f9e 823d
00000210: bbe1 143d 926f 043d 3402 cb3c 6cd7 9ebb
00000220: 5ca2 e33b f251 493c 9ea4 4ebe 64c9 183d
00000230: 6b0b b7bd 37d8 39bd bacd 4e3d 503e fa3c
00000240: ed0b 2d3d ef89 b3bc 3883 3dbc dc27 553d
00000250: 5af6 723d 14bc 3dbd 36c0 363d 9840 ab3c
00000260: a8f7 fabc 70ae 583d 0482 08bd c45c c8bc
00000270: 1a15 023d e3f6 1c3d 91a5 873d 68be ec3c
00000280: be72 67bd 2e92 913c 8dc3 4a3d 7e15 ff3c
00000290: 0a4f 38bd a099 853b e734 4d3d d320 433c
000002a0: 05b9 273d 8988 c33c ecbc dd3c 3b15 24bd
000002b0: 52d8 1c3d f356 55bc f75e 5a3c d251 45bd
000002c0: 0618 133d c552 4bbd b4f4 073d 43a6 4d3d
000002d0: 28c8 c1bd 26ff 26bd c132 1cbe b428 f83b
000002e0: 109d 1abd dedd 0cbd 1078 8cbd 07b7 503d
000002f0: 4e4b 003d 4843 173d 4e37 cebc 724f 683c
00000300: 020b eabc 31b4 1b3c fd04 66bd a9b4 473d
00000310: 59fb 353f ff0a 653d cd45 a4bd 20d0 cb3b
00000320: c01a 88bc 197c dbbb 9734 68bb 111f 203d
00000330: 8754 54bd 1b67 45bd d286 6c3c b230 abbc
00000340: b315 9bbd 0466 48bd f92a 6c3d 8206 1ebd
00000350: d689 2ebd d613 01bd 08fd 503d 880d 353d
00000360: d56c 24bd 3148 523d 3fc8 d0bc 75d5 7a3d
00000370: 3b89 533d 7449 22bd 8858 7bbd 738d ecbd
00000380: ba5d 76bd fb5d 19bd 66f2 5dbd 293f 3abd
00000390: a03f 4e3d beed de3c 09d9 77bc fdd2 1abe
000003a0: f1bd 7abe e9dd 2bbd 893a 9e3c a156 193d
000003b0: 4e49 4b3d 0f15 b8bd c9f2 283c ed98 85bc
000003c0: d02b 343d c362 76bc 31a6 0a3d cef4 f13c
000003d0: 60a7 f93c c267 2a3c 8463 0e3d ecee 6ebe
000003e0: 5871 4c3d 530f bf3c e45c 9cbc 30e9 3e3d
000003f0: 4d98 ab3c 11f9 033d ec7c 2d3d 5de1 613d
-0.0021134838 -0.0241151 0.017165553 0.036967527 0.039918747 0.023390917 0.03574196 0.01328742
-0.03302029 -0.042533144 -0.037617426 -0.030527633 -0.3620382 -0.052436102 0.016643994 0.044529
0.05069648 0.031787112 0.04736335 0.024385933 0.020032924 0.06520972 0.057508007 -0.04926301
-0.04557706 -0.010924574 0.030996148 -0.04890623 -0.046527326 0.03114587 0.029278655 -0.050182555
-0.052936092 0.037266467 -0.061011113 -0.030359205 0.027287567 0.028983671 -0.0072185523 0.026518589
0.006828855 -0.03898997 0.029438505 0.044319764 -0.048237536 0.0582394 -0.032932483 -0.04849193
0.04795585 0.0580173 0.047124278 -0.033158373 0.045781728 -9.032257e-05 0.057032503 -0.04930799
-0.022501506 0.027382236 0.025353728 0.011218003 0.027917717 -0.019664433 -0.036559813 -0.043919813
0.02815459 0.037950348 0.023011805 -0.06704449 0.0168363 -0.032529354 -0.03444184 -0.023984004
-0.0437878 0.057769854 0.018285053 -0.03348356 0.028032234 -0.039383892 -0.09178934 -0.0688759
0.041286312 0.023096934 0.67973423 0.044157844 0.039970625 -0.035200935 0.037220236 -0.011951379
-0.17060685 0.048995882 0.03075315 -0.04147521 -0.017007077 0.029260809 0.031215541 0.044835933
0.027431991 -0.05882801 -0.022351272 0.02553042 -0.017533088 0.027095364 -0.07203352 0.05560139
0.041678686 0.01711921 0.059585493 -0.041267216 0.043358162 0.0527157 0.03333871 0.0491331
0.046507183 0.033026464 -0.02259565 0.054499857 0.007500104 0.02581466 0.005034034 -0.04469612
0.032676723 0.04782196 0.0429483 0.039606582 0.041636597 -0.060141284 0.029552802 0.038116146
0.020171111 0.03573084 -0.07634153 0.06377887 0.036348086 0.032332964 0.024781324 -0.0048474576
0.006946845 0.012287604 -0.20179984 0.037301436 -0.08937725 -0.045372214 0.050489165 0.030547291
0.0422477 -0.021916358 -0.0115669295 0.052039966 0.05931697 -0.046321943 0.0446169 0.020904824
-0.03063567 0.05290073 -0.033327118 -0.024458297 0.031758405 0.038321387 0.06623376 0.028899387
-0.05650591 0.0177699 0.049502898 0.031138178 -0.044997253 0.0040771514 0.05009928 0.011909681
0.040947933 0.023868816 0.027067624 -0.04005931 0.038292237 -0.013021219 0.013328305 -0.048173733
0.035911582 -0.049639482 0.03319235 0.050207388 -0.09462005 -0.040770672 -0.15253736 0.0075732116
-0.037747443 -0.034391277 -0.068588376 0.0509558 0.031321816 0.0369294 -0.025172856 0.0141790975
-0.028569702 0.00950341 -0.0561571 0.048756275 0.7108665 0.05591869 -0.08021126 0.006219879
-0.016614318 -0.006698143 -0.0035431737 0.039092127 -0.051838424 -0.048194032 0.014436441 -0.020897243
-0.07572498 -0.048925415 0.05765817 -0.038580425 -0.04261192 -0.031513058 0.05102256 0.044202358
-0.040142853 0.05133838 -0.02548611 0.061238725 0.051644545 -0.03962083 -0.061363727 -0.11550417
-0.06014798 -0.037443142 -0.054186247 -0.04547039 0.050353646 0.027212974 -0.015127429 -0.15119548
-0.2448652 -0.041959677 0.019315021 0.03743613 0.049630456 -0.089883916 0.010311791 -0.016308272
0.043987095 -0.015038195 0.0338499 0.029535677 0.030475318 0.010400714 0.034762874 -0.23333329
0.04991278 0.023322737 -0.019087262 0.046609104 0.020946646 0.03221995 0.042355463 0.055146564

lstm.weight_hr_l0 f4 [2, 2800]
00000000: 08a8 2b3d 4c6b c0bb e11e 65bd 7d4f 93bd
00000010: 93ab 4dbd 142d 3fbd 4c95 65bd 95de f0bc
00000020: a089 d7bc f03c debc 05b3 863d 8129 03bd
00000030: 5899 7c3d 71a6 87bc 814a 783d 977d d23c
00000040: d22d 93bd ec12 91bd 929f 6e3d 90f9 d43c
00000050: 6fa8 74bd 57a1 ccbd 72bf 8b3d eed3 253c
00000060: f357 1bbd 4496 8cbd d7eb 053f a31c 9dbc
00000070: 0050 d2bc d3b7 6f3d aa6c 973d 7e28 de3c
00000080: c5f1 583c 1f6a 71bd 240e 8ebb bb85 9e3c
00000090: a0be 64bd 68fa 7b3d 4f63 863d 5db8 ed3c
000000a0: de2e f5bc 21c1 b8bc 8df8 86bd 327e 4b3d
000000b0: d592 363c 5bb1 1dbd 2c86 d23c a5aa e8bc
000000c0: 60b1 62bd 203c 2cbd ffd1 8e3d f9c1 02bd
000000d0: 9b98 793d cc8c 96bd 11df 65bd a8b6 e5bc
000000e0: 4309 ce3c f6b4 9abd 990b 94bd 3e4a 8c3d
000000f0: b477 3ebd 686b 6ebd b66a 783c 1155 c53c
00000100: 1ab7 6bbd abca 863d 110b 8fbd d264 8dbd
00000110: 498a 8d3d 2db0 bdbc 576c da3c c90f c13c
00000120: d68a eb3b 6ff4 893d c862 7b3d 52ef db3c
00000130: f43c 413d 37dc 64bd d3b2 523d 6bb1 95bc
00000140: 9266 1c3d 36d3 89bd 5c36 18c0 2008 633c
00000150: aecb 85bd a819 f93c 8561 8b3d 0ac9 9cbd
00000160: 90da 48bd d162 4f3d 9e20 ff3c a7a1 343c
00000170: 9386 bdbc fc00 56be 6c24 163d bb2a 943d
00000180: e357 7d3d 0f1d 2fbc a491 07bd 65b7 6ebd
00000190: e1fb 3fbc ef86 15bd f8b5 a53d 4faa 24bd
000001a0: e091 3a3d 1097 89bc 689d 7b3d 4877 b2bc
000001b0: 914a 883d 54dc e2bc 7312 3d3d ecbb 5dbd
000001c0: 52ae a8bc 3d2b 53bd 9de8 52bc 22c8 5fbd
000001d0: 8e0d 933d ae41 81bd 639d 8fbd 11bb 0a3d
000001e0: c269 9a3d 47dc 44bd ab4a 07bd 31d5 843d
000001f0: 9f9a 87bd 9aac 093d b6ee 723c bc37 7a3d
00000200: 7283 213d b4a5 8e3d e3fb 87bd fdd6 8a3d
00000210: db8b 523d 8489 833d 45d2 44bd 0ec1 333c
00000220: 7860 8abd a3d6 63bd 3c14 a3bc ffbc 16bd
00000230: b80e 1e3d ad90 893d 952a 873d 2e58 4abd
00000240: 9f35 913d 0dcf 87bd cf3f 893d 0842 813d
00000250: 3273 7b3d 3c92 933c c77a 8cbd 9c55 953b
00000260: db26 5cbe e482 383d 1e2c bf3c 62c9 9fbf
00000270: c793 61bd 6886 8dbd 86cf 56bd 6754 953d
00000280: afdd c3ba 28d1 49bd 6ee7 80bd feb1 67bd
00000290: ae6c 6d3a b2f4 983c 9dcb 8bbd d186 68bd
000002a0: d2c9 32bd fb39 91bd 5108 963d f6a8 d2bc
000002b0: 8931 97bd bb14 2b3c 5773 f43c 6a81 79bd
000002c0: ffc0 223d 1568 e2bc bb88 debc 575b e93d
000002d0: be33 983d 874e a13d 8b3a d03c a20a 973b
000002e0: 1be3 e7bd 710c 673c a226 8c3d 7e39 94bd
000002f0: d976 723d 3a94 6b3d 197b 023d 7333 ccbb
00000300: ad93 42bc ddbd 85bd aeed 8abc 8f1f 9cbd
00000310: b8b9 2ec0 faa2 873d 373a 77be e399 9bbd
00000320: 7035 733c a9a2 8d3d e329 09bc 2992 8d3d
00000330: 562e b93c d200 853e 4229 1cbe 6451 503c
00000340: 3c2a 953f 4838 e03c 846f 813d 6377 df3c
00000350: 3cd3 c53b 49a4 13bc fdd1 87bd 94de 8abd
00000360: c16e cabc 8be8 82bd 4094 99bc 98da 863d
00000370: 2414 88bd 2eb2 1cbc 2eff ce3a 94a7 62bd
00000380: ba7f ebbc f90a c53c 5004 65bc b3b7 97bc
00000390: 2a98 8cbd 0127 45bd 0865 5cbd 6f9f 403d
000003a0: b4c1 f93c b2cd d3bc b217 1e3d 0703 063d
000003b0: 1aff 94bd 4218 a7bd 4137 68bd 4352 ac3c
000003c0: 926f 92bd 6227 e9bb cef2 563d 3fcd 493d
000003d0: 05e1 4dbd a413 563d b775 71bd 178c 6dbd
000003e0: 7ecb 3fbd 8e41 963d 0357 04be c6c4 7abd
000003f0: 76df 693d 37d8 07bd 7717 9a3d d4b2 463d
0.041908294 -0.005872166 -0.05593765 -0.071928956 -0.050212454 -0.04667385 -0.056050584 -0.02940301
-0.026310742 -0.027128667 0.06577114 -0.032022003 0.061669677 -0.016558858 0.060617927 0.025694652
-0.07186474 -0.07083687 0.058257647 0.025997907 -0.059730943 -0.09991711 0.06823625 0.010121329
-0.03792567 -0.068645984 0.5231299 -0.019178694 -0.025672913 0.058524918 0.07393773 0.027118918
0.013241236 -0.058939096 -0.004335182 0.019350877 -0.055845857 0.061518103 0.0656191 0.029018575
-0.029929575 -0.022553029 -0.06590376 0.049680896 0.011143406 -0.038499217 0.025698744 -0.028401682
-0.05534494 -0.042049527 0.06973647 -0.031923268 0.06093655 -0.073510736 -0.056120936 -0.028041199
0.0251509 -0.07554047 -0.072287746 0.06850098 -0.046500877 -0.0582079 0.015162161 0.024088414
-0.057547666 0.065816246 -0.069845326 -0.069039956 0.069111414 -0.023155296 0.026662989 0.023567097
0.0071881814 0.06736075 0.061373502 0.026847515 0.04717727 -0.055874076 0.05144007 -0.018273076
0.038183756 -0.067297384 -2.3783178 0.013856918 -0.065329894 0.030407742 0.0680571 -0.07655533
-0.049036562 0.050631348 0.031143483 0.011024869 -0.023135459 -0.20898813 0.03665583 0.07234713
0.061851393 -0.01068808 -0.033097878 -0.058280367 -0.011717767 -0.036505636 0.080913484 -0.04020148
0.045549273 -0.016795665 0.06142941 -0.021785393 0.066548474 -0.027692951 0.046160173 -0.054134294
-0.020590935 -0.051554907 -0.012872842 -0.05463422 0.0718032 -0.063113555 -0.07012441 0.033869807
0.07539703 -0.048061635 -0.033030193 0.064859755 -0.066212885 0.03361187 0.014827421 0.06108831
0.039431997 0.06965199 -0.066398405 0.06779287 0.051402908 0.064227134 -0.04805209 0.010971321
-0.06756681 -0.055624615 -0.01990711 -0.036801334 0.038588256 0.06717048 0.06599919 -0.0494005
0.070903055 -0.06631289 0.06701624 0.063114226 0.061389156 0.018014066 -0.068593554 0.0045573246
-0.21499197 0.045046702 0.023336466 -1.2483332 -0.055072572 -0.069104016 -0.052444004 0.07291489
-0.0014943386 -0.049271733 -0.06294142 -0.05656623 0.0009057027 0.018671367 -0.068259455 -0.056769196
-0.043649502 -0.07091137 0.07325805 -0.025715332 -0.07382495 0.010441954 0.029840155 -0.060914434
0.039734837 -0.02763752 -0.027164808 0.11394375 0.07431744 0.07876306 0.02541854 0.004609422
-0.11322614 0.014102087 0.06843306 -0.07237528 0.059195373 0.057514407 0.031855676 -0.006231719
-0.011876029 -0.06530354 -0.016959038 -0.07623207 -2.7300854 0.06622882 -0.24143301 -0.07597711
0.014844283 0.069157906 -0.008371803 0.069126435 0.022605103 0.25977188 -0.15250114 0.012714718
1.1653514 0.027370587 0.06320098 0.027278608 0.006037144 -0.009011337 -0.06631849 -0.06780735
-0.024711015 -0.0639201 -0.018747449 0.06584662 -0.066444665 -0.009563966 0.0015792602 -0.055335596
-0.028747428 0.024053084 -0.013978079 -0.018520212 -0.068649605 -0.0481329 -0.05380729 0.047027048
0.030487873 -0.02585492 0.038596816 0.03271773 -0.07275219 -0.08158924 -0.05669332 0.02103532
-0.071501866 -0.0071152905 0.05247765 0.049268004 -0.050263423 0.052264825 -0.058950152 -0.05799493
-0.046824925 0.07336722 -0.12923817 -0.061222814 0.057097875 -0.033165183 0.07524007 0.048510388

exp_avg f4 [11200, 2]
00000000: 9e95 81b6 e1d1 d3b5 eb1c 6ab2 ae93 2132
00000010: 2001 e1b6 1652 efb6 dc93 f0b7 34e2 e6b7
00000020: 5ab7 17b7 e6ea 19b7 4695 fbb6 be71 f5b6
00000030: 9f7b 0eb7 83cb 16b7 3fb5 68b7 882a 5cb7
00000040: 6ee0 40b5 f4c7 9cb4 94db d132 e4a1 a4b3
00000050: f58c 41b7 2701 78b7 8de2 4135 da9f 3b35
00000060: 8028 7232 fda9 8232 7f39 4034 590f 3c34
00000070: b456 6db7 7813 73b7 78f4 b0b6 ac25 b1b6
00000080: a5bd ddb6 3394 fab6 c9ba 4cb7 bb49 59b7
00000090: 83be 38b8 77bc 24b8 e129 0434 24cb 1d34
000000a0: 930c fab8 136e d3b8 8b98 1637 1e61 1537
000000b0: 0ac4 15b7 d298 1fb7 a7f8 62b4 548f 38b4
000000c0: 510c 1b36 1dda 1036 717b 323a ab2c 113a
000000d0: 2b36 8e37 1b0b ec37 39d8 81b5 aa54 96b5
000000e0: 353f c1b4 bf0c cfb3 6026 d6b7 3651 c4b7
000000f0: 1098 97b6 9855 b1b6 3e68 1535 2f96 b534
00000100: c543 2ab3 51b9 f832 69e2 74b7 470e 74b7
00000110: e99b 0d33 dbfd 1033 b1f9 a1b6 7513 81b6
00000120: 32c6 92b7 6b6c 8bb7 6d24 f9b6 5010 06b7
00000130: f964 32b8 4217 27b8 0a60 0db8 03cd f2b7
00000140: bbd1 ae34 bbca ce34 7ece e834 3b4f 1434
00000150: 2223 7bb7 7941 7eb7 bb15 0fb7 d0e4 10b7
00000160: c5a7 d234 0d89 db34 40d4 8cb7 8a10 7fb7
00000170: a65a 9ab8 f3cd 4bb8 da1c e1b3 7c5f 91b4
00000180: 8c3c 8cb7 1134 85b7 7fc6 04b8 90e1 e6b7
00000190: 1296 9ab8 960c 88b8 0829 ccb3 7a6c 78b4
000001a0: 8412 28b7 058a 29b7 9170 94b9 781a 4bb9
000001b0: 74c7 33b7 9eb8 36b7 87ed 8234 310b f634
000001c0: e316 1a35 52ae 3335 ad98 29b7 3d60 34b7
000001d0: da77 3fb9 42a8 1fb9 6066 2eb9 a363 00b9
000001e0: 6177 23b7 97ad 1db7 0cab 8735 1d23 b535
000001f0: 2816 97b4 80b2 6cb4 4651 7435 3416 6d35
00000200: 3749 45b8 8c52 30b8 1ccb 0ab7 9936 15b7
00000210: 39b4 47b8 e62a 36b8 9ccd 19b8 fc8c 1ab8
00000220: 8698 eab7 fa59 dcb7 d7b8 da33 ecfd c630
00000230: 16e4 e1b6 e820 88b6 c3d2 e634 11b7 1135
00000240: 24a9 7d34 cbef 7134 84a2 d6b6 d315 f2b6
00000250: a622 5db8 eee4 47b8 fafa 1435 9370 e734
00000260: 3670 53b7 b60e 49b7 b8c2 6bb9 3a7e 40b9
00000270: 1e7b d2b5 bb6b 16b6 6c2f a535 a8b5 7d35
00000280: 4b43 71b7 2da9 58b7 dcb4 84b7 2baa 83b7
00000290: d088 aa3d 32c4 0f3e 1e71 6ab7 69de 41b7
000002a0: 3cb4 5ab8 7cde 43b8 aedc 8435 527e 9435
000002b0: b033 1eb7 66d6 2cb7 b13b 8eb9 d8ed 50b9
000002c0: b968 0937 7464 1437 2df7 00b6 8b99 37b6
000002d0: 24fb a7b6 3df8 b4b6 6e40 1435 903e 0a35
000002e0: 61d3 c735 dd8e 0e35 4d43 50b7 a1e0 6c36
000002f0: 23ae 09b7 fa59 10b7 e821 1bb7 6979 2bb7
00000300: f2d6 09b7 345d 11b7 1d94 85b3 2cd3 5eb2
00000310: 75a8 dd35 cd50 a635 7838 09b7 685d 0eb7
00000320: 45d4 09b7 207c eab6 1179 b2b6 cccb beb6
00000330: e8ce 46b6 b2e5 bdb6 6f74 b6b5 8839 d3b5
00000340: df74 9cb6 f958 a6b6 0288 38b8 80e6 30b8
00000350: 2bf6 1db7 14d0 25b7 0393 d2b4 6965 9134
00000360: d6f7 bdb6 413c d0b6 640e e1b6 5bbc e6b6
00000370: fe7b 60b6 148f 70b6 857d 8ab7 3a55 81b7
00000380: d41f f8b6 5d3c e2b6 a778 1cb7 210b 27b7
00000390: 173c 8b34 b74c 5834 3291 86b7 8578 81b7
000003a0: 0a50 3db7 ce28 24b7 4fcf 01b7 14eb 09b7
000003b0: 87dc 9bb8 fb6c 89b8 f073 8135 3b67 9935
000003c0: ae3c a4b7 5d8e aab7 e490 c9b6 daa7 d2b6
000003d0: eac7 4534 fe14 6c34 f1e5 8db7 45b0 8cb7
000003e0: 4346 c4b7 b659 bab7 8674 7137 500b 8137
000003f0: a46f 1db7 8bb1 09b7 4a99 2ab7 0c11 30b7
-3.8619173e-06 -1.5781808e-06 -1.3627168e-08 9.405012e-09 -6.7056535e-06 -7.132311e-06 -2.8679082e-05 -2.752347e-05
-9.042991e-06 -9.174202e-06 -7.4977606e-06 -7.3148103e-06 -8.492642e-06 -8.9880805e-06 -1.3870477e-05 -1.3122924e-05
-7.185216e-07 -2.920275e-07 2.4430655e-08 -7.666293e-08 -1.1536516e-05 -1.478222e-05 7.222778e-07 6.9895543e-07
1.4095463e-08 1.5211294e-08 1.790231e-07 1.7514448e-07 -1.4146488e-05 -1.4488462e-05 -5.2736686e-06 -5.2793966e-06
-6.608391e-06 -7.4678333e-06 -1.2202837e-05 -1.2951375e-05 -4.4046446e-05 -3.927617e-05 1.2308693e-07 1.4695667e-07
-0.00011923271 -0.00010081767 8.976213e-06 8.903704e-06 -8.926736e-06 -9.51272e-06 -2.113835e-07 -1.7188478e-07
2.310397e-06 2.158463e-06 0.00068085553 0.0005537967 1.6952943e-05 2.8138564e-05 -9.674178e-07 -1.1200511e-06
-3.599504e-07 -9.641507e-08 -2.5528658e-05 -2.3402838e-05 -4.517853e-06 -5.2849755e-06 5.565852e-07 3.382315e-07
-3.9642845e-08 2.8955272e-08 -1.4596249e-05 -1.45468575e-05 3.297092e-08 3.3758493e-08 -4.827242e-06 -3.8467647e-06
-1.7496848e-05 -1.6620577e-05 -7.425019e-06 -7.99082e-06 -4.2532545e-05 -3.9837563e-05 -3.3706463e-05 -2.8944114e-05
3.2562625e-07 3.8517996e-07 4.336361e-07 1.3812398e-07 -1.4968946e-05 -1.5154824e-05 -8.528524e-06 -8.636343e-06
3.9237617e-07 4.0891646e-07 -1.6788137e-05 -1.5203035e-05 -7.360177e-05 -4.8590777e-05 -1.0482627e-07 -2.707783e-07
-1.6717495e-05 -1.587908e-05 -3.1656116e-05 -2.7523172e-05 -7.371245e-05 -6.48733e-05 -9.506954e-08 -2.3136263e-07
-1.0017891e-05 -1.010532e-05 -0.00028312628 -0.00019369449 -1.071567e-05 -1.089103e-05 2.438721e-07 4.5829213e-07
5.7402775e-07 6.6936366e-07 -1.0108733e-05 -1.0751243e-05 -0.00018259828 -0.00015226103 -0.00016632071 -0.00012244149
-9.743352e-06 -9.398346e-06 1.0108065e-06 1.349577e-06 -2.8142063e-07 -2.204415e-07 9.101535e-07 8.832169e-07
-4.7036647e-05 -4.2038548e-05 -8.272731e-06 -8.893804e-06 -4.7613143e-05 -4.3432134e-05 -3.666953e-05 -3.6847763e-05
-2.7965998e-05 -2.6267942e-05 1.0185038e-07 1.4478565e-09 -6.7320752e-06 -4.0569466e-06 4.2994188e-07 5.4283106e-07
2.3623994e-07 2.253211e-07 -6.3966163e-06 -7.2147027e-06 -5.2722775e-05 -4.7658505e-05 5.5499515e-07 4.3109011e-07
-1.2602706e-05 -1.1983959e-05 -0.00022483885 -0.0001835757 -1.5682051e-06 -2.241445e-06 1.230726e-06 9.451419e-07
-1.4380387e-05 -1.2913993e-05 -1.5819845e-05 -1.5695658e-05 0.08326876 0.14039686 -1.3973824e-05 -1.155548e-05
-5.2143107e-05 -4.6698828e-05 9.898993e-07 1.1063623e-06 -9.429568e-06 -1.0301917e-05 -0.00027128824 -0.0001992503
8.190219e-06 8.844876e-06 -1.9217362e-06 -2.7358499e-06 -5.0062245e-06 -5.3933168e-06 5.5228054e-07 5.1500047e-07
1.4888175e-06 5.3107016e-07 -1.2413436e-05 3.5297492e-06 -8.206381e-06 -8.604018e-06 -9.246614e-06 -1.0220662e-05
-8.215882e-06 -8.664374e-06 -6.220237e-08 -1.2970116e-08 1.651481e-06 1.239148e-06 -8.178984e-06 -8.485607e-06
-8.215259e-06 -6.9881935e-06 -5.3189074e-06 -5.6861663e-06 -2.9624734e-06 -5.659379e-06 -1.3593943e-06 -1.5737469e-06
-4.662768e-06 -4.9575433e-06 -4.3995686e-05 -4.217634e-05 -9.415245e-06 -9.883213e-06 -3.9222513e-07 2.708214e-07
-5.661491e-06 -6.2058975e-06 -6.707198e-06 -6.8764616e-06 -3.3450774e-06 -3.584607e-06 -1.6509332e-05 -1.5417685e-05
-7.3946812e-06 -6.742352e-06 -9.326416e-06 -9.956567e-06 2.593449e-07 2.0144476e-07 -1.6041657e-05 -1.543412e-05
-1.1283913e-05 -9.784662e-06 -7.737267e-06 -8.22057e-06 -7.4320524e-05 -6.552968e-05 9.644991e-07 1.1429432e-06
-1.957858e-05 -2.0331872e-05 -6.0071343e-06 -6.278028e-06 1.8419783e-07 2.198685e-07 -1.6915585e-05 -1.6771382e-05
-2.3397739e-05 -2.2214703e-05 1.439185e-05 1.5383266e-05 -9.383923e-06 -8.207174e-06 -1.016848e-05 -1.04943865e-05

exp_avg_sq f4 [11200, 2]
00000000: 2c2d 3d3a 5ec9 2e3a cab5 8539 9e2f 7039
00000010: 0d44 0838 9fe7 fc37 5893 443c e6f7 323c
00000020: 39b3 2e3b ae00 203b 73d6 9238 7ad5 8b38
00000030: 4b47 0537 d2f9 f736 800c 3b3b 35a3 2b3b
00000040: c490 a23a 807b 983a 8437 293a f4f1 183a
00000050: af0f 1f38 e6c7 1238 3d20 bb39 0bf4 b039
00000060: 9f0a 4936 79f1 2b36 f97b ea39 b224 db39
00000070: 253a 3c39 ddb3 2839 4bcf 993b f486 8e3b
00000080: c978 573b d089 453b c1ab c438 3d3a b638
00000090: 3d44 123c 4ea0 053c c0f2 063a 9cf9 f739
000000a0: 3a85 953b 92a2 893b ff84 cb38 f695 ba38
000000b0: 9461 d53b a4cf c43b 541f 1f3b e4fc 103b
000000c0: 486c 653b 419f 573b 7f7c 2d3b cca0 223b
000000d0: ab19 a536 a50e 9a36 f834 5339 41e2 4939
000000e0: 65f1 2e39 f85e 1d39 dbb5 333b ee6f 273b
000000f0: e52d 943a abbb 893a b330 f03a 62cc df3a
00000100: c799 bb38 da02 af38 c076 913a e8b3 833a
00000110: 798f 9837 a666 8f37 8586 093b 39d5 ff3a
00000120: 8da4 223b d302 183b 8f8d ff39 b808 ec39
00000130: 2166 2b38 1272 1738 7dd6 b93a b581 ac3a
00000140: 1448 413a 0b21 333a 4ab3 3539 cd2a 2839
00000150: 1b3e cc3a 782b ba3a 925e bc3b 104b ac3b
00000160: ac1c 9e3a 801f 913a af9e fc3a 0ca8 e63a
00000170: d785 1c3d 1aec 113d 705f 0136 710e f135
00000180: ebca 073a 4e2a fa39 abb2 293c 2f0f 1c3c
00000190: 350b b53b b7db a73b eca5 9839 a494 8d39
000001a0: 8f5b 2e3c 9ec7 203c b71a 3238 ac13 2038
000001b0: aa2f 0c3c 9b73 fe3b 687b 2f3a 265e 223a
000001c0: d88c 833a c0f1 753a 1309 cb3a 3022 bd3a
000001d0: c6d0 663c 041b 593c 1c3b d53a f796 bf3a
000001e0: 2708 653b 5a4c 543b 81b3 8038 f4a6 6638
000001f0: f765 083b ea8e fe3a 4e65 7c39 569c 6d39
00000200: 998a 0839 70f2 fd38 f7df c03a f43f b13a
00000210: 555a a23b 91c9 913b ea7f 3938 c990 2b38
00000220: 3cb9 c43b 5658 b73b e40b 9e37 8af6 8b37
00000230: b1d1 be39 e11e af39 44a2 a23b f3d5 973b
00000240: 2be5 cf3a 200d c13a 4091 683b 90a9 533b
00000250: 8403 953a daed 853a 00b8 ae3a 5379 a23a
00000260: 8ece a438 7fa1 a138 e1c7 5a39 4b4e 4e39
00000270: dee8 6b33 4872 6d33 a294 7039 ff4f 5839
00000280: 981f ff39 be9d ea39 0f36 323b c7bb 263b
00000290: d747 1b43 b840 0b43 cd79 1f3a f0f8 143a
000002a0: 7152 953a 8d1b 8c3a e098 b43a 881a aa3a
000002b0: 0f0d 5c39 f69f 4839 fee4 b138 3752 a138
000002c0: cba8 5638 30f2 4038 e27c 8c39 66f9 8039
000002d0: c81c 613b c5e8 4e3b d41a 603a 3c3a 563a
000002e0: 99ab c23a 829e b33a b9d6 2739 fae5 1b39
000002f0: 4165 d63b fc9d c43b e5dd 1339 05cd 0839
00000300: ce9f c53a 7e7b b33a 1a45 4e39 c933 4739
00000310: 1fbf d737 3f59 ca37 7919 f83a 3aa7 e43a
00000320: e1d9 463c f349 383c af04 0d3a 423e 013a
00000330: bd09 8f35 760d 9135 8b23 3438 2823 2638
00000340: 2dc5 8c39 7b59 8039 df7d fb3a e9bc ea3a
00000350: 4cca b439 c2a0 a539 4c32 973a 2e34 8c3a
00000360: 85ad 1f3c 5615 143c 78e4 473a a526 393a
00000370: c441 ec38 52c3 d938 00a5 9a3b c180 903b
00000380: 331b 193b 9327 0d3b a6ba c239 77cd b339
00000390: a058 763a 1dd0 643a 73a2 083b 3cf0 f93a
000003a0: b121 143b e5fa 093b e7c0 3e3a 1688 2d3a
000003b0: 4be7 fb3a 27a9 e93a 1abc 3c3b 4827 313b
000003c0: a0ca 7139 fc5c 5539 31dd 8e38 e908 8238
000003d0: f031 c939 7853 b939 247f 153a 93ba 063a
000003e0: 784f 2b3d b1f6 1b3d c392 d63b 8a40 b93b
000003f0: 446c 803a ef96 6e3a 6e70 3d3a a63c 2e3a
0.0007216509 0.00066675793 0.0002550318 0.00022905922 3.2488304e-05 3.0148598e-05 0.01199802 0.010923361
0.0026657118 0.0024414468 7.001767e-05 6.6677996e-05 7.944017e-06 7.3902565e-06 0.0028541386 0.0026189808
0.0012402763 0.0011633486 0.0006455111 0.00058343937 3.792316e-05 3.4995282e-05 0.0003569144 0.00033751162
2.9957516e-06 2.5621541e-06 0.00044724325 0.00041798275 0.00017950738 0.00016088733 0.0046939007 0.0043495838
0.003287839 0.0030141957 9.378e-05 8.689284e-05 0.008927402 0.008155895 0.0005147867 0.00047297485
0.004563001 0.004200288 9.704567e-05 8.8971035e-05 0.0065118764 0.006006198 0.0024280148 0.002212339
0.0035007168 0.003290132 0.002647191 0.002481508 4.9203713e-06 4.5912625e-06 0.0002014226 0.0001925314
0.0001668386 0.00015008065 0.0027421627 0.0025548893 0.0011305182 0.00105082 0.001832506 0.0017074461
8.945498e-05 8.3451814e-05 0.0011098012 0.0010048123 1.8186622e-05 1.7094728e-05 0.002098472 0.0019518501
0.0024817318 0.0023195043 0.0004874286 0.00045019924 4.0864692e-05 3.610744e-05 0.0014178302 0.0013161214
0.0007373106 0.0006833232 0.00017328296 0.00016037673 0.0015582474 0.0014203629 0.0057485783 0.0052579716
0.0012062988 0.001107201 0.0019273366 0.0017597689 0.038213577 0.035625555 1.927805e-06 1.7960102e-06
0.00051800784 0.00047715235 0.010357539 0.009525104 0.0055250176 0.0051226276 0.0002911532 0.00027004362
0.010641946 0.009813217 4.2463387e-05 3.8165294e-05 0.008556286 0.007765246 0.0006694109 0.0006193839
0.0010036482 0.0009382032 0.0015490375 0.0014429744 0.014087861 0.01325107 0.0016268226 0.0014617135
0.0034947486 0.0032394142 6.136951e-05 5.499176e-05 0.002081273 0.0019421254 0.00024070332 0.00022660321
0.00013021602 0.000121091376 0.0014715184 0.0013523088 0.004954616 0.0044490774 4.4226566e-05 4.090442e-05
0.006003527 0.0055952473 1.8840605e-05 1.6684895e-05 0.00036395856 0.00033401608 0.004963191 0.004633659
0.0015861144 0.0014728643 0.0035486966 0.0032297112 0.0011368846 0.001021798 0.0013329983 0.0012395777
7.858603e-05 7.707159e-05 0.00020864561 0.00019674857 5.4926993e-08 5.52848e-08 0.00022943554 0.00020629166
0.0004866093 0.00044749485 0.0027192866 0.0025441514 155.28062 139.2528 0.00060835184 0.00056828465
0.0011392367 0.0010689363 0.001377847 0.0012977878 0.000209857 0.00019133076 8.482671e-05 7.692392e-05
5.1178777e-05 4.6001922e-05 0.00026795926 0.0002459988 0.003434943 0.0031571847 0.00085489196 0.000817213
0.0014852165 0.0013703855 0.00016006352 0.00014867625 0.006542832 0.0060002785 0.00014101675 0.00013046346
0.0015077533 0.001369342 0.00019671433 0.0001899741 2.5718995e-05 2.4121835e-05 0.001892849 0.0017444857
0.012136907 0.0112481 0.0005379421 0.00049302366 1.0657164e-06 1.080726e-06 4.2948446e-05 3.9610226e-05
0.00026849788 0.0002448073 0.0019187293 0.0017909083 0.00034482998 0.00031591026 0.0011535375 0.0010696703
0.00974596 0.00903829 0.0007625292 0.00070629484 0.00011265607 0.000103837476 0.0047193766 0.00440988
0.002336216 0.002153848 0.00037141627 0.00034294624 0.00093973614 0.0008728521 0.002084878 0.0019068788
0.002260309 0.0021054086 0.00072766695 0.00066197047 0.0019218711 0.0017826901 0.002879864 0.002703147
0.00023059035 0.00020347902 6.812288e-05 6.200543e-05 0.00038374914 0.0003534814 0.00057028444 0.0005139496
0.041823834 0.03807706 0.006548257 0.0056534456 0.0009797891 0.00091014704 0.0007226531 0.00066466106
