lightning_logs/version_79/checkpoints/epoch=20-step=8316.ckpt (torch, 661950 bytes, 15 tensors)

lstm.weight_ih_l0 f4 [8400, 2]
000000 63 b5 2d bc 69 68 b5 bc 7f 60 ff 3c 9a 93 53 3d
       -0.010602328 -0.022144513 0.031173943 0.051654436
000010 7c c7 d3 3c a0 56 95 3c e6 72 75 3d 83 41 91 3c
       0.025851957 0.018229783 0.05992403 0.017731434
000020 13 b1 d3 3c d4 f9 c3 3c 72 1e a4 3c 2d 94 26 3d
       0.025841272 0.023922838 0.020034049 0.040668655
000030 85 d1 5b bd 42 8c ff bc f9 31 c4 bb a7 a5 d3 3c
       -0.05366661 -0.03119481 -0.0059874025 0.025835825
000040 82 6e 88 3d 6f b1 39 3d 3c d1 24 3d 5a e2 05 3d
       0.06661703 0.04533523 0.040238604 0.03268657
000050 a5 d8 9c bd 42 e9 85 bd a9 4b dd bd 69 1e ef bd
       -0.07658509 -0.06538631 -0.10805447 -0.11675722
000060 bf a9 0d 3d 7d 51 c5 3c e2 30 35 bd 21 a9 22 bd
       0.03458571 0.024086708 -0.04423607 -0.039712075
000070 bb 86 b0 bd a5 46 9b bd ad 85 c4 bd 89 84 b8 bd
       -0.08619448 -0.07581834 -0.09595809 -0.09009654
000080 e9 da af 3c 43 45 2c 3d 8a 47 c7 bc b0 56 5f bd
       0.02146669 0.04205824 -0.024326105 -0.05452603
000090 f1 cc fa bb 6d ec 0a bd 25 38 51 bd 6d 0f 95 bd
       -0.0076538255 -0.03391688 -0.051078934 -0.07278333
0000a0 70 38 b2 3c 0a f8 6d 3c ae 89 e9 3c 69 b2 24 3d
       0.021755427 0.014524469 0.028508034 0.040209208
0000b0 f6 e8 8f 3d cf d1 c5 3d c9 ba 56 3d b5 ef a2 3c
       0.07026856 0.096591584 0.052424226 0.019889692
0000c0 4f 15 a0 bd 88 8c 46 bd 16 4b 93 3d 8d 0e b9 3c
       -0.07816564 -0.048473865 0.07192056 0.022589946
0000d0 68 e5 a0 be d7 a1 97 be 0d d4 25 bd 16 21 c1 bc
       -0.31425023 -0.29615662 -0.04048543 -0.023575347
0000e0 9e 09 75 bd a9 b4 1d bd 02 9a 16 3d 5a 32 cc 3c
       -0.059823625 -0.03850237 0.036767967 0.024926353
0000f0 a5 39 7f bd 62 46 6c bd 56 0b 54 3d 9b 67 26 3c
       -0.062310833 -0.05768431 0.051768623 0.010156537
000100 22 5f 2f 3d 22 57 98 3d a4 50 97 bd 0c 4d 66 bd
       0.042815335 0.07438494 -0.07388428 -0.05622582
000110 d5 9a 97 3c 0e b7 40 3d 20 5c 30 bd fb e5 4f bd
       0.018506447 0.047049575 -0.043056607 -0.050756436
000120 91 f0 65 3d 29 f5 02 3d f8 9c 54 bc 18 0d 1b bd
       0.056137625 0.031972084 -0.012976877 -0.037854284
000130 17 91 15 3d 6b 17 23 3d fd 5b 5d 3d b0 2d 3c 3d
       0.03651532 0.039817255 0.054042805 0.04594201
000140 a6 31 cf 3c 75 7d 5e 3d 11 77 7f bd 04 ea 3d bd
       0.025292229 0.054318864 -0.06236941 -0.046365753
000150 ea 0b 3d bd e0 0c 53 bd 66 4e 4c bc 65 fe c0 bc
       -0.04615394 -0.05152595 -0.0124698635 -0.023558805
000160 ef c6 53 3c 6c 5a 31 3d 93 df 3f 3d 3c 2a 43 3d
       0.012925847 0.043299124 0.046844076 0.0476477
000170 f4 f2 6c bd 65 88 87 bd 6b c3 47 3d 4b ee 4c 3d
       -0.057848886 -0.06617812 0.04877035 0.05003194
000180 58 a3 70 3c 51 63 20 3d a5 bf f0 bd 73 20 00 be
       0.014687382 0.039157216 -0.11755303 -0.12512378
000190 8b 0f 1f 3d 5b d3 f4 3c 0f 1d cd 3c ef 73 1e 3d
       0.038833182 0.029885938 0.02503827 0.03868478
0001a0 28 91 96 bc dd 86 98 bc b2 49 92 bd 70 bc 63 bd
       -0.018379763 -0.018618995 -0.071429625 -0.05559963
0001b0 cf 8b 89 bd 6b f7 9c bd 7c 15 64 bd 93 6d 2e bd
       -0.067161195 -0.07664379 -0.05568455 -0.042584967
0001c0 5d b3 bf bd 3b 5c a7 bd 63 4c 46 3d ba ee 89 3d
       -0.09360383 -0.081718884 0.04841269 0.067349866
0001d0 dc f8 2d bd b9 8f 1e bd d7 fc fb 3c d0 d9 c7 3c
       -0.04247366 -0.038711283 0.030760212 0.024395853
0001e0 e7 3c 53 bd 8b f7 29 bd 67 0f ed 3c 34 79 78 3d
       -0.051571753 -0.04149584 0.028938008 0.060662463
0001f0 b0 dd 34 3d 7f 60 da 3c 45 41 47 3d a6 71 1e 3d
       0.04415673 0.026657341 0.04864623 0.038682602
000200 51 3e 59 bb d3 99 f9 ba ac ec 89 bd 0b 0e 0b bd
       -0.0033148716 -0.0019043036 -0.06734595 -0.03394894
000210 2c 5d 89 3d 55 02 c4 3d 88 1d f9 bc c7 f7 fd bc
       0.06707224 0.09570757 -0.03040959 -0.031001939
000220 9d 23 7f bd 73 f0 8c bd cb a4 cc bd be e9 a2 bd
       -0.062289823 -0.068817995 -0.09992369 -0.07954739
000230 74 16 6b 3d 5f 3c fc 3c aa b0 4a 3d da 26 f0 3c
       0.05739446 0.030790506 0.049484886 0.0293154
000240 1a 2e 90 be 5b 8e 9b be 27 6d 0a 3d fb 01 e5 3c
       -0.28160173 -0.30382046 0.033795502 0.027955046
000250 eb 01 0c 3d 0f 7e 34 3d 8f e3 3e 3d c3 1a 65 3d
       0.034181517 0.04406553 0.046603736 0.055933725
000260 6b c1 92 3d 8d d7 c8 3d e9 30 95 3c 9e 2e 5d 3b
       0.07165798 0.09806738 0.018211799 0.003374971
000270 5e 64 9f bd 79 65 b9 bd 1e d4 cc bc 2a 15 6d bd
       -0.077828154 -0.090525575 -0.02500349 -0.05788151
000280 f6 f4 90 bd fd 6b 33 bc b9 d4 fe 3c 9b 5b e8 3c
       -0.070779726 -0.010951039 0.031107293 0.028363993
000290 66 e4 38 3d ef 36 62 3b 75 71 ac bc 8a 0e 0c 3b
       0.045139693 0.0034517606 -0.021050194 0.002137097
0002a0 3d 8d 9e bd ea 2a f2 be 35 53 ba bd c5 e1 af bd
       -0.07741783 -0.47298366 -0.09097902 -0.08587984
0002b0 b5 c5 99 bd 37 37 9b bd eb 02 d5 bc 5e 2c c6 bc
       -0.07508413 -0.07578891 -0.026002368 -0.024191078
0002c0 b8 84 74 3c 2d 4d 14 3d 38 ee 15 3d e6 61 ea 3c
       0.014924221 0.036206413 0.036604136 0.028611135
0002d0 1a 9a 8d 3d b1 2e 94 3d 36 bd 8a bd aa 2a a3 bd
       0.06914158 0.07235468 -0.0677437 -0.07967122
0002e0 e8 69 66 3d 37 bc c0 3c a8 46 19 bb 78 0e 86 3c
       0.056253344 0.023527248 -0.0023388062 0.016364321
0002f0 e3 58 a3 3d a2 68 8e 3d cf 1f 7c bd 35 6e a1 bd
       0.07975938 0.06953551 -0.061553773 -0.078823484
000300 7b 92 dd bc 9e a9 55 bd 14 31 4f 3d da 01 23 3d
       -0.027047386 -0.052163713 0.050583914 0.039796688
000310 84 85 11 3d 58 82 92 3d bb 57 03 3c 94 ca 1f 3b
       0.03552772 0.07153767 0.008016522 0.002438222
000320 f3 4c 60 bd 2b 6a 3b bd ef 2b 53 bd ec 30 0b bd
       -0.054760884 -0.045755547 -0.05155557 -0.033982202
000330 b1 ca 23 3b 75 d4 26 3b 42 20 92 bd c3 ef b3 bd
       0.002499264 0.0025456224 -0.07135059 -0.08785965
000340 3b 29 9f bd e9 56 71 bd c5 c0 c1 bd 66 c2 d1 bd
       -0.07771536 -0.058920775 -0.09460596 -0.10242157
000350 b9 0b 22 3d 2b e5 fb 3c 62 b9 6a 3c 89 13 59 3d
       0.03956196 0.030748924 0.014326425 0.052997146
000360 dd d2 a0 bd 77 28 86 bd 84 20 45 3c e9 08 57 3d
       -0.07852719 -0.06550687 0.012031678 0.05249873
000370 2c dc 58 3d 8b a3 8e 3c 92 17 06 3d db 1e 28 3d
       0.052944347 0.017411968 0.032737322 0.04104505
000380 28 78 09 3c f5 f1 a6 3c a3 95 81 bd 61 22 62 bd
       0.008390464 0.020379046 -0.06327369 -0.055208568
000390 4d 12 83 bd 91 bb 4b bd 9b 79 81 3d d2 fe f7 3c
       -0.06399975 -0.049739424 0.063220225 0.030272875
0003a0 36 e5 8b 3d cf b3 a3 3d cf fe 15 3d 89 8d 03 3d
       0.06830828 0.0799328 0.036619958 0.0321174
0003b0 c8 97 a9 bb be 8e e8 bc 4a c5 85 3c 77 6a be 3b
       -0.0051755644 -0.028388377 0.016329426 0.0058110314
0003c0 66 82 1d 3d b9 ff af 3c f9 eb 53 3b af 0c db 3c
       0.038454436 0.021484243 0.0032336696 0.026739446
0003d0 1d c3 76 3d ae 57 c8 3d d5 c1 99 bd ab ed 98 bd
       0.06024467 0.097823486 -0.07507674 -0.074672066
0003e0 cb a7 c5 3d c7 4a 89 3d 5a 21 48 bb 24 b2 b1 bc
       0.096511446 0.06703716 -0.0030537457 -0.02169139
0003f0 c9 99 02 3d d5 30 8a 3c e7 29 20 bc ff 55 1c bc
       0.031884942 0.016868988 -0.009775615 -0.009541987

lstm.weight_hh_l0 f4 [8400, 2]
000000 69 78 98 3d bd 1a a1 3d 0c 7c dc 3d 9e 4d b3 3d
       0.074448414 0.07866428 0.107658476 0.08755039
000010 69 fd 45 3d f5 b5 5c 3d 07 42 f8 3c 85 0a 55 3d
       0.048337374 0.053884465 0.030304922 0.052011985
000020 a5 cc 5a 3d a5 7c 86 3d f8 91 d8 3d 33 5b ee 3d
       0.05341782 0.06566743 0.10574716 0.116384886
000030 62 9e e3 bd ae 1f 21 be e6 3f 77 be 66 79 80 be
       -0.111141935 -0.15734741 -0.24145469 -0.2509262
000040 a2 c1 85 3d d8 27 94 3d 75 c5 7b 3d a3 f1 c8 3d
       0.06531073 0.07234162 0.061467607 0.098117135
000050 d1 47 74 3e 3c ce 80 3e 7e 87 bd 3e 64 0d dd 3e
       0.23855521 0.25157344 0.37017435 0.4317428
000060 3f f8 4d 3d e5 3d 54 3d f0 fb df bd bb bf 16 be
       0.050285574 0.05181684 -0.10936725 -0.14721577
000070 e8 95 fa bb e6 32 b1 bb f0 d6 84 3e 55 50 9a 3e
       -0.0076472647 -0.005407679 0.25945234 0.30139413
000080 9b 39 89 3d 0c eb 4d 3d 69 11 58 3d 10 77 a4 3d
       0.067004405 0.050272986 0.05275098 0.08030522
000090 44 8e e4 3c 93 f4 49 3d c8 46 d2 bd 3a 17 ec bd
       0.027899869 0.04930551 -0.10267407 -0.115278676
0000a0 33 23 39 3d 0c 9a 8a 3d 28 8d 9e 3c 97 49 8b 3c
       0.045199584 0.06767663 0.019354418 0.017002864
0000b0 3a f3 cf 3d b0 e2 fd 3d b4 f5 72 3d 44 58 6e 3d
       0.10153814 0.12396753 0.059316352 0.058189645
0000c0 62 54 fe bd e2 3d 21 be 43 6a 8c 3d ac ee 95 3d
       -0.124184385 -0.15746263 0.06856205 0.07320914
0000d0 30 71 dc bd 79 f5 aa bd fb 0c dd 3d 0d b5 de 3d
       -0.10763776 -0.083476014 0.107934915 0.108743764
0000e0 c4 e7 10 be 01 51 12 be 40 e1 64 3d 9a d8 63 3d
       -0.14150912 -0.14288713 0.055878878 0.05562649
0000f0 5a d6 33 3e 3c 05 a3 3e 70 f1 68 3d c4 ef 76 3d
       0.17562237 0.3183993 0.056870878 0.060287252
000100 29 1d 86 3e 26 40 89 3e 6f 73 80 3e 59 d7 8e 3e
       0.26194122 0.26806754 0.2508807 0.27898672
000110 b5 b0 0b 3e 84 00 31 3e fd b7 0f 3e dd 41 1c 3e
       0.13641627 0.17285353 0.1403503 0.152595
000120 c4 82 7f 3d 33 76 3f 3d 59 09 e0 3d a5 05 a5 3d
       0.062380567 0.046743583 0.10939283 0.08057717
000130 06 c7 4c 3d ca af 66 3d b8 b4 4b 3d 43 56 c8 3c
       0.04999449 0.05631999 0.049732894 0.024455195
000140 81 a9 3b 3d 25 98 61 3d bf a2 2e 3e a6 e5 51 3e
       0.04581595 0.055076737 0.1705427 0.2049776
000150 d9 fd 83 bd a1 07 90 bd fa 33 1f 3d 2c 6a ea 3c
       -0.06444902 -0.07032705 0.038867928 0.02861508
000160 75 2c d9 3d 8a 40 cf 3d 82 d1 fd 3c 37 69 47 3d
       0.10604183 0.10119732 0.03098369 0.048684325
000170 7e 5d 6a 3e 32 0b 64 3e 14 4e fa 3c f6 99 22 3d
       0.22887227 0.22269896 0.030554809 0.03969761
000180 67 ec 12 3e 78 49 65 3e 4b 03 90 bd e9 69 66 bd
       0.14347993 0.22391307 -0.07031878 -0.056253348
000190 a6 53 77 3d 3f 09 27 3d fa 74 82 3d 21 50 93 3d
       0.060382508 0.040780302 0.06369968 0.07193018
0001a0 3b db 29 3d a2 d5 95 3d b2 ba 61 3e 3d 2c 5d 3e
       0.04146884 0.07316138 0.22043875 0.21598907
0001b0 08 5f 0b 3e af 82 38 3e f5 51 40 bd 19 e8 6b bd
       0.1361047 0.18018602 -0.04695316 -0.057594392
0001c0 37 4f 69 3e 72 8a 8c 3e 41 a4 9b 3d 0d 79 91 3d
       0.22784124 0.27449375 0.07599688 0.07103167
0001d0 4b 11 10 bd e5 2c 4b bd 11 ff 20 3d 1f fa 7e 3d
       -0.03517274 -0.04960336 0.03930575 0.062250253
0001e0 a3 96 50 3e 75 9b 4e 3e c7 8b 45 3d 7f 71 4a 3d
       0.20369963 0.2017649 0.048229005 0.049424645
0001f0 c8 48 07 3d 33 98 01 3d 97 df 42 3d ad 67 72 3d
       0.033028394 0.03163929 0.047576513 0.059180904
000200 93 57 83 3d 25 6b 99 3d 70 c2 40 bd cd d5 17 bd
       0.06413188 0.07491139 -0.04706043 -0.03706913
000210 92 46 2f 3e c0 f3 42 3e 2f 62 1d bd 5b b8 81 bd
       0.17116764 0.19038296 -0.038423713 -0.06333991
000220 b2 f9 4d 3e 32 61 49 3e 3d 8d 8a 3e 06 ca 90 3e
       0.20114782 0.19665983 0.2706088 0.28279132
000230 32 62 24 3d 44 9a a4 3d 87 92 59 3d 03 5c 65 3d
       0.04013271 0.08037236 0.053118255 0.055995952
000240 09 fc 67 be 6e 41 80 be ad 65 12 3e c9 c4 05 3e
       -0.22654738 -0.2504992 0.14296599 0.13063349
000250 0e 0c 9b 3d 8a c2 34 3d db bf 61 3d 06 68 e7 3c
       0.075706586 0.04413084 0.05511461 0.028247844
000260 65 c4 56 3e c4 be 6b 3e 04 6f 88 3d 2a 23 62 3d
       0.20973356 0.2302199 0.066617996 0.055209316
000270 8f 54 fe bd de ae f1 bd b1 32 39 bd 85 c8 8c bd
       -0.12418472 -0.118009314 -0.04521436 -0.068741836
000280 5e a2 07 3e e6 6d 20 3e 57 86 f6 3d bc e5 16 3e
       0.13245532 0.15666923 0.12037342 0.14736074
000290 45 92 4f 3e 33 e7 4c 3e 6b 9a 81 3d b5 b8 52 3d
       0.20270641 0.2001007 0.06328281 0.05144568
0002a0 d1 7b 6b 3e 11 ec 83 3e d3 11 87 3e 5e 76 7f 3e
       0.22996451 0.25766042 0.26380786 0.24947497
0002b0 82 86 1e 3e b1 47 18 3e 7d c3 df 3d df c5 c7 3d
       0.15480998 0.14871098 0.10925958 0.09754538
0002c0 39 dd 0a 3d 0f 83 f9 3c 26 21 70 3d d3 fe ba 3c
       0.03390238 0.030458001 0.058625363 0.022826588
0002d0 54 4d 28 3e 89 be 49 3e a4 18 7f 3e 18 a9 90 3e
       0.16435748 0.1970159 0.24911743 0.28254008
0002e0 06 62 8b 3d 19 c4 5d 3d 37 c2 a0 3d 94 8f b3 3d
       0.06805806 0.05414209 0.078495435 0.0876762
0002f0 80 03 30 3d 0c 1d 88 3d 14 c6 23 3e 7c 0c 7c 3e
       0.042972088 0.06646165 0.1599353 0.24614137
000300 87 c5 86 bd 34 4e 52 bd 47 44 81 3d d4 83 81 3d
       -0.06580644 -0.05134411 0.06311851 0.06323972
000310 f8 b7 1e 3e 44 c6 22 3e 55 73 87 3d 09 1c 56 3d
       0.15499866 0.15895945 0.06613795 0.05227283
000320 9f 4f 17 3e 13 ab 2f 3e 31 f6 88 bd 24 83 83 bd
       0.14776467 0.17155103 -0.06687582 -0.064214975
000330 06 7e 5a 3d e1 d5 39 3d 0a 3a 63 3e 25 09 78 3e
       0.05334284 0.045369986 0.22190109 0.24222238
000340 4f f7 97 3e 87 48 93 3e a8 e5 c2 3e 18 3c d6 3e
       0.2968087 0.2876627 0.3806584 0.41842723
000350 b6 0f 93 3d 41 4d 88 3d 3d a9 3d 3d 63 c1 1e 3d
       0.07180731 0.0665536 0.046303976 0.038758647
000360 e2 73 48 3e f8 b4 66 3e f9 12 ea 3d ed 27 fa 3d
       0.19575456 0.22529972 0.114294 0.122146465
000370 a0 79 24 3d 42 4f 64 3d e4 22 9b 3d da 99 75 3d
       0.040155053 0.05573965 0.07575014 0.059961177
000380 13 9b 77 3d 77 30 82 3d e7 e5 0c bd d8 a9 d3 bc
       0.060450625 0.063569 -0.03439894 -0.025837824
000390 15 14 e8 3d 8f db 0e 3e 2e ce 0d 3d 03 20 2e 3d
       0.11331955 0.13950942 0.034620456 0.042510998
0003a0 79 7d 2d 3e 71 18 4a 3e 0d 77 0f 3e f6 6e 4a 3e
       0.16942395 0.19735886 0.14010258 0.1976889
0003b0 9d db 35 3d b7 74 89 3d 39 68 7a 3d 23 c0 94 3d
       0.044398893 0.06711715 0.06113455 0.0726321
0003c0 6b f2 93 3d d0 ae 6f 3d 38 6f e0 3d db 84 fe 3d
       0.07223972 0.058516324 0.10958713 0.12427684
0003d0 97 57 3d 3e 6f 7e 51 3e a5 53 58 3e 9f 9e 83 3e
       0.18490444 0.20458387 0.21125658 0.25706956
0003e0 f9 6e 83 3d 4f d9 45 3d 82 bb 27 3d 44 6e 3e 3d
       0.06417651 0.048302945 0.040950306 0.046491876
0003f0 56 33 82 3d 90 8b 40 3d 7d 20 20 3e 47 73 25 3e
       0.06357448 0.047008097 0.15637393 0.16157256

lstm.bias_ih_l0 f4 [8400]
000000 89 a1 c9 3b 35 1b 09 bd 81 e4 97 3c 24 94 46 3c
       0.0061532897 -0.033473212 0.018541576 0.01212028
000010 0e 29 31 bc 60 98 22 3d 8f 9c 3f bd fe f2 91 3d
       -0.010813011 0.039696097 -0.046780165 0.07126425
000020 c4 61 08 3d a8 90 39 bd 2a 3d 24 be ae 36 4a be
       0.03329636 -0.04530397 -0.16038957 -0.19747421
000030 a4 e8 2c 3c 7a 49 60 bd bf 12 56 bd 4e ae 16 be
       0.010553513 -0.054757573 -0.05226397 -0.1471493
000040 c9 a0 4a 3c e7 87 8f bd 3d 68 28 bd 79 1a 50 bd
       0.012367436 -0.07008343 -0.041115034 -0.050806496
000050 bd 5f 07 3c 31 ba 20 3d 6f eb c7 3d 54 e9 27 bc
       0.008262572 0.039240066 0.09761702 -0.010248501
000060 71 6e 81 bd 38 ec c2 bd 16 04 82 be 21 ae 63 bd
       -0.06319893 -0.095177114 -0.25393742 -0.055585984
000070 f7 39 9e bc 66 5d 1b 3c 69 f4 06 be f5 2d 33 bc
       -0.01931475 0.009482717 -0.13179173 -0.01093625
000080 6c 8d d9 3d 43 c0 3f be 7f 4d ec 3b b5 68 c2 bd
       0.10622677 -0.18725686 0.0072113867 -0.094926275
000090 40 0f 28 3d 2b 9b 90 bc 82 11 fa 3b be 9c a3 3c
       0.04103017 -0.017652115 0.0076314816 0.019972201
0000a0 8d 29 b4 3c 16 36 b7 bd 3a 33 62 bd 22 53 57 bd
       0.02199247 -0.08945863 -0.055224635 -0.052569516
0000b0 93 94 a6 bb ce 55 1a 3d 90 08 fd b9 36 4c 56 3d
       -0.0050836294 0.037679486 -0.000482623 0.052318774
0000c0 f6 a4 dc bc 46 da 94 bd 1d da 82 3d bd 21 01 3d
       -0.026934128 -0.07268195 0.06389258 0.031526316
0000d0 c0 73 4c bc 5a 4b 18 be 7a 73 20 be a5 10 53 bd
       -0.012478769 -0.14872494 -0.15669051 -0.051529545
0000e0 27 46 60 be 00 66 6f 3c d2 0e b2 bc 87 0b fb bb
       -0.21901761 0.014611721 -0.021735583 -0.0076612863
0000f0 8b ac 6b bc 20 bb 9d 3d 35 d8 dd 3c 1c 3e 22 3d
       -0.014384399 0.07701707 0.027080635 0.039610013
000100 45 cc a3 3c d9 80 5a bd 5a 52 0a 3d 3e 62 5a bc
       0.019994864 -0.053345535 0.033769943 -0.013329087
000110 67 a3 fb bd 92 1d 22 be 49 b2 f4 3c e9 7b 26 bc
       -0.12287026 -0.15831593 0.02987017 -0.010161378
000120 2d 48 a3 be 61 bc e7 3d b3 00 62 3c 9c e0 39 3d
       -0.31891003 0.11315227 0.013794112 0.04538022
000130 65 12 f0 3c ca b9 25 3d 6f 24 a3 bd 68 5f 6f bd
       0.029305646 0.040460385 -0.079659335 -0.058440596
000140 02 db dc bd 22 58 d3 3c c7 90 cc bd 5f 45 31 bd
       -0.1078396 0.025798861 -0.099885516 -0.043279048
000150 e8 43 5e 3f 26 c0 31 be 0d d3 02 be fa bd b0 bc
       0.86822367 -0.17358455 -0.12775822 -0.021574963
000160 21 6d e0 3c fc 00 4f 3c f6 5b 02 3c f7 30 22 be
       0.027395787 0.012634512 0.0079564955 -0.15838991
000170 fc aa 09 3d 21 5e 9a bc 71 0d 28 3d 2a 49 f5 bd
       0.03361033 -0.018843712 0.041028444 -0.119768456
000180 8f 8b 2e bd 04 4a 64 3d 09 ec ad 3c 1e 23 91 bc
       -0.042613562 0.05573465 0.021230714 -0.01771694
000190 d8 ea f5 bd 32 8e d4 bc 15 18 69 3c de 35 10 be
       -0.120076835 -0.02594671 0.014226933 -0.14083049
0001a0 a9 08 11 be 80 3f 25 be 45 7c 36 3d a2 28 50 3c
       -0.1416346 -0.16137505 0.044552106 0.012705
0001b0 d2 4b 0f be 4a d2 a8 bc dc 6b bb 3c a1 e4 72 bc
       -0.13993767 -0.020608086 0.02287858 -0.014825017
0001c0 3a 23 92 3c 5e 56 92 bd f0 f0 be bd 5e 38 8a 3c
       0.017839063 -0.071453795 -0.09323299 0.016872581
0001d0 c8 b9 3d bd d1 c3 9d bc e1 3e e7 bb 66 1b 7c bc
       -0.046319753 -0.019258412 -0.0070570563 -0.015387392
0001e0 a8 fb fc 3c 26 fa 5b 3d d9 77 3d 3c cb e3 3f be
       0.030881718 0.053705357 0.011564218 -0.1873924
0001f0 8d 68 c0 3d 3f 7f a3 bc 64 9a 1e bc 70 59 5d 3c
       0.093949415 -0.019958137 -0.009680364 0.013510093
000200 f0 7d 2b 3d 55 c5 8b 3d 8b 7e 75 bc 5e bb 91 bc
       0.04186815 0.068247475 -0.0149837835 -0.017789539
000210 d3 6b 2c bd 0f 6e 27 bc c0 67 3e 3d e7 d0 09 bd
       -0.042095017 -0.010219111 0.046485662 -0.03364649
000220 48 ec cc 3c a8 2d f5 bc ba ba 51 bc 47 00 13 bd
       0.025015011 -0.029928997 -0.012800867 -0.035888936
000230 4e 0c 57 3d b2 b9 87 bd 3c 4d b4 bc d4 66 d9 bd
       0.05250197 -0.066272154 -0.022009484 -0.10615316
000240 61 a0 b4 bc 0c 7c 42 be 29 b9 b2 3d 87 eb a1 3c
       -0.02204913 -0.18992633 0.08726723 0.019765629
000250 52 04 2e bd 72 3f a1 bd a7 b8 50 bd 77 42 0c 3c
       -0.04248459 -0.07873429 -0.05095735 0.008560768
000260 f7 28 05 bd 21 c0 92 3c 27 fd 85 bd 5b 80 98 bd
       -0.03250977 0.01791388 -0.065424256 -0.07446357
000270 1a 3c 52 bd 3f 34 ca 3d 7a 0c dd 3c ac 3c 19 3d
       -0.05132685 0.098732464 0.026983488 0.037411377
000280 da 93 d2 bc e9 a3 72 bd 10 69 17 bd 72 b1 5c 3a
       -0.025705267 -0.05923835 -0.03696543 0.00084187754
000290 e5 03 66 bd aa d6 35 3c 6c 9f ca bb 63 c9 43 be
       -0.056156058 0.011098543 -0.0061835553 -0.19119792
0002a0 b4 11 c4 bd 89 6f b9 bd f6 6f e7 3c a7 d5 83 39
       -0.09573689 -0.09054477 0.02825163 0.0002514545
0002b0 31 5e 29 3c 84 bf af 3d 02 23 01 bd 4c ca 8a 3d
       0.010337398 0.085814506 -0.031527527 0.06776866
0002c0 db c9 79 bc 4e 91 92 3b cc 51 3a be 00 ff 57 be
       -0.01524588 0.004472888 -0.18195266 -0.21093369
0002d0 35 33 2d 3d 33 3b e2 3c 13 71 33 be 3b 47 61 3d
       0.042285163 0.027616119 -0.17523603 0.05499957
0002e0 c1 1e 01 be 84 1a 2c bd c3 47 40 be 03 07 41 3b
       -0.12609388 -0.042017475 -0.18777375 0.0029453642
0002f0 52 ea 9c 3c 58 55 0e bc 9a 94 00 bd e2 b3 00 bd
       0.019154701 -0.00868734 -0.031391717 -0.03142155
000300 ed de 4a bc f9 98 d7 3c c2 bb b3 bd 3c db 58 3b
       -0.012382251 0.02631806 -0.08776046 0.0033089658
000310 6a b5 e7 3c 5f 41 22 be 5e af 91 bd e0 39 04 bd
       0.028284747 -0.1584525 -0.07113527 -0.032281756
000320 90 82 38 3d 14 6c a9 bd d4 23 c4 3c b3 30 0b bd
       0.04504639 -0.082725674 0.023942865 -0.03398199
000330 df ce 47 bc 89 91 19 bc 9e 62 17 3d 6e 01 df bc
       -0.012195318 -0.009373077 0.036959283 -0.027222361
000340 f3 10 5e bd 9b 85 d4 bc 89 32 f6 bc 7b 00 a5 3c
       -0.054215383 -0.025942614 -0.030053394 0.02014183
000350 72 d3 18 bd 47 a0 be 3c 6f e5 1a be 39 74 92 bd
       -0.037311025 0.023269786 -0.15126584 -0.07151074
000360 17 50 ea 3c c3 c0 3e 3d de 2f 1c be ee 4d 27 be
       0.028602643 0.04657055 -0.15252635 -0.16338322
000370 bb c9 e5 bd e3 fd ed bd 35 a6 16 3d 2c 53 14 bd
       -0.11220118 -0.11620691 0.0367796 -0.03621213
000380 27 49 55 bd 31 f8 8e 3d 08 1a cd b9 c1 5a 14 3d
       -0.052071717 0.069809325 -0.00039120042 0.036219362
000390 6e 57 91 bc 9e 35 52 3a 7e e2 23 bd 7f 33 ef 3c
       -0.017741885 0.0008018854 -0.04001092 0.02919936
0003a0 2d 40 49 3d b1 71 2a be 4f 02 a2 3c ad 7d 28 be
       0.04913347 -0.16644932 0.019776491 -0.16454192
0003b0 53 1a e9 3d 2a e0 84 bd cb ef f1 3c 49 eb 58 bd
       0.11381974 -0.064880684 0.029533288 -0.05295876
0003c0 ec 9b 28 3d 83 44 1c bd e9 de 24 be a6 2c 19 bd
       0.041164324 -0.038151275 -0.16100658 -0.037396096
0003d0 a0 d1 41 3f a8 02 94 3e 66 07 02 ba 7c 0b 1b be
       0.7571049 0.28908277 -0.0004960209 -0.151411
0003e0 a6 f6 f0 3c 29 f5 ae bd 9d db e4 bc 49 70 cf 3c
       0.029414486 -0.08542854 -0.027936751 0.025322096
0003f0 fb 00 4e bd 46 73 d1 bd 14 0f f1 bc 73 ce 83 be
       -0.050293904 -0.10227065 -0.029426135 -0.25743446

lstm.bias_hh_l0 f4 [8400]
000000 ad 8d 12 bd dd 18 01 bd de 31 78 3c 47 55 73 3c
       -0.035779644 -0.031517852 0.015148608 0.014851875
000010 b9 aa 98 bc ac da c5 3c f2 be 68 bd 56 5a 82 3d
       -0.018636094 0.024152122 -0.056822725 0.063648865
000020 7c 7d c4 3c d3 92 e1 bc 72 38 12 be 25 96 58 be
       0.023985617 -0.027535832 -0.14279345 -0.21151026
000030 66 96 10 3b b5 01 1f bd 51 99 6e bd b2 a7 24 be
       0.00220623 -0.038819987 -0.058251683 -0.16079596
000040 86 fe dc bb 93 dd 9b bd f3 47 62 bd cf e5 db bc
       -0.0067442087 -0.07610621 -0.055244397 -0.02684298
000050 af 01 16 3c 68 a5 6c 3d 0e 8d 66 3d ef f5 8a b9
       0.009155675 0.05777493 0.056286864 -0.00026504646
000060 e2 41 51 bd de 65 e5 bd da 69 88 be f7 5d 46 bd
       -0.05108822 -0.1120107 -0.26643258 -0.048429456
000070 d6 ba 0a bd 29 f2 51 3c 4a e0 30 be 5c fd e5 bb
       -0.033869587 0.012814083 -0.1727306 -0.007018728
000080 65 9f cb 3d 08 38 32 be 86 ee d4 bc c8 0a f7 bd
       0.099425115 -0.17404187 -0.025992643 -0.12062603
000090 e9 e7 ed 3c 7f 75 f1 bc c5 1a e0 3c ad 17 df 3c
       0.029041247 -0.029474972 0.027356515 0.02723297
0000a0 f6 6d e2 3b af 77 da bd 71 f4 3d bd 85 ce 5d bd
       0.006910081 -0.10667359 -0.046375696 -0.05415203
0000b0 fb 5a 64 3c c7 75 74 3d b2 db ed bc e4 0b 02 3d
       0.013937707 0.059682634 -0.029035423 0.03174962
0000c0 fd 19 be bc e1 4e bf bd 1f 10 85 3d ee d1 6e 3d
       -0.023205752 -0.09341217 0.064972155 0.058305673
0000d0 d8 f4 e7 bc bc a1 21 be d3 70 16 be 78 df 89 bd
       -0.028314993 -0.15784353 -0.14691477 -0.067320764
0000e0 ad 9f 80 be 1a 18 a2 bb 81 87 23 bd 7b 1b 14 bc
       -0.25121823 -0.004946721 -0.03992415 -0.009039755
0000f0 cc e6 9b bc 41 0b 2a 3d da d2 2c 3d 51 df b9 3c
       -0.019030951 0.04151464 0.04219327 0.022689493
000100 65 51 d2 3a 0a 67 aa bd 90 c5 3d 3c 30 e1 30 bc
       0.0016045986 -0.083204344 0.011582747 -0.010795876
000110 ee 28 f3 bd 70 41 0d be 8f f5 4d 3d 09 2b 5d bc
       -0.11873041 -0.13794494 0.05028301 -0.01349903
000120 fa 38 a2 be 0f 23 e8 3d 74 02 0d 3d 7c 81 20 3d
       -0.31684095 0.11334812 0.034426168 0.039185986
000130 06 ca 7b 3c 99 0a 81 3c 0c d8 a0 bd aa 5a 72 bd
       0.01536799 0.015752124 -0.07853708 -0.059168495
000140 89 fe f5 bd 09 44 d8 3c ba 7a 9d bd 1d 8c 21 bd
       -0.12011439 0.02639963 -0.07689424 -0.039440263
000150 a4 c1 5c 3f 70 f3 3e be ca f2 0e be 78 8a f2 bc
       0.8623297 -0.18647552 -0.13959804 -0.029607043
000160 b1 a1 41 3c 1a 99 4a 3c 3c db 82 bc e6 be 1e be
       0.011818335 0.012365604 -0.01597368 -0.1550251
000170 1c 74 a3 3c 86 93 62 bc 7c 45 9b 3d 11 dc 14 be
       0.019952826 -0.013829118 0.075816125 -0.14537074
000180 64 ea 47 bd be 23 98 3d b9 56 1d 3d 90 3c b9 3a
       -0.048807517 0.07428692 0.038412783 0.0014132429
000190 09 5e b7 bd 60 1c f9 bc 05 ae 1e 3c a3 04 08 be
       -0.08953483 -0.030409038 0.009685044 -0.13283019
0001a0 0c 65 24 be f4 2f 02 be 03 2a 2c 3d a1 f1 cb 3c
       -0.16054171 -0.12713605 0.042032253 0.024895491
0001b0 95 f8 16 be 1b 1f af bc 8b e9 bd bb 71 0a fc 38
       -0.14743264 -0.021377137 -0.0057956628 0.00012018241
0001c0 b6 70 6a 3c 72 cc 97 bd e9 52 c5 bd a3 24 5b 3d
       0.014309099 -0.07412042 -0.096349545 0.053501736
0001d0 fa b0 8d bd 4e 28 8d bc d1 e5 3a bc 14 01 84 bc
       -0.06918521 -0.017231133 -0.011407332 -0.016113795
0001e0 b1 6e 0b 3c c4 ac 94 3c 7f d1 8a 3c 44 c3 28 be
       0.008510278 0.018148787 0.016945599 -0.16480738
0001f0 0d 1b a9 3d 54 10 e0 bc ee 9d 58 bb b0 56 88 bc
       0.08257113 -0.027351536 -0.0033053118 -0.016642898
000200 d7 66 8f 3d 42 ac 68 3d 76 34 25 bd 2a 3a e4 bc
       0.07002037 0.056804903 -0.040333234 -0.027859766
000210 70 34 58 bd fb 39 4e bd 18 b1 17 3c 5e a3 6b bd
       -0.052784383 -0.050348263 0.009258531 -0.057528846
000220 8f dc eb 3c 07 de 2a bd 96 e3 fe bc d3 59 ab bc
       0.028791694 -0.041715648 -0.03111438 -0.020916855
000230 95 03 f7 3c ed 9d 1d bd 4e 28 75 bc c4 5e d7 bd
       0.030153075 -0.038480688 -0.014963223 -0.10516122
000240 4b ba 9f 3a e4 ce 20 be f9 02 a9 3d 06 36 ad 3c
       0.0012186257 -0.15703923 0.0825252 0.021143924
000250 2d e9 14 bd 39 f5 b4 bd 80 26 65 bd f0 5c 5d 3c
       -0.036355186 -0.08835835 -0.05594492 0.013510928
000260 80 4f 01 bd 7e ed 08 3d 11 69 12 bd 5d 23 96 bd
       -0.031569958 0.033429615 -0.03574473 -0.07330964
000270 76 e7 2b bd 47 63 ab 3d 0b 04 c7 3c f2 3f 2d 3d
       -0.041968785 0.08368545 0.02429392 0.04229731
000280 48 65 d6 bc d0 59 aa bd b2 25 3c bd 57 ee aa bb
       -0.026171342 -0.083179116 -0.045934387 -0.0052164006
000290 2e e5 29 bd 09 01 e9 bc f3 c9 eb b9 49 00 3b be
       -0.04147833 -0.028442876 -0.00044973157 -0.18261828
0002a0 ab 22 d0 bd 17 a9 67 bd 0d d4 30 3c 2f 72 04 3c
       -0.101628624 -0.05655774 0.010792744 0.008083864
0002b0 8b f5 f8 3c 6c c2 a0 3d a6 b6 0b bd 40 00 61 3d
       0.030390522 0.07849583 -0.034109734 0.05493188
0002c0 8f 70 2e bd db 52 57 3c 6c 33 56 be 2f a4 4d be
       -0.042587813 0.013142313 -0.20918053 -0.20082162
0002d0 4f 18 fa 3c 10 98 1f 3d 99 5d 25 be 06 44 57 3d
       0.03052917 0.038963377 -0.16148986 0.052555107
0002e0 a3 4e b8 bd 57 75 3b bd 49 fa 48 be 90 72 df 3c
       -0.08999374 -0.0457662 -0.19626726 0.027276307
0002f0 36 00 91 3c 02 e5 8a bc e4 0d 62 bd 3a cd 0e bd
       0.017700296 -0.016954903 -0.05518903 -0.034863688
000300 bb 64 00 bd f0 87 8a bb a3 9a 96 bd 80 2f da 3a
       -0.031346064 -0.004227631 -0.07353713 0.0016646236
000310 20 8a 17 3d 95 94 3f be ee 85 36 bd 3d d3 e9 bc
       0.03699696 -0.18709023 -0.04456132 -0.02854311
000320 be 0c 06 3d 6c 44 88 bd 08 94 db 3c 16 d2 ba bc
       0.032726996 -0.066536754 0.026803985 -0.022805255
000330 ae c8 61 bb 4a 56 a2 bc f4 4f f6 3c a1 0a 19 bd
       -0.003445189 -0.019816536 0.030067421 -0.037363652
000340 c0 9a 13 bd c9 34 0f 3b e1 cb 74 bb 41 32 7b bc
       -0.036036253 0.002185153 -0.0037352967 -0.015331806
000350 2f fe c6 bc a5 f1 3d bc 37 06 1f be cb 0a 48 bd
       -0.024291126 -0.011593257 -0.15529715 -0.048838418
000360 1a 3c 58 3c c2 a3 8f 3c cc 06 23 be c9 42 1f be
       0.013197923 0.01753414 -0.15920562 -0.1555282
000370 90 63 ad bd e4 b3 1e be 98 57 07 3d ca d0 59 bd
       -0.08466256 -0.1549831 0.03304252 -0.053177632
000380 ee 4e 50 bd 9a 8c 59 3d 76 33 11 bb b4 19 0a 3c
       -0.050856523 0.053112604 -0.0022155917 0.00842898
000390 9e 89 b8 ba ea cd 1d bb f2 b2 b3 bc 57 62 c5 3c
       -0.0014079099 -0.0024079033 -0.021935914 0.024094744
0003a0 9f 85 68 3d a5 56 21 be 1d d6 83 bc 55 aa 37 be
       0.056768056 -0.15755709 -0.016093308 -0.1793607
0003b0 17 bf c2 3d 68 60 54 bd 08 9f f8 3c 94 ba 5e bc
       0.09509104 -0.051849753 0.03034927 -0.013594288
0003c0 d6 93 aa 3d 62 e6 24 bd 9c ae 25 be 46 ca e2 bc
       0.08328979 -0.040258773 -0.1617989 -0.027684342
0003d0 af b8 3d 3f a2 ea 91 3e 26 0b a1 bc 43 a1 e3 bd
       0.7410993 0.28499323 -0.019658636 -0.111147426
0003e0 33 8b 87 3c 8a ed bf bd 9c 3f d0 bc ea a1 88 3c
       0.016545868 -0.09371479 -0.025420956 0.01667877
0003f0 36 d0 e5 bc e7 97 ca bd ac c9 34 bd 28 d9 61 be
       -0.028053384 -0.09892254 -0.04413764 -0.22055495

lstm.weight_hr_l0 f4 [2, 2100]
000000 73 68 2e bc 54 05 d6 bd c5 71 55 3c f7 f0 ef 3d
       -0.01064502 -0.10450235 0.013027613 0.11715882
000010 33 65 f2 bd 7e 64 ac 3d 0f 4a a9 bc 49 f1 26 be
       -0.118357085 0.08417605 -0.020665197 -0.1630298
000020 89 7b 5b 3e d2 56 fc bd 4a 2d 13 be be 99 0f 3e
       0.21433844 -0.12321247 -0.14372745 0.14023492
000030 37 a3 6e bd 20 a3 0b bd c5 11 e5 3c 2e 29 0e be
       -0.058261123 -0.034091115 0.027962575 -0.13882896
000040 7f dd fc 3d a7 c6 70 bd 35 eb b2 3d cb 54 1c 3d
       0.123469345 -0.0587832 0.087362684 0.038166802
000050 04 55 d5 3c 45 1c 98 bd 4d 61 fc 3d 5c 2d 00 3e
       0.026041515 -0.07427267 0.12323246 0.12517303
000060 2c de 81 bc e0 cd 9b bd b4 56 8b bd 3b 41 95 3d
       -0.01585301 -0.07607627 -0.06803647 0.07287832
000070 06 b8 c6 3c 0a d7 d4 bd d7 91 0a be 2f 0f a4 3d
       0.024257671 -0.10392578 -0.13532196 0.080107085
000080 56 7f 92 3d ee 5c ff bd 45 d9 fe bd 47 85 ce bd
       0.07153194 -0.12468897 -0.124437846 -0.100840144
000090 ec b9 c4 bd 82 99 ca 3c b0 53 c9 3d c1 3d dd 3d
       -0.09605774 0.024731401 0.09830415 0.10802794
0000a0 73 68 de 3d dd 2a 19 be 30 64 6f 3c 37 48 c6 bd
       0.10859766 -0.14957757 0.014611289 -0.09681743
0000b0 ad 24 b1 3d cd 85 b2 3d e4 37 15 be 13 50 d3 bd
       0.086495735 0.08716927 -0.14572102 -0.10318007
0000c0 c3 00 05 be 43 fb b5 bc 2c 26 b6 3d 9e 83 72 bd
       -0.12988572 -0.022214537 0.088939995 -0.05920755
0000d0 44 4c 15 bd fc 6e 04 3e 47 d3 db bd 95 c4 8a bc
       -0.036449686 0.12932962 -0.10733657 -0.01693944
0000e0 e5 d6 cf 3d b8 14 ff 3d 0f ee 15 bd 6a b5 f3 bd
       0.1014841 0.12455124 -0.036603983 -0.11899836
0000f0 dc 22 99 3d 6c da 5d bd a5 1f c9 bd f8 fc fd bd
       0.07477352 -0.05416338 -0.09820489 -0.124017656
000100 b1 83 74 3d ee 23 a0 3c 84 86 eb 3d 15 0d 14 3d
       0.059695903 0.019548383 0.11500266 0.03614529
000110 3e d8 a4 bd d9 d6 f2 bd 41 71 4f bd 36 2e 01 be
       -0.080490574 -0.11857385 -0.050645117 -0.12615284
000120 e2 72 59 3d 06 e5 81 bd 02 d9 03 3d eb cf a3 bd
       0.053088076 -0.06342511 0.032189377 -0.079986416
000130 8b 60 f7 3d 91 d3 23 bc 4e ea ea 3c 5e 1e 70 bc
       0.12078961 -0.009999172 0.028676178 -0.014655678
000140 5d 2d da bd 0d c8 93 bd 19 4c 66 3e b4 11 e4 bd
       -0.106531836 -0.07215891 0.22489966 -0.11136189
000150 48 44 2f 40 f4 61 d3 3d 4e f9 67 bd eb 7e 84 3d
       2.7385426 0.103214175 -0.05663424 0.0646952
000160 c9 28 b0 3d 86 9b 15 bc 26 c4 c0 bd bf 70 0f be
       0.08601529 -0.009131318 -0.09412412 -0.14007853
000170 d1 6c 82 3c c6 27 df bd 9c ed aa 3d 38 13 03 be
       0.015921028 -0.10896258 0.08346102 -0.128003
000180 8e 9e 2e bc 26 61 e3 bd 5c 3c cf bd 60 a1 01 bd
       -0.01065792 -0.11102514 -0.101189345 -0.03164804
000190 4d d4 84 3d bc 2d 00 bd ca de b9 3d e8 dd 09 3e
       0.06485806 -0.031293616 0.09075697 0.13463557
0001a0 e6 01 eb bd 68 39 14 3e a2 57 9d bd f1 a3 d5 bd
       -0.114749715 0.14475024 -0.0768273 -0.1043166
0001b0 48 39 dd 3d 57 af c8 bd be b6 e2 3d 2a cf 01 be
       0.10801941 -0.097990684 0.110700116 -0.12676683
0001c0 9b 0e fb bc 85 e4 cf 3b 1b 37 e2 bd 32 43 04 be
       -0.030646613 0.0063443803 -0.11045667 -0.12916258
0001d0 51 32 9a 3d aa 3d 0b 3e d6 60 29 3d 21 96 59 3d
       0.07529128 0.13597742 0.041352116 0.05312169
0001e0 d3 2f 86 b9 10 62 ca bd bf 97 dd 3d bc 7d 06 be
       -0.00025594103 -0.09881985 0.10819959 -0.13133901
0001f0 79 8f e1 3d 11 45 d1 3c b6 70 73 bd e9 f9 be 3d
       0.11013693 0.025545629 -0.05943366 0.0932501
000200 ea 93 04 be b9 9c 28 bd 6b 0a 7c 3c 1b 3a d2 3c
       -0.1294705 -0.041165087 0.015383343 0.025662472
000210 6d 48 e7 3d cc 91 96 bc e9 55 8d 3d 06 19 39 bd
       0.11293111 -0.018380068 0.06901152 -0.04518988
000220 7b 8e 98 bd 52 a3 7a 3c 5c 0a a2 3c 94 9c ac bd
       -0.07449051 0.015297728 0.01978033 -0.084283024
000230 9e 5e d3 3d bb 71 10 3c 2f 49 cf bc fe 31 11 3e
       0.10320781 0.008816178 -0.025303451 0.14179227
000240 54 19 e8 bd 6a d9 e8 3d f3 58 62 3d ca e5 7f 3c
       -0.11332956 0.113695934 0.05526061 0.015618751
000250 b4 80 c0 3d 39 3e ea 3d d9 34 89 3c 24 31 2a bd
       0.09399548 0.11437649 0.016748833 -0.04155077
000260 73 9f b1 bd 9f 01 c5 bd cc a8 38 3c 47 65 02 be
       -0.08672991 -0.0961945 0.011270713 -0.12733947
000270 bb 37 d7 3d 17 58 0a 3e 43 fc 60 bd 6e 69 43 3d
       0.105086766 0.13510166 -0.054928076 0.047707967
000280 e1 ae f0 3a 4d 65 06 3e 16 41 2f bd eb c7 be 3d
       0.0018362665 0.1312458 -0.04278668 0.09315475
000290 71 bc bc bb 14 7f 48 3c 40 ba 49 bd 63 dd 9c bd
       -0.0057597687 0.012237329 -0.049249887 -0.07659414
0002a0 02 10 12 be 4b 4a b8 3d 27 94 74 3b 3d 92 b1 3d
       -0.14263919 0.08998545 0.003731975 0.08670471
0002b0 5c 38 01 3e fa f6 d4 3d 7f 82 02 3d 6b cf cb bd
       0.12619156 0.103986695 0.031862732 -0.09951671
0002c0 72 71 df 3c 97 18 f6 bc bd 82 c0 bd a0 a7 05 3e
       0.027275775 -0.030041022 -0.09399936 0.13052225
0002d0 fb 8c e7 3d 64 98 d5 bd 7b 34 0a be 82 4d f8 bd
       0.11306187 -0.10429457 -0.13496582 -0.121241584
0002e0 9b b9 f3 bd 79 88 ed 3b 42 1c 16 be 8d 91 03 be
       -0.11900636 0.007248935 -0.14659217 -0.12848492
0002f0 1f fc 7c bd 77 fb fe bd 49 59 10 bd 85 ec ff ba
       -0.06176388 -0.12450307 -0.0352414 -0.0019525444
000300 f2 d7 ec bd 0f e1 cf 3d d6 06 4f 3d 6b 29 bb 3d
       -0.11564626 0.101503484 0.05054363 0.09138759
000310 5f 53 9d 3d 8a 5d 08 3e 7e fc b1 3d bb 7f c3 bd
       0.076819174 0.13316932 0.08690737 -0.09545847
000320 35 ab fd bd c4 af c1 3d c4 48 d1 3d 1a 35 03 3e
       -0.12386171 0.09457353 0.10218957 0.12813225
000330 6c a8 6a 3b ca 78 c5 3c 7f 09 1a 3d ad 74 0f be
       0.0035805954 0.024105448 0.037606712 -0.14009352
000340 72 08 0f bd 5b e0 07 be 6a 0b 01 be c7 fc 04 be
       -0.034920163 -0.13269179 -0.1260201 -0.12987052
000350 e3 e1 17 bd ed 3b 4a 3d a4 05 e0 bd 65 eb 0d 3d
       -0.037080657 0.049373556 -0.10938576 0.034648318
000360 d9 e5 f3 3d f8 f7 7d 3d d9 a6 e3 bd ea 33 03 3e
       0.11909074 0.06200406 -0.11115808 0.12812772
000370 8c 27 16 3e 9e 16 12 3e 12 1d b5 3d 86 9e b1 3b
       0.14663523 0.1426644 0.08843435 0.005420509
000380 38 0b c7 3c 45 60 9f bd 5f 60 f6 3d 17 66 a1 bc
       0.024297342 -0.07782034 0.120301 -0.019702
000390 13 f0 11 be b1 19 09 be 34 85 48 3c c3 5a eb 3d
       -0.14251737 -0.13388707 0.012238789 0.11491921
0003a0 f2 10 a6 3d 9f 93 06 be 27 bb e5 bd 5b 59 03 be
       0.08108701 -0.1314225 -0.11217337 -0.12827055
0003b0 28 72 ef bd 7f 2f 2c bd e4 ca f4 bd 24 a6 85 bd
       -0.116916955 -0.042037483 -0.11952761 -0.065258294
0003c0 a7 ee ad bd 81 f4 d7 3c 0e ba 03 be 64 85 fe 3b
       -0.08492785 0.026361706 -0.12863943 0.0077673662
0003d0 bb 08 3c 40 39 be 77 be 43 ae 05 be 45 f0 08 be
       2.9380329 -0.24193658 -0.13054757 -0.13372906
0003e0 d3 70 a8 bd 07 62 1c 3d 4b 3c 86 bb fd 73 04 be
       -0.082246445 0.038179424 -0.004096543 -0.12934871
0003f0 a6 84 04 3d e7 7c cd bd 21 01 c5 3d 32 e0 04 bd
       0.032353066 -0.10033589 0.09619356 -0.03244037

exp_avg f4 [8400, 2]
000000 08 b9 6e 34 a3 e0 7e 33 47 40 c3 b8 75 25 c5 b8
       2.2232791e-07 5.934329e-08 -9.310297e-05 -9.400669e-05
000010 06 de c5 33 f6 e2 d8 33 e2 f8 f0 b8 27 4e f0 b8
       9.213913e-08 1.0099568e-07 -0.0001149045 -0.00011458649
000020 48 f1 3b b3 88 ad 1e b3 35 10 41 b9 6e 1b 37 b9
       -4.3758774e-08 -3.6945067e-08 -0.00018411952 -0.00017462458
000030 a2 fe 9f b4 93 68 90 b3 de 52 8b ba 55 ff 70 ba
       -2.9801328e-07 -6.7245445e-08 -0.0010629555 -0.0009193321
000040 19 01 04 38 e7 04 0a 38 db ff 48 b9 73 b1 48 b9
       3.1472275e-05 3.290633e-05 -0.000191688 -0.00019139591
000050 a0 61 41 b7 74 e6 3e b7 6f 35 19 34 0f 8b f5 33
       -1.15264265e-05 -1.1378539e-05 1.4268674e-07 1.1433996e-07
000060 16 f1 52 b9 8c e3 50 b9 2e b4 b1 b4 02 6a a1 b4
       -0.00020116972 -0.00019921194 -3.3099917e-07 -3.0065718e-07
000070 61 af 1e b6 51 ab 20 b6 b5 20 56 36 9c 28 34 36
       -2.3645919e-06 -2.3941577e-06 3.1907523e-06 2.6845728e-06
000080 24 c9 9f b9 54 82 9f b9 79 99 a5 35 0c 89 5a 35
       -0.00030476705 -0.00030423945 1.2338124e-06 8.141076e-07
000090 8a d2 98 35 89 7a cf b5 68 81 08 b5 4d 2e ad b4
       1.1386157e-06 -1.5458364e-06 -5.085226e-07 -3.225745e-07
0000a0 03 8a 0f 34 9f 81 d7 33 63 dd f8 34 c4 31 9c 34
       1.3368121e-07 1.00352956e-07 4.635468e-07 2.9093474e-07
0000b0 91 d9 af 34 2c 6f 6b 33 fa 06 23 b9 ce 12 24 b9
       3.275459e-07 5.481631e-08 -0.0001554749 -0.00015647264
0000c0 6a 47 c5 33 b3 0f a9 33 cd f2 3f b8 1a ad 3f b8
       9.1865175e-08 7.8725314e-08 -4.5764074e-05 -4.5699162e-05
0000d0 f5 aa c3 ae 0b 81 c8 ae ac 47 19 35 eb 18 c7 34
       -8.8979414e-11 -9.11787e-11 5.710124e-07 3.708477e-07
0000e0 76 9d 8d b4 c4 8f 27 b4 11 65 8b b9 17 bd 8a b9
       -2.6377865e-07 -1.5605389e-07 -0.00026587446 -0.00026462294
0000f0 90 ca 27 b8 9e d8 23 b8 b0 5a 80 b9 75 3a 7c b9
       -4.0004554e-05 -3.906397e-05 -0.0002448163 -0.0002405437
000100 cd 3c 0f b6 6f 10 e6 b5 4b ba 96 b7 2e e7 93 b7
       -2.1344051e-06 -1.7141118e-06 -1.7968143e-05 -1.7631417e-05
000110 f8 3e 80 b9 89 5c 81 b9 58 15 6d 39 62 c5 62 39
       -0.00024460978 -0.0002467374 0.00022610032 0.0002162657
000120 62 a9 04 35 b1 09 b0 34 f9 74 38 33 3d 2d 22 33
       4.9420316e-07 3.2789606e-07 4.2947224e-08 3.775971e-08
000130 be 5c 0c b9 e0 65 0b b9 8d f5 06 35 90 b0 bd 34
       -0.0001338599 -0.00013294024 5.0276213e-07 3.533246e-07
000140 2f 6c e2 b8 60 1e e4 b8 ed aa b2 b8 26 b6 ae b8
       -0.000107966705 -0.00010877545 -8.519539e-05 -8.330894e-05
000150 09 c2 a5 b4 c3 9c 40 b4 1c 52 3d 36 0f ce 04 b3
       -3.0874824e-07 -1.7938423e-07 2.8210989e-06 -3.0921054e-08
000160 4c 0f 94 b9 93 e2 94 b9 c4 fc 2d 34 ad 71 e9 33
       -0.00028240157 -0.0002839757 1.6203836e-07 1.08705855e-07
000170 4e 0f 0b 38 48 1a 09 38 f1 1e 94 34 14 8b 6d 34
       3.3154436e-05 3.268782e-05 2.758966e-07 2.2122941e-07
000180 85 d4 dd 35 09 00 79 35 9e 77 40 34 95 08 d2 33
       1.6527634e-06 9.275978e-07 1.792491e-07 9.780448e-08
000190 d0 aa 8e 34 76 be 42 34 1e 43 a4 31 4e ad 81 31
       2.6573844e-07 1.8136947e-07 4.7806585e-09 3.7740966e-09
0001a0 49 d2 0d 35 4b af fa 33 cc bf e5 b7 7d c2 e0 b7
       5.28326e-07 1.1673418e-07 -2.738824e-05 -2.6793447e-05
0001b0 ed 7b 26 36 e3 76 b6 35 ac 6a a2 33 0b 6b bc 33
       2.4808062e-06 1.3594657e-06 7.5631164e-08 8.773903e-08
0001c0 42 63 15 b6 e0 b5 1a b6 46 96 0b b7 c3 a3 1c b7
       -2.2260506e-06 -2.3053653e-06 -8.320034e-06 -9.336453e-06
0001d0 49 b9 36 b5 95 29 b2 b4 a2 09 fd b9 44 5d fb b9
       -6.806991e-07 -3.3185339e-07 -0.00048263097 -0.0004794394
0001e0 bd 92 0a 36 18 5a d4 35 f8 b1 82 b0 a9 3d 88 b0
       2.0649015e-06 1.5821452e-06 -9.509327e-10 -9.912827e-10
0001f0 f5 18 a3 34 99 ae 79 34 ae 8f 84 b8 42 8b 86 b8
       3.0379275e-07 2.325345e-07 -6.321013e-05 -6.415557e-05
000200 a9 73 83 34 d8 92 07 34 98 4e bf 33 73 ee a4 33
       2.4484805e-07 1.2626276e-07 8.908427e-08 7.680219e-08
000210 9e ea ab b8 cc eb 9f b8 de a7 a7 b6 a9 f2 a0 b5
       -8.197616e-05 -7.6256314e-05 -4.99653e-06 -1.1991552e-06
000220 9a 48 75 35 52 ae 31 35 bf 60 79 b5 50 73 87 b5
       9.137526e-07 6.619131e-07 -9.290051e-07 -1.0091844e-06
000230 fe 37 ea 33 18 f7 89 33 da ae 09 b9 19 c5 09 b9
       1.0906659e-07 6.424506e-08 -0.00013130475 -0.00013138763
000240 6b e1 28 ad ad f2 36 ad 69 30 75 30 f8 51 97 30
       -9.599747e-12 -1.0399387e-11 8.9199276e-10 1.1009993e-09
000250 93 17 07 34 64 54 a8 33 cd 6c 44 34 82 c6 0d 34
       1.2581431e-07 7.83846e-08 1.8293504e-07 1.3203865e-07
000260 33 6a cc 34 9d 4d e0 33 40 aa 90 33 7e ed 11 33
       3.807523e-07 1.04449306e-07 6.736491e-08 3.397644e-08
000270 ee 5d c2 b1 64 ad b8 b1 58 69 af b4 da 55 27 b4
       -5.6568217e-09 -5.374817e-09 -3.2672938e-07 -1.558432e-07
000280 0d f7 c0 b9 f7 b1 b9 b9 b7 21 95 2d 56 4b 96 2d
       -0.0003680516 -0.00035418544 1.6954311e-11 1.7086482e-11
000290 b2 3a 82 3a 75 61 71 3a 17 85 a4 36 4b b4 d4 35
       0.0009935705 0.00092079426 4.9030746e-06 1.5847703e-06
0002a0 cf 5c dc c0 8c 15 d9 c0 5f 9f 0a b6 fc 32 0f b6
       -6.886329 -6.78388 -2.0656369e-06 -2.1338337e-06
0002b0 dd ed e3 34 1b e2 68 34 0c 88 e0 33 85 86 a7 33
       4.2455113e-07 2.168894e-07 1.04555596e-07 7.8010125e-08
0002c0 07 c5 ca 33 14 6a 97 33 a5 2b 34 32 57 db c8 31
       9.442197e-08 7.050781e-08 1.0487303e-08 5.845702e-09
0002d0 e9 4b 55 b5 39 d7 94 b5 23 b1 f0 b6 1e 21 f4 b6
       -7.945915e-07 -1.1089497e-06 -7.173179e-06 -7.275622e-06
0002e0 0e 7b c1 36 0e b5 cc 36 51 3e 38 b7 1e f2 76 b7
       5.7661737e-06 6.1007513e-06 -1.0981764e-05 -1.4719115e-05
0002f0 0d 00 20 b5 f4 f4 01 b5 d6 93 6c 36 cd 0e 0e 36
       -5.960472e-07 -4.84127e-07 3.5252792e-06 2.1168264e-06
000300 12 b2 86 30 ae 56 2d 32 c2 99 50 b8 ef 95 40 b8
       9.800394e-10 1.0089634e-08 -4.9734263e-05 -4.5916004e-05
000310 b6 38 42 b7 ad 1f 54 b7 9d 70 2b 33 62 39 e9 32
       -1.1576505e-05 -1.264356e-05 3.991646e-08 2.7150865e-08
000320 09 31 c5 b8 9d e7 bf b8 0f 75 0c b5 43 4b 94 b4
       -9.4028255e-05 -9.150731e-05 -5.2324407e-07 -2.7621908e-07
000330 da 6b 70 35 33 56 03 35 35 00 0a b7 b4 3a 0c b7
       8.956391e-07 4.892674e-07 -8.225489e-06 -8.358318e-06
000340 c2 f0 6f b7 b7 6c 6b b7 11 08 a1 34 e0 41 8c 34
       -1.4301566e-05 -1.4032404e-05 2.9994456e-07 2.6124962e-07
000350 93 8d df 2f ff e9 cd 2f 35 91 4e 2e 08 5d 35 2e
       4.0664058e-10 3.7455547e-10 4.6967947e-11 4.1237264e-11
000360 15 27 a7 b7 2f 9c a7 b7 f6 50 76 b9 87 58 77 b9
       -1.992615e-05 -1.998068e-05 -0.00023490548 -0.00023588735
000370 7b 2e 40 b9 a0 8a 3e b9 82 cb 24 b9 d4 18 26 b9
       -0.00018327862 -0.00018171454 -0.00015716071 -0.00015840243
000380 1e 8c 29 34 50 20 fb 33 47 ee 8a 33 f0 02 56 33
       1.5790326e-07 1.1693976e-07 6.469468e-08 4.982843e-08
000390 39 e5 24 36 56 d2 06 35 81 77 13 b8 ef 37 0d b8
       2.457133e-06 5.022497e-07 -3.5158828e-05 -3.3669112e-05
0003a0 5c 2d 13 35 e2 4f 71 35 c4 fc 6b b9 be 5f 6d b9
       5.4827774e-07 8.989574e-07 -0.00022505509 -0.00022637748
0003b0 9f b5 bc b4 2e 1e 89 b4 9c cb c3 33 52 72 9d 33
       -3.5149876e-07 -2.5540197e-07 9.1174314e-08 7.331677e-08
0003c0 b3 a0 a8 38 6f 88 9c 38 c9 6b 40 2f f6 bb 35 2f
       8.040797e-05 7.4640724e-05 1.7500591e-10 1.6528631e-10
0003d0 63 d9 37 34 c0 bd 4c b4 1d f7 f0 b6 e5 81 f3 b6
       1.7122288e-07 -1.9068011e-07 -7.181325e-06 -7.257086e-06
0003e0 6b 51 93 b5 61 ff 93 b5 c4 ab 04 35 05 6a 8a 34
       -1.0976049e-06 -1.1026679e-06 4.9423784e-07 2.5781642e-07
0003f0 e9 da 33 30 4d 38 fa 2f 9d 9e 4d b3 4e 64 63 b3
       6.543091e-10 4.551474e-10 -4.787454e-08 -5.2943783e-08
