lightning_logs/version_38/checkpoints/epoch=24-step=1225.ckpt (torch, 106345 bytes, 21 tensors)

proj.weight f4 [100, 2]
0.7095946 -0.24340035 0.27694193 0.266505 -0.3134843 -0.18352368 0.705615 0.50791097
-0.22491959 0.71797895 0.3342536 -0.3882671 0.16854233 -0.3658413 0.0024643715 -0.32634455
0.30442163 0.47180194 -0.13690227 0.2617583 -0.24301691 0.2587136 0.5563929 -0.31965458
-0.32407865 0.41594502 0.04887511 -0.21365649 -0.5210206 0.20662802 0.29766667 -0.31889126
0.29314375 -0.35277745 -0.0982292 -0.04421193 0.6878209 0.17382137 0.13042109 -0.093868256
0.14094122 0.6205958 -0.18370326 0.42281413 -0.5363118 -0.30130318 -0.1886313 0.119989745
0.596024 -0.097763136 -0.6152484 0.4014514 0.030544948 -0.13047998 0.45308307 -0.41202968
0.20408942 -0.2501196 -0.092003435 0.054514945 -0.026499454 -0.2931955 0.43969667 -0.5245379
0.16921118 -0.6306942 0.107919686 -0.69617313 -0.7433217 -0.5047136 0.09090631 0.033858005
-0.18921301 -0.1815023 -0.15021954 0.06268403 0.07501863 0.4530348 -0.59472054 0.72993296
-0.5995694 -0.49371752 0.67962503 0.17434414 0.64452225 -0.07819978 -0.5492944 0.6745925
0.5408748 0.5828053 0.5093805 0.26106656 -0.40897757 0.28862566 -0.22994812 -0.28541264
0.5307737 0.18637526 0.53801584 -0.1365742 -0.11117024 0.003654081 0.35796672 0.12211717
-0.18222162 0.30744943 0.10738283 0.5603467 0.01660501 0.5690232 -0.7165036 -0.5360013
0.53649294 -0.5160128 -0.11819326 0.20009908 -0.45556074 -0.4611173 0.71109366 0.039665088
0.22560629 0.5642214 -0.1066082 0.31777772 0.07366144 -0.6029937 -0.07712215 0.15257862
0.33482572 -0.6239355 0.538358 0.55928826 0.5987359 0.08987083 0.44857013 0.33853853
-0.09572821 0.57467026 0.18932366 0.31566864 -0.7101024 -0.27127823 0.025176378 0.1830306
-0.55926585 0.38134593 0.579578 -0.7104225 0.37613824 0.0455212 0.36702242 -0.48555347
0.19096257 -0.12717022 0.52917325 -0.19710211 0.32048973 -0.3049023 0.5607981 0.081259914
0.5394642 0.29019055 -0.1269876 0.27238968 0.18690093 -0.084785104 0.045571223 -0.30439556
-0.5492478 0.37800255 -0.27324963 0.061300624 0.49660257 -0.5327728 -0.5299692 -0.35531566
-0.27661303 -0.28675914 0.2713838 0.107050404 0.68758225 0.06094463 -0.08079701 -0.07872783
-0.27942866 -0.25023016 0.07093691 0.075843975 0.5360186 -0.2079721 0.5651015 -0.6910636
-0.53154874 -0.4492443 0.28891176 0.36709058 0.66094893 -0.23939233 0.5316774 0.40999895
00000000: fea7 353f f13d 79be 55cb 8d3e 5873 883e
00000010: 0481 a0be a2ed 3bbe 2fa3 343f 7406 023f
00000020: 5251 66be 78cd 373f 4a23 ab3e f2ca c6be
00000030: 5c96 2c3e 8d4f bbbe 4b81 213b a216 a7be
00000040: 27dd 9b3e 0690 f13e 1c30 0cbe 2f05 863e
00000050: 6dd9 78be 1c76 843e c46f 0e3f c4a9 a3be
00000060: a3ed a5be bff6 d43e 4431 483d c4c8 5abe
00000070: 9b61 05bf 4c96 533e c467 983e b745 a3be
00000080: f016 963e 3f9f b4be 642c c9bd 9217 35bd
00000090: 0815 303f 3bfe 313e 1b8d 053e 003e c0bd
000000a0: e552 103e 5edf 1e3f b51c 3cbe 187b d83e
000000b0: bb4b 09bf 6944 9abe 9028 41be 2fbd f53d
000000c0: 0795 183f 0a38 c8bd eb80 1dbf 0a8b cd3e
000000d0: 6639 fa3c 8b9c 05be 81fa e73e 8ef5 d2be
000000e0: d1fc 503e ad0f 80be 4c6c bcbd 104b 5f3d
000000f0: 6215 d9bc b81d 96be ec1f e13e 1e48 06bf
00000100: b245 2d3e 2d75 21bf ff04 dd3d 6738 32bf
00000110: 554a 3ebf e934 01bf 162d ba3d b1ae 0a3d
00000120: 0ec1 41be bddb 39be 27d3 19be 7c60 803d
00000130: 5ea3 993d 2df4 e73e 9b3f 18bf e3dc 3a3f
00000140: 617d 19bf 8bc8 fcbe e8fb 2d3f 4587 323e
00000150: 69ff 243f 3527 a0bd 8f9e 0cbf 18b2 2c3f
00000160: c576 0a3f ba32 153f c366 023f 84aa 853e
00000170: 8265 d1be bec6 933e 8577 6bbe 9b21 92be
00000180: c9e0 073f 28d9 3e3e 68bb 093f 1bda 0bbe
00000190: 39ad e3bd 4e79 6f3b 6a47 b73e 9118 fa3d
000001a0: 4e98 3abe 036a 9d3e 87eb db3d e272 0f3f
000001b0: 3b07 883c 81ab 113f c86c 37bf 6237 09bf
000001c0: 9a57 093f 6a19 04bf 4f0f f2bd c6e6 4c3e
000001d0: 423f e9be 9117 ecbe 3c0a 363f dc77 223d
000001e0: 5605 673e d070 103f 6655 dabd c3b3 a23e
000001f0: cfdb 963d cc5d 1abf 38f2 9dbd 923d 1c3e
00000200: 476e ab3e 3dba 1fbf d4d1 093f 842d 0f3f
00000210: c246 193f 330e b83d fcaa e53e ec54 ad3e
00000220: 270d c4bd 971d 133f 10de 413e 529f a13e
00000230: 45c9 35bf fbe4 8abe b13e ce3c 606c 3b3e
00000240: 0c2c 0fbf c63f c33e 395f 143f 40de 35bf
00000250: 3195 c03e 7074 3a3d 5dea bb3e 779a f8be
00000260: b18b 433e e938 02be e677 073f 23d5 49be
00000270: 3b17 a43e 271c 9cbe 7790 0f3f 996b a63d
00000280: 531a 0a3f db93 943e 0a09 02be a976 8b3e
00000290: f562 3f3e d0a3 adbd e4a8 3a3d bcd9 9bbe
000002a0: 819b 0cbf 8d89 c13e 60e7 8bbe 5d16 7b3d
000002b0: b142 fe3e cc63 08bf 10ac 07bf efeb b5be
000002c0: 39a0 8dbe 18d2 92be d1f2 8a3e 3e3d db3d
000002d0: 6405 303f 14a1 793d e778 a5bd 0e3c a1bd
000002e0: 4611 8fbe 2b1e 80be 5f47 913d 1654 9b3d
000002f0: 8438 093f a3f6 54be 7eaa 103f 8be9 30bf
00000300: 9413 08bf 5903 e6be 3eec 933e 4cf3 bb3e
00000310: f333 293f 4323 75be 031c 083f 62eb d13e

proj.bias f4 [100]
0.6809869 -0.4719872 0.4926862 -0.6502427 -0.45582104 -0.13143392 -0.26928365 0.012760374
-0.66226447 -0.387357 0.5897112 -0.41486776 -0.048765656 0.64347005 0.5389466 0.11446982
-0.48195395 0.63103455 -0.012620562 -0.44022992 0.34267884 0.34538174 -0.727288 0.024191527
-0.41736063 -0.24274538 -0.103949316 0.218761 -0.21399176 0.3293761 0.33990556 0.089748606
0.1478022 0.08485073 -0.35686097 0.09063135 0.52665377 -0.51297677 0.5273333 0.60094875
-0.5309882 -0.6307829 -0.65593433 -0.3196428 0.0957037 0.28466818 -0.43044633 0.535243
-0.22797407 0.44297236 -0.4641658 -0.41515267 -0.2145373 -0.14583302 -0.51794183 0.5688612
-0.003133428 0.11786034 -0.6016349 -0.5638598 -0.3166511 -0.29835212 0.49610308 -0.5483029
0.604786 0.43832916 0.3349277 0.28253874 -0.72406447 -0.5211841 -0.23397353 -0.5631439
0.66767263 -0.53732723 0.69718206 0.2556786 0.30412927 0.64078826 0.11942467 -0.30062273
0.1783591 -0.48432365 -0.044958636 -0.55397725 0.16596706 -0.014913013 -0.08385828 -0.35088816
-0.7269471 -0.48978123 0.5367268 -0.18606173 -0.39073387 -0.28189933 0.16511619 0.06302784
-0.25809 -0.6865354 -0.48716334 0.71794814
00000000: 2855 2e3f 4ea8 f1be 5e41 fc3e 4e76 26bf
00000010: 6061 e9be 9d96 06be 8cdf 89be e310 513c
00000020: 2a8a 29bf a853 c6be 50f7 163f 8c69 d4be
00000030: 7fbe 47bd 74ba 243f 68f8 093f 276f ea3d
00000040: abc2 f6be 7b8b 213f 79c6 4ebc d165 e1be
00000050: 9a73 af3e e0d5 b03e 8c2f 3abf 4f2d c63c
00000060: 4bb0 d5be 3f92 78be 61e3 d4bd e202 603e
00000070: a820 5bbe fca3 a83e 1a08 ae3e 1ece b73d
00000080: 7659 173e 38c6 ad3d 7bb6 b6be ee9c b93d
00000090: c8d2 063f 7252 03bf 51ff 063f c7d7 193f
000000a0: d8ee 07bf fd7a 21bf 50eb 27bf 39a8 a3be
000000b0: 4d00 c43d 07c0 913e 7663 dcbe af05 093f
000000c0: 0972 69be 46cd e23e 24a7 edbe e48e d4be
000000d0: aaaf 5bbe 4055 15be d697 04bf e3a0 113f
000000e0: 335a 4dbb c360 f13d bf04 1abf 1e59 10bf
000000f0: 1820 a2be 9cc1 98be 3901 fe3e 945d 0cbf
00000100: 41d3 1a3f ae6c e03e a57b ab3e eba8 903e
00000110: 4a5c 39bf 526c 05bf c296 6fbe 332a 10bf
00000120: 98ec 2a3f 478e 09bf 867a 323f 4ee8 823e
00000130: d5b6 9b3e b30a 243f ec94 f43d 39eb 99be
00000140: c5a3 363e 45f9 f7be 8c26 38bd 74d1 0dbf
00000150: 45f3 293e b655 74bc e4bd abbd 9da7 b3be
00000160: 3519 3abf 9bc4 fabe ed66 093f f786 3ebe
00000170: 450e c8be 1c55 90be 3814 293e bd14 813d
00000180: 5f24 84be c9c0 2fbf 796d f9be 73cb 373f

station_embedding.weight f4 [70, 100]
-0.29991034 1.8510319 1.3575267 0.6625282 -0.7862244 1.9288929 -0.02048273 0.40290263
-0.6047521 0.90873843 -1.8224682 -0.5481837 -1.0456539 -0.6581895 -0.8501377 -1.3561509
-0.7053002 1.1921362 -0.07607913 -0.53741604 -0.21239835 -1.6496813 0.9550841 -0.043697022
-0.8381931 0.5655201 -1.0205299 -1.2184887 -1.4577444 -0.13728511 -0.5169422 0.506281
0.8675485 -0.8761302 0.67115486 0.90686643 -1.138374 -1.493603 -0.37396184 -2.5971377
0.9129471 -0.14643688 0.03515019 0.40517062 0.9407486 -0.27758205 -0.10100844 -0.6918477
0.6930925 -0.05602787 1.506224 0.6767805 -0.13014273 -0.59155214 0.5580838 0.5307775
-0.1535807 -0.9192981 -0.39923963 0.5660448 -1.0928912 -0.9274338 -0.035709385 -0.6644781
-0.008609018 -0.38631764 0.78933895 -2.42698 -0.08143855 -1.0332313 0.06604107 1.1454713
0.7549035 1.3409518 -0.06164177 -0.017984059 -0.9350839 0.19848809 -1.2764059 1.3191696
-0.9770407 0.60487187 -0.4968874 -0.13581212 2.4900243 1.7385384 0.52396744 0.52955705
-1.3306834 -0.93523103 -1.8934562 0.7885744 0.6550006 1.7942493 0.4209757 -0.71765685
1.0778922 0.5809547 -1.1009866 -1.9421294 1.347743 -1.1476693 -0.87459743 0.33513388
0.7399962 -0.115834504 0.2735639 1.4607496 -0.07738665 0.76756436 -0.52799445 -0.21416222
0.48432624 1.5607785 -0.12452686 -0.56058 -0.67161787 -0.8234618 1.2422876 -1.210834
0.049592808 0.73160267 -0.56496024 -1.3268509 1.6910986 1.0749052 -0.030011034 0.85830814
-0.75769883 -1.5325439 -1.3952589 0.8167651 1.1753445 -0.9979221 0.78458726 -2.4810882
-0.4122088 2.057035 -0.5165469 -1.0515759 -0.1622399 -0.44784796 -0.64106095 -0.50891626
-0.15246178 -0.46498972 -1.236469 -0.2497348 -0.7822854 -0.059227895 -0.30721876 0.519969
-0.35117427 -1.2749923 -1.2932011 -0.6971093 -0.82509524 0.14837736 -0.5947054 0.9425328
0.85936314 -0.019951174 -0.6760002 1.0624241 0.7928883 0.9283412 -2.8635342 0.2562265
-0.37584984 -0.97741026 -0.9808509 0.30119193 0.23141026 0.3037123 1.7420993 1.484582
0.20834187 1.6518774 -1.007725 0.05107153 0.18317313 -0.17965417 0.30466416 1.1144086
0.7261059 2.1149516 -1.556384 -0.5452756 -1.5198417 -0.7468518 -1.4186673 1.0233197
0.33486268 -0.0318626 -1.386906 0.729655 0.26905382 0.73520637 -0.8423568 -1.9283564
0.41949293 0.045549702 0.6268793 -1.7858713 1.0665576 1.036169 -1.924759 0.34086475
0.59920096 2.3299272 1.0515075 -0.19353361 0.6196357 0.17309643 -0.06143301 -1.3604128
-0.3333106 1.4019064 1.1354396 -0.2886883 -0.18792655 -0.055313136 0.12481917 -0.39820847
-0.6052692 2.0820496 -0.3539106 1.4181896 -0.8376829 0.49821487 -0.6818731 -0.27235696
-0.2156446 1.0728159 0.3572138 -0.93873787 0.3231769 -1.133023 2.1731522 0.05136193
-1.8978194 -0.53416973 -1.7362517 -0.32989228 -1.3034787 0.15378699 -0.2554724 -0.39018813
-0.2613132 0.4279587 -0.4316855 0.033861693 0.7644502 -0.52183264 1.8138703 -0.32097247
00000000: d98d 99be 9dee ec3f 6fc3 ad3f 739b 293f
00000010: 0146 49bf f6e5 f63f 66cb a7bc 4149 ce3e
00000020: 09d1 1abf 15a3 683f a346 e9bf c455 0cbf
00000030: fdd7 85bf 1b7f 28bf a0a2 59bf 5a96 adbf
00000040: 8e8e 34bf eb97 983f 60cf 9bbd 1994 09bf
00000050: f47e 59be c228 d3bf 6480 743f a6fb 32bd
00000060: d393 56bf edc5 103f b9a0 82bf 70f7 9bbf
00000070: 5e97 babf 7894 0cbe 5356 04bf a29b 013f
00000080: a917 5e3f 124a 60bf ced0 2b3f 6628 683f
00000090: 3db6 91bf 622e bfbf ed77 bfbe 8137 26c0
000000a0: e7b6 693f 8df3 15be a5f9 0f3d 8672 cf3e
000000b0: e6d4 703f 3c1f 8ebe 83dd cebd ee1c 31bf
000000c0: 836e 313f 7b7d 65bd f3cb c03f 7d41 2d3f
000000d0: 2344 05be f66f 17bf 94de 0e3f 09e1 073f
000000e0: 4244 1dbe 1f57 6bbf 2369 ccbe 50e8 103f
000000f0: dce3 8bbf 4d6c 6dbf 0144 12bd 3d1b 2abf
00000100: d70c 0dbc 6dcb c5be 1e12 4a3f a453 1bc0
00000110: 41c9 a6bd ec40 84bf 8a40 873d ce9e 923f
00000120: 5b41 413f 4fa4 ab3f 157c 7cbd 4e53 93bc
00000130: a961 6fbf 7640 4b3e 4561 a3bf 8dda a83f
00000140: 571f 7abf e2d8 1a3f 0668 febe 5512 0bbe
00000150: 8f5c 1f40 6d88 de3f bb22 063f 0d91 073f
00000160: d553 aabf 4d6b 6fbf c65c f2bf 03e0 493f
00000170: 1fae 273f f6a9 e53f 208a d73e 5cb8 37bf
00000180: 5ff8 893f 72b9 143f 21ed 8cbf b297 f8bf
00000190: d882 ac3f d4e6 92bf 9ee5 5fbf ab96 ab3e
000001a0: 6470 3d3f a43a edbd 9110 8c3e d8f9 ba3f
000001b0: e47c 9ebd 197f 443f a52a 07bf 574d 5bbe
000001c0: 9cf9 f73e 97c7 c73f f007 ffbd 2c82 0fbf
000001d0: 26ef 2bbf 64ce 52bf 4803 9f3f 9cfc 9abf
000001e0: d421 4b3d 504a 3b3f 3ca1 10bf 40d6 a9bf
000001f0: eb75 d83f 7e96 893f b3d9 f5bc 15ba 5b3f
00000200: 8df8 41bf 662a c4bf d897 b2bf 8517 513f
00000210: b071 963f d377 7fbf b6da 483f 26ca 1ec0
00000220: 080d d3be 76a6 0340 6b3c 04bf 0a9a 86bf
00000230: 3722 26be 544c e5be 921c 24bf 5648 02bf
00000240: f11e 1cbe 2213 eebe 9e44 9ebf 7bba 7fbe
00000250: db43 48bf f398 72bd c74b 9dbe b01c 053f
00000260: 1dcd b3be f332 a3bf 9d87 a5bf c175 32bf
00000270: 7139 53bf 3cf0 173e 9d3e 18bf d449 713f
00000280: 39ff 5b3f a570 a3bc 590e 2dbf 83fd 873f
00000290: bafa 4a3f c5a7 6d3f 2544 37c0 1f30 833e
000002a0: 646f c0be 8f37 7abf 0b19 7bbf d435 9a3e
000002b0: d0f6 6c3e 2e80 9b3e 1cfd de3f c806 be3f
000002c0: 9257 553e b870 d33f 22fd 80bf 6130 513d
000002d0: bd91 3b3e 43f7 37be f1fc 9b3e f1a4 8e3f
000002e0: 14e2 393f 5e5b 0740 9737 c7bf 2f97 0bbf
000002f0: 2c8a c2bf ae31 3fbf e496 b5bf 24fc 823f
00000300: 1f73 ab3e 5c82 02bd 2386 b1bf acca 3a3f
00000310: 6cc1 893e 7c36 3c3f b2a4 57bf 62d4 f6bf
00000320: c7c7 d63e 5392 3a3d 297b 203f 6e97 e4bf
00000330: f684 883f 30a1 843f 815e f6bf d385 ae3e
00000340: 3c65 193f 871d 1540 cc97 863f ad2d 46be
00000350: 72a0 1e3f 3140 313e 2ea1 7bbd 0222 aebf
00000360: b0a7 aabe ab71 b33f 1656 913f f4ce 93be
00000370: d16f 40be 0790 62bd 31a1 ff3d fbe1 cbbe
00000380: ecf2 1abf 4d40 0540 c533 b5be 3d87 b53f
00000390: 6372 56bf 0516 ff3e 3c8f 2ebf 5f72 8bbe
000003a0: f0d1 5cbe 0852 893f bae4 b63e 2051 70bf
000003b0: 7177 a53e e606 91bf ed14 0b40 e360 523d
000003c0: bfeb f2bf 59bf 08bf 7f3d debf a4e7 a8be
000003d0: 64d8 a6bf 567a 1d3e 47cd 82be bdc6 c7be
000003e0: d8ca 85be 671d db3e e205 ddbe 8fb2 0a3d
000003f0: 02b3 433f d396 05bf e72c e83f 8156 a4be

lstm.weight_ih_l0 f4 [8, 100]
-0.18862109 -0.30474177 0.52146447 -0.79736245 0.39663097 0.9845665 -0.3213362 -0.70279425
-0.4959159 0.26737455 0.64531237 0.7881765 -0.6661475 -0.7822158 0.32361448 0.1928952
-0.2563252 0.9731173 0.30964452 -0.1555722 0.68203205 0.67834866 0.14636564 0.05119055
0.10491742 0.60689884 0.15855771 0.4905856 -0.6198442 0.74654496 0.34478834 -1.1230869
-0.5403981 0.36298758 0.9166909 -0.32414827 0.82672614 0.26974413 0.41943872 -0.119721614
-0.55544585 0.50506 -0.8929373 0.1597604 0.42163157 -0.70236343 -0.42755252 -0.27095938
-0.57848054 0.0111809885 0.62556314 0.12627926 -0.29731765 -0.45390093 0.79441357 0.18145
-0.6275825 -0.13638394 0.41390902 -0.112897284 -0.22690696 0.74666005 -0.29218063 -0.6070139
0.5883164 -0.38112482 0.23014839 -0.44850636 -0.85261685 -0.0627782 -0.07757649 -0.11012295
-0.087965295 0.49505788 -0.583671 -0.40883118 -0.8566606 0.27377895 -0.4096476 0.63417214
-0.8156401 0.65544426 -0.03820979 0.20969939 1.0726523 -0.68968666 0.22684228 -0.26706955
0.20614617 0.024751581 0.37926593 0.33591694 -0.123167895 -0.06937935 0.54025227 -0.38343444
0.8189492 0.51686597 -0.62932056 -0.20171659 0.23859252 0.6098025 -0.31473365 0.46697742
0.6047813 -0.6977992 -0.008869105 -0.80160254 -0.1722451 -0.5328969 -0.28271127 -0.1919701
0.33400118 0.39852908 0.2772912 -0.37796378 -0.019807028 0.47288528 0.11333134 -0.2635063
-0.14520304 0.85568374 -0.0034809154 -0.7808818 0.23742945 -0.21784225 -0.80458415 -0.42321903
0.4278807 0.8098239 -0.1466119 -0.13354799 -0.3457009 -0.6917887 0.48832265 0.35445896
0.42662677 -0.63504446 -0.11580312 -0.22580354 -0.45668742 0.5157611 0.7080436 -0.57735264
0.3452196 -0.49831894 0.58009875 0.07234568 -0.25977454 0.365104 -0.36042637 -0.09503666
0.652405 -0.24449791 -0.5807189 0.29227227 -0.66974735 -0.62627596 0.3026386 0.16618253
0.032773986 0.048833963 0.18308322 -0.6921586 0.52551246 0.7655174 -0.48960695 0.38157612
-0.28019896 -0.6768149 -0.5162123 -0.3117268 -0.77852124 -0.24232219 0.20887557 -0.035908088
-0.079364285 0.5360354 -0.28330573 0.36317468 0.6708246 0.58688146 -0.49223754 -0.18252559
-0.09950678 -0.7283564 0.69701934 0.24912035 -0.6463862 0.58333516 0.40297315 -0.8260321
-0.17139724 0.25159925 0.12565044 0.7425794 0.5328893 -0.014075074 0.112168096 -0.7067308
-0.65017927 0.18269415 -0.1215752 0.1045177 0.07255154 -0.11069285 -0.26136982 0.5892327
0.040262148 0.32409874 0.15610544 -0.59030896 -0.67553025 -0.1618925 -0.5353524 0.34846625
0.44462642 0.35477296 -0.65679395 -0.04759431 -0.4421134 0.2747197 -0.14337055 0.46725303
0.4602865 -0.6353677 -0.5613277 -0.06533022 0.23426014 0.5411739 0.32525626 -0.41270155
0.5692358 -0.6401843 -0.44425172 -0.6435494 0.15669419 0.16166998 -0.6302269 0.3106352
0.5601718 -0.49049115 0.58073777 -0.6058204 0.35577393 -0.49273664 -0.24899252 -0.3378557
-0.24461791 0.1567873 0.101566546 0.34378454 -0.39417735 -0.24187982 -0.10294194 -0.06372121
00000000: e325 41be 1d07 9cbe b27e 053f f21f 4cbf
00000010: 3713 cb3e 8d0c 7c3f 2e86 a4be 53ea 33bf
00000020: b0e8 fdbe 51e5 883e 3133 253f efc5 493f
00000030: a488 2abf 4b3f 48bf ccb0 a53e 5286 453e
00000040: 0e3d 83be 371e 793f ba89 9e3e 524e 1fbe
00000050: a799 2e3f 42a8 2d3f e0e0 153e 2fad 513d
00000060: f2de d63d b95d 1b3f f45c 223e 092e fb3e
00000070: 1cae 1ebf 921d 3f3f 1988 b03e 50c1 8fbf
00000080: 8857 0abf 82d9 b93e 41ac 6a3f c3f6 a5be
00000090: 53a4 533f e71b 8a3e acc0 d63e 9b30 f5bd
000000a0: b331 0ebf 9d4b 013f 8a97 64bf 3b98 233e
000000b0: 18e0 d73e 17ce 33bf 2ae8 dabe 30bb 8abe
000000c0: 4d17 14bf 7730 373c e824 203f 5a4f 013e
000000d0: 053a 98be b465 e8be b05e 4b3f 07ce 393e
000000e0: 3fa9 20bf 3ba8 0bbe e2eb d33e b136 e7bd
000000f0: 4c5a 68be 1d25 3f3f b398 95be 4365 1bbf
00000100: e79b 163f cb22 c3be 05ac 6b3e a0a2 e5be
00000110: 1945 5abf db91 80bd 6ce0 9ebd 2488 e1bd
00000120: 2627 b4bd 3a78 fd3e 766b 15bf 5252 d1be
00000130: 1c4e 5bbf c12c 8c3e 55bd d1be 1b59 223f
00000140: cacd 50bf 32cb 273f de81 1cbd 70bb 563e
00000150: ac4c 893f 4e8f 30bf 5849 683e 57bd 88be
00000160: fb17 533e d4c3 ca3c 252f c23e 4efd ab3e
00000170: 733f fcbd c316 8ebd f94d 0a3f 8551 c4be
00000180: a8a6 513f 5451 043f 271b 21bf cb8e 4ebe
00000190: 9951 743e 041c 1c3f c524 a1be aa17 ef3e
000001a0: f3d2 1a3f f8a2 32bf b94f 11bc d335 4dbf
000001b0: 0561 30be ee6b 08bf 88bf 90be cf93 44be
000001c0: 3402 ab3e 010c cc3e 1df9 8d3e 7884 c1be
000001d0: 5942 a2bc 051e f23e 431a e83d 4cea 86be
000001e0: 1bb0 14be 170e 5b3f 1220 64bb dfe7 47bf
000001f0: b520 733e 0a12 5fbe 3af9 4dbf 2ab0 d8be
00000200: 2e13 db3e 9e50 4f3f 6e21 16be cec0 08be
00000210: b5ff b0be 1019 31bf 6d05 fa3e a57b b53e
00000220: d36e da3e 4692 22bf 302a edbd 0b39 67be
00000230: efd2 e9be eb08 043f 5842 353f 62cd 13bf
00000240: a0c0 b03e a923 ffbe 5a81 143f f929 943d
00000250: 2b01 85be e9ee ba3e ce89 b8be 95a2 c2bd
00000260: 0404 273f a95d 7abe fea9 14bf b6a4 953e
00000270: 9074 2bbf 9f53 20bf 72f3 9a3e c12b 2a3e
00000280: 043e 063d 1f06 483d 2b7a 3b3e 4e31 31bf
00000290: fc87 063f f3f8 433f c3ad fabe f25d c33e
000002a0: 3d76 8fbe be43 2dbf 7d26 04bf a89a 9fbe
000002b0: 2b4d 47bf 4f23 78be 7ae3 553e 5c14 13bd
000002c0: be89 a2bd 9e39 093f 730d 91be 08f2 b93e
000002d0: 29bb 2b3f dd3d 163f 8f06 fcbe fde7 3abe
000002e0: 36ca cbbd 9175 3abf dc6f 323f 6819 7f3e
000002f0: 9179 25bf 7455 153f 7f52 ce3e d776 53bf
00000300: c282 2fbe 9ed1 803e 82aa 003e af19 3e3f
00000310: 6f6b 083f 249b 66bc 63b8 e53d 4fec 34bf
00000320: 2672 26bf 2d14 3b3e 6bfc f8bd 600d d63d
00000330: e795 943d efb2 e2bd 44d2 85be f4d7 163f
00000340: ece9 243d 45f0 a53e 1bda 1f3e 7d1e 17bf
00000350: 8def 2cbf 26c7 25be db0c 09bf 2b6a b23e
00000360: 13a6 e33e cda4 b53e a623 28bf 40f2 42bd
00000370: b05c e2be 0fa8 8c3e bbcf 12be ca3b ef3e
00000380: acaa eb3e 75a7 22bf 2cb3 0fbf dacb 85bd
00000390: e4e1 6f3e 5f8a 0a3f fd87 a63e 9e4d d3be
000003a0: 70b9 113f 1ee3 23bf f674 e3be a7bf 24bf
000003b0: 7174 203e d18c 253e 8d56 21bf 940b 9f3e
000003c0: 6b67 0f3f a821 fbbe 3bab 143f 0c17 1bbf
000003d0: 0028 b63e fa47 fcbe e5f7 7ebe 6cfb acbe
000003e0: 1e7d 7abe da8c 203e 1f02 d03d 8704 b03e
000003f0: 9dd1 c9be 58af 77be 39d3 d2bd 4480 82bd

lstm.weight_hh_l0 f4 [8, 2]
-0.69022787 -0.525397 0.34090143 -0.23600554 0.40699553 0.039562523 -0.37294814 0.005236715
-0.6934115 0.11211874 0.48335275 0.05394257 -0.53173304 -0.06367324 0.59525007 -0.43758595
00000000: c6b2 30bf 6b80 06bf a28a ae3e 70ab 71be
00000010: b861 d03e 500c 223d 0ff3 bebe c098 ab3b
00000020: 6b83 31bf 839e e53d 037a f73e e2f2 5c3d
00000030: a81f 08bf 1e67 82bd 4f62 183f 440b e0be

lstm.bias_ih_l0 f4 [8]
0.519664 -0.2312302 -0.67116743 0.3384186 0.7074955 0.5306437 1.0286419 0.77174014
00000000: b308 053f 9cc7 6cbe a1d1 2bbf 3445 ad3e
00000010: 6d1e 353f 44d8 073f 8aaa 833f c390 453f

lstm.bias_hh_l0 f4 [8]
0.16035976 -0.30950776 -0.56046635 0.03169952 -0.095270194 0.15001468 -0.06476558 0.26456177
00000000: 5935 243e cd77 9ebe b97a 0fbf 5bd7 013d
00000010: 051d c3bd 739d 193e d1a3 84bd a474 873e

exp_avg f4 [100, 2]
3.417606e-08 6.4161284e-08 -2.7386642e-08 -6.325501e-08 2.9333376e-09 1.9461076e-08 -1.2351021e-08 -4.566577e-08
1.4226534e-09 1.3180149e-08 4.170755e-08 1.0984621e-07 1.4037536e-08 2.001652e-08 -1.5172878e-08 -4.8896613e-08
-2.6129168e-08 -6.567351e-08 5.9456408e-08 1.2708601e-07 -1.4095569e-08 -1.171074e-08 -4.423567e-08 -6.8907134e-08
6.800512e-08 1.2010136e-07 -4.158792e-08 -1.0434862e-07 -4.2107615e-08 -7.667967e-08 3.7983835e-08 8.175671e-08
-4.341668e-08 -9.438619e-08 2.6832536e-08 7.947519e-08 4.6908628e-08 1.028306e-07 -5.486903e-08 -1.1491896e-07
1.2070372e-08 4.2099565e-08 -9.007206e-09 -5.887222e-10 4.297966e-08 9.065753e-08 -2.6117734e-08 -5.144487e-08
-5.287978e-08 -1.0411909e-07 5.664327e-08 1.3021517e-07 -4.2861732e-08 -8.248679e-08 -3.4219955e-08 -5.640342e-08
-1.972058e-08 -5.593657e-08 3.7188197e-08 9.4534734e-08 -1.52942e-08 -2.1950038e-08 -4.621204e-08 -1.2253996e-07
-5.6748632e-08 -1.286981e-07 -9.390525e-09 -9.534225e-09 2.18236e-08 6.790424e-08 -4.2020684e-08 -9.332808e-08
4.4596277e-08 1.1158004e-07 5.0023605e-08 1.0807861e-07 5.150036e-09 2.1287645e-08 -3.0442667e-08 -6.4615335e-08
1.9627565e-08 2.5237366e-08 -1.590043e-08 -1.9015536e-08 -4.178669e-08 -1.07632836e-07 -1.057546e-08 -1.7215758e-08
-1.0596801e-08 -1.0456783e-08 -4.6599528e-08 -1.1239931e-07 5.317411e-08 9.633436e-08 -1.4792098e-08 -3.6928643e-08
8.910939e-09 2.9973959e-09 -4.8260304e-08 -9.723775e-08 -7.4123028e-09 1.2754978e-09 1.9599028e-08 4.2881215e-08
-3.2659702e-08 -7.3712485e-08 -4.897022e-08 -1.1073963e-07 1.2286434e-09 2.3109216e-08 2.163258e-08 4.8419054e-08
-6.110262e-08 -1.3975338e-07 4.0283936e-08 7.7860356e-08 -3.486838e-08 -5.970809e-08 5.453075e-08 1.0725751e-07
-3.4524483e-08 -7.565254e-08 -1.2274475e-08 -5.411469e-09 -2.8442102e-08 -6.505869e-08 9.760487e-09 3.964517e-09
1.9495497e-08 5.468302e-08 -5.248394e-08 -1.1596198e-07 6.688702e-09 1.9483842e-08 -3.9477467e-08 -9.142652e-08
-5.9634985e-08 -1.4264364e-07 3.971946e-08 7.8627984e-08 -1.3894835e-09 -4.827476e-09 3.9228997e-08 7.6399836e-08
-4.2370623e-08 -8.7903196e-08 4.7766227e-09 2.2493767e-08 5.5168048e-08 9.6319155e-08 5.7908136e-09 1.0916325e-09
-2.363149e-08 -6.9992154e-08 -1.9848896e-08 -3.298622e-08 -6.097047e-08 -1.3384316e-07 6.831387e-08 1.5450618e-07
1.9584272e-08 1.8403044e-08 -3.731946e-09 9.477923e-09 -3.4287766e-08 -7.0257606e-08 1.68114e-08 3.9419326e-08
-1.933039e-08 -1.1201301e-08 -3.0673327e-08 -7.987248e-08 2.4153985e-08 5.470124e-08 1.0765585e-08 1.4822036e-08
-3.8391562e-08 -7.221358e-08 -1.7710686e-08 -3.514446e-08 9.316694e-09 2.8661722e-08 2.5898837e-08 6.105607e-08
-1.9511056e-08 -4.263805e-08 -4.579595e-08 -9.433279e-08 -3.4368036e-08 -5.541808e-08 -4.1107278e-08 -9.302298e-08
-5.558164e-09 1.0037262e-08 7.88325e-08 1.7271242e-07 -3.9306173e-08 -9.5767675e-08 2.3887833e-10 -4.7481454e-09
00000000: fac8 1233 0ac9 8933 dd3f ebb2 cfd6 87b3
00000010: d293 4931 5c2b a732 5d30 54b2 0c22 44b3
00000020: 2b87 c330 e96e 6232 f021 3333 98e4 eb33
00000030: bc29 7132 cbf0 ab32 8355 82b2 6502 52b3
00000040: a672 e0b2 6508 8db3 035d 7f33 2375 0834
00000050: f828 72b2 6130 49b2 a2fd 3db3 19fa 93b3
00000060: 360a 9233 36f5 0034 679e 32b3 4316 e0b3
00000070: d0d9 34b3 18ab a4b3 ab23 2333 3a92 af33
00000080: 2579 3ab3 5bb1 cab3 5f7d e632 f3ab aa33
00000090: 9578 4933 b8d3 dc33 23a9 6bb3 5ec9 f6b3
000000a0: 0f5e 4f32 f6d0 3433 1cbe 1ab2 a4d3 21b0
000000b0: a398 3833 81af c233 8159 e0b2 3cf4 5cb3
000000c0: ef1d 63b3 1398 dfb3 ef47 7333 46d1 0b34
000000d0: f916 38b3 9823 b1b3 3df9 12b3 3740 72b3
000000e0: 0466 a9b2 e93e 70b3 dbb8 1f33 0503 cb33
000000f0: 4d60 83b2 a58c bcb2 ad7a 46b3 8793 03b4
00000100: c8bb 73b3 4430 0ab4 f753 21b2 f7cb 23b2
00000110: 9b76 bb32 c0d2 9133 3b7a 34b3 a86b c8b3
00000120: 208a 3f33 c79d ef33 89d9 5633 d818 e833
00000130: 32f4 b031 07dc b632 11c0 02b3 a8c2 8ab3
00000140: 7999 a832 8ec9 d832 6a95 88b2 9b57 a3b2
00000150: f478 33b3 c723 e7b3 5daf 35b2 dae1 93b2
00000160: 390d 36b2 6ba5 33b2 b924 48b3 2d60 f1b3
00000170: 8d61 6433 60e0 ce33 5620 7eb2 799b 1eb3
00000180: b916 1932 bffa 4d31 c446 4fb3 05d1 d0b3
00000190: 4eaf feb1 974d af30 b85a a832 652c 3833
000001a0: b945 0cb3 de4b 9eb3 5453 52b3 c1cf edb3
000001b0: 0cdd a830 b481 c632 8cd2 b932 50f5 4f33
000001c0: 8537 83b3 1e0f 16b4 a804 2d33 2f34 a733
000001d0: 30c2 15b3 df38 80b3 3235 6a33 7155 e633
000001e0: 1248 14b3 6c76 a2b3 b6df 52b2 c9ef b9b1
000001f0: d850 f4b2 65b6 8bb3 13af 2732 4338 8831
00000200: 0d77 a732 9edc 6a33 b46a 61b3 c606 f9b3
00000210: 72d2 e531 6c5d a732 ef8d 29b3 4356 c4b3
00000220: ae10 80b3 9629 19b4 0298 2a33 31da a833
00000230: 1bf8 beb0 eede a5b1 bd7c 2833 4111 a433
00000240: fefa 35b3 4bc5 bcb3 9e1f a431 5138 c132
00000250: e9f1 6c33 04d8 ce33 89f8 c631 6708 9630
00000260: 32fe cab2 984e 96b3 2f80 aab2 bcac 0db3
00000270: dfee 82b3 87b6 0fb4 f2b3 9233 56e6 2534
00000280: 453a a832 b914 9e32 8b3a 80b1 59d4 2232
00000290: cc43 13b3 87e0 96b3 a968 9032 024e 2933
000002a0: fa0b a6b2 d86f 40b2 aebd 03b3 5c86 abb3
000002b0: 2d7b cf32 a6f0 6a33 8bf3 3832 01a4 7e32
000002c0: f8e3 24b3 d613 9bb3 3622 98b2 bef1 16b3
000002d0: 410f 2032 cb33 f632 2578 de32 ee1d 8333
000002e0: 4499 a7b2 0821 37b3 2eb1 44b3 0094 cab3
000002f0: 0e9c 13b3 d304 6eb3 ee8d 30b3 edc3 c7b3
00000300: 21fa beb1 5870 2c32 a04a a933 d472 3934
00000310: 98d1 28b3 d6a8 cdb3 2353 832f 2125 a3b1

exp_avg_sq f4 [100, 2]
1.3159359e-05 8.219544e-06 3.5930098e-05 2.2166163e-05 3.405928e-05 1.8505662e-05 1.0590571e-05 9.866299e-06
1.4128665e-05 4.9912087e-06 2.8846682e-05 2.424964e-05 1.036436e-05 3.639006e-06 6.7181315e-07 3.8441186e-07
1.0280604e-05 7.4485106e-06 1.1068671e-05 4.2172396e-06 3.7034897e-07 1.5178782e-06 2.474927e-05 2.1244008e-05
1.6886337e-05 1.7428265e-05 5.2625046e-06 1.7103985e-06 8.719167e-06 7.633106e-06 4.638967e-05 3.1278283e-05
2.6121068e-06 1.7789326e-06 2.427997e-05 2.170134e-05 1.1435029e-05 8.083761e-06 5.794494e-06 2.0438226e-06
5.1991333e-06 7.686849e-06 2.517934e-05 2.102011e-05 1.4678706e-05 1.1006656e-05 2.049866e-06 7.834395e-07
3.099765e-07 3.9779982e-07 2.522734e-05 2.103331e-05 7.206552e-06 2.556147e-06 6.1449796e-06 2.0301416e-06
7.4750014e-06 7.3636206e-06 5.6317134e-07 1.5099271e-06 1.4072136e-06 2.363854e-06 1.9040426e-06 1.3343102e-06
1.6036376e-05 1.1466933e-05 2.4066405e-06 5.049302e-06 1.8033599e-06 3.3137098e-06 3.3043467e-05 1.85058e-05
1.9621146e-05 1.7608922e-05 4.904784e-07 1.8792514e-07 2.5919648e-05 1.5736607e-05 9.884769e-06 4.69761e-06
1.9055378e-06 2.9969374e-06 7.1934487e-06 2.236366e-06 7.0273325e-07 2.4400586e-06 1.8510905e-06 6.092816e-07
2.7830035e-06 5.7486295e-06 1.4268312e-05 1.0917003e-05 6.8466454e-07 1.0068813e-06 1.3736156e-05 6.196352e-06
9.907188e-06 7.6181154e-06 2.5024583e-05 1.1303422e-05 1.7732295e-05 1.7098024e-05 2.5943768e-06 1.8649401e-06
2.0178351e-05 1.6490934e-05 7.126067e-07 4.3474012e-07 7.649094e-07 1.0026664e-06 8.794744e-06 5.77436e-06
6.3867387e-06 1.9911847e-06 1.9603453e-05 1.1815264e-05 2.6337475e-06 9.3940054e-07 4.0719883e-06 1.9349143e-06
1.4210419e-05 6.077391e-06 7.3423053e-06 2.4227036e-06 2.9174693e-05 1.7745366e-05 3.8239516e-05 2.7761049e-05
3.0293133e-05 2.0035797e-05 4.0796704e-06 1.2831272e-06 3.4832756e-05 2.2140975e-05 3.8911426e-06 1.4107192e-06
1.7037128e-05 6.088125e-06 9.762128e-07 5.62582e-07 5.8541964e-06 1.8850997e-06 2.5496027e-07 4.9226145e-07
2.5004529e-05 1.4247072e-05 7.8842675e-07 1.0863718e-06 3.686374e-05 3.0400504e-05 2.22706e-05 1.1760899e-05
3.3628737e-07 1.5623104e-06 5.7819507e-06 1.7943794e-06 6.8373447e-06 2.3759255e-06 4.0427685e-07 1.2487213e-06
1.9297673e-05 1.5144498e-05 1.3347102e-05 1.3941082e-05 1.879044e-05 1.2526068e-05 5.037738e-05 3.534513e-05
4.455135e-05 3.7092508e-05 2.956147e-05 2.3764478e-05 8.138943e-06 6.3900984e-06 1.8223e-06 2.9377213e-06
2.2754406e-05 1.8656763e-05 2.6253067e-05 1.5064731e-05 8.747529e-06 3.4731625e-06 2.0458529e-05 1.1774102e-05
2.1860475e-05 1.7691673e-05 5.733419e-08 1.12484614e-07 3.2074938e-06 1.1839666e-06 1.84773e-05 7.3083643e-06
9.056136e-06 2.952061e-06 1.7345552e-05 1.5171504e-05 3.262917e-06 1.074154e-06 3.740755e-05 2.3728473e-05
00000000: 04c7 5c37 ace6 0937 a6b3 1638 79f1 b937
00000010: e0da 0e38 9b3c 9b37 28ae 3137 6e87 2537
00000020: 270a 6d37 287a a736 c7fb f137 b56b cb37
00000030: 96e2 2d37 a635 7436 a656 3435 2a61 ce34
00000040: dc7a 2c37 38ee f936 94b3 3937 d081 8d36
00000050: 60d4 c634 e6b9 cb35 a79c cf37 2935 b237
00000060: 22a7 8d37 ea32 9237 9294 b036 d890 e535
00000070: 8a48 1237 f10f 0037 8792 4238 cd30 0338
00000080: a74b 2f36 a9c3 ee35 d7ac cb37 460b b637
00000090: 13d9 3f37 7d9f 0737 536e c236 9b28 0936
000000a0: 3774 ae36 c4f6 0037 3938 d337 5854 b037
000000b0: 9044 7637 3aa9 3837 6e90 0936 8d4d 5235
000000c0: d96a a634 3191 d534 4d9f d337 b070 b037
000000d0: cfcf f136 458a 2b36 f930 ce36 913d 0836
000000e0: c6d1 fa36 0515 f736 d72c 1735 b3a8 ca35
000000f0: 7edf bc35 b4a2 1e36 688e ff35 8d16 b335
00000100: db85 8637 1a62 4037 c581 2136 2d6d a936
00000110: f90a f235 1a61 5e36 2798 0a38 e73c 9b37
00000120: 1798 a437 dfb6 9337 6ba9 0335 78c8 4934
00000130: 056e d937 1b02 8437 c2d6 2537 2aa0 9d36
00000140: c8c1 ff35 fe1e 4936 415f f136 7a14 1636
00000150: 76a3 3c35 e3bf 2336 fc72 f835 838d 2335
00000160: a3c3 3a36 5ae4 c036 ef61 6f37 2c28 3737
00000170: cac9 3735 2e24 8735 5774 6637 42ea cf36
00000180: 0c37 2637 1d9f ff36 e2eb d137 d4a3 3d37
00000190: d0bf 9437 ba6d 8f37 0e1b 2e36 db4e fa35
000001a0: ae44 a937 0356 8a37 f649 3f35 3a66 e934
000001b0: 2c54 4d35 5b93 8635 238d 1337 60c1 c136
000001c0: ab4d d636 4ba0 0536 1872 a437 2c3a 4637
000001d0: 70bf 3036 1d2b 7c35 1da2 8836 93d9 0136
000001e0: 4969 6e37 64ec cb36 ec5d f636 bb95 2236
000001f0: 2dbc f437 e2db 9437 5e63 2038 66e0 e837
00000200: 021e fe37 8c12 a837 1ae4 8836 ea37 ac35
00000210: 6319 1238 62bb b937 a990 8236 f157 bd35
00000220: f4ea 8e37 9848 cc36 6b06 8335 5704 1735
00000230: 2a6f c436 8803 fd35 79e1 8834 f323 0435
00000240: d1c0 d137 b506 6f37 46a4 5335 73cf 9135
00000250: 249e 1a38 9604 ff37 c0d1 ba37 ad50 4537
00000260: fc8a b434 94b0 d135 9402 c236 68d6 f035
00000270: 586c e536 1772 1f36 630b d934 bd99 a735
00000280: 70e1 a137 2015 7e37 5eed 5f37 7ee4 6937
00000290: 2aa0 9d37 0d27 5237 4d4c 5338 8b3f 1438
000002a0: a6dc 3a38 c793 1b38 c6fa f737 d459 c737
000002b0: 7e8c 0837 876a d636 c095 f435 ab25 4536
000002c0: b7e0 be37 1881 9c37 083a dc37 87be 7c37
000002d0: 5ac2 1237 7a14 6936 5b9e ab37 6289 4537
000002e0: 0361 b737 9468 9437 9c3f 7633 128f f133
000002f0: 5340 5736 c8e8 9e35 b3ff 9a37 5f3a f536
00000300: cfef 1737 061c 4636 4a81 9137 1d89 7e37
00000310: 7df8 5a36 a72b 9035 0de6 1c38 820c c737

exp_avg f4 [100]
1.30718e-09 -1.2483424e-09 3.4896552e-10 -8.535942e-10 2.3250736e-10 2.130041e-09 4.293279e-10 -9.266122e-10
-1.2812427e-09 2.5360496e-09 -2.889693e-10 -1.4520606e-09 2.4724327e-09 -2.0362902e-09 -1.570157e-09 1.6296164e-09
-1.8791393e-09 1.5201141e-09 2.0440982e-09 -2.3007252e-09 7.9152096e-10 -6.7794936e-11 1.8126162e-09 -1.0399444e-09
-2.1046023e-09 2.5710887e-09 -1.6732483e-09 -1.1756064e-09 -1.0748437e-09 1.8417341e-09 -4.7017285e-10 -2.374178e-09
-2.5463256e-09 -2.2196689e-10 1.2913801e-09 -1.8522677e-09 2.177961e-09 2.15355e-09 3.9403883e-10 -1.2911757e-09
5.53495e-10 -4.2418918e-10 -2.0933133e-09 -3.5973843e-10 -2.452883e-10 -2.2044364e-09 1.9747441e-09 -7.2110884e-10
1.07859256e-10 -1.958187e-09 -2.6029123e-11 8.5296276e-10 -1.4596571e-09 -2.1919933e-09 3.9985412e-10 9.59803e-10
-2.761714e-09 1.5789847e-09 -1.2357171e-09 2.1682198e-09 -1.504102e-09 -1.7023959e-10 -1.2856263e-09 1.298257e-10
1.0522513e-09 -2.302628e-09 3.733089e-10 -1.8031772e-09 -2.8017269e-09 1.5879327e-09 -9.085081e-11 1.5469657e-09
-1.7618063e-09 4.122401e-10 1.9869404e-09 5.554225e-11 -1.3384048e-09 -6.8655887e-10 -2.660649e-09 3.0579344e-09
4.3745452e-10 1.3662552e-10 -1.4112354e-09 7.762852e-10 -3.1368466e-10 -1.5512002e-09 1.0825156e-09 3.2021022e-10
-1.4708805e-09 -7.09274e-10 5.4583044e-10 1.2013446e-09 -8.4807716e-10 -1.8934134e-09 -1.159872e-09 -1.8407281e-09
1.348981e-10 3.434263e-09 -1.8758817e-09 -7.8977665e-11
00000000: 4fa8 b330 2592 abb0 88d8 bf2f 5aa2 6ab0
00000010: 01a5 7f2f 1460 1231 8806 ec2f 89b4 7eb0
00000020: b817 b0b0 a846 2e31 d0dc 9eaf d791 c7b0
00000030: 7fe7 2931 ccee 0bb1 fdcc d7b0 08f9 df30
00000040: 2b22 01b1 43ec d030 2878 0c31 c91a 1eb1
00000050: 5692 5930 2815 95ae c31f f930 caed 8eb0
00000060: 8ea0 10b1 12af 3031 31f8 e5b0 f992 a1b0
00000070: b3b9 93b0 4220 fd30 793d 01b0 fb26 23b1
00000080: 6ffb 2eb1 200e 74af 667c b130 e092 feb0
00000090: 18ab 1531 a7fd 1331 09a0 d82f 3575 b1b0
000000a0: c024 1830 5233 e9af f5d9 0fb1 afc4 c5af
000000b0: 42d9 86af db7c 17b1 11b4 0731 8637 46b0
000000c0: 5d2f ed2e ca90 06b1 60f4 e4ad eb75 6a30
000000d0: 1e9d c8b0 f4a1 16b1 77d2 db2f 11ea 8330
000000e0: 96c8 3db1 9603 d930 eed5 a9b0 baff 1431
000000f0: e2b8 ceb0 2f2e 3baf f4b1 b0b0 b0be 0e2f
00000100: cd9e 9030 433c 1eb1 8f3a cd2f a8d3 f7b0
00000110: 8088 40b1 6a3e da30 76c8 c7ae 049d d430
00000120: 0c24 f2b0 a3a1 e22f a08a 0831 0447 742e
00000130: eff2 b7b0 49b8 3cb0 a2d6 36b1 c023 5231
00000140: 407e f02f aa38 162f 6ef5 c1b0 3762 5530
00000150: 3173 acaf 0132 d5b0 a2c7 9430 9509 b02f
00000160: 0228 cab0 b8f6 42b0 6709 1630 8e1c a530
00000170: 201e 69b0 481d 02b1 5e69 9fb0 ddfc fcb0
00000180: 7152 142f 3200 6c31 dce8 00b1 79ac adae

exp_avg_sq f4 [100]
3.3972611e-09 9.191151e-09 8.034064e-09 3.518212e-09 2.4611104e-09 8.96803e-09 1.781091e-09 8.937958e-11
2.9096028e-09 2.0431186e-09 2.8728955e-10 7.795161e-09 6.012481e-09 7.859024e-10 2.7801093e-09 1.2554831e-08
7.1184314e-10 7.863241e-09 3.1957035e-09 1.0091582e-09 2.3214197e-09 7.802267e-09 4.248008e-09 3.82433e-10
1.2997942e-10 7.800018e-09 1.243256e-09 9.823845e-10 2.571331e-09 3.8707315e-10 6.918513e-10 3.1450897e-10
4.498222e-09 1.3505649e-09 9.28004e-10 7.9554345e-09 6.365609e-09 7.119899e-11 6.565058e-09 2.140604e-09
8.833492e-10 1.053344e-09 5.436607e-10 2.4426655e-10 1.5739124e-09 4.189107e-09 1.8130894e-10 2.8751836e-09
2.916392e-09 5.2319193e-09 6.0183734e-09 7.2974443e-10 6.1682495e-09 1.1140748e-10 1.7002696e-10 2.3411912e-09
9.411373e-10 4.9443463e-09 4.5048404e-10 8.847895e-10 2.8543066e-09 1.1913841e-09 7.3969053e-09 1.084872e-08
8.095663e-09 5.898886e-10 9.077192e-09 6.805491e-10 2.9962959e-09 2.3849112e-10 9.255897e-10 8.1442825e-11
6.0872676e-09 1.7883885e-10 1.1326506e-08 5.161014e-09 2.986414e-10 8.306742e-10 1.16635e-09 2.9070188e-10
5.74681e-09 4.7623328e-09 5.0482267e-09 1.3980765e-08 1.3755647e-08 8.932386e-09 2.426579e-09 8.633976e-10
6.968068e-09 6.4156236e-09 1.6736421e-09 5.0079665e-09 6.629692e-09 3.2839325e-11 5.7499533e-10 3.502643e-09
1.3865485e-09 5.5461924e-09 4.7293974e-10 9.742756e-09
00000000: 4075 6931 1ce7 1d32 3006 0a32 0ac5 7131
00000010: 5020 2931 d011 1a32 92ca f430 3b8c c42e
00000020: 46f2 4731 ec66 0c31 69f0 9d2f 7beb 0532
00000030: 5896 ce31 f706 5830 330c 3f31 bbb0 5732
00000040: 82ab 4330 e616 0732 699b 5b31 99b2 8a30
00000050: d986 1f31 bc0a 0632 e0f5 9131 a93e d22f
00000060: f4e9 0e2f d800 0632 2fdf aa30 9504 8730
00000070: 55b3 3031 b4cb d42f b52c 3e30 34e7 ac2f
00000080: c78e 9a31 c79e b930 7a16 7f30 5fac 0832
00000090: 7db8 da31 7891 9c2e dc92 e131 e719 1331
000000a0: 2dd0 7230 3fc5 9030 b970 1530 7649 862f
000000b0: 1f51 d830 c6ef 8f31 ee59 472f c494 4531
000000c0: b669 4831 73c4 b331 2cca ce31 3397 4830
000000d0: 7ff0 d331 d6fc f42e 56f2 3a2f ace2 2031
000000e0: 5359 8130 eee2 a931 fea7 f72f 8735 7330
000000f0: 7e25 4431 1abe a330 de27 fe31 2d61 3a32
00000100: 1a15 0b32 b825 2230 eaf1 1b32 6311 3b30
00000110: 65e7 4d31 a41c 832f 966c 7e30 3c18 b32e
00000120: 2c28 d131 a9a2 442f 8096 4232 c254 b131
00000130: 0a2e a42f 8055 6430 4b4d a030 a7d0 9f2f
00000140: 7a75 c531 eca1 a331 ac74 ad31 0e30 7032
00000150: fa51 6c32 0d75 1932 d4c0 2631 3454 6d30
00000160: c66b ef31 6c70 dc31 0c06 e630 8a12 ac31
00000170: 63cb e331 cb6d 102e b30d 1e30 26b3 7031
00000180: d790 be30 d390 be31 2d00 0230 1861 2732

exp_avg f4 [70, 100]
-4.8778816e-06 1.3038604e-05 -1.7788812e-05 2.7512502e-05 3.6210017e-06 -3.0875723e-05 1.732461e-06 2.7137721e-05
1.1379104e-05 -1.683145e-05 -1.988928e-06 4.067703e-06 -1.4137044e-05 3.37612e-05 1.3287756e-05 -1.602427e-05
2.291111e-05 -2.360007e-05 -2.1505435e-05 1.4448652e-05 -2.2978122e-05 -9.222906e-06 -4.5986276e-06 4.0249927e-07
2.3793153e-05 -3.3070024e-05 8.099049e-06 6.3133502e-06 1.5646725e-05 -3.0088393e-05 -9.489946e-06 3.9156977e-05
2.4352392e-05 6.109667e-06 -2.7164657e-05 2.3790211e-05 -3.2985623e-05 -1.3314816e-05 -1.3238124e-05 2.2218219e-05
8.353234e-06 -5.1945003e-06 3.449524e-05 6.881872e-06 -8.466313e-06 2.848721e-05 -9.9542485e-06 1.2117878e-05
1.7999224e-05 1.1313638e-05 -2.99053e-06 -8.3143476e-07 1.3129521e-05 2.2483717e-05 -2.6028285e-05 -1.7926961e-05
3.3407e-05 -6.232036e-06 3.4851485e-07 -1.9076011e-05 1.2657538e-05 -3.299527e-06 1.1992457e-05 6.390206e-06
-1.0152529e-05 1.6480932e-05 -1.7698123e-05 1.7968203e-05 3.465243e-05 -1.272652e-05 -2.798795e-06 -1.5546279e-05
1.5007558e-05 -1.4837553e-05 -8.615106e-06 4.714838e-07 2.45456e-05 1.8957924e-05 2.0156609e-05 -3.577836e-05
1.2502159e-05 -1.3226957e-05 2.1355225e-05 -3.5198009e-06 -1.559185e-05 2.862046e-05 -9.084178e-06 3.4258396e-06
8.213072e-06 1.367422e-06 -3.3684967e-06 -1.48392355e-05 -2.4385502e-06 1.1297652e-05 -7.689676e-06 2.5017789e-05
-1.6802058e-05 -3.7053487e-05 2.189515e-05 1.0638173e-05 -1.9725547e-05 3.9001825e-06 1.1476671e-05 -8.865601e-06
-1.4576192e-06 -1.6120681e-06 -1.3227767e-05 -8.431972e-06 8.961805e-06 -2.66876e-05 6.4956503e-06 2.6422564e-05
-3.132951e-05 7.1882596e-06 1.6185319e-05 -1.0591871e-05 9.777106e-06 1.0445408e-06 -1.698947e-05 2.3178154e-05
5.7160078e-06 6.9609173e-06 -2.0362675e-05 1.1226464e-05 1.7431508e-05 -9.480215e-06 1.7742395e-05 1.2598242e-05
3.3142417e-06 -6.5707914e-06 1.0839246e-05 8.283653e-06 2.06222e-05 6.208678e-07 1.6437502e-06 1.1914569e-05
-3.4232037e-06 -1.8088183e-05 9.023043e-06 6.5249865e-06 -1.4105429e-05 8.610077e-06 6.7892574e-06 3.976947e-06
1.2700194e-05 1.4125218e-05 -2.3048546e-05 -1.0720642e-06 -1.5622258e-05 2.3828994e-05 4.6392456e-06 -7.3388437e-06
8.7134e-06 1.5039485e-05 1.39873955e-05 -2.1594215e-07 1.4856384e-05 -1.9398041e-05 1.5325739e-05 -1.8876446e-05
1.5356432e-05 1.0836015e-05 7.22591e-06 -1.1413184e-05 -7.386463e-06 1.9923578e-05 6.385849e-06 1.49394255e-05
1.506417e-05 -1.9847523e-05 8.551859e-07 -1.6924898e-05 1.4721013e-05 7.929138e-06 -2.9878458e-05 -9.275751e-07
1.47402e-06 2.1027615e-06 2.3761606e-05 -2.0335767e-05 -1.646761e-05 1.0667821e-05 7.2525077e-06 -4.9510973e-06
1.8649625e-05 1.9993356e-06 -7.1684753e-06 -8.441036e-06 1.592254e-05 1.016927e-05 -1.5084981e-06 -9.7008e-06
1.1113862e-05 2.0921972e-05 2.1577993e-05 8.740385e-06 1.3957155e-05 -2.5602334e-05 7.6279844e-06 -6.1993683e-06
-4.7547715e-06 1.0201644e-05 -7.732203e-06 8.946063e-06 4.0230843e-06 -1.5252058e-05 4.7387974e-07 1.1309487e-05
3.56947e-06 -9.697014e-06 8.224128e-06 1.0080097e-05 -1.8985122e-05 1.2489059e-05 1.3836618e-05 -1.177517e-05
1.5499962e-05 -9.001299e-06 -1.0819839e-05 1.1112803e-05 -6.9644516e-06 4.533753e-06 -6.165109e-06 6.0277935e-06
1.759443e-05 -2.0684865e-05 1.1430621e-05 1.3639099e-05 3.7075224e-06 -1.0914511e-05 2.0791172e-06 1.159914e-05
1.1512073e-05 8.58122e-06 -7.35856e-06 1.2248395e-05 -1.7164997e-05 -1.13801425e-05 -7.604669e-06 1.20897685e-05
-3.561027e-06 5.826813e-06 1.19325205e-05 4.606332e-06 -1.5555023e-06 1.0079098e-05 -1.5271555e-05 7.6166975e-06
4.1310054e-06 7.942313e-06 5.7795464e-06 -3.851991e-06 9.180427e-06 1.2463254e-05 -6.8633153e-06 -1.1640371e-05
00000000: afac a3b6 61c0 5a37 2f39 95b7 a6ca e637
00000010: 5600 7336 8e80 01b8 e886 e835 d0a5 e337
00000020: e1e8 3e37 4331 8db7 8679 05b6 4d7d 8836
00000030: 242e 6db7 d09a 0d38 7aee 5e37 dc6b 86b7
00000040: 3c31 c037 c4f8 c5b7 9266 b4b7 7d68 7237
00000050: 24c1 c0b7 14bc 1ab7 e94d 9ab6 1417 d834
00000060: 6897 c737 abb4 0ab8 27e1 0737 44d7 d336
00000070: 1641 8337 5566 fcb7 0237 1fb7 7c3c 2438
00000080: 5d48 cc37 a401 cd36 a8df e3b7 1791 c737
00000090: 0b5a 0ab8 b362 5fb7 4f19 5eb7 4361 ba37
000000a0: de24 0c37 6b4c aeb6 fbae 1038 d5ea e636
000000b0: 8a0a 0eb7 d1f7 ee37 2c01 27b7 e44d 4b37
000000c0: 0afd 9637 b5cf 3d37 eab0 48b6 c32f 5fb5
000000d0: dd46 5c37 6a9b bc37 5157 dab7 db61 96b7
000000e0: 7e1e 0c38 c81c d1b6 841b bb34 6c05 a0b7
000000f0: b65b 5437 716d 5db6 3633 4937 746b d636
00000100: c854 2ab7 8840 8a37 6e76 94b7 6cba 9637
00000110: c357 1138 fd83 55b7 efd2 3bb6 6169 82b7
00000120: f9c8 7b37 ceee 78b7 9989 10b7 3d20 fd34
00000130: 46e7 cd37 d507 9f37 fd15 a937 b910 16b8
00000140: 5dc0 5137 59e9 5db7 ff23 b337 b835 6cb6
00000150: 3ecb 82b7 f815 f037 3f68 18b7 7ae7 6536
00000160: e0ca 0937 4388 b735 550e 62b6 08f6 78b7
00000170: f9a5 23b6 0c8b 3d37 e802 01b7 4bdd d137
00000180: 25f2 8cb7 e169 1bb8 7aab b737 9b7a 3237
00000190: 4a78 a5b7 50de 8236 ed8b 4037 77bd 14b7
000001a0: 6aa3 c3b5 3d5e d8b5 d4ec 5db7 0b77 0db7
000001b0: a95a 1637 2fdf dfb7 36f5 d936 06a6 dd37
000001c0: ce67 03b8 ae32 f136 b5c5 8737 bdb3 31b7
000001d0: 5a08 2437 2632 8c35 9c84 8eb7 b56e c237
000001e0: 22cc bf36 d391 e936 83d0 aab7 4c59 3c37
000001f0: e139 9237 370d 1fb7 81d5 9437 0a5d 5337
00000200: 3d6a 5e36 ab7a dcb6 35da 3537 05fa 0a37
00000210: d6fd ac37 b6a9 2635 d49e dc35 afe4 4737
00000220: 31ba 65b6 14bc 97b7 ad61 1737 35f1 da36
00000230: 5ba6 6cb7 0074 1037 47cf e336 b771 8536
00000240: eb12 5537 59fb 6c37 6058 c1b7 d8e3 8fb5
00000250: 8b0c 83b7 60e4 c737 d1aa 9b36 3040 f6b6
00000260: c52f 1237 1952 7c37 68ab 6a37 badd 67b4
00000270: af3f 7937 fab8 a2b7 c68f 8037 dc58 9eb7
00000280: b0d1 8037 54cc 3537 1876 f236 417b 3fb7
00000290: 3cd9 f7b6 8f21 a737 0646 d636 58a4 7a37
000002a0: 1ebc 7c37 3b7e a6b7 ed8f 6535 f1f9 8db7
000002b0: 45fa 7637 6307 0537 80a3 fab7 7afe 78b5
000002c0: f1d6 c535 2b1d 0d36 a953 c737 ba96 aab7
000002d0: ec23 8ab7 f1f9 3237 915a f336 9a21 a6b6
000002e0: c471 9c37 532c 0636 bc88 f0b6 f99d 0db7
000002f0: 6591 8537 af9c 2a37 9a77 cab5 9ec0 22b7
00000300: ac75 3a37 9881 af37 6302 b537 aba3 1237
00000310: 8629 6a37 98c4 d6b7 e3f3 ff36 2b04 d0b6
00000320: 2d8b 9fb6 ba27 2b37 8fb9 01b7 0c17 1637
00000330: 08fe 8636 17e3 7fb7 8969 fe34 e0bd 3d37
00000340: 078b 6f36 5cb0 22b7 5cfa 0937 b01d 2937
00000350: 3d42 9fb7 1a88 5137 d223 6837 f88d 45b7
00000360: ea05 8237 4904 17b7 db86 35b7 2071 3a37
00000370: 2fb0 e9b6 a420 9836 e2dd ceb6 5a42 ca36
00000380: c097 9337 6984 adb7 25c6 3f37 7cd3 6437
00000390: c0ce 7836 781d 37b7 f686 0b36 ed99 4237
000003a0: fa23 4137 0ff8 0f37 8de9 f6b6 757e 4d37
000003b0: 8dfd 8fb7 57ed 3eb7 9c2b ffb6 29d5 4a37
000003c0: faf9 6eb6 f183 c336 c931 4837 1790 9a36
000003d0: a7c6 d0b5 6519 2937 6a1b 80b7 ef92 ff36
000003e0: 119d 8a36 f93f 0537 eded c136 5a40 81b6
000003f0: a205 1a37 4519 5137 6e4b e6b6 034b 43b7

exp_avg_sq f4 [70, 100]
1.36139415e-05 1.7056318e-05 3.2517655e-05 3.3200075e-05 1.5764033e-05 1.14973145e-05 1.7976854e-05 4.724251e-05
1.836881e-05 6.936482e-05 7.769521e-06 4.0808787e-05 4.223383e-05 3.621498e-05 1.3276421e-05 1.999036e-05
2.2250346e-05 9.520242e-06 1.3178582e-05 3.20996e-05 9.324184e-06 5.829138e-06 3.0267576e-05 4.776027e-06
6.8321504e-05 7.101945e-05 1.7701037e-05 1.278586e-05 1.1605229e-06 2.3639424e-05 1.8867628e-06 2.061186e-05
2.378456e-05 2.3016442e-05 1.4606462e-05 1.6443153e-05 4.7504775e-05 3.2228414e-05 3.178127e-05 1.5108974e-05
8.649716e-06 3.1500497e-06 8.775539e-06 1.1111247e-05 3.1908854e-05 1.7463411e-05 3.164131e-05 6.475336e-06
4.7797508e-05 3.060505e-05 1.0564533e-05 1.0287687e-05 1.7110054e-06 1.2812497e-05 2.9922598e-05 2.8310818e-05
3.9751598e-05 4.7216537e-05 2.230373e-05 3.0174127e-05 2.6684902e-05 1.2514388e-05 6.214121e-06 6.8305085e-06
2.2174292e-05 3.1333748e-05 1.4696056e-05 2.27482e-05 8.9031055e-06 4.33574e-05 4.0567625e-06 3.098968e-05
3.1143954e-05 1.8687491e-05 3.385107e-05 2.5302352e-05 1.9868396e-06 3.888667e-05 4.3449083e-05 2.9617324e-05
1.8801684e-06 4.121119e-06 1.3236015e-05 5.883435e-06 2.0331661e-05 3.6069316e-05 4.7908884e-06 9.4987345e-06
6.8830777e-06 2.6159225e-05 3.0115589e-06 8.068653e-06 2.1149357e-05 4.178438e-05 2.2569058e-05 5.2292595e-05
3.1301694e-05 5.253932e-05 1.6172946e-05 1.3001487e-05 3.2938476e-06 4.0590494e-06 2.6059004e-07 1.0301344e-06
1.2997592e-06 3.597228e-06 9.2601874e-07 2.4659007e-06 4.8937054e-06 2.2059117e-05 1.19145405e-07 1.9511157e-05
1.8758841e-05 1.3139027e-05 4.5045244e-06 6.9166626e-06 4.6486352e-06 9.482911e-07 4.863291e-06 1.3785759e-05
4.494262e-07 5.0291595e-07 9.713391e-06 2.4590265e-06 2.3448794e-05 1.39781205e-05 1.0330538e-05 2.470198e-06
1.7605984e-07 4.8050697e-06 1.6754882e-06 8.432133e-06 8.634606e-06 7.130574e-08 6.1634205e-06 7.4628274e-06
7.681223e-06 1.7936496e-05 3.2845577e-07 1.0558614e-06 5.3668196e-06 2.5767808e-06 2.588411e-06 4.5786173e-06
9.526981e-06 6.825621e-06 1.1837683e-05 4.5024922e-07 3.5734984e-06 1.09978255e-05 1.3638504e-06 5.2724986e-06
5.59631e-07 5.6491754e-06 4.330908e-07 2.0568157e-06 1.1231566e-05 2.0352887e-05 1.2021414e-05 1.19764e-05
1.2102712e-05 5.785262e-06 3.0881024e-06 7.723618e-07 3.767597e-06 1.5053568e-05 2.9916322e-08 5.881671e-06
4.531272e-06 2.0069108e-05 2.3843888e-06 1.1731464e-05 1.2827182e-05 7.0680517e-07 1.5531146e-05 5.8705103e-07
2.6356904e-07 1.0052957e-07 1.920716e-05 1.1396892e-05 1.3959672e-06 1.2680474e-07 7.315222e-07 2.9855314e-06
1.2200767e-05 8.896629e-06 2.4899612e-06 1.9370384e-06 4.0123005e-06 1.05258205e-05 1.0415079e-06 2.3571533e-06
6.5423137e-06 1.714038e-05 8.6292175e-06 1.7220902e-05 7.863399e-06 2.1649023e-05 7.993092e-06 1.8233923e-06
1.7922456e-07 3.998992e-05 4.3763835e-06 5.11155e-07 2.8411507e-06 2.655242e-05 4.5439874e-06 5.75198e-06
2.9270893e-07 7.268385e-06 5.2479622e-06 2.0013433e-05 7.447518e-05 4.2351137e-05 1.968357e-05 3.7700287e-05
3.494644e-05 1.48681165e-05 1.6640408e-07 2.4372699e-05 2.5216414e-07 3.5949186e-05 1.7128049e-06 8.078761e-06
9.6135365e-05 0.00010069016 3.2419786e-05 5.625707e-05 5.797965e-07 8.926243e-06 4.458557e-06 2.7274762e-06
2.6328855e-06 1.2322338e-05 8.684983e-06 1.2912864e-05 7.612631e-05 4.3350003e-05 5.823038e-06 4.6297064e-06
3.9827028e-05 7.388152e-06 2.4286118e-07 3.1853249e-06 1.8810557e-07 1.17600116e-07 4.591222e-05 6.527537e-08
1.7231575e-06 1.8460727e-05 2.564477e-05 1.0025889e-05 2.074017e-06 1.2386987e-05 1.4297941e-06 4.0070543e-05
00000000: 6f67 6437 2a14 8f37 9163 0838 4f40 0b38
00000010: 013d 8437 97e4 4037 00cd 9637 4226 4638
00000020: b816 9a37 f477 9138 d759 0237 1a2a 2b38
00000030: 3b24 3138 8ae5 1738 cbbd 5e37 f9b0 a737
00000040: 41a6 ba37 21b9 1f37 9419 5d37 afa2 0638
00000050: 116f 1c37 ea97 c336 20e7 fd37 c241 a036
00000060: d447 8f38 47f0 9438 b07c 9437 da82 5637
00000070: 43c3 9b35 474d c637 ad3c fd35 a2e7 ac37
00000080: f484 c737 6f13 c137 470e 7537 67ef 8937
00000090: dd3f 4738 ff2c 0738 e14c 0538 8d7c 7d37
000000a0: 3f1e 1137 7165 5336 a73a 1337 716a 3a37
000000b0: dfd5 0538 647e 9237 99b6 0438 b646 d936
000000c0: 2f7a 4838 ec5d 0038 533e 3137 4799 2c37
000000d0: b3a5 e535 41f5 5637 4a02 fb37 057d ed37
000000e0: f4ba 2638 5f0a 4638 e518 bb37 721e fd37
000000f0: 64d9 df37 e3f4 5137 e582 d036 9f31 e536
00000100: ee02 ba37 5b6c 0338 148f 7637 63d3 be37
00000110: 8c5e 1537 a7da 3538 531f 8836 eafa 0138
00000120: 91a0 0238 15c3 9c37 4ffb 0d38 6340 d437
00000130: a555 0536 3e1a 2338 193d 3638 b872 f837
00000140: 185a fc35 2548 8a36 4010 5e37 526a c536
00000150: e98d aa37 2249 1738 6bc1 a036 c15c 1f37
00000160: 30f5 e636 8270 db37 301a 4a36 9a5e 0737
00000170: e669 b137 a341 2f38 af52 bd37 bf54 5b38
00000180: f049 0338 aa5d 5c38 23ab 8737 f620 5a37
00000190: df0b 5d36 f832 8836 39e7 8b34 2643 8a35
000001a0: 6373 ae35 e867 7136 8693 7835 da7b 2536
000001b0: 9c34 a436 980b b937 e1dc ff33 e4ab a337
000001c0: 4e5c 9d37 b16f 5c37 9225 9736 ae15 e836
000001d0: 79fb 9b36 118e 7e35 5a2f a336 6249 6737
000001e0: ab48 f134 1f00 0735 b2f6 2237 c105 2536
000001f0: e7b3 c437 9283 6a37 5351 2d37 aec5 2536
00000200: f60a 3d34 3c3b a136 56e1 e035 bc77 0d37
00000210: 5add 1037 bf20 9933 61cf ce36 3369 fa36
00000220: 9ade 0037 5576 9637 9e56 b034 1fb7 8d35
00000230: a114 b436 c2ec 2c36 90b4 2d36 06a2 9936
00000240: 12d6 1f37 a307 e536 769a 4637 c8b9 f134
00000250: 3cd0 6f36 4d83 3837 8b0d b735 6bea b036
00000260: 8d39 1635 0c8e bd36 8c83 e834 d307 0a36
00000270: 356f 3c37 7ebb aa37 94af 4937 3fee 4837
00000280: c10c 4b37 061f c236 323d 4f36 4c54 4f35
00000290: d3d6 7c36 958e 7c37 587d 0033 2b5b c536
000002a0: 550b 9836 155a a837 7d03 2036 41d2 4437
000002b0: 5434 5737 48bb 3d35 e248 8237 d795 1d35
000002c0: a780 8d34 b7e2 d733 101f a137 4735 3f37
000002d0: 115d bb35 d227 0834 d35d 4435 0a5b 4836
000002e0: e5b1 4c37 bb42 1537 3519 2736 11fe 0136
000002f0: 66a1 8636 0e98 3037 f0c9 8b35 962f 1e36
00000300: 0c86 db36 b0c8 8f37 35c6 1037 9b75 9037
00000310: 0bed 0337 ec9a b537 121a 0637 48bb f435
00000320: df70 4034 daba 2738 d9d8 9236 4e36 0935
00000330: 99aa 3e36 e3bc de37 8e78 9836 2201 c136
00000340: 9c25 9d34 f4e2 f336 a717 b036 85e2 a737
00000350: 8f2f 9c38 30a2 3138 251e a537 6020 1e38
00000360: 7493 1238 1372 7937 ceac 3234 f973 cc37
00000370: 2d61 8734 25c8 1638 87e3 e535 048a 0737
00000380: 489c c938 9e29 d338 7bfa 0738 92f5 6b38
00000390: 50a3 1b35 ecc1 1537 b79a 9536 af09 3736
000003a0: a1b0 3036 0abc 4e37 b8b5 1137 54a4 5837
000003b0: 00a6 9f38 b6d2 3538 8463 c336 e058 9b36
000003c0: f20b 2738 bee7 f736 9662 8234 77c3 5536
000003d0: 11fa 4934 598b fc33 df91 4038 842d 8c33
000003e0: 3e47 e735 1cdc 9a37 b91f d737 de34 2837
000003f0: 572f 0b36 b4d1 4f37 5ae7 bf35 6b11 2838
