lightning_logs/version_52/checkpoints/epoch=18-step=6555.ckpt (torch, 40629 bytes, 18 tensors)

station_embedding.weight f4 [70, 2]
1.0376763 -3.326886 -1.2292916 1.1161222 1.2717562 1.6133678 -1.0379432 -2.4470658
6.5591774 0.015386068 1.236152 1.000152 -1.7013426 2.1778417 -0.42313832 -1.0251552
1.2015096 -2.5362418 -0.63478726 0.2754385 0.05837652 2.695903 -2.2625551 0.24757808
-1.267014 0.70328325 0.9692846 0.20033652 -0.18955892 0.8217493 -1.2306197 -1.7240672
-0.33716732 0.62558335 -1.6119652 2.3523507 0.90581095 0.3011381 -0.30937368 0.25825763
-1.3412305 0.17137061 0.30967438 0.67374754 0.30687898 0.9686164 -3.7940032 -2.654983
-0.10853911 2.7999632 4.5515237 2.007364 0.010706725 1.5067875 -1.281585 1.5489547
0.6927908 1.0236287 -2.8127856 -3.305898 4.92765 -0.019627916 -1.1023808 0.41660511
2.5154605 -2.0566623 2.0193775 -0.0929903 1.3098731 0.94507444 -0.6913622 0.8063873
-1.4281334 0.6829057 2.8977447 -1.9503258 0.2940476 -1.07129 -2.313378 2.1998637
1.6850259 1.5383964 2.5721118 -2.5011098 -0.5618674 0.41315308 -0.46030316 0.617953
-0.16789877 0.8999188 -0.2311495 2.577064 -2.9763565 0.023088297 -0.8491191 0.5561104
-0.36183056 -2.376439 -1.2582916 -1.4071023 2.5170991 1.3867677 0.27956456 1.563387
3.1542025 -4.353545 -0.6318008 -3.175688 4.253991 0.9386365 -0.08010788 -0.06476091
-2.4322543 2.8336885 -0.21093222 -0.29129508 0.39871877 1.0306903 -1.0574182 -3.1386933
-2.771495 2.8681805 4.580427 -0.23151624 0.9827561 0.2647742 -0.13558106 1.0438366
-0.17410262 1.7086501 -0.79888463 1.3355457 0.0658496 -0.57439953 2.852451 -2.490871
1.1469934 1.1749102 0.5517467 0.13348505
00000000: 94d2 843f b3eb 54c0 6d59 9dbf 18dd 8e3f
00000010: e8c8 a23f d682 ce3f 53db 84bf ba9c 1cc0
00000020: c8e4 d140 d915 7c3c 3b3a 9e3f fb04 803f
00000030: 98c5 d9bf c261 0b40 96a5 d8be 4938 83bf
00000040: 11cb 993f c951 22c0 6b81 22bf 4606 8d3e
00000050: 381c 6f3d ad89 2c40 b4cd 10c0 1c85 7d3e
00000060: 842d a2bf 5f0a 343f 0923 783f 0425 4d3e
00000070: bc1b 42be 2a5e 523f f284 9dbf 3cae dcbf
00000080: 32a1 acbe 3b26 203f e054 cebf ea8c 1640
00000090: 3ae3 673f c62e 9a3e 3a66 9ebe 583a 843e
000000a0: 71ad abbf c77b 2f3e a48d 9e3e b87a 2c3f
000000b0: 3e1f 9d3e 3ff7 773f f3d0 72c0 3eeb 29c0
000000c0: c149 debd 9932 3340 15a6 9140 a778 0040
000000d0: 426b 2f3c 6ade c03f fa0a a4bf 2644 c63f
000000e0: bd5a 313f 4406 833f ae04 34c0 d593 53c0
000000f0: 4faf 9d40 b9ca a0bc d01a 8dbf 444d d53e
00000100: 4efd 2040 5ba0 03c0 7b3d 0140 b371 bebd
00000110: eca9 a73f 66f0 713f 1dfd 30bf 666f 4e3f
00000120: 13cd b6bf e8d2 2e3f a674 3940 47a4 f9bf
00000130: 688d 963e 0820 89bf 630e 14c0 91ca 0c40
00000140: eeae d73f 2cea c43f 7b9d 2440 2f12 20c0
00000150: 8bd6 0fbf cd88 d33e dbac ebbe 2b32 1e3f
00000160: a8ed 2bbe 1461 663f 74b2 6cbe 9eee 2440
00000170: a07c 3ec0 ab23 bd3c df5f 59bf 405d 0e3f
00000180: db41 b9be 9417 18c0 b30f a1bf ee1b b4bf
00000190: 2718 2140 9b81 b13f 1623 8f3e 111d c83f
000001a0: 74de 4940 3e50 8bc0 b2bd 21bf 793e 4bc0
000001b0: b220 8840 7b4a 703f 9a0f a4bd 5ea1 84bd
000001c0: 0eaa 1bc0 275b 3540 9efe 57be a124 95be
000001d0: de24 cc3e a9ed 833f 7b59 87bf 5ae0 48c0
000001e0: 2d60 31c0 4590 3740 dc92 9240 9812 6dbe
000001f0: e795 7b3f 7c90 873e c3d5 0abe 709c 853f
00000200: f547 32be 0cb5 da3f b483 4cbf 29f3 aa3f
00000210: 28dc 863d d90b 13bf 8f8e 3640 6e6a 1fc0
00000220: aed0 923f 7563 963f 463f 0d3f 4eb0 083e

lstm.weight_ih_l0 f4 [400, 2]
-0.092072636 0.19782962 0.08695663 0.12253662 -0.07165092 0.14767876 -0.088753976 0.16536966
-0.15197352 -0.000251112 -0.03389064 0.14607573 -0.14969727 0.2770528 0.05693555 0.021524927
-0.10124558 0.18023789 0.20112628 -0.100992166 0.121532574 -0.026087835 0.32406753 -0.26328522
-0.026216792 0.17413577 0.0930623 -0.017768761 0.25613338 -0.17958218 0.18462673 0.21021764
0.13660379 0.09405997 0.0034383845 0.20435882 0.04475856 0.09331924 -0.16315864 0.26993537
0.17191403 0.18329282 0.017880013 0.12293334 -0.14938268 -0.33803388 0.06717896 0.085823596
-0.20952359 0.3079406 -0.06257577 0.1423844 0.3224832 0.14410214 0.128386 0.20535208
0.17146575 -0.119484104 0.096924216 0.20722166 0.13158233 -0.05407414 0.10940545 -0.034225438
-0.081064515 0.16864794 -0.079435945 0.15060087 -0.23215432 0.36286616 0.024579221 0.039712597
0.037082735 0.05320809 0.2941547 -0.1996295 0.0152983805 0.057722993 0.2650623 -0.13426186
0.101361506 0.25654826 0.19715744 0.19433986 0.16605252 0.15996502 0.24326369 0.007907607
-0.12346175 0.26073098 -0.20969455 0.31441304 -0.00971165 0.12906265 0.03978176 0.08169878
0.1978919 -0.10477421 -0.023198301 0.10777978 0.20919468 -0.12043668 -0.084988534 0.20983255
0.14465289 0.112299666 0.106866226 0.12361033 0.15214105 0.02343719 -0.11275585 0.010854871
0.17204204 -0.068795204 0.10053275 0.19911058 0.33179334 -0.29421726 0.3130926 -0.25840464
0.26618746 -0.17435114 0.010355652 0.08099414 0.33226356 0.41411844 -0.076007456 0.15186083
0.06676491 0.057614945 0.10890916 0.1467499 -0.20616904 0.33337718 0.20931701 0.14187631
-0.09317582 0.24018665 0.19344133 -0.11916212 0.12053878 0.25223234 -0.091101564 0.18126471
0.05704818 0.019988209 -0.17244454 0.07289816 0.051975552 0.024566535 0.05304695 0.033517256
0.28135166 0.052417442 0.047662962 0.002192967 0.13832793 -0.04232586 -0.08820775 0.20218834
0.17773448 -0.080680184 0.1402446 -0.09355447 0.011020498 0.07173115 -0.030276828 0.111365855
-0.11656104 0.23956633 0.24513656 -0.1311305 0.25941917 0.16664623 -0.09047061 0.1664696
0.29953566 -0.21380979 -0.17677978 0.026636932 -0.05167664 0.13122487 0.13657665 0.09698528
-0.17050576 -0.036115292 -0.071798965 0.15741134 0.2998597 -0.5261551 -0.02056806 0.14324652
0.061457437 0.30254653 0.07198743 0.021578152 0.23656058 -0.039314516 -0.12303894 0.31210682
0.093984544 -0.022847539 0.12820452 -0.061982892 0.06392699 -0.03432695 0.118132964 0.041841753
-0.15032151 0.07150073 0.21274309 -0.026905334 0.16768736 0.061225705 0.08915695 -0.06481223
0.060076617 0.019893255 0.011469137 -0.035607163 0.10580784 -0.28052804 0.16359934 -0.12098868
0.30050355 -0.053082906 0.058067977 -0.0630516 -0.0616163 -0.23390204 0.13534358 0.028121432
0.114297405 0.075958855 0.046105977 0.09046682 1.0684428 0.6889911 0.06552768 0.01258019
0.11373559 -0.020216025 0.0754348 0.016065681 0.1892523 0.06546314 0.0659449 0.11073255
0.12365397 0.07928352 0.07456352 0.08953879 0.099035434 0.121372156 0.0880587 0.039864138
00000000: 9490 bcbd d993 4a3e 5116 b23d 7bf4 fa3d
00000010: b8bd 92bd 1a39 173e a5c4 b5bd aa56 293e
00000020: f29e 1bbe afa7 83b9 e9d0 0abd e094 153e
00000030: 3e4a 19be ddd9 8d3e 4035 693d 0b55 b03c
00000040: d859 cfbd 4890 383e 0cf4 4d3e fbd4 cebd
00000050: 12e6 f83d 28b6 d5bc 2eec a53e 52cd 86be
00000060: 99c4 d6bc a650 323e 7297 be3d cb8f 91bc
00000070: ea23 833e 64e4 37be ca0e 3d3e 4b43 573e
00000080: dde1 0b3e 83a2 c03d 8556 613b 7043 513e
00000090: c054 373d 281e bf3d 0f13 27be f834 8a3e
000000a0: 3b0a 303e 1db1 3b3e 1b79 923c 7ac4 fb3d
000000b0: c6f7 18be c712 adbe 1f95 893d 48c4 af3d
000000c0: 5a8d 56be 64aa 9d3e ba27 80bd 37cd 113e
000000d0: 851c a53e 838f 133e 9f77 033e d147 523e
000000e0: b894 2f3e 15b4 f4bd 3480 c63d ea31 543e
000000f0: 85bd 063e d87c 5dbd f70f e03d f92f 0cbd
00000100: 2705 a6bd 0cb2 2c3e 50af a2bd 1d37 1a3e
00000110: ddb9 6dbe 98c9 b93e 5d5a c93c ada9 223d
00000120: 11e4 173d baf0 593d 729b 963e ad6b 4cbe
00000130: 0fa6 7a3c f26e 6c3d 3fb6 873e f17b 09be
00000140: 9f96 cf3d 4b5a 833e a4e3 493e 0701 473e
00000150: ac09 2a3e dfcd 233e 1e1a 793e e88e 013c
00000160: 84d9 fcbd 887e 853e 2bba 56be bffa a03e
00000170: 9d1d 1fbc 0029 043e 33f2 223d b151 a73d
00000180: 2da4 4a3e dc93 d6bd 5d0a bebc a5bb dc3d
00000190: 2137 563e 82a7 f6bd 780e aebd 58de 563e
000001a0: e31f 143e 5efd e53d aedc da3d 6a27 fd3d
000001b0: ddca 1b3e 5aff bf3c 8aec e6bd a1d8 313c
000001c0: ca2b 303e 80e4 8cbd 1de4 cd3d a5e3 4b3e
000001d0: d1e0 a93e a5a3 96be ac4d a03e 9d4d 84be
000001e0: b949 883e 1b89 32be c1aa 293c 41e0 a53d
000001f0: 731e aa3e 5507 d43e cca9 9bbd 6881 1b3e
00000200: 0bbc 883d a6fd 6b3d c40b df3d 9b45 163e
00000210: fa1d 53be 6ab0 aa3e 3357 563e 0648 113e
00000220: f7d2 bebd 7df3 753e 7c15 463e 450b f4bd
00000230: 09dd f63d 9924 813e 7593 babd 759d 393e
00000240: 5aab 693d 50be a33c 4d95 30be a14b 953d
00000250: 51e4 543d c23f c93c c247 593d 6449 093d
00000260: 530d 903e acb3 563d 3d3a 433d e2b7 0f3b
00000270: d6a5 0d3e e25d 2dbd 44a6 b4bd 760a 4f3e
00000280: 0700 363e a73b a5bd 489c 0f3e 7c99 bfbd
00000290: 528f 343c c8e7 923d 1c07 f8bc c813 e43d
000002a0: 8eb7 eebd e050 753e 1405 7b3e 1347 06be
000002b0: 97d2 843e 4fa5 2a3e a848 b9bd 0277 2a3e
000002c0: bd5c 993e f4f0 5abe c205 35be b235 da3c
000002d0: e2aa 53bd d05f 063e c0da 0b3e 38a0 c63d
000002e0: 1099 2ebe a1ed 13bd 560b 93bd 7030 213e
000002f0: 3687 993e 1ab2 06bf 597e a8bc 37af 123e
00000300: cbba 7b3d 61e7 9a3e 256e 933d aac4 b03c
00000310: f03c 723e 4208 21bd d7fb fbbd 77cc 9f3e
00000320: f87a c03d c32a bbbc 0c48 033e c6e1 7dbd
00000330: 27ec 823d 6a9a 0cbd b2ef f13d 4262 2b3d
00000340: e2ed 19be fa6e 923d 53d9 593e 9368 dcbc
00000350: 3cb6 2b3e cec7 7a3d eb97 b63d 46bc 84bd
00000360: e612 763d 2ef7 a23c 0ce9 3b3c d1d8 11bd
00000370: c8b1 d83d 5fa1 8fbe 9686 273e eac8 f7bd
00000380: 9adb 993e 766d 59bd b0d8 6d3d 3221 81bd
00000390: 6061 7cbd 0484 6fbe 8297 0a3e eb5e e63c
000003a0: c214 ea3d 5190 9b3d 9fd9 3c3d ab46 b93d
000003b0: bcc2 883f b961 303f 6033 863d 241d 4e3c
000003c0: 34ee e83d 149c a5bc 8f7d 9a3d 2d9c 833c
000003d0: 5bcb 413e 8a11 863d 1f0e 873d bfc7 e23d
000003e0: 4b3e fd3d 665f a23d c2b4 983d 1d60 b73d
000003f0: 17d3 ca3d f791 f83d 1f58 b43d 9448 233d

lstm.weight_hh_l0 f4 [400, 2]
0.09898789 0.24383664 0.23744681 0.12182509 0.028675685 0.23533627 -0.0033910102 0.2598797
0.20965615 0.23127529 -0.2181716 -0.06588446 -0.01984137 -0.08111163 -0.0024387797 0.1771273
0.11423928 0.13234153 0.2705582 0.32450143 0.06746161 0.09077404 -0.18506052 -0.05443529
-0.12606846 -0.13111746 0.27834937 0.17817062 -0.006012533 0.07026917 0.16511956 0.12613204
0.12784994 0.20312694 0.2059932 0.27039045 0.050738793 0.07669723 0.14844848 0.11453025
0.19831795 0.16334127 -0.109370485 -0.17286573 0.06283969 0.31295422 0.016141078 0.13730732
-0.0854152 -0.13358542 0.14851317 0.12078183 0.14627655 0.28712285 0.08802507 0.25700516
0.017134968 0.1868583 0.2588644 0.12968123 0.17449838 0.23133807 0.13840167 0.14803278
0.06414524 0.17665288 0.085934885 0.17413932 0.14290811 0.15225892 0.19479859 0.07599483
0.073491015 0.060802225 0.10184506 0.035361253 0.08922307 0.10415471 0.07842881 -0.038582202
0.2527539 0.11146863 0.1393118 0.13716158 0.13619074 0.24110042 -0.12657948 -0.1120638
-0.14049679 -0.16324067 -0.11389508 -0.025384605 -0.05319912 0.16533095 0.0027591232 0.11017492
0.01510257 0.12400161 0.14277065 0.15985899 0.005819574 -0.14588347 0.09854166 0.17640232
0.10270407 0.104940765 0.10433194 0.20731848 0.22464815 0.24439551 0.25494617 0.17820907
0.013062477 0.05354811 0.19657733 0.1491517 0.04146342 -0.01187051 -0.025865983 0.07251477
0.11433825 -0.10053999 -0.038930457 0.14150213 0.23852548 0.27206314 0.07064666 0.24298108
0.03592357 0.07874165 0.2395043 0.29428378 0.12785038 0.20901048 0.097623564 0.13593376
0.1541916 0.14679796 0.13178803 0.22916925 0.17836098 0.16012223 0.06482878 0.14911835
0.10778547 0.113185294 0.17868482 0.2729341 0.25240952 0.18147127 0.22981466 0.23980443
0.04203998 0.1311695 0.12964451 0.1073579 -0.14614676 -0.088318184 0.14849736 0.090480976
0.20691745 0.22139657 0.12034196 0.23304696 0.16415921 0.17090638 0.024516268 0.27636752
-0.13916564 0.09999783 -0.028253615 0.10283039 0.16469291 0.24756964 0.010839525 0.23808989
0.112399116 -0.026406715 0.08089088 0.2436333 0.03252466 0.20499432 0.08733572 0.279585
0.119944096 0.18263048 0.16797952 0.124030925 0.1090093 0.15604255 -0.15884325 -0.23681755
0.12742454 0.22606461 0.15433443 0.19906618 -0.10873681 -0.0935543 0.13980636 0.07075147
0.17705758 0.17352842 0.11859028 0.12140263 0.1484012 0.16471243 0.12596367 0.27062193
0.5678658 0.6369762 0.09093145 0.21597025 0.18251915 0.18016616 0.23617946 0.15723474
0.14794578 0.22603032 0.21922 0.21593624 0.15889071 0.2152029 0.12476031 0.17900011
0.1162678 0.19861637 0.2353533 0.20205516 0.15892965 0.25607184 0.19463056 0.26790106
0.17832333 0.19521374 0.08597009 0.26046515 0.085407555 0.092097245 0.10585883 0.24117914
0.1908729 0.20516072 0.16430017 0.16425785 0.15058565 0.20077062 0.22109646 0.223345
0.25335032 0.17846447 0.26417285 0.14162704 0.31597444 0.29949567 0.16090788 0.19789931
00000000: 2aba ca3d 50b0 793e 4225 733e 6f7f f93d
00000010: 45e9 ea3c fefb 703e b63b 5ebb f40e 853e
00000020: 1ab0 563e 6ed3 6c3e 6068 5fbe 6fee 86bd
00000030: 5e8a a2bc db1d a6bd efd3 1fbb dc60 353e
00000040: 49f6 e93d 8a84 073e 9b86 8a3e 0d25 a63e
00000050: 5029 8a3d bde7 b93d 8180 3dbe 8af7 5ebd
00000060: 1718 01be a843 06be cf83 8e3e 5c72 363e
00000070: c804 c5bb 48e9 8f3d 1a15 293e c228 013e
00000080: 18eb 023e 8200 503e e2ef 523e 9e70 8a3e
00000090: 7bd3 4f3d 7013 9d3d e102 183e d68e ea3d
000000a0: dc13 4b3e ef42 273e a2fd dfbd b703 31be
000000b0: 18b2 803d 893b a03e 4b3a 843c 4a9a 0c3e
000000c0: 2aee aebd 9eca 08be d613 183e 775c f73d
000000d0: 85c9 153e c401 933e 7d46 b43d 2e96 833e
000000e0: a25e 8c3c c857 3f3e e089 843e 28cb 043e
000000f0: b4af 323e e3e3 6c3e 2bb9 0d3e e895 173e
00000100: 945e 833d 7ee4 343e a1fe af3d 9451 323e
00000110: 8156 123e c3e9 1b3e 4879 473e 2da3 9b3d
00000120: 7582 963d c10b 793d 2594 d03d f6d6 103d
00000130: 96ba b63d 114f d53d 499f a03d 5f08 1ebd
00000140: f668 813e aa49 e43d c1a7 0e3e 1674 0c3e
00000150: 9675 0b3e 07e3 763e 0d9e 01be b581 e5bd
00000160: 64de 0fbe 9028 27be d341 e9bd 60f3 cfbc
00000170: 52e7 59bd 844c 293e 68d2 343b 63a3 e13d
00000180: c570 773c 8ef4 fd3d 7832 123e 13b2 233e
00000190: 20b2 be3b 7a62 15be 36d0 c93d cfa2 343e
000001a0: 8356 d23d 2feb d63d fcab d53d 4c4b 543e
000001b0: 2a0a 663e d142 7a3e 4e88 823e 707c 363e
000001c0: 0004 563c 4355 5b3d 914b 493e 39bb 183e
000001d0: 8cd5 293d 877c 42bc e6e4 d3bc a082 943d
000001e0: 2c2a ea3d e9e7 cdbd 8b75 1fbd efe5 103e
000001f0: 0640 743e dc4b 8b3e 32af 903d 08d0 783e
00000200: 9824 133d 4d43 a13d 9d40 753e 5dac 963e
00000210: 36eb 023e d806 563e ddee c73d 3832 0b3e
00000220: 67e4 1d3e 3452 163e 71f3 063e 58ab 6a3e
00000230: 43a4 363e 15f7 233e f4c4 843d 7bb2 183e
00000240: a1be dc3d b1cd e73d 27f9 363e 05be 8b3e
00000250: d23b 813e 9bd3 393e 8954 6b3e 4b8f 753e
00000260: 1d32 2c3d 4c51 063e 88c1 043e 75de db3d
00000270: 7fa7 15be 2ae0 b4bd b10f 183e 174e b93d
00000280: 2be2 533e c8b5 623e d875 f63d dda3 6e3e
00000290: 5a19 283e 1502 2f3e 57d6 c83c 0b80 8d3e
000002a0: 7081 0ebe aacb cc3d 2074 e7bc bd98 d23d
000002b0: 42a5 283e e582 7d3e 4398 313c d6cd 733e
000002c0: 8231 e63d e552 d8bc 1eaa a53d 027b 793e
000002d0: 9438 053d 08ea 513e 12dd b23d c425 8f3e
000002e0: 40a5 f53d 7c03 3b3e d302 2c3e ed03 fe3d
000002f0: 4540 df3d 9ec9 1f3e cea7 22be 4d80 72be
00000300: 947b 023e 7b7d 673e d809 1e3e 01d8 4b3e
00000310: 68b1 debd 6699 bfbd 6629 0f3e 26e6 903d
00000320: 954e 353e 6fb1 313e 76df f23d f1a1 f83d
00000330: 7cf6 173e 60aa 283e 9ffc 003e f58e 8a3e
00000340: a75f 113f df10 233f 453a ba3d 4e27 5d3e
00000350: 4de6 3a3e 7a7d 383e 07d9 713e 2502 213e
00000360: 197f 173e 7e74 673e 357b 603e 641e 5d3e
00000370: 3fb4 223e 265e 5c3e 5582 ff3d ce4b 373e
00000380: d01d ee3d 1762 4b3e 7500 713e 8ce7 4e3e
00000390: 74be 223e d91b 833e 3c4d 473e 542a 893e
000003a0: 649a 363e 1ce6 473e 1611 b03d b05b 853e
000003b0: 28ea ae3d 7b9d bc3d 84cc d83d aaf7 763e
000003c0: 2f74 433e a715 523e 4e3e 283e 3633 283e
000003d0: 2033 1a3e d096 4d3e 1c67 623e 8db4 643e
000003e0: 22b7 813e 64bf 363e aa41 873e ae06 113e
000003f0: 67c7 a13e 7f57 993e 09c5 243e 1ea6 4a3e

lstm.bias_ih_l0 f4 [400]
-1.1517407 0.15299223 -0.4497638 -0.44153214 4.582984 -2.8069355 -2.2028317 -1.7916378
-0.3395993 -1.3706806 -1.7668223 -2.2027993 -4.5736165 0.11150828 -2.3695848 0.26060346
0.09549373 0.17874722 -3.6417303 -0.3695726 0.2458022 -4.1984196 0.051959284 -4.3868504
-2.2637272 -0.77922577 0.1465184 0.115982406 -2.0081174 0.3003517 -0.0130707305 -0.63228095
-0.7618194 -0.3426862 -0.26480064 0.04573308 -0.04790932 -1.0906605 -2.0442522 -1.5785503
0.21684493 0.23298699 0.1348213 -2.2741024 -3.5695071 -2.5733438 -3.2681499 -3.5710843
-0.52923745 -0.2104888 -2.2465534 -0.115236856 0.25394082 0.1191843 0.2634058 1.0151376
-2.3426042 0.2612848 -1.5869938 -1.9303917 -1.7318599 -2.291988 0.15417269 -0.543533
-3.5173516 0.21514548 -0.5326317 0.18534711 -0.44563296 -0.5017947 0.17956045 -0.6647983
-0.048048098 2.2021086 0.039529342 -0.35202792 0.12245696 0.13814928 -2.1821978 -0.13923143
-0.07990339 -0.4630535 -0.05284723 -0.7181771 -1.8817375 -2.3442903 0.26906517 -0.3259232
-2.9015436 -0.45910075 -0.73873234 0.21750122 0.055351656 -0.85096824 -2.4222033 -3.533401
0.2820597 0.029023778 -1.2314807 -0.08403655 0.2530838 0.26357993 0.2748645 0.20724374
0.035930753 0.17335692 0.1979768 0.14911927 0.25850832 0.07838848 0.08937654 0.07426191
0.113764524 0.10877725 0.08927415 0.22970271 0.11803405 0.08231289 0.06701216 0.19826768
0.15446211 -0.100494936 0.19188929 0.15602008 0.10309272 0.22184522 0.23207118 0.19099842
-0.11876974 0.08286507 0.125894 -0.00025345973 0.12280459 0.15774043 0.17693935 0.0796368
0.1802515 0.1732501 0.07895438 0.09982031 0.092960015 0.21320248 0.20008844 0.12996659
0.2549229 0.1777538 0.18048881 0.1929457 0.143253 -0.98189193 0.24561717 -0.053634718
0.19284731 0.17279746 -0.009363986 -0.07544296 0.16342728 0.10224244 0.043320015 0.037186492
0.04263565 0.08575494 0.0648 0.16062172 0.079530776 -0.019384218 0.16051485 0.19701278
-0.03046812 0.25697657 1.0747695 0.10413167 -0.08547343 0.011099241 0.11640757 0.009790614
0.17574657 0.113709345 0.18841892 -0.004300596 0.018322729 0.2806171 0.11514035 0.10621758
0.2455426 0.14792816 0.1140795 0.13939874 0.24504955 0.07483279 0.09127294 0.24475545
-0.13086338 0.117949665 0.2997351 0.0923536 0.08111292 0.001571786 0.179541 0.12252375
0.1352856 0.21013658 -0.19014664 -0.15609998 0.9239097 0.16741793 0.20756094 0.1751542
0.14030828 -0.06240345 0.1671188 0.20628378 -0.0032850376 0.21772312 0.1371735 0.21228077
-0.11336989 -0.21769015 0.036451582 0.15668929 -0.074821115 0.12156673 0.15523718 0.0549389
0.07537125 0.15784875 0.038726307 -0.052343257 -0.14668441 -0.1891346 -0.1107064 0.1383594
0.14372239 0.091707855 0.1451455 0.058325052 0.07366845 -0.17815799 -0.15378983 0.23059973
-0.18789835 -0.042071715 0.048229262 -0.037446175 0.071415395 0.17969896 -0.26645264 0.048283577
-0.2643937 -0.09503936 -0.38534424 0.018423926 0.08773144 -3.3612049 0.07885731 -0.172702
00000000: 3d6c 93bf ffa9 1c3e 7147 e6be 8010 e2be
00000010: cea7 9240 d5a4 33c0 32fb 0cc0 6354 e5bf
00000020: f6df adbe 7672 afbf 3c27 e2bf aafa 0cc0
00000030: 115b 92c0 745e e43d 47a7 17c0 d16d 853e
00000040: 3792 c33d 8309 373e 1c12 69c0 9f38 bdbe
00000050: 92b3 7b3e 7459 86c0 42d3 543d 1461 8cc0
00000060: e8e0 10c0 577b 47bf eb08 163e 2f88 ed3d
00000070: ff84 00c0 b3c7 993e 9e26 56bc 2add 21bf
00000080: 9906 43bf 9174 afbe f393 87be 9c52 3b3d
00000090: 903c 44bd c39a 8bbf 07d5 02c0 f00d cabf
000000a0: 990c 5e3e 2494 6e3e 980e 0a3e e58a 11c0
000000b0: ce72 64c0 aab1 24c0 5e29 51c0 a58c 64c0
000000c0: 1b7c 07bf 608a 57be 88c7 0fc0 4d01 ecbd
000000d0: 8804 823e e616 f43d 20dd 863e 07f0 813f
000000e0: 3aed 15c0 1fc7 853e 9d22 cbbf 1317 f7bf
000000f0: 96ad ddbf eeaf 12c0 72df 1d3e fb24 0bbf
00000100: 4a1c 61c0 194f 5c3e 8d5a 08bf a2cb 3d3e
00000110: 012a e4be 9e75 00bf b2de 373e 3930 2abf
00000120: 15ce 44bd 59ef 0c40 85e9 213d 013d b4be
00000130: b7ca fa3d 0177 0d3e 21a9 0bc0 af92 0ebe
00000140: 63a4 a3bd 5915 edbe 5676 58bd 74da 37bf
00000150: c6dc f0bf da08 16c0 e9c2 893e 68df a6be
00000160: e4b2 39c0 410f ebbe 901d 3dbf a4b8 5e3e
00000170: 6bb8 623d 0ed9 59bf 6105 1bc0 3e23 62c0
00000180: 216a 903e 46c3 ed3c 29a1 9dbf 5b1b acbd
00000190: 3394 813e f3f3 863e 0abb 8c3e b437 543e
000001a0: 202c 133d 7a84 313e 6eba 4a3e b9b2 183e
000001b0: 345b 843e 248a a03d 0c0b b73d a116 983d
000001c0: 60fd e83d 9bc6 de3d 5ed5 b63d 3037 6b3e
000001d0: d6bb f13d a993 a83d ac3d 893d af06 4b3e
000001e0: 512b 1e3e 4ad0 cdbd a07e 443e bac3 1f3e
000001f0: 4722 d33d 652b 633e 11a4 6d3e 1795 433e
00000200: 8d3d f3bd 29b5 a93d 5bea 003e cae2 84b9
00000210: f980 fb3d b586 213e 972f 353e 9e18 a33d
00000220: d993 383e 7968 313e d5b2 a13d 976e cc3d
00000230: d261 be3d c051 5a3e fce3 4c3e f615 053e
00000240: 4185 823e 1805 363e 0fd2 383e 8f93 453e
00000250: eab0 123e 455d 7bbf 1183 7b3e 14b0 5bbd
00000260: c479 453e d1f1 303e 676b 19bc d781 9abd
00000270: 7b59 273e 7c64 d13d 5470 313d dd50 183d
00000280: b8a2 2e3d 49a0 af3d ddb5 843d 057a 243e
00000290: 08e1 a23d a7cb 9ebc 015e 243e b8bd 493e
000002a0: 4798 f9bc 6f92 833e 0c92 893f fc42 d53d
000002b0: b20c afbd 97d9 353c 1867 ee3d d068 203c
000002c0: e9f6 333e 72e0 e83d e4f0 403e 04ec 8cbb
000002d0: 8c19 963c 0bad 8f3e b4ce eb3d 9a88 d93d
000002e0: 856f 7b3e 7b7a 173e 83a2 e93d 8bbe 0e3e
000002f0: 45ee 7a3e ef41 993d 4fed ba3d 2ca1 7a3e
00000300: 0d01 06be 988f f13d e176 993e e223 bd3d
00000310: 881e a63d 6304 ce3a 99d9 373e bbed fa3d
00000320: 4f88 0a3e 0b2e 573e cdb5 42be acd8 1fbe
00000330: 5985 6c3f 9b6f 2b3e db8a 543e 9f5b 333e
00000340: f9ac 0f3e c39a 7fbd 3121 2b3e 0e3c 533e
00000350: c949 57bb cff2 5e3e 3677 0c3e 2160 593e
00000360: 792e e8bd 2bea 5ebe 414e 153d 2873 203e
00000370: d03b 99bd faf7 f83d 7ff6 1e3e 9d07 613d
00000380: 3e5c 9a3d 1aa3 213e 7a9f 1e3d e265 56bd
00000390: 7034 16be 80ac 41be 09ba e2bd 16ae 0d3e
000003a0: f62b 133e 54d1 bb3d 06a1 143e 40e6 6e3d
000003b0: 7cdf 963d 0c6f 36be 157b 1dbe 5622 6c3e
000003c0: 6d68 40be 6453 2cbd 0c8c 453d 2961 19bd
000003d0: 3c42 923d 0103 383e 7b6c 88be 00c5 453d
000003e0: 9c5e 87be ffa3 c2bd d74b c5be c6ed 963c
000003f0: 8bac b33d fb1d 57c0 f17f a13d cbd8 30be

lstm.bias_hh_l0 f4 [400]
-1.2005248 0.21520576 -0.5309909 -0.37688 4.570695 -2.833449 -2.259529 -1.6773024
-0.37124777 -1.370828 -1.8989995 -2.2560701 -4.4903073 0.06075496 -2.3586984 0.23067145
0.235167 0.27971196 -3.6248546 -0.40211788 0.06830693 -4.1850967 0.09416197 -4.4444304
-2.2928777 -0.65148926 0.27774456 0.08381546 -2.0021017 0.16597171 -0.08120693 -0.65160394
-0.6840442 -0.301804 -0.13858503 -0.08351188 -0.11127659 -1.0143905 -2.0849926 -1.6955243
0.17283593 0.23070025 0.22036931 -2.2781425 -3.6205316 -2.5672517 -3.3486042 -3.4709103
-0.62172234 -0.21896219 -2.0964222 -0.1461338 0.22708106 0.19443114 0.18607073 0.91342044
-2.42376 0.13617869 -1.65362 -2.0626693 -1.7894719 -2.3649602 0.2036301 -0.48039892
-3.4675734 0.23311369 -0.5473848 0.16827363 -0.3394795 -0.5660939 0.15226534 -0.64043134
-0.11683568 2.0422242 0.010931384 -0.26676083 0.08220238 0.08263553 -2.1678817 -0.20927726
-0.05431503 -0.42989352 -0.12629524 -0.7087564 -1.8263146 -2.398594 0.20177422 -0.3958926
-3.0064902 -0.5414774 -0.7345666 0.14965919 0.14024538 -0.8499046 -2.3616624 -3.3905203
0.13791914 0.034582585 -1.1223598 -0.15779224 0.15255205 0.2139472 0.2736197 0.20991631
-0.10972394 0.17712654 0.10267049 0.13263234 0.0970596 0.050800305 0.07916537 0.22689676
-0.007514979 0.081384115 0.11322409 0.107852556 0.13815151 0.056409772 0.020632375 0.097708024
0.2090286 -0.062915415 0.12436205 0.14016911 0.20099324 0.13462271 0.14726004 0.15484263
-0.00533177 0.1430208 0.06499377 0.016808366 0.18778197 0.1864571 0.2497833 0.091006465
0.2665557 0.24627104 0.22514793 0.10100754 0.21872322 0.13629124 0.07223296 0.22416906
0.2558445 0.19785526 0.20940381 0.19663158 0.18501993 -1.0292209 0.19244896 -0.11005263
0.20319226 0.20895281 -0.0871836 -0.030915933 0.07453001 0.26869994 0.068460636 0.20025231
0.056592464 0.24865271 0.11129968 0.30655783 0.13075589 -0.118729256 0.08920576 0.1914225
-0.10195792 0.07267594 1.1365619 0.22976568 0.0106980475 -0.06868865 -0.002655046 0.067133576
0.19541539 0.17257243 0.24531579 -0.012419736 0.013807715 0.16900364 0.19632486 0.060727976
0.22194715 0.2322965 0.26379877 0.10223653 0.1712895 0.18482928 0.13294026 0.16017403
-0.09982119 0.2749061 0.2578451 0.048160817 0.14455205 0.11874967 0.11069771 0.15533377
0.10382046 0.22044536 -0.15047069 -0.22319092 0.9145861 0.12231656 0.12507024 0.10000706
0.11350676 -0.042885624 0.022013266 0.17087132 -0.06619313 0.16285254 0.20249851 0.18229042
-0.11264466 -0.15234715 0.09548578 0.15490511 -0.12881318 0.18827285 0.1971066 0.23473793
0.23308168 0.05190308 0.101615556 -0.1313359 -0.24916276 -0.09547902 -0.072165854 0.13749118
0.12175323 0.20053537 0.016560076 0.20450294 0.23758474 -0.047437176 -0.1007769 0.17178066
-0.13395107 -0.097855136 0.08969813 -0.12532164 0.15613794 0.2241783 -0.21264607 0.074980766
-0.16798976 -0.18859886 -0.38260865 0.064918436 0.07846923 -3.4704037 0.1881784 -0.039761133
00000000: ccaa 99bf e65e 5c3e 05ef 07bf 6af6 c0be
00000010: 2243 9240 3a57 35c0 209c 10c0 d8b1 d6bf
00000020: 3014 bebe 4b77 afbf 6a12 f3bf 7463 10c0
00000030: 99b0 8fc0 31da 783d eaf4 16c0 2335 6c3e
00000040: 9ecf 703e 6836 8f3e 9efd 67c0 65e2 cdbe
00000050: 81e4 8b3d 50ec 85c0 fed7 c03d c638 8ec0
00000060: 82be 12c0 00c8 26bf 8934 8e3e 71a7 ab3d
00000070: 6f22 00c0 7df4 293e d24f a6bd 84cf 26bf
00000080: 851d 2fbf 0e86 9abe 3ce9 0dbe 4708 abbd
00000090: fbe4 e3bd 8cd7 81bf 8570 05c0 f106 d9bf
000000a0: e7fb 303e b03c 6c3e 7ea8 613e 16cd 11c0
000000b0: cab6 67c0 da4d 24c0 884f 56c0 6523 5ec0
000000c0: 3229 1fbf a037 60be c82b 06c0 19a4 15be
000000d0: f087 683e f518 473e 5389 3e3e ecd5 693f
000000e0: e21e 1bc0 6d72 0b3e d2a9 d3bf c602 04c0
000000f0: 6a0d e5bf 825b 17c0 6984 503e d9f6 f5be
00000100: b9ec 5dc0 5bb5 6e3e 6921 0cbf ec4f 2c3e
00000110: 42d0 adbe 88eb 10bf 72eb 1b3e 4ff3 23bf
00000120: 8c47 efbd cdb3 0240 8c19 333c e094 88be
00000130: b959 a83d d13c a93d 93be 0ac0 c74c 56be
00000140: 7079 5ebd 011b dcbe 8a53 01be 0f71 35bf
00000150: adc4 e9bf 9082 19c0 e79d 4e3e 6fb2 cabe
00000160: 566a 40c0 439e 0abf 8f0c 3cbf 4240 193e
00000170: 7c9c 0f3e 5993 59bf 7a25 17c0 49fe 58c0
00000180: ad3a 0d3e 78a6 0d3d 7ca9 8fbf 4a94 21be
00000190: 9b36 1c3e fa14 5b3e e217 8c3e 4df4 563e
000001a0: f2b6 e0bd a960 353e e844 d23d c6d0 073e
000001b0: 2fc7 c63d fb13 503d 7421 a23d a057 683e
000001c0: 3740 f6bb b7ac a63d 08e2 e73d cde1 dc3d
000001d0: 9777 0d3e ef0d 673d 3a05 a93c 251b c83d
000001e0: 980b 563e ccd9 80bd 88b1 fe3d 7e88 0f3e
000001f0: 2cd1 4d3e 89da 093e 56cb 163e 118f 1e3e
00000200: 21b6 aebb 0b74 123e 741b 853d b3b1 893c
00000210: eb49 403e 9cee 3e3e 32c7 7f3e 9961 ba3d
00000220: fd79 883e 7a2e 7c3e 2e8d 663e 0bdd ce3d
00000230: fbf8 5f3e ee8f 0b3e e0ee 933d 938c 653e
00000240: 0dfe 823e 929a 4a3e f46d 563e ca59 493e
00000250: dd75 3d3e 83bd 83bf 5711 453e 4663 e1bd
00000260: a211 503e baf7 553e 518d b2bd 6943 fdbc
00000270: 31a3 983d 0a93 893e 1735 8c3d f10e 4d3e
00000280: 80cd 673d d19e 7e3e 16f1 e33d 26f5 9c3e
00000290: dfe4 053e 5328 f3bd 82b1 b63d 4304 443e
000002a0: 50cf d0bd 20d7 943d dc7a 913f b247 6b3e
000002b0: dd46 2f3c a3ac 8cbd 4800 2ebb 547d 893d
000002c0: f91a 483e d4b6 303e 1034 7b3e 267c 4bbc
000002d0: c139 623c 4a0f 2d3e 6209 493e e6bd 783d
000002e0: 1d46 633e 22df 6d3e a210 873e 6361 d13d
000002f0: 8466 2f3e e343 3d3e 7e21 083e a904 243e
00000300: 0d6f ccbd 7ec0 8c3e 4604 843e 4744 453d
00000310: 7405 143e 0733 f33d 7bb5 e23d d10f 1f3e
00000320: d29f d43d 6ebc 613e fd14 1abe 298c 64be
00000330: 5122 6a3f 1b81 fa3d 6a12 003e 80d0 cc3d
00000340: 3b76 e83d d6a8 2fbd 2a55 b43c e4f8 2e3e
00000350: 4490 87bd d1c2 263e c55b 4f3e 57aa 3a3e
00000360: 3eb2 e6bd e400 1cbe 0c8e c33d 729f 1e3e
00000370: 9ae7 03be 99ca 403e 50d6 493e 245f 703e
00000380: f7ac 6e3e 5398 543d d11b d03d eb7c 06be
00000390: 8624 7fbe 818a c3bd b1cb 93bd 7dca 0c3e
000003a0: c259 f93d 2559 4d3e ffa8 873c 3869 513e
000003b0: 6a49 733e 7c4d 42bd 1f64 cebd 45e7 2f3e
000003c0: 782a 09be 4668 c8bd a7b3 b73d 5154 00be
000003d0: a0e2 1f3e ff8e 653e e4bf 59be 848f 993d
000003e0: 8205 2cbe 0f20 41be 48e5 c3be f5f3 843d
000003f0: 7ab4 a03d 181b 5ec0 d7b1 403e 92dc 22bd

lstm.weight_hr_l0 f4 [2, 100]
0.66588455 0.69446963 -0.61851025 -0.7537311 -3.1812236 0.61283475 0.47074008 0.7346525
0.7622324 -0.8180099 0.84109765 1.351614 -1.080448 0.82238925 1.3304185 0.7084082
-0.6189049 -0.7307091 1.1135906 0.66279507 -0.6841535 0.88557273 0.7650337 1.2108457
0.36515778 0.75611037 0.64940035 -0.6443905 -0.8497171 -0.67646766 -0.84446955 0.74398565
0.71670693 0.65700895 0.6842114 0.7461596 0.704395 -0.8085778 -0.74110776 0.9983863
-0.680601 -0.7071438 0.65322125 -0.9126724 0.5467644 0.41022435 -0.7499657 1.047825
-0.68927836 -0.9460239 1.1809256 0.83344734 0.7809737 1.3038713 0.84259295 -0.9033566
1.1906391 -0.8892863 1.296741 -1.398248 -1.1698993 0.7741686 -1.1252738 0.82697725
-1.0427189 2.63131 0.73850566 0.71811104 0.76982987 -0.74291664 1.3023058 0.75095105
-0.85983497 -1.7171543 0.8665255 -0.8568414 0.72212267 0.81483483 1.0953395 -0.79467785
0.81080073 -0.82334834 -0.8294848 -0.7908534 0.48569077 1.2822095 0.7270404 -0.72488976
-1.470109 -0.7815999 0.7568651 0.68618506 -0.8361569 -0.7104288 -0.96479315 -0.75265354
0.62497646 0.76766044 -1.0860014 0.7076049 0.74117386 0.80404776 -0.7989028 -0.79096913
-2.2820065 1.0485474 1.0675623 0.70344317 0.82974005 -0.66910315 0.61928344 0.10202087
-1.9589475 0.88044024 0.42142963 0.6775804 -0.7543293 -0.7124612 1.1026336 0.73458064
-0.73461694 1.1822757 0.78366506 1.1160933 1.2348434 0.7835947 0.72738475 -0.76998365
-0.6354384 -0.6675797 -0.81136537 0.7783934 0.757183 0.8075991 0.66636944 0.758997
0.7597246 -0.7216969 -0.8724836 0.6042094 -0.7287786 -0.7483244 0.6598532 -0.5672801
1.6265377 1.2868304 -1.0427282 1.1085224 -0.7994334 -0.99108636 0.4816661 0.9471794
0.6387532 2.1265588 0.9248147 -0.8788519 0.5658376 -1.9758888 0.008321055 -0.17410272
-0.265791 0.9373218 -1.9531475 0.71672535 -0.86314446 1.7900525 0.76924646 0.78151804
0.89047533 -0.70775336 1.004531 0.80596375 -0.8677862 -0.4667957 0.8979205 -0.83975416
0.8487087 0.7708443 0.59054095 -0.92680615 0.7906687 -0.61875224 -0.79202825 -0.6938055
1.0789278 0.2802304 0.6657635 -0.71084595 -0.27983597 -0.7435825 0.6958374 0.75187236
-0.8977187 -0.8139276 -0.9184447 -1.288352 0.7203701 0.9108212 -0.42132387 0.7170756
00000000: 6977 2a3f c3c8 313f b056 1ebf 85f4 40bf
00000010: 2b99 4bc0 bde2 1c3f d804 f13e 3012 3c3f
00000020: aa21 433f 1969 51bf 2d52 573f b001 ad3f
00000030: 1f4c 8abf 1a88 523f 274b aa3f 3d5a 353f
00000040: 8d70 1ebf c00f 3bbf 238a 8e3f f0ac 293f
00000050: af24 2fbf e5b4 623f 40d9 433f fefc 9a3f
00000060: f6f5 ba3e 7390 413f 1a3f 263f c7f6 24bf
00000070: 0f87 59bf fc2c 2dbf 282f 58bf d875 3e3f
00000080: 1b7a 373f bd31 283f 7a28 2f3f 5104 3f3f
00000090: 3b53 343f f4fe 4ebf 3db9 3dbf 3f96 7f3f
000000a0: de3b 2ebf 6007 35bf 8239 273f e6a4 69bf
000000b0: c0f8 0b3f ed08 d23e c1fd 3fbf 211f 863f
000000c0: 8c74 30bf 9f2e 72bf 9228 973f ce5c 553f
000000d0: e4ed 473f 41e5 a63f 2cb4 573f 6142 67bf
000000e0: dd66 983f 44a8 63bf 9cfb a53f caf9 b2bf
000000f0: 43bf 95bf ea2f 463f f908 90bf c8b4 533f
00000100: d077 85bf 6267 2840 b50e 3d3f 20d6 373f
00000110: 9213 453f c92f 3ebf f5b1 a63f 543e 403f
00000120: 251e 5cbf b6cb dbbf 9dd4 5d3f f559 5bbf
00000130: 08dd 383f 0499 503f 1634 8c3f 0270 4bbf
00000140: a390 4f3f f5c6 52bf 1e59 54bf 5e75 4abf
00000150: 76ac f83e 711f a43f 521f 3a3f 6092 39bf
00000160: 882c bcbf ee16 48bf e9c1 413f d3a9 2f3f
00000170: 610e 56bf a9de 35bf affc 76bf e7ad 40bf
00000180: 75fe 1f3f 6585 443f 1802 8bbf 9825 353f
00000190: 92bd 3d3f 13d6 4d3f e584 4cbf f47c 4abf
000001a0: 650c 12c0 cd36 863f e2a5 883f da14 343f
000001b0: d869 543f 584a 2bbf 5c89 1e3f 51f0 d03d
000001c0: cbbe fabf 8864 613f a0c5 d73e e975 2d3f
000001d0: ba1b 41bf db63 36bf 1923 8d3f 7a0d 3c3f
000001e0: db0f 3cbf cf54 973f 469e 483f 25dc 8e3f
000001f0: 590f 9e3f aa99 483f e335 3a3f a61d 45bf
00000200: 17ac 22bf 81e6 2abf a4b5 4fbf ca44 473f
00000210: bfd6 413f d1be 4e3f 3097 2a3f a14d 423f
00000220: 507d 423f 21c1 38bf 165b 5fbf 78ad 1a3f
00000230: 3c91 3abf 3092 3fbf 24ec 283f 4539 11bf
00000240: 6332 d03f dcb6 a43f 1e78 85bf 10e4 8d3f
00000250: aba7 4cbf d6b7 7dbf f09c f63e 597a 723f
00000260: 5485 233f 8a19 0840 a8c0 6c3f 70fc 60bf
00000270: bcda 103f ede9 fcbf 0955 083c fc47 32be
00000280: c215 88be 52f4 6f3f bd00 fabf 507b 373f
00000290: 09f7 5cbf 7120 e53f 56ed 443f 9111 483f
000002a0: 31f6 633f 532f 35bf 7994 803f a453 4e3f
000002b0: 3d27 5ebf d9ff eebe 1ede 653f 21fa 56bf
000002c0: f944 593f 0d56 453f b12d 173f 2b43 6dbf
000002d0: 4469 4a3f 8c66 1ebf 5dc2 4abf 3d9d 31bf
000002e0: 4e1a 8a3f 5c7a 8f3e 7a6f 2a3f 00fa 35bf
000002f0: a946 8fbe 6c5b 3ebf 6622 323f b57a 403f
00000300: e5d0 65bf 8f5d 50bf 311f 6bbf b8e8 a4bf
00000310: 2d6a 383f 942b 693f c3b7 d7be 4492 373f

exp_avg f4 [70, 2]
0.0018240976 -0.0004202924 0.0007801576 -0.0023051738 0.0017721956 -0.004411071 -0.0013793588 -0.00030402228
-0.00090763834 0.0015815588 -0.00047603677 0.0011139865 0.001317668 -0.0025385185 -0.00011249125 0.0036831256
-3.517896e-05 -0.00022057608 0.0019101988 -0.004168758 0.0031337107 -0.017370438 -0.0036577838 0.010143328
0.001961044 -0.0036886157 0.0006309562 0.005592154 -0.010120522 0.02390853 0.0011559393 0.00048774184
0.0039579105 -0.0077102636 0.005000643 -0.015953511 -0.00071608595 -0.0006764029 0.0033995705 -0.008510111
-0.0021378594 0.0055649937 -0.0008313467 0.0024910874 -0.0030373996 0.0064463085 -0.0022052303 -0.0004398719
-0.0010913576 -0.002044059 -0.0006021365 -0.0017653538 -0.00042877768 -0.00035516865 0.00094638864 -0.0004980677
0.000256906 -0.0026934983 0.0037145223 0.0018174188 -0.0057207206 0.0010602486 0.00067866343 -0.0035284508
-0.0005670746 0.00013040872 -0.0010539799 -0.00061966147 -0.009838181 0.024457255 0.001325238 -0.0054096174
-0.003486388 0.008330735 -0.00037173257 0.0010787908 0.0018396287 0.0009297443 0.0048447307 -0.01397602
0.002683389 -0.0056679267 0.0018240331 0.0012548559 0.003185387 -0.006107415 -0.0013513945 0.00017503176
-0.012488918 0.024964219 0.002739084 -0.012205568 -0.0071744723 0.016064968 0.0037443775 -0.005574607
-0.0064790286 0.0013239555 0.00036990104 0.000716498 -0.0001993349 0.00039221699 0.004404564 -0.008682949
0.0033059216 -0.00022374076 -0.0018660611 0.0009570795 -0.00070629537 0.0013876047 -0.0034344676 0.002305989
0.021727255 -0.08854094 -0.0052125594 0.007986141 -0.0009437473 -0.0012206595 -0.0011303086 0.0014908381
-0.004140065 0.010210554 -0.0017023485 0.0003794268 0.0005468211 -0.0006587339 -0.06425081 0.14017662
-0.0011868953 0.00086076005 -0.0007522024 0.00023674434 0.0005584114 5.756509e-05 0.003469412 0.003020921
0.0043268427 -0.0112693645 0.0002202165 -0.0009717395
00000000: 8f16 ef3a b15a dcb9 7e83 4c3a 6612 17bb
00000010: 0449 e83a bf8a 90bb 9acb b4ba 2e65 9fb9
00000020: 94ee 6dba 4f4c cf3a 9394 f9b9 2f03 923a
00000030: 9ab5 ac3a 465d 26bb 48e9 ebb8 9860 713b
00000040: 1f8d 13b8 714a 67b9 a35f fa3a 149a 88bb
00000050: f15e 4d3b 734c 8ebc 6eb7 6fbb 3430 263c
00000060: dc84 003b b4bc 71bb c166 253a 633e b73b
00000070: 8cd0 25bc d2db c33c e382 973a 9ab7 ff39
00000080: 5cb1 813b 61a6 fcbb 6fdc a33b f0b0 82bc
00000090: b7b7 3bba a150 31ba 54cb 5e3b fe6d 0bbc
000000a0: 541b 0cbb 8d5a b63b bcee 59ba 8341 233b
000000b0: 1c0f 47bb 8e3b d33b a085 10bb 9b9e e6b9
000000c0: e20b 8fba 9ff5 05bb b2d8 1dba 7263 e7ba
000000d0: 91cd e0b9 ee35 bab9 1117 783a c290 02ba
000000e0: 57b1 8639 6785 30bb 586f 733b 7536 ee3a
000000f0: e274 bbbb 0af8 8a3a 55e8 313a 953d 67bb
00000100: bba7 14ba 53be 0839 b225 8aba c770 22ba
00000110: 5230 21bc 955a c83c 9cb3 ad3a 2943 b1bb
00000120: e27b 64bb a37d 083c 1ae5 c2b9 3666 8d3a
00000130: b21f f13a 15ba 733a 8cc0 9e3b adfb 64bc
00000140: ccdb 2f3b 04ba b9bb 6514 ef3a fa79 a43a
00000150: edc1 503b b620 c8bb 4621 b1ba bb88 3739
00000160: 529e 4cbc c381 cc3c 3482 333b ddf9 47bc
00000170: d617 ebbb ae9a 833c 3b64 753b 31ab b6bb
00000180: 084e d4bb 9388 ad3a 47ef c139 5ed3 3b3a
00000190: 8e04 51b9 79a2 cd39 2954 903b ed42 0ebc
000001a0: 29a8 583b f49b 6ab9 9f96 f4ba 85e4 7a3a
000001b0: ae26 39ba 4ae0 b53a ce14 61bb 1320 173b
000001c0: 5bfd b13c f454 b5bd 1ece aabb 4ed8 023c
000001d0: cf65 77ba 89fe 9fba dd26 94ba 3a68 c33a
000001e0: 62a9 87bb 2b4a 273c 5621 dfba ceed c639
000001f0: 8b58 0f3a e2ae 2cba ee95 83bd 768a 0f3e
00000200: 9991 9bba a1a4 613a 732f 45ba 933e 7839
00000210: 5b62 123a 0b72 7138 135f 633b a5fa 453b
00000220: 30c8 8d3b 24a3 38bc ebe9 6639 55bc 7eba

exp_avg_sq f4 [70, 2]
7.811107e-05 2.676436e-05 0.00017488234 0.00055469363 0.00030599395 0.0010070397 5.345162e-05 2.2951537e-05
2.6399723e-05 4.346143e-05 0.00018030721 0.0003675616 0.00019691505 0.0012454302 0.0002700303 0.00014710343
1.3774659e-05 1.1787936e-05 0.0002635204 0.0011258828 0.00053939444 0.005482635 0.0004965674 0.0017304714
0.00015316825 0.00051109155 0.00080305984 0.0022457326 0.00088025304 0.003521886 0.0003150558 0.00010118906
0.00037893158 0.0015914052 0.0006768277 0.00612616 0.00015085659 0.00021062438 0.00030516303 0.0009220157
0.00040255088 0.0014829664 0.00022563856 0.0010835908 0.00031507312 0.0014125768 0.00015635724 4.4934648e-05
3.690698e-05 8.2774764e-05 0.00012364333 0.00031725675 0.00022822057 0.00044698713 0.000101253136 7.003479e-05
0.0005220268 0.002317311 4.1794065e-05 1.0357091e-05 0.00024609902 0.00012371832 0.00043497884 0.0017241887
8.672277e-05 5.8814054e-05 9.451618e-05 8.071013e-05 0.0004105781 0.0014424036 0.0004090573 0.0016496317
0.0004238702 0.0014989019 2.9598834e-05 2.445384e-05 0.00021213904 8.166228e-05 0.00053540285 0.004250728
0.00070853776 0.00583643 7.63206e-05 4.9409224e-05 0.00032450692 0.0015774926 0.0013083066 0.0046871235
0.0014011593 0.0077505936 0.0010141794 0.0088185035 0.0014157402 0.0035829549 0.0005726127 0.0019520823
0.00017835433 5.5791585e-05 4.7547783e-05 4.9480852e-05 3.80907e-05 6.269491e-05 0.0010422226 0.004296066
8.067833e-05 4.4216642e-05 7.376622e-05 2.6410302e-05 0.0001265779 0.0001347201 9.237941e-05 6.9434594e-05
0.0008702265 0.00903337 0.00057255576 0.001741712 0.0009677601 0.0037617087 0.00018487654 7.194171e-05
0.0012868482 0.012427901 2.2646806e-05 3.3530017e-05 0.00012438673 0.00014377652 0.0014458529 0.0056956853
5.660145e-05 4.690434e-05 0.00012859957 0.00016351495 4.2132062e-05 4.0211107e-05 3.2312448e-05 2.6971991e-05
0.00085043156 0.0032773528 0.00039107265 0.00095180725
00000000: 90cf a338 0784 e037 9f60 3739 dc68 113a
00000010: d06d a039 a5fe 833a 3d31 6038 0d88 c037
00000020: f974 dd37 5b4a 3638 d910 3d39 48b5 c039
00000030: fb7a 4e39 b43d a33a da92 8d39 c73f 1a39
00000040: b619 6737 cdc4 4537 1c29 8a39 5c92 933a
00000050: 2666 0d3a ada7 b33b 132c 023a fcd0 e23a
00000060: ca9b 2039 c6fa 053a 6f84 523a 242d 133b
00000070: c8c0 663a 71cf 663b 132e a539 7735 d438
00000080: 56ab c639 b396 d03a 236d 313a f4bd c83b
00000090: 422f 1e39 0ddb 5c39 4afe 9f39 6db3 713a
000000a0: 770d d339 1860 c23a 6499 6c39 4607 8e3a
000000b0: 6630 a539 3626 b93a d4f3 2339 3678 3c38
000000c0: 91cc 1a38 5d97 ad38 41a6 0139 7b55 a639
000000d0: 7e4e 6f39 9959 ea39 dd57 d438 a4df 9238
000000e0: a0d8 083a 07de 173b 094c 2f38 5ec3 2d37
000000f0: da06 8139 62ba 0139 df0d e439 2cfe e13a
00000100: efde b538 1caf 7638 fd36 c638 ec42 a938
00000110: dc42 d739 090f bd3a be76 d639 7438 d83a
00000120: e53a de39 cd76 c43a 034b f837 3922 cd37
00000130: a471 5e39 1a42 ab38 475a 0c3a b149 8b3b
00000140: 2abd 393a 863f bf3b 4f0e a038 c03c 4f38
00000150: 9522 aa39 dec3 ce3a 7c7b ab3a 7196 993b
00000160: 1ba7 b73a b1f8 fd3b 37ee 843a 7c7b 103c
00000170: 5c90 b93a 02d0 6a3b 631b 163a 03dd ff3a
00000180: a004 3b39 c201 6a38 0b6e 4738 a989 4f38
00000190: 94c3 1f38 137b 8338 309b 883a 03c6 8c3b
000001a0: d931 a938 4275 3938 f0b2 9a38 b18b dd37
000001b0: ffb9 0439 a743 0d39 d1bb c138 6a9d 9138
000001c0: e91f 643a b300 143c 9117 163a 284a e43a
000001d0: 48b1 7d3a 0087 763b 6bdb 4139 69df 9638
000001e0: 76ab a83a 659e 4b3c a5f9 bd37 95a2 0c38
000001f0: cf6d 0239 b7c2 1639 c682 bd3a dfa2 ba3b
00000200: 5867 6d38 27bb 4438 afd8 0639 3675 2b39
00000210: f5b6 3038 59a8 2838 3a87 0738 e941 e237
00000220: 7fef 5e3a dbc8 563b e208 cd39 b482 793a

exp_avg f4 [400, 2]
-0.089596 -0.046744473 5.434113e-06 9.007123e-06 -0.09170743 -0.055695552 -0.10391168 -0.061402008
11.5195265 11.9002075 -1.2548922 -1.0974003 -0.4044734 -0.27605414 -0.20563683 -0.21093479
-0.11245481 -0.065843694 -0.09895182 -0.12845908 -0.02707762 -0.044813454 -0.8399216 -0.82459366
-4.019453 -3.9210415 -0.010052602 -0.0129924 -1.4436963 -1.6487753 -2.121088e-06 5.7997063e-06
-2.9913206e-05 -2.5869667e-05 -0.00015349327 -8.470494e-05 -1.6286368 -1.4663343 -0.106969506 -0.06367257
2.498232e-08 2.108512e-06 -3.178774 -3.0795584 -1.6859858e-05 -1.470789e-05 -3.1405845 -3.0170145
-0.45585167 -0.35112762 -0.0873627 -0.051829316 6.0862897e-07 1.9835302e-06 -4.2052122e-08 2.398448e-06
-0.7432498 -0.76526576 2.0958471e-07 1.6004261e-06 -0.021483833 -0.026296154 -0.05822746 -0.07369502
-0.0953788 -0.054903574 -0.10099483 -0.062032655 -0.08429421 -0.051300135 -0.016076379 -0.018025583
-0.000946273 -0.00058355555 -0.28119063 -0.3311474 -0.9977958 -0.97040063 -0.16682377 -0.21408713
-3.501236e-07 1.7362992e-06 -2.1198607e-06 9.7341635e-06 4.189427e-07 1.4230802e-06 -0.00091515173 -0.0017578251
-1.2245952 -1.0625242 -0.47523043 -0.37965414 -1.8072432 -1.6990764 -3.3742914 -3.3046649
-0.06391569 -0.079464 -0.023950092 -0.019033972 -1.9111964 -2.2495105 -0.010249105 -0.005390857
-1.690796e-05 4.254457e-05 -6.2891154e-06 -2.1142157e-05 -1.1861247e-05 -1.2619489e-05 0.07990307 0.100628965
-0.897853 -1.1314801 -2.1110483e-05 3.9548722e-05 -0.7633246 -0.72365445 -0.7846459 -0.805196
-1.1530863 -1.3764026 -1.2923893 -1.1874527 -1.3071333e-07 -1.8778728e-07 -0.094074294 -0.06546152
-2.5515468 -2.5018365 -3.2156593e-05 -2.939684e-05 -0.09290834 -0.055898882 -7.738961e-06 3.1161107e-05
-0.0096941 -0.005459131 -0.14538376 -0.17768215 -1.1398284e-05 3.0729538e-05 -0.106762506 -0.06172664
-0.011061508 -0.012739072 0.9853347 1.2278304 -0.004327162 -0.00567951 -0.0049891802 -0.006215049
-3.4777127e-05 0.00018407211 -0.038780436 -0.04016134 -0.9796029 -1.1634648 -0.021092864 -0.011444406
-0.007338442 -0.008060278 -0.22271596 -0.25467166 -0.0024767308 -0.0017896724 -0.025578635 -0.0133061325
-0.40485093 -0.2646069 -0.5605004 -0.6956921 -3.295771e-07 4.475618e-06 -0.090755865 -0.053191047
-1.2272761 -1.285521 -0.00011233903 0.00011353079 -0.06538148 -0.039052173 2.3033954e-06 3.3021274e-06
-4.054993e-05 8.361274e-05 -0.099155314 -0.056577362 -0.023206027 0.025289994 -2.3964508 -2.253784
-3.8204618e-07 1.5132523e-06 -0.0005973227 -0.0014132402 -0.0029851103 -0.00509339 -0.0015897603 -0.0010412085
-2.0516702e-06 2.8183958e-06 -2.0222531e-05 2.8631443e-05 -4.1971257e-06 3.9659963e-06 -4.151454e-07 1.3366358e-07
3.8267146e-11 -2.4184718e-10 -1.6615917e-05 3.283724e-05 -8.459682e-06 1.5288446e-05 -1.7982142e-06 1.0255036e-06
-1.2336653e-06 8.0485165e-07 -6.1614054e-07 2.8582144e-07 -1.8826324e-06 -3.5948568e-05 -5.4519614e-06 -1.9153846e-05
-2.8030117e-06 1.4356757e-05 -4.852015e-07 2.8004442e-07 -1.7099767e-06 -5.9937024e-06 -8.322686e-08 2.6876439e-08
-8.0021493e-07 1.0072721e-06 -1.7142279e-06 1.0999116e-06 0.0005789226 -0.00042644117 -1.9824295e-06 2.392765e-06
-5.6728726e-07 5.3396354e-07 -5.2493447e-06 7.518558e-06 -3.3314666e-12 1.9214163e-11 -2.2382311e-07 3.4070624e-07
-1.373709e-06 2.3418017e-06 -6.8407246e-07 8.491676e-07 4.111056e-08 2.5756854e-08 -1.2425467e-06 1.2536888e-06
00000000: 1c7e b7bd 2277 3fbd ad56 b636 4c1d 1737
00000010: 1bd1 bbbd 0521 64bd a6cf d4bd ac80 7bbd
00000020: fb4f 3841 4067 3e41 4fa0 a0bf 9d77 8cbf
00000030: 2317 cfbe f856 8dbe 7692 52be 4aff 57be
00000040: b54e e6bd 0fd9 86bd 40a7 cabd c78a 03be
00000050: e3d1 ddbc 508e 37bd 1a05 57bf 9218 53bf
00000060: 5c9f 80c0 58f2 7ac0 abb3 24bc 13de 54bc
00000070: 0acb b8bf 120b d3bf 0458 0eb6 199b c236
00000080: 1fee fab7 b002 d9b7 09f3 20b9 9ea3 b1b8
00000090: 2c77 d0bf d8b0 bbbf d412 dbbd c466 82bd
000000a0: b498 d632 f67f 0d36 0971 4bc0 7c17 45c0
000000b0: 456e 8db7 e8c1 76b7 56ff 48c0 c416 41c0
000000c0: 6465 e9be 00c7 b3be 37eb b2bd fa4a 54bd
000000d0: aa60 2335 ca1c 0536 cc9c 34b3 06f5 2036
000000e0: 9e45 3ebf 75e8 43bf 350a 6134 39ce d635
000000f0: ddfe afbc 086b d7bc eb7f 6ebd 6aed 96bd
00000100: f655 c3bd 92e2 60bd 61d6 cebd f415 7ebd
00000110: 71a2 acbd 1720 52bd 9cb2 83bc 63aa 93bc
00000120: 4e0f 78ba c0f9 18ba 38f8 8fbe 278c a9be
00000130: 8c6f 7fbf 2d6c 78bf dad3 2abe a839 5bbe
00000140: 9ff8 bbb4 c90a e935 ee42 0eb6 ea4f 2337
00000150: 0ceb e034 aa00 bf35 cbe6 6fba d366 e6ba
00000160: 89bf 9cbf cb00 88bf 6751 f3be 0762 c2be
00000170: bf53 e7bf 567b d9bf 64f4 57c0 a17f 53c0
00000180: 3be6 82bd 06be a2bd fc32 c4bc 22ed 9bbc
00000190: 15a2 f4bf fbf7 0fc0 ddeb 27bc c9a5 b0bb
000001a0: 91d5 8db7 e271 3238 1707 d3b6 705a b1b7
000001b0: abff 46b7 4bb8 53b7 39a4 a33d 8f16 ce3d
000001c0: b2d9 65bf 57d4 90bf 6b16 b1b7 1ee1 2538
000001d0: 3e69 43bf 6b41 39bf 8ede 48bf 5321 4ebf
000001e0: 5598 93bf f62d b0bf 036d a5bf 73fe 97bf
000001f0: 355a 0cb4 93a2 49b4 06aa c0bd b010 86bd
00000200: 8b4c 23c0 171e 20c0 e1df 06b8 3c99 f6b7
00000210: ba46 bebd 3af6 64bd 96d6 01b7 fcb2 0238
00000220: 01d4 1ebc 83e2 b2bb 7bdf 14be 4ff2 35be
00000230: 423b 3fb7 97e3 0038 4da6 dabd 13d5 7cbd
00000240: 543b 35bc 8ab7 50bc e53e 7c3f 8c29 9d3f
00000250: deca 8dbb 2f1b babb 477c a3bb 9ca7 cbbb
00000260: a8dd 11b8 7b03 4139 3cd8 1ebd 3880 24bd
00000270: 41c7 7abf 6aec 94bf f1ca acbc 5181 3bbc
00000280: 5077 f0bb 420f 04bc a70f 64be 5364 82be
00000290: a650 22bb 7193 eaba 498a d1bc f701 5abc
000002a0: 9f48 cfbe 8e7a 87be f47c 0fbf e118 32bf
000002b0: bbf0 b0b4 442d 9636 36de b9bd dbde 59bd
000002c0: 6217 9dbf f48b a4bf 8f97 ebb8 6117 ee38
000002d0: bae6 85bd 2cf5 1fbd 0894 1a36 1e9a 5d36
000002e0: 2814 2ab8 3f59 af38 f111 cbbd aabd 67bd
000002f0: 911a bebc f62c cf3c 735f 19c0 ff3d 10c0
00000300: 071c cdb4 f41a cb35 a695 1cba 793c b9ba
00000310: d7a1 43bb 74e6 a6bb 815f d0ba 2979 88ba
00000320: 6daf 09b6 ac23 3d36 8ea3 a9b7 8e2d f037
00000330: 09d5 8cb6 a613 8536 26e1 deb4 2a85 0f34
00000340: fa4c 282e f7f4 84af 6962 8bb7 b8ba 0938
00000350: 0fee 0db7 b03f 8037 2b5a f1b5 09a4 8935
00000360: 6b94 a5b5 fc0c 5835 db64 25b5 0073 9934
00000370: c2ae fcb5 7bc7 16b8 feef b6b6 92ac a0b7
00000380: 601b 3cb6 cddd 7037 cb3e 02b5 0359 9634
00000390: 5a82 e5b5 831d c9b6 73ba b2b3 eadd e632
000003a0: 5ace 56b5 9b31 8735 6c14 e6b5 ada0 9335
000003b0: d7c2 173a f793 dfb9 e109 05b6 6493 2036
000003c0: af47 18b5 b255 0f35 8723 b0b6 ec47 fc36
000003d0: 5e6e 6aac 7302 a92d 0754 70b4 4fea b634
000003e0: 4860 b8b5 d927 1d36 1aa1 37b5 5af2 6335
000003f0: 8a91 3033 ec3f dd32 94c5 a6b5 6b44 a835
