lightning_logs/version_48/checkpoints/epoch=26-step=10395.ckpt (torch, 321461 bytes, 18 tensors)

station_embedding.weight f4 [70, 2]
00000000: 1567 1b40 4442 92be 0531 09bf 60da 073f
00000010: f6fa 0e3f 460c bd3e 64ac 3e3e 5c3e 683f
00000020: 304c fe3f f5ad 2e40 a807 d6bf 16d4 1a3f
00000030: ffec 11c0 2edc 19c0 464a 703d 8119 adbf
00000040: 0c87 963e 18c4 903f 54ab b43e 8a52 373f
00000050: e29e a2bf 4101 93c0 4d1d 01c0 9337 1fbf
00000060: 7c2f 28c0 db73 b5be 8aa2 e3bf ed09 8c3e
00000070: b660 31bf 8488 22be e8f2 88bf 5755 3abf
00000080: a80e 213d f230 883f e094 32c0 6f52 3bc0
00000090: dc06 783f 9a11 553e 27e2 d0be 6d57 abbf
000000a0: 4ea1 eabe f8e8 1d3f 9c44 993c 557d 283f
000000b0: 2914 2abf f398 e73e a4f3 34bf b92c c3bf
000000c0: 2644 70bf 20fc 28c0 ab95 9040 192c cc40
000000d0: a2fe b73f 269b 4abf e7b1 8abe c148 ecbe
000000e0: 0611 2c3f eb69 8c3f 035b 083f b835 bd3d
000000f0: 81cd 3f40 d87e f63f 22bd e8bd cfb1 803e
00000100: 88b8 0540 e408 1040 48fa 033f 96ea eb3f
00000110: 6bf0 983d 0092 06bf 838c 27be 51cd d7bf
00000120: de5a c0bf a34e adbf b547 863f d61c 273f
00000130: 6987 5d3f 9746 81bd 0080 39c0 cd9e 4dc0
00000140: 41d3 0bbf b9cd 803d 2075 d13f 27e2 ad3f
00000150: 97f5 083f 5a38 30bf cab3 44be 1be7 d3bf
00000160: 8482 ecbf b02b 40bf 303d 0bc0 c7d7 5ac0
00000170: 8573 16c0 d78a 40c0 aedd 6abf 91ec 56bf
00000180: 6704 793d da8f 6d3e 5092 bfbe f298 0a3f
00000190: 3214 823e 6e2e 8b40 89ef 83bf 8290 9bbf
000001a0: df41 5440 9238 51be 8fc2 1a3f 99e1 633f
000001b0: 8a96 0c40 818d 1140 0a50 b43b da43 2e3f
000001c0: d4e4 4abf 968a a5c0 a17f c03f 73c9 673e
000001d0: 34fa 76bf d7bc cfbf b932 da3e 0ffd e63e
000001e0: b37f 41c0 4612 62c0 592a 853f 840c 3540
000001f0: 73bf 32bf 1247 433e 5bf6 2dc0 fe6b 18bf
00000200: 1b53 eabd 9a2a f4be 599d 223e f05f 86bc
00000210: 61fa d5be b319 c2be 9eb4 333f c446 b13f
00000220: 0b9a 14bf fc54 bbbf 6f5f 393e bdbf bebf
2.4281666 -0.28566182 -0.5359042 0.5306759 0.55851686 0.36923426 0.1862045 0.9072015
1.9867 2.7293675 -1.6721087 0.6047987 -2.28009 -2.4040637 0.058664583 -1.3523408
0.29399908 1.1309843 0.35286963 0.7161032 -1.2704737 -4.593903 -2.0174134 -0.62194175
-2.6278982 -0.35439953 -1.7783978 0.27351323 -0.69288194 -0.15872389 -1.0699129 -0.7278647
0.039320618 1.0639937 -2.7903366 -2.9269063 0.96885467 0.20807496 -0.4079754 -1.3386055
-0.4582619 0.6168361 0.018709473 0.6581624 -0.6643701 0.45233878 -0.70684266 -1.5248023
-0.93853986 -2.6403885 4.51827 6.380383 1.4374583 -0.7914299 -0.27088854 -0.46149257
0.67213476 1.0969824 0.5326387 0.09238762 2.996918 1.925746 -0.11364199 0.25135657
2.089388 2.2505426 0.51553774 1.8430965 0.07467731 -0.5256653 -0.16362195 -1.6859533
-1.502773 -1.3539623 1.0490633 0.65278375 0.86534745 -0.06312292 -2.8984375 -3.2128174
-0.5461922 0.062892385 1.6363869 1.3584641 0.5349974 -0.68835986 -0.19209209 -1.6554903
-1.847733 -0.7506666 -2.1756096 -3.41942 -2.3508008 -3.008474 -0.91744506 -0.8395472
0.060795214 0.23199406 -0.37416315 0.54139626 0.25406033 4.3494177 -1.0307475 -1.2153475
3.3165205 -0.20431736 0.6045312 0.8901611 2.1966882 2.2742617 0.0055027055 0.68072283
-0.79255414 -5.173167 1.5038949 0.2263544 -0.9647553 -1.6229504 0.42616823 0.45114943
-3.0234191 -3.5323653 1.0403548 2.828889 -0.6982338 0.1907008 -2.7181613 -0.59539783
-0.11441632 -0.47688752 0.15880336 -0.016403168 -0.41792586 -0.37910232 0.70197475 1.3849721
-0.5804755 -1.463531 0.18102811 -1.4902264

lstm.weight_ih_l0 f4 [4000, 2]
00000000: 98ba 1e3e 60dd f43d 7cec 29bd c5fe 9fbd
00000010: aedd 183e 0c6e f43d 0827 0e3e 34e8 ee3d
00000020: 3a32 303e 8754 363e df53 43be b583 5cbe
00000030: a690 2f3e 98d6 173e cdf0 ac3d 255b af3d
00000040: 9507 eb3d e239 b53d aa12 6dbe 6927 96be
00000050: ae1c 3dbe 184e 66be e612 09bf 64e9 30bd
00000060: 3192 033e 2b7f fd3d cd2b 0a3e df24 133e
00000070: d408 e03c e5b7 853d 68d0 ca3d 2b72 cd3d
00000080: 4c46 583e 3542 753e e2f1 213e df7a e13d
00000090: 5b86 c63d 801c 1f3e 4071 653d e537 833d
000000a0: 8bd6 943d 6877 533d 1e53 ea3d 4a54 c63d
000000b0: ab4e ba3d 2ef8 8c3d 28e0 b33d 97b0 f33d
000000c0: a310 a33d 72b4 e93d a7b6 3e3e 0941 1e3e
000000d0: 5d52 d53d 68bb ae3d fb81 d93d 3340 de3d
000000e0: fbe3 073e 58e6 fd3d 19e4 173e beae 1d3e
000000f0: 90cd ad3d cfd9 c53d e299 97bd 0085 b6bd
00000100: 21a3 983d b2dc c63c a3eb 653d 9e5c 363d
00000110: 75c7 29be c33e 11be 1f0d 313e 6850 3a3e
00000120: 02fe 403e bbc3 1f3e cd07 ab3d 42c9 2e3d
00000130: b9a1 063e 2bfc d23d b70b 83be 6423 80be
00000140: 6dca 043e 8dd1 1c3e d2cf 2b3e 1fe4 1c3e
00000150: 4f4d 87be fdff 89be 4185 523e 244b 3b3e
00000160: b0d8 893d 8675 e23d 8c8f 983d 9890 7b3d
00000170: b1d4 bf3d 8e6e b33d 28f0 9dbe 889a d1be
00000180: 4031 7b3d 16f8 9a3d 6c46 ebbd eb44 2bbd
00000190: ad3e bb3d 84f2 a63c 150a 713d eb40 9e3d
000001a0: 9b9d 113e 05ad 053e 32ed 903d 20eb ae3d
000001b0: 8ae6 043e 5cff bd3d 284b 193e 5e96 ee3d
000001c0: 7a6e ae3e d07e 933e ea10 cf3d 242c d43d
000001d0: 06e2 7a3d 8f60 a33d b20a a73d 0373 cc3d
000001e0: c2cc 053e 4127 333e fd4b 1b3e 41fc 383e
000001f0: 99c5 093e 2bf3 ea3d 203a 993d b9d4 9a3d
00000200: 60d6 843d e746 973c cff1 1d3e 9b30 0c3e
00000210: f3cf 143e bd9e 1b3e fc42 e33d 2a45 bc3d
00000220: 62b9 d83d 76ec 603d 5c41 2e3e 0f2d 0a3e
00000230: fd17 e43d 72d7 a23d 08cb f23d 8946 053e
00000240: 4e73 043e 84d2 0e3e 3027 293e 0ff6 293e
00000250: 043d d23d 9c0f 133e 0f07 943d 4b51 5b3d
00000260: 4cc7 cf3d 3430 3c3d e03b 153e 45b6 fb3d
00000270: c186 763d 019c b43d 2861 e03d 18e5 fc3d
00000280: ef89 d13d 4d68 c73d e2af bc3d 0675 f23d
00000290: 7ecc f13c 4fb1 4f3d b1ab 903d a1bb 953d
000002a0: a28f 7fbe 0aab 83be 2494 db3d 9e91 343e
000002b0: a580 d53d f400 873d fb89 863d 45c6 c13d
000002c0: a39e 3e3d 25c8 233d 6601 d23d 113d b33d
000002d0: ea3c 6f3d e587 cb3d 16ad d0bd bbda fbbd
000002e0: 8dba 4f3d b090 7e3d 9083 d6bd 022b ddbd
000002f0: ce47 ed3d 5473 093e d240 233e 6561 303e
00000300: af16 323e 6929 3b3e 39e6 be3d 4762 ba3d
00000310: 7cd7 b5bd c7e7 11be 2b56 1a3d 514d 763d
00000320: 9f3f bebd afc8 83bd d77f 483e 16b5 2e3e
00000330: 3ceb 0e3e 9ca8 1c3e f4e7 e53d 5533 d83d
00000340: 8864 643d a63f 823d 62b5 89bd 72a9 93bd
00000350: affb 78be 3c94 7bbe 8ea7 153e 51e6 023e
00000360: 7de7 9a3d 1111 5d3d df8f 253e 2c50 353e
00000370: 3933 8b3d 618c b03d f7b3 033e 21b7 fe3d
00000380: df72 cfbd 7d47 94bd a131 bf3d e383 413d
00000390: c6af 293e c024 2b3e 768e 9c3d 5df1 ef3c
000003a0: f8e7 a93d 529a 8a3d c71d 1ebe 5692 8fbe
000003b0: 3ec0 c83d 0ca4 013e 4da5 b83d 654c cc3d
000003c0: 3349 8f3d d0f1 8e3d e269 3e3d e6c4 353d
000003d0: fce0 2abe 6027 5bbe 3371 6f3d 9446 af3d
000003e0: f833 f53c e20f 8e3d ceda 6ebe 88a4 9ebe
000003f0: 5d93 c33d 4df0 ca3d c64b 2c3e d90a 373e
0.15500867 0.119562864 -0.041485295 -0.07812265 0.14928314 0.11935052 0.13882077 0.11665383
0.1720666 0.17805682 -0.19074963 -0.21534617 0.17145023 0.14827955 0.084443666 0.08562306
0.114760555 0.08848931 -0.23151651 -0.29326943 -0.18467972 -0.22490728 -0.5354446 -0.04319133
0.12848736 0.12377771 0.13493271 0.14369534 0.02734796 0.06529216 0.099030316 0.100315414
0.21120566 0.23951037 0.15814927 0.11009764 0.09693595 0.15538216 0.056016207 0.064071454
0.07267483 0.051627547 0.114416346 0.096840456 0.09097036 0.06883274 0.08782989 0.11898916
0.079621576 0.1141137 0.18624364 0.15454496 0.104161 0.08531839 0.10620495 0.10852089
0.13270561 0.1239745 0.14833106 0.1539869 0.084864736 0.09660684 -0.07402398 -0.089120865
0.07452989 0.024275158 0.056132924 0.04452192 -0.16579993 -0.14184098 0.17290162 0.18194735
0.18846896 0.15602009 0.08351097 0.042672403 0.1314763 0.103020035 -0.25594875 -0.25027
0.12967844 0.15314312 0.16778496 0.15321396 -0.2642617 -0.26953116 0.20558645 0.18290383
0.06730783 0.11057572 0.074492544 0.061417192 0.093667395 0.08761321 -0.30847287 -0.4093821
0.061326265 0.0756685 -0.11488041 -0.041813772 0.09142814 0.020379312 0.058847506 0.07727226
0.14220278 0.13054283 0.070764914 0.0854094 0.12978569 0.092772216 0.14970076 0.11649774
0.34068662 0.28807688 0.10110648 0.10359982 0.06125071 0.079774015 0.08156337 0.09982874
0.1306639 0.17495443 0.15165706 0.18064977 0.13454284 0.11472162 0.074817896 0.07560105
0.06486201 0.018466426 0.15424274 0.13690417 0.14532451 0.15197273 0.11096761 0.091928795
0.10582234 0.054913007 0.1701712 0.13493751 0.11137388 0.07951249 0.118551314 0.13015188
0.1293461 0.13947493 0.16518855 0.1659777 0.10265544 0.14361423 0.07227909 0.053544324
0.10145435 0.045944408 0.14573622 0.122906245 0.060187105 0.08818818 0.10956031 0.12348384
0.10231387 0.09736691 0.092132345 0.11838727 0.029516455 0.050706204 0.070639975 0.07311178
-0.24957135 -0.2571643 0.10721615 0.17633674 0.104249276 0.06591979 0.065692864 0.09461645
0.046538007 0.039985795 0.10254173 0.08751882 0.0584077 0.09938029 -0.101892635 -0.12297579
0.050715018 0.062149704 -0.10474312 -0.10799219 0.11585961 0.134229 0.15942696 0.17224653
0.17391466 0.18277515 0.09321255 0.09100776 -0.08878991 -0.14248572 0.037679832 0.06013233
-0.092894785 -0.06434762 0.19580017 0.17061266 0.13956922 0.15298694 0.11225882 0.10556666
0.055759937 0.06359796 -0.06724049 -0.072100535 -0.2431476 -0.24568266 0.14614698 0.12783171
0.07563684 0.053971354 0.16168164 0.17706364 0.06796879 0.08620525 0.1286162 0.12437273
-0.10129332 -0.07240198 0.09335638 0.047244918 0.16570958 0.16713238 0.0764436 0.029289896
0.08296198 0.067677155 -0.15441047 -0.28041333 0.09802292 0.12660235 0.090159036 0.099755086
0.069963835 0.06979716 0.046487696 0.04437723 -0.16687387 -0.21401739 0.058457565 0.085583836
0.029932007 0.06936623 -0.23325655 -0.30984902 0.09549592 0.09909115 0.1682578 0.17875232

lstm.weight_hh_l0 f4 [4000, 2]
00000000: 5856 283e aadc 2e3e 9684 2d3e 345b 453e
00000010: 5e79 223d be01 373d 3cd9 1e3e 98e9 363e
00000020: 5923 b43d 4ee6 bf3d c94a 43be ec65 1bbe
00000030: 825b 913d 0090 403d 9f73 463e eca9 6e3e
00000040: b340 a23d b073 2c3d ddd7 60be 6f86 5bbe
00000050: 9040 cebd e57f 05be 8237 6dbd 888b 233d
00000060: b78c 573e 9563 243e 2d60 493d 5af7 a13d
00000070: 0077 633d b0c1 2f3d 9ae1 903d 2d91 903d
00000080: 4769 b73e d8c6 983e 01dd 413e 7e3b 0e3e
00000090: 3af7 813d e44b 153e 1dd6 063d ba11 883d
000000a0: 23aa 6e3e ff2b 4e3e 6d92 733e 71e0 423e
000000b0: dd95 443e 907f 4d3e 04c2 783e 9a07 843e
000000c0: 2e34 b03d 1ed2 043e b3e8 aa3d fe46 b63d
000000d0: 4553 863d 859f 6d3d 19e3 623e 31f5 843e
000000e0: 1a59 433e eee7 253e c1ac 833d 199b 5e3d
000000f0: 6d65 8a3d 4d8a ae3d 27b3 8c3e 73dc 923e
00000100: fcde 423e 04a0 423e 4ded 693d d072 7b3d
00000110: 5e6f c4bd a369 9bbd 924a 963d 3339 e43d
00000120: a073 b93d 35ce 7f3d d1d0 4e3e b874 583e
00000130: 5a80 1b3e e10d 133e ba5d 92be 8f2d 87be
00000140: b69b 283e 831d 363e 5092 ab3d 8247 a33d
00000150: 6349 5ebe feda 40be ffd5 223b b921 563d
00000160: 49f0 ae3d b0c9 153d 60d8 273d e762 e63c
00000170: 4c66 273e a1de 5a3e 3da6 1fbd e867 513c
00000180: 0fc0 1e3d 9767 4c3d 8f6f b03e ce73 c73e
00000190: cf20 283e accc 1c3e 181d 513d 63e3 893d
000001a0: ca54 443e e632 263e 8876 433d 97da 3f3d
000001b0: c520 ae3e d21d be3e e690 8d3e fda5 933e
000001c0: 4e0b 35be 1783 3abe f050 5f3e 0d3b 2f3e
000001d0: 6040 5a3c 2482 893d a660 563d 777b 0f3d
000001e0: 1e4b 0b3e a18e 163e c850 a13d e1d4 833d
000001f0: 868a 8b3d 08de 623d c081 5c3d 5a69 2a3d
00000200: 0607 633d 7b53 163d bd36 543e 5f2e 2c3e
00000210: cc8a b63d de24 923d ee19 8a3e aeb4 863e
00000220: e742 3c3e 9e25 3e3e 010c c93d 2070 2c3d
00000230: 0dd5 403e 27b3 1d3e ee1d 0b3d f773 c13d
00000240: c099 bd3d 43fa 423d ef9c 553d f871 8c3d
00000250: 3855 a63d 7459 ca3d 6c61 ac3d e8a8 733d
00000260: 8121 613e 79ad 523e d58b 393e cd03 303e
00000270: 1b6c 603e 911b 643e f679 9e3d 55be 8b3d
00000280: 1bbb 863d 1574 003d 72f5 6a3e 9b29 773e
00000290: 3472 743d e8ce 643d 4078 7c3d c2ac 9f3d
000002a0: 6704 7bbe 0fe8 62be 8c93 293e 042d 4a3e
000002b0: c33a 1b3e a83d 173e 9bad a83d f66c b73d
000002c0: d567 4d3e c02a 493e d888 393d b620 8d3d
000002d0: 7ba6 aa3d 5cd2 463d 5582 f5be 122c e4be
000002e0: 26b7 663d ed3f a03d 5b44 1ebe 4c08 ebbd
000002f0: fea2 4e3d b6e2 8c3d b472 853d 64b8 153d
00000300: 8be0 e13d b0be 853d c566 003d 3d9f 8a3d
00000310: 64f4 b73e 04a2 c73e b8ac 4c3d ec5a 913d
00000320: 6ec0 b53e 046e af3e e92a de3d e047 7a3d
00000330: b511 b03d 151e 693d a771 5c3e f10a 233e
00000340: 0c7d b63d 0bf5 a73d 551a 0abd b3fb 8bbd
00000350: 998a 92be 8788 7abe 9244 523d 6e18 d03d
00000360: 56f9 af3d d78f 863d 0ace 463e 31fc 383e
00000370: 756a 5e3d 548f c83d 3a45 4d3e edc4 613e
00000380: e2dc c7bd 8fed 00be 8ec7 433d ab6f b13d
00000390: b776 5d3d a6c6 173d e6ff 5e3e 08a1 3e3e
000003a0: c7d9 503d 03f0 3b3d 6f81 bfbd a30c 22be
000003b0: 2ed7 453e 8479 323e 1a34 843d 390a af3d
000003c0: b9e3 2c3d 1209 cd3d 8aa8 193d 7bc7 ab3d
000003d0: 2805 1fbe cba9 01be 58e2 be3d 40e5 913d
000003e0: 9f8a 973d 8e5e 013d ac05 8cbe c098 a0be
000003f0: 948d 963d 058e 573d 6666 eb3d 43d5 0f3e
0.16439188 0.17076364 0.16945109 0.19273072 0.039666526 0.044679396 0.15512556 0.17862546
0.087958045 0.09370099 -0.19071497 -0.15175599 0.07097532 0.04701233 0.19380043 0.23307008
0.07922497 0.042102516 -0.21957345 -0.21438001 -0.10070908 -0.13037069 -0.057914265 0.03992799
0.21049772 0.16053613 0.049163986 0.07908507 0.05553341 0.042909324 0.0707428 0.0705894
0.35822508 0.29839206 0.18931963 0.13889882 0.06345983 0.14579731 0.032919038 0.06644006
0.2330709 0.2013397 0.23786326 0.1903093 0.19197793 0.20068192 0.24292761 0.2578705
0.086037025 0.12970778 0.08345165 0.089002594 0.06558851 0.058013458 0.22156943 0.25968316
0.19076958 0.16201755 0.064294346 0.05434713 0.06757627 0.085224725 0.27480432 0.28683814
0.19030374 0.19006354 0.057111073 0.06138879 -0.09591554 -0.07588508 0.07338442 0.111437224
0.09055257 0.062452514 0.20196845 0.21138275 0.15185681 0.14360763 -0.28587133 -0.26401946
0.16465649 0.17784695 0.08377516 0.079726234 -0.21707682 -0.18833539 0.002484679 0.052278254
0.085419245 0.036569297 0.040977836 0.028123332 0.16347617 0.21373989 -0.038976897 0.012781121
0.03875738 0.04990348 0.34460112 0.3895554 0.16418765 0.15312451 0.051053137 0.06732824
0.1917297 0.16230354 0.047720462 0.046839323 0.34009376 0.37132126 0.2764961 0.28837577
-0.17680094 -0.1821407 0.21808219 0.1711237 0.013321012 0.067142755 0.052338265 0.035029855
0.13602874 0.14702846 0.07876736 0.06437088 0.068135306 0.055387527 0.053834677 0.041604377
0.05542662 0.036700707 0.20724006 0.16814564 0.08913192 0.07135938 0.26972908 0.26309723
0.18384896 0.18569037 0.09816743 0.04209912 0.18831272 0.15400372 0.03396409 0.09445947
0.09257841 0.04760195 0.052151617 0.06857675 0.08121723 0.09880343 0.08417019 0.059487253
0.21985437 0.20573987 0.18119748 0.1718895 0.21916239 0.22276141 0.07738106 0.06823412
0.06578656 0.031360704 0.22945192 0.24136965 0.059679225 0.055861384 0.061638117 0.07796623
-0.24513398 -0.22158836 0.16560191 0.19743735 0.15159135 0.14769614 0.082362376 0.089563295
0.2005914 0.19645214 0.04529652 0.06891005 0.08332535 0.048540458 -0.47950998 -0.44564873
0.056327008 0.07824693 -0.15455763 -0.11476192 0.05044841 0.06879179 0.065160185 0.0365528
0.11029156 0.065305114 0.03134801 0.067686535 0.35928643 0.38990796 0.049969405 0.0709742
0.35498375 0.34263623 0.10848028 0.0611037 0.08597127 0.056913454 0.2152773 0.15922143
0.089105695 0.08201035 -0.03371652 -0.06835117 -0.28621367 -0.24466144 0.051334925 0.101609096
0.08592479 0.06570404 0.19414535 0.18064953 0.054300744 0.09792963 0.20045939 0.22047777
-0.09758927 -0.12590621 0.047797732 0.08663877 0.054068293 0.03705468 0.21777305 0.18616116
0.05098894 0.04588319 -0.093508594 -0.15825133 0.19320366 0.17429167 0.0645525 0.08546872
0.04220936 0.10011496 0.037514247 0.08387657 -0.1552931 -0.12662427 0.093205154 0.07123804
0.07399487 0.031584315 -0.27348077 -0.3136654 0.07351223 0.052625675 0.1149414 0.14046197

lstm.bias_ih_l0 f4 [4000]
00000000: b76d 003e bc46 a5bd 66fe 2a3e e526 263e
00000010: 7d10 3f3e da1d 6fbe f109 2e3e 9b6e 833e
00000020: b22c ea3d 5dc7 9ebe bc0a 6ebe df87 3bbe
00000030: a3fc f13d e411 d43d f47c ea3d 2c8f c93d
00000040: 1501 023f f943 fc3d 212e ceba 91a2 b13d
00000050: 90a8 683d fec1 bf3d 498a bb3d 7c05 883d
00000060: 27f7 ab3d c407 1e3e d409 dd3d 9acc fe3d
00000070: 4a8f a33d ce32 373e 1b4d 143e 2d35 babd
00000080: 06fb fd3c 321d a73d 83cd 91bd 844b 113e
00000090: d8d1 2a3e cf7e 9f3d ebf0 f13d 1a62 c8be
000000a0: 6c9c f03d b3f8 253e d3eb 87be 0f2f a33c
000000b0: a540 b63d 2a2d fe3d 5b5f 4a3e ad7c 44be
000000c0: 8a93 d33c c2b7 4e3c e4aa b33c dcd1 d83d
000000d0: d0e5 203d 5e47 da3d b026 c13d 0529 493e
000000e0: 8a94 74bf 65b2 913d d12d a13d d926 0d3e
000000f0: cd4e 323e f7c3 253e 1751 893e 6cbc a53d
00000100: 683c 143d 1b46 f73d 6abb 153e 3bfe 063e
00000110: a24b 123e 86fe 2c3e d8bb f03d 76e9 0e3e
00000120: 5e8f e73d c415 163e fee9 d63d 4028 4e3d
00000130: 9c3e 4d3d 21ae e23d 4600 c53d b93a fe3d
00000140: 8c22 bf3d 9dd6 ffbb e3e4 873d c6f0 f93d
00000150: 1a4b babe fda9 0f3e 5a19 fa3d 7b18 dd3d
00000160: 51c1 b23b c50f cb3d b289 d83d 0f7b 10be
00000170: db2b b63d c110 7cbd 0763 1c3e 560d 0c3e
00000180: 3649 403e 5ec9 233e e6a5 b2be ff24 b73d
00000190: c351 bdbd 273a 353e 5ed5 183e 79f1 a03d
000001a0: dec2 9a3d 8425 43bd 3a09 abbe 72e8 033e
000001b0: 68e7 ab3d 4312 373e f768 013e 5143 653e
000001c0: 13c0 99bd 47fd d93d 036a 003e 4c1a 9a3c
000001d0: 9793 dd3d c0ce 80be 2241 063e a199 d83d
000001e0: a136 063e f0ec ae3d bfcb 2ebe 3f7f 453d
000001f0: 264a 4a3d ba59 c1be 034d 9c3d 485a 333e
00000200: 7796 2f3e 6c8b 00be b038 253e 6d72 763e
00000210: dc16 573e db1b 83be 4273 b33d 0ee8 9e3d
00000220: 7d53 ad3c a446 ee3d 518b e83d ede7 143e
00000230: 41fa 423e d0c8 abbd 9937 77bd 2acb 443e
00000240: 7bb0 b83d 15e7 123e 9a87 3c3d adbf 0d3e
00000250: 39e7 dc3d 396d f9bd 3080 2f3e 09de ca3d
00000260: 8da7 d63d 6d04 bfbe f2ab 11bd d221 c73d
00000270: 60c9 0b3e 8745 973d 5151 e73d 039e 1dbe
00000280: 07a8 0e3e 7b3f b03d 9268 f53d f2a0 86bf
00000290: e29c a63d 5e1d 883e 4723 1e3e 6896 c43d
000002a0: 5579 183e aab9 bebe e08f 943d e0a0 f73d
000002b0: 8d5a 053e e558 b23d 517f 433d b72f 89be
000002c0: d4e3 b03d 68be c6bd 9f7c ce3d ea40 023e
000002d0: fad6 313e 6d6e 0c3e 798a afbe 801e 033e
000002e0: 67a4 01be 539f f03d 8fdd fc3d ad03 f03d
000002f0: 6cfd 013e af17 313e 2a48 db3d 84d7 af3d
00000300: 519f fe3d 7d42 873d 5f6a c43e 592a 4d3f
00000310: 6f7c 2f3d 630b fd3d c50d 2e3e 3cc7 e73d
00000320: 4def 8d3d a36a 1a3e 5132 303d 75c0 b63d
00000330: d735 6f3e d637 243e 64c1 913d 4c60 69be
00000340: 311a f83d eb48 c73d 9f9a 29be f085 2d3e
00000350: 8d13 9b3d a94a ef3d ffc8 9cbe 4393 2ebd
00000360: a7c6 703d 0301 a73d 51c8 cebd 7beb f63d
00000370: 5be1 be3d 02a3 a13d 424d 2c3e b243 063e
00000380: 244e 0e3e 3382 c33d c1e2 7fbd 785a c4bd
00000390: 85b7 073e 9593 2a3e 0a79 063d b0c7 003e
000003a0: 9f26 803d 3da6 f33d 41ed 223e 8551 c03d
000003b0: 7283 363d 57ef 363d e42a 0c3e 9364 f6bd
000003c0: 9fcf 093e a611 123d af74 3b3e 0618 a53d
000003d0: 77dd 373e f1c6 323e 732e b63d dbf2 ad3d
000003e0: 099e d93d 3e8c 2a3e d15b e13d 9142 143e
000003f0: a1de fcbd dc9e d83d 8b33 fa3d 7a16 063e
0.12541853 -0.08070132 0.16698608 0.16225775 0.18658634 -0.23351231 0.1699598 0.25670323
0.11434306 -0.31011477 -0.23246282 -0.1831355 0.11815765 0.10354975 0.11449614 0.09841761
0.507829 0.12317652 -0.00157303 0.08673585 0.05680138 0.09363173 0.09157235 0.06641671
0.0839675 0.1543265 0.1079289 0.124413684 0.079863146 0.17890474 0.14482538 -0.09092174
0.031003486 0.081598654 -0.071192764 0.14188963 0.16681612 0.07787859 0.118135296 -0.39137346
0.11748585 0.16208152 -0.26547107 0.0199199 0.08899049 0.12410958 0.19762938 -0.19188185
0.025827188 0.012617053 0.021932073 0.105869025 0.039281666 0.106581435 0.09431207 0.19644554
-0.9553915 0.07114104 0.07870067 0.1378435 0.17412873 0.16188036 0.2681968 0.08092579
0.03619042 0.120739184 0.14622274 0.13182919 0.14286664 0.16893968 0.11754578 0.13956246
0.11306642 0.1465674 0.10493849 0.050331354 0.050108537 0.11068369 0.09619193 0.12413544
0.09332761 -0.0078075663 0.066354536 0.12204127 -0.36385423 0.14029689 0.12211867 0.10795685
0.005455174 0.09915117 0.10573138 -0.14109443 0.088950835 -0.061539415 0.15272151 0.13676962
0.18777928 0.15994784 -0.34892195 0.08942603 -0.092441104 0.17697965 0.14925143 0.07858557
0.07556699 -0.0476432 -0.33405477 0.1288164 0.083937466 0.1787806 0.12637697 0.2238896
-0.075073384 0.10644012 0.1254044 0.018811367 0.10819166 -0.25157738 0.13110784 0.105761774
0.13106777 0.08541286 -0.1706991 0.048217054 0.04938712 -0.37763768 0.07631876 0.17514908
0.17147242 -0.12553185 0.16134906 0.24067087 0.21004814 -0.2560719 0.08762218 0.07759105
0.021157974 0.116345674 0.113546975 0.14541598 0.19040777 -0.08387911 -0.060355756 0.19218126
0.09018036 0.14345963 0.046027757 0.1384265 0.1078629 -0.12179036 0.17138743 0.09905631
0.104811765 -0.37308064 -0.03556437 0.097232476 0.13651037 0.07386308 0.11294807 -0.15392308
0.13931285 0.08605858 0.11982836 -1.0517867 0.08135392 0.26584905 0.15443145 0.09599
0.14890034 -0.37251025 0.072540045 0.12091231 0.13022824 0.087083615 0.04772884 -0.26794216
0.08637205 -0.09704286 0.10082363 0.12720075 0.17367163 0.13713999 -0.34285334 0.12804604
-0.12660371 0.11749139 0.123469464 0.11719451 0.12694329 0.17294191 0.107071236 0.08586028
0.12432731 0.066044785 0.38362405 0.8014274 0.04284328 0.123556875 0.1699744 0.11317298
0.069304086 0.15079741 0.043016735 0.08923427 0.23360382 0.16036925 0.071169645 -0.2279064
0.121143706 0.09730705 -0.1656289 0.16945624 0.075720884 0.11684162 -0.30622098 -0.04262091
0.0587832 0.0815449 -0.10096801 0.12056633 0.09320327 0.078924194 0.16826347 0.13111761
0.13896996 0.09546318 -0.06247211 -0.09587568 0.13253601 0.1665786 0.032830276 0.12576175
0.062573664 0.11896942 0.15910818 0.093905486 0.04455895 0.044661846 0.13688236 -0.12030902
0.13458107 0.035661362 0.1830623 0.08061223 0.17955576 0.17458703 0.08895578 0.08493587
0.10625846 0.1665506 0.11003841 0.14478518 -0.123471506 0.10577175 0.12216862 0.13094512

lstm.bias_hh_l0 f4 [4000]
00000000: 84ad 103e 8176 c8bd ece7 4b3e c6c6 0d3e
00000010: 2cb5 403e 8c86 91be 7290 083e 556a 6c3e
00000020: d083 ba3d 8f85 a3be 3691 38be 936e 39be
00000030: 33fd 143e 8d9d e83d 7cb7 d53d b68e e13d
00000040: 2a89 023f 572d 013e 0ad2 debc b2d1 8f3d
00000050: c971 ac3d c80e aa3d c677 d93d 7e6f d33d
00000060: 2598 003e 2b67 243e 4a7e a33d fd64 f53d
00000070: 05bb 003e 0753 143e 784e 193e c934 bbbd
00000080: fa57 803d 0c90 833d 1e49 c0bd 7d37 163e
00000090: 90c7 403e 054c cf3d 0e59 c73d bd5c c3be
000000a0: 37dc 9d3d d5e7 2b3e b8bb 5bbe 6cb8 183c
000000b0: b6a7 993d 78ff ce3d 0dc2 693e bd26 69be
000000c0: 6d0c 393d 242f 05bc e5a1 a23c 65d4 da3d
000000d0: abc8 ac3d 6179 9a3d cac5 7d3d ca75 363e
000000e0: 35fa 79bf 14cd 423d b71c da3c 8020 073e
000000f0: 362d 0b3e 9c82 0a3e e656 7f3e 5acc e63d
00000100: 8322 103d 8c06 093e 4092 143e f12c ef3d
00000110: 8652 1f3e 6020 eb3d 0157 e23d 70fa e73d
00000120: bdfc fb3d 30b7 273e d974 f23d 81c9 633d
00000130: c79b b13d 4323 9e3d 7c8f 8c3d 586e 1d3e
00000140: 9810 143e 035f 2cbc ea74 923d d4b9 fd3d
00000150: 8a07 a9be d012 1e3e ca6a ca3d 8d5d 063e
00000160: ed25 4f3d c5cf b73d 9524 f43d dd22 f8bd
00000170: 859f ca3d ae0d 95bd e8fa 133e d8b4 1a3e
00000180: e6e8 243e 2e71 243e 172a ccbe 130c 6e3d
00000190: 2e24 ffbd 8264 3e3e 04d0 053e 5b83 9c3d
000001a0: 3860 993d b1cc 4ebd 70d8 95be 8599 d03d
000001b0: bf7b ac3d 5e21 243e 3e09 ea3d 4fd0 513e
000001c0: 9db2 11bd 1ecd ba3d 8e38 203e afeb 293b
000001d0: af45 cd3d 609e 61be 63ae 173e 8f3a ca3d
000001e0: ebf6 c83d 6185 1b3d f3cb 14be a854 a53d
000001f0: a0d3 b13d 961a cabe 5207 a33d 435b 343e
00000200: a454 fd3d dedb 14be cd6a f73d 4d72 873e
00000210: 2f2d 473e 6322 63be f078 c53d 3e0a 9f3d
00000220: fe29 10bd a9b2 073e 1b79 c43d 9e16 273e
00000230: ef7a 463e ab36 f8bd 3a8d 62bd e1a3 663e
00000240: 4962 f53d ba25 2f3e e2e2 483d 3dc3 063e
00000250: 9963 ef3d cd88 c4bd 6ff8 303e 0301 123e
00000260: 2ddd cd3d 9a56 bebe f50e c1bc 79cc 023e
00000270: fa66 103e 9f18 f23d 787b 1b3e e592 f9bd
00000280: 0e90 f73d fd86 df3d 3204 d63d 0fb7 85bf
00000290: f4d2 8a3d 504b 8d3e a946 083e 67ce 8c3d
000002a0: 0e43 073e 8e96 d3be bce7 9b3d 39b5 f43d
000002b0: f362 053e c0be 0e3e b6d4 873d 837e 8ebe
000002c0: cd7a c43d 071b ccbd 8c42 d23d ba8b 113e
000002d0: 9df6 103e 56ce 413e 4eb3 aebe 0280 053e
000002e0: 0917 27be d727 063e f36a 243e 7e0f 203e
000002f0: 5834 2d3e 8d75 5d3e bdd9 033e 2bff f23d
00000300: eda5 0d3e 2b6d 343c d74e b33e f64e 503f
00000310: 84b7 563c 5096 143e d541 183e ec26 133e
00000320: 0ad3 4c3d 77ac 2d3e 8883 7b3d 7c20 af3d
00000330: 4114 823e 2cad 273e 8073 a43d 8655 86be
00000340: b2cc b53d c362 9a3d e072 e2bd ffbb 543e
00000350: 7dc9 813d 1f2c c13d 71ca b1be d0b4 1abd
00000360: c2e9 983d 6bd7 f73d eb4d 03be 5e0c ae3d
00000370: 7805 a63d 04eb 663d b66c 4f3e ae44 053e
00000380: 10ec 343e 0067 b43d 3dc9 b0bd 12c7 c4bd
00000390: a5c3 e43d 705e 213e b6e6 463d 5ab2 dc3d
000003a0: 0ae7 973d 8225 113e b6b4 1f3e da2b 0d3e
000003b0: 4655 c93c fed4 903d 8943 ec3d 31f8 e7bd
000003c0: fd24 9a3d 772b a63d 63e2 113e 83dd d33c
000003d0: 1bd1 273e a445 1f3e f44c 643d 8a31 193d
000003e0: 0879 f83d 9c7d 1c3e 2403 bb3d eb2f 413e
000003f0: 509b 0bbe 3f56 003e da4b f43d 0411 af3d
0.14128691 -0.09788228 0.1991269 0.13845357 0.18819112 -0.28422964 0.13336352 0.23087437
0.091071725 -0.31937835 -0.18024144 -0.18108587 0.14549713 0.113581754 0.104353875 0.11013548
0.50990546 0.12614952 -0.027199764 0.07022418 0.0842014 0.083036005 0.10618548 0.10324
0.12558039 0.1605498 0.07983072 0.119821526 0.12571342 0.14484797 0.1497134 -0.09140927
0.0626678 0.06423959 -0.09388946 0.14669605 0.18826127 0.101219214 0.09733783 -0.3815669
0.07708018 0.16787656 -0.21458328 0.009321313 0.075026914 0.101073205 0.22827931 -0.22768684
0.045177866 -0.008128915 0.019852588 0.10685042 0.08436712 0.075426824 0.061956204 0.1781837
-0.9764741 0.04755886 0.02662502 0.13195992 0.13591465 0.13526386 0.24935493 0.11269446
0.035189163 0.13381404 0.14508915 0.11678494 0.15558824 0.114807844 0.11051751 0.11327064
0.123040654 0.16378474 0.11838693 0.05561209 0.0867229 0.077215694 0.06863305 0.15374124
0.14459455 -0.010520699 0.07151206 0.123889595 -0.33013564 0.15436864 0.0988365 0.13121624
0.05057328 0.08975176 0.1192104 -0.12116025 0.09893707 -0.07278 0.14451182 0.15108049
0.16104469 0.160588 -0.39875862 0.058116984 -0.124580726 0.18593028 0.13067633 0.076422416
0.074890554 -0.050488178 -0.2926669 0.101855315 0.0842204 0.16028354 0.11427544 0.2048962
-0.03557073 0.09121154 0.15646574 0.0025927832 0.10023057 -0.22033072 0.14812617 0.098744504
0.09812721 0.037968997 -0.14530925 0.080727875 0.086829424 -0.39473408 0.079603806 0.17612939
0.123696595 -0.14536998 0.120809175 0.26454392 0.1945083 -0.22181086 0.096422076 0.077656254
-0.035196297 0.13251747 0.095934115 0.16317222 0.19382833 -0.12119802 -0.055310465 0.22523452
0.11981637 0.17104235 0.049044497 0.13160415 0.116889186 -0.09596405 0.1728227 0.14258198
0.100519516 -0.37175447 -0.023566702 0.12773313 0.14101782 0.11821102 0.15183818 -0.12186221
0.12088023 0.10914419 0.10450019 -1.044649 0.06778517 0.2759652 0.13308205 0.068753056
0.13209173 -0.41325802 0.07612559 0.11948628 0.13026027 0.13939953 0.06632368 -0.27830896
0.09593735 -0.099660926 0.10266599 0.14213458 0.14156576 0.18926367 -0.34121174 0.13037112
-0.16317381 0.13101135 0.16056423 0.1563091 0.16914499 0.21626873 0.1287603 0.11865076
0.13832827 0.011012356 0.35021088 0.81370485 0.013105277 0.14510465 0.14868863 0.14370316
0.05000595 0.16960321 0.061404735 0.08551118 0.25406078 0.16374654 0.080298424 -0.26237124
0.08876933 0.075383686 -0.11057067 0.2077484 0.06337259 0.094322436 -0.34724763 -0.037770092
0.07466461 0.121016346 -0.12822692 0.084984526 0.08106512 0.056376472 0.20256314 0.1301448
0.17668176 0.08808708 -0.08632133 -0.09608282 0.11170129 0.15758681 0.048559867 0.10776205
0.07417114 0.14174464 0.1559628 0.1378626 0.024576794 0.07071875 0.11536319 -0.11326636
0.07526586 0.08113759 0.14246516 0.025862461 0.16388361 0.1555391 0.05573745 0.03740076
0.1213246 0.15282291 0.091314584 0.18865936 -0.13633466 0.125329 0.1192853 0.08548167

lstm.weight_hr_l0 f4 [2, 1000]
00000000: 329d d1bd 7c0c bebe 78f6 b83d 65c5 5bbd
00000010: b234 9ebd a55d d9bd 22fe f33d ec2f b83d
00000020: cfc9 de3d 0809 d7bd a94e 30bd 7b32 c93d
00000030: 2823 a73d 25e5 e83d 70eb e93d fce5 ee3d
00000040: 5f14 3e3f 5286 c6bd 6c33 9d3e 891d adbd
00000050: ae45 a33d ee44 cabd b46d d9bd d75c a7bd
00000060: 4330 13be 7565 653d fbb8 8abd fbff 13bd
00000070: 82b7 163e 9ee8 e0bd 3697 f6bd 9fa4 9ebd
00000080: ae86 cc3d 8b4f d1bd d548 3c3d 10a8 06be
00000090: 3ded 603d 7a27 dfbd d1c1 ccbd 69d0 593f
000000a0: 4431 f63d 1b61 973d 4409 bf3d a548 c5bd
000000b0: 9d7d 013e ad72 9cbd 1252 d03d 8cbb 003f
000000c0: e685 cd3a a0d4 ff3d ccdc fc3d 4a76 eb3d
000000d0: 79f6 d5bd 73e7 1bbe c54e 893d 0a5c b03d
000000e0: 6ba6 ba40 2cd2 aebd 4233 bbbd 583c d73d
000000f0: a574 75bd e0eb 9dbd 804c b6bd 64a5 abbd
00000100: b86a dc3d 3ed0 d03d f1a0 ddbd 50f0 06be
00000110: 0012 0f3e 85f5 dfbd 4bd6 e6bd 12cc ca3d
00000120: f48a c5bd fbc5 d9bd b964 01be 7019 553d
00000130: f050 01be baaf bbbd 3502 ebbd b562 f83d
00000140: 5aa8 c1bd e1fa dabd 9771 eebd 59ee f93d
00000150: 143b 35bd ddaa cf3d 9807 c13d cea0 bdbd
00000160: fce4 92be 4402 b63d 6b6a ddbd 8d34 7f3d
00000170: 90a4 e9bd 35a6 a6bc b426 ed3d 2d2c 9a3d
00000180: 9816 d83d 0776 d23d 2d5e 393f 1f4d b73d
00000190: 6e77 bd3d 5418 f8bd 46a4 00be 41d0 fdbd
000001a0: 8bd1 d2bd 8df8 c1bb 4999 01be 6a68 a2bd
000001b0: 9f85 f5bd 4f9d 893d 47cf cbbd 46e1 bb3d
000001c0: 1bd1 433c f865 b03d aa25 443d 3761 cd3d
000001d0: 5e60 f3bd 7643 afbd 2e5c c83d f5b7 e23d
000001e0: 1a35 ee3d 2ada b2bd ef20 fabc 9c2a 9e3d
000001f0: d05d b6bd 67c4 a1bd ceb4 ad3d d310 da3d
00000200: cb3c d93d b883 dfbd 31d3 97bd 1b1c fe3d
00000210: 8f45 efbd b040 a4bd c74f fc3d be11 fdbc
00000220: 3421 353f e98d 8b3d 0908 adbd 0333 d0bd
00000230: 43cf 75bd 09b7 ebbd 49d7 493d f5e0 37c0
00000240: 8b31 e3bd 8a40 003e f685 8a3d 72bf 2dbe
00000250: 3863 85bd 3e1d 31be a934 f6bd 823f e7bd
00000260: 1c19 07be 07b7 ef3d 65a2 b3be 5d80 9e3d
00000270: 74e7 923d 5886 ea3d cdb1 c4bd 69b8 c6bd
00000280: 1256 07be 054a b3bd c508 dfbd d6d5 cdc0
00000290: 69a4 9a3d a72b 7b3d 9b5e bc3d 2ce0 e03d
000002a0: 399e 03be a0a0 bebf f150 01be 7b34 61bd
000002b0: fa0e e73d 8d3e 18bf 9b64 2c3f 3063 b03d
000002c0: c008 003e 6ea2 fdbb 4fe7 513e 084c d7bd
000002d0: e8b5 aa3d 2e19 da3d 0e56 433f 7eb0 ad3d
000002e0: 52f1 99bd 929c f63d fd96 eebd 8eae abbd
000002f0: 3a5b 043e 8693 ee3d ee0d f1bd 1086 6dbd
00000300: 817e 9e3d 949b adbe 354b 933e ee71 8940
00000310: 59fe 1c3d 6712 cd3d 9111 df3d 953a bd3d
00000320: 8780 c93d 7aa2 7cbd 111d 693d 21e8 f73d
00000330: deb0 183f 8680 8abd f249 87bd 43a6 aa3d
00000340: b896 9b3d 91e7 eb3d f003 2cbd ecf0 c1bd
00000350: 5eba 853d 2ab3 fb3d 10f7 96bd 93d9 df3d
00000360: 7032 e53d 5d49 bdbd 1401 fbbd 58e1 cc3d
00000370: 3179 e4bd d118 983d 955a fbbd 922f 1bbe
00000380: 1748 4dbd 586a c23d 90ff b23d 8110 41bc
00000390: b6c3 25be cec5 9bbd 5fd1 93bd facf 6bbf
000003a0: a88c b7bd 96a6 44bd d35e f9bd d8b1 db3d
000003b0: ced0 5a3f 12fc c3bd 69d7 fdbd 96ff bdbe
000003c0: e6d8 cb3d 23d5 c33d 2ec8 c0bd ce66 8d3e
000003d0: c8a2 903d affd 00be 586d 803d efec aa3d
000003e0: ea09 b33d 5d51 c5bd 0a02 f1bd 9849 de3d
000003f0: 4ce9 6a3d ba0f e9bd 8d48 ccbd ca4e b63d
-0.10235061 -0.371189 0.09031385 -0.053655047 -0.077248946 -0.106135644 0.11913706 0.08993515
0.10878336 -0.104997694 -0.043043766 0.098240815 0.081610024 0.11371831 0.11421859 0.1166496
0.74249834 -0.09693588 0.30703294 -0.08452899 0.07972275 -0.098764285 -0.10616627 -0.08172005
-0.14373879 0.05600496 -0.067735635 -0.036132794 0.1471844 -0.10981868 -0.1204056 -0.07746243
0.099866256 -0.1022025 0.045967896 -0.13150048 0.054913748 -0.108962014 -0.09997905 0.85083634
0.120211154 0.07391568 0.09327939 -0.096329965 0.12645574 -0.0763906 0.10171904 0.50286174
0.0015680164 0.12491727 0.12346801 0.11497171 -0.104474016 -0.1522501 0.06704477 0.08611305
5.8328147 -0.08536181 -0.09140636 0.105095565 -0.059925694 -0.07711005 -0.0890131 -0.08381155
0.107625425 0.10195969 -0.10821713 -0.1317761 0.1397171 -0.10935501 -0.11271342 0.099022046
-0.09645644 -0.10633465 -0.12636079 0.052026212 -0.12628531 -0.091643766 -0.1147503 0.12128202
-0.09455939 -0.106923826 -0.11642759 0.12203664 -0.044245794 0.101400115 0.094252765 -0.09259187
-0.28690326 0.08887151 -0.10811313 0.062305976 -0.11408341 -0.020342926 0.11579648 0.07527957
0.105511844 0.10276418 0.72409326 0.089502566 0.09251295 -0.12114015 -0.12562665 -0.12393237
-0.102938734 -0.005919522 -0.1265613 -0.07930072 -0.11988377 0.06719457 -0.099516444 0.09173827
0.01195171 0.08613199 0.04788748 0.10028308 -0.11883615 -0.08557789 0.09783207 0.11070243
0.11631222 -0.08733018 -0.030533282 0.07722971 -0.08904612 -0.07898789 0.084817514 0.1064774
0.106072985 -0.10913795 -0.074133284 0.124077044 -0.11683189 -0.08020151 0.12319904 -0.03089225
0.7075379 0.068141766 -0.08448798 -0.1016598 -0.060012113 -0.115095206 0.049277578 -2.8731053
-0.11093434 0.1252462 0.06763832 -0.16967562 -0.06513065 -0.17296311 -0.12021763 -0.1129141
-0.13193172 0.117048316 -0.35084835 0.07739327 0.071730524 0.11451405 -0.09604225 -0.09703142
-0.13216427 -0.087543525 -0.108903445 -6.432353 0.0755089 0.061320927 0.09197732 0.109802574
-0.12853326 -1.4892769 -0.12628533 -0.05498169 0.112821534 -0.59470445 0.6734101 0.086126685
0.12503338 -0.0077403104 0.20498393 -0.10512549 0.08335477 0.10649334 0.76303184 0.08480929
-0.07516731 0.12041582 -0.116498925 -0.08382903 0.12925425 0.116492316 -0.11770235 -0.05798918
0.077389725 -0.3390776 0.28768316 4.2951574 0.038328502 0.100132756 0.108920224 0.09239689
0.09838968 -0.061678387 0.056912486 0.12104822 0.5964488 -0.06762795 -0.06605901 0.08332493
0.07597107 0.11518777 -0.041995943 -0.0946978 0.06529687 0.12290032 -0.07371342 0.10930171
0.11191261 -0.092425086 -0.12256065 0.100039184 -0.11155928 0.07426608 -0.122731365 -0.15154865
-0.05011758 0.0949294 0.08740151 -0.01178372 -0.16187939 -0.076060876 -0.07217669 -0.9211422
-0.08962375 -0.04801043 -0.121762894 0.107272804 0.8547486 -0.09569563 -0.12394602 -0.3710906
0.099534795 0.09562137 -0.09413181 0.27617496 0.07062298 -0.12596773 0.06270856 0.08345973
0.08742125 -0.096346594 -0.11767967 0.10853881 0.057351395 -0.11379953 -0.099747755 0.089017466

exp_avg f4 [70, 2]
00000000: 1ebe 0c3b 09f1 ea3a e3d5 45bb 5886 f13a
00000010: 68de 71bb a08b 5f3a 645f 47ba 8b3c 1b39
00000020: 657c 45bb 9931 ebba 5c13 b13a 432f 79ba
00000030: 440a 2b3b 9aeb 2f3b bef3 0f3c 6da0 3b3b
00000040: 9870 9eba 3ee8 03b9 e851 173b 4c0c 31ba
00000050: cf51 59bc db02 5ebc 470f 793b 3fc3 953b
00000060: 620d aeba 7732 09bb a007 443a 27ae 22ba
00000070: 2f91 6dbb 26bd 8f3a b3f9 8ebc 6739 6cbc
00000080: edb7 3a3b ae12 d8ba 3061 2b3d c61c 2b3d
00000090: 844c 0f3b 4487 63b9 d772 1c3c c4ec 123c
000000a0: 48c1 123a 27cc fa39 cf39 1a3b 8b87 9eba
000000b0: 5ed4 ffb9 9022 ef37 fccf 873b 77d1 e83b
000000c0: 7cb4 493b befe b73b 219a bd3a a598 9239
000000d0: 991e f138 e522 e039 cd72 743b 3f59 6cb9
000000e0: e0db 32bb 0601 373a a27f e538 3ac4 82b8
000000f0: f8c7 cc39 947b b93b 320b 48bb d109 d23a
00000100: 2ff6 b8ba f81e 6d3b a70a d03b 4837 8d3a
00000110: 283d d1ba adc1 8239 0f97 1bba 700c 24bb
00000120: ad93 fa3b de6c b13b 1c75 85ba d772 6ab9
00000130: f76b 7d3b 7862 c8ba fc18 fc3c e645 013d
00000140: 76b6 283b 168f 5fba 31fe c03b ee22 8b39
00000150: d742 403b 9e54 a9ba dcfe 253c a9cd a53c
00000160: d82e c83b 05ee 203c 477e 2cbc ef0d f0bb
00000170: e2da 453c 4b60 173c 5d98 b33b 1c00 663b
00000180: 01ff 1bba 3068 043a 217f 2e39 4c1b 0739
00000190: e395 5239 48a7 a43a 0d73 df39 7aac 2f39
000001a0: b7b0 3bbb 8b8d ceb9 124a 3a3b f018 49b9
000001b0: 3027 6f3a 5774 aa3a 88b9 0539 e058 6db8
000001c0: 3df5 89bd 125d 9ebd d25a 233c 6811 1f3b
000001d0: 188e eebc c8b7 84bc 3d02 b5bb ac2b 073b
000001e0: db5b 413c 12e1 983c abb8 cf39 d4b7 78b9
000001f0: 80c6 9abb 12ec 103b 3add 83ba c8cf c63a
00000200: 1531 c13b 5245 32bb 6599 59ba 9076 673a
00000210: cf64 d339 e9de d7b8 5b7b d4ba 16c7 63ba
00000220: c19d 8f3a 522c 70bc f271 08bc 5df3 7dbb
0.0021475623 0.0017924617 -0.00301873 0.0018426878 -0.0036906246 0.00085275806 -0.0007605462 0.00014804506
-0.003013396 -0.0017943858 0.0013509798 -0.0009505639 0.0026098648 0.002684331 0.00878614 0.0028629557
-0.0012087999 -0.0001257965 0.0023089591 -0.00067538465 -0.013264134 -0.0135504855 0.003800349 0.0045703943
-0.0013279135 -0.002093462 0.0007477943 -0.00062057603 -0.0036249866 0.0010966405 -0.01745305 -0.014417983
0.0028490976 -0.0016485059 0.041840732 0.041775487 0.0021865675 -0.00021698797 0.009548864 0.008967582
0.0005598259 0.0004783582 0.0023532992 -0.0012094838 -0.00048795616 2.8507115e-05 0.0041446667 0.0071050483
0.0030777743 0.0056150844 0.001446549 0.0002796102 0.00011497475 0.00042750608 0.0037299872 -0.0002253996
-0.00272917 0.00069810485 0.000109433444 -6.235433e-05 0.000390589 0.0056604836 -0.003052425 0.0016024654
-0.0014111454 0.003618179 0.006348926 0.0010773921 -0.001596366 0.00024939832 -0.000593529 -0.0025031827
0.007646999 0.0054145893 -0.0010181996 -0.0002235876 0.0038669088 -0.0015288135 0.030773632 0.0315608
0.002574352 -0.00085280964 0.005889677 0.0002653817 0.0029336715 -0.0012918895 0.010131564 0.020239668
0.0061091 0.009822373 -0.010528154 -0.0073258798 0.0120761115 0.009239267 0.0054808096 0.003509528
-0.00059507793 0.00050509255 0.00016641292 0.00012884772 0.00020082998 0.0012562061 0.00042619594 0.00016753553
-0.0028639266 -0.0003939684 0.0028425497 -0.00019178144 0.0009122966 0.0013004643 0.00012752984 -5.6587975e-05
-0.067362286 -0.077325955 0.009970384 0.002427185 -0.02912049 -0.016200915 -0.0055239485 0.0020625396
0.011801685 0.01866201 0.00039619705 -0.00023719604 -0.00472337 0.0022113365 -0.0010060437 0.0015168125
0.0058957436 -0.0027201963 -0.00083007506 0.0008829618 0.00040320164 -0.00010293519 -0.0016211079 -0.0008689029
0.0010957049 -0.014659004 -0.008327948 -0.0038749792

exp_avg_sq f4 [70, 2]
00000000: 13a6 6639 7998 1039 c79c 3439 ebc2 7738
00000010: 820f 4d39 5137 1a38 073f 2d39 2257 2038
00000020: ac1a c039 aa71 573a c8cf c538 9be7 1838
00000030: 8608 643a 42bd 873a f889 0b3b 09b6 133b
00000040: 232e 6d38 edda 7c37 e835 ac39 d334 9e38
00000050: c314 003c 884d 403c 674b e43a 289d ac3a
00000060: e00a c939 f32e 8e39 53a8 d53a 9b56 813a
00000070: 24aa 2f3a 361f 8a39 7290 f73a dcf7 c23a
00000080: 5c42 6a39 2607 db37 d6bf 933b 3a67 863b
00000090: 2901 ac39 7c7e bb38 2d11 003a 3b02 0a3a
000000a0: 44c8 4539 6772 2738 c73a 0e39 1c06 0038
000000b0: dfe7 ef38 d30a f437 c96c a73a 7bef c33a
000000c0: 0e2c ad39 99e9 153a 0835 953a e701 853a
000000d0: 2b48 383a 8fea 1739 28e0 233a 402e ff38
000000e0: 7db6 233a cc16 a839 87ab d138 2f1e cd37
000000f0: ee97 263b 3a79 9d3b 4c5f 4b39 c24a 5838
00000100: de00 833a 58dd d33a fb7a 523a 4e3a 4339
00000110: c68f aa39 fa0c 2f39 f2cd 5b3a f31c 9e3a
00000120: d219 3b3a b7bc 2a3a ffa8 2339 41a3 3738
00000130: 0075 e339 286d c438 3f40 023c 6d4a 0e3c
00000140: 4e87 9839 0af2 9638 aca0 a339 522f 8d39
00000150: 8e26 9038 6ca3 cb37 9667 023b 5b51 1e3b
00000160: 4f44 5f3b 7a0c 463b 8e30 1a3c 4547 453c
00000170: c1cb ca3b 1758 e63b ab93 be3a 4951 893a
00000180: cebe a939 052f 8738 70b3 a938 e088 bb37
00000190: 13fb be39 3622 073a dfbd 6c3b fe20 983b
000001a0: e6c9 3139 965b 8d39 488b 9a39 89f5 8538
000001b0: c9ca 7d3a 26d7 013b d461 f738 a9dd ba37
000001c0: abb7 1e3c 514e 7b3c 627c 253b e543 cd39
000001d0: 5f3e 1c3b abf3 3f3b 146f 8539 eed0 2338
000001e0: 7b21 a03c bc44 c83c 0105 6e39 2e7b dc39
000001f0: 5101 6c39 8bd7 df38 34bb 1d3b e679 263b
00000200: 8b58 0039 faa1 1238 803c a439 03d2 9138
00000210: 3e75 da37 b867 dc36 bbb2 4d39 77ea 7038
00000220: f8af c63a 1be8 e23a 35f9 923a 8bef 973a
0.00021996377 0.0001378971 0.00017224542 5.907092e-05 0.000195561 3.676798e-05 0.00016522045 3.822812e-05
0.00036640966 0.00082185364 9.432394e-05 3.6455323e-05 0.000869878 0.0010356086 0.0021291953 0.0022538921
5.654817e-05 1.5071343e-05 0.0003284656 7.5438664e-05 0.00781745 0.011737235 0.0017417491 0.0013169395
0.0003834581 0.0002711933 0.0016300775 0.0009867729 0.0006701073 0.00026344665 0.0018887653 0.0014874893
0.000223407 2.6110163e-05 0.0045089526 0.004101661 0.0003280726 8.9404144e-05 0.0004885372 0.00052646146
0.00018861989 3.992245e-05 0.00013564072 3.0523268e-05 0.000114395974 2.9092107e-05 0.0012773509 0.001494869
0.00033029955 0.00057187077 0.0011383602 0.0010147662 0.0007029797 0.00014487862 0.00062513584 0.00012167962
0.00062451494 0.00032060442 9.997846e-05 2.445196e-05 0.0025420147 0.004805711 0.0001939509 5.1568037e-05
0.0009994765 0.0016163988 0.000802919 0.0001861837 0.00032532046 0.00016694135 0.0008384875 0.0012063071
0.00071373314 0.0006513106 0.00015607847 4.3782642e-05 0.00043383986 9.36634e-05 0.007949888 0.008684737
0.0002909251 7.197641e-05 0.00031209493 0.00026928872 6.8736364e-05 2.4275585e-05 0.0019898168 0.0024157378
0.0034067815 0.003021984 0.00941099 0.012040918 0.00618884 0.007029544 0.0014539858 0.0010476495
0.00032376352 6.44606e-05 8.091971e-05 2.2355875e-05 0.0003642669 0.0005154939 0.0036123914 0.004642605
0.00016955248 0.00026961853 0.00029476942 6.387669e-05 0.00096814014 0.0019812076 0.000117961 2.2276146e-05
0.009687345 0.015338496 0.002525114 0.00039151232 0.0023840887 0.0029289525 0.00025450496 3.905681e-05
0.019547215 0.024446838 0.00022699313 0.00042053446 0.00022507204 0.000106736166 0.002406788 0.0025402247
0.00012240016 3.4959965e-05 0.00031325594 6.9532565e-05 2.604222e-05 6.5685854e-06 0.00019616906 5.743882e-05
0.0015158644 0.0017311604 0.0011213185 0.0011591775

exp_avg f4 [4000, 2]
00000000: 3de2 9634 c65a 9234 f9bc 6cb4 31c6 80b4
00000010: 6e8e 12b2 7e80 1ab2 0e7a c333 e137 cd33
00000020: 98be 1032 5c4c 0a32 3da5 8533 9bfb e633
00000030: 456c b6ad af11 932e 7a7d 85b7 c68a 81b7
00000040: 89c1 fd36 b83f f736 e765 2331 55aa 5b31
00000050: ad29 5db4 0bc4 a435 abd7 fb34 8777 0835
00000060: e2a0 3f35 dddb 3935 3752 b134 5ec0 ab34
00000070: 1efb 303a 3f69 2c3a 1c38 1537 2b26 1137
00000080: 5f8e 4b30 7fc5 5b30 f717 f934 2df5 f134
00000090: dd4d cdb6 b227 a936 8ffe 0239 ad91 ff38
000000a0: 5fb9 3639 86ad 3139 dba7 c636 1579 c136
000000b0: 29b5 ecb7 1ebd e6b7 65ed 9a2d 2746 f62d
000000c0: 1946 9137 9bf4 8c37 7931 2032 e6f1 1832
000000d0: ab51 0e37 2aad 0a37 ba01 2036 bfb8 1b36
000000e0: 7544 a935 f36e a435 9aa1 b833 aa25 b233
000000f0: 3c0c 7f37 1eeb 7737 8447 2938 52b1 2438
00000100: 7cce 283a 5e88 253a 6dc5 b339 131d b039
00000110: 7c02 da31 129e 6a31 3cc4 2a32 0618 2232
00000120: 5acb 0532 8d35 fe31 ae99 6039 209b 5b39
00000130: ea4a 1336 b25d 0f36 bc70 44af ddac 6aaf
00000140: 122d 8434 c257 7f34 be8c e932 7567 e032
00000150: f382 4bb0 cb10 2930 e5ba 9a31 32ea 0632
00000160: d998 f337 8c23 ec37 eaf4 0039 a28e fb38
00000170: cecb d5b7 68f0 cfb7 f048 77b1 3340 33b1
00000180: 955d c1b8 5c1e bcb8 bde9 3639 5432 3339
00000190: 74a9 b139 117e ae39 5fa1 c938 d930 c438
000001a0: 835d e334 c780 dc34 adc1 14b8 a714 11b8
000001b0: 2714 5736 9f9c 5136 955c cd34 9e73 c734
000001c0: de0e 363b eafd 113b 8574 e736 e534 e136
000001d0: ad90 a4b8 21f1 9fb8 f677 9437 dd4c 9037
000001e0: 1d2c 2bb3 22ff beb3 99d3 c532 8f4c bd32
000001f0: c897 9e35 e744 9a35 de1d 2f38 9b95 2a38
00000200: 3f67 b73a 800d b43a 77da 4334 5180 3d34
00000210: 407e 0134 842e fa33 5cee da2d bef9 7f2e
00000220: 6473 c3b8 01e0 beb8 e5bd 0fac 829e e12d
00000230: 0317 4937 070c 4437 c341 6535 3266 5e35
00000240: 222a d8b4 4d69 d1b4 2f04 0733 8f66 0233
00000250: f12a ac35 9392 a635 8d84 f338 86cb ed38
00000260: 8c6e 9638 df17 9338 3f70 0735 737f 0335
00000270: ace7 8f38 37c8 8b38 0cc6 0d36 8b9b 0936
00000280: 1e60 1537 446c 1137 734a 0637 ee5d 0237
00000290: 038a ad3a 3d72 a93a 067d 9e38 895e 9a38
000002a0: bcf7 b930 2dc2 0e31 4e15 8434 432b 7e34
000002b0: c6e1 ff37 f4b9 f937 b114 1138 1ce3 0c38
000002c0: ca0a 293b 8a88 253b dee8 5e37 d032 5937
000002d0: 1f1c 4638 8422 4038 0935 e737 3786 3e38
000002e0: 204b ca39 0127 c539 a62c 7bb5 a9d3 72b5
000002f0: f3a3 7435 832a 6d35 386b b632 9a77 b032
00000300: 86b7 b931 7c16 ae31 b376 0837 7eb8 0437
00000310: 9a73 5cb8 fdeb 52b8 de6a 1f3a 194f 1b3a
00000320: 6dc6 b838 9a02 b538 eb16 a031 389d 9631
00000330: 873c 4834 6384 4134 04d0 8736 4e0f 8436
00000340: 0970 8939 feed 8539 5b31 9d30 bad2 1130
00000350: e276 04ae b55e 1aae cf3c 7d34 1c8e 7534
00000360: 1748 1339 aae3 0f39 197b 9832 edf2 9132
00000370: 26e5 04b8 ca7f 01b8 1ff2 3335 96cd 2e35
00000380: 0671 67b7 71ae 61b7 8f38 e1b4 1f1e 7db4
00000390: bd64 7c32 34ef 7432 e3f3 b839 c37e b539
000003a0: 5be1 c038 891a bc38 c478 1db5 889c 4135
000003b0: 8a23 2e36 a1e4 2836 331d 1e37 f3a3 1937
000003c0: 527a b038 d902 ac38 387e f839 c55e f339
000003d0: 14a6 2bb0 8898 1cb0 825a 09b8 783b 05b8
000003e0: 4a4f be39 c757 b939 d12b a730 1cce b230
000003f0: 42bc f236 ab0a ec36 a4ed 4132 fb7d 3732
2.8104287e-07 2.7260666e-07 -2.204796e-07 -2.398606e-07 -8.530703e-09 -8.9931955e-09 9.102597e-08 9.556221e-08
8.425239e-09 8.050019e-09 6.223352e-08 1.07559764e-07 -2.0739086e-11 6.687927e-11 -1.5913265e-05 -1.544262e-05
7.562518e-06 7.3685915e-06 2.3777547e-09 3.1965517e-09 -2.059739e-07 1.2276008e-06 4.6909312e-07 5.0837883e-07
7.138716e-07 6.9237814e-07 3.3028638e-07 3.1991198e-07 0.00067512866 0.0006576962 8.894156e-06 8.65156e-06
7.405329e-10 7.9952395e-10 4.63973e-07 4.5068137e-07 -6.1185406e-06 5.0412136e-06 0.00012492597 0.00012186482
0.00017425929 0.00016944678 5.920401e-06 5.765944e-06 -2.8217752e-05 -2.7506201e-05 1.7613197e-11 2.7998116e-11
1.7317989e-05 1.6803204e-05 9.3244745e-09 8.902566e-09 8.482874e-06 8.265759e-06 2.3842863e-06 2.3204336e-06
1.2611405e-06 1.2251243e-06 8.597563e-08 8.295622e-08 1.5202033e-05 1.477709e-05 4.0359344e-05 3.926579e-05
0.000643946 0.0006314571 0.00034288634 0.00033590998 6.3449175e-09 3.4141334e-09 9.939921e-09 9.435103e-09
7.787856e-09 7.398461e-09 0.00021419555 0.00020943256 2.1948313e-06 2.1363198e-06 -1.7866147e-10 -2.134359e-10
2.461971e-07 2.3780652e-07 2.7188772e-08 2.6124079e-08 -7.403706e-10 6.1505706e-10 4.5032373e-09 7.853076e-09
2.9039033e-05 2.8149945e-05 0.00012298269 0.0001199518 -2.5486483e-05 -2.478827e-05 -3.598469e-09 -2.6084421e-09
-9.220388e-05 -8.9701934e-05 0.00017443947 0.00017089519 0.00033886323 0.00033281793 9.6144846e-05 9.355107e-05
4.2350084e-07 4.107189e-07 -3.5466324e-05 -3.4589928e-05 3.2049227e-06 3.1234592e-06 3.8251588e-07 3.715076e-07
0.0027779858 0.0022276589 6.897901e-06 6.7116803e-06 -7.847077e-05 -7.6266246e-05 1.7698836e-05 1.720193e-05
-3.985416e-08 -8.893973e-08 2.3030042e-08 2.203731e-08 1.1816092e-06 1.1493947e-06 4.1751067e-05 4.067049e-05
0.0013992562 0.0013736933 1.8240267e-07 1.7648678e-07 1.205999e-07 1.1649993e-07 2.4889583e-11 5.8202103e-11
-9.319818e-05 -9.10163e-05 -2.0426935e-12 2.564993e-11 1.1985891e-05 1.1685311e-05 8.5404844e-07 8.285016e-07
-4.026379e-07 -3.90059e-07 3.1435942e-08 3.036126e-08 1.2827496e-06 1.2410623e-06 0.000116118325 0.0001133895
7.173148e-05 7.0139526e-05 5.045476e-07 4.8986766e-07 6.8619236e-05 6.6653294e-05 2.1125916e-06 2.0505129e-06
8.903471e-06 8.667881e-06 8.0043565e-06 7.7704735e-06 0.0013239983 0.0012927722 7.5573145e-05 7.360901e-05
1.3530932e-09 2.0774096e-09 2.4602417e-07 2.3671332e-07 3.0503503e-05 2.9769704e-05 3.4589964e-05 3.3590113e-05
0.0025793784 0.0025258386 1.328645e-05 1.2946039e-05 4.723307e-05 4.5808512e-05 2.7562042e-05 4.5424527e-05
0.00038584415 0.00037603828 -9.356976e-07 -9.046003e-07 9.113566e-07 8.835124e-07 2.1236346e-08 2.0543485e-08
5.405073e-09 5.0666227e-09 8.1338685e-06 7.9107685e-06 -5.255975e-05 -5.0287683e-05 0.0006081293 0.0005924567
8.8107634e-05 8.631237e-05 4.6592183e-09 4.3834483e-09 1.8648471e-07 1.8022688e-07 4.0475297e-06 3.9356883e-06
0.0002621415 0.00025545055 1.1437281e-09 5.3050153e-10 -3.0118914e-11 -3.5099663e-11 2.3584583e-07 2.2869102e-07
0.00014045868 0.00013722354 1.7751107e-08 1.6990692e-08 -3.1684664e-05 -3.087501e-05 6.703503e-07 6.511922e-07
-1.3794988e-05 -1.345166e-05 -4.1950668e-07 -2.3573419e-07 1.4691236e-08 1.4257058e-08 0.00035276925 0.00034617455
9.197249e-05 8.969481e-05 -5.8662795e-07 7.2125886e-07 2.5948707e-06 2.516703e-06 9.424332e-06 9.157683e-06
8.415118e-05 8.2021295e-05 0.00047396286 0.0004641918 -6.244545e-10 -5.696923e-10 -3.2747637e-05 -3.1765056e-05
0.000362987 0.0003535135 1.2163303e-09 1.3009784e-09 7.234078e-06 7.03459e-06 1.1288112e-08 1.0680647e-08
